torch-rl/storage/LineCorridor25x25_5M_r4/status.pt (torch, 649941 bytes, 51 tensors)

image_conv.0.weight f4 [16, 3, 2, 2]
000000 c9 e1 38 3e 00 6d 17 be 10 9c 32 bd b8 97 0c 3e
       0.1805488 -0.14787674 -0.043605864 0.13729751
000010 fc e0 5b be 4c 6d 10 3e 6f 98 26 bd f8 a3 1b 3e
       -0.21472543 0.14104193 -0.040672716 0.15199268
000020 23 60 24 3d 94 c7 10 bd 45 fa a3 3d 7e 52 69 3c
       0.040130746 -0.035346583 0.080067195 0.014240859
000030 8b d5 7c 3d dc b8 b1 bd 7b 07 65 bd b3 a7 2e bd
       0.061727088 -0.08677837 -0.055915337 -0.0426404
000040 bf 8d 4d 3d 67 27 63 3d 37 19 50 3e 6c 3c 75 3d
       0.050184008 0.0554575 0.20322119 0.059872076
000050 47 2b dc bd 72 88 32 be e4 30 46 bd f1 02 ff bd
       -0.10750442 -0.17434862 -0.04838647 -0.12451733
000060 bc 95 ba bd dd c9 03 bd a2 e9 0f 3e 00 e9 08 3e
       -0.09110591 -0.032174934 0.14053968 0.13370132
000070 4f e2 99 be 01 d9 e8 3d 24 07 4d 3d 18 58 75 3e
       -0.30055472 0.11369515 0.050055638 0.23959386
000080 aa 1d 43 3e ec aa 86 be f4 87 8c be 38 94 0e be
       0.19054285 -0.26302278 -0.27447474 -0.13923728
000090 7d 77 58 3e 52 31 81 bd 38 05 99 3d 6b 1e 2e be
       0.21139331 -0.06308235 0.074716985 -0.17003791
0000a0 11 6c 85 3e e9 02 c6 bd ef a6 1f 3e a2 bf 72 3b
       0.2605901 -0.09668524 0.15591024 0.0037040492
0000b0 9f ba 1b be cb f1 17 3e 86 e9 1c be 6d e0 ad 3d
       -0.15207909 0.1483833 -0.15323457 0.084900714
0000c0 69 1b aa bd e2 d7 4b bd 49 c3 8f be 9f b2 20 be
       -0.08306009 -0.04976643 -0.28078678 -0.15693139
0000d0 84 54 1c 3e 5b d9 df bd 16 33 8f 3e 3e 17 6d 3e
       0.15266615 -0.10930129 0.27968663 0.23153397
0000e0 a1 75 5d bc 6b 4f 45 be e1 02 34 3e 35 7c b7 3d
       -0.013516814 -0.19268577 0.17579223 0.089592375
0000f0 a8 6b 50 be 6c dd 2d 3e e6 43 44 3e 94 7d 5c 3e
       -0.20353568 0.16978997 0.19166526 0.21532279
000100 2a 8a 3f be ab 44 23 bd 64 fc 24 3c 3c 34 ac 3c
       -0.18705049 -0.03986041 0.01006994 0.021021001
000110 ba 56 60 be 49 c4 51 be 3f cf 20 3e 19 a2 8a bd
       -0.21908084 -0.20485033 0.15704058 -0.06769199
000120 85 11 e5 3d 0d c0 c7 bc b4 bf 82 3d ce 61 6f 3d
       0.11184982 -0.02438357 0.06384221 0.058442883
000130 2b 7d a0 3d ae 0a d6 3d 05 00 8f be 42 94 10 3e
       0.07836374 0.10451256 -0.27929702 0.14119056
000140 77 d8 4f be 0e 09 5f be c3 d0 8f 3c e1 7d 49 bd
       -0.20297419 -0.21780798 0.0175556 -0.049192313
000150 97 ab 35 3e a8 15 16 be 17 c0 83 be ab 67 6d 3e
       0.17741238 -0.14656699 -0.2573249 0.23184077
000160 32 01 27 bd 42 de 4a 3e 57 73 f0 3d 8e d8 51 be
       -0.040772624 0.19811347 0.11740749 -0.20492765
000170 79 8b 6d 3d 7e 01 8e 3d 7c ec 45 be 6e 41 0c be
       0.05799434 0.06933878 -0.19328493 -0.13696834
000180 a3 cd 7b 3d 6a 9e ae 3d 5d 66 41 be b1 47 d0 bd
       0.061475407 0.08526309 -0.18886705 -0.10169924
000190 f2 6f 63 3e a0 92 07 bd 8a ed c2 3d 90 25 14 3e
       0.22210672 -0.033098817 0.09517963 0.14467454
0001a0 82 14 3f be ca 63 7b be 87 df 8d 3e 9b f7 76 3c
       -0.18660167 -0.24549785 0.277096 0.015073682
0001b0 27 5c 42 3e c6 c0 cb bb 2e 0c 7b 3d be 6e 50 3e
       0.18980466 -0.0062180487 0.061290912 0.20354745
0001c0 f0 38 70 3e 1f 20 74 be 7e 87 29 3a 07 d9 56 3e
       0.2345922 -0.23840378 0.0006467028 0.20981227
0001d0 3b 25 56 3e e2 a3 37 3e 08 ef 55 be 7e dd 54 be
       0.2091264 0.1793361 -0.20891964 -0.20787618
0001e0 f7 70 14 be 20 63 8a 3d 35 f5 a3 3e 8c 89 1e be
       -0.14496218 0.06757188 0.32023016 -0.15482157
0001f0 ec 27 21 3e 24 96 23 be 91 c3 85 be 4b 4f 7b bd
       0.15737885 -0.15975243 -0.26125768 -0.061354917
000200 6b 51 2a 3e 22 37 89 3e c5 94 37 be 69 4c 80 3d
       0.16632621 0.26799875 -0.17927845 0.06264574
000210 2f ae 7c 3e d3 70 4b 3e 2a f6 64 3e 5c d4 75 3e
       0.24675821 0.19867258 0.22359529 0.2400679
000220 91 48 30 3e 3a 3e 49 3d 91 6a 20 be 1b ae 60 be
       0.17215182 0.04913161 -0.15665652 -0.21941416
000230 98 73 07 be eb af 09 bd d3 30 35 be 8d 4b d8 3d
       -0.1322769 -0.033615034 -0.17694406 0.10561285
000240 0e f1 0c 3d 68 a3 cc bd 57 74 f5 3d 5b f9 a7 3d
       0.034409575 -0.09992105 0.11985081 0.08201858
000250 58 a9 0d 3e 64 f9 12 3e 4d 25 d7 bd e4 86 82 3e
       0.13834131 0.14352947 -0.105051614 0.25493538
000260 36 b2 08 bd f1 7d 22 bc ce 81 8b be 4e 41 3e be
       -0.03337308 -0.009917722 -0.2724747 -0.185796
000270 b3 ff 32 be be 34 e9 bd 70 48 57 3e 9b 7a aa bd
       -0.17480354 -0.11387013 0.21023726 -0.083241664
000280 3e 9f 2a be f8 66 06 3e 5d 2d 2a 3d c6 93 46 3e
       -0.16662309 0.13125217 0.041547168 0.19392309
000290 6c f7 18 be b6 2e 80 3d aa 3a d7 bd 45 d4 84 bd
       -0.14938134 0.062589094 -0.10509236 -0.064858
0002a0 6a 50 66 be f3 1f 13 be 9e a6 f9 bd 04 bf b0 3d
       -0.22491613 -0.14367656 -0.12189983 0.08630183
0002b0 d5 a4 e0 3d 42 28 bf 3d 74 aa 80 3e af 7f 54 3e
       0.10968939 0.093338504 0.25130045 0.20751832
0002c0 8b 9d 49 3e e2 9b 16 3c f0 7e 4c be 51 04 67 3e
       0.19689004 0.009192439 -0.19970298 0.2256024
0002d0 27 4c ca bd be 2b 09 bd 76 a9 7e be 28 6b 77 bd
       -0.09877806 -0.03348898 -0.24869332 -0.060404927
0002e0 22 bd 59 be c5 9e 82 3e 28 8e 7f be 03 80 6a be
       -0.21263555 0.25511757 -0.24956572 -0.22900395
0002f0 fa 99 20 bc 59 d6 1f be 68 8a d3 3d 12 92 e3 bd
       -0.009802336 -0.15609111 0.10329133 -0.11111845

image_conv.0.bias f4 [16]
000000 f3 6a 13 be 40 0a 46 b9 3e 67 44 3e 1a 50 6a be
       -0.14396267 -0.0001888657 0.19180009 -0.22882119
000010 2b 0f ef 3d e5 ed 3a 3e 85 89 82 3e 62 71 41 be
       0.11672815 0.18254812 0.25495544 -0.18890908
000020 c4 0b 5a 3d 3d 71 8b be 01 52 78 3e 5b fd af bd
       0.053233877 -0.2723483 0.24250032 -0.085932456
000030 76 9d 1c 3e f5 b7 79 3c 99 b7 15 bd 44 fb 94 bc
       0.15294442 0.015241613 -0.036552045 -0.018186219

image_conv.3.weight f4 [32, 16, 2, 2]
000000 96 fc 2b ba 86 6d a5 3d ba b5 bf bc c2 82 ab 3b
       -0.00065607706 0.080775306 -0.023402084 0.0052340934
000010 56 ec ca bd 4c 99 bb 3d b3 2e ed 3d fc 5c 8c 3d
       -0.09908359 0.091600984 0.11581173 0.06853673
000020 9d 68 9e 3d fb 2f a6 bd 2c 51 a1 bd ab 02 95 3d
       0.07734797 -0.0811462 -0.078768104 0.072758995
000030 29 b5 93 bd 79 50 ca 3d 55 b6 a7 bd af b4 f8 bd
       -0.07212288 0.0987863 -0.08189074 -0.12143838
000040 42 f1 98 3d ce 2c ae bd 5e 56 dc bc a8 a7 3a 3d
       0.07467891 -0.085046396 -0.026896652 0.045570046
000050 92 ad c3 3d 26 92 02 3e 38 e9 4a bd 82 91 08 be
       0.0955459 0.12751064 -0.04953882 -0.13336757
000060 5b 02 e8 3d ef f5 74 bd c3 f3 90 bd a5 cf 18 3d
       0.11328574 -0.059804853 -0.07077744 0.0373074
000070 c6 33 90 bd 1c 19 67 3d 38 fa cf 3d a0 b3 07 be
       -0.07041125 0.05642043 0.10155147 -0.13252115
000080 a3 6b aa bd 9d d7 77 bc 85 10 7c 3d 7e 80 fc bc
       -0.08321311 -0.01512709 0.06153919 -0.030822989
000090 78 77 ab bc 9e 44 47 3c 79 75 df bd 8b e6 14 be
       -0.02093099 0.012162356 -0.10911078 -0.1454107
0000a0 a7 fd bf bd c1 f6 ea 3d ef 4c bb 3d b8 b0 a1 bd
       -0.09374552 0.11472846 0.09145533 -0.078950346
0000b0 4c 1c 0d 3d e8 5c f5 3c ec e6 77 3d 77 27 ba bd
       0.034450814 0.029951528 0.06052296 -0.090895586
0000c0 c2 02 82 3d 5d 68 69 3d 2e 34 e9 bc 58 7e ff bc
       0.06348182 0.056984294 -0.028467264 -0.031188175
0000d0 5e 76 cc 3d 88 57 11 3e bd 28 c1 bd a7 e2 a2 3d
       0.09983514 0.14193547 -0.09431598 0.07953387
0000e0 23 4b e2 3c 51 e9 b2 bd 62 11 2e 3d 73 f7 01 be
       0.027623719 -0.08735908 0.042497046 -0.1269205
0000f0 07 80 cd 3d e7 a2 b7 bd 9d 3e 78 3d bf 8c 98 bc
       0.10034185 -0.08966618 0.060606588 -0.0186218
000100 c5 f4 84 3c f2 f7 bb 3d f7 8e 86 bd a3 0b 82 bd
       0.016229996 0.09178151 -0.06570237 -0.06349876
000110 28 a2 f8 bd 6b c2 8f bc 37 6a 7f bd e8 5e ec bb
       -0.12140304 -0.01754876 -0.062357154 -0.007213462
000120 16 72 27 bd c3 b1 ec 3c 82 81 c0 3d 07 1a cd 3c
       -0.040880285 0.028893357 0.09399702 0.025036825
000130 90 ef 24 bd 3f 2d 95 bd 48 76 e0 bd fd 8d bf 3d
       -0.040267527 -0.07284021 -0.1096006 0.09353254
000140 79 97 1c bd a9 c8 40 3c a3 83 bf bb d2 dc bc bd
       -0.038230393 0.011766591 -0.0058445497 -0.09221806
000150 67 57 65 3d e5 9a 65 3d 24 b7 ee bb 9c b1 ab bd
       0.055991556 0.056055922 -0.0072850157 -0.08383486
000160 20 48 8b bd 2c 72 2f bc ee 2d af bd 88 b0 a8 bd
       -0.06800866 -0.010708373 -0.08553682 -0.08236796
000170 40 bf 98 bc e9 94 70 bd e8 9b 9e 3c 3d 62 50 bd
       -0.018645883 -0.05873576 0.019361451 -0.050874937
000180 2b d3 f2 bc 6d 98 78 bd b8 d5 f9 bd e9 9f c4 3d
       -0.029641708 -0.06069224 -0.12198967 0.09600813
000190 74 45 34 3c 2c 33 c7 3d 41 96 c8 bc cf bc 37 bd
       0.011002887 0.09726557 -0.02448571 -0.044857796
0001a0 62 76 04 be 4f d3 88 bd 8f 4b 8f 3d d0 46 fd bd
       -0.12935784 -0.06680929 0.069968335 -0.12367022
0001b0 3f 68 35 bd 5d d5 76 3d a0 76 82 3d fc fa f9 3c
       -0.04428887 0.060262073 0.06370282 0.030515186
0001c0 8c 03 24 bd d6 58 b5 bc 71 57 1c bd 15 64 70 bd
       -0.040042445 -0.022137087 -0.038169328 -0.058689196
0001d0 b6 30 1d 3d 2d 4b 69 bd 06 80 a7 bd b7 78 83 3c
       0.038376532 -0.05695646 -0.081787154 0.016048772
0001e0 5b 93 d5 bd bb c1 29 bd 24 88 59 3d 72 87 0a 3d
       -0.104284965 -0.04144452 0.05310835 0.033820577
0001f0 a3 30 cc 3d c1 02 bf bd 7a be 87 bc 80 7e 4f bd
       0.09970214 -0.09326697 -0.016570318 -0.05065775
000200 bf 2a 26 bd 4e 38 9f 3c d3 3b d0 3b 63 b2 ed 3c
       -0.04056811 0.019436028 0.006354788 0.029015725
000210 3b 2a 3d bc 9a 9c fb bc ef 65 ef bd 15 1a d6 3d
       -0.011545713 -0.030714322 -0.11689364 0.104541935
000220 fb 31 1b 3c 6e 1d 1f 3d df ae 88 bd 3a a9 38 bd
       0.0094723655 0.038846426 -0.06673979 -0.045083262
000230 af a8 69 bd b9 89 90 bc 72 a4 cc 3d ab 09 eb 3c
       -0.057045635 -0.017643796 0.09992303 0.028691133
000240 c0 9b 0e 3c 52 ff 5f 3b 3c 00 8a 3d 15 f4 88 3d
       0.008704126 0.0034179282 0.06738326 0.0668718
000250 1b 4c 0c 3e 56 d3 a6 3d da 45 27 3d e1 05 28 bc
       0.13700907 0.08145778 0.0408381 -0.010255308
000260 1e 6e 4d bd 3c a9 e2 bd 5e 8e 8f 3d d8 f0 09 3d
       -0.050153844 -0.11067435 0.07009576 0.033676952
000270 50 36 80 3d ec 09 02 3c 1f 42 b2 bd 91 55 b1 bd
       0.06260359 0.007936936 -0.08704018 -0.086588986
000280 7b 51 94 3d 65 f1 9d 3c 28 54 f1 bd 5f 13 64 3d
       0.07242104 0.019280145 -0.1178363 0.055682536
000290 bb 9c 5c 3d fb 08 00 3c fb ac 34 3d 38 1e 34 3c
       0.053860407 0.007814641 0.04411028 0.010993533
0002a0 9a c5 84 bd 37 08 13 3e 1b 72 ce 3d dd 0a c2 3c
       -0.06483002 0.14358602 0.10080358 0.02368682
0002b0 4c 38 17 bb 76 d8 b8 bd 7f d1 db 3d 63 f7 fc bc
       -0.0023074327 -0.09025662 0.107333176 -0.030879682
0002c0 f9 b0 65 bd 0b 3a d9 3d e3 86 08 3d 03 7a 89 3d
       -0.056076977 0.10606774 0.033331763 0.06712725
0002d0 44 44 5d bb bf 9a 7d 3d 8f 24 e7 bb 8b c7 bb 3d
       -0.0033762613 0.061915156 -0.0070539187 0.09168919
0002e0 3c a0 50 3d c1 b5 40 bc 9b c6 b7 3d 9d e4 ae 3a
       0.05093406 -0.0117620835 0.08973428 0.0013343279
0002f0 2c 63 b1 3d cc 83 f6 3c 04 11 0e 3e 15 91 b7 3c
       0.08661494 0.030092143 0.13873678 0.022408048
000300 eb f1 8a bd 4c 2d 08 3e d8 5c 72 bc d5 76 de bd
       -0.067844234 0.1329853 -0.0147926435 -0.10862509
000310 59 40 14 bd b2 87 ec bd a1 71 b4 bd 9c 1d db bd
       -0.03619418 -0.11549319 -0.088107355 -0.10699007
000320 89 9e 8e 3d e8 62 fb bc 8d 53 42 bd 8d ff 2a 3d
       0.06963832 -0.03068681 -0.04744296 0.04174762
000330 ec d8 09 3d df e0 bb bd a7 5b c4 3c 6b bf 19 3d
       0.03365414 -0.0917375 0.023969484 0.037536066
000340 73 e2 de bd 4c 02 03 3e d2 6e cb bd 99 91 87 bd
       -0.108830355 0.12793845 -0.09933247 -0.066195674
000350 60 91 f2 bd 28 84 d2 3d 46 4f 56 ba 5c 0b b0 3d
       -0.11844134 0.10279113 -0.0008175265 0.08595917
000360 ea a3 6d bc 3d 38 4e 3d f2 80 78 bd 69 3d e5 bd
       -0.014504412 0.0503466 -0.060669847 -0.11193354
000370 c7 e9 bf 3c f9 a3 df bb 81 cc 92 bc b2 69 70 bd
       0.023426903 -0.006824967 -0.01791978 -0.05869455
000380 1c 3a 5d bc ca 6f d5 3c 05 3e bb 3c 3a 81 ea bd
       -0.013502624 0.026054282 0.022856722 -0.11450429
000390 0a 2b 3c 3d c2 29 d9 3b 7f e7 81 3d 8c 54 91 3d
       0.045939483 0.0066272924 0.063429825 0.07096204
0003a0 61 eb b1 bd 7f c0 ef 3d 82 e5 0d be a7 85 76 3d
       -0.08687473 0.117066376 -0.13857082 0.060186055
0003b0 4f a8 70 bc e4 86 22 3d a5 a3 b8 bd 11 56 6d 3d
       -0.014688565 0.039679423 -0.09015588 0.057943407
0003c0 96 8e b0 bd 33 66 04 be d9 e4 91 3c 01 e3 53 3d
       -0.08620946 -0.12929611 0.017809318 0.05173016
0003d0 ca 8a fa 3d 44 9e 4d 3c ef 7c c8 3d 49 3e 8c 3d
       0.12233503 0.0125499405 0.09789454 0.068478175
0003e0 ad 31 93 bd 5e 98 9e bd b0 4c 3b 3d 13 42 b2 bd
       -0.07187209 -0.077439055 0.04572743 -0.08704009
0003f0 56 13 8a 3d b7 94 cc bd 48 12 cf 3d 68 79 36 3d
       0.06741969 -0.099893026 0.10110909 0.044549376

image_conv.3.bias f4 [32]
000000 40 19 7e bc 3f d3 57 bd c1 2d 6b 3d 10 2a bf bd
       -0.01550895 -0.052691694 0.05741668 -0.09334195
000010 84 a2 b0 bd 03 06 0a bd 6e d8 cf bd 34 cc 34 bc
       -0.086247474 -0.03369714 -0.101487026 -0.011035014
000020 4a 77 b6 3c 64 47 0d 3e 75 4d e3 3c 54 64 50 bc
       0.022273678 0.13796765 0.027746895 -0.012719233
000030 0b a5 c4 bd d3 52 74 bd 50 34 22 bd eb cf b0 bd
       -0.09601792 -0.0596493 -0.03960067 -0.08633407
000040 c2 00 83 3c ff fd b5 3d ae 6a 50 3d 40 aa 8a bd
       0.015991572 0.088863365 0.050882988 -0.06770754
000050 50 f4 2a bd 44 cf e9 3d e8 fd d2 bc d6 ea e5 bd
       -0.0417369 0.11416486 -0.025755838 -0.11226432
000060 c2 0e a8 bc 9e 1f 13 bb 2c 40 67 bd 21 9e 8d bc
       -0.02051485 -0.0022449265 -0.056457683 -0.017287316
000070 a6 f9 ec bd f4 03 0a 3c f4 21 d5 bd 4e 37 0c 3d
       -0.11571054 0.008423794 -0.10406867 0.03423243

image_conv.5.weight f4 [64, 32, 2, 2]
000000 d9 65 33 3d 96 27 bd bd 53 da 12 bd 0d 71 bb bc
       0.0437983 -0.09236066 -0.03585274 -0.022881055
000010 11 1c 04 bb e1 44 54 3d b1 7f c7 bb 09 d0 74 3c
       -0.002015833 0.0518235 -0.00608822 0.014942178
000020 b9 5e d5 bc 6e 91 3b 3c f3 88 b1 3b 41 a0 b6 bd
       -0.026046144 0.011448247 0.005417937 -0.08917285
000030 5c cd 9f 3d 25 40 d8 bb f9 66 b0 3d fc a0 a1 bd
       0.07802841 -0.0065994435 0.086133905 -0.078920335
000040 63 c2 0f bc 69 96 23 3d c6 a6 79 3d 4a 9a 96 3a
       -0.008774373 0.039938364 0.060950063 0.0011490074
000050 1b a6 43 bd 63 ed 8b bd b4 13 89 bd 0d c0 91 3d
       -0.047765832 -0.06832387 -0.06693211 0.07116709
000060 a6 fe 90 bd 24 ee 09 bd 9f af 11 3d 23 3b 4c 3d
       -0.0707982 -0.033674374 0.035567876 0.049861085
000070 4e 58 9e bd 81 8e 8f 3c 58 13 2f 3c dc 23 a6 3d
       -0.077316865 0.017524006 0.010685764 0.081123084
000080 22 07 96 bb aa 31 1d 3d c3 c0 c5 bc b7 67 7d 3d
       -0.004578487 0.03837744 -0.024139768 0.06186649
000090 db a4 a4 bc 43 ab 53 bd d9 e9 b5 3c 8b 76 00 bd
       -0.02009814 -0.051677 0.022206234 -0.03136305
0000a0 45 0f b5 3c 88 a8 7b 3d 9a cb 8c bd da b2 83 bd
       0.022102008 0.06144002 -0.068747714 -0.064305976
0000b0 84 32 7a bc 49 28 82 bc b5 f8 97 bc 9f 75 9e 3d
       -0.015270833 -0.01588835 -0.01855121 0.07737278
0000c0 51 cf 82 3d 2f 12 f0 bc c0 ca 4f 3d 5a cb 7b bc
       0.06387199 -0.029305546 0.050730467 -0.015368307
0000d0 a9 47 7d bd 67 20 14 3d 7a 51 81 bd 3f 40 2f 3c
       -0.06183592 0.036163714 -0.063143685 0.01069647
0000e0 60 90 86 3d 79 19 aa bd 1c 7a 07 3c ae 8c a0 3d
       0.06570506 -0.0830564 0.008268859 0.078393325
0000f0 e6 3d cd 3c b2 57 4f bd a2 0b 88 3b 61 6d ba bd
       0.02505393 -0.050620742 0.0041517774 -0.091028936
000100 cc 77 d6 3c b3 51 9b 3d 80 1b 83 3d fc b1 ce ba
       0.02618017 0.07583942 0.064017296 -0.0015769596
000110 55 91 ce 3c d6 57 70 bc 1a ee 11 bd 5d d3 de 3a
       0.025215784 -0.014669379 -0.035627462 0.0017000247
000120 73 a0 66 bd 5c 13 f7 3c fe f0 2a 3d fd 07 af bc
       -0.05630536 0.030160598 0.041733734 -0.021366114
000130 ce b0 7f bb 5a 17 84 bd 13 10 94 3c c3 f0 0e 3d
       -0.0039015296 -0.064497665 0.018074071 0.034897577
000140 c8 44 96 3d 41 ab b3 bd bb 4c 9e bd 6f 0b 20 3c
       0.07337338 -0.087728985 -0.07729479 0.009768351
000150 4a 1e 94 3d 3a ff 8d 3c d0 03 32 3b 68 9d f1 bb
       0.0723234 0.017333616 0.0027162917 -0.0073735006
000160 1e 43 92 bc bd af 75 3d d8 30 76 3d 4c 18 4d bd
       -0.01785427 0.05998205 0.060105175 -0.050072
000170 d2 d0 58 bd b8 c1 8c bd b1 17 b0 bc 60 7e 02 bb
       -0.05293352 -0.068728864 -0.021495672 -0.001991175
000180 aa ef 69 3d a8 cf f3 bd 39 67 88 3d 53 98 78 bd
       0.057113327 -0.11904842 0.06660313 -0.060692143
000190 08 77 91 bc cd 53 17 bd ba e7 12 3d 94 26 c8 bd
       -0.017756954 -0.036945153 0.035865523 -0.09772983
0001a0 da d2 7c bd 3f da 04 3b 92 62 30 3d 80 2d 2e bd
       -0.06172452 0.0020271686 0.043062754 -0.04252386
0001b0 78 7d 0a 3d 73 b5 a1 bc 45 e0 86 bd e7 d9 22 bb
       0.033811063 -0.019739842 -0.06585745 -0.0024849118
0001c0 4c 40 c4 bc ec 39 44 3d ca 36 90 3d 44 08 5c 3d
       -0.02395644 0.0479068 0.070417 0.05371882
0001d0 cf 14 7f 3d da 1f 51 bd 38 b9 a2 bd 2d 90 35 3c
       0.062275704 -0.051055767 -0.07945484 0.0110817375
0001e0 34 b9 4c 3c de cf 8d bd ce 77 58 3d f6 e4 03 bd
       0.012495328 -0.06924413 0.05284863 -0.032200776
0001f0 f1 f1 3c bd 4c b7 46 3d d8 ef 62 3d f8 b3 a6 3a
       -0.04612917 0.04851465 0.055404514 0.001271843
000200 47 f9 12 bd 9c 9e 14 3b 48 32 95 bd b6 22 41 3d
       -0.03588226 0.0022677546 -0.07284981 0.047152244
000210 41 47 63 3d f4 b9 96 bc a3 82 8f bd 1c 97 82 3d
       0.055487875 -0.018399216 -0.07007339 0.06376478
000220 f9 e1 a6 bd 57 1d 3e bd 9e 5e 32 3d 85 ed 33 bd
       -0.081485696 -0.0464147 0.043547265 -0.04392769
000230 63 e7 89 3c 49 cb 94 3d ef 11 37 bc 88 c9 a3 bc
       0.016833967 0.07265336 -0.011173709 -0.019993559
000240 3a cc a7 3d 1a 61 77 3c 15 8f fc 3c f9 ee ed bc
       0.0819325 0.015098834 0.030829946 -0.029044615
000250 5a 2b 9c bd d9 b4 62 3c fc 04 56 bd ad 3d 3b bd
       -0.07625456 0.013837063 -0.052250847 -0.045713115
000260 f8 1a 9d bd 83 1d 8d 3d ce 1d 82 bd 52 9d 99 3c
       -0.076711595 0.068903945 -0.06353341 0.018751774
000270 44 d8 2c 3c a0 0d 7a 3d 9d 6f 26 3d 02 78 7d bd
       0.010549609 0.06104815 0.040633786 -0.061882026
000280 36 b8 06 3d 24 bc 54 bd d2 a4 47 bb af fb 1f bd
       0.03289052 -0.051937237 -0.003046323 -0.039058384
000290 09 7c a8 bd 1a 02 cc 3c 99 4a 86 bd 37 f4 ad 3d
       -0.08226783 0.024903346 -0.06557197 0.08493846
0002a0 f7 e7 11 3d b4 75 fa bc 79 01 54 bd 59 d8 a6 bd
       0.03562161 -0.030573703 -0.051759217 -0.08146734
0002b0 28 88 36 bd a8 57 73 bd e9 b8 1b 3c 67 05 9f 3c
       -0.044563442 -0.059409767 0.009504535 0.019411756
0002c0 4f fb 9c 3d c3 a3 22 3c b3 15 93 bc c5 6a 29 bd
       0.07665121 0.009926739 -0.017954683 -0.04136159
0002d0 b3 b5 4b bc 59 0d 1f 3d ac 8a ae bd 02 e6 b5 bd
       -0.012433457 0.03883109 -0.08522543 -0.08881761
0002e0 29 aa 11 3d b4 30 05 bd 4e a8 d0 bc 81 cb 7e bd
       0.035562668 -0.03251715 -0.025470879 -0.062205795
0002f0 5d ef 87 bd 3b ca 99 bd f3 27 7b bd b3 bc b7 bd
       -0.06637452 -0.075092755 -0.061317395 -0.089715384
000300 6c 50 4a bd b1 3a 91 3d 6a 80 68 bd 6b 97 89 3d
       -0.049393103 0.070912726 -0.05676309 0.06718334
000310 80 45 a3 bd a0 bb 94 3b e6 f9 4e bc 70 64 94 bd
       -0.079722404 0.004538968 -0.012632823 -0.072457194
000320 33 cd 52 bb 0b 51 88 3d 5b 8d 39 bd 75 c7 97 3d
       -0.0032165765 0.06656083 -0.045300823 0.0741109
000330 03 54 18 bc 20 f4 e4 bc a3 b6 32 3d 6f 82 8d 3d
       -0.009297374 -0.02794844 0.043631207 0.06909644
000340 97 99 8e 3d 90 08 39 3d 41 6f af bd ec 07 ce bc
       0.06962889 0.04517418 -0.08566142 -0.025150262
000350 75 f2 6e 3b 83 52 2c bd e4 b9 10 3d b5 0e ae bc
       0.0036460434 -0.042070877 0.03533353 -0.021247247
000360 6a f3 9b bd f3 27 35 bd fe 82 69 bd ab 3b eb 3c
       -0.07614787 -0.04422755 -0.05700969 0.028714975
000370 c6 b9 83 bd a9 85 b6 bc 8b f4 14 3c 95 1c 1c 3d
       -0.06431918 -0.022280531 0.009091507 0.038113195
000380 45 84 95 bd e6 7a 5c 3d 4f ec 7c bd 10 5b 99 bd
       -0.07300619 0.053828143 -0.0617488 -0.07488072
000390 43 6d 00 3d bd db 59 bd fc 1d 73 3d c6 9f 16 3d
       0.0313542 -0.053188074 0.059354767 0.036773466
0003a0 4b b9 2f bd 70 f2 9e bc 6c 80 25 bd 47 81 09 bc
       -0.04290132 -0.019402713 -0.040405676 -0.0083926385
0003b0 a0 69 5f b9 7b 42 33 ba d1 95 6c bd 8f f6 93 bd
       -0.00021306286 -0.00068382145 -0.057760064 -0.07224762
0003c0 2b 87 67 bd 65 7e 74 3c d7 7d 14 3c fd 3f 36 bd
       -0.05652539 0.014922713 0.009063206 -0.044494618
0003d0 2d b6 6a bc 03 15 2c bc 97 87 81 3d 4b a0 b3 bd
       -0.014325661 -0.010503056 0.0632469 -0.08770808
0003e0 ca 45 21 bd b6 c6 a7 bc c9 d8 6d bc fd a9 5f bd
       -0.039373197 -0.020480495 -0.014517018 -0.054605473
0003f0 ca f4 15 3d ef 15 08 bd 1d 36 de 3a fc f4 4d bd
       0.036610402 -0.033224043 0.0016953383 -0.050282463

image_conv.5.bias f4 [64]
000000 57 d1 e1 ba 27 67 af bc d6 69 23 bd 0c 53 38 bc
       -0.0017228526 -0.021411492 -0.039895855 -0.011250269
000010 e8 70 3c bc a2 01 81 bc bf d1 86 3b d9 99 2b bd
       -0.011501528 -0.015747849 0.004114359 -0.041894767
000020 fb 03 e3 3c 7f 2d e3 bc 39 f6 75 3b ff 93 41 3d
       0.027711859 -0.027731655 0.0037530793 0.04726028
000030 1a 6b 81 bd 2f c3 9f bd 5f 90 6a 3c 32 fe 05 bd
       -0.06319256 -0.078009 0.014316647 -0.032713123
000040 df 6a 98 bd 46 58 c0 3c a1 0e 25 3d d0 70 a3 3b
       -0.07442259 0.023479592 0.040297154 0.0049878135
000050 d4 2f be bc 5b 87 88 3a a7 4f 48 bd f3 08 0a bd
       -0.023216166 0.0010416316 -0.048904087 -0.03369994
000060 0e 49 cf bb 94 1f 8c 3c 7a 28 1b 3d fc 59 4f 3c
       -0.0063258475 0.017104901 0.0378804 0.012655731
000070 2b a2 02 3d 38 70 d7 bd c2 95 11 3d 27 34 fb b8
       0.031892937 -0.10519451 0.03554321 -0.00011978327
000080 b7 d7 99 bd 76 cd da bd 60 46 15 3d d9 c1 77 bd
       -0.075118475 -0.1068372 0.036444068 -0.060487602
000090 16 f8 c3 bd ca 1e ae bd 5f 74 1d 3c 22 79 0e 3d
       -0.09568803 -0.08501966 0.009610265 0.03478349
0000a0 e3 7d 61 bc a7 8a 93 3b 9f c6 33 bc 7d 29 8b 39
       -0.013762924 0.0045026126 -0.010972648 0.00026543057
0000b0 c4 37 21 bc c7 96 74 3d f4 7f f0 3c 24 3e 80 bd
       -0.009839956 0.059714105 0.029357888 -0.062618524
0000c0 31 7e 81 3c 05 6e 6c bd 1a d9 47 bd 89 8f 3a bd
       0.015807243 -0.05772211 -0.04879103 -0.045547042
0000d0 14 46 5d 3d a4 82 4b 3c 30 ed ab bd 72 1b 86 3d
       0.05402191 0.012421284 -0.08394849 0.065482035
0000e0 c6 87 a7 bd d3 c3 02 3d 82 71 13 3c ff d6 3d bd
       -0.081801936 0.031925034 0.00899923 -0.046347614
0000f0 af 33 d4 bc 8f 0a 92 bd ba 11 8e 3d b2 6d 69 bd
       -0.02590355 -0.0713092 0.06936975 -0.05698938

memory_rnn.weight_ih f4 [256, 64]
000000 a4 65 14 bd f4 3d cf bd 1b b1 aa 3d 6f 0f c2 3d
       -0.036229745 -0.101192385 0.083345614 0.094756
000010 90 c8 df 3c 32 c2 ab bc 04 28 11 3d d2 52 07 bd
       0.027317315 -0.020966623 0.035438552 -0.033037968
000020 f7 c7 f2 3d 84 68 1d bd 97 d6 32 3d 62 de c3 3d
       0.118545465 -0.038429752 0.04366168 0.095639005
000030 47 b3 0f bd 6a a8 c1 3d ba 77 94 3d b6 38 53 38
       -0.03508308 0.094559506 0.072493985 5.0359136e-05
000040 e2 10 32 bd 3f 81 a5 3d 34 30 65 3d c8 b2 fa 3b
       -0.043473132 0.08081292 0.055954173 0.007650707
000050 aa 8e 36 bd b1 3a f7 bd e9 a2 fd bd 07 7f 9b bb
       -0.04456965 -0.12071741 -0.12384588 -0.0047453674
000060 b2 70 fc bd 59 2a ee bd 0a 5d 19 bd b2 76 8e bc
       -0.123261824 -0.11629171 -0.037442245 -0.017390583
000070 e3 1b be 3d 28 d6 a7 bd 10 0a 03 be 63 b1 1d bc
       0.09282663 -0.08195144 -0.12796807 -0.009624812
000080 be d1 ec bd c6 86 a5 bc c9 03 ad 3d a2 6f d0 bd
       -0.11563443 -0.020205867 0.084479876 -0.10177542
000090 41 a0 e6 3c 89 f7 0f bd 25 aa fc 3d 3b 4e 3d bc
       0.028152587 -0.035148177 0.1233714 -0.011554296
0000a0 66 e1 ce bc 2e cb e7 bc f0 76 88 bd 2b 86 89 3d
       -0.025253963 -0.028295126 -0.066633105 0.06715044
0000b0 73 bf 9f bd 45 db e5 3d ba 68 a1 3d cf dd e1 bd
       -0.07800188 0.11223463 0.07881303 -0.11028635
0000c0 84 5a c8 3d e0 fc 11 3a 5b 24 a0 3d 34 74 4d bd
       0.097828895 0.00055689923 0.07819434 -0.050159648
0000d0 d9 8b 2e 3c 7b 2d 8c 3b ac 86 22 3c 7e 83 05 bd
       0.0106534595 0.0042778826 0.009919804 -0.032596104
0000e0 94 9c 44 3c d4 3c b6 bd 0b 93 b9 3d 80 2f 45 3d
       0.012000222 -0.08898321 0.09061249 0.048141003
0000f0 1a ff 70 bd 34 a1 06 bc b6 03 d5 bd 87 6d 22 bd
       -0.058837034 -0.008217145 -0.104010984 -0.039655235
000100 fe 0d 5d bc 60 2f f7 3d fc 08 0d be 6b 17 42 bd
       -0.0134921055 0.12069583 -0.13772959 -0.047385614
000110 e2 46 ae bd 1c 08 b1 3d e3 17 ef bd 40 2c 2a 3d
       -0.085096136 0.08644125 -0.11674478 0.041546106
000120 e4 eb a9 3c a2 81 8c 3d 73 d9 af 3c 4a 9f 36 bb
       0.020742364 0.06860663 0.021465993 -0.002786594
000130 e7 65 db 3d e5 d5 d9 bc aa ce bb 3d 8d ee 6c 3d
       0.10712796 -0.02659125 0.091702774 0.057844687
000140 e2 71 09 bd f9 f6 28 bd e0 e3 59 3d 3d 8f 8c bd
       -0.033555873 -0.041251156 0.053195834 -0.06863258
000150 9e d5 29 3c 26 eb f3 bd fc c3 3b 3d de 7a b9 bd
       0.010365872 -0.119100854 0.045841202 -0.09056638
000160 57 64 bc 3c 12 52 e5 bd 57 1b 04 3c 8c 14 08 bd
       0.022997065 -0.11197294 0.008063159 -0.03322272
000170 02 a5 7f bd 03 b0 8b bc 1d 6a ab 3b 53 85 02 bd
       -0.062413223 -0.017051702 0.0052311555 -0.03186543
000180 76 cf be 3d 5c f4 f1 bd 0d dd 8a 3d ba e2 c4 bd
       0.09316914 -0.11814186 0.06780443 -0.09613557
000190 99 c2 9e bd 82 9a c2 bc 82 b8 96 bd de 5b 53 3d
       -0.0775196 -0.023755316 -0.07359411 0.051601283
0001a0 9d bc 11 3e ab 6a 29 bd f7 38 fd bc 61 7a bd 3b
       0.14232107 -0.041361492 -0.030910952 0.005782411
0001b0 99 bf a2 3d f0 d7 f0 3d 2c 37 9f 3c 1f 37 ba 3c
       0.079467006 0.11759937 0.019435488 0.022731362
0001c0 2a 7a f4 3d 99 cd 99 bd cf 97 7c 3d 5b 5b 89 bd
       0.119373634 -0.07509918 0.061668213 -0.06706878
0001d0 b7 b2 aa 3c 3f 91 f7 bd 4d f4 f4 bc db 72 d6 3d
       0.020837171 -0.1208825 -0.029901648 0.10471126
0001e0 e4 6a d4 3d 1e 21 51 bd 04 88 90 bd 57 39 ba bc
       0.1037195 -0.051056974 -0.07057193 -0.02273242
0001f0 3b 00 a7 3d 8e 38 be 3c d5 3e 55 bd 7b 39 70 bd
       0.08154341 0.023220327 -0.052061874 -0.058648568
000200 99 2f 44 3d 87 d4 a5 bd 2c 64 56 bd ef e1 a5 bc
       0.047896955 -0.08097177 -0.052341625 -0.020249335
000210 33 58 fe 3d 62 a4 c4 3d 49 ca ac 3d 0d 99 a3 bd
       0.124191664 0.09601666 0.0843702 -0.079881765
000220 8c 18 fe 3c 1c 00 0d bc 9d c2 6e 3d 59 39 91 3d
       0.031017564 -0.008605983 0.058291066 0.07091016
000230 88 c0 ce bd ed be f5 bd b3 98 77 3c 00 5c 02 be
       -0.10095316 -0.11999307 0.01511209 -0.12730408
000240 5a 57 b9 3d ed 3e d4 bd 6d bc 8e bd 96 6d 77 bb
       0.09049864 -0.10363565 -0.06969533 -0.0037754527
000250 ef bd 60 3d ad 65 b7 3d 62 9f a5 3b 5a cd 99 3d
       0.054868635 0.0895494 0.0050544003 0.07509871
000260 c1 13 40 3d 6e cc e3 3d 6d 70 1c bd d9 d7 1b bd
       0.04689384 0.11122976 -0.038193155 -0.038047645
000270 6b 70 2f bd 4e 0b 2f bd 4d 7d f7 bd 04 3a b8 3c
       -0.04283182 -0.04273539 -0.12084446 0.022488602
000280 ca 69 b6 3d 2c 2a 5a 3d 88 b6 a7 bd 22 6e e1 3d
       0.089068964 0.053262874 -0.08189112 0.11007334
000290 32 e0 6d bc 99 c7 e5 bb 53 d0 d0 bd d3 1f 79 bd
       -0.014518784 -0.0070123193 -0.10195985 -0.060821366
0002a0 75 77 1e 3d f0 7c 77 3c c5 2e b1 bd b3 99 f4 3d
       0.03868814 0.015105471 -0.08651499 0.11943378
0002b0 f2 bb 53 3d 5b 10 8d 3d ce c5 ad bd 31 02 70 bd
       0.05169291 0.06887885 -0.08484994 -0.05859584
0002c0 48 9d 1c 3d 84 7c eb bd f6 f3 4d 3d dc be 05 bd
       0.038235933 -0.11498359 0.050281487 -0.03265272
0002d0 ec 1e 97 3d 52 a5 c4 3d d7 af c6 3c 66 e3 80 3d
       0.07378945 0.09601845 0.024253769 0.06293373
0002e0 d5 e3 be 3b 8a 6c d1 3d 32 b1 c7 bc e1 26 ab bd
       0.0058254995 0.1022578 -0.024376485 -0.08357025
0002f0 62 a8 8f bc f5 2b 04 be 26 47 8d bd 3c 44 bc 3c
       -0.017536346 -0.12907393 -0.06898336 0.022981755
000300 7c 15 b8 3d ac b7 cc 3d 95 7f c1 3d aa 62 cc 3d
       0.08988473 0.0999597 0.094481625 0.09979756
000310 77 5e f4 3d 28 74 9a bd ec 9b 1e bd ef 77 69 3d
       0.1193208 -0.07541686 -0.038722917 0.056999143
000320 a5 a8 5e bd 74 f4 ae bc 36 06 df 3d e3 85 a6 bb
       -0.05436005 -0.021356799 0.108898565 -0.0050818785
000330 51 ec cc bc 17 36 54 3d 24 e2 e1 3d 48 58 50 bd
       -0.025015028 0.051809397 0.11029461 -0.05086544
000340 f4 85 95 bc f0 c8 e2 bd c8 4c 73 3c 69 5f 82 3c
       -0.01825235 -0.11073482 0.014849849 0.015914636
000350 bd 23 8a 3d d1 59 de bd ff bc f3 bd ed 8d d0 3d
       0.06745098 -0.10856975 -0.119012825 0.1018332
000360 d4 0f 66 bd 10 b9 70 3c 32 03 c3 3d 3f 06 df 3d
       -0.05616744 0.01469256 0.09522094 0.10889863
000370 f4 b8 07 ba ef 0d e6 bd 19 99 d2 bd e4 73 f3 bd
       -0.00051774015 -0.11233126 -0.10283107 -0.11887339
000380 95 f3 ba bb cc f7 c2 bd c7 9a d2 3d 3d a9 f0 bd
       -0.005705307 -0.0951992 0.10283428 -0.1175103
000390 16 c9 3a bd a9 47 46 3d 61 ad 97 bd 05 5c fa 3d
       -0.045601927 0.048408184 -0.07406116 0.122245826
0003a0 fc f4 87 3c 03 2a f9 3d e9 ca ad 3c 54 19 82 3d
       0.01659631 0.12166216 0.02121492 0.06352487
0003b0 f8 81 de bd 56 95 57 bd cd cd 3e 3d 8a ff 56 bd
       -0.10864633 -0.052632652 0.046582986 -0.052489795
0003c0 bd 66 4c 3d bf 5a 98 bd 6e 65 e5 3c 14 26 03 bc
       0.049902666 -0.074391834 0.028002467 -0.008004684
0003d0 54 e6 a2 bd 21 c3 60 bb 8f 68 b7 3d 9d 77 de bd
       -0.07954088 -0.0034295993 0.0895549 -0.10862658
0003e0 a9 b8 3e 3c e9 43 48 3d c6 f5 e7 3d 11 f6 f8 bd
       0.011640706 0.04889289 0.113261744 -0.121563084
0003f0 cb 66 82 3d 5c 40 fc 3d 13 7c 96 3d 68 f2 e8 bd
       0.063672625 0.12316963 0.07347884 -0.1137436

memory_rnn.weight_hh f4 [256, 64]
000000 50 32 b4 bd 91 b9 22 3d d1 aa fa 3d 31 79 9b 3d
       -0.08798659 0.03972775 0.12239612 0.07591475
000010 58 99 40 3c 0a 0e 01 3e 85 a4 a9 bd 9e e4 f2 3c
       0.01175531 0.12603012 -0.08283333 0.029650029
000020 2c df d7 bb 03 b5 ed bd 43 42 c0 3d c2 03 bb 3d
       -0.0065878835 -0.11606791 0.093876384 0.09131576
000030 a0 ac c0 bd b9 82 d0 3d 97 22 e8 bd 59 12 3e 3d
       -0.094079256 0.10181183 -0.113347225 0.046404216
000040 82 25 98 bc a5 6d 4a 3d 5f 27 ba 3d 61 05 e3 bd
       -0.018572573 0.04942097 0.09089541 -0.1108501
000050 15 f4 a9 3c 26 1c d1 bd 07 c1 03 3e bc 2e c7 3d
       0.02074627 -0.10210447 0.12866603 0.09725711
000060 b4 35 0f be 9d ae f8 bd 33 eb ce 3d 6c 54 e9 bc
       -0.1398533 -0.1214268 0.101034544 -0.028482638
000070 1a f2 b0 3d 92 a3 17 3d b7 52 3b 3d 7a fd ba 3c
       0.08639927 0.037021227 0.04573318 0.022825945
000080 cf d1 4a 3d 08 88 b3 3d ab ae c2 3d 52 29 cc bd
       0.049516495 0.0876618 0.095059715 -0.09968819
000090 0a fa 60 3c 37 fe e4 bd 33 ae 64 3c 9d 63 3a bd
       0.013731489 -0.111813 0.013957548 -0.045505155
0000a0 52 67 c1 bd f9 12 ac bc 98 c0 83 3c 84 54 0f bd
       -0.09443535 -0.02100514 0.016083047 -0.03499271
0000b0 ef dd 1d 3d fc ec 39 3d 06 51 ef 3d ad f8 4d 3d
       0.03854173 0.04539202 0.11685376 0.050285984
0000c0 85 2c 20 bd 97 5d 78 bd e1 76 08 3d 2b 2a cf bd
       -0.039104957 -0.06063613 0.033316497 -0.10115465
0000d0 b7 e2 b2 bd 19 8b 13 3d e6 46 46 bd a0 1f bc 3d
       -0.08734649 0.036021326 -0.048407458 0.091857195
0000e0 d9 cd e0 bd 35 95 0c bd 77 ea ce 3d 26 30 6b bd
       -0.10976762 -0.034321982 0.10103314 -0.057418965
0000f0 1f 47 b1 bc 6f 65 25 3d b6 eb 84 bc 5c 4f 8c 3d
       -0.021640358 0.040379938 -0.016225677 0.06851074
000100 e9 0b 6d 3d 2d 80 9c bd 9f 24 cf 3d 9b 45 b1 3d
       0.057872687 -0.07641635 0.10114407 0.08655854
000110 de 21 46 3d e1 ca 6b 3c c6 51 d5 3d 3b c6 c1 3c
       0.048372142 0.014391632 0.10415988 0.023654094
000120 26 39 c1 3d 20 66 bf bc a0 92 7b bd 70 69 97 bd
       0.09434728 -0.023364127 -0.06141913 -0.073931575
000130 d1 72 29 3b 48 be f9 bb 45 bf a1 bd 4b 93 5c bd
       0.002585579 -0.0076215602 -0.0789781 -0.053851407
000140 bc 69 e4 bd 40 b2 81 3d aa 7e 0b 3e 7c a0 f3 bd
       -0.1115298 0.063328266 0.13622537 -0.11895844
000150 78 0b 01 bd 80 2b 8b 3d 49 48 e6 bd af e4 04 3e
       -0.031505078 0.06795406 -0.11244256 0.12977861
000160 be 1d a0 3d be bb b2 3c 1c 1a c7 bc 80 88 eb bd
       0.07818173 0.021818038 -0.024304442 -0.11500645
000170 73 2c 8d 3d 21 2c cd 3d b7 3f c1 bd 3a f4 43 bd
       0.06893244 0.100181825 -0.09435981 -0.047840334
000180 26 b9 23 bd 49 31 a1 ba 35 97 0f 3e 3e 5b e9 bd
       -0.039971493 -0.0012298013 0.14022525 -0.11394356
000190 95 13 ae bd ed cf b3 bd 80 cc 00 3e bc b1 4f bd
       -0.08499829 -0.08779893 0.1257801 -0.05070661
0001a0 2d 9f af bd 34 21 6f 3c 6f 96 f2 bd c9 95 91 bd
       -0.08575282 0.014595319 -0.11845099 -0.071086474
0001b0 34 3e 44 3d ef a1 e7 3d a0 1b 5b 3b 27 55 d6 3c
       0.047910884 0.11310183 0.0033433214 0.02616365
0001c0 97 88 9f bd 59 93 87 ba 8b fb ad 3d 58 f5 a0 3d
       -0.07789724 -0.0010343596 0.08495244 0.078592956
0001d0 25 54 f2 bc fe 0d f1 3d 6a e9 d3 bd d3 a7 0d 3e
       -0.029581139 0.11770247 -0.103472546 0.13833551
0001e0 18 09 ac 3d e5 f6 ad bc c6 a9 b3 bd 58 e5 01 3d
       0.08400172 -0.021235893 -0.08772616 0.03171286
0001f0 f4 75 8a 3d 52 ff 06 3c c5 52 bc 3d 2c fb 82 3d
       0.06760779 0.008239584 0.091954745 0.063955635
000200 c9 28 a3 bc 42 3f 2e bd 1b 24 0b bd 26 9b 93 bb
       -0.019916909 -0.042540796 -0.03396998 -0.004504579
000210 3f b3 2a 3c cc 27 f7 bc f4 e9 aa 3d 68 d6 0d bd
       0.010418712 -0.030170344 0.08345404 -0.0346283
000220 f1 69 2f 3c 24 2e af bc 4a 5a f5 bd c1 df 9f 3d
       0.010706411 -0.021384306 -0.11980112 0.078063495
000230 ac ee f8 3d ea 6b 95 bc 35 f5 ad bd e2 c3 3d bd
       0.12154898 -0.018239934 -0.08494035 -0.046329387
000240 e6 99 03 be d6 4e cf 3d e7 f3 39 bd 6e ac 0f be
       -0.12851676 0.10122459 -0.04539862 -0.1403062
000250 fd c9 d3 bc d3 dd 80 3d 42 8e 73 bd 7e 47 93 3d
       -0.025853151 0.062923096 -0.05946184 0.071913704
000260 40 90 f9 bd 89 04 c1 bd d4 9f 7c bd 0e 65 fe bd
       -0.12185717 -0.09424693 -0.06167586 -0.124216184
000270 3f b5 02 3e d2 f8 b0 3d 5c 0d d0 bb 50 bc 54 3d
       0.12764452 0.08641209 -0.006349249 0.0519374
000280 3f 49 4c bd 5b 45 a3 3d fa 29 93 3d 38 80 97 bd
       -0.04987454 0.07972213 0.07185741 -0.07397503
000290 6b 50 87 bd ad c3 9a bd 22 05 33 bd 7e 1c 84 bd
       -0.066071354 -0.075568534 -0.043706067 -0.06450747
0002a0 ef dd d5 bd 4e 49 1e 3d 74 8d 34 3d 17 c9 a4 bd
       -0.10442721 0.038644128 0.044080213 -0.08046167
0002b0 38 46 97 bd 7b db 66 3d b1 a4 2b 3d fe 69 32 3d
       -0.0738644 0.056361657 0.04190511 0.043558113
0002c0 4a 35 2c 3d 37 e2 01 3d 9e 53 fa 3d 6f da 9a 3d
       0.042043008 0.031709876 0.1222298 0.07561194
0002d0 93 46 53 3d 7b 11 49 3d 0c 65 70 bd bf 99 9f 3d
       0.051580977 0.049088936 -0.058690116 0.077929966
0002e0 01 94 ff bd 2c 53 01 3d ef 99 4f bd 25 43 f4 bd
       -0.124794014 0.03157346 -0.050683912 -0.11926869
0002f0 8b 97 df bd 50 32 ff 3d 6a 02 ea bd 9d 42 8f 3c
       -0.109175764 0.12460768 -0.11426242 0.017487818
000300 4b 79 9a 3d c6 05 f0 bd 54 ac f9 3c 45 9a 2a bc
       0.07542666 -0.11719851 0.03047768 -0.010412757
000310 ed 49 db bd 7c 19 e7 3d 58 e4 b8 bc e8 7d cf 3d
       -0.107074596 0.11284158 -0.02256982 0.101314366
000320 25 fd d5 bd 35 2c 74 bd b2 19 88 bc 05 7c 0a bd
       -0.10448674 -0.05961247 -0.016613815 -0.03380968
000330 d7 01 83 bb cf 95 81 bd 32 fd fa ba 1a 19 6d 3c
       -0.003998022 -0.06327402 -0.0019148944 0.014471317
000340 a1 6e a5 3d 26 7c 89 3c 89 95 df 3d 26 c5 eb bc
       0.080777414 0.016782831 0.109171934 -0.028780531
000350 37 48 e6 3c 54 e4 1a bd 88 81 8d bd 71 75 94 3d
       0.028110607 -0.037815407 -0.06909472 0.07248963
000360 3f e5 7e bc 4f 8c 11 3a c3 fb 70 bd 0d bf 0d bd
       -0.015557586 0.00055522186 -0.05883385 -0.03460603
000370 61 e3 df 3d c4 02 17 3d 47 9d e3 bd ea 4b 9d bd
       0.10932041 0.036867872 -0.11113983 -0.07680495
000380 d2 a9 7e 3c 28 81 9d bd bc 1a c6 bd d2 b9 d6 3d
       0.015543418 -0.0769065 -0.09673068 0.10484661
000390 d8 6e 9d bd 4f 12 e7 bd e0 87 fd 3d dc 44 a5 3d
       -0.076871574 -0.11282789 0.12379432 0.080697745
0003a0 90 ff 87 bd fd 85 3f 3d d1 af 07 bd ea ce d5 3d
       -0.066405416 0.04675864 -0.033126656 0.10439856
0003b0 15 41 12 bd f4 bd fe bd 38 b6 eb bc f8 66 b1 3d
       -0.0357066 -0.124385744 -0.028773412 0.08662218
0003c0 69 48 57 bd 04 da 52 bc dc 25 13 3d 2e 4d d3 bc
       -0.05255929 -0.012869362 0.035924777 -0.025793638
0003d0 1e 9b 1a bd 85 ee f0 bd 00 dc 4b 3d 9d ae ec 3c
       -0.037745588 -0.11764244 0.049770355 0.028891856
0003e0 91 ab 26 bd 93 db 58 bd 42 75 ce bd 26 6d 9f 3b
       -0.040690962 -0.052943777 -0.10080959 0.0048653064
0003f0 a3 1e 45 bd 13 f5 3f bd 26 9c 05 bc cb aa 51 bd
       -0.04812492 -0.04686458 -0.0081549045 -0.05118827

memory_rnn.bias_ih f4 [256]
000000 9f 83 ab 3d da 56 dc bd d6 31 ed bd c2 64 30 bd
       0.08374714 -0.10758753 -0.11581771 -0.04306484
000010 6a a4 0d be f5 02 b3 bd ff b9 a0 bd dd 66 ae 3d
       -0.1383225 -0.087407984 -0.07847976 0.08515713
000020 02 85 4e bd 79 97 0a be 18 e7 30 bd 91 2e bf bd
       -0.050419815 -0.13534345 -0.04318914 -0.09335054
000030 ed f5 e4 bd 82 6e 96 bd 98 c7 ed bd 4f b0 af bd
       -0.11179719 -0.073452964 -0.11610335 -0.0857855
000040 ce 7b 28 be 48 2e 94 bd ad 65 23 be 1e a8 80 bc
       -0.16453478 -0.0723539 -0.15956755 -0.015705165
000050 c9 bc 83 bc b0 f1 d9 bd 88 bd 59 bd f9 6c 09 be
       -0.01608123 -0.10641801 -0.053159267 -0.13420476
000060 f1 ca 0b be 7e ea 28 bd 59 1e 64 bd 97 df 04 be
       -0.13651635 -0.041239254 -0.055693004 -0.12975918
000070 81 80 12 3d b1 cc 5c bb 9f bc 0d be ef 0e e5 bd
       0.035767082 -0.0033691342 -0.13841484 -0.11184489
000080 ed b8 ac 3c dd b5 d3 bb be a7 6d 3d 74 20 06 bd
       0.021084273 -0.006460889 0.0580213 -0.032745793
000090 10 af 35 bd 04 8d 9e bd 21 2d cf bd 4d 90 17 be
       -0.044356406 -0.0774174 -0.101160295 -0.1480114
0000a0 49 1c 72 3c 91 fb 97 3d fe ad ec 3c ee 99 51 bd
       0.0147772515 0.07421029 0.02889156 -0.05117219
0000b0 1b ec 6d bc 23 14 0b be f7 48 6f bd 83 6a 99 3d
       -0.014521624 -0.135819 -0.058419194 0.074910186
0000c0 f4 c9 40 bd a3 b1 0b bd 70 1c 94 3d 12 d9 98 3d
       -0.047067598 -0.034104954 0.072319865 0.07463278
0000d0 4f 3b 76 bd 6e 41 1f be 2f 0d c1 3d 0a 2e 1c 3d
       -0.060115155 -0.15552303 0.09426343 0.038129844
0000e0 f3 82 27 bd 6f af 64 3d fe 1b 3b 3c 66 b1 f6 bb
       -0.040896367 0.05583137 0.011420248 -0.0075284718
0000f0 0f d7 89 3d ea 1d b5 bc f8 e4 97 3c e9 2a 25 bd
       0.06730472 -0.02210899 0.018541798 -0.040324125
000100 63 dc 52 3d 34 1c c7 bd 8d 6a 95 bc 28 d0 0e be
       0.05147971 -0.09722176 -0.018239284 -0.13946593
000110 8c 06 c4 3c 75 79 b2 bb a9 40 7f 3d f8 51 d2 bd
       0.023928903 -0.0054466077 0.062317524 -0.102695405
000120 32 82 f0 bc ba e7 45 3b a0 1c 0e bd 31 5e ca bd
       -0.029358957 0.0030197934 -0.034695268 -0.09881247
000130 43 3d 42 3d bd c9 30 3c 3e 9f f4 bd 89 f9 1c bb
       0.047421705 0.010790286 -0.119444355 -0.0023952445
000140 38 34 a8 3c 67 55 ab 3d 77 63 2d 3d 9d e3 49 3d
       0.020532712 0.083658986 0.042331185 0.049289335
000150 dc 40 e9 bc 37 36 f9 bd cb fd af bd 7c 7a a8 bc
       -0.02847331 -0.12168544 -0.08593329 -0.020566218
000160 cd d4 90 bd 3b ec 9d bd 3d 86 50 bd 5d 51 31 3d
       -0.070718385 -0.07711073 -0.05090927 0.043290485
000170 28 4e a4 bd 51 9f 93 bd 91 51 2e bc aa 43 cc 3d
       -0.080227196 -0.072081216 -0.010639564 0.099738434
000180 35 49 02 be 23 75 a2 3d 7c 31 c2 3c 80 5a 80 bc
       -0.12723239 0.07932498 0.023705237 -0.015668154
000190 36 0a 22 be 28 a5 8e bd ce a5 27 bd 6a f6 2f be
       -0.15824208 -0.06965095 -0.040929608 -0.17183843
0001a0 58 9d 7a 3c 2e c8 a4 bd 0f 92 bd 3d f0 e3 7a bd
       0.015296303 -0.08045994 0.09256374 -0.061252534
0001b0 23 a0 0b be 1f 41 c0 3d ca 81 4f bd ae f6 66 bd
       -0.13635306 0.09387421 -0.050660886 -0.056387596
0001c0 7d f3 81 bd be 80 84 bd 60 b1 e1 bb f4 df 9f bd
       -0.0634527 -0.06469868 -0.0068876 -0.078063875
0001d0 25 a3 15 be d2 a6 52 bc 01 9d 84 bd 47 78 a7 3d
       -0.14613016 -0.012857156 -0.064752586 0.08177238
0001e0 75 a5 d0 bd 0f 81 0a bd e0 1e 77 3d a9 25 c1 3d
       -0.101878084 -0.033814486 0.06033218 0.09431011
0001f0 e5 48 de bc 7f c7 3c 3d bc 39 16 3b 4e cb 91 bd
       -0.027134368 0.04608869 0.0022922596 -0.071188554
000200 4c 40 14 3d f7 57 21 bd a0 c4 07 bd ac 70 19 3d
       0.03619413 -0.03939053 -0.0331465 0.037460968
000210 4a bf 07 bc a0 3a 2d bd 9e 59 bb 3d 16 10 a7 bd
       -0.008285353 -0.042292237 0.091479525 -0.08157365
000220 56 9d 19 bd aa 60 72 3d fd 35 e7 ba ae a1 5b bd
       -0.037503563 0.059174217 -0.0017639991 -0.053620987
000230 91 41 90 3c fa 67 ef 3c 19 58 cd bc 13 72 43 bd
       0.01760939 0.029224385 -0.025066422 -0.04771621
000240 62 f0 3e 3c cb 4c 8b 3d d6 5b d6 bc fb 87 84 3d
       0.011653991 0.068017565 -0.026166838 0.06471249
000250 5a 95 dc 3b ab 0e 9c 3d 57 00 11 3c dd 58 07 bc
       0.0067316713 0.07619985 0.008850179 -0.008260933
000260 1f 95 8d 3d cc db a4 bd cd ac da 3c de c4 8d 3c
       0.06913208 -0.080497354 0.026693726 0.017305788
000270 8b c9 ef bc 3d 86 44 bc 33 89 8b 3d e4 aa 64 3d
       -0.029270908 -0.0119948955 0.06813278 0.055827036
000280 b5 07 4e bd 74 7a 64 bd 51 97 55 bd a6 7a 80 3c
       -0.05030032 -0.055780843 -0.05214626 0.015683483
000290 fd a6 f8 bb 1a 7b 89 3d fd c9 a9 3c da 81 1a ba
       -0.007588266 0.06712933 0.020726198 -0.0005893983
0002a0 c0 07 ce 3d 47 5c 60 bd f6 2f 8e bd a6 c7 8f bd
       0.10060072 -0.054775503 -0.069427416 -0.07020502
0002b0 01 46 0a bd ff fc e4 bd fb 0b 9b 3c dd 3b 3e bb
       -0.033758167 -0.11181068 0.018926611 -0.002902738
0002c0 0c 3d a2 bd 90 97 13 bd 21 7c 67 bb c3 8d a3 3d
       -0.079218 -0.036033213 -0.003532179 0.07986023
0002d0 4f ff 39 bd 23 ae 4b 3d b4 0c b6 3d 75 db 18 bd
       -0.045409497 0.049726617 0.08889142 -0.037318666
0002e0 5d 31 58 3c 51 e1 e3 bc 09 59 b0 3d 62 86 6f 3b
       0.013195363 -0.0278174 0.08610732 0.0036548604
0002f0 eb 3d b1 3d ed d3 65 3c 44 7b 6e 3d ea 24 17 3d
       0.08654388 0.014027578 0.058223024 0.03690044
000300 63 31 0a 3d 67 6d f2 bd 1c d2 9b bc 6d b6 b3 bd
       0.033738505 -0.11837273 -0.019021086 -0.08775029
000310 71 76 48 3d 5f 14 7a 3d 10 a5 02 be 14 a1 86 3d
       0.04894108 0.061054584 -0.12758279 0.06573692
000320 84 21 40 3d bc 71 c5 bd e9 24 6e bd 6f 81 23 bd
       0.046906963 -0.09640834 -0.05814067 -0.03991836
000330 1c 99 54 bb 45 e0 60 bd 89 51 c6 bd af b7 57 3d
       -0.0032439893 -0.05490138 -0.0968352 0.05266541
000340 a2 be b9 3c 09 67 a9 bd 0d 58 2b 3c d2 54 85 bc
       0.022673909 -0.082716055 0.010458005 -0.016275797
000350 6e 59 34 3d bc e2 15 bd c6 70 e9 bc ed 15 00 bd
       0.0440306 -0.036593184 -0.028496157 -0.03127091
000360 3c 51 97 3d 35 88 c5 bd 45 3c 13 3c 87 12 14 be
       0.07388541 -0.0964512 0.008986537 -0.14460193
000370 88 36 b0 bd ea c8 08 be f3 fb 98 3d 3e 85 e0 bd
       -0.08604151 -0.13357893 0.074699305 -0.10962914
000380 ee 60 ad bd f8 2c 77 bd cd cc 55 3d e4 35 24 be
       -0.084657535 -0.06034562 0.052197266 -0.16036183
000390 d3 9e 1c 3d 21 3c 0b be 95 e0 21 3d e7 82 b2 bb
       0.038237404 -0.13597156 0.03952082 -0.0054477337
0003a0 e0 90 24 be c7 63 8a bb 2e a1 7a bd 0b ce 8f 3d
       -0.1607089 -0.00422332 -0.06118887 0.070217215
0003b0 42 66 e3 3c 40 0c 5e bc e1 81 88 3b be c9 c6 bb
       0.027758721 -0.013552725 0.0041658734 -0.00606653
0003c0 a6 08 d8 bd 77 06 e6 bc f1 08 ef bc ca 88 8d 3d
       -0.105485246 -0.028079255 -0.029179068 0.06910856
0003d0 77 d8 09 be f5 0a dc bc 04 fd 13 be e5 4c a2 bd
       -0.13461481 -0.026860693 -0.14451987 -0.07924823
0003e0 c9 34 d8 bc cc 54 28 be 7a fe af bd 8a 19 e9 bd
       -0.026392357 -0.16438597 -0.085934594 -0.11381824
0003f0 7c 8a 36 bd ac fe 5c 3d a1 f3 8c bd c4 a6 b4 bc
       -0.044565663 0.05395381 -0.06882406 -0.022052176
