torch-rl/storage/LineCorridor28x28_5M_r4/status.pt (torch, 649297 bytes, 51 tensors)

image_conv.0.weight f4 [16, 3, 2, 2]
0.14400256 -0.157214 -0.04388738 0.11699918 -0.27817488 0.13121419 -0.04607252 0.124035485
0.040130734 -0.035346568 0.08006719 0.014240861 0.101942845 -0.11339937 -0.04073559 -0.041555267
0.0413249 0.0103905415 0.22474065 0.06917247 -0.10750443 -0.17434862 -0.04838647 -0.12451734
-0.0973709 0.0027252396 0.15981461 0.14087936 -0.3093101 0.15958856 0.055657137 0.24882008
0.19054285 -0.26302278 -0.27447474 -0.13923728 0.21654508 -0.074863195 0.110178754 -0.14566983
0.24553536 -0.14402947 0.20155469 0.004028463 -0.15207909 0.14838329 -0.15323457 0.08490071
-0.09182421 -0.046295978 -0.2929399 -0.16283119 0.150387 -0.08348126 0.27035126 0.19883952
-0.0135168135 -0.19268577 0.17579225 0.08959237 -0.19825664 0.18520364 0.16393183 0.25116163
-0.10728307 -0.034841288 -0.015020257 0.045568906 -0.21908084 -0.20485033 0.1570406 -0.067692
0.108977415 -0.006363172 0.08929919 0.051691946 0.057967067 0.1133517 -0.30275586 0.13126303
-0.20297419 -0.21780798 0.017555594 -0.04919231 0.17463668 -0.16880868 -0.26033983 0.21487638
-0.046987496 0.15877298 0.11674097 -0.20306884 0.057994336 0.06933877 -0.19328493 -0.13696834
0.072554715 0.035884406 -0.16684535 -0.12033434 0.22711869 -0.06629109 0.12145829 0.107773
-0.18660167 -0.24549785 0.27709597 0.015073687 0.17562488 0.040703822 0.06109774 0.17901984
0.2658364 -0.18689355 0.0026558705 0.18422304 0.20912638 0.1793361 -0.20891964 -0.20787618
-0.16790754 0.04227336 0.27377164 -0.1728678 0.1442045 -0.16948012 -0.34114593 -0.06135492
0.16632622 0.26799875 -0.17927846 0.06264573 0.24139985 0.1779438 0.19318214 0.21965382
0.16787232 0.044402387 -0.17920135 -0.25125337 -0.1322769 -0.033615023 -0.17694406 0.105612844
0.07836505 -0.09430059 0.11071412 0.07229323 0.16272122 0.16606188 -0.11312116 0.24799885
-0.033373088 -0.009917736 -0.2724747 -0.185796 -0.19231503 -0.14081247 0.174043 -0.120579034
-0.19438355 0.10720697 0.05510288 0.16106214 -0.14938134 0.06258911 -0.10509236 -0.064858004
-0.2363301 -0.15317689 -0.11381337 0.09498179 0.09444281 0.047374684 0.26003197 0.24467029
0.19689006 0.009192437 -0.19970298 0.22560239 -0.07830944 -0.029405477 -0.24869332 -0.05637102
-0.19110991 0.26040134 -0.24956572 -0.22397445 -0.009802341 -0.15609111 0.10329133 -0.11111845
00000000: 6875 133e b5fc 20be 41c3 33bd 449d ef3d
00000010: f06c 8ebe 035d 063e 8ab6 3cbd 5106 fe3d
00000020: 2060 243d 90c7 10bd 44fa a33d 8052 693c
00000030: 69c7 d03d ee3d e8bd 5dda 26bd db35 2abd
00000040: 4c44 293d 173d 2a3c 6a22 663e 4caa 8d3d
00000050: 482b dcbd 7288 32be e430 46bd f202 ffbd
00000060: 656a c7bd ef99 323b 71a6 233e ae42 103e
00000070: e55d 9ebe 2f6b 233e bdf8 633d b1ca 7e3e
00000080: aa1d 433e ecaa 86be f487 8cbe 3894 0ebe
00000090: febd 5d3e e051 99bd 66a5 e13d 792a 15be
000000a0: 9f6d 7b3e 767c 13be 5a64 4e3e 3201 843b
000000b0: 9fba 1bbe caf1 173e 86e9 1cbe 6ce0 ad3d
000000c0: 550e bcbd daa0 3dbd 38fc 95be 38bd 26be
000000d0: 0dff 193e 39f8 aabd 7b6b 8a3e 969c 4b3e
000000e0: a075 5dbc 6b4f 45be e202 343e 347c b73d
000000f0: ca03 4bbe 06a6 3d3e bfdd 273e 4298 803e
00000100: 3ab7 dbbd bdb5 0ebd 8617 76bc 76a6 3a3d
00000110: ba56 60be 49c4 51be 40cf 203e 1aa2 8abd
00000120: 8d2f df3d 2882 d0bb 7ee2 b63d efba 533d
00000130: e06e 6d3d f024 e83d d102 9bbe d169 063e
00000140: 77d8 4fbe 0e09 5fbe c0d0 8f3c e07d 49bd
00000150: f5d3 323e 2fdc 2cbe 434b 85be 8e08 5c3e
00000160: f675 40bd 6295 223e e415 ef3d 47f1 4fbe
00000170: 788b 6d3d 7c01 8e3d 7cec 45be 6e41 0cbe
00000180: 9197 943d 87fb 123d 82d9 2abe da71 f6bd
00000190: cd91 683e 9fc3 87bd 20bf f83d 17b8 dc3d
000001a0: 8214 3fbe ca63 7bbe 86df 8d3e a0f7 763c
000001b0: 02d7 333e 0db9 263d a041 7a3d fa50 373e
000001c0: b51b 883e 0661 3fbe 1d0e 2e3b f7a4 3c3e
000001d0: 3a25 563e e2a3 373e 08ef 55be 7edd 54be
000001e0: f4ef 2bbe d526 2d3d cc2b 8c3e 4204 31be
000001f0: 58aa 133e 328c 2dbe aeaa aebe 4c4f 7bbd
00000200: 6c51 2a3e 2237 893e c694 37be 684c 803d
00000210: 8631 773e e636 363e 8ad1 453e eeec 603e
00000220: b9e6 2b3e 47df 353d 8f80 37be 48a4 80be
00000230: 9873 07be e8af 09bd d330 35be 8c4b d83d
00000240: db7d a03d ab20 c1bd 16be e23d 790e 943d
00000250: 64a0 263e 200c 2a3e 11ac e7bd 69f3 7d3e
00000260: 38b2 08bd 007e 22bc ce81 8bbe 4e41 3ebe
00000270: 3bee 44be 2531 10be 5438 323e 24f2 f6bd
00000280: 7b0c 47be 548f db3d 8fb3 613d 79ed 243e
00000290: 6cf7 18be b82e 803d aa3a d7bd 46d4 84bd
000002a0: 8500 72be 67da 1cbe fc16 e9bd d085 c23d
000002b0: 3b6b c13d f50b 423d e922 853e d98a 7a3e
000002c0: 8c9d 493e e09b 163c f07e 4cbe 5004 673e
000002d0: b360 a0bd c1e3 f0bc 76a9 7ebe 4ce5 66bd
000002e0: 51b2 43be 5353 853e 288e 7fbe 8f59 65be
000002f0: 009a 20bc 59d6 1fbe 688a d33d 1292 e3bd

image_conv.0.bias f4 [16]
-0.1520095 0.018374946 0.19582589 -0.22197598 0.12468058 0.19742347 0.270458 -0.20276876
0.045868278 -0.24524812 0.25319508 -0.09596368 0.18211147 -0.009028612 -0.046721455 -0.015373213
00000000: 61a8 1bbe 0e87 963c 9586 483e ac4d 63be
00000010: 8858 ff3d 6129 4a3e 7979 8a3e 9da2 4fbe
00000020: 60e0 3b3d 5322 7bbe c9a2 813e 9b88 c4bd
00000030: 6e7b 3a3e beec 13bc ff5e 3fbd eedf 7bbc

image_conv.3.weight f4 [32, 16, 2, 2]
0.00144612 0.05833881 0.005579003 0.039222173 -0.118440315 0.08429634 0.110365696 0.09962022
0.07753592 -0.08794292 -0.052057482 0.11706138 -0.097595625 0.10982137 -0.093426354 -0.091511354
0.055471282 -0.09452659 -0.026303874 0.09049473 0.09064211 0.11659327 -0.028622795 -0.09445285
0.120799065 -0.021822583 -0.05970558 0.033944573 -0.086120434 0.07264248 0.07411814 -0.09188247
-0.1023975 -0.013361938 0.056867942 -0.008045212 -0.06496665 -0.0015217284 -0.11702526 -0.091153584
-0.085625224 0.10798367 0.10730406 -0.043530885 0.0069833104 0.05615072 0.010770257 -0.06976637
0.06838876 0.081515096 -0.015277338 -0.013066027 0.09554719 0.10367491 -0.07915765 0.12436958
0.014728551 -0.08987277 0.06202038 -0.09172029 0.110817775 -0.085392 0.032047518 0.03355574
0.02810047 0.095232815 -0.0546498 -0.061434552 -0.110676914 -0.014044457 -0.06175302 -0.003545242
-0.03179795 0.0327782 0.1018821 0.027494175 -0.040267527 -0.06966378 -0.11267262 0.095826395
-0.03066199 0.016364988 -0.0014917905 -0.08706366 0.06212287 0.060713943 -0.0015851494 -0.080279194
-0.061091397 -0.006882135 -0.079270236 -0.07899352 -0.018645883 -0.057690248 0.024794891 -0.04218674
-0.02197217 -0.055598237 -0.118663654 0.10072582 0.023263851 0.10322859 -0.021322565 -0.039422538
-0.12605233 -0.06130859 0.07367032 -0.121328354 -0.047379997 0.06791215 0.06721583 0.03684003
-0.030700667 -0.018119905 -0.029944496 -0.05535321 0.050143767 -0.051837362 -0.07304067 0.019189732
-0.09214357 -0.035832305 0.061576307 0.038913883 0.10854792 -0.09061791 -0.010621778 -0.02950544
-0.064350285 -0.03274301 0.024105344 0.008752958 -0.037485976 -0.08529192 -0.111142434 0.11615685
-0.01431037 -0.027392453 -0.052723728 -0.06448187 -0.092256516 -0.065314636 0.07208354 0.021239234
-0.029848794 -0.043126784 0.07654538 0.08608636 0.12403849 0.03637784 0.055656232 -0.010993262
-0.06227134 -0.11093488 0.066875815 -0.029622922 0.06332846 0.022665722 -0.14854999 -0.0794342
0.051184572 -0.017819503 -0.12723249 0.036172416 0.016568905 -0.036737405 0.044901956 0.019068833
-0.027545055 0.12731677 0.08456929 0.032539062 -0.016463034 -0.10128341 0.07557546 -0.054908976
-0.070604816 0.08954228 0.03413813 0.023172872 -0.020314386 -0.018399242 0.011835585 0.092461646
0.01862577 -0.06258718 0.114270926 -0.0041738534 0.10167404 0.030119209 0.11559931 0.05327221
-0.057025827 0.09454269 -0.0042606206 -0.108226396 -0.021904591 -0.1132262 -0.07398066 -0.09561368
0.08313337 -0.033589084 -0.032865543 0.0520318 0.048013538 -0.09340767 0.039464094 0.04523522
-0.09541784 0.13912216 -0.085513175 -0.05620171 -0.10762656 0.10501971 0.013523395 0.09527546
-0.0049380227 0.05570395 -0.047367677 -0.10565102 0.016282156 -0.022648567 -0.01169765 -0.063540846
-0.005498744 0.023792924 0.037369184 -0.1073469 0.05580453 0.0014800563 0.07876406 0.08058868
-0.088870235 0.1123451 -0.1272238 0.060046613 -0.0019417192 0.0465416 -0.074040525 0.068709694
-0.07561486 -0.12412516 0.032049432 0.06085053 0.14319718 0.009093177 0.110466875 0.07300788
-0.056455668 -0.06295961 0.060183477 -0.075192876 0.062238272 -0.107587576 0.09119387 0.03353865
00000000: bc8b bd3a adf4 6e3d 12d0 b63b 6ea7 203d
00000010: d690 f2bd 8fa3 ac3d 6907 e23d b005 cc3d
00000020: 27cb 9e3d 6b1b b4bd 3a3a 55bd e0bd ef3d
00000030: 37e0 c7bd 07ea e03d 5156 bfbd 4e6a bbbd
00000040: db35 633d 2897 c1bd 397b d7bc 4d55 b93d
00000050: 92a2 b93d 74c8 ee3d 5a7a eabc 7f70 c1bd
00000060: 8065 f73d 46c5 b2bc d78d 74bd 7709 0b3d
00000070: e95f b0bd 95c5 943d 40cb 973d e02c bcbd
00000080: c8b5 d1bd 08ec 5abc 5cee 683d 11d0 03bc
00000090: 3c0d 85bd bb74 c7ba f1aa efbd bbae babd
000000a0: 475c afbd 8b26 dd3d 3bc2 db3d 714d 32bd
000000b0: 41d4 e43b 4cfe 653d bb75 303c ace1 8ebd
000000c0: 680f 8c3d 63f1 a63d cd4d 7abc e412 56bc
000000d0: 3fae c33d 8353 d43d 681d a2bd 7ab5 fe3d
000000e0: 0550 713c 370f b8bd 1509 7e3d d9d7 bbbd
000000f0: 6ef4 e23d 00e2 aebd 4244 033d be71 093d
00000100: f532 e63c 6c09 c33d 78d8 5fbd cca2 7bbd
00000110: 94aa e2bd b91a 66bc bcf0 7cbd 4a57 68bb
00000120: 913e 02bd 6f42 063d 90a7 d03d 773b e13c
00000130: 90ef 24bd e2ab 8ebd e7c0 e6bd a140 c43d
00000140: db2e fbbc de0f 863c 2f88 c3ba 6f4e b2bd
00000150: 8d74 7e3d 2faf 783d cac4 cfba 6b69 a4bd
00000160: f93a 7abd 8883 e1bb 6f58 a2bd 5bc7 a1bd
00000170: 40bf 98bc 9c4c 6cbd a81e cb3c 01cc 2cbd
00000180: fbfe b3bc faba 63bd ee05 f3bd 5749 ce3d
00000190: d593 be3c 8369 d33d a9ac aebc 8779 21bd
000001a0: dd13 01be b71e 7bbd 77e0 963d 007b f8bd
000001b0: 8711 42bd 8615 8b3d 74a8 893d 92e5 163d
000001c0: f77f fbbc 3270 94bc 294e f5bc 0cba 62bd
000001d0: 8d63 4d3d 6a53 54bd 5996 95bd c933 9d3c
000001e0: c5b5 bcbd e5c4 12bd 7037 7c3d 2a64 1f3d
000001f0: 5f4e de3d e295 b9bd f706 2ebc 64b5 f1bc
00000200: 15ca 83bd 891d 06bd 9278 c53c 9168 0f3c
00000210: e58a 19bd 88ad aebd a59e e3bd a4e3 ed3d
00000220: 0b76 6abc 2366 e0bc d6f4 57bd 120f 84bd
00000230: fcf0 bcbd aec3 85bd 89a0 933d e7fd ad3c
00000240: 7585 f4bc b6a5 30bd d3c3 9c3d 0c4e b03d
00000250: e407 fe3d ee00 153d caf7 633d 151d 34bc
00000260: 3c10 7fbd d431 e3bd 30f6 883d c5ab f2bc
00000270: 5ab2 813d 77ad b93c 7d1d 18be 66ae a2bd
00000280: eaa6 513d 35fa 91bc 3c49 02be 8729 143d
00000290: 83bb 873c f679 16bd 1deb 373d 3e36 9c3c
000002a0: 2ba6 e1bc 545f 023e aa32 ad3d ae47 053d
000002b0: 7cdd 86bc ad6d cfbd 4fc7 9a3d 3ce8 60bd
000002c0: 4299 90bd f161 b73d 6cd4 0b3d 09d5 bd3c
000002d0: 5b6a a6bc 02ba 96bc 0bea 413c 885c bd3d
000002e0: 1295 983c b52d 80bd e006 ea3d d2c4 88bb
000002f0: 7b3a d03d 8fbc f63c 55bf ec3d f633 5a3d
00000300: ea93 69bd 999f c13d ad9c 8bbb cda5 ddbd
00000310: 4271 b3bc 23e3 e7bd 2c83 97bd 1bd1 c3bd
00000320: d441 aa3d b594 09bd 059e 06bd 4c1f 553d
00000330: d8a9 443d 854c bfbd 1aa5 213d 9148 393d
00000340: 6e6a c3bd 0a76 0e3e 8821 afbd c433 66bd
00000350: 506b dcbd 9314 d73d 3b91 5d3c c81f c33d
00000360: 23cf a1bb d329 643d 9c04 42bd 905f d8bd
00000370: 2862 853c 7d89 b9bc 80a7 3fbc b421 82bd
00000380: cf2e b4bb 61e9 c23c 6e10 193d b1d8 dbbd
00000390: 4a93 643d 73fe c13a 0d4f a13d ae0b a53d
000003a0: 9901 b6bd 3015 e63d f546 02be 70f3 753d
000003b0: 4981 feba 68a2 3e3d 8fa2 97bd abb7 8c3d
000003c0: f7db 9abd 5535 febd 4446 033d 683e 793d
000003d0: 48a2 123e 8cfb 143c 753c e23d 2885 953d
000003e0: 0f3e 67bd f8f0 80bd f382 763d b9fe 99bd
000003f0: 8fed 7e3d e056 dcbd dac3 ba3d d35f 093d

image_conv.3.bias f4 [32]
0.011937243 -0.049383853 0.05135187 -0.08215452 -0.0949914 -0.030465988 -0.108568735 -0.007740693
0.01664232 0.09880126 0.036819164 -0.023563666 -0.09274099 -0.056054585 -0.040105727 -0.070115656
-0.0037063735 0.08450253 0.085871816 -0.060775384 -0.010393255 0.09780402 -0.014269468 -0.11226432
-0.02281693 0.00032929337 -0.048648912 -0.0163452 -0.10746834 0.011787371 -0.09430087 0.022551069
00000000: 6d94 433c b946 4abd 5756 523d a140 a8bd
00000010: da8a c2bd cf93 f9bc 4959 debd a4a5 fdbb
00000020: 7a55 883c 5158 ca3d b1cf 163d 9708 c1bc
00000030: fdee bdbd 7e99 65bd e745 24bd cc98 8fbd
00000040: a1e6 72bb aa0f ad3d 90dd af3d 9cef 78bd
00000050: 7948 2abc 794d c83d 7dca 69bc d6ea e5bd
00000060: 92ea babc 02a5 ac39 1544 47bd 5ee6 85bc
00000070: 5c18 dcbd d11f 413c d120 c1bd 05bd b83c

image_conv.5.weight f4 [64, 32, 2, 2]
0.061474778 -0.055217832 -0.042141456 0.011953659 0.0008726036 0.051823504 -0.0058367606 0.01111352
-0.016870074 0.037456587 0.017107343 -0.080674306 0.044947933 -0.017062398 0.063786216 -0.09728912
-0.00877437 0.039938368 0.060950063 0.0011490062 -0.047765832 -0.06832387 -0.06693211 0.07116709
-0.082385264 -0.03235614 0.039312243 0.043728698 -0.077316865 0.017524004 0.010685764 0.08112308
0.005847663 0.03862188 -0.013821497 0.070806324 -0.011652745 -0.053342275 0.027912213 -0.040446863
0.022102006 0.061440013 -0.068747714 -0.064305976 -0.007189113 -0.013375024 -0.025739467 0.07186278
0.052205257 -0.029305547 0.0017145163 -0.013589988 -0.050149605 0.03616371 -0.053392883 0.010696471
0.056769006 -0.07570744 -0.0018844823 0.08028822 0.03301995 -0.04091205 0.0145922825 -0.08243138
0.013676751 0.07107742 0.069630556 -0.009967786 0.029305775 -0.014669381 -0.028631715 0.0017000213
-0.05989596 0.03136547 0.041701455 -0.014547413 -0.01468689 -0.068477646 0.013262515 0.027545338
0.07516967 -0.090719804 -0.070696734 0.016758166 0.07510138 -0.0007094852 0.016243028 0.0047621555
-0.01436047 0.060860097 0.05993185 -0.05889891 -0.05293352 -0.068728864 -0.02149567 -0.001991175
0.06527237 -0.088947356 0.06343763 -0.04178799 -0.0032527328 -0.012346291 0.04228446 -0.07653492
-0.06052714 0.0020271689 0.044211194 -0.04252386 0.018038278 -0.031284086 -0.099343 -0.0050271526
-0.014809064 0.04759089 0.060931806 0.053763498 0.05894852 -0.06296091 -0.09026991 0.0056937933
0.026272696 -0.058891624 0.059330046 -0.018816648 -0.04424478 0.055661827 0.07556502 0.003495807
-0.030861277 0.006873839 -0.06782883 0.051758282 0.05548788 -0.018845052 -0.07007339 0.06331891
-0.07521435 -0.0464147 0.049818635 -0.04392769 0.016833968 0.07265336 -0.01117371 -0.019993559
0.08193251 0.015098833 0.030829944 -0.029044613 -0.07625456 0.013837062 -0.052250847 -0.045713115
-0.07463722 0.07324248 -0.061458997 0.023090368 0.015509823 0.061048143 0.045594007 -0.061882026
0.0368313 -0.047554135 0.0008944446 -0.03467528 -0.07803656 0.02465498 -0.06134073 0.08469005
0.035621613 -0.030573703 -0.051759217 -0.08146734 -0.044563442 -0.059445575 0.009504534 0.019375958
0.07665121 0.009936855 -0.017954685 -0.04135148 -0.012433454 0.044403918 -0.08522543 -0.083244815
0.034720212 -0.029636798 -0.02631331 -0.059325412 -0.061129216 -0.06908231 -0.056072112 -0.08370493
-0.044041835 0.070912726 -0.051411822 0.06718334 -0.07680811 0.0077691865 -0.009718597 -0.06922703
-0.00013968405 0.0712006 -0.04222392 0.07875069 -0.009297371 -0.02794844 0.043631203 0.06909644
0.07350266 0.049419448 -0.08178764 -0.020905001 0.007006683 -0.04270705 0.03869414 -0.021883396
-0.07614787 -0.041670073 -0.05700969 0.031272475 -0.06431918 -0.02228053 0.009091504 0.0381132
-0.07026702 0.058443114 -0.059009545 -0.070265725 0.03384452 -0.053578228 0.06184508 0.03638331
-0.04290132 -0.019402713 -0.040405676 -0.008392639 -0.00021306425 -0.0014539928 -0.057760064 -0.07301779
-0.05652539 0.014922716 0.009063207 -0.044494618 -0.014325663 -0.004629203 0.0632469 -0.08183428
-0.039373197 -0.015396644 -0.014517017 -0.04952169 0.041459337 -0.033224043 0.006544312 -0.050282463
00000000: facc 7b3d 182c 62bd 859c 2cbd 48d9 433c
00000010: 70bf 643a e244 543d 4c42 bfbb 7b15 363c
00000020: 1c33 8abc 146c 193d b324 8c3c 9238 a5bd
00000030: 531b 383d 71c6 8bbc 59a2 823d 853f c7bd
00000040: 60c2 0fbc 6a96 233d c6a6 793d 409a 963a
00000050: 1ba6 43bd 63ed 8bbd b413 89bd 0dc0 913d
00000060: 9bb9 a8bd df87 04bd e005 213d dd1c 333d
00000070: 4e58 9ebd 808e 8f3c 5813 2f3c db23 a63d
00000080: c19d bf3b fa31 1e3d 8f73 62bc e802 913d
00000090: 28eb 3ebc 6e7d 5abd 27a8 e43c 9cab 25bd
000000a0: 440f b53c 86a8 7b3d 9acb 8cbd dab2 83bd
000000b0: a792 ebbb eb22 5bbc 93db d2bc cb2c 933d
000000c0: 2ed5 553d 3012 f0bc 9fb9 e03a 8ba8 5ebc
000000d0: ac69 4dbd 6620 143d 7fb2 5abd 4040 2f3c
000000e0: 9e86 683d 810c 9bbd bc00 f7ba 266e a43d
000000f0: ed3f 073d 6593 27bd 7814 6f3c c9d1 a8bd
00000100: 7414 603c 0a91 913d 779a 8e3d ed4f 23bc
00000110: aa12 f03c d857 70bc 0f8d eabc 40d3 de3a
00000120: 7755 75bd 1479 003d 25cf 2a3d 4658 6ebc
00000130: 48a1 70bc 023e 8cbd 054b 593c c3a6 e13c
00000140: 8ef2 993d 4ecb b9bd 73c9 90bd 6c48 893c
00000150: c1ce 993d bffc 39ba 1910 853c db0b 9c3b
00000160: 2d48 6bbc 7048 793d 197b 753d fc3f 71bd
00000170: d2d0 58bd b8c1 8cbd b017 b0bc 607e 02bb
00000180: 85ad 853d 082a b6bd 97eb 813d e229 2bbd
00000190: cd2b 55bb 1948 4abc 7832 2d3d 57be 9cbd
000001a0: 4eeb 77bd 40da 043b cc16 353d 802d 2ebd
000001b0: 03c5 933c be23 00bd 5874 cbbd d0ba a4bb
000001c0: b7a1 72bc aaee 423d a193 793d 1d37 5c3d
000001d0: 0174 713d a6f1 80bd 6edf b8bd 0093 ba3b
000001e0: d639 d73c 5838 71bd 1004 733d 5f25 9abc
000001f0: 043a 35bd a8fd 633d d5c1 9a3d e919 653b
00000200: cad0 fcbc f13d e13b d7e9 8abd 7e00 543d
00000210: 4247 633d f060 9abc a382 8fbd 58ad 813d
00000220: fb09 9abd 571d 3ebd a00e 4c3d 85ed 33bd
00000230: 64e7 893c 49cb 943d f011 37bc 88c9 a3bc
00000240: 3bcc a73d 1861 773c 148f fc3c f8ee edbc
00000250: 5a2b 9cbd d8b4 623c fc04 56bd ad3d 3bbd
00000260: 66db 98bd 2700 963d 6ebc 7bbd 0328 bd3c
00000270: ea1c 7e3c 9e0d 7a3d c8c0 3a3d 0278 7dbd
00000280: 6bdc 163d 20c8 42bd 2979 6a3a ab07 0ebd
00000290: a2d1 9fbd 3ef9 c93c 6b40 7bbd fa71 ad3d
000002a0: f8e7 113d b475 fabc 7901 54bd 59d8 a6bd
000002b0: 2888 36bd 347d 73bd e8b8 1b3c 54ba 9e3c
000002c0: 4ffb 9c3d 31ce 223c b415 93bc 2b60 29bd
000002d0: b0b5 4bbc e2e0 353d ac8a aebd 427c aabd
000002e0: c836 0e3d dfc8 f2bc 038f d7bc 34ff 72bd
000002f0: a162 7abd 077b 8dbd dfab 65bd 7e6d abbd
00000300: 3665 34bd b13a 913d 3495 52bd 6b97 893d
00000310: 924d 9dbd a994 fe3b c03a 1fbc e7c6 8dbd
00000320: 2778 12b9 9fd1 913d fdf2 2cbd 0b48 a13d
00000330: 0054 18bc 20f4 e4bc a2b6 323d 6f82 8d3d
00000340: 9088 963d 0c6c 4a3d 4780 a7bd f740 abbc
00000350: 5198 e53b 96ed 2ebd bf7d 1e3d cf44 b3bc
00000360: 6af3 9bbd 3dae 2abd fe82 69bd 9117 003d
00000370: c6b9 83bd a885 b6bc 88f4 143c 961c 1c3d
00000380: 28e8 8fbd 0c62 6f3d feb3 71bd 7ae7 8fbd
00000390: 8da0 0a3d d874 5bbd 4451 7d3d aa06 153d
000003a0: 4bb9 2fbd 70f2 9ebc 6c80 25bd 4881 09bc
000003b0: 006a 5fb9 e793 beba d195 6cbd 5a8a 95bd
000003c0: 2b87 67bd 687e 743c d87d 143c fd3f 36bd
000003d0: 30b6 6abc 92b0 97bb 9787 813d bb98 a7bd
000003e0: ca45 21bd 3542 7cbc c8d8 6dbc 41d7 4abd
000003f0: 44d1 293d ef15 08bd ab71 d63b fcf4 4dbd

image_conv.5.bias f4 [64]
0.0076034022 -0.01591172 -0.046191934 0.010015112 -0.020208817 -0.0054701865 0.016775122 -0.025607724
0.019518867 -0.024538638 -0.001195834 0.110636845 -0.041002892 -0.058794636 -0.0019174363 -0.064381145
-0.07035595 0.02802225 0.045963563 0.096116595 -0.024162522 -0.011385852 -0.083796196 -0.039101023
-0.01049548 0.025550112 0.081749536 0.017891714 0.041702304 -0.1094362 0.034529153 0.008742349
-0.06607637 -0.099431135 0.042523682 -0.06467156 -0.091864824 -0.07538919 0.0071331337 0.035362583
-0.0015325845 -0.00020236372 -0.025915641 -0.017796144 -0.015730798 0.04968645 0.02855578 -0.051549055
0.009029826 -0.058332667 -0.059241794 -0.03876014 0.05016932 0.013083523 -0.09210175 0.061069325
-0.09015773 0.040408105 -0.0019940787 -0.04295522 -0.03164634 -0.053603306 0.05821774 -0.054957964
00000000: f625 f93b 4c59 82bc c133 3dbd 6d16 243c
00000010: f68c a5bc 403f b3bb fb6b 893c 4ac7 d1bc
00000020: 08e6 9f3c 4105 c9bc 88bd 9cba 9295 e23d
00000030: a6f2 27bd a5d2 70bd 7c52 fbba 43da 83bd
00000040: c816 90bd eb8e e53c 4a44 3c3d c7d8 c43d
00000050: 7bf0 c5bc b98b 3abc 579d abbd 6528 20bd
00000060: 3cf5 2bbc 784e d13c 4d6c a73d a591 923c
00000070: 09d0 2a3d 1620 e0bd 716e 0d3d 123c 0f3c
00000080: 0c53 87bd 8da2 cbbd 502d 2e3d 8672 84bd
00000090: a023 bcbd a665 9abd 10bd e93b 5bd8 103d
000000a0: 01e1 c8ba 9931 54b9 0a4d d4bc 38c9 91bc
000000b0: e0dd 80bc 0584 4b3d d0ed e93c 1a25 53bd
000000c0: d6f1 133c 3cee 6ebd 86a7 72bd f4c2 1ebd
000000d0: 587e 4d3d 465c 563c d89f bcbd d423 7a3d
000000e0: 9ea4 b8bd f882 253d 17af 02bb d0f1 2fbd
000000f0: 989f 01bd 248f 5bbd ba75 6e3d 9a1b 61bd

memory_rnn.weight_ih f4 [256, 64]
-0.043663055 -0.10150886 0.074960865 0.097127266 0.020111863 -0.020969018 0.03322004 -0.057332203
0.11991221 -0.03843659 0.04333219 0.0971275 -0.038107418 0.09450614 0.071883686 -0.0021515675
-0.04348193 0.086468525 0.03906456 -0.00078396127 -0.04519229 -0.12384026 -0.11391887 -0.0027317824
-0.11820954 -0.11918595 -0.04006537 -0.014356591 0.09457989 -0.08129525 -0.12534313 -0.005100392
-0.115797944 -0.015926262 0.08491334 -0.10382394 0.027995002 -0.036784526 0.12212816 0.0034045365
-0.010928454 -0.028082358 -0.06332318 0.060263246 -0.07835317 0.10887773 0.07788034 -0.11001151
0.09837871 -0.006714345 0.0739598 -0.058910366 0.019818189 0.0027920164 0.004232008 -0.030569503
-0.021855976 -0.07349567 0.09151032 0.051828798 -0.059379056 -0.015433707 -0.10421843 -0.04006321
-0.0014963851 0.11937165 -0.1452609 -0.044089906 -0.086869635 0.08645187 -0.12215788 0.030520348
0.025790496 0.06861074 0.018745871 -0.009047683 0.11128279 -0.02769065 0.09361625 0.05781474
-0.03291507 -0.04138216 0.050482217 -0.08982648 0.009762713 -0.11453765 0.06585317 -0.100762725
0.016939942 -0.10938929 -0.008312501 -0.0357 -0.06199863 -0.025041219 0.011539709 -0.031821936
0.093676805 -0.1200023 0.068691164 -0.09616974 -0.0639916 -0.016877413 -0.076182045 0.057769984
0.11924253 -0.041043114 -0.028616833 -0.027451029 0.074012935 0.11681853 0.02399732 0.020951191
0.11765025 -0.07174653 0.061336763 -0.07165186 0.028356839 -0.12716296 -0.028870393 0.11167005
0.0951151 -0.042946283 -0.06602095 -0.021704515 0.08048284 0.03182529 -0.045213487 -0.059821766
0.07692282 -0.08027561 -0.06305927 -0.020130524 0.116803944 0.09602222 0.08644986 -0.08882358
0.04046649 -0.008592553 0.05888035 0.07309033 -0.099811375 -0.11178233 0.014368849 -0.12778151
0.09248192 -0.099888034 -0.08130899 -0.018527 0.06468405 0.103347465 0.013008116 0.105640076
0.04647469 0.119373314 -0.046184253 -0.035624363 -0.04413548 -0.028642753 -0.10641192 0.037358843
0.08962416 0.060442165 -0.084238626 0.11553526 -0.007632092 -0.006184343 -0.105240345 -0.056085765
0.037412234 0.015160786 -0.08549894 0.14173259 0.049729094 0.065949485 -0.07632715 -0.05808172
0.035137016 -0.12353393 0.053996887 0.006416724 0.082068704 0.09524547 0.024945538 0.062660694
0.0028928888 0.11495082 -0.02123687 -0.07958935 -0.016811607 -0.0973576 -0.07063913 0.024882274
0.098215654 0.10013601 0.0930884 0.09852331 0.11179156 -0.075186685 -0.036428772 0.059880413
-0.05327406 -0.021325193 0.108342 -0.016362408 -0.022579681 0.05515251 0.118522555 -0.04838915
-0.018921137 -0.10782262 0.01652233 0.0013511488 0.069859885 -0.106410086 -0.09859853 0.099752896
-0.053307407 0.009609274 0.08357081 0.1045258 0.0017210605 -0.11464114 -0.11132445 -0.11841574
-0.007235374 -0.09943028 0.10285254 -0.10761894 -0.04148755 0.047897987 -0.055523578 0.09589023
0.028746089 0.120075054 0.023088735 0.074126884 -0.12092669 -0.052505862 0.046845093 -0.046247344
0.044423126 -0.08249625 0.025877077 0.0155457165 -0.07649442 -0.0035726586 0.08701938 -0.108037464
0.012663142 0.052945107 0.11596581 -0.12326726 0.05675953 0.121328615 0.079344496 -0.113760725
00000000: 08d8 32bd e1e3 cfbd 1585 993d a9ea c63d
00000010: a2c1 a43c 38c7 abbc bd11 083d 2cd5 6abd
00000020: 8894 f53d b06f 1dbd 187d 313d c8ea c63d
00000030: 8616 1cbd 6f8c c13d c137 933d 5001 0dbb
00000040: 1c1a 32bd 6916 b13d 2902 203d c082 4dba
00000050: 8d1b 39bd f69f fdbd 4c4e e9bd b407 33bb
00000060: d817 f2bd c317 f4bd 961b 24bd e837 6bbc
00000070: 1ab3 c13d 207e a6bd f359 00be 3021 a7bb
00000080: 7927 edbd cb77 82bc 0ce7 ad3d a5a1 d4bd
00000090: c655 e53c 5fab 16bd 541e fa3d a51e 5f3b
000000a0: 420d 33bc f90c e6bc 95af 81bd 98d6 763d
000000b0: a077 a0bd 4afb de3d ba7f 9f3d b74d e1bd
000000c0: c77a c93d 0204 dcbb 3c78 973d ff4b 71bd
000000d0: c159 a23c 43fa 363b a8ac 8a3b e56c fabc
000000e0: 4e0b b3bc e684 96bd c369 bb3d 6f4a 543d
000000f0: 7437 73bd a9dd 7cbc 7970 d5bd 5219 24bd
00000100: 5a22 c4ba 2079 f43d 46bf 14be 9e97 34bd
00000110: b5e8 b1bd ae0d b13d e92d fabd cf05 fa3c
00000120: 9746 d33c ca83 8c3d f190 993c bc3c 14bc
00000130: 3be8 e33d 81d7 e2bc e0b9 bf3d 26cf 6c3d
00000140: f4d1 06bd 5780 29bd 71c6 4e3d f2f6 b7bd
00000150: c9f3 1f3c b792 eabd 07de 863d b05c cebd
00000160: a2c5 8a3c 7e07 e0bd 2831 08bc 2a3a 12bd
00000170: 47f2 7dbd 3e23 cdbc 0c11 3d3c b857 02bd
00000180: a0d9 bf3d c4c3 f5bd f4ad 8c3d a4f4 c4bd
00000190: 070e 83bd 8042 8abc 5505 9cbd 38a0 6c3d
000001a0: 6d35 f43d d31c 28bd d96d eabc fbe0 e0bc
000001b0: 1894 973d 8e3e ef3d 0796 c43c d5a1 ab3c
000001c0: 9df2 f03d d8ef 92bd 423c 7b3d 36be 92bd
000001d0: 9a4c e83c 0237 02be 9a81 ecbc 44b3 e43d
000001e0: b5cb c23d 71e8 2fbd fe35 87bd abcd b1bc
000001f0: 30d4 a43d 3c5b 023d c731 39bd ab07 75bd
00000200: b689 9d3d 8a67 a4bd 3825 81bd c5e8 a4bc
00000210: e836 ef3d 4ca7 c43d a00c b13d 23e9 b5bd
00000220: 31c0 253d c8c7 0cbc 862c 713d 62b0 953d
00000230: e869 ccbd 22ee e4bd 526b 6b3c 28d9 02be
00000240: 2967 bd3d 1992 ccbd 5485 a6bd efc5 97bc
00000250: 1279 843d d6a7 d33d fe1f 553c d359 d83d
00000260: 3f5c 3e3d ff79 f43d b32b 3dbd daea 11bd
00000270: 68c7 34bd 35a4 eabc 7eee d9bd 9605 193d
00000280: df8c b73d 3492 773d 4d85 acbd c09d ec3d
00000290: a116 fabb 07a6 cabb 4088 d7bd 30ba 65bd
000002a0: 923d 193d f264 783c 111a afbd 5922 113e
000002b0: bcb0 4b3d 8610 873d 6951 9cbd 19e7 6dbd
000002c0: d5eb 0f3d 5bff fcbd d72b 5d3d 6243 d23b
000002d0: a313 a83d 0f10 c33d 965a cc3c 4054 803d
000002e0: 9f96 3d3b 566b eb3d f2f8 adbc beff a2bd
000002f0: 7fb8 89bc 6c63 c7bd 40ab 90bd e9d5 cb3c
00000300: 4a25 c93d 1c14 cd3d 22a5 be3d 97c6 c93d
00000310: f9f2 e43d 7afb 99bd 5636 15bd 2a45 753d
00000320: e735 5abd 2cb2 aebc 69e2 dd3d 750a 86bc
00000330: 06f9 b8bc 99e7 613d f4bb f23d b433 46bd
00000340: 8000 9bbc 1bd2 dcbd d659 873c 0819 b13a
00000350: b312 8f3d 88ed d9bd 07ee c9bd 3f4b cc3d
00000360: de58 5abd 3770 1d3c 2c27 ab3d 9f11 d63d
00000370: 3595 e13a f9c8 eabd 13fe e3bd f483 f2bd
00000380: b716 edbb 1aa2 cbbd 5aa4 d23d 5267 dcbd
00000390: d9ee 29bd ae30 443d b16c 63bd 1962 c43d
000003a0: eb7c eb3c e9e9 f53d 9624 bd3c d6cf 973d
000003b0: 6aa8 f7bd 6310 57bd a4e0 3f3d db6d 3dbd
000003c0: 06f5 353d cbf3 a8bd 2afc d33c 76b3 7e3c
000003d0: 1ba9 9cbd 4423 6abb 3737 b23d bf42 ddbd
000003e0: 1179 4f3c f8dc 583d 7c7f ed3d 8c73 fcbd
000003f0: ae7c 683d 237b f83d 5e7f a23d 62fb e8bd

memory_rnn.weight_hh f4 [256, 64]
-0.0917724 0.04037892 0.12569869 0.07371996 0.014143663 0.12250619 -0.08328748 0.03205144
0.0033584195 -0.11561382 0.088933565 0.1133177 -0.102449216 0.10984771 -0.12180689 0.04523384
-0.012133152 0.050887175 0.09052931 -0.10455731 0.022703985 -0.0985258 0.12914191 0.09230357
-0.13462652 -0.11833624 0.09443169 -0.025957359 0.09115852 0.033078924 0.0442948 0.023537708
0.05263287 0.09577708 0.08583246 -0.097107686 0.011834985 -0.11303472 0.009200905 -0.04864459
-0.095942184 -0.026828527 0.017582487 -0.037827004 0.03285001 0.045169014 0.1156271 0.04835006
-0.038112637 -0.069388755 0.033302914 -0.10171998 -0.08390381 0.029628225 -0.052563105 0.09354067
-0.10757795 -0.031402018 0.09787124 -0.056147687 -0.014203992 0.03673014 -0.016086781 0.06456361
0.058817063 -0.074290864 0.10172363 0.08690373 0.05504722 0.01477627 0.101898454 0.020616978
0.09554899 -0.01875347 -0.0657294 -0.056660376 -0.003096085 -0.0026257394 -0.08188983 -0.05443473
-0.11000999 0.06993576 0.13534792 -0.11215367 -0.03012435 0.07112833 -0.11169769 0.12736899
0.08096703 0.018960802 -0.021357512 -0.10678459 0.07009612 0.103033856 -0.093263626 -0.04925116
-0.035189647 0.004498191 0.13228129 -0.111571066 -0.08455086 -0.08618387 0.12191768 -0.046005145
-0.08301377 0.0030321022 -0.11601218 -0.08319771 0.044913407 0.11345042 0.0020000716 0.02307466
-0.07881734 -0.004099384 0.07320327 0.077655174 -0.029694457 0.11492639 -0.10512217 0.14035204
0.08036334 -0.022071568 -0.08861532 0.028910413 0.074246466 0.009980356 0.09219915 0.06196331
-0.021593468 -0.04790849 -0.040876362 0.0046294476 -0.00025155663 -0.031834483 0.075878754 -0.042438176
0.007987305 -0.019382102 -0.11842896 0.08776553 0.12728219 -0.015076255 -0.08290705 -0.05318705
-0.119319275 0.108187586 -0.05301125 -0.12659319 -0.024201073 0.059390422 -0.054677483 0.08163083
-0.11314569 -0.094906256 -0.052576862 -0.112850465 0.12705225 0.087119594 0.0025965988 0.053311028
-0.05228513 0.084299445 0.06291308 -0.06896484 -0.058943555 -0.07751161 -0.044152472 -0.05215556
-0.08554527 0.03612066 0.043178678 -0.081578344 -0.07856494 0.0586637 0.047850695 0.04297438
0.037637435 0.024222136 0.11292127 0.082854934 0.04872771 0.04411727 -0.0513253 0.07217598
-0.1218377 0.026422592 -0.047958806 -0.10552098 -0.10547394 0.12725604 -0.108512 0.010994277
0.07786148 -0.11380086 0.035480738 -0.010147891 -0.10478004 0.112894334 -0.02571195 0.09912869
-0.10755525 -0.053368986 -0.011480926 -0.028679585 -0.0072091785 -0.066993654 0.0007785034 0.013650586
0.07795461 0.018408203 0.10785922 -0.033469368 0.025262322 -0.0445422 -0.06793521 0.07392188
-0.013740676 -0.006894394 -0.05390216 -0.028576 0.112116955 0.035056118 -0.10925736 -0.075470425
0.020216463 -0.07704064 -0.09768602 0.104023345 -0.08702714 -0.11127306 0.12000909 0.07829107
-0.06764211 0.049109075 -0.03547376 0.097746745 -0.035814583 -0.1206599 -0.02658269 0.088241935
-0.056788642 7.24076e-05 0.034367394 -0.027849985 -0.041721277 -0.117958784 0.048780777 0.030797742
-0.0454235 -0.05300371 -0.10086743 0.003400151 -0.044531573 -0.05505056 -0.010625758 -0.04712416
00000000: 2bf3 bbbd 5e64 253d 28b7 003e 7efa 963d
00000010: d3ba 673c 86e4 fa3d a092 aabd 5f48 033d
00000020: ee18 5c3b f0c6 ecbd cd22 b63d 1c13 e83d
00000030: e5d0 d1bd d6f7 e03d e475 f9bd 1e47 393d
00000040: 21ca 46bc 126f 503d 6e67 b93d 2522 d6bd
00000050: b5fd b93c e5c7 c9bd c73d 043e a709 bd3d
00000060: 89db 09be 455a f2bd 6765 c13d 87a4 d4bc
00000070: 51b1 ba3d c47d 073d 776e 353d 27d2 c03c
00000080: 9095 573d c626 c43d eec8 af3d 65e0 c6bd
00000090: 86e7 413c bf7e e7bd 65bf 163c 8d3f 47bd
000000a0: 567d c4bd 80c7 dbbc 2609 903c 7df0 1abd
000000b0: bb8d 063d 2503 393d e7cd ec3d b60a 463d
000000c0: ff1b 1cbd b11b 8ebd a368 083d 9152 d0bd
000000d0: c3d5 abbd e4b6 f23c 694c 57bd 4092 bf3d
000000e0: d451 dcbd 679f 00bd b770 c83d 1efb 65bd
000000f0: dcb7 68bc 5872 163d 6dc8 83bc ed39 843d
00000100: 29ea 703d cf25 98bd 7b54 d03d 95fa b13d
00000110: 3279 613d 2b18 723c 23b0 d03d f0e4 a83c
00000120: 30af c33d e1a0 99bc 239d 86bd b614 68bd
00000130: b0e7 4abb 9914 2cbb dbb5 a7bd f4f6 5ebd
00000140: eb4c e1bd 7b3a 8f3d a598 0a3e d3b0 e5bd
00000150: 57c7 f6bc bbab 913d c2c1 e4bd 046d 023e
00000160: 0bd2 a53d af53 9b3c f3f5 aebc e1b1 dabd
00000170: 8e8e 8f3d 6a03 d33d 0001 bfbd 96bb 49bd
00000180: 0523 10bd 9065 933b bf74 073e 5f7f e4bd
00000190: 0029 adbd 2b81 b0bd faaf f93d e46f 3cbd
000001a0: 2003 aabd 3cb6 463b cb97 edbd 9063 aabd
000001b0: 1ff7 373d b258 e83d a213 033b 1207 bd3c
000001c0: fc6a a1bd 2054 86bb 99eb 953d ad09 9f3d
000001d0: ca41 f3bc 875e eb3d 4b4a d7bd 72b8 0f3e
000001e0: 8995 a43d 6fcf b4bc f37b b5bd 88d5 ec3c
000001f0: 880e 983d a684 233c e8d2 bc3d 3dcd 7d3d
00000200: c9e4 b0bc b13b 44bd f96d 27bd 9fb2 973b
00000210: 5ce3 83b9 e064 02bd 5266 9b3d a7d3 2dbd
00000220: 2fdd 023c 37c7 9ebc e28a f2bd 6abe b33d
00000230: 4356 023e 6602 77bc 2ccb a9bd aada 59bd
00000240: aa5d f4bd 7491 dd3d 5322 59bd a5a1 01be
00000250: 5441 c6bc 5f43 733d 7ff5 5fbd 112e a73d
00000260: edb8 e7bd 365e c2bd d65a 57bd 251e e7bd
00000270: fc19 023e c26b b23d b32b 2a3b aa5c 5a3d
00000280: ef28 56bd 30a5 ac3d 93d8 803d 703d 8dbd
00000290: cc6e 71bd 68be 9ebd 39d9 34bd 12a1 55bd
000002a0: 5c32 afbd 42f3 133d 20dc 303d 8c12 a7bd
000002b0: a8e6 a0bd 5949 703d 17ff 433d e705 303d
000002c0: b629 1a3d 806d c63c 4443 e73d d9af a93d
000002d0: b596 473d 4fb4 343d 7a3a 52bd 00d1 933d
000002e0: 0b86 f9bd 3174 d83c 7470 44bd 621b d8bd
000002f0: b902 d8bd 684f 023e 8a3b debd 5721 343c
00000300: d775 9f3d 6d10 e9bd 4054 113d 5743 26bc
00000310: eb96 d6bd 2535 e73d dea1 d2bc fc03 cb3d
00000320: ed45 dcbd 7099 5abd 7e1a 3cbc 73f1 eabc
00000330: f93a ecbb f833 89bd 7b14 4c3a b5a6 5f3c
00000340: aba6 9f3d cdcc 963c 4be5 dc3d 2d17 09bd
00000350: eef2 ce3c e271 36bd 9e21 8bbd 5b64 973d
00000360: 9320 61bc 5eea e1bb 83c8 5cbd 3718 eabc
00000370: 939d e53d 0197 0f3d 53c2 dfbd 3d90 9abd
00000380: ff9c a53c 7cc7 9dbd 9c0f c8bd 310a d53d
00000390: 493b b2bd 21e3 e3bd 53c7 f53d 1257 a03d
000003a0: f287 8abd 9926 493d ef4c 11bd 722f c83d
000003b0: 50b2 12bd 8a1c f7bd f1c3 d9bc 30b8 b43d
000003c0: 359b 68bd 89d9 9738 d3c4 0c3d a725 e4bc
000003d0: eee3 2abd 6094 f1bd 5ace 473d 8c4b fc3c
000003e0: fe0d 3abd 6b1a 59bd 9593 cebd 11d5 5e3b
000003f0: bd66 36bd b27c 61bd a917 2ebc 4305 41bd

memory_rnn.bias_ih f4 [256]
0.07655834 -0.11195131 -0.1091384 -0.04367086 -0.10683304 -0.08306246 -0.06957801 0.09637924
-0.060336046 -0.12903 -0.04246853 -0.1013869 -0.12129203 -0.069509715 -0.1416812 -0.07693415
-0.1686503 -0.06941314 -0.16559975 -0.015626358 -0.013695369 -0.094757795 -0.04688063 -0.121155486
-0.13225213 -0.052308995 -0.057047058 -0.12658107 0.03641602 -0.0010612145 -0.15690634 -0.11743647
0.019650396 -0.011572906 0.05106763 -0.03428458 -0.03885295 -0.07126395 -0.08843262 -0.12340252
-0.00041446145 0.07729878 0.025343748 -0.061086893 -0.012296439 -0.13618392 -0.048574455 0.08288641
-0.041554935 -0.026335735 0.088608645 0.07281568 -0.0591593 -0.14356427 0.09562878 0.038988203
-0.02997671 0.066542946 0.017707186 -0.03646406 0.09282148 -0.010144418 0.026014779 -0.022260714
0.05285362 -0.09187562 -0.008718132 -0.1428179 0.05360449 0.0014186172 0.07182956 -0.09758971
-0.02269823 0.0049594636 -0.035933036 -0.08982919 0.037252475 0.015264679 -0.1244464 0.00489445
0.02871464 0.08395241 0.04311123 0.044559304 -0.020431219 -0.1206534 -0.07747112 -0.0055573704
-0.06783949 -0.052057758 -0.047483154 0.039632097 -0.06984197 -0.08321022 -0.01245139 0.10796344
-0.11245456 0.09433856 0.029389976 -0.014041484 -0.14803937 -0.06387132 -0.028987098 -0.14423272
0.025135513 -0.06416064 0.09003663 -0.060453407 -0.12688316 0.10054852 -0.035752874 -0.047381647
-0.06229243 -0.079612166 0.006785195 -0.07784827 -0.14875142 0.0015326968 -0.05918567 0.08647569
-0.096830726 -0.02500587 0.062680185 0.08289694 -0.033560313 0.043474767 0.0025576553 -0.06302478
0.043142337 -0.022494527 -0.026548903 0.036731258 0.01522461 -0.044353977 0.09335902 -0.084834576
-0.03849818 0.060889572 -0.011508586 -0.029012533 0.0051446534 0.03538429 -0.048117634 -0.05243031
0.03040631 0.07330792 0.008941165 0.05401886 0.010827825 0.072682336 -0.011513098 0.0138272215
0.07596281 -0.06858685 0.028669914 0.03557258 -0.05554151 -0.01779751 0.09327624 0.06698142
-0.069326326 -0.027202856 -0.05472289 0.028292278 -0.010317643 0.034230944 0.022663666 0.014392912
0.098656446 -0.05512108 -0.09592416 -0.059060488 -0.03200302 -0.09452238 0.028431403 -0.00448179
-0.08425704 -0.04475597 -0.002514091 0.07631589 -0.059330873 0.024439469 0.09047362 -0.03655791
0.0207543 -0.056372445 0.09212544 0.01224484 0.081178196 0.0037963416 0.043565825 0.055310745
0.032277435 -0.12415314 -0.013064375 -0.0913259 0.07568344 0.0681364 -0.11535136 0.07246861
0.044653133 -0.08903068 -0.052237414 -0.04477265 -0.009965347 -0.051639635 -0.11353898 0.05669389
0.022422284 -0.082456626 0.0059175724 -0.02126191 0.05127917 -0.02706621 -0.020513933 -0.012416365
0.07318857 -0.10209479 0.013338951 -0.14018977 -0.084644236 -0.13431565 0.056347765 -0.1132173
-0.07990406 -0.05384764 0.048198894 -0.15481177 0.044370238 -0.12907314 0.05600493 0.025392761
-0.16530085 -0.0023389645 -0.06872377 0.064530514 0.032213714 -0.011019199 0.017346462 0.0020635093
-0.10224886 -0.024218267 -0.015300111 0.070201874 -0.13500683 -0.012891674 -0.1401269 -0.076627836
-0.013097057 -0.15155783 -0.083969556 -0.13621917 -0.025095453 0.065815106 -0.061312884 -0.0065603782
00000000: 9eca 9c3d ba46 e5bd f483 dfbd 37e0 32bd
00000010: 48cb dabd a71c aabd ea7e 8ebd 7b62 c53d
00000020: ee22 77bd 7120 04be 7bf3 2dbd efa3 cfbd
00000030: f567 f8bd 1c5b 8ebd e014 11be a78f 9dbd
00000040: aab2 2cbe 7a28 8ebd fb92 29be d902 80bc
00000050: 8a62 60bc 6010 c2bd e705 40bd 5e20 f8bd
00000060: 1a6d 07be f541 56bd 2daa 69bd 789e 01be
00000070: f728 153d 7318 8bba 0eac 20be 8882 f0bd
00000080: def9 a03c 499c 3dbc 4b2c 513d fd6d 0cbd
00000090: 4524 1fbd d5f2 91bd 291c b5bd 76ba fcbd
000000a0: 134c d9b9 d34e 9e3d b19d cf3c 4036 7abd
000000b0: 0177 49bc cc73 0bbe 02f6 46bd 5ac0 a93d
000000c0: 8235 2abd 0abe d7bc 7378 b53d 6320 953d
000000d0: 0651 72bd 8302 13be 06d9 c33d 18b2 1f3d
000000e0: b891 f5bc ab47 883d a90e 913c 575b 15bd
000000f0: 3019 be3d c634 26bc f21c d53c 1a5c b6bc
00000100: 0a7d 583d 4929 bcbd 7fd6 0ebc db3e 12be
00000110: 6290 5b3d e5f0 b93a 601b 933d 1ddd c7bd
00000120: a3f1 b9bc ff82 a23b 852e 13bd 5ef8 b7bd
00000130: 0d96 183d b418 7a3c c1dd febd 9f61 a03b
00000140: f73a eb3c 3eef ab3d 6795 303d d183 363d
00000150: 5f5f a7bc 2119 f7bd 2ea9 9ebd 9a1a b6bb
00000160: 6eef 8abd 843a 55bd b27d 42bd 4455 223d
00000170: 4f09 8fbd 1f6a aabd ea00 4cbc f01b dd3d
00000180: 944e e6bd 9334 c13d 3fc3 f03c 410e 66bc
00000190: a297 17be f7ce 82bd 5a76 edbc beb1 13be
000001a0: fee8 cd3c a766 83bd 2065 b83d fe9d 77bd
000001b0: a9ed 01be 62ec cd3d 9b71 12bd 4213 42bd
000001c0: 5926 7fbd b40b a3bd 5756 de3b ea6e 9fbd
000001d0: 4b52 18be c5e4 c83a ac6c 72bd 2b1a b13d
000001e0: 304f c6bd 1cd9 ccbc 785e 803d dfc5 a93d
000001f0: 8a76 09bd 9912 323d 569e 273b 2313 81bd
00000200: 05b6 303d 7146 b8bc 167d d9bc 8473 163d
00000210: a570 793c 84ac 35bd 0433 bf3d c0bd adbd
00000220: 45b0 1dbd 5867 793d 828e 3cbc b1ab edbc
00000230: 7b94 a83b 1eef 103d ff16 45bd 2ac1 56bd
00000240: a716 f93c 7622 963d f77d 123c e142 5d3d
00000250: 3167 313c 7ada 943d 6fa1 3cbc 928b 623c
00000260: 6492 9b3d 4377 8cbd 2bdd ea3c 8eb4 113d
00000270: 7f7f 63bd 15cc 91bc 9d07 bf3d 8e2d 893d
00000280: f6fa 8dbd 86d8 debc 1c25 60bd 35c5 e73c
00000290: 550b 29bc bf35 0c3d 27a9 b93c 40d0 6b3c
000002a0: 640c ca3d a4c6 61bd e373 c4bd 69e9 71bd
000002b0: 9915 03bd f394 c1bd f9e8 e83c fbdb 92bb
000002c0: f48e acbd 0952 37bd 73c3 24bb 814b 9c3d
000002d0: ee04 73bd 4835 c83c 3c4a b93d bfbd 15bd
000002e0: ec04 aa3c cbe6 66bd 43ac bc3d 959e 483c
000002f0: c140 a63d 0bcc 783b 1472 323d 858d 623d
00000300: 5835 043d 0044 febd f60b 56bc 1309 bbbd
00000310: ebff 9a3d 198b 8b3d 553d ecbd 6c6a 943d
00000320: 34e6 363d b855 b6bd e6f6 55bd 8763 37bd
00000330: b245 23bc 1584 53bd 2087 e8bd da37 683d
00000340: f0ae b73c 05df a8bd 32e8 c13b 752d aebc
00000350: 1b0a 523d f5b9 ddbc d60c a8bc 026e 4bbc
00000360: e4e3 953d 1317 d1bd 9e8b 5a3c e88d 0fbe
00000370: f559 adbd 0b8a 09be eacc 663d 79de e7bd
00000380: bda4 a3bd 588f 5cbd 346c 453d fa86 1ebe
00000390: 91bd 353d c02b 04be 6d65 653d 7b04 d03c
000003a0: a044 29be 5049 19bb 0cbf 8cbd 9328 843d
000003b0: 87f2 033d df89 34bc 2b1a 8e3c f13b 073b
000003c0: da67 d1bd 6365 c6bc 51ad 7abc 00c6 8f3d
000003d0: 3b3f 0abe 9a37 53bc 6d7d 0fbe 0eef 9cbd
000003e0: 0a95 56bc fa31 1bbe 3bf8 abbd 0a7d 0bbe
000003f0: fb94 cdbc 12ca 863d 3823 7bbd 71f8 d6bb

memory_rnn.bias_hh f4 [256]
-0.084559396 0.053959157 -0.028346784 0.03272328 0.09316264 0.01014242 -0.11714271 0.015857307
-0.018224064 -0.072025254 -0.04739463 0.058311865 0.05233347 -0.031768244 -0.08759244 -0.06604412
-0.057237137 0.07313733 -0.06506389 -0.13482934 0.05742122 0.09259103 -0.07246019 -0.08264859
0.0851743 -0.17265476 -0.023538912 -0.008023024 -0.12293261 -0.1287446 0.031189708 -0.09212521
0.083117425 -0.14901283 -0.08470515 0.08690645 -0.089717396 -0.026575025 0.046054717 -0.1461125
-0.031350125 -0.11731709 -0.041521456 -0.0537078 -0.045151215 -0.06915201 -0.011474878 -0.03442028
0.035273857 -0.00047767238 0.038433857 -0.055788666 -0.11264655 0.098783314 0.014158186 -0.038466588
-0.021037646 0.07148837 -0.0680472 -0.066624604 0.06325962 -0.1619649 -0.13978712 0.06750664
0.036621958 -0.014598262 0.02253071 0.09532334 0.061977465 -0.056334395 0.026092364 -0.059436247
-0.04313112 -0.12759207 0.060232297 0.032236185 0.06291333 -0.11295484 0.04423198 0.062043443
-0.015773915 0.011275569 -0.020015575 0.04939429 -0.097743586 -0.062760256 -0.114478335 -0.03643038
0.03280236 -0.09592501 0.06351025 -0.12778006 0.085265346 -0.1395004 -0.067995764 -0.02332369
-0.06107743 0.07944045 -0.09854715 -0.04492451 0.046536 0.07529521 -0.03459158 -0.06825005
0.084170945 -0.03835772 -0.03868616 -0.03420928 0.012385404 0.015522662 -0.03994209 -0.015147024
-0.027873289 -0.11643486 -0.074066155 -0.13994874 0.06671887 -0.05903289 -0.008953194 -0.0105536925
-0.040822584 -0.075054266 -0.07888281 0.034561947 -0.062226087 -0.07428117 -0.09725171 0.04447574
-0.043680083 -0.011890281 -0.025240019 0.05576808 0.05993693 0.054050162 -0.095541984 0.0049494444
0.07012564 0.016947806 -0.0024597757 0.084160864 -0.019774633 0.0028517826 0.005464464 -0.0069513437
0.033216562 0.049534053 -0.03998377 -0.019015143 0.05093887 -0.11271298 -0.0011542077 0.031747982
-0.02482058 0.104726724 0.04027777 0.04549043 -0.03086013 -0.015539174 -0.06858263 -0.079472736
-0.019063106 0.09671225 0.011770089 0.02389825 -0.055808265 -0.09574652 -0.049513046 0.015060242
-0.122094154 0.043864407 0.07408989 0.0156896 0.010312115 0.10803846 0.09108252 -0.0030555641
-0.033316843 0.024868794 -0.04329518 0.04171341 -0.03561181 -0.097635455 0.08244206 -0.02176996
0.03564854 -0.014736552 0.019657874 -0.0069261766 -0.08994242 -0.008298425 -0.033835568 -0.03165667
0.04380194 -0.029324844 -0.0808457 0.07619605 -0.10260301 0.08149139 0.01929181 -0.017920393
0.0891771 -0.13910452 -0.13124152 0.04132751 -0.13877144 -0.0326703 0.08402623 -0.045314778
-0.13090672 0.038945224 -0.13186283 -0.10752404 0.04436559 -0.12780331 0.07841031 -0.13071635
-0.114589944 -0.08234429 -0.07086726 -0.031644855 0.08200004 -0.07414847 0.06270411 -0.10083013
0.009269368 0.0488509 -0.15145464 -0.08393664 0.07712236 0.033529203 -0.14538848 0.0889933
-0.073853284 -0.05389451 0.10169254 -0.019724583 0.029761987 0.011449174 0.011762177 -0.14608748
-0.014815832 0.09018104 0.07035045 -0.06474897 -0.059920244 -0.06374092 -0.13921063 0.0003966048
-0.042266607 0.062991895 -0.14151773 0.049638305 0.046222303 -0.120593324 0.046184897 -0.028656952
00000000: 7a2d adbd 4704 5d3d 8437 e8bc d908 063d
00000010: 0ecc be3d 652c 263c 84e8 efbd 2fe7 813c
00000020: a24a 95bc fa81 93bd df20 42bd 6cd8 6e3d
00000030: 9f5b 563d 6b1f 02bd aa63 b3bd 2442 87bd
00000040: 7d71 6abd 06c9 953d 3740 85bd b410 0abe
00000050: 8332 6b3d 5ea0 bd3d 0266 94bd aa43 a9bd
00000060: dd6f ae3d 69cc 30be add4 c0bc 0073 03bc
00000070: 18c4 fbbd a0d5 03be 8f81 ff3c 24ac bcbd
00000080: 7839 aa3d d296 18be e579 adbd 02fc b13d
00000090: c1bd b7bd deb3 d9bc dfa3 3c3d 849e 15be
000000a0: fd68 00bd f143 f0bd 6712 2abd b6fc 5bbd
000000b0: 7bf0 38bd 929f 8dbd 2001 3cbc 48fc 0cbd
000000c0: 527b 103d 1a70 fab9 d26c 1d3d a882 64bd
000000d0: 3cb3 e6bd e84e ca3d bcf7 673c 248f 1dbd
000000e0: 2457 acbc 7f68 923d 555c 8bbd 7b72 88bd
000000f0: 428e 813d 20da 25be 5b24 0fbe ec40 8a3d
00000100: e800 163d 8c2d 6fbc 5392 b83c e238 c33d
00000110: 15dc 7d3d e5be 66bd a7bf d53c 6c73 73bd
00000120: 42aa 30bd 7fa7 02be 24b6 763d 170a 043d
00000130: b4d8 803d de54 e7bd 982c 353d 4421 7e3d
00000140: 4c38 81bc 2abd 383c b4f7 a3bc ab51 4a3d
00000150: ca2d c8bd 7388 80bd 9e73 eabd 0638 15bd
00000160: c45b 063d 5574 c4bd a911 823d c7d8 02be
00000170: 999f ae3d 31d9 0ebe 5d41 8bbd 5311 bfbc
00000180: 542c 7abd adb1 a23d 17d3 c9bd c302 38bd
00000190: 889c 3e3d 6034 9a3d e7af 0dbd afc6 8bbd
000001a0: d161 ac3d fc1c 1dbd 6175 1ebd 081f 0cbd
000001b0: 26ec 4a3c c352 7e3c 519a 23bd 392b 78bc
000001c0: 8656 e4bc 6675 eebd ffaf 97bd b94e 0fbe
000001d0: e7a3 883d 79cc 71bd 6bb0 12bc 65e9 2cbc
000001e0: 9535 27bd 0db6 99bd 508d a1bd d490 0d3d
000001f0: c8e0 7ebd ba20 98bd e82b c7bd 322c 363d
00000200: e3e9 32bd 74cf 42bc 28c4 cebc 126d 643d
00000210: 6d80 753d b463 5d3d 84ab c3bd f32e a23b
00000220: 089e 8f3d 20d6 8a3c 3034 21bb 885c ac3d
00000230: 69fe a1bc f9e4 3a3b 3f0f b33b 19c8 e3bb
00000240: 170e 083d 38e4 4a3d 06c6 23bd a5c5 9bbc
00000250: 47a5 503d 10d6 e6bd c948 97ba 2c0a 023d
00000260: 8754 cbbc f77a d63d 4efa 243d 2c54 3a3d
00000270: 62ce fcbc 0598 7ebc 0d75 8cbd 9ac2 a2bd
00000280: 3b2a 9cbc 1211 c63d 55d7 403c 43c6 c33c
00000290: 3597 64bd c016 c4bd 31ce 4abd 3cbf 763c
000002a0: 800c fabd 2aab 333d 71bc 973d 7a87 803c
000002b0: 25f4 283c 4543 dd3d 7989 ba3d dc3f 48bb
000002c0: 3e77 08bd a4b9 cb3c 4956 31bd aedb 2a3d
000002d0: b0dd 11bd 19f5 c7bd 62d7 a83d ea56 b2bc
000002e0: 3404 123d 9471 71bc 8d09 a13c fbf4 e2bb
000002f0: bb33 b8bd 1ef6 07bc 2a97 0abd 6daa 01bd
00000300: aa69 333d a83a f0bc 6e92 a5bd ad0c 9c3d
00000310: 8721 d2bd f5e4 a63d dc09 9e3c cacd 92bc
00000320: 7ca2 b63d 6a71 0ebe 2d64 06be 0947 293d
00000330: 1a1a 0ebe 4bd1 05bd f215 ac3d fd9b 39bd
00000340: 690c 06be 0785 1f3d 0d07 07be 9035 dcbd
00000350: b1b8 353d dfde 02be 9695 a03d 82da 05be
00000360: 22ae eabd 20a4 a8bd db22 91bd 099e 01bd
00000370: a3ef a73d 27db 97bd 036b 803d 0780 cebd
00000380: 8cde 173c e217 483d ed16 1bbe f9e6 abbd
00000390: 54f2 9d3d eb55 093d b8e0 14be 1f42 b63d
000003a0: 6440 97bd 7dc0 5cbd 2e44 d03d 7395 a1bc
000003b0: 69cf f33c 5195 3b3c 25b6 403c f597 15be
000003c0: 1abe 72bc d6b0 b83d e613 903d 1c9b 84bd
000003d0: ee6e 75bd 998a 82bd 3b8d 0ebe 65ef cf39
000003e0: c01f 2dbd e501 813d 06ea 10be 8951 4b3d
000003f0: 9953 3d3d a2f9 f6bd 602c 3d3d fcc1 eabc
