torch-rl/storage/Lstm-Customs-NineRoomsLava-16x16/status.pt (torch, 649237 bytes, 51 tensors)

image_conv.0.weight f4 [16, 3, 2, 2]
00000000: 3ef6 ef3d d85e 81be fbaa 4cbd fbdb 7d3e
00000010: 695c 88be 8dba 7fbd b36a 37be 889c 003d
00000020: 2360 243d 94c7 10bd 45fa a33d 7e52 693c
00000030: 5349 c4bd 44bc a4be 8524 1fbe 1a40 2cbe
00000040: df41 1dbd ee07 2abc 0bcb 053e 70fd 88bc
00000050: 472b dcbd 7288 32be e430 46bd f102 ffbd
00000060: 559f 91be a120 d7bc e9dc 0b3e 5292 8c3d
00000070: c693 51be 7d41 403e ccca 7bbd e405 413e
00000080: aa1d 433e ecaa 86be f487 8cbe 3894 0ebe
00000090: b471 3f3e 61d3 31be 6673 b0bd e7f8 7fbe
000000a0: 2b6a 2b3e 0620 053c dd36 ba3d 92fb e6bc
000000b0: 9fba 1bbe cbf1 173e 86e9 1cbe 6de0 ad3d
000000c0: 4363 d6be 9fff 033c d18e 09bf c62a 40be
000000d0: a2b8 86bd 5a8e 033e 6800 8e3d ac14 513e
000000e0: a175 5dbc 6b4f 45be e102 343e 357c b73d
000000f0: 7565 d9be eaae b2bd 5be7 bf3b 0da0 d13e
00000100: 1e63 9fbe e9e7 a7be 46ac 77be fa9e 113d
00000110: ba56 60be 49c4 51be 3fcf 203e 19a2 8abd
00000120: 8c97 563e 5a12 d8bc 8d19 c73d a89b c3bc
00000130: 4b8a 3a3e d94b d23d b52e 2bbe deb2 0fbe
00000140: 77d8 4fbe 0e09 5fbe c3d0 8f3c e17d 49bd
00000150: 9a62 533e 9314 86be a2dd 9bbe 7ace 023f
00000160: 62b7 abbe d021 82be bddd 9cbe 36f9 893c
00000170: 798b 6d3d 7e01 8e3d 7cec 45be 6e41 0cbe
00000180: 59e4 613e e11c 8dbd 028b 4dbe 9ba0 1bbe
00000190: 9348 143e ae60 0bbe aa3c bb3c 80a6 5bbd
000001a0: 8214 3fbe ca63 7bbe 87df 8d3e 9bf7 763c
000001b0: da52 0f3e 2504 02be 14a5 99bd c297 643e
000001c0: 8f77 25bc 7a85 bfbe 106f 0bbe 2034 433e
000001d0: 3b25 563e e2a3 373e 08ef 55be 7edd 54be
000001e0: f0b5 98be 98b1 933d 4fb4 fa3e 72f4 82be
000001f0: 769c abbd b871 7bbe 518c 79bd 9b2a 9abe
00000200: 6b51 2a3e 2237 893e c594 37be 694c 803d
00000210: add0 e33e ef3a 893e 5318 c73d 61d3 553e
00000220: e2f0 543e 0daf 5f3e 6422 95be f0d1 4bbe
00000230: 9873 07be ebaf 09bd d330 35be 8d4b d83d
00000240: 5905 a8bb 21ea 0bbe f949 b83d 2f82 e1bc
00000250: f693 313e 159b 193e 7213 8dbe 9dd0 423e
00000260: 36b2 08bd f17d 22bc ce81 8bbe 4e41 3ebe
00000270: f066 07be cbbd ffbd 5a3b 9e3e 5a04 d3bd
00000280: cf32 0bbe a7ea 94bd 0ea3 273e 1ecd 033e
00000290: 6cf7 18be b62e 803d aa3a d7bd 45d4 84bd
000002a0: 6781 c2be 1a5c 60be 82b4 15be 42a0 9f3d
000002b0: 6ce1 06be d16b bdbc c5dc 8a3e b031 863e
000002c0: 8b9d 493e e29b 163c f07e 4cbe 5104 673e
000002d0: c4fb e2be 6cc7 44bd a812 3bbf 9b01 3dbd
000002e0: c95b 73be c135 833e 288e 7fbe 1b10 60bd
000002f0: fa99 20bc 59d6 1fbe 688a d33d 1292 e3bd
0.11716889 -0.25267673 -0.049967747 0.24790947 -0.26633003 -0.062433768 -0.17911796 0.03139928
0.040130746 -0.035346583 0.080067195 0.014240859 -0.09584298 -0.32174885 -0.15541275 -0.16821328
-0.038392898 -0.010377867 0.13065736 -0.01672241 -0.10750442 -0.17434862 -0.04838647 -0.12451733
-0.28441873 -0.026260676 0.1365849 0.06863846 -0.20466527 0.18774982 -0.0614727 0.18849903
0.19054285 -0.26302278 -0.27447474 -0.13923728 0.18695718 -0.17365791 -0.086157605 -0.24997292
0.16739719 0.008125311 0.090924956 -0.02819613 -0.15207909 0.1483833 -0.15323457 0.084900714
-0.41872606 0.00805655 -0.53733546 -0.18766317 -0.06578185 0.12847272 0.06933671 0.20418042
-0.013516814 -0.19268577 0.17579223 0.089592375 -0.42460218 -0.087247685 0.005856437 0.40942422
-0.31130308 -0.3279412 -0.24186811 0.035552002 -0.21908084 -0.20485033 0.15704058 -0.06769199
0.20956248 -0.026375938 0.0972167 -0.023877934 0.18216817 0.10268373 -0.16717036 -0.14033076
-0.20297419 -0.21780798 0.0175556 -0.049192313 0.20643082 -0.26187572 -0.3044253 0.5109631
-0.33538347 -0.25416422 -0.30637923 0.016842466 0.05799434 0.06933878 -0.19328493 -0.13696834
0.22059764 -0.06890274 -0.20072559 -0.15197985 0.1448081 -0.13611099 0.022856075 -0.053625584
-0.18660167 -0.24549785 0.277096 0.015073682 0.13996449 -0.12696894 -0.07502189 0.22323516
-0.010099306 -0.37406522 -0.13616586 0.19062853 0.2091264 0.1793361 -0.20891964 -0.20787618
-0.29826307 0.07211608 0.4896569 -0.25577122 -0.08379452 -0.24555099 -0.06092483 -0.3011063
0.16632621 0.26799875 -0.17927845 0.06264574 0.44495144 0.26802775 0.09721436 0.20881416
0.20795015 0.2184412 -0.291278 -0.19904304 -0.1322769 -0.033615034 -0.17694406 0.10561285
-0.0051275906 -0.13663532 0.08998484 -0.027527897 0.17341599 0.15000565 -0.27553898 0.19024892
-0.03337308 -0.009917722 -0.2724747 -0.185796 -0.13222861 -0.12487372 0.30904657 -0.10303564
-0.135936 -0.07271319 0.16370794 0.12871215 -0.14938134 0.062589094 -0.10509236 -0.064858
-0.3798935 -0.21910134 -0.1461964 0.077942386 -0.13171929 -0.0231227 0.2712156 0.26209784
0.19689004 0.009192439 -0.19970298 0.2256024 -0.44332707 -0.048041746 -0.7307534 -0.04614411
-0.23765482 0.25626948 -0.24956572 -0.05470286 -0.009802336 -0.15609111 0.10329133 -0.11111845

image_conv.0.bias f4 [16]
00000000: 3c27 74be 4f5d ffbd 0a6d 313e d173 b0be
00000010: 05a1 ac3d 2a11 d23d ec1f 933e 0d78 4abe
00000020: e1bf 8bbd d5e1 c2be 8104 e23e 680f 84bd
00000030: 4105 1d3e 1f7b 4b3d b9c4 fbbd 018c 7ebd
-0.23843092 -0.12468969 0.17326751 -0.3446336 0.084291495 0.1025718 0.28735292 -0.19772358
-0.06823707 -0.3806292 0.4414406 -0.06448251 0.15334035 0.049677964 -0.12293381 -0.062145237

image_conv.3.weight f4 [32, 16, 2, 2]
00000000: acb1 c9bd 9d3e 143e bf2c 87bd 5810 8d3d
00000010: 4580 94bd 77f0 f93d 77c9 c63d 688f c33d
00000020: 9032 1c3e f2eb 2fbe 31a8 3b3c e2a4 15bc
00000030: 6bf8 dfbd 17ee db3d 4162 01be 2ce2 dfbd
00000040: 1c59 263e 96c0 35be 6978 9fba ac93 edbc
00000050: 05b8 413d 12f5 1a3e 0623 7cbc 2092 0ebe
00000060: 78ad f93d 2e31 263d 2880 9abd db3f 933d
00000070: 74d2 d2bc b549 bf3d 9e59 973c 0356 bb3b
00000080: 5537 9dbd b4eb 0c3d 2220 5f3c 8096 49bd
00000090: 78e3 38bd 2801 3bbd 4103 68be 5dec eabd
000000a0: 1a69 acbd 1c91 343e 3597 373e e2d2 0b3d
000000b0: b167 e73d 98bd 883d 24f9 733d db19 613c
000000c0: 89a5 073e 3ec7 483d ac66 423d 71d9 d1bd
000000d0: c6b0 dc3d 1545 463e 52fb c4bd 8668 983d
000000e0: 1175 d53d b6b5 9fbd 1136 393d 0c98 47be
000000f0: b2dc a03d efac 10be 95d2 4a3d fec3 c6bc
00000100: db8d ce3d 2cd7 da3d d437 a8bd f584 bfbd
00000110: fa78 01be ce7c debc c0fe 9ebd ef01 86bc
00000120: 70de bcbd 8852 803d 1bfd 8d3d 20c4 3abd
00000130: ed32 48be c44a 21bd afbf 68be 405c db3d
00000140: 849c 093c 3641 2ebc b116 e73c 1bb0 14be
00000150: 93f8 813d 9a0c 893d cc33 ccbd fad3 f4bd
00000160: 54a0 46be cb0f c2bd 3102 49be 9657 b3bd
00000170: 954f 513d 830f b5bb 5582 483d 3c8e d8bd
00000180: bb59 50be f8c3 ecbd 2595 89be 71b9 913d
00000190: 0f71 40bd ae19 a33d e939 3cbe 872f 59bd
000001a0: 2ec7 dcbd 6b72 1abe 22f2 023d 3d5f 37be
000001b0: 63b8 92be 8843 cfbb f290 44be 5dcf 4dbc
000001c0: b9e3 02be 68ee 3cbd 3ec6 f7bd 5395 c1bd
000001d0: fe49 8fbb c6eb 09bd 55fc aabd 68ec 833d
000001e0: 1d1a 03be 8a8f 5bbb 40d1 273d 2617 053d
000001f0: 57ae 5f3c 9d51 12be bd40 01bd feaa c8bd
00000200: b46a 9cbd 5837 163e 1d2d 6f3e 4d22 77be
00000210: fb29 c23c 477c a5bd 76c3 84bd 4af1 063e
00000220: e5e3 213e e154 a93d bd48 c83d d294 0c3c
00000230: cd0a 18bd f2a1 7bbb 035d 273e 5108 533c
00000240: 1adf 9d3d 1fda 663c 6c6b 283e 86f2 043e
00000250: b719 043e 800f 8f3e ccf5 a93e b15f 2fbe
00000260: 68d9 743e bfc1 fdbc 8a43 bb3e 0a1b f93b
00000270: e904 0cbb 7fe7 923e 7bfc 523e f93a 89be
00000280: 61cf 6d3e ee1b cd3d 5365 08bd 4200 6c3d
00000290: 9888 5a3d ab4f 76bc 21eb b73e a6d5 823d
000002a0: 7f26 3d3e f1f6 d13e 7769 813e 0ef9 6f3c
000002b0: 5e6d 8c3e 836d 933d 77db f43e dbad f5bc
000002c0: 4fb7 be3d 8cb5 5d3e 7dbb 4a3e a006 0a3e
000002d0: 6658 f43d 9fe8 053d 218e 603e c43a 763d
000002e0: 7fb7 033e 68a3 41bc 99e0 963e f8c4 343e
000002f0: 40c2 403e ed43 d13d 0a60 973e 930c 253e
00000300: 310d abbd 1176 a63d 7de2 28bc 7918 07be
00000310: e473 9cbc 162a 3fbe 2175 70bd 3cd0 bfbd
00000320: 9673 e33c efd2 ddbd 8321 85bd d2c1 61bd
00000330: bd27 873b f32d 32be c551 52bc 4e88 5ebc
00000340: a952 e9bd f459 94bc ad2e d9bd 4753 eebd
00000350: 994e 2cbe f7d5 533d 3bf2 44bd c09a b03d
00000360: ab1e 40bd 0d61 063d 8d28 93bd a398 0fbe
00000370: 7679 88bd aaeb 11bd cda3 19be a207 5ebd
00000380: aa87 68bd 7f91 55bd b9bd f2bb b0bc 0fbe
00000390: fec2 593c 925d bdbd 2ffb 003d a9d3 fb3c
000003a0: 991b 2ebe 00c5 da3d 417d 74be 1dec 973d
000003b0: 387c 5fbd 9a46 dfbb 3253 f1bd f904 713d
000003c0: bea7 fabd 4203 14be 068c 4c3c 8439 a83c
000003d0: fccf b33d 1d85 7abd 50c2 ea3d a6fb 323d
000003e0: 3064 abbd 9412 41be 80b9 2d3d 7df9 0ebe
000003f0: 479c e9bd 92d5 22be e301 a53d 0c67 1f3c
-0.09848341 0.1447701 -0.066003315 0.06887883 -0.07251028 0.12204068 0.09706395 0.09548837
0.15253663 -0.1717985 0.011453674 -0.009133549 -0.10936054 0.107387714 -0.12635137 -0.10931811
0.1624493 -0.17749247 -0.0012166622 -0.02900108 0.047294635 0.1513255 -0.01538921 -0.1392293
0.1219129 0.040574245 -0.07543975 0.07189914 -0.025735117 0.093402304 0.01847535 0.0057170405
-0.07676569 0.03440447 0.013618501 -0.049215794 -0.045138806 -0.0456554 -0.22657491 -0.11470864
-0.08418484 0.1763348 0.17928775 0.03413666 0.112990744 0.06676787 0.05956377 0.013739075
0.1324674 0.049018137 0.047461197 -0.10246552 0.10775904 0.1936229 -0.09618248 0.07441811
0.10422719 -0.077983305 0.045217577 -0.19491595 0.07854594 -0.14128469 0.049517233 -0.024263378
0.100856505 0.10685572 -0.08213773 -0.093515314 -0.12643805 -0.02715912 -0.077634335 -0.016358344
-0.09222114 0.062657416 0.06933042 -0.045597196 -0.19550677 -0.039377943 -0.22729371 0.10710955
0.008399133 -0.010635665 0.028209062 -0.14520304 0.0634624 0.06691857 -0.09970817 -0.11954494
-0.19397098 -0.094756685 -0.19629742 -0.0875694 0.051101286 -0.005525531 0.04895242 -0.10574004
-0.2034673 -0.115608156 -0.268716 0.07115448 -0.04698282 0.079638824 -0.18381466 -0.05302384
-0.10780178 -0.1508271 0.031969197 -0.17907424 -0.286563 -0.006325189 -0.19195917 -0.012561646
-0.12782182 -0.0461258 -0.120983586 -0.094523095 -0.004372834 -0.033672117 -0.0834891 0.06441575
-0.1280293 -0.0033502304 0.04097104 0.03249278 0.013652406 -0.14288945 -0.03155588 -0.09798239
-0.076375395 0.1466955 0.23357053 -0.24134178 0.023701658 -0.08080345 -0.06482594 0.13177982
0.15809591 0.082681425 0.09779499 0.008580403 -0.037119675 -0.0038396087 0.16344075 0.012880401
0.07708569 0.01409009 0.16447228 0.1298314 0.12900434 0.27941513 0.3319534 -0.17126347
0.23911059 -0.030976174 0.36574966 0.0076021003 -0.0021365231 0.28692243 0.20604126 -0.26802805
0.2322364 0.10015093 -0.033299755 0.057617433 0.053352922 -0.015033643 0.35921577 0.063884065
0.18471716 0.41008714 0.25275776 0.014646782 0.2742719 0.07198622 0.47823688 -0.029990127
0.09312307 0.21651286 0.19798084 0.1347909 0.11930923 0.032692548 0.21929218 0.060114637
0.12862967 -0.011818744 0.2946823 0.17653263 0.188241 0.10218034 0.2956546 0.16118078
-0.083521254 0.08127988 -0.010307905 -0.1319293 -0.01909823 -0.18668398 -0.058705453 -0.093658894
0.027765077 -0.10831248 -0.065005325 -0.055116482 0.00412461 -0.1740034 -0.012836878 -0.013582302
-0.11392719 -0.0181093 -0.10604606 -0.11636978 -0.16826858 0.051717725 -0.04808257 0.08623266
-0.046904247 0.0328074 -0.07185469 -0.1402307 -0.06663792 -0.035625137 -0.15003891 -0.054206498
-0.056770004 -0.05214071 -0.0074078706 -0.14036822 0.013291119 -0.09246363 0.031489547 0.030740576
-0.17002715 0.10682106 -0.23875906 0.07418082 -0.054561824 -0.0068138363 -0.11783446 0.058842633
-0.122390255 -0.14454368 0.012484556 0.020535238 0.08779904 -0.061162103 0.114628434 0.043697022
-0.083687186 -0.18854743 0.042413235 -0.1396236 -0.11406761 -0.15901783 0.080570005 0.009729158

image_conv.3.bias f4 [32]
00000000: 66de 713d d1d9 c3bd 2088 403e bb89 40be
00000010: 7af7 323d ec0d b53d c794 0ebe 3429 243e
00000020: 32db f33d 1046 023e 4c87 0e3e c375 febd
00000030: c480 0cbe f569 57bd 5d2b 83bd 4d26 1dbe
00000040: 77d1 82bd b047 6b3e 5411 b23d c0d6 b3bd
00000050: 6630 debd f3f6 a73d 6f0d c2bd ad29 19be
00000060: a476 a4bd d82e 933d 6946 833b f9b6 e5bd
00000070: 3a79 5abd c8e1 003d 6734 03be 0728 583e
0.059049986 -0.095630296 0.18801928 -0.1880254 0.043693043 0.08840546 -0.13923942 0.16031343
0.119070426 0.12722039 0.13918799 -0.12424805 -0.13720995 -0.052591283 -0.06404755 -0.15346642
-0.063876085 0.22976565 0.08694711 -0.08781195 -0.10849075 0.08201399 -0.094752185 -0.14957304
-0.080304414 0.07186669 0.0040061963 -0.1121654 -0.053338267 0.03146532 -0.12812959 0.21109019

image_conv.5.weight f4 [64, 32, 2, 2]
00000000: 632b d23c e6f6 07bd b709 63bd 314d 2e3d
00000010: 4413 46ba c7cf 103d 59b7 acbb 5319 ddb8
00000020: bd04 dfbd 27dc 5bbd 0fff 1d3d 6853 bdbd
00000030: fb44 ecbc 3666 34bd c2f1 883d 93fd ffbd
00000040: 4b8d 4ebd bf6e 943c 3756 553d dec9 0abd
00000050: f94b 703c 62f5 e1bd 01ae 46be 775e 26bc
00000060: 6589 b4bd 7037 3cbd 2c66 1f3d 2f29 2a3d
00000070: 22f5 04be f79a ddbc 5009 3ebd 7d00 0c3d
00000080: d667 dbbc 4ebf 94bb bb37 c7bc d52e 0d3d
00000090: 2eac 88bc 0008 80bd ec79 2b3c cfc6 83bd
000000a0: 4891 443d 063f 523d 9b4e 0abd 8eaa abbd
000000b0: e4b4 24bd d0da 13bd 62da 19bd af9d 593d
000000c0: ffde 1d3d b713 e4bc 528f 6a3c 324a 43bc
000000d0: d13d 95bd 11d7 f83c e02d 6ebd a0bb a63b
000000e0: 9bb7 553d 199c 19be 034c dbbb e2e2 283d
000000f0: 755d 333d a7fe a4bc 643c 333b 2cdd a1bd
00000100: 176f cabc cced 373d 1498 a73d 24e6 c2bc
00000110: b6bc 003d 201f 3a3d 5e56 27bd 8816 24bd
00000120: bf28 99bd bc16 363d f411 b93c a3c7 3cbd
00000130: f51c 9dbd 6695 dcbd b4c2 70bd d159 67bc
00000140: d492 5f3d 3204 fdbd eef9 fbbd 6d20 cebd
00000150: 4049 a03d dc0b bcbc b12a d23b 70d8 5f3c
00000160: 7633 84bc e67f 813d 7c79 853d 7ad0 51bd
00000170: e328 98bc f058 8bbd 6374 babc d9c0 a53a
00000180: 9966 763d c862 b9bd 71f3 613d 668d 70bd
00000190: 482f e7bb 7ba1 05bd 06ce 123d 6721 abbd
000001a0: 8d88 94bd 6e9c 82bd c3fc afbc 9d5f 87bd
000001b0: d7b1 bcbd 5ec7 a73c 7c97 37be 1229 f5bc
000001c0: 29a0 88bd f10c 2dbd a759 8ebc 0396 1cbc
000001d0: e89d eb3c f358 a6bd 8f31 f4bd 34d2 82bc
000001e0: 7c49 fc3c fea3 85bd 5a09 8a3d e5ff 63bc
000001f0: 571b f0bd 6c99 543c 601e 953d 7188 3a3b
00000200: c190 81bd 730f d2bc 7890 90bd a919 453d
00000210: 4147 633d 721f b5bc a382 8fbd 719a 763d
00000220: 9462 aabd eff8 6ebd 4eb8 d73c 8af4 b9bd
00000230: a757 733c 1696 833d 6353 d5bc 912c 12bd
00000240: 3acc a73d 6cd2 d63c e039 723c 9bea 76bc
00000250: aaba bcbd ffab 00bd 13b4 5cbd 3ccd 66bd
00000260: 7f13 a9bd 7025 893d 8496 89bd d2a8 8a3c
00000270: 67c5 0abd b144 523c 9719 bcbb d707 e0bd
00000280: a8bc 3e3c bfb3 9dbd 0619 b4bc 144a 83bd
00000290: 770b b0bd 51f0 d6bb 5ee6 8cbd 9bc2 603d
000002a0: f7e7 113d 5510 6fbd 7901 54bd 4d4a dfbd
000002b0: 906f a1bd ecd3 93bd ae61 ab3a 7917 01bc
000002c0: 4ffb 9c3d 05d1 b63b b315 93bc 865b 1dbd
000002d0: 36b9 a9bc bae5 373d ac8a aebd ffc8 adbd
000002e0: 8dd7 0e3d 5c49 05bd 7f4d d6bc e8d8 81bd
000002f0: 8f2b 94bd a140 94bd 4056 8abd 0ada aebd
00000300: d9e9 95bd 5122 dfbb b201 9abd 252d dc3c
00000310: 7045 a8bd 773a bb3b cbff 96bc 551c 94bd
00000320: adbd 4ebb b908 8c3d 664c 39bd e680 9b3d
00000330: 6ef1 4abd 10d9 9bbd 5280 0f3c 1ce0 ed3c
00000340: a871 833d 617a 3e3d 691f a6bd 293e d2bc
00000350: bca3 de38 4bb0 4cbd 4d53 073d b3a1 e5bc
00000360: 6af3 9bbd cddb 2dbd fe82 69bd 97c6 ec3c
00000370: c6b9 83bd a985 b6bc 8bf4 143c 951c 1c3d
00000380: 0996 97bd 8ba4 5c3d 9b2e 7dbd 72e8 99bd
00000390: bff1 c33c a608 87bd 3df5 583d 1c47 0c3d
000003a0: 31eb 32bd 929c d4bc 1b64 2dbd cefa 83bb
000003b0: 98dd 00bd 9034 2bbd d195 6cbd 58f9 20be
000003c0: a372 a0bd f543 34bc d77d 143c ba31 1f39
000003d0: b590 0cbd 01d5 0fbd c4cf 883c 1850 eabd
000003e0: ca45 21bd 180f 45bc c9d8 6dbc 7e1b 45bd
000003f0: cb10 0c3d dcec 15bd a10c ffba 9d2b 65bd
0.025655454 -0.033194445 -0.055429187 0.042554084 -0.00075559714 0.035354402 -0.00527088 -0.00010542818
-0.10889576 -0.05367675 0.03857332 -0.09244424 -0.028841486 -0.04404279 0.06686737 -0.12499537
-0.050427716 0.018119214 0.052084174 -0.03388392 0.014666551 -0.11033131 -0.19402315 -0.010154358
-0.088152684 -0.045951307 0.038915798 0.041543182 -0.12984136 -0.027051432 -0.0463956 0.034180153
-0.026782911 -0.004539407 -0.024318567 0.03446849 -0.016683664 -0.06251526 0.01046608 -0.06434404
0.047990113 0.051329635 -0.03376637 -0.0838214 -0.040211573 -0.036097348 -0.03756178 0.053128894
0.038542744 -0.027841432 0.014316397 -0.011919545 -0.07287181 0.03037599 -0.05814922 0.0050882846
0.052177053 -0.15000953 -0.006692411 0.041231997 0.0437903 -0.020140959 0.0027349228 -0.07903513
-0.024711175 0.044904515 0.081833035 -0.02379138 0.03142997 0.04543984 -0.04085385 -0.04006055
-0.07478475 0.044455275 0.022591569 -0.046088826 -0.07671539 -0.10770683 -0.058779433 -0.014120535
0.054583386 -0.12354316 -0.1230353 -0.100647785 0.07826471 -0.022954874 0.0064137806 0.013662443
-0.01613782 0.06323223 0.06517312 -0.05122421 -0.018574184 -0.06804073 -0.022760576 0.0012645974
0.06015644 -0.09052044 0.055163804 -0.058728598 -0.007055197 -0.032624703 0.03584101 -0.0835598
-0.072526075 -0.06377493 -0.02148283 -0.06610034 -0.09213608 0.020480808 -0.1792888 -0.02992681
-0.06671173 -0.04224867 -0.017376734 -0.00955725 0.028761819 -0.081224345 -0.11923515 -0.015969373
0.030796759 -0.0652542 0.06740065 -0.0139159905 -0.11723965 0.012976032 0.07281184 0.0028462673
-0.06326438 -0.025642132 -0.07058805 0.048120175 0.055487875 -0.02210972 -0.07007339 0.06020588
-0.083195835 -0.05834287 0.026333 -0.09079845 0.014852441 0.06425111 -0.026040738 -0.035687033
0.0819325 0.026223384 0.014784306 -0.015070583 -0.09215291 -0.03141403 -0.05388267 -0.05634807
-0.08255672 0.06696594 -0.06718162 0.016926203 -0.033879664 0.01283376 -0.0057403552 -0.10938995
0.011641659 -0.077002995 -0.021984588 -0.06410614 -0.08595937 -0.0065594097 -0.068798766 0.05487309
0.03562161 -0.058365185 -0.051759217 -0.109028436 -0.07882607 -0.07218155 0.0013075375 -0.0078791315
0.07665121 0.0055791163 -0.017954683 -0.03841736 -0.020718198 0.04489682 -0.08522543 -0.084856026
0.034873534 -0.032540664 -0.02616 -0.063402 -0.07234871 -0.072388895 -0.06754732 -0.085376814
-0.073199935 -0.0068095108 -0.075198546 0.026876995 -0.08216369 0.0057137567 -0.018432518 -0.072319664
-0.003154616 0.06837601 -0.045238875 0.07592945 -0.04954665 -0.07609761 0.008758621 0.029037528
0.064181626 0.04650343 -0.0811146 -0.025664406 0.00010616283 -0.049972814 0.033038426 -0.028031206
-0.07614787 -0.042445946 -0.05700969 0.028903289 -0.06431918 -0.022280531 0.009091507 0.038113195
-0.07401664 0.053867858 -0.061812025 -0.075150385 0.023918984 -0.065934464 0.052968252 0.034247503
-0.043681327 -0.025953565 -0.042331796 -0.004027701 -0.03146133 -0.041798174 -0.057760064 -0.15720117
-0.07834365 -0.01100253 0.009063206 0.00015181946 -0.03431769 -0.035115246 0.016700633 -0.11441058
-0.039373197 -0.012027524 -0.014517018 -0.04812192 0.034195703 -0.03660284 -0.001945872 -0.055949796

image_conv.5.bias f4 [64]
00000000: 1483 03bc bae1 42bd e170 aebc 475a 593b
00000010: 4e6f 73bd 4d8e 08bd f4f3 a63c d75e 5ebd
00000020: 21c7 5c3c f7aa a9bd 2555 5dbb 63fb ca3d
00000030: 7d60 0ebd 1592 6ebd 9770 82bc 14ef ccbc
00000040: 09cd acbd 6c6f 28bd bfbb bc3c 4264 3c3b
00000050: 5174 b1bc bd53 c8bd 084a adbd 4867 35bd
00000060: 4577 f1bc 552d 253d ae03 163d 3588 5abb
00000070: d7cb dd3b 41b8 dcbd d187 5ebc c07d 5cbd
00000080: 8579 c1bd bbb5 03be 7d7c 9e3c c504 89bd
00000090: 530c f4bd 1a0d d2bd 12b5 45bc 0841 1b3c
000000a0: 07f6 67bc 38dc 12bd 8059 2dbd 7df8 d9bc
000000b0: 74ec 30bc b6e3 79bb 30e6 5a3b 2094 68bd
000000c0: 47bc 24bd b3c7 aabd a35d b4bd d179 8fbd
000000d0: a316 063d e261 043d c33c c8bd 3bd4 233d
000000e0: 2a4e efbd 236a fe3c e010 ccbb b7ec e1bd
000000f0: f74b a2bd 7d16 d9bd d793 d33c 09a9 9dbd
-0.008026857 -0.04757855 -0.02129406 0.0033165382 -0.05943232 -0.033338834 0.020379998 -0.054289665
0.01347521 -0.08284562 -0.0033772674 0.099112295 -0.034759987 -0.058244783 -0.015922828 -0.025016345
-0.08437545 -0.041121885 0.023038743 0.0028746282 -0.02166191 -0.09781597 -0.08461386 -0.04428795
-0.029475817 0.040326435 0.036624603 -0.0033345346 0.0067686844 -0.10777331 -0.013582186 -0.053830862
-0.09447006 -0.12862293 0.01934647 -0.06690363 -0.11916413 -0.10256405 -0.012067096 0.009475954
-0.014157779 -0.03585455 -0.042321682 -0.026607746 -0.010798562 -0.003813011 0.0033401363 -0.056781888
-0.040218618 -0.08338871 -0.08806922 -0.070056565 0.03273643 0.03231991 -0.097772144 0.03999732
-0.116848305 0.03105647 -0.0062275976 -0.11031478 -0.079246454 -0.105999924 0.025827331 -0.076982565

memory_rnn.weight_ih f4 [256, 64]
00000000: 60fa 4ebd 4726 c1bd be8a 3a3d 58b2 0b3d
00000010: 3348 0d3d f071 5cbc f4f4 e0bb e725 35bd
00000020: 5467 fe3c 7d1a f8bc 4d0a 003d 6948 cfbd
00000030: 5dab 98bd e11a 7abc 74dd 6dbd c230 3dbc
00000040: 61c8 5fbd 12ec e9bd a65d 033d 65da 7739
00000050: f792 4fbd d1c3 1cbe 9260 88be fe6e 9fbd
00000060: 2063 e5bd 6e5d 23be 2de7 9fbd 2bb4 abbc
00000070: 034c a43d 9a40 bbbd 9ed7 04be b48f a5bc
00000080: b206 edbd 3fb0 dcbb 2283 c23d 22c0 fcbd
00000090: 7248 103d 737a 67bd 8311 063e 262b 87bb
000000a0: 3caf 97bc bedb 39bd 43ce 10be ea49 b03d
000000b0: fc3f 3abd e216 ee3d f129 153d 9e93 10be
000000c0: 3dd9 c83d fb86 e9bd e927 e23c c144 53bd
000000d0: a146 f03b 24e0 bbbc f6cb 4ebc 44bd cebd
000000e0: b641 50bd c420 e1bd 4398 9e3d 4ec3 7b3d
000000f0: 5939 bbbd 7d36 9cbc 0404 ccbd 36b7 77bd
00000100: f57c 1fb9 6b87 df3d eee4 03be 03e4 b6bc
00000110: 43aa d5bd f587 ce3d a82f 14be c2c9 85bb
00000120: efcc 8abb 0bac 7e3d 8377 5c3c 1c2e a6bd
00000130: c257 0f3e a49e 32bd 734a 7a3d a52e 803d
00000140: 3618 21bc 84fd d23a bce0 733d ec30 8bbd
00000150: 3637 9b3c 75c6 ccbd 4df2 2c3d bca7 14be
00000160: f6b2 073d 31c7 2dbe 4140 dcbc cc60 b9bc
00000170: 116e 78bd 5000 19bd 7e2c 8d3c 6acc 19bc
00000180: 49cc c43d 1bba c6bd 8fea b23d 4cfa c1bd
00000190: c8b7 39bd e8c2 37bc e0de acbd aefb 3a3d
000001a0: 7c4e 013e ecbf 96bd a384 07bd f9a7 afb9
000001b0: 2225 c13d 8abe f53d 42a1 f73c c2af b03c
000001c0: d173 db3d 2a85 9abd 1c57 f73c 1b43 64bd
000001d0: bbf6 353d d8ad 05be 025d 36bc fec7 c93d
000001e0: 6c47 b73d 18a0 8abd 75a6 0bbd 6490 503c
000001f0: 12fb bb3c 52b6 803c 3cee 6cbd 3c07 64bd
00000200: 68c0 ac3d 96dd bdbd 64bc 5cbd 301f d1bc
00000210: 829e a83d 3f4b e13d 848e a13d ef96 dcbd
00000220: 8b39 393d e122 1f3d f3b2 703d e82e 2d3d
00000230: 2091 b0bd b8ed fabd 51d7 3fbd 10b3 02be
00000240: f4ba e03d be32 1ebd 5954 a2bd 24f9 9fbc
00000250: 1409 8b3d 9717 d13d bd3c 233c eb16 d23d
00000260: 17ca 553d a11f d43d ea0c 60bd 24ef 06bd
00000270: 223c 73bd 673e 2fbd 7c9c e2bd 073a bf3c
00000280: f45d c13d f9e6 373d 7605 9dbd 4378 c43d
00000290: 6600 71bd 05c3 87bb e1c5 01be ada3 79bd
000002a0: 9fc5 503d 9242 c3bc d11f b3bd ce19 de3d
000002b0: dfe8 323d ecbb 323d 885c b7bd 74bb 82bd
000002c0: 4aff 1c3d 394d 15be 581f 2e3d c89c 103d
000002d0: d9ed b43d 8fd1 d53d c6d5 e33c 5784 4e3d
000002e0: 09ca db3b bfc4 bb3d 52ca ebbc e275 91bd
000002f0: 6e94 8d3b 1e8d d9bd 5ac8 9ebd c317 ca3c
00000300: 6e30 973d 265b df3d 6383 c63d 7f9b a53d
00000310: 7ed9 7c3d 1487 12bd c857 93bd 3640 a23d
00000320: 7e8c 8cbd 5b75 ecbc ca17 eb3d 5111 07be
00000330: c646 7cbd fd5b 3f3d 0e41 213c 5e54 4bbd
00000340: 5489 04bd 9f5d bdbd e791 d23c 1cc0 e13c
00000350: 5501 b03d f664 f9bd ec98 f4bd 1399 9e3d
00000360: 10b3 6fbd c071 60bd 904b e83d 8c5c d83d
00000370: a6ed 44bd 7d51 91bd 4777 c3bd 4b75 b0bd
00000380: f4c6 50bc 82c9 dfbd 24cc c63d 73f6 e1bd
00000390: 1fab 91bd 5c08 523d cf90 c8bd 1e32 d43d
000003a0: 3977 943c 221a 9f3d e7a7 ab3c bd5b b73d
000003b0: 32b0 d6bd 166e 89bc 12d7 683d 6e48 a7bc
000003c0: 570f 113d ee42 bdbd 8594 eebb 1f81 93bc
000003d0: 102f abbd d951 a9bc eb1f be3d 7c28 96bd
000003e0: 5f4c 43bd d9c5 f33d 7a11 de3d 212e c5bd
000003f0: 549d 573d b38c 023e 26be b23d 65f8 dbbd
-0.050531745 -0.09431129 0.04554247 0.03410563 0.034492683 -0.013454899 -0.006865138 -0.0442256
0.03105513 -0.030286068 0.031259824 -0.10121233 -0.0745456 -0.0152651975 -0.058072522 -0.011547269
-0.054634456 -0.1142198 0.032071732 0.00023637114 -0.050677266 -0.15309073 -0.26636177 -0.07784842
-0.11200547 -0.1595361 -0.07807765 -0.020959934 0.080223106 -0.09143181 -0.12972876 -0.020210125
-0.11573543 -0.0067348774 0.09497668 -0.12341334 0.03522534 -0.05651326 0.13092618 -0.0041250167
-0.018516175 -0.045375578 -0.14141183 0.08607848 -0.045471177 0.11625458 0.03641695 -0.14118811
0.0980706 -0.114026986 0.027606921 -0.05157924 0.0073326384 -0.022934027 -0.01262187 -0.10094693
-0.050843917 -0.10992578 0.07743885 0.061465554 -0.091417976 -0.01906895 -0.099617034 -0.060477458
-0.00015209972 0.10914501 -0.12880298 -0.022325521 -0.104328655 0.100845255 -0.14471304 -0.0040828893
-0.004235856 0.06217579 0.013456228 -0.081142634 0.1399832 -0.043608323 0.061106157 0.06258897
-0.0098324325 0.0016097282 0.059540495 -0.067964405 0.018947225 -0.0999879 0.042223264 -0.1451711
0.033129655 -0.16970517 -0.026886107 -0.022629164 -0.060651843 -0.037353814 0.01723313 -0.009387115
0.09609277 -0.097034656 0.08736145 -0.094715685 -0.045341283 -0.011215903 -0.084409475 0.045650177
0.12627596 -0.07360825 -0.033085477 -0.0003350375 0.09430911 0.11999233 0.03022826 0.021568183
0.107154496 -0.0754493 0.030192904 -0.05572806 0.044424754 -0.13054597 -0.011130573 0.098525986
0.089491695 -0.06768817 -0.034094293 0.012729738 0.022946868 0.015711937 -0.057844386 -0.05567096
0.08435136 -0.0927078 -0.0538906 -0.025527567 0.08233358 0.1100068 0.07888511 -0.10770976
0.045220893 0.038851622 0.05876441 0.04228106 -0.086214304 -0.122523725 -0.0468362 -0.1276362
0.109731585 -0.03862261 -0.07926244 -0.01952798 0.06788841 0.102095775 0.009963212 0.102582775
0.05219468 0.10357595 -0.054699816 -0.032942906 -0.05938352 -0.04278412 -0.11065003 0.0233431
0.09441748 0.044898007 -0.07667057 0.095932506 -0.05883827 -0.004143121 -0.12673141 -0.06094711
0.050969716 -0.023835454 -0.08746303 0.108447656 0.043679114 0.043636248 -0.08953196 -0.0638341
0.0383294 -0.1458024 0.04251036 0.03530577 0.08834428 0.10440361 0.027811896 0.050419178
0.006707434 0.09168386 -0.028782997 -0.071025625 0.0043206727 -0.10622619 -0.07753058 0.024669534
0.07382284 0.10906057 0.09693029 0.08086299 0.061730854 -0.03577335 -0.07194477 0.079224035
-0.06862734 -0.028864553 0.11479147 -0.131902 -0.061590932 0.046718586 0.00984217 -0.049641006
-0.03235753 -0.092463724 0.025704337 0.027557425 0.08594004 -0.1217746 -0.1194323 0.0774404
-0.058520377 -0.05479598 0.113425374 0.10564527 -0.0480782 -0.07095621 -0.09544235 -0.08616122
-0.012742747 -0.109271064 0.097069055 -0.110333346 -0.07112717 0.051277503 -0.09793245 0.103611216
0.018123256 0.07768656 0.020954086 0.089530446 -0.10482825 -0.016776126 0.056845732 -0.02042028
0.03541502 -0.092412814 -0.0072808885 -0.018005906 -0.08358586 -0.02066891 0.092834316 -0.073319405
-0.047680255 0.11902971 0.10843177 -0.09627939 0.052640274 0.12748985 0.08727674 -0.10740737

memory_rnn.weight_hh f4 [256, 64]
00000000: f1a0 70bd 0131 513e e24f 513e 285b c73c
00000010: 842a b6bd f276 643e 2a6e 83bd dc94 cd3d
00000020: 2e57 24bd 88ff 23be 327a fb3d a220 a13c
00000030: e48f 323d 8a98 db3c 21f8 9abd 3bbd 993d
00000040: 19d9 4fbe e9ff 05be 200f 123e 0bfb 22be
00000050: c29a 083d 01d8 febd 5d57 683e d19b e13d
00000060: 18c4 49be d8b2 00be 16f4 213d cb6d 04bc
00000070: 8c05 743d b9ce 323d ac27 8fbd 3a59 5d3d
00000080: 529b 3c3e 7ca9 873b 10e6 8e3d f137 bbbd
00000090: da4a 873d ec29 18ba dd10 eb3c 7934 3bbd
000000a0: f319 c3bd 93f9 8a3d ad0b 94bd 3436 a03c
000000b0: 9b97 0b3e 2997 ba3c 26dc 023e 8204 003e
000000c0: c311 8ebb 17c7 a93c d5d5 ba3d 38da 30be
000000d0: 3f10 a3bc 85d9 033e 1c0c 8abe 4f3c d23d
000000e0: b1fb 40be 6fc6 98bc e09c 213d 9d5a 8bbd
000000f0: 36bd 2e3b efb2 ec3c 675c 84bd 2c32 9ebb
00000100: 2ce8 893d b5c1 363d d212 3d3e 4357 533d
00000110: 2421 2a3d d4f6 b1bc 82ba 323d 751c 203e
00000120: ac18 1d3e 1cd2 153c e734 c0bd b970 14be
00000130: 2ace dd3d 76fe f5bd 18ea debd 76f5 bbbd
00000140: 9b8b 1bbe 4993 063d 9e3b 3f3e 9624 56be
00000150: 1f4a b9bd b335 eb3d f313 b1bd a47a db3d
00000160: b7b4 af3d 034f b0bc 2368 27be 47b3 30be
00000170: 8700 0a3d d112 ce3d beaf dabd 25ce a73c
00000180: 35de 33bc 5643 3fbd 9d0b 0f3e bf4a 27be
00000190: 90d9 323d af13 37bd f743 d93d 51b2 92bd
000001a0: d6be 24be d02b b63d e293 d1bd c876 c1bd
000001b0: fd3f 6c3d a71e 193e bbea 70bd 15be 97bc
000001c0: ff4d c8bd 34bd d73c 6f57 f43d 7b93 a13d
000001d0: da74 0abd f5e1 663e 8b56 2abe 40c3 3e3e
000001e0: f91e 963b 6aaa 98bc 5cf8 b5bd 64c3 eb3d
000001f0: b137 d73d 7df9 d2b8 ffb4 2a3d d500 89bd
00000200: caad a23c 18aa c63d 740c 823d 342c 4cbd
00000210: d247 2e3c cac2 3bbd 44ea a43a 4976 a53d
00000220: 12c7 dc3d 79a8 01bb 811c 2dbe 7255 fbbc
00000230: 83d3 863e 5f55 afbd b8ba 05be 88b1 ca3c
00000240: 0af9 1dbe 2b4b 793c f9cd d2bc 137c 89be
00000250: 89a7 2abe d17c 1d3e 506f 08be ff23 d63d
00000260: 5ab8 38be 3ea2 44be c9de 32be 6661 54be
00000270: 35a4 023e daa5 c83d dd59 5dbd f3ac a43d
00000280: 6098 bd3c 1ca7 00bd cf8b c53d 4bfe 05be
00000290: 480e a83d 4d72 cdbd c3ea 12bd c0eb 11be
000002a0: c75c 3dbe 65b3 b03d 5acf ad3d 24f6 ebbd
000002b0: f14e d2bd 2858 c73d 9710 ba3c c0a6 1ebd
000002c0: dde2 96bc 9495 013e f85f 753e faeb 063d
000002d0: f57b 2d3d 72ff 213e 9332 b9bd 8dd8 d73d
000002e0: c5c8 5dbe 25e8 443d 5787 2d3b 16ce 7bbd
000002f0: 3e87 34bd 672d 093e 096f 39be 522a e5bc
00000300: 3b7f 103e 9ff7 913b f424 ce3d a799 b3bd
00000310: fd3d 92bd 4d47 ec3d 6866 7cbd 1230 693e
00000320: 050c f23c 1392 c8bc 5e66 d1bd fcf3 49bd
00000330: f0d1 183e e0ee fcbd 2970 93bc bb57 e03d
00000340: 2c0c 2ebc 44e0 abbd f974 fc3d ad03 6dbd
00000350: 4beb b13b 87a1 dabb 7cc1 b8bd 0442 d23d
00000360: 43fc fabd 4a6f e7bb c888 4bbe 0ee1 c3bd
00000370: 287f d43d cfec c43c 9494 0abe 5303 bebc
00000380: dc0c d93d d298 74be 411c c7bd 8017 b53d
00000390: b7f4 313d ee01 48bd 5ba4 1b3e 751f 97bc
000003a0: ff58 49be e09e 123e b092 3ebb ff6f fa3c
000003b0: f080 afbc 7b54 c3bd 6e7b 77bd 36a1 b43c
000003c0: b25e 05be 5604 303d 2923 fd3d 3e72 b2bd
000003d0: d464 6abd 6391 873c 34d0 85bd 0d59 613d
000003e0: c366 febd 44a4 edbc c35b e7bd 9242 3cbd
000003f0: 99e8 9a3a df17 46bd fbac 89bd c8ff 18be
-0.058747236 0.2042885 0.20440629 0.024335459 -0.08894828 0.22310999 -0.064174965 0.10038158
-0.040122204 -0.16015446 0.12279166 0.01966888 0.043594256 0.026806135 -0.07566858 0.07506796
-0.2029766 -0.13085903 0.14263582 -0.15916078 0.033350714 -0.12443543 0.22689576 0.11016048
-0.1970371 -0.12568223 0.03953942 -0.008082817 0.059575602 0.043654177 -0.06989989 0.05404017
0.18418625 0.004140077 0.06977475 -0.09141529 0.06606074 -0.00058045867 0.028694564 -0.04570434
-0.09526434 0.06785884 -0.072287895 0.019557096 0.13632052 0.022777157 0.12779292 0.1250172
-0.0043356135 0.020724816 0.091228165 -0.17270744 -0.019905208 0.12875946 -0.26962364 0.10265409
-0.18846013 -0.018649308 0.03945625 -0.068043925 0.0026663071 0.028893916 -0.06462937 -0.0048277583
0.067337364 0.044618327 0.1846421 0.05159689 0.04153551 -0.021724142 0.0436349 0.15635855
0.15341443 0.009144332 -0.0938509 -0.14496125 0.10830338 -0.12011425 -0.108844936 -0.09177677
-0.15189974 0.032855306 0.18675086 -0.20912394 -0.090473406 0.11484852 -0.08646383 0.10716751
0.085793905 -0.02152205 -0.16348319 -0.17255889 0.03369191 0.10062183 -0.106780514 0.02048404
-0.010978271 -0.046695076 0.13969274 -0.16337107 0.043664515 -0.044696506 0.106086664 -0.071629174
-0.16088423 0.08895075 -0.102332845 -0.09446484 0.05767821 0.14953099 -0.058817606 -0.018523255
-0.097805016 0.026335336 0.11930739 0.07889458 -0.033802845 0.22547133 -0.16634576 0.1862917
0.004581329 -0.018635947 -0.088852614 0.11511877 0.10508669 -0.00010060051 0.041676518 -0.06689612
0.01985826 0.097004116 0.063500315 -0.049846843 0.0106372405 -0.045840062 0.0012582024 0.08079202
0.10780157 -0.0019784255 -0.16905405 -0.030680392 0.26333246 -0.08561205 -0.13059509 0.024742857
-0.15427032 0.015215675 -0.025732981 -0.26852474 -0.16665472 0.15379645 -0.13323712 0.104560845
-0.18039075 -0.19202515 -0.17467798 -0.2074028 0.12757953 0.09797259 -0.05404078 0.080408
0.023143947 -0.031409368 0.09645807 -0.13085286 0.08205849 -0.10031567 -0.035868417 -0.14250088
-0.18492423 0.08627967 0.08486815 -0.11521557 -0.10268963 0.09733611 0.022712989 -0.038733244
-0.018418724 0.12654716 0.2396239 0.03293989 0.042354543 0.15820101 -0.090428494 0.10539351
-0.21658619 0.048072953 0.0026478374 -0.061475836 -0.04407429 0.13396226 -0.18108763 -0.027974281
0.14111035 0.0044545676 0.10065642 -0.08769541 -0.071407296 0.11537037 -0.0616211 0.22772244
0.029546747 -0.024483716 -0.10224603 -0.049304947 0.14923835 -0.12350249 -0.017997818 0.10954233
-0.010623019 -0.08392385 0.12326998 -0.057864834 0.0054296604 -0.0066720876 -0.09021279 0.10266498
-0.12255146 -0.0070628272 -0.19876397 -0.0956441 0.10375816 0.0240387 -0.1353324 -0.023194944
0.10598156 -0.23886421 -0.09722186 0.08842373 0.04344627 -0.048829965 0.15199415 -0.018447617
-0.19662856 0.14318419 -0.0029079132 0.030570982 -0.021423787 -0.09537598 -0.060420446 0.022049528
-0.13024405 0.042972885 0.12360222 -0.08713196 -0.057225063 0.016548818 -0.06533852 0.055016566
-0.12421944 -0.029008992 -0.11296799 -0.045961924 0.0011818587 -0.04836261 -0.067224465 -0.14941323

memory_rnn.bias_ih f4 [256]
00000000: fcf2 c7bf 1b81 d5bf 814f d4bf 6740 cdbf
00000010: 65fc d7bf e0ee d6bf 0cd5 d1bf 35d9 c8bf
00000020: bcfe d7bf dd5e cebf 093e cabf d397 d5bf
00000030: 6955 d3bf 51c2 d5bf 4e53 dbbf 1fa9 d2bf
00000040: 5588 e0bf b9e5 d3bf cc4d ddbf b185 c4bf
00000050: f278 d7bf 9183 d7bf 4ffb d0bf d84a d4bf
00000060: 1c2f dbbf bd0f c5bf ec7b d0bf a896 d1bf
00000070: 12bf cfbf 1362 c3bf 3c7a e2bf 7fec d3bf
00000080: d01d cbbf b45d ccbf a49a ccbf 251a d0bf
00000090: a7e3 d3bf 6033 d1bf 5688 d3bf 35ab d9bf
000000a0: 701e c6bf bb57 c5bf 97b2 cebf 6b1c d0bf
000000b0: 8315 ccbf 6800 dfbf 0dd4 d1bf 6204 bebf
000000c0: 66e0 cebf 133b d4bf 8835 cbbf 5fdf c5bf
000000d0: 1bc2 d1bf 1c07 e1bf d819 bfbf ba2a cdbf
000000e0: 195b d5bf ed47 ccbf 51ed c7bf 9d96 cfbf
000000f0: 0ae5 c5bf 7346 ccbf eee5 cabf a93e d7bf
00000100: 820d 89bf 2595 7fbf 98c9 84bf 45cf 91bf
00000110: 1216 81bf 2458 88bf fdfa 73bf 9dd4 8fbf
00000120: 6eec 88bf 71ac 59bf ebe4 87bf c3d4 8abf
00000130: 365e 82bf 3607 6fbf 4bad 89bf 1f4c 8abf
00000140: a0b7 78bf 09e4 6abf 1954 64bf a042 6cbf
00000150: 7c3e 8cbf cd43 92bf b91d 8fbf 0352 77bf
00000160: 8d45 89bf c289 7fbf 2601 81bf 61dd 78bf
00000170: b104 9bbf b836 8bbf ca6f 88bf 98e1 69bf
00000180: fc1b 94bf cfd6 82bf ecd3 7ebf d405 86bf
00000190: e611 94bf e276 88bf 4e6c 86bf abd7 85bf
000001a0: 75d8 86bf 355d 86bf a778 80bf 9fe9 8cbf
000001b0: e5da 8dbf f18b 7cbf e620 96bf e5b3 82bf
000001c0: 9fef 86bf e82e 89bf 76fa 8dbf 4dbf 97bf
000001d0: a950 8fbf 1097 86bf c610 8bbf 197f 7cbf
000001e0: a37f 85bf 70ec 84bf aa89 7dbf 1a8a 81bf
000001f0: 9469 8bbf cd57 7bbf 3f81 77bf d9c6 88bf
00000200: 0635 193d 6686 c4bc e0bc 8ebb 0561 45bc
00000210: c88e 4cbc 4791 80bd 4728 b73d 2186 36bd
00000220: 655b 4cbd 9ce0 af3c 91b2 133c 027e 22bd
00000230: 9367 50bc 2d6e 18bc b129 a2bc 0197 cabc
00000240: 05ab 3f3c 896a 143c de98 c53c c36b 263d
00000250: ee9f d6bc 022e aa3d 46e1 2bbb 392e d9bc
00000260: 6b56 c23c 2444 adbd 032a 013c 850e 0dbc
00000270: 43a1 f93b 9339 3cbc 5132 aa3d f737 823d
00000280: 8df8 a0bc 23fa 17bd 1532 2ebd be96 813a
00000290: f12d f03c d89a 953d 8a84 013d 30cb ef39
000002a0: a27f e43d ad10 46bd 61e0 89bd eaa7 a8bc
000002b0: 0835 6dbc 1103 edbd a723 28bd a94a 463c
000002c0: abf0 b3bc 7f92 33bd 6126 303c 02c2 d53c
000002d0: afa1 84bc f883 9f3d 4769 35bb db97 8cbc
000002e0: ca59 70bb b696 e9bc 17f7 ac3c f493 db3c
000002f0: 0592 a33d 802c 30bc 5c1e 063d f511 653d
00000300: fc40 d5bf 82e5 ddbf 2b2e d5bf 0ce5 ddbf
00000310: b5b3 c9bf 7adc c8bf ccb0 dbbf 8683 d7bf
00000320: ec56 d4bf 3b07 d3bf 2a59 d6bf e0d9 dbbf
00000330: d2ea d1bf 6fbd dabf 7430 debf d650 c9bf
00000340: b869 d2bf 45ab dfbf 0eb1 cbbf b9d6 d3bf
00000350: f0d9 d8bf 82f4 d1bf 7667 d6bf f80c d0bf
00000360: 0f1e c7bf 7d91 d4bf baa1 d1bf 75c0 debf
00000370: 6183 e6bf 794b dbbf bc0b d2bf ebe8 dcbf
00000380: a804 dcbf c28f dbbf 37c3 cfbf fe58 e2bf
00000390: 30bc cdbf 9b9b e0bf aede cabf e970 ccbf
000003a0: 9c15 e6bf b5fe d6bf 3878 e1bf bdda c9bf
000003b0: 559a ccbf 146b dabf f037 d2bf 6696 cfbf
000003c0: aba0 e0bf 2aaa d6bf c9ef e2bf d8c2 d1bf
000003d0: 8e70 e2bf 8b6a d7bf e96e e2bf 15fc e4bf
000003e0: 8e9d d9bf 9797 f2bf 9fd6 e1bf ea0b e5bf
000003f0: 8ad3 dcbf b890 cdbf 3935 dabf 6d27 d9bf
-1.5621028 -1.6680025 -1.6586763 -1.6035279 -1.68739 -1.6791649 -1.6393142 -1.5691286
-1.6874614 -1.61227 -1.5800182 -1.6686958 -1.651044 -1.6699926 -1.7134798 -1.6457862
-1.7541605 -1.6554481 -1.7289367 -1.5353299 -1.6833785 -1.6837026 -1.6326693 -1.658534
-1.7123752 -1.5395428 -1.6287818 -1.6374102 -1.6230185 -1.5264305 -1.7693553 -1.6556548
-1.5868473 -1.5966096 -1.5984693 -1.6257979 -1.6553849 -1.6343803 -1.6525981 -1.7005373
-1.5478039 -1.5417398 -1.6148251 -1.6258672 -1.5944065 -1.7421999 -1.6392838 -1.4845088
-1.6162231 -1.6580528 -1.5875711 -1.5458792 -1.6387361 -1.7580295 -1.4929762 -1.6028664
-1.6668426 -1.595945 -1.5619298 -1.6217839 -1.5460522 -1.5958999 -1.5851419 -1.6815997
-1.0707247 -0.9983695 -1.0374022 -1.1391379 -1.008486 -1.0651898 -0.9530485 -1.123676
-1.0697153 -0.8502875 -1.0616735 -1.084618 -1.0185001 -0.9337038 -1.075601 -1.080448
-0.9715519 -0.91754204 -0.8919082 -0.9228916 -1.0956569 -1.1426941 -1.1180946 -0.96609515
-1.072435 -0.99819577 -1.0078475 -0.972128 -1.2110807 -1.0876074 -1.0659115 -0.91359854
-1.157104 -1.0221804 -0.9954212 -1.0470529 -1.1567962 -1.066128 -1.0501802 -1.0456442
-1.0534807 -1.0497195 -1.003682 -1.1008795 -1.1082426 -0.98651034 -1.172879 -1.021115
-1.0541877 -1.071744 -1.109206 -1.1855255 -1.119649 -1.0514851 -1.0864494 -0.98631436
-1.0429577 -1.0384655 -0.99038184 -1.012027 -1.0891595 -0.9818085 -0.9668159 -1.0685683
0.037404083 -0.023989867 -0.0043560117 -0.012047057 -0.012485214 -0.062777095 0.08943229 -0.04456151
-0.049891848 0.021469407 0.0090147415 -0.03967095 -0.0127200065 -0.009303612 -0.01979527 -0.024730207
0.011698489 0.009058603 0.024120744 0.040630113 -0.026199307 0.083095565 -0.0026226803 -0.026511298
0.023722848 -0.084602624 0.0078835515 -0.008609419 0.007618101 -0.011488336 0.08310378 0.06358331
-0.019649768 -0.037103783 -0.04252823 0.0009886844 0.029318782 0.07304925 0.03162054 0.0004573702
0.111571565 -0.048355747 -0.0673225 -0.02058788 -0.014477976 -0.115728505 -0.041049626 0.012102761
-0.021965345 -0.04384088 0.010751338 0.026093487 -0.016190378 0.07788843 -0.0027681158 -0.017162254
-0.0036674612 -0.028514247 0.021113915 0.026803948 0.079868354 -0.010752797 0.032743797 0.05592533
-1.6660457 -1.7335665 -1.6654714 -1.7335525 -1.5757967 -1.5692284 -1.7163329 -1.6837013
-1.6589026 -1.6486582 -1.6745961 -1.7175865 -1.6399786 -1.708906 -1.7358537 -1.5727794
-1.6438513 -1.7474142 -1.5913408 -1.6549903 -1.6941509 -1.6402743 -1.6750324 -1.6253958
-1.5556048 -1.66069 -1.637748 -1.7402483 -1.8008844 -1.7132407 -1.6409831 -1.7258581
-1.7188921 -1.7153246 -1.623145 -1.7683408 -1.6073055 -1.7547487 -1.5849206 -1.5971957
-1.7975345 -1.679648 -1.7614813 -1.5769879 -1.5984598 -1.7063928 -1.6423321 -1.6217773
-1.7549032 -1.677068 -1.7729427 -1.6387587 -1.7690599 -1.6829389 -1.7690097 -1.7889429
-1.7001207 -1.8952512 -1.7643622 -1.7894261 -1.7252057 -1.605979 -1.7047492 -1.6965157

memory_rnn.bias_hh f4 [256]
00000000: de91 dcbf 9544 c0bf 4df8 c9bf da78 c3bf
00000010: 1f63 bebf b200 cbbf a2eb d7bf d327 d3bf
00000020: c69a d2bf f512 c7bf 6ddf cabf 7d26 c1bf
00000030: 081c bdbf 97ed d0bf c666 d4bf 5144 d1bf
00000040: 9b45 d2bf 9fa6 c1bf 986f d0bf d7c7 d3bf
00000050: 6e5e cebf 6188 bfbf 5041 d4bf 145d cfbf
00000060: 145a bfbf 0277 d4bf fe31 ccbf 8a69 c2bf
00000070: 9d24 e4bf ebb9 d3bf c366 cabf f8ae d0bf
00000080: adfd c2bf 4ef5 ddbf 9bfb ddbf 3397 c0bf
00000090: 4b66 dabf 067b cbbf 2651 c2bf 6593 dcbf
000000a0: 2214 cabf 0241 debf a741 d7bf bb2a cfbf
000000b0: 154a d0bf b66b d6bf 6d14 cdbf 6a08 cdbf
000000c0: 020b c5bf d9eb d0bf 92a1 d1bf 9e55 d6bf
000000d0: a79a d8bf b201 c2bf 5187 c9bf a814 d7bf
000000e0: 2b36 d4bf cba5 cbbf 3fe7 d2bf f972 d3bf
000000f0: 8bad c9bf 3bb5 dfbf ba1e e0bf 05c1 cbbf
00000100: 5321 8bbf d1cc 6bbf a1ca 80bf 3ca8 66bf
00000110: ef03 80bf cdbc 8fbf 31b0 7fbf 4bf2 8abf
00000120: 198a 8bbf 799b 7bbf 392c 77bf 3469 76bf
00000130: c22a 7ebf f9ed 87bf 852d 68bf f2fa 82bf
00000140: 690d 82bf ff7e 7dbf a97c 74bf b605 6bbf
00000150: 6b23 96bf eada 8abf 51da 93bf 5139 7fbf
00000160: eec6 78bf 6862 85bf 6a98 65bf 4fdc 91bf
00000170: 9d29 87bf 2f6b 92bf 9f8b 8fbf 96bf 85bf
00000180: 5d88 8dbf 0ebf 84bf 4bca 8fbf adf9 89bf
00000190: d052 76bf cd4e 6dbf 0d24 87bf fb3a 78bf
000001a0: 4495 7ebf 020f 83bf e9f1 90bf 918d 89bf
000001b0: 020f 78bf d427 89bf 27aa 96bf ba28 7dbf
000001c0: 4887 82bf 95e5 8dbf 9853 98bf 5eb2 9fbf
000001d0: be78 67bf 6757 8ebf d3a2 84bf 9eab 8abf
000001e0: 0baa 7cbf 5e54 8bbf 79e4 90bf 4eb9 87bf
000001f0: f514 8fbf e8be 8cbf 1487 88bf 340b 76bf
00000200: 726a 4abd 414f 5bbc cfb3 47bb d816 e53b
00000210: fcff 033d a3ee 113d dfb6 cbbd 313d 393d
00000220: 8191 703d f017 b8bc dbf9 933c b287 963d
00000230: 5a2a 1abd cc5c 2bbd a063 0a3d e1fa a93c
00000240: e3b4 6d3c 0421 71bc 4c31 cbbc 82b8 04bd
00000250: a3f0 633c 1a82 d1bd e881 fd3b 2fbf 0cbc
00000260: 49d1 9dbd 7aae b53d 71ac 9f3c 3f7f ab3a
00000270: 944d 043d b539 17bc f749 a1bd 52b8 a9bd
00000280: 14c7 fa3c e2c9 b13d 5d53 c43c 7d29 5fbb
00000290: ca79 84bc af2c 69bd bc1d 26bd 6267 933a
000002a0: c798 dfbd 5661 4f3d e850 d23d b8d9 5d3d
000002b0: 6a09 e43c b8d5 b13d 06f6 b03c 89a9 5d3c
000002c0: 545e ed3c fa38 d33c dd02 f6bc 2c6b 0bbc
000002d0: dfa9 f63b 42fb 34bd d4f1 30bc b38f 1bbb
000002e0: 93f2 373c 31fe 563c 4959 52bd e81b fa3b
000002f0: 7de2 babd 442b bbbc 80ec 36bd ea4c febc
00000300: 4ac7 d3bf 5bc2 d1bf 34db ddbf 7873 c8bf
00000310: b085 e0bf 0227 c7bf 0575 cabf 3e15 e3bf
00000320: 0aa4 cebf f76f d9bf ea75 e0bf b0d4 d0bf
00000330: 8267 e2bf d34f d8bf 7ae6 c4bf 605f d6bf
00000340: 360a e6bf 2f21 d0bf fa53 ddbf 91e1 debf
00000350: 78bc d9bf 3ed9 debf d3bd c9bf 9a31 dfbf
00000360: 3f27 dfbf 630a d2bf 1669 dcbf c6db d0bf
00000370: 752e d1bf f997 d3bf 723b d1bf 1d53 dbbf
00000380: 879a d0bf bc6a cebf 6c51 e9bf 9046 d9bf
00000390: 128b c9bf 2fcb cbbf 79a6 e4bf ed4c c4bf
000003a0: c960 dabf 4298 ddbf cda7 cbbf a4a3 d4bf
000003b0: abea ccbf be8a d7bf eeee d2bf 328d e2bf
000003c0: b56f d5bf b805 c8bf 34f9 d7bf 1609 e3bf
000003d0: f8d3 d8bf c3ec ddbf e550 e2bf 4920 dbbf
000003e0: 6559 ddbf 1d21 d7bf 6834 e9bf 0b42 cdbf
000003f0: 54b2 d3bf 886c e5bf e972 ccbf 53fb dbbf
-1.7232015 -1.502093 -1.57789 -1.5271256 -1.4873999 -1.5859587 -1.6868784 -1.6496528
-1.6453483 -1.555266 -1.5849434 -1.5089871 -1.477418 -1.6322507 -1.6593864 -1.6348974
-1.6427492 -1.5128974 -1.6284056 -1.6545361 -1.6122568 -1.4963495 -1.6582432 -1.620028
-1.4949365 -1.6598818 -1.5952756 -1.5188458 -1.7823673 -1.6541113 -1.581261 -1.6303396
-1.5233666 -1.7340486 -1.7342409 -1.5046142 -1.7062467 -1.5896919 -1.5181015 -1.7232481
-1.5787394 -1.7363589 -1.681691 -1.6184915 -1.6272608 -1.6751621 -1.6021858 -1.6018193
-1.5393984 -1.6321975 -1.6377432 -1.6744878 -1.6922196 -1.5156767 -1.574442 -1.6803179
-1.6579031 -1.5909971 -1.6476821 -1.6519462 -1.5756086 -1.7477182 -1.7509377 -1.591828
-1.0869545 -0.921094 -1.0061837 -0.90100455 -1.00012 -1.1229492 -0.9987822 -1.0855192
-1.0901519 -0.9828411 -0.96551853 -0.9625428 -0.99283993 -1.0619498 -0.9069446 -1.0232832
-1.0160342 -0.99021906 -0.95502716 -0.9180559 -1.1729559 -1.0848057 -1.1551 -0.9969683
-0.9717854 -1.0420656 -0.8968569 -1.1395358 -1.0559574 -1.143896 -1.1214484 -1.0449092
-1.105724 -1.0370805 -1.123361 -1.077932 -0.9622011 -0.92698365 -1.0557877 -0.96965
-0.9944651 -1.0238955 -1.1323825 -1.0746328 -0.968979 -1.071528 -1.1770676 -0.9889027
-1.0197535 -1.1085688 -1.1900511 -1.2476308 -0.9041861 -1.1120423 -1.036219 -1.0833623
-0.98696965 -1.0885122 -1.1319724 -1.0603426 -1.117827 -1.099576 -1.0666223 -0.96110845
-0.04941792 -0.013385595 -0.0030472165 0.0069912486 0.032226548 0.035627972 -0.09946989 0.045224372
0.058732513 -0.022472352 0.018063476 0.073501006 -0.037638046 -0.041836545 0.033786416 0.020749511
0.014508459 -0.014717344 -0.02480378 -0.032402523 0.013912353 -0.10229893 0.0077364333 -0.008590504
-0.077059336 0.088711694 0.019491406 0.0013084187 0.032300547 -0.009230067 -0.07875436 -0.082871094
0.030612506 0.08681084 0.023965532 -0.0034051829 -0.016171355 -0.05692738 -0.0405557 0.001124602
-0.10917812 0.050629936 0.10269338 0.05416271 0.02783652 0.08683342 0.021601688 0.01352919
0.028975643 0.025784004 -0.030030662 -0.0085094385 0.0075275744 -0.04418493 -0.010799844 -0.0023736774
0.011227268 0.013122127 -0.05135468 0.007632721 -0.091252305 -0.02284778 -0.044659138 -0.031042535
-1.6545193 -1.6387438 -1.733252 -1.5660238 -1.7540798 -1.5558779 -1.5816962 -1.7740858
-1.6143811 -1.6987294 -1.7535985 -1.6314907 -1.7687838 -1.689936 -1.5382836 -1.6747856
-1.7971866 -1.6260127 -1.7291253 -1.7412587 -1.7010641 -1.7410047 -1.5761055 -1.7437012
-1.7433852 -1.640942 -1.721957 -1.631707 -1.6342303 -1.6530753 -1.6346266 -1.7134739
-1.6297158 -1.6126323 -1.8227973 -1.6974659 -1.5745566 -1.5921382 -1.7863303 -1.5335976
-1.7060786 -1.731209 -1.5910584 -1.6612439 -1.6009115 -1.6839216 -1.6479166 -1.7699339
-1.6674715 -1.5626745 -1.6872926 -1.7737148 -1.6939688 -1.7337879 -1.7680937 -1.7119228
-1.7292906 -1.680698 -1.8219118 -1.603578 -1.6538796 -1.7923746 -1.5972568 -1.7186073
