torch-rl/storage/LineCorridor_5M_r4/status.pt (torch, 649941 bytes, 51 tensors)

image_conv.0.weight f4 [16, 3, 2, 2]
0	0x3ed87aa6	0.42281073
1	0xbe49210a	-0.1964151
2	0xbe06bc97	-0.13157879
3	0x3d405a6b	0.04696123
4	0xbe67530e	-0.22590277
5	0x3e041e66	0.12902221
6	0xbdfffc0b	-0.12499245
7	0x3e093616	0.13399538
8	0x3d246023	0.040130746
9	0xbd10c794	-0.035346583
10	0x3da3fa45	0.080067195
11	0x3c69527e	0.014240859
12	0xbc864805	-0.016391763
13	0xbe4059f3	-0.18784313
14	0xbdf3ca1b	-0.11903783
15	0xbdf3246d	-0.11872182
16	0x3e147c28	0.14500487
17	0xbe549ea0	-0.20763636
18	0x3e29069f	0.16506432
19	0xbd9d435c	-0.076788634
20	0xbddc2b47	-0.10750442
21	0xbe328872	-0.17434862
22	0xbd4630e4	-0.04838647
23	0xbdff02f1	-0.12451733
24	0xbe620aec	-0.22074479
25	0xbd8f3f90	-0.069945455
26	0xbc6462fe	-0.013939617
27	0xbbba7f8d	-0.005691475
28	0xbea7e2b3	-0.32790145
29	0x3e2c2d4c	0.16814154
30	0xbe0beed7	-0.13665329
31	0x3e03cf06	0.12871942
32	0x3e431daa	0.19054285
33	0xbe86aaec	-0.26302278
34	0xbe8c87f4	-0.27447474
35	0xbe0e9438	-0.13923728
36	0x3e6a4575	0.22878058
37	0xbe52fbab	-0.20603816
38	0x3e1f8f31	0.15581967
39	0xbe8bc2a4	-0.27296937
40	0x3e8bb52b	0.27286658
41	0xbe988836	-0.2979142
42	0x3e4908e7	0.19632302
43	0xbe270d36	-0.16313633
44	0xbe1bba9f	-0.15207909
45	0x3e17f1cb	0.1483833
46	0xbe1ce986	-0.15323457
47	0x3dade06d	0.084900714
48	0xbdbe29cf	-0.09285318
49	0xbd8ecc82	-0.069726005
50	0xbec10646	-0.377001
51	0xbe81c84a	-0.2534812
52	0x3e8a3e55	0.2700068
53	0xbe63f95e	-0.22263095
54	0x3e42ade7	0.19011651
55	0x3df9c9cf	0.12196695
56	0xbc5d75a1	-0.013516814
57	0xbe454f6b	-0.19268577
58	0x3e3402e1	0.17579223
59	0x3db77c35	0.089592375
60	0xbe6d4f50	-0.23174787
61	0x3e84b5ec	0.25920045
62	0x3e5704d2	0.20997933
63	0x3e86d34a	0.26333076
64	0x3cd58155	0.026062647
65	0xbd89a591	-0.067210324
66	0xbcc4b09e	-0.024009999
67	0xbc9c8f39	-0.019111263
68	0xbe6056ba	-0.21908084
69	0xbe51c449	-0.20485033
70	0x3e20cf3f	0.15704058
71	0xbd8aa219	-0.06769199
72	0x3e718951	0.23587538
73	0xbe7b39d4	-0.24533778
74	0x3c11e0da	0.008903706
75	0xbd350be4	-0.044200793
76	0xbbd3be25	-0.006461876
77	0xbce9b493	-0.028528487
78	0xbe62b0e7	-0.22137795
79	0x3e0785c0	0.13234615
80	0xbe4fd877	-0.20297419
81	0xbe5f090e	-0.21780798
82	0x3c8fd0c3	0.0175556
83	0xbd497de1	-0.049192313
84	0x3e62a725	0.22134073
85	0xbe64fc14	-0.22361785
86	0xbe89abeb	-0.26888976
87	0x3eea656b	0.457805
88	0xbdadf763	-0.08494451
89	0x3db800de	0.089845404
90	0x3dd008cc	0.10157928
91	0xbe27fc11	-0.1640475
92	0x3d6d8b79	0.05799434
93	0x3d8e017e	0.06933878
94	0xbe45ec7c	-0.19328493
95	0xbe0c416e	-0.13696834
96	0x3d21a2cd	0.0394619
97	0xbde1e48f	-0.11029922
98	0xbe50de09	-0.203972
99	0xbe5aee71	-0.2138002
100	0x3e8e72c7	0.27821943
101	0xbe4b6d73	-0.1986597
102	0x3e107236	0.14106068
103	0xbcb4ec76	-0.02208541
104	0xbe3f1482	-0.18660167
105	0xbe7b63ca	-0.24549785
106	0x3e8ddf87	0.277096
107	0x3c76f79b	0.015073682
108	0x3e46b0dc	0.19403404
109	0xbc87b613	-0.016566312
110	0xbd9b4cdc	-0.07583019
111	0x3e93dbb8	0.2887857
112	0x3e856b14	0.26058257
113	0xbe5e9460	-0.21736288
114	0xbdf5c345	-0.12000135
115	0x3db4afe7	0.08822613
116	0x3e56253b	0.2091264
117	0x3e37a3e2	0.1793361
118	0xbe55ef08	-0.20891964
119	0xbe54dd7e	-0.20787618
120	0xbe8481f1	-0.25880387
121	0x3e1050f8	0.14093387
122	0x3ef1ff7e	0.47265238
123	0xbe7d4ecd	-0.24737091
124	0x3e0e1c35	0.13877948
125	0xbdf182ea	-0.11792548
126	0xbe618a3d	-0.2202539
127	0xbd34d2e6	-0.04414644
128	0x3e2a516b	0.16632621
129	0x3e893722	0.26799875
130	0xbe3794c5	-0.17927845
131	0x3d804c69	0.06264574
132	0x3e54cc7f	0.20781134
133	0x3de35728	0.11100608
134	0x3e6a4c93	0.22880773
135	0x3dca36a7	0.09873705
136	0x3db85784	0.09001067
137	0x3d6586e4	0.056036845
138	0xbe7f2654	-0.24916965
139	0xbe889264	-0.26674187
140	0xbe077398	-0.1322769
141	0xbd09afeb	-0.033615034
142	0xbe3530d3	-0.17694406
143	0x3dd84b8d	0.10561285
144	0xbd4aa05b	-0.049469333
145	0xbe5fa272	-0.21839312
146	0xbd5ab863	-0.0533985
147	0xbceb5b95	-0.028730193
148	0x3df8cd41	0.12148524
149	0x3d6ed418	0.058307737
150	0xbe252389	-0.16126837
151	0x3e592f47	0.21209441
152	0xbd08b236	-0.03337308
153	0xbc227df1	-0.009917722
154	0xbe8b81ce	-0.2724747
155	0xbe3e414e	-0.185796
156	0xbde66970	-0.11250579
157	0xbdf247bf	-0.11830091
158	0x3ea8aa1f	0.32942292
159	0xbe2280f2	-0.15869501
160	0xbd84be45	-0.064816035
161	0x3db32325	0.08746938
162	0x3c45bb99	0.012068653
163	0x3da08c7e	0.07839297
164	0xbe18f76c	-0.14938134
165	0x3d802eb6	0.062589094
166	0xbdd73aaa	-0.10509236
167	0xbd84d445	-0.064858
168	0xbe8ef3d2	-0.27920395
169	0xbdec9fd5	-0.11553923
170	0xbe247ede	-0.16064021
171	0x3d0dd3d6	0.03462585
172	0xbd226dd2	-0.039655514
173	0x3d9099a8	0.070605576
174	0x3e5f44b2	0.21803549
175	0x3e8b8fe0	0.27258205
176	0x3e499d8b	0.19689004
177	0x3c169be2	0.009192439
178	0xbe4c7ef0	-0.19970298
179	0x3e670451	0.2256024
180	0xbe1e653d	-0.15468307
181	0xbba4c660	-0.005028531
182	0xbe8a9a4d	-0.27070847
183	0xbdc56832	-0.09639014
184	0xbe88e15d	-0.2673444
185	0x3e918c7d	0.28427497
186	0xbe7f8e28	-0.24956572
187	0xbe85fc82	-0.2616921
188	0xbc2099fa	-0.009802336
189	0xbe1fd659	-0.15609111
190	0x3dd38a68	0.10329133
191	0xbde39212	-0.11111845

image_conv.0.bias f4 [16]
0	0xbe3b97c3	-0.18319611
1	0xbd9ecca9	-0.077538796
2	0xbd120ece	-0.03565865
3	0xbeb31486	-0.34976596
4	0x3da2e3c3	0.07953598
5	0x3cafcc80	0.021459818
6	0x3c81a479	0.015825497
7	0xbe7eabbf	-0.24870203
8	0x3d13f6f4	0.036124185
9	0xbeb29eda	-0.3488682
10	0x3db786d6	0.08961265
11	0xbe85b142	-0.261118
12	0xbc2f6f34	-0.010707665
13	0xbc7a5b5a	-0.015280569
14	0xbd8deb81	-0.069296844
15	0xbc1895fd	-0.009313104

image_conv.3.weight f4 [32, 16, 2, 2]
0	0xbcf91bfd	-0.030408854
1	0x3e5f9c63	0.21837
2	0xbdf958bf	-0.1217513
3	0xbd608c89	-0.054821525
4	0xbe734a15	-0.23758729
5	0x3d698ca3	0.057018887
6	0x3d88e3f7	0.06684106
7	0x3dbea1c6	0.093081996
8	0x3dc3aa23	0.095539354
9	0xbda0b7a3	-0.07847526
10	0xbd2615a9	-0.040548
11	0x3e0f1c25	0.1397558
12	0xbe9a533a	-0.30141622
13	0x3dc86a82	0.0978594
14	0xbe6d9a19	-0.23203315
15	0xbdafcc16	-0.08583848
16	0xbd1a4150	-0.037659943
17	0xbddf2dd3	-0.10897412
18	0xbd99c7e9	-0.07508833
19	0x3da26b6e	0.07930647
20	0x3d4e05e9	0.050298605
21	0x3e0db8b3	0.13839988
22	0xbd9e8a9d	-0.07741282
23	0xbe2b4a50	-0.16727567
24	0x3dabf651	0.083965905
25	0x3d1f3d90	0.03887707
26	0xbdc6f56d	-0.0971478
27	0xbd4a764b	-0.04942922
28	0xbe8af4b1	-0.2713981
29	0x3db03121	0.086031206
30	0xbcaf3107	-0.021385683
31	0xbe9373f5	-0.28799406
32	0xbe81ffa6	-0.25390357
33	0xbc886f3e	-0.016654607
34	0xbd94d9a8	-0.07268077
35	0xba22326a	-0.0006187322
36	0xbe51f78e	-0.20504591
37	0xbd240577	-0.040044274
38	0xbe23e0b0	-0.1600368
39	0xbdfed061	-0.12442089
40	0xbe0c75d7	-0.13716827
41	0x3e084b83	0.13310055
42	0xbcd0bd13	-0.025480783
43	0xbdf5b21d	-0.11996863
44	0xbcffebc7	-0.031240357
45	0x3da5fc2e	0.0810474
46	0xbdab3b97	-0.08360975
47	0xbe1e0c8b	-0.15434472
48	0x3d4d5adc	0.05013548
49	0x3da81826	0.08207731
50	0xbceeb04b	-0.029136797
51	0xbceb16b1	-0.028697344
52	0x3da227b5	0.0791773
53	0x3dcf96f4	0.10136214
54	0xbdf58700	-0.1198864
55	0x3dda39cc	0.10655555
56	0x3cb91ed4	0.022597708
57	0xbdc672b8	-0.096898496
58	0x3d9202fd	0.07129476
59	0xbdb090e0	-0.08621383
60	0x3cbf1a84	0.023328073
61	0xbdfd6c93	-0.123742245
62	0xbc808e54	-0.015692867
63	0xbdd07882	-0.10179235
64	0x3b9750bb	0.004617778
65	0x3da33a71	0.07970131
66	0xbd8ef1c5	-0.06979708
67	0xbda805a0	-0.08204198
68	0xbdec16ec	-0.115278095
69	0xbd317c81	-0.043331627
70	0xbd8babda	-0.068198875
71	0xbc9f87eb	-0.01947399
72	0xbd744f2c	-0.059645817
73	0x3bb5544c	0.0055337306
74	0x3da10fa8	0.07864314
75	0x3af69933	0.0018813967
76	0xbd24ef90	-0.040267527
77	0xbdd17e29	-0.10229141
78	0xbddf456c	-0.10901913
79	0x3d910eb6	0.07082884
80	0xbd656eb0	-0.056013763
81	0xbc6a0a1c	-0.014284637
82	0xbcf81cdb	-0.030287197
83	0xbdf72fbc	-0.120696515
84	0x3ce90333	0.028443908
85	0x3d3289d4	0.043588474
86	0xbcebcffe	-0.028785702
87	0xbddc27ed	-0.10749803
88	0xbdb99532	-0.0906166
89	0xbccf357b	-0.025294056
90	0xbdd741c9	-0.105105944
91	0xbdc2e62e	-0.095165595
92	0xbcdbbfa8	-0.026824787
93	0xbbfa7125	-0.0076428824
94	0x3aba5893	0.0014217071
95	0xbd614cd0	-0.055004895
96	0xbd27619d	-0.040864576
97	0xbd9ce2e5	-0.07660464
98	0xbe1045b3	-0.14089088
99	0x3d8d90c6	0.06912379
100	0x3b879875	0.0041380473
101	0x3da61bed	0.08110795
102	0xbd05fe8d	-0.03271346
103	0xbd936eeb	-0.0719889
104	0xbe1cc9c3	-0.15311341
105	0xbdc51d11	-0.096246846
106	0x3d5394b0	0.05165547
107	0xbe119658	-0.14217508
108	0xbd490ad9	-0.04908261
109	0x3d56118a	0.05226282
110	0x3d110e89	0.035414252
111	0x3c3aef19	0.011409544
112	0xbd87ce07	-0.066310935
113	0xbd457795	-0.048209745
114	0xbd77b1df	-0.060472365
115	0xbdac4b83	-0.0841284
116	0x3ce38ed6	0.02777807
117	0xbd9e2dbb	-0.07723566
118	0xbdbc9ad6	-0.0920922
119	0xbbf2d7ae	-0.007410965
120	0xbded23ec	-0.11579117
121	0xbd8b3317	-0.06796854
122	0x3d45370f	0.04814821
123	0x3c35d68c	0.011098515
124	0x3dbba76e	0.09162794
125	0xbdc89eb1	-0.09795893
126	0xbcc9a849	-0.024616377
127	0xbd8cae73	-0.06869211
128	0xbe02cc0d	-0.12773152
129	0xbe77d49c	-0.24202198
130	0x3e6587a2	0.22415021
131	0x3b03aee5	0.002009326
132	0xbdaf3e4d	-0.08556805
133	0xbd86329a	-0.0655262
134	0xbe0e9c14	-0.13926727
135	0x3dddf88c	0.10838422
136	0x3d287bbc	0.041133627
137	0xbda86539	-0.08222432
138	0xbaf3dff5	-0.0018606173
139	0xbe07eff3	-0.13275127
140	0xbe1fbc66	-0.15599212
141	0xbd0b3f2b	-0.03399579
142	0x3dcafb7c	0.09911248
143	0x3ce292c3	0.027657872
144	0xbda42c26	-0.08016233
145	0xbd49769a	-0.049185373
146	0x3d8e5670	0.069500804
147	0x3dbc41ca	0.09192236
148	0x3deecce2	0.11660172
149	0xbc13cdad	-0.009021205
150	0x3e38ffa7	0.18066274
151	0x3ce27ac3	0.027646428
152	0xbd5a2d52	-0.053265877
153	0xbe4d78f1	-0.20065667
154	0x3e1215d4	0.1426614
155	0x3ca89654	0.020579495
156	0x3d950586	0.07276444
157	0xbc854aae	-0.016270962
158	0x3cb34339	0.02188264
159	0x3d280c65	0.041027445
160	0xbd046b71	-0.032329027
161	0xbbaab3d9	-0.005209428
162	0xbdce4c60	-0.10073161
163	0x3d57026f	0.052492555
164	0x3d15a3f4	0.03653331
165	0xbc306688	-0.010766633
166	0x3d24449c	0.040104493
167	0x3cd04724	0.025424547
168	0xbcaf56b9	-0.021403657
169	0x3e021481	0.12703134
170	0x3e68fcba	0.22752658
171	0xbd663849	-0.05620602
172	0xb98cfee8	-0.000268928
173	0xbdb52681	-0.08845235
174	0x3e3cecbd	0.18449683
175	0xbcf1fcc9	-0.029539483
176	0xbd33fee5	-0.04394426
177	0x3d53f390	0.05174595
178	0x3df2a331	0.118475325
179	0x3c3c5558	0.011494957
180	0xbd0b1582	-0.03395606
181	0xbdb20d53	-0.08693948
182	0x3d9af285	0.07565788
183	0x3d1a8fb5	0.037734706
184	0x3c8bf81a	0.017086077
185	0xbdd091c1	-0.1018405
186	0x3e385956	0.18002829
187	0x3cb795de	0.02241033
188	0x3de3f488	0.11130625
189	0x3c70fc70	0.014708623
190	0x3db67105	0.089082755
191	0x3bad1ef1	0.0052832295
192	0xbd46640a	-0.04843525
193	0x3e8e4346	0.277857
194	0xbdb19035	-0.086700834
195	0xbe494d25	-0.19658335
196	0xbd4db56b	-0.05022184
197	0xbdea7e3a	-0.11449857
198	0x3e0b0384	0.1357556
199	0xbc9e539e	-0.019326981
200	0x3d9c65a8	0.07636577
201	0xbd347fcb	-0.044067185
202	0xbd4d2c4d	-0.050091077
203	0x3d6e399a	0.058160402
204	0x3e1ab4d7	0.15108047
205	0xbd88b53c	-0.06675193
206	0x3e8bbd92	0.27293068
207	0x3cef42cd	0.029206658
208	0xbe09cb35	-0.13456424
209	0x3df624b9	0.12018723
210	0x3de43a13	0.11143889
211	0xbcab7100	-0.020927906
212	0xbe2ac19c	-0.16675419
213	0x3deee6bb	0.11665102
214	0xbd6219ff	-0.055200573
215	0x3d9992cc	0.074987024
216	0xbd18fb01	-0.03734875
217	0x3e27ce72	0.16387346
218	0xbda1b6b0	-0.07896173
219	0xbe2cdb0e	-0.16880438
220	0xbb9af296	-0.0047286255
221	0x3e3e9053	0.18609743
222	0xbe0225ac	-0.12709683
223	0xbe307014	-0.17230254
224	0x3d9a8288	0.07544428
225	0x3d72220f	0.059114512
226	0x3e91e3fa	0.28494245
227	0xbde6c521	-0.11268068
228	0xbde55cbe	-0.1119933
229	0x3c9f2476	0.019426566
230	0x3e4b9d1f	0.19884156
231	0x3d8e8b8e	0.06960212
232	0xbe23c9b4	-0.15994912
233	0x3e0f25eb	0.13979308
234	0xbddfbbd4	-0.10924497
235	0x3d126686	0.035742305
236	0xbd430c52	-0.04761917
237	0x3dd927b7	0.10603278
238	0xbe1c33ba	-0.15254107
239	0x3c4415ba	0.011968071
240	0xbdb70edd	-0.08938382
241	0xbda7a2e2	-0.08185364
242	0x3d70f999	0.058831785
243	0x3ca3fa93	0.020016944
244	0x3dc7046b	0.097176395
245	0xbb7ab634	-0.0038255574
246	0x3daba74f	0.08381521
247	0x3ca6acfd	0.02034616
248	0xbd7a6498	-0.06113109
249	0xbdbe84a3	-0.09302642
250	0x3d650bff	0.055919643
251	0xbd4ac0a0	-0.049500108
252	0x3d98ddfe	0.07464217
253	0xbd8c9f61	-0.068663366
254	0x3e389e2c	0.18029088
255	0xbd441778	-0.047873944

image_conv.3.bias f4 [32]
0	0xbcdbaa98	-0.026814744
1	0xbda30bfa	-0.07961269
2	0x3dc21999	0.094775386
3	0xbde6ab3e	-0.112631306
4	0xbd4586cd	-0.04822426
5	0xbd447ef2	-0.047972627
6	0xbd81409a	-0.0631115
7	0xbc3e4f5e	-0.011615602
8	0xbc1739d8	-0.0092301
9	0x3de8c220	0.113651514
10	0x3bbf6caf	0.0058418135
11	0xbcfc585e	-0.030803856
12	0xbdf9f7af	-0.12205445
13	0xbd045137	-0.032304015
14	0xbd2d6b75	-0.042338807
15	0xbddf85df	-0.10914206
16	0x3dd13b79	0.10216422
17	0x3d6936a0	0.05693686
18	0x3dfdd3d4	0.12393919
19	0xbdd24af1	-0.102682
20	0x3b97761e	0.004622235
21	0x3d949cba	0.07256456
22	0xbdc3819a	-0.09546204
23	0xbe09a96a	-0.13443533
24	0xbd34e0c4	-0.044159666
25	0xbd5c23dd	-0.05374514
26	0xbdc2242d	-0.09479556
27	0xbdaab329	-0.08334953
28	0xbdfbc6dc	-0.12293789
29	0x3c9c927d	0.01911282
30	0xbdb3e367	-0.08783608
31	0x3db46ac7	0.08809429

image_conv.5.weight f4 [64, 32, 2, 2]
0	0x3d87df24	0.066343576
1	0xbce27c1b	-0.027647069
2	0xbd826124	-0.06366184
3	0xbcb2c22b	-0.021821102
4	0x3c37f61e	0.0112281125
5	0x3d5444e1	0.0518235
6	0xbbca7f17	-0.006179701
7	0x3c6a1cf5	0.01428913
8	0xbd1b1989	-0.03786615
9	0x3c472470	0.0121546835
10	0x3b216621	0.0024627524
11	0xbdb32b19	-0.087484546
12	0x3d71a6fe	0.058997147
13	0x3c7b4eb7	0.015338591
14	0x3da2ae2f	0.07943379
15	0xbdc7b8be	-0.09752034
16	0x3b128e7b	0.0022362757
17	0x3d239669	0.039938364
18	0x3d8cdf3b	0.06878515
19	0x3a969a4a	0.0011490074
20	0xbd2d1ab3	-0.04226179
21	0xbd8b9022	-0.068146005
22	0xbd63cd0a	-0.055615462
23	0x3d91c00d	0.07116709
24	0xbde6d542	-0.112711444
25	0xbdb6cf07	-0.08926206
26	0x3cdd661c	0.027026229
27	0x3cc2269e	0.023700055
28	0xbd9e584e	-0.077316865
29	0x3c8f8e81	0.017524006
30	0x3c2f1358	0.010685764
31	0x3da623dc	0.081123084
32	0x3bab98ae	0.0052367067
33	0x3cf69eb7	0.030104978
34	0xbce99cf1	-0.028517218
35	0x3ceb08ab	0.028690657
36	0xbd332bd6	-0.043742977
37	0xbdb3d459	-0.087807365
38	0x3c2c8574	0.010529865
39	0xbd872c84	-0.066002876
40	0x3cb50f45	0.022102008
41	0x3d7ba888	0.06144002
42	0xbd8ccb9a	-0.068747714
43	0xbd83b2da	-0.064305976
44	0xbb233ab2	-0.0024906811
45	0xbc8a2d9d	-0.016867453
46	0xbad15051	-0.0015969371
47	0x3d9fdd84	0.078059226
48	0x3c8499e3	0.01618666
49	0xbcf0122f	-0.029305546
50	0x3c6a7151	0.014309243
51	0xbc59e270	-0.013298616
52	0xbdb6c800	-0.08924866
53	0x3cc3b108	0.023888126
54	0xbdaacc4b	-0.08339747
55	0xbb6af497	-0.0035851353
56	0x3d1dbac3	0.038508188
57	0xbdd81e17	-0.10552614
58	0xbc167445	-0.009182994
59	0x3dad17e5	0.08451823
60	0x3ce1a52c	0.02754458
61	0xbd549571	-0.05190033
62	0x3a775316	0.0009434683
63	0xbdc2320a	-0.094822004
64	0xbc57f844	-0.01318175
65	0x3d4caaa5	0.049967427
66	0x3d56c6fe	0.052435867
67	0xbbfca1cd	-0.007709718
68	0xbc197fbf	-0.009368836
69	0xbc45841d	-0.012055424
70	0xbd301faf	-0.042998966
71	0xbbe99041	-0.007127792
72	0xbdbec8d9	-0.093156524
73	0x3c8fb410	0.017541915
74	0x3d04aac4	0.032389417
75	0xbc3b2d15	-0.011424323
76	0xbc6e0176	-0.0145267155
77	0xbd61e009	-0.055145297
78	0x3dad5a15	0.084644474
79	0x3d158e74	0.036512807
80	0x3d45deda	0.04830823
81	0xbdd2ce97	-0.1029331
82	0xbdce8d43	-0.10085537
83	0xbcfcdd6d	-0.030867303
84	0x3d82b905	0.06382946
85	0xbac1ade5	-0.0014776556
86	0x3b3e7ede	0.0029067318
87	0xbc03a5b8	-0.008035116
88	0xbca889ae	-0.020573463
89	0x3d74da19	0.059778307
90	0x3d8996bb	0.06718203
91	0xbd7096e8	-0.058737665
92	0xbd58d0d2	-0.05293352
93	0xbd8cc1b8	-0.068728864
94	0xbcb017b1	-0.021495672
95	0xbb027e60	-0.001991175
96	0x3d636838	0.055519313
97	0xbdb65e8e	-0.089047536
98	0x3d5a981f	0.05336773
99	0xbd1dd91a	-0.038537122
100	0x3d7f8119	0.062378976
101	0x3cf26ea3	0.029593771
102	0x3d24e90c	0.040261313
103	0xbd704862	-0.05866278
104	0xbd85aac5	-0.06526712
105	0xbbac0a95	-0.005250285
106	0x3c6bc6b8	0.01439064
107	0xbbd9212f	-0.0066262702
108	0x3c804254	0.015656628
109	0xbcce92ff	-0.025216578
110	0xbc94362c	-0.018092237
111	0x3d494529	0.049138222
112	0xbc8e3c21	-0.017362656
113	0x3d6ef7ef	0.058341917
114	0x3d6e7755	0.058219273
115	0x3d6cdd61	0.05782831
116	0x3cfb6c53	0.030691301
117	0xbde1094f	-0.109881036
118	0xbdc65d20	-0.09685731
119	0xbc19722a	-0.009365598
120	0xbbc9327b	-0.006140051
121	0xbd945406	-0.07242589
122	0x3d16fbbf	0.036861178
123	0xbc6b0490	-0.0143443495
124	0xbdbc2578	-0.09186834
125	0x3c737846	0.014860218
126	0x3d896cbd	0.06710193
127	0xbbda055f	-0.0066534723
128	0xbd397b4c	-0.0452836
129	0xbcbe7546	-0.02324928
130	0xbda88bfc	-0.08229825
131	0x3ca55445	0.020181784
132	0x3d634741	0.055487875
133	0xbc5855bb	-0.0132040335
134	0xbd8f82a3	-0.07007339
135	0x3d96e929	0.073686905
136	0xbdae09c9	-0.0849796
137	0xbdadf07a	-0.08493133
138	0x3d26fa7b	0.04076622
139	0xbd81e327	-0.06342154
140	0x3c64e4fe	0.013970612
141	0x3d8fcbe9	0.07021315
142	0xbc118953	-0.008882838
143	0xbc9e2c16	-0.019308131
144	0x3dd45bc0	0.103690624
145	0x3bd274fb	0.0064226366
146	0x3d5af2b3	0.053454112
147	0xbd185b60	-0.037196517
148	0xbdbf4f4b	-0.09341296
149	0x3c62b4d9	0.013837063
150	0xbd82808c	-0.063721746
151	0xbd3b3dad	-0.045713115
152	0xbdbac97f	-0.091204636
153	0x3d3f90d3	0.046768975
154	0xbd99067a	-0.074719384
155	0xbc758b4d	-0.014986825
156	0x3c3b9691	0.011449472
157	0x3d7fff8b	0.062499564
158	0x3d32fb92	0.043696947
159	0xbd7d7802	-0.061882026
160	0x3cca1e71	0.024672719
161	0xbd558b8f	-0.052135047
162	0xbc26e21e	-0.0101857465
163	0xbd210b65	-0.039317507
164	0xbdaf97ab	-0.0857385
165	0x3d97636a	0.073920086
166	0xbd8661c1	-0.06561614
167	0x3dad0aa3	0.084492944
168	0x3d11e7f7	0.03562161
169	0xbcfa75b4	-0.030573703
170	0xbd540179	-0.051759217
171	0xbda6d859	-0.08146734
172	0xbd812376	-0.06305592
173	0xbd91c681	-0.0711794
174	0xbbb6831a	-0.0055698277
175	0xbc1a7df3	-0.009429443
176	0x3d8bb731	0.0682205
177	0x3c0ffca7	0.008788264
178	0xbcd72510	-0.02626279
179	0xbd2f08a1	-0.04273284
180	0xbcaabdea	-0.020842511
181	0x3d21ac70	0.03947109
182	0xbdc22d0b	-0.094812475
183	0xbdb38278	-0.08765119
184	0x3cc99486	0.024606954
185	0xbceb207a	-0.02870201
186	0xbd2a3978	-0.041558713
187	0xbd5cf74c	-0.05394678
188	0xbd889c24	-0.066704065
189	0xbdb57de7	-0.088619046
190	0xbda4dabe	-0.08049534
191	0xbdb61010	-0.088897824
192	0xbd4db079	-0.050217126
193	0x3d5718de	0.05251395
194	0xbd6cf0ed	-0.057846952
195	0x3d35b49b	0.044361692
196	0xbdcc1993	-0.099658154
197	0xbb3cc120	-0.0028801635
198	0xbd05f0d0	-0.03270036
199	0xbda79307	-0.0818234
200	0xbc482e06	-0.012218004
201	0x3d1b053f	0.0378468
202	0xbd87e862	-0.066361204
203	0x3d583739	0.05278704
204	0xbc185403	-0.009297374
205	0xbce4f420	-0.02794844
206	0x3d32b6a3	0.043631207
207	0x3d8d826f	0.06909644
208	0x3d946b75	0.07247058
209	0x3d6f7b84	0.058467403
210	0xbdd81359	-0.10550565
211	0xbb78c603	-0.003795982
212	0xbc9bf0ef	-0.019035785
213	0xbd5a8d6a	-0.05335752
214	0x3cd48536	0.025942426
215	0xbc9d50dc	-0.019203596
216	0xbda3ae83	-0.0799227
217	0xbd096be5	-0.033550162
218	0xbd804fee	-0.062652454
219	0x3d86ea86	0.065877005
220	0xbd83b9c6	-0.06431918
221	0xbcb685a9	-0.022280531
222	0x3c14f48b	0.009091507
223	0x3d1c1c95	0.038113195
224	0xbd9c10fb	-0.07620426
225	0x3d1bc3b1	0.038028423
226	0xbd83074e	-0.06397878
227	0xbdc39739	-0.09550328
228	0x3c68a69c	0.014199879
229	0xbd7405c7	-0.059575822
230	0x3d464b3e	0.0484116
231	0x3cf1ca1d	0.02951532
232	0xbd55a871	-0.05216259
233	0xbc7a9665	-0.015294646
234	0xbd64cfe8	-0.055862337
235	0x3c08a676	0.008340469
236	0x3c10e2b1	0.00884311
237	0xbc454cef	-0.012042268
238	0xbd5647e5	-0.052314658
239	0xbdb970c7	-0.09054714
240	0xbd67872b	-0.05652539
241	0x3c747e65	0.014922713
242	0x3c147dd7	0.009063206
243	0xbd363ffd	-0.044494618
244	0xbcf003ad	-0.029298628
245	0xbbf69216	-0.007524739
246	0x3d7ff91e	0.062493436
247	0xbdbc79ca	-0.09202917
248	0xbd2145ca	-0.039373197
249	0xbd252c65	-0.04032554
250	0xbc6dd8c9	-0.014517018
251	0xbd80764b	-0.062725626
252	0x3d02cfc0	0.031936407
253	0xbd0815ef	-0.033224043
254	0x3b740b2c	0.0037238104
255	0xbd2d9cc4	-0.04238583

image_conv.5.bias f4 [64]
0	0xbc37fb87	-0.011229402
1	0xbd359e24	-0.044340268
2	0x3d5399a8	0.05166021
3	0xbdf37b90	-0.11888802
4	0xbd4991e6	-0.049211405
5	0xbcc5efe1	-0.024162235
6	0x3dc3bb63	0.095572256
7	0xbce84784	-0.028354414
8	0x3c827cee	0.015928712
9	0x3d1819fd	0.03713416
10	0xbcbaca2c	-0.022801481
11	0x3e12a712	0.14321545
12	0xbd5895a8	-0.0528771
13	0xbdc345fb	-0.09534832
14	0xbbc3b060	-0.0059719533
15	0xbd84c664	-0.064831525
16	0x3d054290	0.032534182
17	0x3d81e1b0	0.063418746
18	0xbce4b6af	-0.027919142
19	0xbc426d3c	-0.011866864
20	0x3db896e8	0.09013158
21	0x3d817bef	0.063224666
22	0xbd4b077d	-0.04956769
23	0x3d91177d	0.07084558
24	0xbc1a7b40	-0.009428799
25	0x3df871d1	0.12131084
26	0x3e1c5139	0.15265359
27	0xbd0e28c8	-0.03470686
28	0x3cc62038	0.024185285
29	0xbe17d95b	-0.14829008
30	0x3c5e314b	0.013561557
31	0x3cd4365e	0.02590483
32	0xbca16111	-0.019699605
33	0xbe109f52	-0.14123276
34	0x3d1aab3c	0.037760958
35	0x3b128050	0.0022354312
36	0xbe07df82	-0.13268855
37	0xbda72204	-0.08160785
38	0xbd022f61	-0.031783465
39	0x3e09a546	0.13441953
40	0xbcce3813	-0.025173223
41	0xbbabcb5d	-0.0052427487
42	0xbd6a3e17	-0.05718812
43	0xbbd69d91	-0.006549545
44	0x3d4dcf7c	0.0502467
45	0xbb056bc5	-0.0020358425
46	0x3d344224	0.04400839
47	0xbdb81313	-0.08988013
48	0x3c5b338c	0.013378989
49	0xbd5a166c	-0.05324404
50	0xbd9c37fa	-0.07627864
51	0xbd830125	-0.06396703
52	0x3da77c28	0.08177978
53	0x3d862539	0.065500684
54	0xbcac9027	-0.021064831
55	0x3e3ba53c	0.1832475
56	0xbdce281f	-0.10066246
57	0x3a7e2cc2	0.00096960005
58	0xbd289436	-0.04115697
59	0xbddc581c	-0.10758993
60	0x3d6bdebe	0.05758547
61	0xbc5e7143	-0.013576808
62	0x3d15d5ab	0.036580723
63	0x3d0bb318	0.034106344

memory_rnn.weight_ih f4 [256, 64]
0	0xbd2160d7	-0.039398994
1	0xbd8a4fbc	-0.067534894
2	0xbdd1386d	-0.102158405
3	0xbddb0b76	-0.106955454
4	0x394732ca	0.0001899704
5	0xbb8dc524	-0.0043264795
6	0x3b3a1b0f	0.0028397476
7	0xbda80c53	-0.08205476
8	0x3e2e0214	0.1699298
9	0xbe22eef4	-0.15911466
10	0xbc87f83a	-0.016597856
11	0x3da157d7	0.07878082
12	0xbde7f368	-0.11325723
13	0x3dc7f4f9	0.09763522
14	0x3d370568	0.04468289
15	0xbd5c0687	-0.053717162
16	0x3b42340d	0.0029633075
17	0x3dd5e8f5	0.10444824
18	0xbd29ddd9	-0.041471336
19	0xbd42100a	-0.047378577
20	0x3cd82989	0.026386993
21	0xbe59f0f4	-0.21283323
22	0xbde83e95	-0.113400616
23	0x3e2bc36c	0.16773766
24	0xbed17a9d	-0.4091386
25	0xbe8a7fba	-0.27050573
26	0xbd0d5f3c	-0.03451465
27	0xbda88e4a	-0.082302645
28	0x3da4f93f	0.080553524
29	0xbe2b80d9	-0.1674837
30	0xbf03915f	-0.51393694
31	0x3df9746c	0.12180409
32	0xbe707afd	-0.23484416
33	0xbc974b9a	-0.018468667
34	0x3dfadef9	0.1224956
35	0xbeb8fd5f	-0.36130807
36	0x3dbf49e0	0.093402624
37	0x3de31966	0.11088829
38	0x3caf1de5	0.02137656
39	0xbdd2e36e	-0.10297285
40	0xbcb709ed	-0.0223436
41	0xbc57a824	-0.013162646
42	0xbdf0c0cd	-0.11755524
43	0x3d70c4fe	0.058781616
44	0xbde75ebf	-0.11297368
45	0x3e12c0dd	0.14331384
46	0x3d6063ff	0.054782864
47	0xbe5d2256	-0.2159513
48	0x3dd1f864	0.10252455
49	0x3dbee131	0.093202956
50	0x3d7ef877	0.062248673
51	0xbd6dddc4	-0.05807282
52	0xbbc044c4	-0.0058675725
53	0x3e1c389d	0.15255971
54	0xbe160843	-0.14651589
55	0xbe1b4d6f	-0.15166257
56	0xbe066902	-0.13125995
57	0xbd562c6e	-0.052288465
58	0x3d8bc1d8	0.06824082
59	0x3d515ce0	0.051113963
60	0xbda6c394	-0.08142772
61	0xbd55574c	-0.052085206
62	0xbdfb6dfa	-0.12276836
63	0x3db5fdbb	0.08886286
64	0xbd27e0b3	-0.040985774
65	0x3e14c697	0.14528881
66	0xbdcac4b3	-0.09900799
67	0xbd8572aa	-0.06516011
68	0xbda49653	-0.080364846
69	0x3dd37eea	0.10326941
70	0xbe1c788a	-0.15280357
71	0x3d5f2b42	0.054484613
72	0x3d80576e	0.06266676
73	0x3e42142b	0.18953006
74	0xbd986a26	-0.07442121
75	0x3d0c32b6	0.03422805
76	0x3dc0d0ea	0.09414847
77	0xbd191e6a	-0.03738252
78	0x3d0b0685	0.033941764
79	0x3d201b09	0.039088283
80	0x3a446fea	0.0007493483
81	0x3d76b2f2	0.06022925
82	0x3d17079a	0.036872484
83	0xbda0a80e	-0.07844554
84	0xbca6415e	-0.020294841
85	0xbdbcac4e	-0.09212552
86	0x3d50e3ee	0.05099862
87	0x3cbcdaa6	0.023053478
88	0x3bcb0f31	0.0061968793
89	0xbddcc842	-0.10780384
90	0x3d876f83	0.06613066
91	0xbda85078	-0.08218473
92	0xbd876e04	-0.06612781
93	0xbe023a5d	-0.12717576
94	0x3c88c960	0.016697586
95	0xbde51412	-0.11185469
96	0x3cb8519e	0.022499856
97	0xbde3ad1d	-0.11117003
98	0x3e1d09f0	0.15335822
99	0xbe9586ce	-0.2920441
100	0xbd4ebc6f	-0.050472673
101	0x3d550299	0.05200443
102	0xbe2032ef	-0.1564443
103	0x3e1070dd	0.14105554
104	0x3e0675cc	0.13130873
105	0x3dba4d01	0.090967186
106	0xbe70fdb2	-0.23534277
107	0xbd1d7bc2	-0.038448103
108	0xbd93ee54	-0.07223192
109	0x3d6a413e	0.057191126
110	0xbd3a7dd9	-0.045530174
111	0x3db257d3	0.087081574
112	0x3df47797	0.119368725
113	0xbdd66b49	-0.10469682
114	0x3d198875	0.03748365
115	0xbd93308a	-0.071869925
116	0x3ccd11f2	0.025032971
117	0xbda922c5	-0.08258585
118	0xbe09cd17	-0.13457142
119	0x3dd3c80d	0.10340891
120	0xbb86f63e	-0.00411871
121	0x3b77f3b1	0.003783446
122	0xbdc7fa50	-0.0976454
123	0xbdbf8341	-0.093512066
124	0x3dbe3de6	0.0928915
125	0x3c77c384	0.015122298
126	0xbd748ea8	-0.05970636
127	0xbe0e579f	-0.13900612
128	0x3d26a978	0.04068896
129	0xbd666944	-0.056252733
130	0x3e44b74b	0.19210546
131	0xbdc52a7c	-0.09627244
132	0x3ddf739d	0.10910723
133	0x3dde0d61	0.108423956
134	0x3e62136c	0.22077721
135	0xbdacd0e2	-0.08438279
136	0xbcc09e05	-0.02351285
137	0x3e83a8cf	0.25714728
138	0x3e5229ac	0.20523709
139	0x3e089daa	0.13341394
140	0xbe73fdc5	-0.23827274
141	0xbddfc425	-0.109260835
142	0xbd6ba7cb	-0.057533067
143	0xbd85a653	-0.065258645
144	0x3e2dfb16	0.16990313
145	0xbddf537c	-0.10904595
146	0xbdff8976	-0.124773905
147	0xbe58400d	-0.21118183
148	0xbc15e152	-0.009147959
149	0x3e60147d	0.21882816
150	0xbc9a8840	-0.018863797
151	0x3e5ade20	0.21373796
152	0x3de42dd3	0.11141553
153	0x3e9d49b3	0.3072029
154	0xbe0e46ce	-0.13894197
155	0xbe77e892	-0.24209812
156	0xbd32151b	-0.04347716
157	0xbe8e4f72	-0.27794987
158	0xbd498e45	-0.049207944
159	0xbd8f471e	-0.069959864
160	0xbc88174c	-0.016612671
161	0x3d3e3a39	0.046442244
162	0xbd3f9184	-0.046769634
163	0x3e13731a	0.14399377
164	0xbe2a2edc	-0.16619438
165	0x3d0d334b	0.034472745
166	0xbe14d914	-0.14535934
167	0x3deede11	0.116634496
168	0x3d235087	0.03987172
169	0x3de95377	0.11392873
170	0xbe64d543	-0.22346978
171	0x3e1edffa	0.15515128
172	0xbd8a3d60	-0.067499876
173	0x3ba9f8de	0.005187138
174	0xbdd2507b	-0.10269257
175	0xbd613c2e	-0.054989032
176	0x3d0d567f	0.034506317
177	0xbe8bd164	-0.2730819
178	0x3c05f52a	0.008176127
179	0x3bcbbc17	0.0062174904
180	0x3d499055	0.04920991
181	0x3ddd78ed	0.108140804
182	0xbe18d496	-0.14924845
183	0x3d9f5fd4	0.0778195
184	0xbdd0a675	-0.10187999
185	0x3c2fc6d6	0.0107285585
186	0xbcaa71c7	-0.020806206
187	0xbe64c888	-0.22342122
188	0xbc876fb7	-0.016532762
189	0xbe66fc3c	-0.22557157
190	0xbd93d567	-0.07218438
191	0xbd3832fb	-0.044970494
192	0x3d89502a	0.06704743
193	0x3d72fa7c	0.05932091
194	0xbd2ed624	-0.04268469
195	0x3dd34b1d	0.10317061
196	0x3dc64903	0.09681895
197	0xbda5cf34	-0.080961615
198	0xbdb4a96c	-0.08821377
199	0x3adbbe92	0.0016765168
200	0xbe269b79	-0.16270246
201	0xbe284a90	-0.16434693
202	0x3dec5958	0.115404785
203	0xbe25e79b	-0.16201632
204	0xbe4b4691	-0.19851138
205	0x3d442251	0.04788429
206	0x3d9aaf47	0.07552963
207	0xbe341207	-0.17585002
208	0xbe1dce97	-0.15410839
209	0xbe8cf154	-0.2752787
210	0x3c01d56d	0.00792442
211	0x3bb26098	0.005443644
212	0x3d993e35	0.07482568
213	0xbe99069d	-0.29887858
214	0xbeaab965	-0.3334457
215	0x3c91b620	0.01778704
216	0xbe27b2b3	-0.16376762
217	0xbe367b80	-0.17820549
218	0xbe4985c5	-0.19679935
219	0x3deca3b5	0.11554662
220	0x3d3dd71c	0.046347722
221	0xbe74c675	-0.2390383
222	0xbdecc97d	-0.11561868
223	0xbc697b62	-0.014250608
224	0xbdd39405	-0.10330967
225	0xbdd02a62	-0.10164334
226	0x3db24bed	0.08705888
227	0xbe51cbc1	-0.20487882
228	0xbdd7c393	-0.1053535
229	0x3dbf7477	0.09348386
230	0x3a3dca2f	0.00072399055
231	0xbd8f5d16	-0.070001766
232	0x3b798d04	0.0038078437
233	0x3b249d0d	0.0025118024
234	0xbe45015a	-0.19238797
235	0x3d982225	0.074283876
236	0xbec16ca6	-0.37778205
237	0xbdfb7942	-0.122789875
238	0xbd453268	-0.048143774
239	0xbcb8eb46	-0.022573125
240	0x3d2bdf35	0.041960914
241	0x3c8b4217	0.016999288
242	0xbe6157ff	-0.22006224
243	0x3c7bfb12	0.015379684
244	0xbe898874	-0.26861918
245	0x3dd2881e	0.102798685
246	0xbdb0dd8d	-0.086360075
247	0xbecada9c	-0.3961991
248	0xbe8d4791	-0.27593663
249	0xbd9b44d0	-0.07581484
250	0x3dde42f1	0.10852612
251	0xbe057935	-0.13034518
252	0xbdf37193	-0.11886897
253	0xbd54d6b8	-0.051962584
254	0x3d7f836d	0.062381197
255	0x3c14597e	0.00905454

memory_rnn.weight_hh f4 [256, 64]
0	0xbe5f8961	-0.2182975
1	0x3e28bdd1	0.16478659
2	0xbc30cc1a	-0.010790849
3	0x3da923c8	0.08258778
4	0xbd9760c5	-0.07391504
5	0x3e07934d	0.13239785
6	0xbe7d1888	-0.24716389
7	0xbceb21e4	-0.028702684
8	0xbc03c8cc	-0.008043479
9	0xbe086eff	-0.13323592
10	0xbe39604f	-0.18103145
11	0x3d2ab706	0.04167845
12	0xbe108292	-0.14112309
13	0x3e2ddd42	0.16978934
14	0xbe1b574c	-0.1517002
15	0x3dd97334	0.106176764
16	0x3e9313f1	0.28726152
17	0xbeb0f3d2	-0.3456102
18	0x3ec577dc	0.38568008
19	0xbe2d36f8	-0.169155
20	0x3dd2e3fd	0.102973916
21	0xbdd40361	-0.10352207
22	0x3e21bb60	0.15794134
23	0xbcd15b65	-0.025556276
24	0xbe0a4d62	-0.13506082
25	0xbe18b0f9	-0.1491126
26	0x3d9f786e	0.07786642
27	0xbdf580f3	-0.11987486
28	0x3df760a9	0.12078983
29	0xbebc47bd	-0.36773482
30	0x3e0fef92	0.14056233
31	0x3de76a39	0.11299557
32	0x3e1080a3	0.14111571
33	0xbd429781	-0.047507767
34	0x3df5dfc2	0.12005569
35	0xbe0ca80e	-0.13735983
36	0x3da5be7a	0.08092971
37	0xbdab0396	-0.08350293
38	0x3e264d6f	0.16240476
39	0xbe0bd291	-0.13654543
40	0x3d8624c8	0.06549984
41	0xbe356a89	-0.17716421
42	0x3d9f50cc	0.07779083
43	0xbc712039	-0.014717155
44	0x3dfebb70	0.124380946
45	0xbdf061c6	-0.11737399
46	0x3e95855f	0.29203317
47	0x3de1aeb3	0.11019649
48	0x3e482846	0.19546613
49	0xbd83056b	-0.06397518
50	0xbebacfb6	-0.36486596
51	0xbe504b49	-0.20341219
52	0x3cde26b3	0.027118063
53	0x3e548e0a	0.20757309
54	0xbdbffead	-0.093747474
55	0xbe019fff	-0.1265869
56	0xbdc5ecb5	-0.09664289
57	0xbd70960a	-0.05873684
58	0xbcdd774c	-0.027034424
59	0xbcabad13	-0.020956552
60	0x3ddf9e1a	0.10918827
61	0xbbec9175	-0.0072194883
62	0xbe187edc	-0.14892143
63	0x3e2e81d9	0.1704172
64	0xbdb68f53	-0.08914056
65	0xbc4f4a25	-0.012651955
66	0x3da0e91a	0.078569606
67	0x3e7037b8	0.23458755
68	0xbe877c45	-0.26461998
69	0x3c199d83	0.009375933
70	0xbe1a803f	-0.15087985
71	0x3e243cbb	0.16038792
72	0xbd03cd60	-0.032178283
73	0x3dd91309	0.10599334
74	0x3cc0f42c	0.02355393
75	0xbdacecf4	-0.08443633
76	0xbd92d5c2	-0.07169677
77	0x3ddc5273	0.107579134
78	0xbd129e3d	-0.03579544
79	0x3dd6be4f	0.10485517
80	0xbde0eaf5	-0.109823145
81	0xbd797393	-0.060901236
82	0x3e6c04d6	0.2304872
83	0xbd2f9b27	-0.042872574
84	0xbece47d7	-0.40289184
85	0xbd70edf1	-0.05882067
86	0xbd5dfcba	-0.054196097
87	0xbdd42417	-0.10358446
88	0x3e5d37e7	0.21603356
89	0xbd55f4fa	-0.05223558
90	0x3d3ed59c	0.046590433
91	0xbd5be7dd	-0.05368792
92	0x3db66ab0	0.08907068
93	0xbe5aa077	-0.21350275
94	0xbcce305e	-0.025169548
95	0x3d8d16c9	0.068891115
96	0xbd8e8c6e	-0.069603786
97	0x3e56dc65	0.20982511
98	0x3e51072f	0.20412897
99	0xbdb6accc	-0.08919677
100	0x3da3f10b	0.0800496
101	0xbe94a1c1	-0.29029658
102	0x3d3384b5	0.04382773
103	0x3dc67ffa	0.09692378
104	0x3e46e636	0.19423756
105	0x3dc6e298	0.09711188
106	0xbe933ea4	-0.28758729
107	0x3e43d397	0.19123684
108	0x3df861ad	0.12128005
109	0x3e07e637	0.13271414
110	0xbe338d16	-0.17534289
111	0x3e51d60b	0.20491807
112	0x3e262ad7	0.1622728
113	0x3db901ea	0.09033568
114	0xbe886db9	-0.26646212
115	0x3e295bc3	0.1653891
116	0x3bfec2db	0.0077746934
117	0x3d6fa772	0.058509298
118	0xbd7cfaca	-0.06176261
119	0xbe1df623	-0.15425925
120	0x3d848ba9	0.064719506
121	0xbd977f50	-0.0739733
122	0x3e0b9725	0.13631876
123	0xbdc3f6a3	-0.095685266
124	0xbbf1ea17	-0.007382642
125	0x3e682eaf	0.22674058
126	0xbdb735b8	-0.08945793
127	0x3d68fa17	0.05687913
128	0xbd7069cf	-0.058694657
129	0x3de75677	0.11295789
130	0x3dc3071b	0.0952284
131	0x3e57dd12	0.21080425
132	0x3c189a0f	0.009314074
133	0x3db614a0	0.08890653
134	0x3e3c8747	0.18410979
135	0xbdee827f	-0.11645984
136	0x3c399571	0.0113271335
137	0xbda98391	-0.082770474
138	0xbc9617ec	-0.018321954
139	0x3e493238	0.19648063
140	0x3d9b2214	0.07574859
141	0xbcb995e8	-0.022654489
142	0xbdba71f7	-0.09103768
143	0x3d0c6b45	0.034281988
144	0xbea6e437	-0.3259599
145	0x3e49e546	0.19716367
146	0x3c978766	0.01849718
147	0xbe261fbf	-0.16223048
148	0xbe0ea739	-0.13930978
149	0x3e59432e	0.21217033
150	0xbcacd475	-0.021097401
151	0x3de0ded5	0.10980002
152	0xbe0ea068	-0.13928378
153	0x3c7bb26a	0.015362361
154	0xbd51b078	-0.051193684
155	0xbce22fe7	-0.027610732
156	0x3dbd80e7	0.09253102
157	0xbbf38f35	-0.007432843
158	0xbdc8c27c	-0.0980272
159	0xbe1e3f94	-0.1545394
160	0xbe0a5851	-0.13510253
161	0x3f126456	0.5718435
162	0x3c7d920a	0.015476713
163	0xbda38ea8	-0.07986194
164	0x3d85bf8b	0.065306745
165	0xbe611ecc	-0.21984404
166	0x3ce610a4	0.028084107
167	0x3dcc955b	0.09989425
168	0x3df336e2	0.118757024
169	0x3e3f9674	0.18709737
170	0x3d41c8c3	0.047310602
171	0xbe1f26b7	-0.15542112
172	0xbe8e00db	-0.27735028
173	0x3dad8827	0.084732346
174	0x3e3cdf98	0.18444669
175	0xbd25876d	-0.040412355
176	0xbe129995	-0.143164
177	0x3ccfa7cb	0.025348565
178	0x3cbfdbf1	0.023420306
179	0x3e2f47ee	0.17117283
180	0x3d834a84	0.06410697
181	0xbdb20ab4	-0.08693448
182	0xbd94a0c3	-0.07257225
183	0x3e3130cc	0.17303771
184	0xbcd23e98	-0.025664613
185	0xbd63350e	-0.05547052
186	0x3bd83d76	0.0065991236
187	0x3d9b3f00	0.07580376
188	0xbd8935ba	-0.06699701
189	0x3cb0012c	0.021484934
190	0xbe6daa82	-0.23209575
191	0xbda7172a	-0.08158715
192	0x3cd284ae	0.025698032
193	0x3e4970d1	0.19671942
194	0x3e280642	0.16408637
195	0x3d65b720	0.056082845
196	0x3e652a0b	0.2237932
197	0x3d79cd65	0.060986895
198	0x3ec67ebe	0.38768572
199	0x3cfd76ec	0.030940495
200	0x3da4ee59	0.08053274
201	0xbe1057e1	-0.14096023
202	0x3ca20709	0.019778745
203	0x3e04f2af	0.12983201
204	0xbe890466	-0.26761168
205	0xbe306fce	-0.1723015
206	0xbe9a6ed5	-0.30162683
207	0x3eb4e069	0.3532746
208	0x3e66d8b6	0.22543606
209	0x3cb39e7b	0.021926155
210	0x3e549b93	0.20762472
211	0x3dc1ed94	0.094691426
212	0x3e2a2d36	0.16618809
213	0x3e7af090	0.2450583
214	0xbc771b97	-0.0150822615
215	0x3e019e6b	0.12658088
216	0xbe2574e6	-0.16157874
217	0x3e99f875	0.3007237
218	0xbe324d64	-0.17412335
219	0xbe853774	-0.2601887
220	0x3e87679b	0.26446232
221	0xbdc6dbd4	-0.09709898
222	0xbe9462fa	-0.28981763
223	0xbdfd3e78	-0.123654306
224	0x3dd1a592	0.10236658
225	0x3e4dbde6	0.20091972
226	0xbeb423da	-0.35183603
227	0x3c86313d	0.0163809
228	0x3ca3ea64	0.020009227
229	0x3d03e59e	0.032201402
230	0x3e526ed9	0.20550098
231	0x3d838944	0.06422666
232	0xbc8216e6	-0.01588006
233	0x3dda09ec	0.10646424
234	0x3e60920f	0.21930717
235	0xbed2246b	-0.4104341
236	0xbe72045d	-0.23634477
237	0xbed21bb1	-0.41036752
238	0x3e1101ac	0.14160794
239	0xbe18b9bd	-0.14914604
240	0xbe9f576c	-0.31121385
241	0xbe373a02	-0.17893222
242	0x3dd47fc8	0.10375935
243	0x3c4ccf86	0.012500649
244	0x3deb3564	0.11484793
245	0x3b423866	0.0029635667
246	0xbe397312	-0.18110302
247	0x3e155b3f	0.14585589
248	0xbd91f07b	-0.07125946
249	0xbc5e8d24	-0.013583455
250	0xbe7f9c2b	-0.24961917
251	0x3d9a97c3	0.075484775
252	0x3db2bf0e	0.08727847
253	0xbdd7cc89	-0.10537059
254	0xbe9b7eaf	-0.3037009
255	0xbe13327d	-0.14374729

memory_rnn.bias_ih f4 [256]
0	0x3d1bd948	0.038049012
1	0xbcc1b87c	-0.02364754
2	0x3cc6dcf5	0.024275282
3	0xbd144a95	-0.03620394
4	0xbe6596e1	-0.22420837
5	0xbd84bbb5	-0.06481115
6	0xbe5be13e	-0.21472642
7	0x3e6fb6e3	0.2340961
8	0x3a8dd4e6	0.0010820895
9	0xbd91ecff	-0.071252815
10	0x3c84d436	0.016214471
11	0xbe20bd4f	-0.15697215
12	0xbdcfa6f3	-0.10139265
13	0xbd3e5940	-0.046471834
14	0xbd6d3039	-0.057907317
15	0xbd613a40	-0.054987192
16	0x3b9d2661	0.004795835
17	0xbe5cb58e	-0.21553633
18	0xbe9c0539	-0.30472735
19	0xbccc2d36	-0.024923902
20	0xbe300c95	-0.171923
21	0xbdc064ed	-0.0939425
22	0x3cffde0b	0.031233808
23	0xbe1dbab8	-0.15403259
24	0xbdee3f27	-0.11633139
25	0x3da428d2	0.08015598
26	0x3e03a5c2	0.128562
27	0xbd82ee78	-0.063931406
28	0x3d0d9ad8	0.0345715
29	0x3d82675a	0.06367369
30	0xbe38e162	-0.18054727
31	0xbe28f83a	-0.16500941
32	0x3c7a0f38	0.0152624175
33	0xbe1b3c2b	-0.15159671
34	0x3e25b94f	0.16183971
35	0x3d99bb5f	0.07506441
36	0xbd9b87ea	-0.07594283
37	0xbe1bfbd9	-0.15232791
38	0xbe2a9e0b	-0.16661851
39	0xbc39e9ec	-0.011347275
40	0x3d9ac7c8	0.075576365
41	0x3d541e35	0.05178662
42	0x3d7001a7	0.058595326
43	0xbd85efd5	-0.06539885
44	0xbdc144af	-0.094369285
45	0xbd3459b7	-0.04403087
46	0xbde07eec	-0.109617084
47	0x3d7400e0	0.059571147
48	0xbd023f8a	-0.031798877
49	0xbd647333	-0.055773925
50	0x3d5b3fcc	0.05352764
51	0x3d7518e1	0.05983818
52	0x3d52aa8f	0.05143219
53	0xbe28e751	-0.1649449
54	0x3dae81c0	0.085208416
55	0x3c8520e4	0.016251035
56	0xbd6810ec	-0.056656763
57	0x3d82b3a8	0.06381923
58	0x3cb7ba81	0.0224278
59	0x3c8df2ea	0.017327745
60	0x3d9af529	0.07566292
61	0x3e29639c	0.16541904
62	0x3d42cae4	0.047556773
63	0xbcba6c47	-0.022756709
64	0xbdc8bc34	-0.09801522
65	0x3ddf1d49	0.108942576
66	0xbd142f3e	-0.036177866
67	0xbde29f76	-0.11065571
68	0x3e813c3b	0.25241265
69	0xbd149093	-0.03627069
70	0x3defb93f	0.11705255
71	0xbe2de2b3	-0.1698101
72	0xbe34319c	-0.1759705
73	0xbd40f454	-0.04710801
74	0xbc13eb73	-0.009028303
75	0xba876b9f	-0.0010331756
76	0x3d7e9b6c	0.06215994
77	0xbd87d224	-0.06631878
78	0xbc71be3c	-0.014754828
79	0x3cae803f	0.021301387
80	0xbceca3e9	-0.028886752
81	0x3e28d83f	0.16488741
82	0x3e33fc5f	0.1757674
83	0xbd5424dd	-0.051792968
84	0x3dae4e47	0.08511024
85	0xbe7aa5c6	-0.244773
86	0xbe23b870	-0.15988326
87	0xbe1606db	-0.14651053
88	0xbe1e391b	-0.15451472
89	0x3c2b2e6d	0.0104480805
90	0xbc0a32b0	-0.008434936
91	0x3d0ccd7f	0.034375664
92	0xbdc72e35	-0.0972561
93	0xbc249f54	-0.010047752
94	0xbd9533fd	-0.072853066
95	0x3ce83d70	0.028349608
96	0x3d1fec32	0.039043613
97	0x3e36cd14	0.17851669
98	0xbcb8a58b	-0.022539875
99	0xbdbb5d10	-0.0914861
100	0xbe21ec50	-0.15812802
101	0xbe56d749	-0.20980562
102	0xbe36f742	-0.17867759
103	0xbdf53918	-0.119737804
104	0x3d474f6e	0.048659734
105	0xbd6b66f9	-0.05747125
106	0x3d3fba31	0.046808425
107	0x3dbf08da	0.0932786
108	0xbe71159c	-0.235434
109	0x3bf872c2	0.0075820396
110	0x3e44aec9	0.192073
111	0xbddec5ba	-0.10877557
112	0xbd891eb2	-0.06695308
113	0xbe7b66de	-0.2455096
114	0x3cd95cc8	0.0265335
115	0xbe2a0259	-0.16602458
116	0xbe61fa03	-0.22068028
117	0xbc83e6c4	-0.016101249
118	0xbca4dd6a	-0.02012511
119	0x3e820518	0.2539451
120	0xbdddb7fb	-0.10826107
121	0x3e5cbde1	0.21556808
122	0x3da41316	0.08011453
123	0xbe265a54	-0.16245395
124	0xbdcd60c0	-0.10028219
125	0xbdac6299	-0.084172435
126	0x3d8773c8	0.066138804
127	0xbd95a3fe	-0.0730667
128	0x3d3ce1c3	0.04611374
129	0xbdc70c58	-0.09719151
130	0xbe1e80e0	-0.1547885
131	0x3db420d1	0.08795322
132	0xbb7bf1ef	-0.0038443764
133	0xbd966afd	-0.07344625
134	0x3e0c065a	0.13674298
135	0xbd03765d	-0.032095302
136	0xbd614149	-0.0549939
137	0x3dd4102b	0.10354646
138	0x3be94108	0.007118348
139	0xbce28f6b	-0.027656278
140	0x3dbb4cc2	0.091455
141	0x3af07bf7	0.0018347491
142	0x3c30d746	0.010793513
143	0xbe2db12f	-0.16962121
144	0x3cfed9d1	0.031109722
145	0x3c25f0f3	0.010128248
146	0xbb934e05	-0.0044953846
147	0x3d836178	0.06415075
148	0x3dd10601	0.10206223
149	0x3dac57a4	0.084151536
150	0x3c90e507	0.017687334
151	0x3cbba81a	0.022907306
152	0x3db1ad58	0.08675641
153	0xbe23babc	-0.15989202
154	0x3df1d007	0.11807256
155	0x3e19fa93	0.15036993
156	0xbdf70fdd	-0.120635726
157	0x3c905457	0.017618341
158	0x3d58dc3d	0.05294441
159	0xb75dcb08	-1.3219898e-05
160	0xbe2c4e54	-0.16826755
161	0x3ce7869f	0.028262435
162	0x3d1f0126	0.038819455
163	0x3d91fa45	0.07127813
164	0xba875022	-0.0010323564
165	0x3d2ad762	0.04170931
166	0x3c2dd0ab	0.010608832
167	0x3d8b78f7	0.068101816
168	0x3e31ddd5	0.17369778
169	0xbd30c18b	-0.043153327
170	0xbd3592d6	-0.044329487
171	0xbcc8440f	-0.024446515
172	0xbdb9ae80	-0.09066486
173	0xbcbeead2	-0.02330533
174	0x3dbf2fed	0.09335313
175	0xbb2a9c9b	-0.0026033286
176	0xbe01fc68	-0.12693942
177	0x3b80cece	0.003930903
178	0x3dcae3f9	0.099067636
179	0x3e2ef54e	0.17085764
180	0xbe0abb0e	-0.13547918
181	0x3b469027	0.0030298324
182	0x3dec029e	0.11523937
183	0xbd8737b0	-0.066024184
184	0x3de75863	0.11296155
185	0xbd914b68	-0.07094461
186	0x3e02b865	0.12765653
187	0x3d130893	0.03589685
188	0x3dc4713a	0.09591909
189	0xbd704910	-0.058663428
190	0x3e13d228	0.14435637
191	0x3d6ef5f6	0.058340035
192	0xbd300f30	-0.042983234
193	0x3c4ef1cd	0.012630892
194	0x3d4d21e4	0.05008115
195	0xbe007da4	-0.12547928
196	0x3e15ba9a	0.14621964
197	0x3d77cc80	0.06049776
198	0xbcfe5619	-0.031046914
199	0x3dfd2cc3	0.12362053
200	0x3da73d11	0.08165944
201	0xbdfbbfb0	-0.12292421
202	0x39aa19e1	0.00032444208
203	0xbd0db3bc	-0.034595236
204	0xbbf69540	-0.007525116
205	0xbd0e644c	-0.03476362
206	0xbd5e6852	-0.054298706
207	0x3d9c2e03	0.076259635
208	0x3de314e3	0.11087968
209	0xbdca06f7	-0.0986461
210	0xbd8181cc	-0.06323585
211	0xbc88969a	-0.016673375
212	0x3cf8ad1e	0.030355986
213	0xb8d439fa	-0.00010119747
214	0xbd09c079	-0.03363082
215	0xbd80a730	-0.062818885
216	0x3df128f9	0.11775393
217	0xbd027adb	-0.031855445
218	0x3deae5e2	0.11469628
219	0xbde8bef9	-0.1136455
220	0xbdd061e4	-0.10174921
221	0xbdfa0815	-0.12208573
222	0xbcf842fd	-0.03030538
223	0xbe217242	-0.15766242
224	0xbc3c0731	-0.011476324
225	0xbb6dcd6a	-0.0036285766
226	0x3de36127	0.11102515
227	0xbdd88b71	-0.10573471
228	0x3d4bad5a	0.049725868
229	0xbe4a3ed3	-0.19750528
230	0xbd33278c	-0.043738887
231	0x3da4c309	0.080450125
232	0xbd683b9d	-0.056697477
233	0xbaa8f3f2	-0.0012890084
234	0xbce9ebde	-0.028554853
235	0x3e2cc49d	0.16871877
236	0x3c029326	0.007969653
237	0x3bcd42b8	0.006264057
238	0x3e53ce85	0.2068425
239	0xbd2ddee1	-0.042448882
240	0x3bb43b8e	0.0055002635
241	0xbdc8d6bd	-0.09806583
242	0x3d14643d	0.036228407
243	0x3d57aba5	0.052653927
244	0xbd804eee	-0.06265055
245	0xbd70f063	-0.058823
246	0xbe0897a0	-0.1333909
247	0xbe085280	-0.13312721
248	0xbd16b32a	-0.036791958
249	0x3c6e2bd1	0.014536814
250	0xbd0360c4	-0.032074705
251	0xbe067c2c	-0.13133305
252	0xbd9e32e3	-0.077245496
253	0x3e1f78dd	0.1557345
254	0xbd8e44e8	-0.069467366
255	0xbd41af9b	-0.04728661

memory_rnn.bias_hh f4 [256]
0	0xbdfc0be7	-0.12306958
1	0x3e11ad6a	0.14226308
2	0x3dd72cf0	0.10506618
3	0x3d249e53	0.040190052
4	0xbcc65a14	-0.024212874
5	0x3ce89abc	0.028394096
6	0xbe864b04	-0.26229107
7	0x3e1d4223	0.1535726
8	0x3d30ebee	0.04319375
9	0xbc69730e	-0.014248623
10	0x3c38f507	0.011288888
11	0x3b32b0de	0.0027266066
12	0x3d93eea3	0.07223251
13	0xbc0f0cbc	-0.008731063
14	0xbb7a6815	-0.003820901
15	0xbd34a01c	-0.044098005
16	0x3dedff01	0.11620904
17	0xbd957afa	-0.072988465
18	0xbe5117ad	-0.20419188
19	0xbe139603	-0.14412694
20	0xbdce7325	-0.10080556
21	0x3dbf4b86	0.09340577
22	0x3bb94b89	0.0056547564
23	0xbdec9899	-0.11552543
24	0x3dcf0bc1	0.10109664
25	0xbd249b5c	-0.040187225
26	0x3e25f59c	0.16206974
27	0x3d5fbdc8	0.05462435
28	0xbdff8a26	-0.124775216
29	0xbd8317ce	-0.06401025
30	0x3bf76021	0.0075493013
31	0xbe0f0d0b	-0.13969819
32	0x3da13d63	0.07873037
33	0xbe93fcd0	-0.28903818
34	0x3cd58d48	0.026068345
35	0x3e48f71d	0.19625516
36	0xbe01d94c	-0.12680548
37	0xbddc71b3	-0.10763874
38	0xbd039d24	-0.032132283
39	0xbd0b7f32	-0.03405685
40	0x3d36da4b	0.044641774
41	0xbe12418f	-0.14282821
42	0xbc0780f0	-0.008270487
43	0xbd6da5fa	-0.058019616
44	0xbe02472f	-0.12722467
45	0x3cbc7181	0.023003342
46	0xbd94835c	-0.07251617
47	0xbd6c7b69	-0.05773488
48	0x3d387198	0.045030206
49	0xbcf5128b	-0.029916069
50	0x3b5b9e46	0.0033511086
51	0xbd8cd522	-0.06876589
52	0xbb06a772	-0.0020546583
53	0x3d9e8507	0.07740217
54	0x3b74fd13	0.003738229
55	0xbd7ab05d	-0.06120335
56	0xbd4373a2	-0.047717698
57	0x3d8cd464	0.06876448
58	0xbd81b142	-0.06332637
59	0xbc524537	-0.012833885
60	0x3d3cd4a1	0.046101216
61	0x3c5ec14a	0.013595888
62	0xbdf22c1c	-0.118248194
63	0x3d893d10	0.067011
64	0xbde9fa48	-0.114246905
65	0x3e3eb021	0.18621875
66	0xbba17ff4	-0.0049285833
67	0x3e028ba4	0.12748581
68	0x3e8585ab	0.26078543
69	0xbdc08f71	-0.09402359
70	0x3d920d58	0.07131451
71	0xbe06d0d0	-0.13165593
72	0xbe491dd2	-0.19640282
73	0xbe37f8b5	-0.17965968
74	0x3db27486	0.08713631
75	0x3df7dfe0	0.12103248
76	0x3db3da92	0.08781923
77	0xbe473514	-0.19453841
78	0x3e1d9eb7	0.15392576
79	0x3da0aa20	0.07844949
80	0xbd964606	-0.07337575
81	0x3dbcd94e	0.09221135
82	0x3de6b0a9	0.11264164
83	0xbd4056b9	-0.046957705
84	0x3bff9035	0.0077991732
85	0xbe3f5d88	-0.18688023
86	0xbe499d96	-0.1968902
87	0xbe35a42b	-0.17738406
88	0xbd5caac7	-0.053873803
89	0xbd08e0fc	-0.033417687
90	0x3dd209f0	0.10255802
91	0xbe083b95	-0.13303979
92	0x3d6cf5a4	0.05785145
93	0xbd87dc94	-0.06633869
94	0xbe037a79	-0.12839688
95	0xbdd2d044	-0.1029363
96	0x3db92e50	0.090420365
97	0x3e278b98	0.16361845
98	0xbe1a16d4	-0.1504777
99	0xbdfa9cdd	-0.122369505
100	0x3d154913	0.036446642
101	0xbd90aafa	-0.07063861
102	0xbe3cb450	-0.18428159
103	0xbd333c10	-0.043758452
104	0x3ddc8e47	0.10769325
105	0xbd01b78b	-0.03166918
106	0xbda7c2aa	-0.08191426
107	0x3df4c892	0.11952318
108	0xbdc4f122	-0.09616305
109	0xbd9e9b5d	-0.07744477
110	0x3e406481	0.18788339
111	0xbd9cc184	-0.07654098
112	0xbd0541f7	-0.032533612
113	0xbe908e1b	-0.28233418
114	0xbd5e7cdf	-0.054318305
115	0xbe699a41	-0.2281275
116	0xbbaac87f	-0.0052118893
117	0xbd9d040c	-0.076667875
118	0x3cf6a53e	0.03010809
119	0x3e20ae94	0.15691596
120	0xbd5606d6	-0.052252613
121	0x3e297e41	0.16552068
122	0xbd7bb084	-0.061447635
123	0xbe57d982	-0.21079066
124	0xbe040aed	-0.12894793
125	0xbe4ec6cf	-0.20193027
126	0xbd09e97a	-0.033669926
127	0x3d0d0a1a	0.03443346
128	0xbd26bdd4	-0.040708378
129	0xbdb1553a	-0.08658834
130	0xbe1d29be	-0.15347955
131	0x3ddb1e2f	0.106991164
132	0x3d2764df	0.040867683
133	0x3ccc7501	0.024958136
134	0xbd55a354	-0.052157715
135	0x3d6c4ab9	0.05768845
136	0x3d5bab99	0.053630445
137	0x3d74248e	0.059605174
138	0x3c8470d1	0.016167076
139	0x3daf2325	0.08551625
140	0x3d88439a	0.06653519
141	0xbcfb7a63	-0.030698007
142	0x3d83d72b	0.064375244
143	0xbdfe3f68	-0.124144375
144	0x3d0aef1d	0.033919442
145	0xbc5f9a85	-0.01364768
146	0xbd5ad08d	-0.053421546
147	0xbc11896e	-0.008882863
148	0x3e1195a5	0.14217241
149	0xbdcf58f4	-0.10124388
150	0x3ce5c0ed	0.028046096
151	0x3d273ae9	0.040827665
152	0xbc65cebf	-0.014026343
153	0x3c5bea65	0.013422583
154	0x3e04caf7	0.1296805
155	0x3e24229f	0.16028832
156	0xbdc4834d	-0.09595356
157	0x3ca2d471	0.01987669
158	0xbddf0e7e	-0.10891436
159	0xbe15fbe1	-0.14646865
160	0xbdf1ac9c	-0.11800501
161	0x3e1bd473	0.15217762
162	0x3dd7ae8b	0.10531338
163	0x3d88fa9d	0.06688426
164	0xbd3e8e7b	-0.0465226
165	0xbdb4c63f	-0.08826875
166	0xbd7c2da6	-0.06156697
167	0x3d8cd6e3	0.06876924
168	0xbd40b96e	-0.04705184
169	0x3d64b087	0.055832412
170	0x3e00b376	0.12568459
171	0x3d4e0b8d	0.050303984
172	0xbd460b6c	-0.048350736
173	0x3e378f65	0.17925794
174	0x3e1fbf72	0.15600374
175	0xba9a4351	-0.001176933
176	0xbd9ba59e	-0.07599948
177	0x3d96a3c8	0.073554575
178	0x3d6ebca1	0.05828536
179	0x3e0b85c2	0.13625243
180	0xbde4e2fc	-0.11176106
181	0xbdf3ce9f	-0.11904644
182	0x3ddb8fc8	0.107207835
183	0xbd51dd4f	-0.051236447
184	0x3e02ed05	0.12785728
185	0xbcf01bcd	-0.029310131
186	0x3d620b19	0.055186365
187	0x3c8904e0	0.016725957
188	0xbd9a0348	-0.07520157
189	0xbd90e9c4	-0.07075837
190	0x3d891fb1	0.06695498
191	0xbcea84d2	-0.028627787
192	0xbd00daaf	-0.031458553
193	0x3ddc133a	0.10745855
194	0xbc90fee3	-0.017699664
195	0x3d2c34af	0.04204243
196	0xbd035794	-0.032065943
197	0x3d97405f	0.07385325
198	0x3dd42b08	0.1035977
199	0x3d081f52	0.033232994
200	0x3e0135d2	0.12618187
201	0xbe3125d4	-0.17299587
202	0xbda122d1	-0.07867969
203	0x3d52f6e4	0.051504984
204	0xbe0b9aed	-0.13633318
205	0xbc816432	-0.015794847
206	0x3e12b464	0.14326626
207	0xbcd2f140	-0.025749803
208	0xbd2de087	-0.042450454
209	0x3cba683a	0.022754777
210	0xbe4dd6f4	-0.2010153
211	0xbdd2cf47	-0.10293441
212	0x3cc00b43	0.02344287
213	0xbdce84ca	-0.10083921
214	0x3d85b8e2	0.06529404
215	0xbe397785	-0.18112
216	0xbd8f689b	-0.07002374
217	0xbc465340	-0.012104809
218	0x3cf9c71d	0.030490452
219	0xbba7116f	-0.005098514
220	0x3d84e7cc	0.06489524
221	0xbd7da04e	-0.061920457
222	0xbcc43126	-0.023949217
223	0xbe14c31f	-0.14527558
224	0x3d9f2011	0.07769788
225	0x3dcae55b	0.09907027
226	0xbdb582e9	-0.0886286
227	0xbd0ecb4e	-0.034861855
228	0x3da8ea8d	0.08247862
229	0xbd0ef40b	-0.034900706
230	0xbe7b04cd	-0.2451355
231	0x3e1381f0	0.14405036
232	0x3d0e599f	0.034753438
233	0xbd587375	-0.052844483
234	0x3e1143eb	0.14186065
235	0x3dacfbb9	0.0844645
236	0x3bb4d0ba	0.005518046
237	0x3ceb5e7f	0.028731583
238	0x3e4e169b	0.20125811
239	0xbe432cbc	-0.19060034
240	0x3dbe543c	0.0929341
241	0x3c85cfd9	0.016334461
242	0x3df99af5	0.12187759
243	0xbda88ace	-0.082296
244	0x3c4bc2d8	0.012436591
245	0xbde09c0f	-0.10967266
246	0xbe07a77a	-0.13247481
247	0xbd65cc98	-0.05610332
248	0xbd8716d7	-0.06596153
249	0x3e6a95a5	0.22908647
250	0xbdb78cf4	-0.089624316
251	0x3d5f53b7	0.054523196
252	0xbbc2356d	-0.005926779
253	0xbcfb42cd	-0.030671502
254	0x3d1bc5ca	0.038030423
255	0xbd8e1909	-0.06938369
