torch-rl/storage/bak/Customs_FourRooms_9x9/status.pt (torch, 246057 bytes, 39 tensors)

image_conv.0.weight f4 [16, 3, 2, 2]
0.3120601 -0.15391384 -0.06648775 0.07529737 -0.24279572 0.15581478 -0.14523134 0.06141711
0.040130746 -0.035346583 0.080067195 0.014240859 0.038882643 -0.1198528 -0.11822235 -0.13585371
0.08103805 0.09097157 0.16089453 0.01610252 -0.10750442 -0.17434862 -0.04838647 -0.12451733
-0.15896276 -0.037304472 0.10336216 0.10739743 -0.31527337 0.12942435 -0.065854 0.21079108
0.19054285 -0.26302278 -0.27447474 -0.13923728 0.1809692 -0.10767581 0.023143388 -0.23124903
0.30443177 -0.10648759 0.23621716 0.01920865 -0.15207909 0.1483833 -0.15323457 0.084900714
-0.089964606 -0.12808943 -0.3012247 -0.17056489 0.22689387 -0.06334965 0.26421663 0.21641554
-0.013516814 -0.19268577 0.17579223 0.089592375 -0.13379474 0.30113825 0.19183388 0.38987452
-0.03001101 -0.08968125 0.0022446052 -0.18023011 -0.21908084 -0.20485033 0.15704058 -0.06769199
0.074938744 -0.081369996 0.015294281 -0.085341066 -0.00048057793 0.092180096 -0.32094207 0.10121471
-0.20297419 -0.21780798 0.0175556 -0.049192313 0.25291628 -0.19982998 -0.25944537 0.37944037
-0.063598745 0.03900772 0.035161264 -0.20603392 0.05799434 0.06933878 -0.19328493 -0.13696834
-0.050131246 -0.04903857 -0.15901326 -0.14993525 0.233288 -0.039095387 0.20135371 0.085708134
-0.18660167 -0.24549785 0.277096 0.015073682 0.1837356 0.0040537864 0.07171856 0.24902093
0.23824765 -0.27358675 -0.030852038 0.10099882 0.2091264 0.1793361 -0.20891964 -0.20787618
-0.23814239 -0.009111076 0.42424753 -0.22032596 0.00401633 -0.090350814 -0.16930677 -0.28780732
0.16632621 0.26799875 -0.17927845 0.06264574 0.22560878 0.22321866 0.271823 0.3092193
0.08608026 -0.10867324 -0.28894094 -0.32076046 -0.1322769 -0.033615034 -0.17694406 0.10561285
0.08744736 -0.117048584 0.11247555 0.030465342 0.049243458 0.15994503 -0.1990583 0.2688336
-0.03337308 -0.009917722 -0.2724747 -0.185796 -0.15054631 -0.10926426 0.2520406 -0.12014425
-0.17782447 0.13333188 -0.004849237 0.14275815 -0.14938134 0.062589094 -0.10509236 -0.064858
-0.254987 -0.09930268 -0.12195783 0.04264774 -0.023501117 0.11192002 0.19001189 0.266529
0.19689004 0.009192439 -0.19970298 0.2256024 0.02101845 0.030985443 -0.11883234 -0.14873898
-0.2340458 0.33320042 -0.1808251 -0.30603772 -0.009802336 -0.15609111 0.10329133 -0.11111845
00000000: 57c6 9f3e 979b 1dbe bb2a 88bd 8235 9a3d
00000010: 719f 78be e98d 1f3e 86b7 14be 8290 7b3d
00000020: 2360 243d 94c7 10bd 45fa a33d 7e52 693c
00000030: 6843 1f3d 6375 f5bd 8f1e f2bd 3c1d 0bbe
00000040: 47f7 a53d 4d4f ba3d 89c1 243e 6fe9 833c
00000050: 472b dcbd 7288 32be e430 46bd f102 ffbd
00000060: 22c7 22be 93cc 18bd 8aaf d33d 2ff3 db3d
00000070: 836b a1be d187 043e 76de 86bd 9ed9 573e
00000080: aa1d 433e ecaa 86be f487 8cbe 3894 0ebe
00000090: fd4f 393e 2385 dcbd 3497 bd3c 8ccc 6cbe
000000a0: 7bde 9b3e 2a16 dabd e9e2 713e 755b 9d3c
000000b0: 9fba 1bbe cbf1 173e 86e9 1cbe 6de0 ad3d
000000c0: 5d3f b8bd e029 03be 203a 9abe 90a8 2ebe
000000d0: de56 683e 76bd 81bd 6747 873e 099c 5d3e
000000e0: a175 5dbc 6b4f 45be e102 343e 357c b73d
000000f0: 7d01 09be cb2e 9a3e 1a70 443e a29d c73e
00000100: a6d9 f5bc ceaa b7bd 3a1a 133b 3e8e 38be
00000110: ba56 60be 49c4 51be 3fcf 203e 19a2 8abd
00000120: 7c79 993d 50a5 a6bd dd94 7a3c 4cc7 aebd
00000130: 14f6 fbb9 ebc8 bc3d 8552 a4be a849 cf3d
00000140: 77d8 4fbe 0e09 5fbe c3d0 8f3c e17d 49bd
00000150: 3e7e 813e 3ba0 4cbe 06d6 84be 0246 c23e
00000160: 0f40 82bd 8fc6 1f3d 4205 103d 8efa 52be
00000170: 798b 6d3d 7e01 8e3d 7cec 45be 6e41 0cbe
00000180: 6c56 4dbd abdc 48bd 5fd4 22be a088 19be
00000190: 0de3 6e3e 7c22 20bd ab2f 4e3e bf87 af3d
000001a0: 8214 3fbe ca63 7bbe 87df 8d3e 9bf7 763c
000001b0: 2f25 3c3e a0d5 843b 2ee1 923d 58ff 7e3e
000001c0: 31f7 733e 9013 8cbe 6abd fcbc 78d8 ce3d
000001d0: 3b25 563e e2a3 373e 08ef 55be 7edd 54be
000001e0: 99db 73be 9f46 15bc f936 d93e 219d 61be
000001f0: 6b9b 833b d909 b9bd c15e 2dbe 7b5b 93be
00000200: 6b51 2a3e 2237 893e c594 37be 694c 803d
00000210: fd05 673e 6f93 643e 622c 8b3e fe51 9e3e
00000220: d94a b03d 1390 debd 11f0 93be b73a a4be
00000230: 9873 07be ebaf 09bd d330 35be 8d4b d83d
00000240: 9a17 b33d 2bb7 efbd 9559 e63d 7492 f93c
00000250: 82b3 493d a1c8 233e f0d5 4bbe 8fa4 893e
00000260: 36b2 08bd f17d 22bc ce81 8bbe 4e41 3ebe
00000270: d028 1abe f1c5 dfbd 770b 813e 300e f6bd
00000280: 9e17 36be 2788 083e 59e6 9ebb 312f 123e
00000290: 6cf7 18be b62e 803d aa3a d7bd 45d4 84bd
000002a0: a88d 82be 345f cbbd 07c5 f9bd 66af 2e3d
000002b0: 6a85 c0bc 5336 e53d 7a92 423e 7d76 883e
000002c0: 8b9d 493e e29b 163c f07e 4cbe 5104 673e
000002d0: e22e ac3c 2fd5 fd3c 5f5e f3bd 084f 18be
000002e0: b4a9 6fbe 3f99 aa3e 372a 39be fab0 9cbe
000002f0: fa99 20bc 59d6 1fbe 688a d33d 1292 e3bd

image_conv.0.bias f4 [16]
-0.1734808 -0.052588288 0.13372393 -0.32669967 0.09117313 0.091637745 0.2342357 -0.18031073
0.024526943 -0.27202347 0.24423099 -0.15582256 0.119946145 0.005990501 -0.0739615 0.015700318
00000000: f3a4 31be d166 57bd edee 083e 2e45 a7be
00000010: fab8 ba3d 92ac bb3d 7cdb 6f3e 60a3 38be
00000020: baec c83c a946 8bbe b017 7a3e f38f 1fbe
00000030: 53a6 f53d f74b c43b 2079 97bd f49d 803c

image_conv.3.weight f4 [32, 16, 2, 2]
0.055511266 0.080010615 0.051186778 0.041618492 -0.08209852 0.068228275 0.095016256 0.078445576
0.119350344 -0.10159179 -0.036422413 0.07245449 -0.08930662 0.0919042 -0.12398742 -0.09893376
0.09161944 -0.108791806 -0.083500035 0.03639321 0.10588434 0.16841611 -0.04412381 -0.11201384
0.115105085 -0.05552797 -0.01700502 0.037645746 -0.091382116 0.20732515 0.015036376 -0.07125802
-0.0972468 -0.047906533 0.05802226 -0.008795305 -0.06302438 0.010814159 -0.14104632 -0.10221275
-0.08776803 0.18732767 0.13259989 0.016965643 -0.0050915712 0.09664934 0.030749228 -0.048560143
0.07882861 0.055559132 0.038972836 -0.023135506 0.13274063 0.09644726 -0.079097845 0.06626341
0.077936456 -0.073406875 0.05394207 -0.16645022 0.12221619 -0.012467837 0.04738319 0.0109406095
-0.012942358 0.070954256 -0.07626652 -0.08491074 -0.10410271 0.0026891085 -0.08302643 0.028243829
-0.037105504 0.030233316 0.091609925 0.029205691 -0.09512038 -0.052473363 -0.122976616 0.11191575
-0.004215393 0.039633367 -0.02887966 -0.08328593 0.076395445 0.15469362 0.00923146 -0.008042057
-0.049011383 -0.0075160232 -0.06539226 -0.056741852 -0.09646606 0.05327422 0.03761547 -0.13135605
-0.054278232 -0.027570434 -0.16370513 0.12188416 0.010824605 0.13593331 -0.043172706 -0.030813089
-0.11903745 -0.12532566 0.086389415 -0.16308898 -0.030950233 0.13283211 0.098362945 0.07230265
-0.0327971 0.0032267973 -0.035752404 -0.026402844 0.08768214 -0.10383825 -0.072796755 0.0048700464
-0.06959704 -0.002702591 0.035889648 0.048844505 0.18480858 -0.09788719 -0.035299256 -0.14529286
-0.09920603 -0.09480231 0.09831481 0.06036496 -0.0411406 -0.1298933 -0.15465462 0.17558908
-0.034702417 -0.020340227 -0.050992977 -0.027517559 -0.13174278 -0.12724328 0.044662867 0.08967441
-0.063149795 -0.16157667 0.021826733 0.122465 0.10091059 0.09786075 0.11651622 -0.07517729
-0.07090082 -0.1510601 0.07395157 0.034141596 0.068738125 0.109465025 -0.032817226 -0.11590415
-0.00069831783 -0.12458391 -0.13255422 0.10550922 0.013270883 -0.016926713 0.061475687 0.007973188
-0.046278454 0.1730029 0.13863546 0.01519314 0.0397627 -0.012974482 0.13936469 -0.10008987
-0.10060103 0.035532594 0.0778063 0.1098896 0.002743627 -0.009866228 0.034018856 0.15715092
0.04170802 -0.038683448 0.06838963 -0.018977992 0.15325452 0.09499911 0.099902526 -0.029174427
-0.051437043 0.083468884 0.05169202 -0.05794712 -0.036061402 -0.12489132 -0.10134903 -0.081651695
0.088224985 -0.03656219 -0.037923012 0.037162207 0.0057205027 -0.07343041 0.019822605 0.0930622
-0.11748986 0.10992155 -0.1294718 -0.09285243 -0.097373724 0.16652541 0.068367384 0.20637757
0.0018669124 0.066046625 -0.035467952 -0.09334718 0.069206916 0.09125485 0.09633518 0.10270186
-0.02600372 0.054159526 0.01821403 -0.09802616 0.05390841 0.03644029 0.07736693 0.1412387
-0.04894456 0.08725789 0.02321705 0.12804566 0.0043715304 0.1016508 -0.03663908 0.15413412
-0.067655355 -0.11357136 0.047157124 0.09001789 0.13428873 -0.06484694 0.087518126 0.034742527
-0.0385342 -0.065649286 0.017870827 -0.08770456 0.041625272 0.046485208 0.114158496 -0.06336788
00000000: c85f 633d 9bdc a33d 3aa9 513d 2778 2a3d
00000010: 4523 a8bd 44bb 8b3d e297 c23d 13a8 a03d
00000020: f46d f43d 5b0f d0bd ab2f 15bd 0563 943d
00000030: 64e6 b6bd 4538 bc3d 1eed fdbd c89d cabd
00000040: f9a2 bb3d 3dce debd 1102 abbd 0c11 153d
00000050: e4d9 d83d 4675 2c3e 2bbb 34bd 8367 e5bd
00000060: 37bc eb3d 4c71 63bd 1d4e 8bbc 6d32 1a3d
00000070: 8c26 bbbd 0b4d 543e 225b 763c baef 91bd
00000080: 5529 c7bd a439 44bd c0a8 6d3d 2f1a 10bc
00000090: ed12 81bd df2d 313c 726e 10be eb54 d1bd
000000a0: babf b3bd d3d2 3f3e 44c8 073e 88fb 8a3c
000000b0: 32d7 a6bb 17f0 c53d cee5 fb3c 00e7 46bd
000000c0: e570 a13d f991 633d fba1 1f3d ac86 bdbc
000000d0: 29ed 073e 2486 c53d 0dfe a1bd 1cb5 873d
000000e0: 269d 9f3d 5856 96bd 5cf2 5c3d ed71 2abe
000000f0: 7b4c fa3d e645 4cbc e014 423d 3e40 333c
00000100: 2f0c 54bc 7750 913d 9f31 9cbd afe5 adbd
00000110: cd33 d5bd c13b 303b c309 aabd 9a5f e73c
00000120: f1fb 17bd dcab f73c fc9d bb3d c640 ef3c
00000130: 79ce c2bd 4fee 56bd 2adb fbbd 1634 e53d
00000140: 4821 8abb 9956 223d 0995 ecbc d091 aabd
00000150: 3775 9c3d 0168 1e3e 8d3f 173c d5c2 03bc
00000160: 29c0 48bd f948 f6bb 61ec 85bd 256a 68bd
00000170: ff8f c5bd 1236 5a3d ae12 1a3d 3382 06be
00000180: da52 5ebd 64db e1bc 51a2 27be 679e f93d
00000190: af59 313c 1a32 0b3e ddd5 30bd bb6b fcbc
000001a0: e8c9 f3bd 5f55 00be efec b03d cc00 27be
000001b0: 588b fdbc 2405 083e 8372 c93d 6913 943d
000001c0: 4056 06bd ad78 533b 1d71 12bd c74a d8bc
000001d0: b292 b33d 26a9 d4bd 7716 95bd e994 9f3b
000001e0: e588 8ebd f41d 31bb 0601 133d 2d11 483d
000001f0: 763e 3d3e 1479 c8bd f495 10bd a7c7 14be
00000200: 882c cbbd b727 c2bd 4659 c93d 4041 773d
00000210: 0c83 28bd c002 05be c85d 1ebe a0cd 333e
00000220: 1f24 0ebd 8ca0 a6bc 03de 50bd 816c e1bc
00000230: 94e7 06be 104c 02be 69f0 363d 38a7 b73d
00000240: ae54 81bd 5b74 25be facd b23c eece fa3d
00000250: 36aa ce3d 386b c83d 0ea0 ee3d 8df6 99bd
00000260: 7334 91bd 80af 1abe ec73 973d 0fd8 0b3d
00000270: 93c6 8c3d 332f e03d 5b6b 06bd 285f edbd
00000280: 510f 37ba d925 ffbd 4bbc 07be 3815 d83d
00000290: 1e6e 593c e4a9 8abc eecd 7b3d f9a1 023c
000002a0: 7a8e 3dbd ac27 313e 74f6 0d3e a6ec 783c
000002b0: 37de 223d ec92 54bc 9eb5 0e3e ebfb ccbd
000002c0: ea07 cebd a08a 113d e958 9f3d cc0d e13d
000002d0: 6cce 333b f6a5 21bc 5b57 0b3d 2cec 203e
000002e0: 07d6 2a3d 8972 1ebd dd0f 8c3d bc77 9bbc
000002f0: c1ee 1c3e e58e c23d b299 cc3d 35ff eebc
00000300: a6af 52bd bcf1 aa3d 03bb 533d f659 6dbd
00000310: 1fb5 13bd 05c7 ffbd 1590 cfbd 0139 a7bd
00000320: 4daf b43d 3cc2 15bd 2955 1bbd 6637 183d
00000330: 0e73 bb3b af62 96bd 0463 a23c 6597 be3d
00000340: 869e f0bd 8d1e e13d 4194 04be 6a29 bebd
00000350: e06b c7bd a385 2a3e 3304 8c3d a454 533e
00000360: 2fb3 f43a 7443 873d d846 11bd ce2c bfbd
00000370: 5bbc 8d3d d3e3 ba3d 614b c53d 5a55 d23d
00000380: c105 d5bc 61d6 5d3d 9735 953c f0c1 c8bd
00000390: 11cf 5c3d 6a42 153d 8e72 9e3d e1a0 103e
000003a0: 177a 48bd 44b4 b23d af31 be3c 671e 033e
000003b0: 0e3f 8f3b 4b2e d03d dc12 16bd 56d5 1d3e
000003c0: e48e 8abd 1a98 e8bd d427 413d 4d5b b83d
000003d0: fc82 093e 79ce 84bd b43c b33d 2e4e 0e3d
000003e0: 0ad6 1dbd 2273 86bd d765 923c 739e b3bd
000003f0: 437f 2a3d 4667 3e3d eecb e93d 05c7 81bd

image_conv.3.bias f4 [32]
-0.012294365 -0.031706154 0.003321881 -0.073377885 -0.0989511 -0.030018652 -0.09052662 -0.015917871
0.005811215 0.0916003 0.0063795126 -0.025954332 -0.10469469 -0.06849268 -0.04143851 -0.0975658
0.025780376 0.0705895 0.050454926 -0.06012206 -0.009785848 0.11276263 -0.024622118 -0.13515718
-0.029865522 -0.029244613 -0.065711536 -0.038009074 -0.11904142 0.026581801 -0.08418907 0.06063969
00000000: 4e6e 49bc 50de 01bd eab3 593b 2547 96bd
00000010: e0a6 cabd ade9 f5bc 0566 b9bd 3266 82bc
00000020: 016c be3b f098 bb3d 3b0b d13b 2e9e d4bc
00000030: 2b6a d6bd e445 8cbd 6dbb 29bd 94d0 c7bd
00000040: 5e31 d33c 3a91 903d d3a9 4e3d 8d42 76bd
00000050: d254 20bc 18f0 e63d 53b4 c9bc a566 0abe
00000060: 8aa8 f4bc 6692 efbc c593 86bd 67af 1bbd
00000070: fdcb f3bd 14c2 d93c 526b acbd 5361 783d

image_conv.5.weight f4 [64, 32, 2, 2]
0.06754652 -0.11006892 -0.054452162 -0.04073098 -0.018491609 0.08197632 -0.027574554 0.016151136
-0.021687964 0.063393675 0.027446864 -0.13260768 -0.004337994 -0.034235675 0.00375604 -0.12382601
-0.008774373 0.039938364 0.060950063 0.0011490074 -0.06039855 -0.041389175 -0.059212845 0.106609866
-0.08341736 -0.033457663 0.038579006 0.045956157 -0.077316865 0.017458754 0.010685764 0.081123084
-0.005028056 0.032705147 -0.014754126 0.07840871 -0.00047948924 -0.047336012 0.040095314 -0.06640627
0.022102008 0.06144002 -0.07704137 -0.064305976 -0.03036994 -0.013744255 -0.05600637 0.06452159
0.030811636 -0.028155236 0.01141964 -0.019150995 -0.091411516 -0.12005402 -0.0807412 -0.036054928
0.06260332 -0.055638693 -0.0052285236 0.0932972 0.019658353 -0.053193286 -0.002797759 -0.11006269
0.052904923 0.034979515 0.093842864 -0.062474176 -0.0010803358 -0.08101437 -0.039049275 -0.00093164155
-0.066662215 0.055711813 0.021530796 -0.081199914 -0.017139059 -0.07983818 0.011679539 0.013662588
0.07189181 -0.13523982 -0.03563166 -0.07409581 0.06498231 0.0036784792 0.008942324 0.005168708
-0.027804937 0.05300956 0.0523813 -0.069915146 -0.024480581 -0.09180527 0.0011973863 -0.027526047
0.070311606 -0.09219692 0.04399652 -0.04417165 -0.0053165746 -0.024255972 0.017119637 -0.07671863
-0.014875736 -0.010126037 0.04346354 -0.09129462 0.021774638 -0.0075405943 -0.05882587 0.021875324
-0.027561124 0.052444767 0.06908039 0.06749253 0.02443761 -0.112420626 -0.12941271 -0.03062737
0.027035452 -0.048863195 0.08740171 -0.034494746 -0.05769136 0.04866723 0.0633397 0.024422664
-0.037201148 9.921703e-05 -0.07416878 0.045038402 0.055487875 -0.025364535 -0.07007339 0.056848124
-0.08304983 -0.065221235 0.04210585 -0.05897158 0.016833967 0.03782133 -0.011173709 -0.04076682
0.0819325 0.015098834 0.030829946 -0.029044615 -0.09237534 0.013837063 -0.06837162 -0.045713115
-0.08203428 0.06679022 -0.06885606 0.016774094 0.009167576 0.06104815 0.039251726 -0.061882026
0.030095745 -0.053866487 -0.005841088 -0.041038036 -0.08462011 0.016465288 -0.06792427 0.07692662
0.03562161 -0.030573703 -0.051759217 -0.08146734 -0.044563442 -0.06550541 0.009504535 0.01305101
0.07665121 0.0030938163 -0.017954683 -0.043941747 -0.028077543 0.03744206 -0.10045358 -0.08982984
0.019358063 -0.036164604 -0.041675452 -0.06590393 -0.068161644 -0.07876752 -0.063104555 -0.09180102
-0.050361898 0.054426275 -0.057731885 0.051704578 -0.083264455 0.0011198077 -0.016174823 -0.07571893
-0.008785431 0.0643688 -0.05089866 0.0717743 -0.019235509 -0.028079936 0.035110123 0.06909644
0.06717755 0.043258246 -0.08819579 -0.027069954 -0.00015848578 -0.049340867 0.031557266 -0.028539201
-0.08863132 -0.04798016 -0.06933238 0.025063097 -0.06431918 -0.022280531 0.009091507 0.038113195
-0.077551015 0.052013204 -0.06629354 -0.07648586 0.02706825 -0.06015071 0.055068806 0.028870933
-0.04290132 -0.026521808 -0.040405676 -0.017452084 -0.00021306286 -0.011712207 -0.057760064 -0.07742174
-0.05652539 0.014922713 0.009063206 -0.044494618 -0.0372082 -0.011310588 0.04698118 -0.088146776
-0.056790233 -0.023281252 -0.014517018 -0.057034876 0.034912657 -0.033224043 5.7840693e-06 -0.050282463
00000000: d455 8a3d d06b e1bd 3b09 5fbd 87d5 26bd
00000010: b77b 97bc 33e3 a73d 08e4 e1bc 634f 843c
00000020: f5aa b1bc 8bd4 813d 3fd8 e03c 4fca 07be
00000030: bb25 8ebb b53a 0cbd e527 763b 7e98 fdbd
00000040: 63c2 0fbc 6996 233d c6a6 793d 4a9a 963a
00000050: 7864 77bd b287 29bd 2b89 72bd 4656 da3d
00000060: b9d6 aabd e70a 09bd 0505 1e3d 863c 3c3d
00000070: 4e58 9ebd a905 8f3c 5813 2f3c dc23 a63d
00000080: 64c2 a4bb d5f5 053d 4abb 71bc bf94 a03d
00000090: f563 fbb9 68e3 41bd fc3a 243d 0300 88bd
000000a0: 450f b53c 88a8 7b3d dec7 9dbd dab2 83bd
000000b0: 61ca f8bc 952f 61bc ef66 65bd e523 843d
000000c0: af68 fc3c cfa5 e6bc 7119 3b3c 8ce2 9cbc
000000d0: f635 bbbd e2de f5bd a45b a5bd 55ae 13bd
000000e0: 2b36 803d 66e5 63bd 0954 abbb 9a12 bf3d
000000f0: 8e0a a13c 34e1 59bd 9b5a 37bb 8c68 e1bd
00000100: d5b2 583d ae46 0f3d b030 c03d ece4 7fbd
00000110: 0e9a 8dba ddea a5bd 22f2 1fbd 6839 74ba
00000120: 3386 88bd 1232 643d 5a61 b03c 244c a6bd
00000130: 3667 8cbc 3382 a3bd 8a5b 3f3c 0cd9 5f3c
00000140: 033c 933d 4f7c 0abe 81f2 11bd 8bbf 97bd
00000150: 7215 853d a412 713b d382 123c 445e a93b
00000160: 2ec7 e3bc 8d20 593d c68d 563d ac2f 8fbd
00000170: 808b c8bc 6704 bcbd 9ef1 9c3a 4e7e e1bc
00000180: 88ff 8f3d bdd1 bcbd b235 343d 55ed 34bd
00000190: a936 aebb 76b4 c6bc 7b3e 8c3c a81e 9dbd
000001a0: 5cb9 73bc ade7 25bc d306 323d acf8 babd
000001b0: ba60 b23c 1717 f7bb 65f3 70bd e133 b33c
000001c0: dec7 e1bc 53d0 563d 057a 8d3d 8639 8a3d
000001d0: 6231 c83c c93c e6bd c484 04be 40e6 fabc
000001e0: 7479 dd3c c624 48bd abff b23d 5d4a 0dbd
000001f0: c74d 6cbd 4a57 473d 3fb8 813d 0a12 c83c
00000200: 3b60 18bd bd12 d038 cde5 97bd 307a 383d
00000210: 4147 633d 49c9 cfbc a382 8fbd 94d9 683d
00000220: 0716 aabd b692 85bd 2f77 2c3d 2f8c 71bd
00000230: 63e7 893c 8aea 1a3d ef11 37bc 1cfb 26bd
00000240: 3acc a73d 1a61 773c 158f fc3c f9ee edbc
00000250: 482f bdbd d9b4 623c 6b06 8cbd ad3d 3bbd
00000260: 9701 a8bd 50c9 883d 6804 8dbd d369 893c
00000270: 9a33 163c a00d 7a3d 6bc6 203d 0278 7dbd
00000280: 5a8b f63c 1ba3 5cbd 9966 bfbb 8017 28bd
00000290: 4f4d adbd 36e2 863c e11b 8bbd b48b 9d3d
000002a0: f7e7 113d b475 fabc 7901 54bd 59d8 a6bd
000002b0: 2888 36bd b327 86bd e9b8 1b3c e7d3 553c
000002c0: 4ffb 9c3d a0c1 4a3b b315 93bc 43fc 33bd
000002d0: e002 e6bc d85c 193d 9bba cdbd b5f8 b7bd
000002e0: cd94 9e3c 5621 14bd e1b3 2abd a4f8 86bd
000002f0: 5598 8bbd de50 a1bd f63c 81bd 2c02 bcbd
00000300: 4748 4ebd 16ee 5e3d 4578 6cbd 2ec8 533d
00000310: 8e86 aabd 83c6 923a 1081 84bc 8712 9bbd
00000320: c5f0 0fbc cad3 833d 1d7b 50bd 67fe 923d
00000330: c993 9dbc e507 e6bc a2cf 0f3d 6f82 8d3d
00000340: 6294 893d 8f2f 313d ff9f b4bd cfc1 ddbc
00000350: 342f 26b9 a619 4abd 3142 013d 0bcb e9bc
00000360: 5684 b5bd d886 44bd 23fe 8dbd 2051 cd3c
00000370: c6b9 83bd a985 b6bc 8bf4 143c 951c 1c3d
00000380: 11d3 9ebd cc0b 553d e8c4 87bd 9ea4 9cbd
00000390: 3cbe dd3c 9760 76bd d48f 613d bc82 ec3c
000003a0: 4bb9 2fbd 4344 d9bc 6c80 25bd acf7 8ebc
000003b0: a069 5fb9 8fe4 3fbc d195 6cbd 4a8f 9ebd
000003c0: 2b87 67bd 657e 743c d77d 143c fd3f 36bd
000003d0: a067 18bd 0b50 39bc 566f 403d 4c86 b4bd
000003e0: e09c 68bd 53b8 bebc c9d8 6dbc 679d 69bd
000003f0: 9300 0f3d ef15 08bd c714 c236 fcf4 4dbd

image_conv.5.bias f4 [64]
-0.015374965 -0.022491435 0.009677383 -0.006321849 -0.008642569 -0.023679202 0.027614385 -0.04533048
0.030030593 -0.046241585 0.04831016 0.08327053 -0.058696423 -0.06767391 0.0071872524 -0.020306144
-0.0675695 0.06076314 0.09769895 0.043533023 0.022283634 0.011269497 -0.07327122 -0.052116133
0.013084547 0.023221763 0.058201976 0.05260786 0.064758465 -0.08547456 0.01928377 -0.0036301978
-0.06615717 -0.108332515 0.11467994 0.0017890151 -0.07297802 -0.09952519 0.007300391 0.04326038
-0.0063367384 0.04831147 -0.023379734 -0.030337516 -0.032114606 0.0520969 0.052701943 -0.08577758
0.07159705 -0.062496193 -0.060528502 -0.01521745 0.0566099 0.02268465 -0.0964259 0.049403146
-0.06356707 0.11869025 -0.019847717 -0.0001313427 -0.039685488 -0.07827934 0.0725062 -0.07555756
00000000: 47e7 7bbc f53f b8bc e38d 1e3c 8327 cfbb
00000010: 9099 0dbc e3fa c1bc 9037 e23c 74ac 39bd
00000020: b802 f63c d167 3dbd e0e0 453d bd89 aa3d
00000030: a96b 70bd 9e98 8abd 0b83 eb3b 1259 a6bc
00000040: e161 8abd c5e2 783d 6316 c83d af4f 323d
00000050: 2b8c b63c b2a3 383c 390f 96bd ba77 55bd
00000060: 9160 563c 913b be3c 3265 6e3d 577b 573d
00000070: 16a0 843d 490d afbd fff8 9d3c 9de8 6dbb
00000080: 697d 87bd 70dd ddbd 51dd ea3d 637d ea3a
00000090: 8075 95bd ddd3 cbbd 1e38 ef3b cc31 313d
000000a0: 6aa4 cfbb 3fe2 453d db86 bfbc 6286 f8bc
000000b0: 9b8a 03bd 8f63 553d fedd 573d 28ac afbd
000000c0: 79a1 923d 02fc 7fbd bcec 77bd 9d52 79bc
000000d0: c8df 673d 29d5 b93c f17a c5bd f45a 4a3d
000000e0: 742f 82bd e013 f33d ae97 a2bc 0ab9 09b9
000000f0: 408d 22bd eb50 a0bd 217e 943d ecbd 9abd

actor.0.weight f4 [64, 64]
0.020588174 -0.03396667 -0.052548293 -0.11564824 -0.11773985 -0.16304882 0.29054335 0.17408067
-0.080438145 0.083431564 0.2053358 -0.050381184 0.18690117 -0.04618072 0.05680149 -0.06554311
0.18987936 0.04552798 -0.1741138 -0.035305213 -0.056403436 0.15846387 0.25039098 -0.08605617
-0.11004133 0.2512536 0.041298814 -0.08335105 -0.10336389 0.059753317 -0.09908168 -0.00048663415
-0.03587189 0.02306688 -0.33099216 -0.34162498 -0.033069845 -0.11809237 -0.07033997 -0.2721838
-0.24341072 -0.18383528 -0.06212909 0.001846677 0.09879171 0.17633265 -0.15686437 -0.093781106
0.11611629 0.13806984 0.116813414 -0.079939544 0.2114838 0.12925519 -0.13521692 -0.22920942
0.25061315 -0.059132636 0.09601809 -0.10505442 -0.09576439 -0.16451572 0.14726125 -0.06314503
0.2994038 -0.1540446 -0.050111253 0.06171456 -0.23349336 0.15266003 0.16401015 -0.043264784
0.109146364 0.097445786 -0.011099182 0.11176577 0.0877822 0.07628477 -0.06487895 -0.20528986
0.13052168 -0.10417977 -0.20732413 -0.14725229 0.06950523 0.0901068 -0.24503613 -0.11021388
0.03468736 0.08958214 -0.06194501 0.009633078 -0.055947375 0.12632103 -0.10990919 0.12682527
-0.4102803 -0.06898358 0.055574574 -0.06949541 0.10355459 0.08933456 -0.10170757 -0.08264524
-0.11226937 -0.3206474 -0.06585698 -0.08050292 0.006555648 0.014108478 -0.13934939 -0.03809613
0.002894401 -0.19338393 -0.2642582 0.15960488 0.0699041 -0.073217705 -0.10753954 0.029955156
0.29854208 -0.14420336 -0.026022306 0.11166225 0.06458421 0.098576844 0.037928786 0.05063874
0.27721855 -0.061475545 0.0132084 0.032836977 -0.030362062 0.19030836 -0.033275556 -0.005141882
0.07529607 -0.084261075 -0.24972491 -0.1099899 -0.052056205 0.021018151 0.0853245 0.062193222
-0.110695995 -0.030229276 0.17286375 0.083065465 0.08586154 -0.3463826 -0.18947268 0.032083165
-0.19345559 -0.34468633 -0.12505731 -0.07051698 -0.09909588 0.011683323 0.08903338 -0.035984736
-0.00937866 -0.055933658 -0.0042165997 0.0017912348 -0.21483433 -0.10768912 0.112612315 0.37431666
-0.02441225 0.22274241 0.071944766 0.26637244 0.09566943 0.08471444 0.33342448 0.07072254
0.011120554 -0.10331701 0.041603867 -0.048049018 0.26562485 0.112284005 0.30196142 -0.1014656
0.24558198 -0.09794403 -0.025131106 0.29678145 0.18698508 0.25789192 0.19293515 0.04920252
0.032471642 0.1320204 0.10172218 0.0028898711 0.0947642 0.040870674 0.08535773 -0.04836709
-0.033560544 0.072757214 0.14019035 -0.29000875 -0.028260427 0.07104724 -0.12405597 -0.04034466
0.25684506 -0.123040244 0.01826824 0.22204934 -0.021184951 0.09213058 -0.10592654 -0.047501195
-0.06766758 -0.38564396 -0.27211446 -0.1596912 0.14037667 0.017206568 -0.14761716 -0.17125712
-0.009305746 0.0043831863 -0.08182446 0.18723218 -0.044564947 -0.12066838 0.097278655 0.1281774
0.13019603 -0.020605342 0.028759303 0.17983475 -0.10950104 0.03269289 -0.016383821 -0.0765351
0.036457643 -0.25722694 -0.067918755 0.09323236 0.08895749 -0.19243632 0.21044166 0.15527566
0.039762385 0.2535268 -0.13743967 0.045468785 0.10786455 0.16400877 -0.029724406 -0.28099406
00000000: 88a8 a83c a320 0bbd e13c 57bd fcd8 ecbd
00000010: 9721 f1bd 45f6 26be 19c2 943e 3442 323e
00000020: c1bc a4bd 2bde aa3d 8c43 523e 805c 4ebd
00000030: 0563 3f3e ff27 3dbd aea8 683d 773b 86bd
00000040: bc6f 423e 8c7b 3a3d e34a 32be 339c 10bd
00000050: 4a07 67bd 5a44 223e 3f33 803e 383e b0bd
00000060: 595d e1bd 50a4 803e f228 293d f5b3 aabd
00000070: 72b0 d3bd e5bf 743d 56eb cabd ee22 ffb9
00000080: 67ee 12bd c1f6 bc3c ce77 a9be 78e9 aebe
00000090: 3f74 07bd 6ada f1bd 670e 90bd ad5b 8bbe
000000a0: a940 79be 513f 3cbe 137b 7ebd 330c f23a
000000b0: 4f53 ca3d 8c90 343e 0ea1 20be 4f10 c0bd
000000c0: 61ce ed3d 2e62 0d3e df3b ef3d 58b7 a3bd
000000d0: 368f 583e 795b 043e 4e76 0abe e0b5 6abe
000000e0: 5e50 803e 1035 72bd 22a5 c43d c626 d7bd
000000f0: 1f20 c4bd cf76 28be a7cb 163e 2e52 81bd
00000100: 744b 993e debd 1dbe 7541 4dbd 68c8 7c3d
00000110: e218 6fbe e952 1c3e 47f2 273e 6a36 31bd
00000120: 2188 df3d a891 c73d 58d9 35bc 74e5 e43d
00000130: 27c7 b33d 313b 9c3d 41df 84bd 8137 52be
00000140: 7aa7 053e 345c d5bd c74c 54be 4ec9 16be
00000150: c258 8e3d ea89 b83d c0ea 7abe d1b7 e1bd
00000160: 5514 0e3d d776 b73d 0dba 7dbd 0fd4 1d3c
00000170: 1329 65bd 4d5a 013e 1218 e1bd 7cde 013e
00000180: 4210 d2be 4347 8dbd 2aa2 633d 9c53 8ebd
00000190: 6e14 d43d 0af5 b63d 0f4c d0bd e841 a9bd
000001a0: 7ced e5bd e52b a4be 06e0 86bd b7de a4bd
000001b0: c3d0 d63b 3f27 673c 9bb1 0ebe b00a 1cbd
000001c0: feaf 3d3b 7006 46be da4c 87be 766f 233e
000001d0: e129 8f3d 2af3 95bd b13d dcbd 8464 f53c
000001e0: 82da 983e 0caa 13be bb2c d5bc 2daf e43d
000001f0: ba44 843d a8e2 c93d 375b 1b3d 916a 4f3d
00000200: 97ef 8d3e c8cd 7bbd 0c68 583c 1180 063d
00000210: dcb9 f8bc 32e0 423e f34b 08bd 3c7d a8bb
00000220: d334 9a3d 1291 acbd e3b7 7fbe 6242 e1bd
00000230: e338 55bd 422e ac3c 9dbe ae3d 52be 7e3d
00000240: 95b4 e2bd 63a3 f7bc 3203 313e 3a1e aa3d
00000250: 2dd8 af3d 0f59 b1be 2005 42be a369 033d
00000260: 3919 46be ba7a b0be 060f 00be 356b 90bd
00000270: c8f2 cabd 696b 3f3c 2257 b63d bb64 13bd
00000280: f3a8 19bc b11a 65bd 672b 8abb dec7 ea3a
00000290: 88fd 5bbe 1d8c dcbd 49a1 e63d 6fa6 bf3e
000002a0: 33fc c7bc 9616 643e c757 933d f861 883e
000002b0: 56ee c33d c47e ad3d 9db6 aa3e fbd6 903d
000002c0: fc32 363c de97 d3bd d168 2a3d 0ccf 44bd
000002d0: fbff 873e 28f5 e53d b09a 9a3e 32cd cfbd
000002e0: d879 7b3e e196 c8bd c0df cdbc bdf3 973e
000002f0: 0479 3f3e 690a 843e cb90 453e 9588 493d
00000300: fc00 053d 5b30 073e b853 d03d fe63 3d3b
00000310: bc13 c23d 0268 273d 09d0 ae3d 921c 46bd
00000320: c876 09bd bc01 953d 0f8e 0f3e 077c 94be
00000330: 6982 e7bc 3781 913d 0e11 febd 7140 25bd
00000340: 3281 833e 86fc fbbd 47a7 953c e760 633e
00000350: 108c adbc f5ae bc3d 04f0 d8bd 9d90 42bd
00000360: 4d95 8abd 2073 c5be 9652 8bbe 1786 23be
00000370: e7be 0f3e caf4 8c3c f428 17be 075e 2fbe
00000380: 2177 18bc d5a0 8f3b 9593 a7bd cbb9 3f3e
00000390: bc89 36bd fc20 f7bd 083a c73d f040 033e
000003a0: 1c52 053e 89cc a8bc a198 eb3c 9a26 383e
000003b0: 1542 e0bd fbe8 053d 5d37 86bc 6fbe 9cbd
000003c0: 9c54 153d 40b3 83be fd18 8bbd 9cf0 be3d
000003d0: 582f b63d 070e 45be 057e 573e 9500 1f3e
000003e0: e2dd 223d 44ce 813e fcbc 0cbe 7a3d 3a3d
000003f0: 17e8 dc3d eaf1 273e 9980 f3bc 74de 8fbe

actor.0.bias f4 [64]
-0.021048384 0.002345642 -0.020178089 -0.023163559 -0.048003826 -0.02535346 -0.036329817 -0.013604512
-0.0045461017 -0.020395743 -0.028882558 0.007425281 -0.01520768 -0.030760348 0.04481402 0.009279565
-0.05348245 0.0017220632 -0.03439992 0.0235259 -0.006016511 0.015208372 -0.02257679 0.026667846
-0.024979109 0.034944136 0.03527679 0.022347445 0.023329426 -0.0025870607 0.017519575 -0.014381401
0.01527593 0.012828105 -0.014082228 0.017741628 0.019680955 0.011415907 0.03152533 0.050378416
-0.009812136 0.0037163093 -0.004016486 -0.053583603 0.030451208 0.022301547 0.016923765 0.028553355
-0.021652797 -0.019294297 0.009923299 -0.005663421 0.023954088 -0.056765094 0.0053106374 0.012302668
-0.013428194 0.0033364834 0.020179197 0.064639755 0.03985219 -0.03701408 0.04532495 0.0052133324
00000000: a96d acbc 58b9 193b 854c a5bc 81c1 bdbc
00000010: a99f 44bd 0fb2 cfbc 93ce 14bd 76e5 5ebc
00000020: 77f7 94bb f914 a7bc 1d9b ecbc c64f f33b
00000030: a229 79bc 20fd fbbc e88e 373d 5109 183c
00000040: 6a10 5bbd dab6 e13a eee6 0cbd 63b9 c03c
00000050: 2726 c5bb 892c 793c f6f2 b8bc 8776 da3c
00000060: fda0 ccbc 9521 0f3d 657e 103d fd11 b73c
00000070: 5a1d bf3c ad8b 29bb 3685 8f3c f89f 6bbc
00000080: e547 7a3c f92c 523c 25b9 66bc e456 913c
00000090: f439 a13c c909 3b3c b420 013d 9959 4e3d
000000a0: 15c3 20bc 538d 733b ba9c 83bb 7b7a 5bbd
000000b0: d074 f93c bcb1 b63c b5a3 8a3c bae8 e93c
000000c0: 3561 b1bc 130f 9ebc 5595 223c 3894 b9bb
000000d0: 5d3b c43c 8482 68bd db04 ae3b 2191 493c
000000e0: ee01 5cbc e7a8 5a3b d84e a53c d961 843d
000000f0: 0d3c 233d 139c 17bd a8a6 393d 9ad4 aa3b

actor.2.weight f4 [7, 64]
0.0078067193 -0.04104287 -0.5731957 -0.13826601 -0.030169224 -0.0070085316 0.031583354 0.16222745
-0.094419815 -0.0716663 -0.15062803 -0.06966284 -0.40293625 0.02773167 0.0020302506 -0.4171921
0.27030474 0.4202999 -0.07827626 -0.05418309 -0.42661816 -0.25076416 0.03994633 0.09947471
0.14710222 0.20206961 0.096055664 0.081830874 -0.12194467 -0.055646498 -0.06293084 0.24472904
0.13816622 -0.05840589 -0.022817638 -0.32703242 0.01487888 0.11617217 0.13524 0.19642973
0.18044093 -0.35288253 0.07130713 0.1640604 -0.14025249 -0.12990126 0.084883414 0.23274668
0.012576861 -0.050782222 -0.21794868 -0.1252889 -0.2123068 -0.047622893 -0.18814997 -0.09793987
-0.10365396 -0.2638467 -0.0687119 -0.1385717 0.08693801 -0.016248599 0.14934337 -0.1734275
0.23338151 0.16211094 -0.30021134 -0.052215472 0.007572978 -0.15468761 0.3308731 0.26302066
-0.10351377 0.07937314 0.2204258 0.33708528 0.22869846 -0.055461332 -0.080739215 0.11516209
-0.059738796 0.10731832 0.15939233 0.10280509 0.044468496 0.021365583 -0.33593002 -0.38127056
0.057848155 -0.230146 0.056133453 -0.13105167 0.040560007 0.29029873 -0.16117045 -0.35615495
-0.17346811 -0.20041257 -0.08924885 -0.14502263 -0.16869202 0.43687788 0.38952398 0.027360005
0.088647395 0.009328418 0.055349674 0.0055296607 -0.035775967 -0.057058454 -0.117810145 -0.12074252
0.040174633 0.10307621 0.20701395 0.10282823 0.18209186 0.090212055 0.39873773 -0.13474439
0.06109578 0.044866655 0.23586376 -0.060502872 -0.121705145 0.04072097 -0.22681399 0.27647486
-0.27507448 -0.06619441 0.012339188 0.10966646 -0.20147833 0.012348281 -0.06974129 -0.19930375
0.012174842 -0.05377486 -0.31028166 -0.11390636 0.13839112 0.122627996 0.33581805 -0.034471236
-0.2313506 -0.14953762 -0.040303897 0.04155594 0.23972903 -0.038525697 -0.25656253 0.13685504
0.06331782 0.28661242 -0.050633695 0.10474527 0.29016417 -0.014035866 0.004121734 -0.23713143
-0.034703065 0.014170264 -0.117245674 0.19278762 0.080054335 -0.12504287 0.1861126 0.060647972
-0.02766108 -0.007233457 -0.19117461 -0.2984546 0.3931051 0.20220155 0.036536526 0.00760329
0.03214313 -0.1075867 0.21465851 -0.14359882 -0.073765576 -0.21220516 -0.08804748 0.24079895
-0.17920084 0.1439863 -0.13091673 0.06940488 0.22385888 -0.018648248 0.0654759 -0.1042024
-0.20227483 -0.19578178 -0.119232155 0.23770328 0.16955172 -0.036793716 0.08929835 -0.0620584
0.04300293 -0.07869156 -0.09143994 0.1705473 -0.07379465 0.05496037 -0.07422192 -0.16354278
0.14621086 -0.0148589 0.22945221 -0.1263576 -0.056059033 0.045461252 0.12243581 -0.04077111
0.10267794 0.011692705 -0.002672738 -0.27981514 -0.0038145143 -0.1708933 0.044169616 -0.06295202
0.20798981 -0.32720223 -0.13194057 -0.09662533 -0.19993627 0.017960565 0.08644919 0.043786976
0.005578711 0.13864265 -0.13632238 -0.07366912 -0.23402758 0.12834854 -0.06730869 -0.06789627
-0.041987706 -0.15883973 0.1346852 -0.065447934 -0.106405824 0.0031604245 -0.036929816 0.1653362
-0.24876125 -0.09633715 -0.0133868 -0.088211544 -0.049774464 0.15576723 -0.32127875 -0.20020956
00000000: 82cf ff3b 921c 28bd f4bc 12bf 9b95 0dbe
00000010: 7325 f7bc d3a7 e5bb 8c5d 013d f41e 263e
00000020: 2d5f c1bd c8c5 92bd 3c3e 1abe 64ab 8ebd
00000030: a94d cebe 872d e33c f40d 053b 349a d5be
00000040: 6265 8a3e 8c31 d73e 4e4f a0bd 16ef 5dbd
00000050: b26d dabe 2964 80be c39e 233d 66b9 cb3d
00000060: f7a1 163e 56eb 4e3e d5b8 c43d f296 a73d
00000070: 21be f9bd 95ed 63bd e2e1 80bd 409a 7a3e
00000080: 727b 0d3e 043b 6fbd 0eec babc cb70 a7be
00000090: 8cc6 733c adeb ed3d 5b7c 0a3e e024 493e
000000a0: 82c5 383e 05ad b4be 7909 923d 73ff 273e
000000b0: 599e 0fbe d604 05be 5bd7 ad3d 2555 6e3e
000000c0: 2e0f 4e3c 0501 50bd f02d 5fbe bc4b 00be
000000d0: f466 59be 3910 43bd 63aa 40be b394 c8bd
000000e0: 8748 d4bd ea16 87be d3b8 8cbd bde5 0dbe
000000f0: 8e0c b23d c81b 85bc 78ed 183e fb96 31be
00000100: 90fb 6e3e 6900 263e 4db5 99be e4df 55bd
00000110: be26 f83b 6e66 1ebe 3368 a93e a5aa 863e
00000120: 07ff d3bd 638e a23d 4db7 613e 7196 ac3e
00000130: ee2f 6a3e 6c2b 63bd 9a5a a5bd 1ada eb3d
00000140: abb0 74bd b5c9 db3d be37 233e 7a8b d23d
00000150: 9924 363d e006 af3c 05ff abbe e535 c3be
00000160: 30f2 6c3d 65ab 6bbe 31ec 653d 6932 06be
00000170: 4022 263d 09a2 943e de09 25be f159 b6be
00000180: a0a1 31be f438 4dbe 1ac8 b6bd d080 14be
00000190: 9abd 2cbe 75ae df3e b06f c73e 1722 e03c
000001a0: c48c b53d 39d6 183c 57b6 623d 2832 b53b
000001b0: d289 12bd 20b6 69bd 7246 f1bd db47 f7bd
000001c0: 288e 243d 9f19 d33d 77fb 533e 9b97 d23d
000001d0: 4a76 3a3e 19c1 b83d 5a27 cc3e 6ffa 09be
000001e0: 923f 7a3d 19c6 373d 4586 713e dcd1 77bd
000001f0: 8c40 f9bd 08cb 263d ed41 68be 1d8e 8d3e
00000200: 90d6 8cbe ef90 87bd 4e2a 4a3c cf98 e03d
00000210: 5650 4ebe 7250 4a3c 85d4 8ebd 4816 4cbe
00000220: fd78 473c 0743 5cbd 3ddd 9ebe bd47 e9bd
00000230: 67b6 0d3e 6324 fb3d 58f0 ab3e b631 0dbd
00000240: 2ce7 6cbe 6420 19be b315 25bd 9036 2a3d
00000250: 877b 753e 1fcd 1dbd 2a5c 83be ba23 0c3e
00000260: c6ac 813d ddbe 923e 4765 4fbd b084 d63d
00000270: 6690 943e b0f6 65bc 9c0f 873b 95d2 72be
00000280: cd24 0ebd 652a 683c 801e f0bd 1e6a 453e
00000290: 87f3 a33d 3d0b 00be 4d94 3e3e 026a 783d
000002a0: 7d99 e2bc a306 edbb 47c3 43be 0bcf 98be
000002b0: 1245 c93e ec0d 4f3e 53a7 153d 0525 f93b
000002c0: 84a8 033d 6a56 dcbd 71cf 5b3e 920b 13be
000002d0: 6812 97bd 4f4c 59be 3d52 b4bd 0094 763e
000002e0: 6d80 37be 2571 133e 090f 06be 2524 8e3d
000002f0: 433b 653e 36c4 98bc 3b18 863d 1168 d5bd
00000300: 2221 4fbe 057b 48be fd2f f4bd 7d68 733e
00000310: f79e 2d3e 02b5 16bd 0ee2 b63d f330 7ebd
00000320: d723 303d 0a29 a1bd dd44 bbbd f4a3 2e3e
00000330: a621 97bd 201e 613d a901 98bd c277 27be
00000340: 4db8 153e be72 73bc 85f5 6a3e e363 01be
00000350: 289e 65bd 9435 3a3d a0bf fa3d 9cff 26bd
00000360: d048 d23d c292 3f3c 1a29 2fbb ee43 8fbe
00000370: eefc 79bb a7fe 2ebe 33eb 343d fdec 80bd
00000380: 48fb 543e 0d87 a7be 6e1b 07be 80e3 c5bd
00000390: 18bc 4cbe 0922 933c 460c b13d f959 333d
000003a0: 9fcd b63b 57f8 0d3e 1898 0bbe d6df 96bd
000003b0: eda4 6fbe cd6d 033e 23d9 89bd 330d 8bbd
000003c0: 4dfb 2bbd e2a6 22be ebea 093e 9109 86bd
000003d0: 4ceb d9bd 201f 4f3b b843 17bd e54d 293e
000003e0: 45bb 7ebe 694c c5bd 4f54 5bbc 41a8 b4bd
000003f0: 4fe0 4bbd 7281 1f3e a67e a4be bc03 4dbe

actor.2.bias f4 [7]
0.00028543564 0.010938703 0.042580023 -0.02637733 -0.017886896 -0.040502205 0.013493632
00000000: 86a6 9539 3f38 333c 6468 2e3d 4515 d8bc
00000010: 8a87 92bc a4e5 25bd 6514 5d3c

critic.0.weight f4 [64, 64]
0.15029508 -0.27413306 0.033471983 0.08484646 0.058215488 0.0048562456 -0.062167577 0.09630898
-0.044175465 -0.041261893 -0.0070364643 0.14813054 -0.039359387 -0.014836946 -0.087480724 -0.060562354
0.2164045 -0.14306213 -0.04897337 -0.18165237 0.042443275 -0.013607368 0.11990846 0.08386246
-0.054103598 -0.11119088 0.12210219 -0.031823896 -0.054661155 -0.012663962 -0.2773014 0.20166674
-0.09384584 0.13585672 0.039940104 -0.31941372 -0.24763654 -0.08955985 0.033414394 0.06033195
-0.18337558 -0.06718387 0.011508881 0.17099342 0.03978464 -0.010823223 0.099302135 -0.03603642
0.047296464 0.012685817 0.19426495 0.117548555 0.14680336 -0.11775502 0.18201143 -0.026367096
-0.18616748 -0.24619971 -0.00523034 -0.04071584 0.295357 0.023935633 -0.066883996 0.030654833
0.062890835 0.111604124 -0.27289164 -0.13190764 -0.08873498 -0.022910733 -0.21213521 0.13835265
0.013225964 -0.03566508 -0.16514538 -0.10352614 0.12549463 0.10318068 0.023164002 -0.12835154
-0.046511877 -0.087666 -0.12762861 -0.05863453 0.00818513 0.09028602 0.035771515 0.08476383
-0.010671349 0.0090030935 -0.17990358 0.051196177 -0.09483237 -0.017902987 0.067748986 0.28127778
-0.15136914 -0.04936888 -0.059041332 -0.023057709 0.09792959 0.13699476 -0.21861963 -0.09862341
-0.24468797 0.15151043 0.18947437 0.10603855 0.044193204 0.15104342 -0.03496818 -0.029379206
-0.20564291 0.25576803 -0.076545 -0.084832676 -0.03183775 -0.20527023 -0.1953503 -0.045278884
0.11221211 0.05855829 0.19256699 0.21777406 0.13132276 -0.012691333 0.10660236 -0.05047078
-0.121915154 -0.28497067 -0.06755143 -0.23676136 -0.06515009 -0.09698561 0.03534353 0.061586097
-0.00053817854 -0.10891066 -0.12913905 -0.0200134 0.10975259 -0.14203036 -0.09880696 0.040381145
-0.0035450952 0.1317778 -0.018167224 0.033115935 -0.0760227 0.14497368 -0.031092012 -0.1262856
0.041440707 -0.09071025 -0.004964237 0.039072614 0.094858676 0.007959043 -0.057868697 0.0524079
-0.021338316 0.1293255 -0.049938116 -0.15016347 -0.07188433 -0.13557515 -0.19031794 -0.09546808
-0.33872315 0.15781662 -0.2710681 0.18530878 -0.1687133 0.13568303 0.15691441 0.119125366
0.039978273 0.099007614 0.0033324175 -0.013936324 -0.112508655 0.06068282 -0.13066903 -0.059575032
0.13116021 0.08528502 0.22955823 -0.08288877 -0.09847407 0.2167146 0.10370001 0.10143245
0.118413 -0.04483248 0.16329254 -0.14871378 -0.15301336 -0.20559292 -0.0018125717 -0.017079169
0.057185255 -0.045132928 -0.060686763 -0.006798744 -0.13322265 -0.09332693 -0.061972976 -0.035613604
0.04228548 0.04487983 -0.022803053 0.03438192 -0.059489172 -0.14310816 0.20676087 0.15642571
0.040490218 -0.092619546 -0.04617033 -0.10244036 -0.13943991 0.18532935 -0.17496718 0.118103415
-0.030213533 0.072895885 -0.027001569 -0.2150633 0.25525343 -0.25498638 -0.110144645 0.014035695
0.0038821613 0.12536559 0.2634451 0.07553983 0.038890813 0.2280244 -0.29019642 0.042835828
0.068723 0.0413542 -0.008704152 -0.249602 0.13686842 -0.09086025 0.01926571 -0.031895146
0.04496113 -0.3079075 -0.03450172 -0.009439127 -0.05616893 -0.118747324 0.04005596 -0.043284673
00000000: f4e6 193e 2b5b 8cbe eb19 093d fbc3 ad3d
00000010: 5d73 6e3d 2421 9f3b 6ea3 7ebd a43d c53d
00000020: 55f1 34bd 3b02 29bd 2492 e6bb 88af 173e
00000030: 4f37 21bd a916 73bc 1829 b3bd 3b10 78bd
00000040: 2499 5d3e e17e 12be 4d98 48bd 1403 3abe
00000050: 00d9 2d3d 70f1 5ebc 9192 f53d 15c0 ab3d
00000060: bc9b 5dbd 0bb8 e3bd b710 fa3d c659 02bd
00000070: 60e4 5fbd 827c 4fbc 73fa 8dbe ba81 4e3e
00000080: 3f32 c0bd 061e 0b3e 3c98 233d 328a a3be
00000090: 6f94 7dbe 286b b7bd 88dd 083d a31e 773d
000000a0: cfc6 3bbe b297 89bd bf8f 3c3c e618 2f3e
000000b0: 38f5 223d e353 31bc eb5e cb3d ed9a 13bd
000000c0: f0b9 413d 2cd8 4f3c 64ed 463e 4cbd f03d
000000d0: 9f53 163e 8b29 f1bd 3461 3a3e cfff d7bc
000000e0: b0a2 3ebe c71b 7cbe 4663 abbb a7c5 26bd
000000f0: 0839 973e a914 c43c 7afa 88bd d81f fb3c
00000100: e9cc 803d b490 e43d 74b8 8bbe cc12 07be
00000110: afba b5bd 4aaf bbbc f939 59be 51ac 0d3e
00000120: b7b1 583c 8c15 12bd df1b 29be 8305 d4bd
00000130: aa81 003e 6450 d33d 6fc2 bd3c 966e 03be
00000140: 3d83 3ebd 3b8a b3bd 13b1 02be c32a 70bd
00000150: ec1a 063c e0e7 b83d 2785 123d a998 ad3d
00000160: e2d6 2ebc b681 133c a538 38be 15b3 513d
00000170: 7937 c2bd 49a9 92bc fbbf 8a3d a403 903e
00000180: 8300 1bbe 0637 4abd 53d5 71bd 85e3 bcbc
00000190: 4f8f c83d 5b48 0c3e d3dd 5fbe 12fb c9bd
000001a0: 7c8f 7abe 8d25 1b3e 9205 423e bd2a d93d
000001b0: ef03 353d 20ab 1a3e cb3a 0fbd a9ac f0bc
000001c0: 0e94 52be 07f4 823e a0c3 9cbd c1bc adbd
000001d0: 4d68 02bd 5c32 52be e909 48be 5a76 39bd
000001e0: 76cf e53d d1da 6f3d 4830 453e 2a00 5f3e
000001f0: 7979 063e 4fef 4fbc 5752 da3d 73ba 4ebd
00000200: a7ae f9bd ade7 91be 6758 8abd 9271 72be
00000210: 696d 85bd 64a0 c6bd 61c4 103d b441 7c3d
00000220: 8d14 0dba 8d0c dfbd 073d 04be 24f3 a3bc
00000230: f7c5 e03d 6870 11be 4e5b cabd b366 253d
00000240: d454 68bb c2f0 063e 6ed3 94bc 93a4 073d
00000250: cab1 9bbd fb73 143e adb4 febc 0351 01be
00000260: bbbd 293d 4cc6 b9bd 0aab a2bb 9b0a 203d
00000270: 4445 c23d a566 023c ba07 6dbd aba9 563d
00000280: b1cd aebc e76d 043e e98b 4cbd 74c4 19be
00000290: 1738 93bd 36d4 0abe b5e2 42be c584 c3bd
000002a0: 1f6d adbe ae9a 213e 70c9 8abe 96c1 3d3e
000002b0: 2ec3 2cbe 7ef0 0a3e 2cae 203e 00f8 f33d
000002c0: 42c0 233d 81c4 ca3d b064 5a3b 2e55 64bc
000002d0: f06a e6bd 8c8e 783d 1ace 05be f304 74bd
000002e0: dd4e 063e eaa9 ae3d 5011 6b3e 96c1 a9bd
000002f0: c6ac c9bd 6fea 5d3e ac60 d43d d1bb cf3d
00000300: 8482 f23d 43a2 37bd 2936 273e 6d48 18be
00000310: 89af 1cbe f386 52be d093 edba 9de9 8bbc
00000320: 163b 6a3d 4edd 38bd af92 78bd 00c8 debb
00000330: 856b 08be 3122 bfbd 60d7 7dbd 92df 11bd
00000340: 8a33 2d3d ead3 373d 78cd babc 0ed4 0c3d
00000350: ebaa 73bd f28a 12be 1fb9 533e 102e 203e
00000360: 12d9 253d 51af bdbd 1a1d 3dbd 40cc d1bd
00000370: 56c9 0ebe fac6 3d3e 992a 33be 34e0 f13d
00000380: 5f82 f7bc 704a 953d 6532 ddbc 8e39 5cbe
00000390: 94b0 823e 938d 82be 8493 e1bd f9f5 653c
000003a0: dc6b 7e3b d65f 003e 47e2 863e a0b4 9a3d
000003b0: f94b 1f3d 3a7f 693e a094 94be 9f74 2f3d
000003c0: a5be 8c3d 0663 293d dc9b 0ebc ab97 7fbe
000003d0: 3c27 0c3e f014 babd 1fd3 9d3c 7ca4 02bd
000003e0: 2929 383d 0da6 9dbe ad51 0dbd 91a6 1abc
000003f0: 6411 66bd cc31 f3bd b811 243d 454b 31bd

critic.0.bias f4 [64]
-0.03571873 -0.046699416 -0.007955389 -0.041146565 0.050194956 -0.04961278 0.048619572 -0.048914142
-0.049717546 0.0419837 0.057936527 0.041443143 0.045366127 0.020570153 0.036678858 0.04648102
-0.04148488 -0.04594327 -0.04886088 0.04365244 -0.035504024 0.03752764 -0.011450545 0.040877305
-0.043315165 0.039170887 0.046228815 0.035186484 0.046472568 -0.048465673 -0.044694453 0.039168
-0.0455702 -0.046376802 -0.046626434 -0.046586044 -0.047807522 0.045691624 0.048190426 -0.04201282
-0.02359135 0.04450859 -0.047269586 -0.046193182 0.05271793 -0.032209273 0.020746889 -0.0017744009
0.038526118 -0.04638329 -0.044845268 -0.04915724 -0.048396636 0.04390853 -0.017128808 -0.035028998
-0.04148271 0.047315322 -0.043081243 -0.04191827 0.047960185 0.04398767 -0.04854393 -0.039454713
00000000: ce4d 12bd e347 3fbd 5257 02bc 4d89 28bd
00000010: 3a99 4d3d c536 4bbd 5125 473d 325a 48bd
00000020: a0a4 4bbd 1af7 2b3d da4e 6d3d 49c0 293d
00000030: d5d1 393d bd82 a83c 923c 163d e262 3e3d
00000040: 0dec 29bd 032f 3cbd 5922 48bd e7cc 323d
00000050: ab6c 11bd 95b6 193d 119b 3bbc f66e 273d
00000060: 3e6b 31bd a771 203d 6d5a 3d3d b41f 103d
00000070: 055a 3e3d f183 46bd 8811 37bd a06e 203d
00000080: d1a7 3abd 9af5 3dbd 5cfb 3ebd 02d1 3ebd
00000090: d2d1 43bd 2427 3b3d 5363 453d a215 2cbd
000000a0: a642 c1bc a44e 363d c19d 41bd 1035 3dbd
000000b0: c2ee 573d dfed 03bd 61f5 a93c 0493 e8ba
000000c0: 90cd 1d3d 68fc 3dbd acaf 37bd 1a59 49bd
000000d0: 8d3b 46bd 6ed9 333d b751 8cbc 917a 0fbd
000000e0: c6e9 29bd b6cd 413d f575 30bd 7eb2 2bbd
000000f0: e671 443d 6a2c 343d 00d6 46bd 449b 21bd

critic.2.weight f4 [1, 64]
-0.017836401 -0.10497529 0.0028703061 -0.061222956 0.20262304 -0.062509686 0.17717323 -0.15830886
-0.25339592 0.05084401 0.06886042 0.048698753 0.12951788 -0.010424838 0.03094786 0.14647077
-0.036221653 -0.13649456 -0.055253718 0.18713294 -0.034295477 0.010263571 0.004493686 0.09191437
-0.052983448 0.044840645 0.045742348 0.020302793 0.2566366 -0.2751425 -0.06341217 0.043610383
-0.063193746 -0.05901134 -0.071558386 -0.016271077 -0.06636347 0.124738686 0.13397974 -0.12839289
0.0032913643 0.027506575 -0.0740422 -0.07501643 0.10039967 -0.026678532 0.008476293 0.00014666544
0.0071281125 -0.19990507 -0.09967145 -0.056936037 -0.30328727 0.09277711 -0.006420617 0.00084522937
-0.016794816 0.16263708 -0.026045613 -0.11130917 0.14326476 0.12399189 -0.11280995 -0.06459094
00000000: a51d 92bc 49fd d6bd bf1b 3c3b ecc4 7abd
00000010: 6a7c 4f3e 1405 80bd e66c 353e b81b 22be
00000020: 1cbd 81be cf41 503d b106 8d3d 5878 473d
00000030: 56a0 043e f1cc 2abc 5e86 fd3c 6ffc 153e
00000040: 285d 14bd 3bc5 0bbe b951 62bd c79f 3f3e
00000050: 6a79 0cbd 8928 283c c53f 933b 9a3d bc3d
00000060: 2c05 59bd d3aa 373d 545c 3b3d 0b52 a63c
00000070: df65 833e 7adf 8cbe 3dde 81bd cda0 323d
00000080: b96b 81bd e0b5 71bd 348d 92bd ec4a 85bc
00000090: 92e9 87bd ff76 ff3d fc31 093e 6d79 03be
000000a0: eeb3 573b 7855 e13c 70a3 97bd 37a2 99bd
000000b0: 589e cd3d f08c dabc 26e0 0a3c 34ca 1939
000000c0: f192 e93b eab3 4cbe 8c20 ccbd c335 69bd
000000d0: 7848 9bbe ed01 be3d 0a64 d2bb 6292 5d3a
000000e0: 4895 89bc 568a 263e 9c5d d5bc 10f6 e3bd
000000f0: ffb3 123e 76ef fd3d e708 e7bd 4148 84bd

exp_avg f4 [16, 3, 2, 2]
0.00052203424 0.000930031 0.000224529 0.0008984127 0.00046900558 0.002422371 -0.00020368597 0.0006944891
0.0 0.0 0.0 0.0 -0.0006741873 -0.00018319066 -0.0005997194 -0.0005031992
-0.000978378 -8.297473e-05 -0.0013326982 -0.00079377217 0.0 0.0 0.0 0.0
1.0267816e-05 -0.00035541857 -3.0782052e-05 -0.00043529682 -5.5011642e-05 -0.0011080581 0.00030095346 -0.0014053624
0.0 0.0 0.0 0.0 -0.00032838082 -2.5893456e-05 4.8167905e-05 0.000266386
-0.00046023767 0.00064522424 -0.00033004978 0.0011407029 0.0 0.0 0.0 0.0
-0.0017487777 -0.0012124078 -0.0012763147 -0.0014807344 -0.0031939764 -0.00087033445 -0.0025896304 -0.0033019648
0.0 0.0 0.0 0.0 0.00080864783 0.00032122454 0.00017760457 0.0005851581
0.0028800257 0.0006848731 0.001098115 0.00066441874 0.0 0.0 0.0 0.0
0.0006161884 0.0006429858 0.00038162622 0.00066650053 0.0014482286 0.0011798238 1.2478962e-05 0.00094740314
0.0 0.0 0.0 0.0 0.000632989 -3.0547413e-05 0.0001056985 -8.240187e-05
-0.00015758086 -0.0003296042 0.00013889413 0.00013533192 0.0 0.0 0.0 0.0
-0.0002898663 -0.00023364971 -0.00065623265 -0.00067068107 -0.0005238453 1.237201e-05 -0.0017858286 -0.0016269035
0.0 0.0 0.0 0.0 -6.110331e-05 -0.00010149895 -0.00021205132 9.7566925e-05
-0.001221308 2.6186286e-05 -0.0003355241 -0.00040578973 0.0 0.0 0.0 0.0
0.0014303419 0.0014073261 0.0012486681 0.0013407795 0.00025661985 -8.066755e-05 6.6963344e-06 -0.00032966648
0.0 0.0 0.0 0.0 0.0011814788 0.00016407103 0.00016975097 0.0012591748
0.0018193338 0.00069717155 0.0018768713 0.00027766154 0.0 0.0 0.0 0.0
0.00024532605 0.0007937519 0.0006524541 0.0006377567 0.0019057223 0.0011940472 0.0015476224 0.00080500677
0.0 0.0 0.0 0.0 0.0008984246 0.0007320333 0.0015379034 0.0009906533
0.00027136438 0.0007955342 0.0033490472 0.0017524911 0.0 0.0 0.0 0.0
-0.00033011712 -0.00027576915 -0.000400201 -0.00021499125 -0.00049394637 0.0002650629 -0.0004835975 -0.00068136107
0.0 0.0 0.0 0.0 0.0014743772 0.001671547 0.00023369634 0.0007344593
0.003973561 0.0040011504 4.5712874e-05 6.827868e-06 0.0 0.0 0.0 0.0
00000000: 20d9 083a 53cd 733a 8b6f 6b39 7583 6b3a
00000010: dde4 f539 a4c0 1e3b 8994 55b9 600e 363a
00000020: 0000 0000 0000 0000 0000 0000 0000 0000
00000030: f2bb 30ba de16 40b9 7d36 1dba 20e9 03ba
00000040: eb3c 80ba b802 aeb8 eead aeba 2615 50ba
00000050: 0000 0000 0000 0000 0000 0000 0000 0000
00000060: ef43 2c37 7957 bab9 fa1b 01b8 8d38 e4b9
00000070: 4dbc 66b8 433c 91ba 4ac9 9d39 2334 b8ba
00000080: 0000 0000 0000 0000 0000 0000 0000 0000
00000090: 872a acb9 c635 d9b7 e507 4a38 b9a9 8b39
000000a0: 0e4c f1b9 4424 293a 880a adb9 a383 953a
000000b0: 0000 0000 0000 0000 0000 0000 0000 0000
000000c0: 3e37 e5ba a8e9 9eba 044a a7ba 3415 c2ba
000000d0: 0852 51bb 2827 64ba cab6 29bb c765 58bb
000000e0: 0000 0000 0000 0000 0000 0000 0000 0000
000000f0: 70fb 533a 076a a839 5d3b 3a39 4c65 193a
00000100: d0be 3c3b 0e89 333a a0ee 8f3a 632c 2e3a
00000110: 0000 0000 0000 0000 0000 0000 0000 0000
00000120: b487 213a 0c8e 283a 0115 c839 18b8 2e3a
00000130: 7dd2 bd3a 51a4 9a3a bc5c 5137 265b 783a
00000140: 0000 0000 0000 0000 0000 0000 0000 0000
00000150: 2cef 253a 0920 00b8 73aa dd38 2bcf acb8
00000160: 4a3c 25b9 bace acb9 1ca4 1139 e3e7 0d39
00000170: 0000 0000 0000 0000 0000 0000 0000 0000
00000180: 32f9 97b9 deff 74b9 0707 2cba a5d0 2fba
00000190: aa52 09ba 6191 4f37 7712 eaba d33d d5ba
000001a0: 0000 0000 0000 0000 0000 0000 0000 0000
000001b0: 9724 80b8 d5db d4b8 185a 5eb9 d89c cc38
000001c0: 4c14 a0ba 9faa db37 48e9 afb9 2dc0 d4b9
000001d0: 0000 0000 0000 0000 0000 0000 0000 0000
000001e0: 4f7a bb3a 0776 b83a 59aa a33a 18bd af3a
000001f0: ef8a 8639 102c a9b8 13b1 e036 16d7 acb9
00000200: 0000 0000 0000 0000 0000 0000 0000 0000
00000210: dadb 9a3a 7b0a 2c39 2eff 3139 e50a a53a
00000220: b676 ee3a 64c2 363a 5a01 f63a 1a93 9139
00000230: 0000 0000 0000 0000 0000 0000 0000 0000
00000240: 1b9f 8039 ca13 503a 7409 2b3a 212f 273a
00000250: 6ec9 f93a 9381 9c3a 97d9 ca3a 1707 533a
00000260: 0000 0000 0000 0000 0000 0000 0000 0000
00000270: 4184 6b3a ece5 3f3a 7a93 c93a cfd8 813a
00000280: e945 8e39 658b 503a b07b 5b3b d8b3 e53a
00000290: 0000 0000 0000 0000 0000 0000 0000 0000
000002a0: 9213 adb9 1c95 90b9 12d2 d1b9 466f 61b9
000002b0: 2e7c 01ba 24f8 8a39 5c8b fdb9 5e9d 32ba
000002c0: 0000 0000 0000 0000 0000 0000 0000 0000
000002d0: e43f c13a cf17 db3a 620c 7539 bb88 403a
000002e0: a534 823b 151c 833b d3bb 3f38 f11a e536
000002f0: 0000 0000 0000 0000 0000 0000 0000 0000
