torch-rl/storage/Lstm-Customs-SimpleCorridor-v0/status.pt (torch, 650709 bytes, 51 tensors)

image_conv.0.weight f4 [16, 3, 2, 2]
000000 1b 1f 20 3e 79 8d b9 bd 70 db 62 bd 3a 72 53 3d
       0.15636866 -0.09060187 -0.055385053 0.051622607
000010 6e 8f 09 be 47 80 91 3e b1 79 d9 bd ee 68 ef 3d
       -0.1343362 0.2841818 -0.10618914 0.116899356
000020 23 60 24 3d 94 c7 10 bd 45 fa a3 3d 7e 52 69 3c
       0.040130746 -0.035346583 0.080067195 0.014240859
000030 6b e3 70 3d 2e 58 cf bd fe b3 8a 3b 32 35 6b bd
       0.058810633 -0.10124241 0.0042328825 -0.057423778
000040 c8 0e c1 3d 5a cc 81 bd a5 07 8c 3e 4f a8 8a 3d
       0.094266474 -0.06337805 0.27349582 0.067703836
000050 47 2b dc bd 72 88 32 be e4 30 46 bd f1 02 ff bd
       -0.10750442 -0.17434862 -0.04838647 -0.12451733
000060 b1 8a ad bd 29 0b ed bc 82 d9 2b 3e 7d bb b4 3d
       -0.08473719 -0.028935986 0.16782191 0.08824823
000070 3b 78 c2 be 0a 01 57 3d ef 93 b5 3d 67 d0 73 3e
       -0.37982354 0.052491225 0.08866107 0.23809968
000080 aa 1d 43 3e ec aa 86 be f4 87 8c be 38 94 0e be
       0.19054285 -0.26302278 -0.27447474 -0.13923728
000090 da a6 89 3e d9 aa 19 bd 23 41 13 3e a3 99 46 be
       0.2688511 -0.03751645 0.14380316 -0.19394545
0000a0 c8 4f 91 3e f3 e0 5c bd be de 56 3e f1 e2 1f be
       0.2838118 -0.053925466 0.20983407 -0.15613915
0000b0 9f ba 1b be cb f1 17 3e 86 e9 1c be 6d e0 ad 3d
       -0.15207909 0.1483833 -0.15323457 0.084900714
0000c0 ae 8a d3 bc 69 4c a3 bd 9e 98 9b be b4 80 61 be
       -0.025822964 -0.079735585 -0.30389875 -0.22021753
0000d0 59 e8 3d 3e 08 42 43 bd f4 83 7d 3e cb c7 b6 3d
       0.18545665 -0.047670394 0.24757367 0.08924826
0000e0 a1 75 5d bc 6b 4f 45 be e1 02 34 3e 35 7c b7 3d
       -0.013516814 -0.19268577 0.17579223 0.089592375
0000f0 3a 1c 11 be 4e 59 3a 3e 7a 33 1a 3e 3c 2b 33 3e
       -0.14170924 0.1819813 0.15058699 0.17496961
000100 62 d7 dc bd 22 06 27 be 4d 09 14 3c 53 65 a0 bd
       -0.107832685 -0.16310933 0.009035421 -0.07831826
000110 ba 56 60 be 49 c4 51 be 3f cf 20 3e 19 a2 8a bd
       -0.21908084 -0.20485033 0.15704058 -0.06769199
000120 b1 9e 3a bc a2 0f 95 bc 01 f5 a2 3d bd 67 b7 3d
       -0.011390374 -0.01819593 0.07956887 0.089553334
000130 55 d3 c5 bd ec 15 81 3d 18 c3 a0 be 5a a1 42 3e
       -0.09659449 0.063030094 -0.31398845 0.19006863
000140 77 d8 4f be 0e 09 5f be c3 d0 8f 3c e1 7d 49 bd
       -0.20297419 -0.21780798 0.0175556 -0.049192313
000150 7d ea 5a 3e f5 f0 01 be 31 b6 9b be 4c 55 62 3e
       0.21378513 -0.12689574 -0.3041244 0.2210285
000160 54 44 10 3d 3c a0 84 3e 8f 66 8d bd c3 06 9a be
       0.035221413 0.259035 -0.06904327 -0.30083284
000170 79 8b 6d 3d 7e 01 8e 3d 7c ec 45 be 6e 41 0c be
       0.05799434 0.06933878 -0.19328493 -0.13696834
000180 57 8e 85 3d 84 e2 ec 3c 4f 2f 22 be e2 76 87 bd
       0.0652129 0.028916605 -0.1583836 -0.06614472
000190 d9 f7 3b 3e f3 60 94 3c 10 b6 82 3d 32 f4 15 3e
       0.18356265 0.018112635 0.06382382 0.14643934
0001a0 82 14 3f be ca 63 7b be 87 df 8d 3e 9b f7 76 3c
       -0.18660167 -0.24549785 0.277096 0.015073682
0001b0 46 3b 11 3e 49 8c c2 ba f6 3f 8a 3d c3 b5 58 3c
       0.14182767 -0.0014842834 0.06750481 0.013226929
0001c0 9a 50 99 3e 78 8a b6 be a6 ad 68 3d e3 ca d2 bc
       0.29944307 -0.35652518 0.05680623 -0.02573151
0001d0 3b 25 56 3e e2 a3 37 3e 08 ef 55 be 7e dd 54 be
       0.2091264 0.1793361 -0.20891964 -0.20787618
0001e0 0b 7c 39 bd c3 89 02 3e 9b ae b7 3e be 59 e8 bd
       -0.045284312 0.12747864 0.358754 -0.11345242
0001f0 1d ff 8e 3e c2 4e 0d be d5 e1 7c 3c 70 13 d7 bd
       0.2792901 -0.13799575 0.015434702 -0.10501754
000200 6b 51 2a 3e 22 37 89 3e c5 94 37 be 69 4c 80 3d
       0.16632621 0.26799875 -0.17927845 0.06264574
000210 db ee bc 3e e4 54 5b 3e 16 6c 37 3e cf 4e 22 3e
       0.36900982 0.21419102 0.17912325 0.15850376
000220 ef 9b 67 3e c3 5a 9f 3c 81 76 23 3d dc 74 b2 be
       0.22618078 0.019452458 0.039907936 -0.34854782
000230 98 73 07 be eb af 09 bd d3 30 35 be 8d 4b d8 3d
       -0.1322769 -0.033615034 -0.17694406 0.10561285
000240 e8 9a 7d 3d 80 c3 b4 bd 3a 8c e5 3d 3c f4 7c 3d
       0.06191531 -0.08826351 0.11208387 0.061756358
000250 39 c2 f8 3d df 66 35 3e cd e5 0e be 05 0d 7b 3e
       0.1214642 0.17715023 -0.1395485 0.24516685
000260 36 b2 08 bd f1 7d 22 bc ce 81 8b be 4e 41 3e be
       -0.03337308 -0.009917722 -0.2724747 -0.185796
000270 82 b5 6f be ae 36 2a be ea b4 d5 3c 62 ae 56 be
       -0.23409083 -0.16622421 0.026087243 -0.2096496
000280 be 30 88 be 89 ce b6 3d aa 7e 0f be 69 ec 42 3d
       -0.26599687 0.08926112 -0.14013162 0.04758874
000290 6c f7 18 be b6 2e 80 3d aa 3a d7 bd 45 d4 84 bd
       -0.14938134 0.062589094 -0.10509236 -0.064858
0002a0 6f e9 9c be 20 26 69 be 2b 8b 16 be 5b db 99 3c
       -0.30646846 -0.2276845 -0.14701526 0.018781355
0002b0 b0 b4 29 bd cb 45 92 bd 47 3a 55 3e 78 08 7c 3e
       -0.041432083 -0.07142218 0.20823012 0.24612606
0002c0 8b 9d 49 3e e2 9b 16 3c f0 7e 4c be 51 04 67 3e
       0.19689004 0.009192439 -0.19970298 0.2256024
0002d0 37 53 18 be a9 c9 10 3b cd 93 7f be 38 ec 00 be
       -0.14875494 0.0022092855 -0.24958725 -0.1259011
0002e0 c8 5f 95 be a0 c3 9d 3e 28 8e 7f be 40 66 92 be
       -0.29174638 0.30813313 -0.24956572 -0.28593636
0002f0 fa 99 20 bc 59 d6 1f be 68 8a d3 3d 12 92 e3 bd
       -0.009802336 -0.15609111 0.10329133 -0.11111845

image_conv.0.bias f4 [16]
000000 ba 2f 24 be f9 52 0b 3c 3a ce 37 3e 6b cf 2b be
       -0.16033831 0.008503669 0.17949763 -0.16778342
000010 c9 4e ea 3d 84 83 1d 3e 29 00 8d 3e aa ad 43 be
       0.11440808 0.153822 0.27539185 -0.19109216
000020 2c 64 c9 3d ef ca 9c be 39 45 c8 3e 03 c3 76 ba
       0.098335594 -0.30623576 0.39115313 -0.0009413214
000030 e1 ff 3a 3e f6 d1 bc bd 1e 0a 74 bd 56 31 92 bc
       0.18261673 -0.09219734 -0.05957996 -0.01784579

image_conv.3.weight f4 [32, 16, 2, 2]
000000 36 64 04 bd 41 f1 d5 3c 8e b0 89 bc 6d 28 d3 3c
       -0.03232213 0.026116015 -0.01680782 0.025776112
000010 7c f2 0e be 4d 7e 10 3d 2f e1 c3 3d 3a 9e 5c 3d
       -0.13959688 0.0352767 0.09564435 0.053861834
000020 42 28 05 3d e1 7e 11 be 0f 6a c3 bd 98 3c 90 3d
       0.032509096 -0.14208557 -0.095417134 0.07042807
000030 9e 87 01 be 6c 37 4d 3d 6c 30 ed bd d4 d3 0f be
       -0.1264939 0.050101683 -0.11581501 -0.1404565
000040 db 1f a9 3c 8f 5d 02 be 78 b5 66 bd 01 ae 51 3d
       0.020645073 -0.12731002 -0.056325406 0.051191334
000050 1f 20 2b 3d 7f 86 80 3d 3e f3 98 bd 39 1b 17 be
       0.04177868 0.06275653 -0.0746827 -0.14756478
000060 de eb 80 3d 87 bb aa bd 85 3e d0 bd a9 52 7e bc
       0.06294988 -0.08336549 -0.10168175 -0.015522637
000070 a1 71 de bd c7 5a 67 3d 9c 9c 83 3d 98 2a e2 bd
       -0.10861517 0.056483056 0.06426355 -0.1104328
000080 db 51 0a be 4f fb 8e bd b7 67 09 3d 49 09 55 bd
       -0.13507788 -0.06981527 0.033546176 -0.05201081
000090 55 59 cc bd 90 2c 3b bd 2e bb 15 be b8 42 05 be
       -0.09977976 -0.045696795 -0.14622185 -0.13013732
0000a0 b2 67 06 be b1 33 9d 3d c3 02 4d 3d b3 b8 c9 bd
       -0.13125494 0.07675875 0.050051462 -0.09849682
0000b0 73 24 00 bd ea 64 4c 3c 67 07 39 bc 60 11 d8 bd
       -0.03128476 0.012475232 -0.011293269 -0.10550189
0000c0 f8 5d 2b 3c 85 48 6e 3c fa 09 71 bd 79 98 79 bd
       0.010459416 0.014543657 -0.058847405 -0.060936425
0000d0 a7 9c 8a 3d d2 d3 b2 3d df 31 d1 bd ba 60 cd 3d
       0.0676816 0.08731808 -0.1021459 0.10028215
0000e0 69 73 c3 bc 6c ab 04 be 14 a4 dc 3c a2 d4 07 be
       -0.023858743 -0.12956017 0.026933707 -0.13264707
0000f0 ab 92 cc 3d 84 ac ad bd cc c0 2a 3d 1f d1 02 3d
       0.09988912 -0.0848017 0.04168777 0.031937715
000100 fd 98 31 3c 66 65 74 3d 23 a8 9f bd 0e d4 ba bd
       0.010839698 0.059667014 -0.077957414 -0.091224775
000110 ea fc d2 bd 77 db 52 bd 22 33 d7 bd 66 a0 f7 bc
       -0.10302146 -0.05147883 -0.105078 -0.030227851
000120 d4 28 5f bd d0 5b 9e bb 50 f4 8c 3d 87 1e aa 37
       -0.054482296 -0.0048327222 0.068825364 2.0279795e-05
000130 ad ce 28 bd aa 14 e2 bd e6 8c 20 be db 9f 66 3d
       -0.041212726 -0.110390976 -0.15678748 0.056304794
000140 38 8b 3b bd 3e 8b a0 bc 6b 3e 2d bd fc 09 eb bd
       -0.045787066 -0.019597646 -0.042295855 -0.11476514
000150 04 77 39 3d af 18 ff 3c b3 b5 fc bc 9e b3 d9 bd
       0.045279518 0.0311397 -0.03084836 -0.106299624
000160 41 87 a9 bd 03 db fd bc 20 c4 db bd 20 63 db bd
       -0.08277751 -0.030988222 -0.10730767 -0.10712266
000170 6b fd ff ba b4 26 be bb 09 3d e7 3c e8 cd 08 bd
       -0.001953048 -0.0058029536 0.028227346 -0.033399493
000180 73 df c0 bc b5 d5 bf bd ec c7 12 be c4 f8 88 3d
       -0.023544049 -0.09366933 -0.14334077 0.06688073
000190 73 4a 11 3d 9b 3e 88 3d 3b 65 05 bd 91 16 8d bd
       0.03547139 0.06652566 -0.032567244 -0.0688907
0001a0 81 8d 1a be 92 92 66 bd 15 eb 49 3d d2 04 37 be
       -0.15093042 -0.056292124 0.049296457 -0.17872933
0001b0 ab fb 0d bd a4 6c 40 3d 2b 34 58 3d 52 37 d2 bb
       -0.034663837 0.046978608 0.052784126 -0.006415286
0001c0 6d 26 59 bd c2 fa 46 bd d4 6e 74 bd 94 b0 b3 bd
       -0.05301516 -0.048578985 -0.059676006 -0.08773914
0001d0 63 d1 17 3d 5a 46 94 bd 2d c3 d8 bd 34 11 58 bb
       0.03706492 -0.07239981 -0.10584102 -0.0032969238
0001e0 e3 ca f4 bd 68 30 91 bd 66 d8 9e 3c fa 72 30 3c
       -0.1195276 -0.07089311 0.019390296 0.0107696
0001f0 50 86 f6 3d 51 79 d0 bd 08 9f d5 3c 01 6b db bc
       0.12037337 -0.10179389 0.026076809 -0.026784422
000200 02 4e 88 bd 38 0d de bd 5d b1 bf 3c 54 6e 98 bc
       -0.06655504 -0.10842365 0.023400003 -0.018607296
000210 cd 3e 45 bd f8 56 8f bd 0b e6 0f be f7 bd b4 3d
       -0.048155595 -0.0699901 -0.14052598 0.088252954
000220 de b9 8e bc d5 f2 65 bd ca cb c0 bd ac 98 02 be
       -0.017422613 -0.056139786 -0.0941387 -0.12753552
000230 09 7f e1 bd a5 68 82 bd 14 ac 28 3d cf b0 80 3b
       -0.11010558 -0.063676156 0.04117973 0.003927327
000240 1c aa 17 bd 89 a4 41 bd 9d 5c 22 3d 9d 24 42 3d
       -0.037027463 -0.047276054 0.039639104 0.0473982
000250 ee c3 ea 3d 0c 20 bd 3c aa 9c ab 3c 5d 4b 5a bd
       0.11463152 0.02308657 0.020948727 -0.05329453
000260 73 6b b1 bd 93 04 15 be fe 9a 34 3d 9a 0f 77 bd
       -0.086630724 -0.14552526 0.044093125 -0.060317613
000270 4d 1f 33 3d f0 ca 60 3a 6b e3 09 be c8 93 b3 bd
       0.043731023 0.0008575162 -0.1346566 -0.087684214
000280 4c 8d 06 3d 1f 95 d1 bc 8c ef 11 be 05 2c da 3c
       0.032849595 -0.025583802 -0.14251536 0.026632318
000290 47 4f 28 3c 27 6e 16 bd 96 82 a9 3c ef ef 59 bb
       0.010272807 -0.036726143 0.020692151 -0.0033254584
0002a0 51 5c 8f bd d7 67 b6 3d 58 84 2f 3d d1 d9 04 bc
       -0.0700003 0.08906525 0.042850822 -0.008108572
0002b0 c4 77 c2 bc 95 f4 d8 bd 04 fc 5f 3d 0f bb 9d bd
       -0.02373875 -0.10593525 0.0546837 -0.07701694
0002c0 7e ab ab bd 3a 41 64 3d 12 b9 9c 3b dd 58 c9 bc
       -0.08382319 0.055726267 0.0047828043 -0.024578506
0002d0 d9 e8 94 bb 1e fa 43 bd f5 3f dd bb a0 e7 71 3d
       -0.004544359 -0.047845952 -0.006752009 0.059058785
0002e0 18 e3 3b 3d 7c fb 6a bd 9c 3d 91 3d 27 f8 6b bd
       0.04587087 -0.05736874 0.07091829 -0.057609703
0002f0 5c 9c a6 3d 6e 8c 3d 3c cd 5c e4 3d d4 88 81 3d
       0.08135292 0.011569126 0.11150513 0.06324926
000300 c1 b5 a6 bd ba 19 95 3d 73 68 bc bc 76 22 ee bd
       -0.081401356 0.072802976 -0.022999024 -0.11627667
000310 73 24 3b bd 83 ef 09 be fc 07 cc bd f7 b1 01 be
       -0.045689058 -0.13470273 -0.099624604 -0.12665544
000320 5f dd 7d 3d b9 f6 4b bd 3f cd 6e bd 02 eb cd 3c
       0.061978694 -0.04979584 -0.058301207 0.025136475
000330 b9 96 d5 3c 0b ef e1 bd 24 4f 66 3c a6 e3 30 3c
       0.026072847 -0.11031922 0.0140569545 0.010796463
000340 40 7f d0 bd 57 71 d3 3d 40 1f e5 bd e2 43 b0 bd
       -0.10180521 0.10324352 -0.11187601 -0.086066976
000350 97 7e 03 be 6c 93 b6 3d 83 d0 5a bc e4 49 90 3d
       -0.12841259 0.08914837 -0.013355377 0.070453435
000360 b8 fb ab bc 63 8e 20 3d 06 8d 9b bd 43 ac 08 be
       -0.020994052 0.03919829 -0.075952575 -0.13346963
000370 4a 25 11 bc 97 70 0b bd 5c bd 58 bd 8c b7 b4 bd
       -0.008858988 -0.03404292 -0.052914962 -0.08824071
000380 82 6b c1 bc b5 1c 03 3c 76 1f 61 3c eb d0 0a be
       -0.023610834 0.00800245 0.013740411 -0.13556258
000390 be 6d 12 3d 53 b2 7c bc 08 06 58 3d 88 e7 60 3d
       0.03574919 -0.015423375 0.052740127 0.054908305
0003a0 59 e4 fd bd 12 f2 c0 3d 68 6e 1e be 26 14 41 3d
       -0.123970695 0.09421171 -0.15471804 0.047138356
0003b0 56 b1 aa bc f2 27 f5 3c c2 8b d7 bd 10 6c 29 3d
       -0.020836513 0.029926274 -0.105247036 0.041362822
0003c0 fd 0b ba bd 9b 6b 10 be d1 1a 2d 3b f2 71 fc 3c
       -0.09084318 -0.14103548 0.002641369 0.030816052
0003d0 aa 55 d4 3d a5 5a ab bc 5f dc ae 3d ad f7 3e 3d
       0.103679016 -0.020917246 0.08538126 0.04662292
0003e0 d6 6c ad bd 72 1b f9 bd 18 20 fc 3c b6 44 da bd
       -0.084680244 -0.12163438 0.030777022 -0.10657637
0003f0 bb ff 65 3d 5e 22 a9 bd 5f d5 86 3d d8 d1 85 3d
       0.056152087 -0.08258508 0.06583666 0.06534165

image_conv.3.bias f4 [32]
000000 2e 1c 98 bd ce 56 a7 bd 56 33 63 bc 30 c2 d9 bd
       -0.0742725 -0.081708536 -0.01386722 -0.106327415
000010 7f 81 fd bd 60 30 94 bd 02 22 1a be de 94 81 3e
       -0.12378215 -0.07235789 -0.15052035 0.2530889
000020 3a 96 bb bc b0 21 d3 3d 5a b6 49 3e de 9b 0f 3e
       -0.022898782 0.1030916 0.19698468 0.14024302
000030 96 51 cf bd cc ed d6 3d 8f 47 83 bd 07 2d 90 3c
       -0.10122983 0.10494575 -0.06410133 0.017599596
000040 fd b7 cc b9 85 2b 11 3e 44 d8 d5 3c c4 8d aa bd
       -0.00039046994 0.14176758 0.0261041 -0.08327821
000050 02 15 8e bd 41 4c 82 3d 3b 04 bd 3a cc f8 06 be
       -0.06937601 0.063622005 0.0014420816 -0.13180846
000060 c4 80 52 bb c2 6e bc bb 25 87 8a bd b6 ca d9 bc
       -0.0032120207 -0.005750508 -0.06764058 -0.026585918
000070 07 d5 03 be 0b 0b 80 bb 36 36 c9 bd f1 63 fb bc
       -0.12874232 -0.0039075664 -0.09824793 -0.030687304

image_conv.5.weight f4 [64, 32, 2, 2]
000000 ad 6d 76 3d 79 00 40 bd ef 51 08 bd 27 94 42 3c
       0.06016319 -0.04687545 -0.033281263 0.011876143
000010 0f 4a 6c bb d1 4e ae 3d 24 e1 0c bc 5b 0b 39 3d
       -0.0036054885 0.08511127 -0.0085986 0.045176845
000020 53 52 2a bb b6 fa ff 3c 36 5c 9f 3c c8 3b 95 bd
       -0.002598901 0.031247478 0.01945315 -0.07286793
000030 63 a6 45 3d 0d b6 d4 bc bb de 6c 3d 9d e2 c1 bd
       0.048254382 -0.025965715 0.0578296 -0.09467051
000040 4e 7f 2b bc 69 96 23 3d 39 c3 68 3d 8a 08 90 3b
       -0.0104673635 0.039938364 0.056826804 0.004395549
000050 c7 ad a3 bd 9b 85 f7 bd 7b 48 d2 bd 9d 2e 92 3d
       -0.0799213 -0.1208603 -0.10267731 0.07137797
000060 92 c4 9f bd 5a 74 14 bd ee 06 30 3d bb 85 39 3d
       -0.07801165 -0.036243774 0.04297536 0.04529355
000070 7e 2c f4 3d 46 28 0e 3e 7c f9 7a 3e dc 85 ba 3e
       0.11922549 0.1388255 0.24509233 0.36430252
000080 15 d8 fa bb 09 71 ff 3c 5e e8 31 bc 57 5f 98 3d
       -0.0076551535 0.031181829 -0.010858623 0.0744006
000090 9b e4 80 bc 70 5f 6c bd 8e 1d 33 3c 88 3a 52 bd
       -0.015734008 -0.057708204 0.010932339 -0.05132535
0000a0 14 72 42 3e be 5d 8a 3e 0d b4 41 3d 3e 84 13 3e
       0.1898883 0.27024645 0.04729085 0.14405915
0000b0 db f7 0d 3e 33 91 4b 3e f9 04 9d 3d b6 c6 64 3e
       0.1386408 0.19879608 0.07666964 0.22341427
0000c0 4d cb 0c 3d 23 f3 0d bd 8a 6c f7 3b b3 35 23 bc
       0.03437357 -0.0346557 0.0075507807 -0.009961533
0000d0 d7 b3 89 3d e6 5e b5 3d 56 07 8a 3d 6f 70 af 3d
       0.06723755 0.08855991 0.067396805 0.08566367
0000e0 88 99 81 3d ac da a2 bd 95 3c 56 bb e4 ae aa 3d
       0.06328112 -0.079518646 -0.0032689918 0.08334139
0000f0 b8 87 eb 3d 92 cc 88 bc 0f 6a 34 3e 64 26 9f 3d
       0.11500496 -0.01669911 0.17618583 0.07770994
000100 f2 50 91 3c 93 7f a1 3d cc d9 9d 3d 31 02 d3 bb
       0.017738793 0.07885661 0.07707557 -0.00643947
000110 13 5b f8 3d 9a 65 34 3e 8b cc b7 bb 60 32 07 3e
       0.12126746 0.17616883 -0.0056091 0.1320281
000120 53 56 53 bd 27 88 19 3d c3 4f 19 3d e6 9b cd bc
       -0.051595997 0.03748336 0.037429582 -0.025098752
000130 6d 22 ba 3d 21 cd af 3c 35 55 5a 3e ad 34 d5 3d
       0.090885974 0.021460118 0.21321566 0.10410438
000140 d6 36 89 3d b9 fa be bd 2c c8 ca bd 6f 07 03 bd
       0.06699912 -0.09325165 -0.09901461 -0.03198951
000150 94 7e 95 3d e1 00 eb b9 01 a2 8e 3c fd 8c 2b 3b
       0.072995335 -0.00044823348 0.017411234 0.0026176565
000160 02 79 b7 3d 64 c8 2b 3e 8c c5 e2 3d 2f e3 53 bd
       0.08958627 0.16775662 0.11072835 -0.05173033
000170 d2 d0 58 bd 30 e1 8c bd 54 26 d6 bc 1a 2c a3 ba
       -0.05293352 -0.068788886 -0.026141323 -0.0012449056
000180 32 a5 85 3d ab ed 41 bd a6 c9 01 3e f7 46 f6 3d
       0.06525649 -0.0473458 0.12674579 0.12025254
000190 95 17 73 3d 47 c9 af 3d 62 5b ae 3d a6 3d 8d bc
       0.05934866 0.085833125 0.08513524 -0.01724131
0001a0 ce c0 91 bd 61 9e 05 3b 8d f2 20 3d 86 19 12 bd
       -0.07116853 0.002038859 0.039293814 -0.035668872
0001b0 1f 36 df 3c 85 4f e6 bc 0f 4e 8a bd 26 18 21 bd
       0.027247487 -0.02811409 -0.0675317 -0.03932967
0001c0 ce 40 33 bc 17 a9 4c 3d c4 b0 80 3d c4 b3 53 3d
       -0.010940744 0.049965944 0.06283715 0.05168511
0001d0 91 94 47 3d 44 03 96 bd 43 6f b0 bd e2 e8 26 3c
       0.04872567 -0.073248416 -0.086149715 0.0101873595
0001e0 f0 46 b2 3c 54 43 75 bd 45 10 94 3d 49 7f 68 bc
       0.021762341 -0.059878662 0.07229666 -0.014190503
0001f0 e4 f4 68 bd 41 84 3e 3d c5 73 97 3d 94 89 03 3c
       -0.05687417 0.046512846 0.07395128 0.008028407
000200 aa c6 05 bd 33 d3 a9 3b ff 98 8e bd 2c 13 4d 3d
       -0.032660164 0.0051826476 -0.069627754 0.05006711
000210 41 47 63 3d f7 ec aa bc a3 82 8f bd a2 14 7b 3d
       0.055487875 -0.020864947 -0.07007339 0.061298974
000220 ea 2c 9f bd 57 1d 3e bd c1 c8 41 3d 85 ed 33 bd
       -0.077722386 -0.0464147 0.047310594 -0.04392769
000230 63 e7 89 3c 49 cb 94 3d ef 11 37 bc 88 c9 a3 bc
       0.016833967 0.07265336 -0.011173709 -0.019993559
000240 3a cc a7 3d 1a 61 77 3c 15 8f fc 3c f9 ee ed bc
       0.0819325 0.015098834 0.030829946 -0.029044615
000250 5a 2b 9c bd d9 b4 62 3c fc 04 56 bd ad 3d 3b bd
       -0.07625456 0.013837063 -0.052250847 -0.045713115
000260 18 50 9a bd cb 8f 92 3d e3 a5 7e bd 7a 66 af 3c
       -0.07534808 0.071563326 -0.06216992 0.02141117
000270 b5 7c 14 3b bb 15 55 3d 50 60 03 3d 83 94 92 bd
       0.002265734 0.052022677 0.032074273 -0.071572326
000280 c1 78 13 3d cd d1 43 bd bf 75 8c 38 58 11 0f bd
       0.03600383 -0.047807503 6.697652e-05 -0.03492865
000290 a2 20 a5 bd b5 cf a1 3c 35 ef 82 bd 99 67 a3 3d
       -0.08062865 0.019752363 -0.06393281 0.07978744
0002a0 f7 e7 11 3d b4 75 fa bc 79 01 54 bd 59 d8 a6 bd
       0.03562161 -0.030573703 -0.051759217 -0.08146734
0002b0 a2 54 3a bd de 8c 6b bd 77 dd e2 3b 0f 9b ae 3c
       -0.04549087 -0.05750739 0.0069233733 0.021314172
0002c0 4f fb 9c 3d 99 d6 c2 3b b3 15 93 bc df b8 39 bd
       0.07665121 0.005945992 -0.017954683 -0.045342322
0002d0 75 8d 90 bc 47 d0 36 3d 8a 34 b5 bd 96 04 aa bd
       -0.017645577 0.044632223 -0.08847912 -0.08301656
0002e0 10 ef 25 3d fc dd ff bc 79 1e a8 bc be 89 79 bd
       0.04051119 -0.03123378 -0.020522343 -0.060922377
0002f0 b4 29 86 bd 22 ca 9f bd a8 9c 77 bd a8 de b3 bd
       -0.06550923 -0.07802226 -0.060452133 -0.08782703
000300 6d 66 3a bd b1 3a 91 3d 6b 96 58 bd 6b 97 89 3d
       -0.045507837 0.070912726 -0.052877825 0.06718334
000310 af f6 9e bd d4 a9 be 3b 26 83 2c bc d6 72 92 bd
       -0.07761895 0.005818585 -0.010529315 -0.071508095
000320 a9 6c 81 ba ef 58 8e 3d f5 6b 30 bd 59 cf 9d 3d
       -0.0009874302 0.069505565 -0.043071706 0.07705564
000330 77 f7 86 bc 20 f4 e4 bc 9a 23 13 3d 6f 82 8d 3d
       -0.016475422 -0.02794844 0.035922624 0.06909644
000340 d8 db 90 3d b0 55 3f 3d 00 2d ad bd a8 6d c1 bc
       0.07073182 0.046712577 -0.08455849 -0.023611858
000350 98 f2 99 3b bb b6 39 bd 03 09 15 3d 24 d7 c8 bc
       0.004698109 -0.04534028 0.036385547 -0.02451665
000360 41 b0 a9 bd 0f e1 2e bd f6 8f 82 bd 97 d3 bb 3c
       -0.08285571 -0.0426951 -0.063751146 0.022928042
000370 c6 b9 83 bd a9 85 b6 bc 8b f4 14 3c 95 1c 1c 3d
       -0.06431918 -0.022280531 0.009091507 0.038113195
000380 ca 7a 92 bd 02 a4 5b 3d 4a d9 76 bd 6c 99 93 bd
       -0.071523264 0.053623207 -0.060265817 -0.07206997
000390 ab e9 09 3d 8f 15 3f bd 5c 9a 7c 3d b7 15 26 3d
       0.03367011 -0.04665142 0.061670646 0.040548053
0003a0 4b b9 2f bd 70 f2 9e bc 6c 80 25 bd 47 81 09 bc
       -0.04290132 -0.019402713 -0.040405676 -0.0083926385
0003b0 a0 69 5f b9 f3 e2 81 3b d1 95 6c bd e0 71 8a bd
       -0.00021306286 0.003963822 -0.057760064 -0.06760001
0003c0 2b 87 67 bd 65 7e 74 3c d7 7d 14 3c fd 3f 36 bd
       -0.05652539 0.014922713 0.009063206 -0.044494618
0003d0 2d b6 6a bc 64 59 c6 bb 97 87 81 3d 46 83 aa bd
       -0.014325661 -0.0060531367 0.0632469 -0.0832582
0003e0 ca 45 21 bd 64 c0 a9 bc c9 d8 6d bc e4 a6 60 bd
       -0.039373197 -0.020721622 -0.014517018 -0.05484666
0003f0 e0 6f 1f 3d ef 15 08 bd 9d 66 83 3b fc f4 4d bd
       0.03892505 -0.033224043 0.004010035 -0.050282463

image_conv.5.bias f4 [64]
000000 b3 13 0d 3e 36 08 ce bc 51 c7 8b bd 0c 7d 4e bd
       0.13777046 -0.0251504 -0.06825126 -0.050412223
000010 d6 95 7b bd 97 80 fe bc d4 fb 76 bc e2 85 6c bd
       -0.06142219 -0.031067176 -0.015074689 -0.057744868
000020 2e 3e 1b bd 98 5e 98 3d ee c6 ab bd 5a 59 d9 3b
       -0.037901096 0.07439917 -0.08387552 0.006632966
000030 a4 c8 8d bd 68 56 a9 3c 3a 8a f6 bc 22 98 6b bd
       -0.06923035 0.020671085 -0.030095208 -0.057518132
000040 09 82 04 3d 4f 7e 1d 3e 8b 66 1a bd 5a 1c 06 3e
       0.032350574 0.15380214 -0.03769545 0.13096753
000050 b5 46 d7 bc 46 29 03 3e 7f b0 1c bd 05 49 93 bd
       -0.026278833 0.12808713 -0.038254257 -0.07191662
000060 b0 d8 63 bd f5 3a 0d bd 1f d5 3b 3e 64 14 2b 3c
       -0.05562657 -0.034480054 0.18343018 0.010441873
000070 5d 9c 0a 3d ea 5a ec bd 35 2e be 3c cd 86 e0 bb
       0.033840526 -0.11540778 0.023215393 -0.006852007
000080 ce 30 b5 bd aa c5 01 be f1 92 0a 3d b9 c8 f1 bd
       -0.088471994 -0.12673059 0.03383154 -0.11805863
000090 cc 08 02 be f4 db e3 bd 54 db 23 bd da 1f f6 3c
       -0.12698668 -0.11125937 -0.04000409 0.030044485
0000a0 f9 78 b7 bd 32 b0 11 bd 84 1e 5b bd 3c 1b fb bb
       -0.089586206 -0.035568424 -0.0534959 -0.0076631587
0000b0 5c 53 81 bd 80 08 d7 3d 21 2f f2 bc 3f 51 bd bd
       -0.06314728 0.10499668 -0.029563488 -0.09244012
0000c0 39 f7 98 3d 1e 4e ea bd a7 66 0c be d3 20 a6 bd
       0.07469029 -0.11440681 -0.13711034 -0.081117295
0000d0 c0 46 02 3d cb 89 7d bc fb 54 f1 bd 15 fd d3 3c
       0.031805754 -0.015474747 -0.11783787 0.025877515
0000e0 5d e7 0c be 5c 29 5d 3c 29 e6 43 3b 69 21 e6 bd
       -0.13760133 0.01349863 0.0029891825 -0.11236841
0000f0 00 bc b3 bd 98 d0 07 bd 74 94 ae 3b 36 69 9e bd
       -0.087760925 -0.033157915 0.0053277556 -0.07734911

memory_rnn.weight_ih f4 [256, 64]
000000 e5 c1 2a be cc 4b d4 bd 54 0c 93 3d 59 4e 97 3d
       -0.16675527 -0.103660196 0.07180086 0.073879905
000010 14 0f 67 3c 89 6d ab bc 75 dc 05 3d e2 07 78 bd
       0.014102716 -0.020926254 0.032680947 -0.060554393
000020 5e 1b ed 3d fe 98 25 be 04 0d 12 3d 91 d4 bb 3d
       0.115774855 -0.16171643 0.035656944 0.09171403
000030 c9 90 8a bd c3 3b 0f 3d d4 f0 f3 3c 01 b8 fd bd
       -0.06765897 0.034969103 0.029777922 -0.123886116
000040 9b ac 15 be 37 43 fe bc d5 f2 17 3d 3b be 0a be
       -0.14616625 -0.03103791 0.037096817 -0.1354913
000050 e9 c5 84 bc 9a ae 6a be 7b fd 0d be 0a 47 d0 bb
       -0.016207652 -0.22918168 -0.13866226 -0.0063561248
000060 11 d2 b2 bd 11 25 f5 bd 4a 6b 08 be 0d 9c d8 bd
       -0.08731473 -0.119699605 -0.13322178 -0.10576639
000070 9b 2b a1 3d ed ae b4 bd 45 27 01 be 27 89 8d bb
       0.07869645 -0.08822427 -0.12612636 -0.0043193283
000080 fe 31 bb bd d9 8a 98 bc 40 cb 9b 3d 9a 55 dd bd
       -0.09140395 -0.018620895 0.07607126 -0.10807343
000090 bc 43 d2 3c 93 ef 09 bd 76 77 b5 3d 57 24 0a bc
       0.025667064 -0.03367574 0.08860676 -0.008431516
0000a0 dc 99 bf bc 5a 2d e6 bc 59 b2 1e bd 3e 31 44 3d
       -0.023388796 -0.028097797 -0.038744304 0.047898524
0000b0 3d 46 8b bd 6c a7 18 3c ed 35 a1 3d 9b a2 cd bd
       -0.06800506 0.00931726 0.07871614 -0.1004078
0000c0 9f 9e d5 3d a2 4e 18 bc ab 59 1b 3d d3 5e 6e bd
       0.10430645 -0.009296091 0.03792731 -0.0581959
0000d0 5c 0d 9f bd cd a2 41 3b 81 b5 0d 3d f4 ad a4 bd
       -0.0776622 0.00295465 0.034596924 -0.080409914
0000e0 31 f5 93 bc 73 95 a5 bd 1e 19 b3 3d 45 cb 0c 3d
       -0.018061252 -0.08085146 0.08745025 0.03437354
0000f0 22 6d b1 bc 01 35 8d bd be 87 f3 bd 6c cb 21 bd
       -0.021658484 -0.06894875 -0.11891125 -0.03950064
000100 07 d3 ea bd d9 08 e6 3d 99 f1 0e be 5c 55 7a bd
       -0.114660315 0.11232156 -0.1395935 -0.06111656
000110 a4 65 a7 bd f5 99 b0 3d 85 42 f8 bd 9f 70 d6 3c
       -0.08173683 0.08623115 -0.121220626 0.026176749
000120 50 58 c8 3c 74 61 8b bc 10 e8 c1 3c 20 83 b9 3b
       0.024456173 -0.017014243 0.023670226 0.0056613833
000130 1d de ac 3d 8d d0 02 be c4 ca c5 3d 7e 6c 47 3d
       0.08440802 -0.12774868 0.09657815 0.04868745
000140 1c f9 0a be 9b 5c 02 be e9 d2 54 3d c8 23 63 be
       -0.1357159 -0.12730639 0.051958952 -0.22181618
000150 fb fd 39 3c 29 ec 6e be c2 44 17 3d ef 33 d1 bd
       0.011352058 -0.23332275 0.036930807 -0.10214984
000160 ed bb 1f 3d 42 f9 e9 bd 05 2b a7 bd 52 1b e7 bd
       0.03899758 -0.11424495 -0.08162502 -0.11284508
000170 f7 8d 93 bd d2 a7 d1 bc 04 73 a5 3c 3d b1 93 bc
       -0.07204812 -0.025592718 0.020196445 -0.01802885
000180 10 c8 e8 3d f1 86 ec bd 72 4b 98 3d 1a 2a c6 bd
       0.11366284 -0.115491755 0.07436265 -0.09675999
000190 65 47 5a bd 07 75 c0 bc 49 96 e0 bd 70 e2 69 3d
       -0.053290743 -0.023493303 -0.109661646 0.057100713
0001a0 30 9e e9 3d 2d 19 28 bd 22 3b b6 bc 15 eb a2 bc
       0.11407125 -0.041039634 -0.022244994 -0.019887486
0001b0 32 ca 91 3d 39 7d 80 3c e8 85 0f 3d f8 12 f8 3c
       0.07118644 0.01568471 0.035039812 0.030282483
0001c0 96 99 bc 3d b8 03 98 bd 42 a4 83 3d dc 81 94 bd
       0.09208982 -0.07422584 0.06427814 -0.07251331
0001d0 a5 bf 5c bd e8 2c 07 be 2e eb c9 bc 23 32 bf 3d
       -0.053893704 -0.13200724 -0.024648275 0.09335735
0001e0 9e 1a d9 3d f2 4e 0f bd f0 e8 89 bd aa fa b1 bc
       0.1060078 -0.034987397 -0.067338824 -0.021725971
0001f0 75 0d de 3d c4 b7 54 3c ec c0 64 bd 25 57 79 bd
       0.108424105 0.012983266 -0.055848047 -0.060874123
000200 37 23 83 bc 48 64 9f bd 4f f2 41 bd 0a 7f ea bc
       -0.016008003 -0.07782799 -0.047350224 -0.02862503
000210 0b 2c e4 3d 24 98 c4 3d 2a 48 b6 3d 83 6c bc bd
       0.11141213 0.09599331 0.08900483 -0.092003845
000220 9d ec 2a 3d 19 49 01 be 95 3a 63 3d 77 73 93 3d
       0.04172956 -0.12625541 0.05547579 0.071997575
000230 0c d3 e6 bd 17 bb 42 be 83 e9 7f b9 c9 23 30 be
       -0.11270723 -0.19016682 -0.00024405685 -0.17201151
000240 ea b2 94 bd ed db 25 be 48 20 94 bd 21 ab f3 bd
       -0.07260688 -0.16197176 -0.0723272 -0.118978746
000250 5f d6 79 3d d0 bd 34 3c da 7b 2f bd 53 ae b4 3d
       0.060995456 0.011031583 -0.042842723 0.08822312
000260 c6 b4 29 3d 5d 18 02 3e 00 d4 67 be ac c1 f3 bd
       0.041432165 0.12704606 -0.22639465 -0.11902174
000270 00 99 2a bd 1d 30 aa bc ef d2 ed bd 66 d4 17 3d
       -0.04164982 -0.020774895 -0.11612498 0.037067793
000280 31 0b bf 3d 2f 41 87 3d a3 4f 9d bd 52 70 cf 3d
       0.093283065 0.0660423 -0.07681205 0.10128845
000290 17 ce 38 3a 35 a7 af bc db 8a 0f be 3a 5f 63 bd
       0.0007049753 -0.021442035 -0.14017813 -0.055510737
0002a0 6b 1e 25 3d e5 09 78 3c ff 7f bb bd 5c 0a 7f 3d
       0.040312212 0.015139078 -0.09155273 0.06226574
0002b0 da 27 44 3d 37 c4 b4 bc 87 b4 98 bd 4a 27 87 bd
       0.047889568 -0.022066219 -0.07456308 -0.06599291
0002c0 38 20 98 3d 4f ec ec bd 09 f6 1c 3d de 17 d2 3b
       0.0742802 -0.1156851 0.038320575 0.0064115366
0002d0 b5 ed 0e 39 ea 83 d0 3d 2b 4c 6d 3d 21 e5 dc 3c
       0.00013630728 0.101814106 0.057933968 0.026964726
0002e0 67 31 a3 3b 5c 0d f7 3d 45 5d 76 bc 17 8e 80 bd
       0.0049802545 0.12063095 -0.015036886 -0.062771015
0002f0 76 56 55 bc 66 31 a2 bd 1c 57 78 bd f4 fb e5 3c
       -0.013021102 -0.07919578 -0.06062995 0.028074242
000300 dc 36 a7 bc 41 34 c2 3d 9c de 9d 3d a0 5b be 3d
       -0.020411901 0.09482623 0.07708475 0.0929482
000310 27 d1 ef 3d e6 02 9a bd 97 51 1f bd 52 b7 6b 3d
       0.117098145 -0.07520084 -0.03889617 0.057547875
000320 38 fe 54 bd 41 3d d2 bd c8 c8 d4 3d 57 d7 46 bc
       -0.052000254 -0.102655895 0.103898585 -0.012136302
000330 2f 9a 0f bd 36 6b 84 bd 41 4f c4 3d f1 bb db bd
       -0.03505915 -0.06465761 0.09585429 -0.10729206
000340 ad 1c f0 bd 7a aa 68 be 0f fc 14 3c 9a 51 1a be
       -0.117242195 -0.22721282 0.009093299 -0.15070191
000350 eb 0d 19 3d e6 25 6b be 78 5c 47 be 93 ee c4 3d
       0.03736679 -0.22963676 -0.19468868 0.09615817
000360 33 8d 87 bd 28 eb b0 3b d5 ef 1b bc b7 70 f7 3c
       -0.066187285 0.0053991266 -0.00951763 0.030205114
000370 2f 9d 13 bc b7 e2 fa bd 73 35 cd bd 8f 62 fa bd
       -0.009009643 -0.12250274 -0.1001996 -0.1222583
000380 bf f1 3c bc 76 c6 d3 bd 59 d9 a9 3d 7b 52 cc bd
       -0.011532246 -0.10340588 0.08293409 -0.099766694
000390 70 18 28 bd 54 84 55 3d 37 5f bd bd e3 69 c1 3d
       -0.04103893 0.05212815 -0.092466764 0.094440244
0003a0 7e 1f e3 3c 39 d2 f5 3d f4 9f ee ba 19 0d 8a 3d
       0.027724978 0.120029874 -0.0018205629 0.067407794
0003b0 6c 23 00 be 41 bc 1a be bb fc 64 3d e7 46 74 bd
       -0.12513512 -0.15110876 0.055905085 -0.05963793
0003c0 d2 e2 d4 3c f4 dc a3 bd cc 01 cf 3c 45 c5 77 3c
       0.025987063 -0.08001128 0.025269412 0.015122716
0003d0 a6 c4 20 be 4c 63 b5 bc 32 8f ef 3d af 03 1c be
       -0.15700015 -0.022142075 0.11697234 -0.1523578
0003e0 57 f5 81 3c 8b eb 54 3d 49 96 e4 3d 90 33 07 be
       0.015864057 0.051982444 0.11161477 -0.13203263
0003f0 76 62 57 3d d5 9c c6 3d 7d 48 a1 3d e9 e5 ea bd
       0.052584134 0.09697882 0.07875154 -0.11469633

memory_rnn.weight_hh f4 [256, 64]
000000 be 94 53 3d 82 3b ac 3d ff 99 56 3e 37 66 87 3c
       0.051655523 0.08409788 0.20957182 0.016528232
000010 3b 5d 7e 3d 42 ba a2 3d e4 99 d4 bd ad 6f 49 bc
       0.06210063 0.07945682 -0.10380915 -0.012294692
000020 24 48 35 bd e1 38 eb bd 92 6d a1 3c 14 da 66 3e
       -0.04425825 -0.11485458 0.019705568 0.22544128
000030 30 fe a9 bd 74 09 c5 3d 3e 6d e6 bd 15 4d 8f bd
       -0.083004355 0.09620944 -0.11251305 -0.06997124
000040 2b 4e e2 bc 6a 57 c7 3d 1a 3b e2 3d 3c 2e f8 bd
       -0.027625164 0.0973347 0.11046429 -0.121181935
000050 36 02 9b 3d 64 ff 00 be a5 2e 40 3d 25 1e f1 3d
       0.07568781 -0.12597424 0.046919484 0.11773328
000060 d9 77 0b be 08 0b fe bd d8 da 98 3d af 95 ae bd
       -0.13619937 -0.12404448 0.07463616 -0.08524644
000070 80 5a 43 3d cf 6a e9 3d 72 04 08 3e 1c 4e b7 bd
       0.04769373 0.11397325 0.13282946 -0.08950445
000080 39 ae ab 3c d9 2b de 3d b2 37 93 3d 85 70 67 bb
       0.0209571 0.10848207 0.071883574 -0.003531487
000090 d2 53 07 be 8e 9b 04 be c2 33 a4 3d 35 b6 9a bd
       -0.13215569 -0.12949964 0.080176845 -0.075542845
0000a0 53 7f d8 bd 55 1e 6c bb ad 3e 1a 3c d5 31 7d bd
       -0.1057116 -0.0036028821 0.009414357 -0.0618151
0000b0 d5 e3 be bd 9d 2f 91 3d f6 6f 35 3e 02 9d 79 bd
       -0.09320799 0.0708916 0.17718491 -0.06094075
0000c0 2f 9d dc bd 80 de 00 be 14 bd b8 bc 1c b3 01 3b
       -0.10772168 -0.12584877 -0.022551097 0.0019790595
0000d0 6a 44 12 be e5 24 de bd 42 9c a8 bd 28 3e 09 3e
       -0.1428391 -0.10846881 -0.08232929 0.13402617
0000e0 d2 c9 b9 bd 27 00 3b bd 7f 34 c8 3d b6 88 03 bc
       -0.09071697 -0.045654442 0.09775638 -0.0080282
0000f0 2b cd 8f 3c ff ff 57 3c 85 03 84 3d 86 91 e9 3d
       0.017553886 0.013183593 0.06445984 0.114047095
000100 a0 f1 cd 3d 61 ee e6 bd 9b 5d cc 3d e7 34 7f 3d
       0.10055852 -0.11275936 0.09978791 0.06230631
000110 58 ad 85 3d 07 bd 67 3c 36 83 be 3d 1e 0d d4 3c
       0.06527203 0.014144189 0.0930237 0.025885161
000120 10 b4 86 3d 85 69 c2 bc 00 5c 81 bd 3d 3c 98 bd
       0.06577313 -0.023731956 -0.06316376 -0.074333645
000130 49 42 56 bb c8 01 9b 3b d4 f9 9c bd f9 41 ab bd
       -0.0032693318 0.004730437 -0.076648384 -0.08362193
000140 7d 51 e1 bd f4 26 95 3d a2 7d 1e 3e d5 62 bf bd
       -0.11001871 0.0728282 0.15477613 -0.093450226
000150 a8 cb b3 bc 5a cc 38 3d 19 eb e3 bd 86 99 cb 3d
       -0.021947697 0.04511676 -0.11128826 0.09941392
000160 ad e5 c6 3d 13 2b 0d 3d d8 5e 9c bc e3 72 ae bd
       0.09711776 0.034464907 -0.019088194 -0.08518007
000170 0a 94 2c 3d fa ba f0 3d 7b a0 8c bd bb 00 a6 bd
       0.04213337 0.11754413 -0.06866547 -0.08105608
000180 72 5d a5 bd 45 12 ec 3c 0b 77 07 3e d0 0e a7 bd
       -0.08074464 0.028817305 0.13229005 -0.08157122
000190 ca 72 03 be ec 54 ce bd fe d3 10 3e 3b 45 8b bd
       -0.12836757 -0.10074791 0.14143369 -0.06800314
0001a0 a2 02 da bd e8 00 70 3d af 83 09 be d9 ec aa bd
       -0.106450334 0.058594614 -0.1342914 -0.08345956
0001b0 03 10 0d 3d eb ea ca 3d 42 a6 b5 3a de af c8 3c
       0.034439098 0.09908088 0.0013858753 0.024497923
0001c0 b3 a6 f9 bd 74 55 d7 bb 48 07 ac 3d eb 5d b5 3d
       -0.121899985 -0.006571466 0.08399826 0.08855804
0001d0 7b 5d 93 bc ac 9b b9 3d e9 31 eb bd ea 96 0f 3e
       -0.01798891 0.09062895 -0.11484129 0.14022413
0001e0 b8 41 e1 3d 0a e0 1e bc ed e6 9b bd 59 cc ad 3c
       0.10998863 -0.00969697 -0.07612405 0.021215605
0001f0 d3 b4 ca 3d 79 da da bc 46 e8 a3 3d 63 d2 2b 3d
       0.09897771 -0.026715504 0.08003287 0.041948687
000200 5e 9f 68 3c 00 22 6e bd 03 ac 59 bc 71 04 2d bb
       0.014198152 -0.058137894 -0.01328564 -0.0026400352
000210 a7 89 ae 3c 56 54 25 bd 7a 9d 9d 3d 7c b9 80 bd
       0.021305872 -0.040363632 0.07696052 -0.06285378
000220 1b b9 b6 ba 9e 7c 2f bc 6e c8 03 be 0f 4a e0 3d
       -0.0013940664 -0.010710863 -0.12869427 0.109516256
000230 a1 5c 0c 3e 4b 20 b6 bc 7e f0 b3 bd 38 cd d4 bd
       0.1370721 -0.022232195 -0.087861046 -0.10390705
000240 d2 c1 02 be 0d b8 0c 3e 82 be 65 bd 96 f8 e0 bd
       -0.12769249 0.13742085 -0.056089886 -0.10984914
000250 a3 35 85 bc ef 85 49 3d 07 e0 52 bd ff ad cc 3d
       -0.016260928 0.049199995 -0.05148318 0.099941246
000260 4d ad ff bd ea f5 b0 bd 27 33 a4 bd 6d 53 18 be
       -0.124842264 -0.086406544 -0.08017569 -0.14875574
000270 9e 1c bf 3d 02 4f eb 3d 29 ac 2b 3d 5a 46 ef 3c
       0.0933163 0.11489679 0.04191223 0.02920835
000280 6f 15 a8 bd 7a 87 ce 3d 04 e0 42 3d e9 3b 24 bd
       -0.08207213 0.10084434 0.04757692 -0.040096197
000290 a9 b0 e3 bd 33 f6 c2 bd 0d ed a2 bc 3e 97 60 bd
       -0.111176796 -0.09519615 -0.019888425 -0.054831736
0002a0 21 fd c7 bd 2a 36 9c 3d 00 0c e0 3c 7e 6f c9 bd
       -0.097650774 0.076275185 0.027349472 -0.098357186
0002b0 28 ce c9 bd 54 b2 4a 3d dd de a6 3d 2c 66 91 3b
       -0.09853774 0.049486473 0.081479765 0.0044372287
0002c0 cb 74 97 3b e7 52 ba 3b 1b 4b d1 3d 6c ac 02 3e
       0.004622077 0.0056861523 0.10219403 0.12761086
0002d0 db 38 d5 3c 8a 29 ff b9 cb 99 5b bd c6 01 bf 3d
       0.026028087 -0.0004866834 -0.053613465 0.0932651
0002e0 87 1b de bd 57 2f e6 3c 46 6e 13 bd db c9 9e bd
       -0.10845094 0.028098745 -0.035993837 -0.077533446
0002f0 09 81 ac bd e7 82 d4 3d 8a d2 ad bd e6 ef 68 3b
       -0.08423049 0.1037653 -0.08487423 0.0035543381
000300 36 66 18 3e 1d c3 e7 bd 67 62 94 3d d5 c5 6c bd
       0.1488274 -0.11316512 0.07245331 -0.057805855
000310 1c 5a b0 bd 31 a1 0d 3e c7 be 2d bd 64 32 b3 3d
       -0.08610937 0.13831021 -0.042418268 0.087498456
000320 51 6e 0c be 60 14 ca bd df 1a ed bc f8 9b c6 bb
       -0.13713957 -0.098671675 -0.028943477 -0.0060610734
000330 5f 82 9b bc 97 b7 c4 bd 24 15 27 3d db d3 03 bd
       -0.018983064 -0.096053295 0.040791646 -0.032184463
000340 f1 3a 12 3d ec cc f2 3c ac 9b 20 3e cd fe 53 bc
       0.035700742 0.02963873 0.15684384 -0.012939167
000350 f3 d2 66 3d a0 f5 fc bc 64 8e bd bd ff f3 ee 3c
       0.05635352 -0.030878842 -0.092556745 0.02916908
000360 63 de 3f bd ba 7f f9 bb 0a 3c 8e bd 19 11 50 bd
       -0.046842944 -0.007614103 -0.06945045 -0.050797556
000370 4d 73 f7 3d b3 f1 31 3d 51 8c 8b bd dd 42 d3 bd
       0.12082539 0.043443393 -0.068138726 -0.103154875
000380 15 68 23 3d 7f 1e ae bd 81 ad ad bd b9 c0 0c 3e
       0.039894182 -0.085019104 -0.08480359 0.13745393
000390 1f 97 21 be 22 da c1 bd 78 5f 26 3e c8 7b ef 3c
       -0.15780304 -0.09465434 0.16247356 0.029233828
0003a0 ce a2 b2 bd 22 b2 b3 3d 2d d3 e7 bc 5f 60 ee 3d
       -0.08722459 0.087742105 -0.028298939 0.11639475
0003b0 d6 5a 76 bd 06 6e 00 be bc 96 fc bc dd e6 8a 3d
       -0.06014522 -0.1254197 -0.030833595 0.06782315
0003c0 b7 59 ab bd ec 7c 54 bc 08 ee 58 3d ce f3 69 bc
       -0.08366721 -0.012969237 0.05296138 -0.014279319
0003d0 e9 32 54 bd 5b 66 21 be a8 48 3c 3c 39 1d 0b 3d
       -0.051806364 -0.15761702 0.011491932 0.033963416
0003e0 9f 3f 41 bc 87 31 e6 bc ec 53 e7 bd fd 9a 98 3b
       -0.011794954 -0.028099788 -0.11295304 0.004657148
0003f0 dc 7b 67 bd 05 3a 85 bd f8 61 94 bb b3 7b 20 bd
       -0.056514606 -0.06505207 -0.0045282803 -0.03918047

memory_rnn.bias_ih f4 [256]
000000 c3 9f d4 bc 11 a0 39 be f7 c7 5c be 7a 51 55 be
       -0.025955087 -0.18127467 -0.21560656 -0.20831862
000010 6f 29 8e be c3 36 30 be b0 20 7f be b0 fc 17 3a
       -0.27765986 -0.1720839 -0.24914813 0.0005797846
000020 e7 a4 4e be b1 66 6e be 7f 01 41 be 49 a8 5e be
       -0.20180093 -0.23281361 -0.18848227 -0.21743883
000030 1c f9 8b be 5f 4e 66 be c0 2d 73 be d3 bc 37 be
       -0.27338493 -0.22490834 -0.23747921 -0.17943124
000040 d0 75 b4 be 17 70 69 be f6 d8 af be ad cf 69 be
       -0.35246134 -0.22796665 -0.34345216 -0.22833128
000050 19 0c 1b be 31 c6 75 be dd f8 60 be c2 43 2a be
       -0.15141334 -0.24001385 -0.21969934 -0.1662741
000060 16 be 85 be d7 28 41 be 9f b2 22 be ba 10 92 be
       -0.26121587 -0.18863235 -0.15888451 -0.28528386
000070 4b 24 b9 bd 21 de 2d be e8 d3 8a be 51 e8 68 be
       -0.090401255 -0.16979267 -0.27114797 -0.22744872
000080 63 8d ae bd 90 e8 1c be 8e 30 92 bd af c4 17 be
       -0.08523061 -0.1532309 -0.07138167 -0.14821123
000090 13 a5 f6 bd ca eb 9d be 1f 7c 6a be 3c 41 94 be
       -0.12043204 -0.30843955 -0.22898911 -0.2895602
0000a0 33 e7 f8 bd 6a b4 ca bd f2 67 f0 bd e5 2d 26 be
       -0.12153473 -0.098976925 -0.11738576 -0.16228445
0000b0 f8 28 e7 bd cd 68 66 be ab 97 21 be 0e 66 96 bc
       -0.11287111 -0.22500916 -0.15780513 -0.01835921
0000c0 6a f3 4d be fa 95 13 be de b0 db bd 01 7e 4f bd
       -0.20112386 -0.1441268 -0.10727094 -0.050657276
0000d0 8d 3f 10 be 73 b1 82 be f5 4b cc bd db cc 83 bd
       -0.14086743 -0.25526008 -0.09975425 -0.064355575
0000e0 8e 85 53 be fc 21 0c be 90 58 2b be f9 d1 0e be
       -0.20656416 -0.13684839 -0.16733003 -0.13947286
0000f0 aa 27 58 bd 61 89 04 be 8d 68 4a bd 74 29 07 be
       -0.0527722 -0.12943031 -0.049416114 -0.13199407
000100 9f fa 4e bd 48 db fe bd 1e 01 a0 bd 11 ba 9d be
       -0.05053198 -0.12444168 -0.07812713 -0.3080602
000110 60 a0 3a bd ec dc fe bc 56 95 a3 bd c0 71 05 be
       -0.0455631 -0.031111203 -0.07987468 -0.13031673
000120 19 c0 0e be c8 c6 6b bd 02 b9 fb bd f5 1f 18 be
       -0.13940467 -0.05756262 -0.12291147 -0.1485594
000130 fc 32 bd bd bc 40 f1 bd 31 4e 48 be c6 2d c5 bd
       -0.0923824 -0.11779925 -0.19561078 -0.09627871
000140 46 fc b4 bd 4e 92 3c 3c 21 14 ed bd 12 36 02 be
       -0.0883718 0.011509491 -0.11576105 -0.12715939
000150 9f 23 14 be 26 31 52 be e0 91 8b be 58 75 6c bc
       -0.14466713 -0.20526561 -0.2725973 -0.014432274
000160 69 ae 33 be ee 6a 58 be 43 e7 98 bd 19 2c f0 bd
       -0.17547001 -0.2113454 -0.07465985 -0.11727161
000170 7c 5f 2e be d0 09 4c be ce ba 95 bd aa 6e ee 3c
       -0.17028612 -0.19925618 -0.07311021 0.029105503
000180 9d 87 7a be 9b fc b9 bc ed 74 f5 bd d5 64 9e bd
       -0.24465795 -0.02270346 -0.119851924 -0.07734076
000190 a6 fa 87 be 22 41 65 be 09 fb 23 be 13 60 96 be
       -0.26558417 -0.22388127 -0.16013731 -0.29370174
0001a0 61 77 40 bd d1 8b 46 be ba 89 3d bc cb cf 15 be
       -0.04698885 -0.19389273 -0.011568481 -0.14630048
0001b0 36 cb 31 be fe 55 87 3d 01 8b 09 be ba d4 24 be
       -0.17362675 0.066081986 -0.13431932 -0.16096774
0001c0 8a 7a 4b be 1c 57 0f be c6 1b 41 be 0a c7 12 be
       -0.19870964 -0.13998073 -0.18858251 -0.1433374
0001d0 1a e5 40 be 4c 79 98 bd 6f f4 7c be f3 22 5c 3c
       -0.18837395 -0.074450105 -0.24702619 0.013436067
0001e0 f3 6f 5a be f4 70 3b be b5 34 d1 bd 7f 28 37 3c
       -0.21331768 -0.18304807 -0.10215131 0.011179089
0001f0 2b e2 37 be e2 1c 68 bd e2 90 53 bd f1 29 10 be
       -0.1795737 -0.05666817 -0.051651843 -0.140785
000200 5c 7f 41 3d a6 30 5b bd b8 3a e1 bc b8 7c d8 3c
       0.0472406 -0.05351319 -0.02749382 0.026426658
000210 4d 4e aa 3d ba 49 02 bd 30 04 ed 3d 78 6c ba bd
       0.08315716 -0.031808592 0.11573064 -0.0910272
000220 36 66 2b bd 00 89 31 3d d8 65 c1 bc c7 1b d6 3b
       -0.041845523 0.043343544 -0.023608133 0.006534073
000230 55 01 7a 3c 74 5d 9e bb f0 02 96 bd 24 b8 83 bd
       0.015259107 -0.004832918 -0.07324779 -0.064316064
000240 47 2d c8 3c 52 11 0a 3d 97 9f d9 3c e7 f8 ac 3d
       0.024435652 0.033707924 0.026565356 0.08445912
000250 71 ad 87 bc 80 04 0a 3e 86 54 04 3d 8a 50 06 3c
       -0.016562195 0.13478279 0.03230717 0.008197913
000260 2b 0a b8 3d 71 6f b2 bd 88 be 5a 3d ab 25 86 3b
       0.089863144 -0.08712662 0.05340436 0.004093846
000270 9a 0e e7 bd 84 cd 2d 3d be 3d 01 3e 95 ae 86 3d
       -0.11282082 0.042432323 0.12621209 0.06576268
000280 a5 ee da bd fb 1c bc bc 1e 8a b8 bd 9d 51 81 3d
       -0.10690049 -0.022963038 -0.09010719 0.063143946
000290 55 6b 03 bd 32 6b f5 3c d7 26 e3 bc 52 82 7a bc
       -0.03208478 0.029958341 -0.027728481 -0.01528986
0002a0 cf a4 bb 3d c9 40 42 bd c2 74 f9 bd a5 b6 c8 bd
       0.09162294 -0.047425065 -0.12180473 -0.09800462
0002b0 2c 74 6b bd fa ca b7 bd d9 70 7d 3d ea 6e cd bd
       -0.057483837 -0.089742616 0.061875198 -0.10030921
0002c0 ed fd 30 3d 84 1a cb bc df ac 75 bd 2d ed 7b 3d
       0.043210912 -0.024792917 -0.059979316 0.061505485
0002d0 d6 00 17 bd bd 82 18 bc 84 73 02 bd 73 ec 7d 3c
       -0.03686603 -0.009308514 -0.031848446 0.015498268
0002e0 8c 38 09 3d 6d e2 c2 bd be c5 9a 3d 33 9e d1 3c
       0.033501193 -0.095158435 0.075572476 0.02558813
0002f0 c7 56 75 3c 13 6c bf bc f5 8a 82 3d e5 e8 89 3d
       0.014974303 -0.023366963 0.0637416 0.06733874
000300 bc 72 85 bd 1d 1c 3b be a2 66 e5 bd ff ff 83 be
       -0.065160245 -0.18272443 -0.11201216 -0.25781247
000310 0d fa 96 bd e1 67 4f bc cc b6 9f be d8 fe a0 bb
       -0.07371912 -0.012659044 -0.3119415 -0.0049131922
000320 ba 7a d5 bd 81 ce 3c be ed a6 43 be 90 d1 19 be
       -0.10423799 -0.1843815 -0.19106646 -0.15021348
000330 92 14 2e be e0 c2 55 be 45 b6 50 be 99 1a 10 bd
       -0.17000034 -0.2087512 -0.2038203 -0.035181616
000340 f7 8e 13 be f7 7c 6a be c3 4d 3f be ce bc 7b be
       -0.14410006 -0.22899233 -0.18682007 -0.24583742
000350 04 41 c0 bd fb 7b 34 be 14 b6 54 be 6e 6e 39 bd
       -0.09387401 -0.1762542 -0.20772582 -0.04527133
000360 a3 73 34 bd cb 08 79 be 35 78 91 bd d4 76 9d be
       -0.044055592 -0.2431976 -0.07103006 -0.3075472
000370 a9 bb 4d be b6 cc 9b be a3 23 03 bd ba 88 4a be
       -0.20091118 -0.3042962 -0.032016408 -0.1977872
000380 6a 31 5d be bf f9 4e be c0 8f c3 bd 41 df 76 be
       -0.21600881 -0.20212458 -0.095489025 -0.24108602
000390 78 94 0b bd 88 81 c0 be e6 dd c2 bd 3e 62 05 be
       -0.034077138 -0.37598825 -0.0951498 -0.13025758
0003a0 e4 b2 92 be e0 73 1c be f1 63 4b be ca ce 37 bd
       -0.28652108 -0.15278578 -0.19862343 -0.044874944
0003b0 b9 58 3e bd c1 2b ba bd b0 7c ad bd 7f 02 be bd
       -0.04647133 -0.09090377 -0.08471048 -0.0927782
0003c0 56 a6 7e be ac 8b 01 be 11 32 5c be 58 2f 12 bd
       -0.2486814 -0.12650937 -0.21503474 -0.03568968
0003d0 53 00 4d be 1b 6f dd bd f2 53 b1 be 57 b1 37 be
       -0.20019655 -0.10812207 -0.34634358 -0.17938744
0003e0 9f 5a 40 be 2d ff b7 be 2a a2 88 be db 94 82 be
       -0.18784569 -0.3593687 -0.2668622 -0.25504193
0003f0 97 63 40 be da 59 5a bd e2 f2 05 be af b0 dc bd
       -0.1878799 -0.053308345 -0.13080934 -0.10775887
