torch-rl/storage/Lstm-Customs-SimpleCorridor-v0/status.pt (torch, 649941 bytes, 51 tensors)

image_conv.0.weight f4 [16, 3, 2, 2]
0	0x3eed84c6	0.4639036
1	0xbeceafb4	-0.40368426
2	0xbeb4c7f6	-0.35308808
3	0xbea19650	-0.31559992
4	0xbe9193b1	-0.28432992
5	0xbe196622	-0.14980367
6	0xbe97bd1e	-0.29636472
7	0xbe83812c	-0.25684488
8	0x3d246023	0.040130746
9	0xbd10c794	-0.035346583
10	0x3da3fa45	0.080067195
11	0x3c69527e	0.014240859
12	0xbb5659ee	-0.003270741
13	0xbe6ae560	-0.22939062
14	0xbe05fcf0	-0.13084769
15	0xbe297415	-0.16548188
16	0xbd1278ff	-0.035759922
17	0xbd6d3f69	-0.0579218
18	0x3e100e26	0.14067897
19	0xbd059dc9	-0.03262118
20	0xbddc2b47	-0.10750442
21	0xbe328872	-0.17434862
22	0xbd4630e4	-0.04838647
23	0xbdff02f1	-0.12451733
24	0xbe6911c9	-0.22760691
25	0xbe431380	-0.19050407
26	0x3d74ccdd	0.059765685
27	0xbd4c352e	-0.049855404
28	0xbe4b197d	-0.19833942
29	0x3d175e0b	0.03695492
30	0xbd9d2cbf	-0.0767455
31	0x3c5fc533	0.013657856
32	0x3e431daa	0.19054285
33	0xbe86aaec	-0.26302278
34	0xbe8c87f4	-0.27447474
35	0xbe0e9438	-0.13923728
36	0x3e3962a0	0.18104029
37	0xbea3f93f	-0.32026097
38	0xbe343070	-0.17596602
39	0xbeece590	-0.46268892
40	0xbd8bb178	-0.06820959
41	0xbe0fd548	-0.14046204
42	0x3c5823e7	0.013192154
43	0xbebdfb25	-0.3710567
44	0xbe1bba9f	-0.15207909
45	0x3e17f1cb	0.1483833
46	0xbe1ce986	-0.15323457
47	0x3dade06d	0.084900714
48	0xbe363cb3	-0.17796592
49	0xbe4bd522	-0.19905522
50	0xbed7f067	-0.421756
51	0xbe9ba6ac	-0.30400598
52	0x3e2d50fa	0.16925421
53	0xbe64644e	-0.22303888
54	0x3e1e8460	0.15480185
55	0x3d913b96	0.07091443
56	0xbc5d75a1	-0.013516814
57	0xbe454f6b	-0.19268577
58	0x3e3402e1	0.17579223
59	0x3db77c35	0.089592375
60	0xbecb08df	-0.39655206
61	0xbd76b60b	-0.060232203
62	0xbe2e323e	-0.17011353
63	0x3dfdc091	0.12390245
64	0xbe77255c	-0.24135345
65	0xbe0aecdd	-0.13566919
66	0xbe8c495b	-0.27399716
67	0xbe737aa9	-0.2377726
68	0xbe6056ba	-0.21908084
69	0xbe51c449	-0.20485033
70	0x3e20cf3f	0.15704058
71	0xbd8aa219	-0.06769199
72	0xbd8acda6	-0.067775056
73	0xbeee7404	-0.46572888
74	0xbce12004	-0.027481087
75	0xbe6f6e2a	-0.23381868
76	0xbe5014c2	-0.20320418
77	0xbdbf2559	-0.093332954
78	0xbed2f832	-0.41204983
79	0xbda052fb	-0.07828327
80	0xbe4fd877	-0.20297419
81	0xbe5f090e	-0.21780798
82	0x3c8fd0c3	0.0175556
83	0xbd497de1	-0.049192313
84	0xbbc7aedb	-0.0060938424
85	0xbebe97c2	-0.37225157
86	0xbee14d56	-0.44004315
87	0x3f1e77c4	0.619015
88	0xbda747dc	-0.08168003
89	0x3e58b88b	0.21164148
90	0x3da491f3	0.0803565
91	0xbe881e22	-0.2658549
92	0x3d6d8b79	0.05799434
93	0x3d8e017e	0.06933878
94	0xbe45ec7c	-0.19328493
95	0xbe0c416e	-0.13696834
96	0xbdb0109e	-0.085969195
97	0x3d9c0498	0.07618064
98	0xbe9a55a1	-0.30143455
99	0xbe8bfe7f	-0.27342603
100	0x3dc9c2f0	0.098516345
101	0xbe55d32f	-0.20881341
102	0x3c850d3a	0.016241658
103	0x3dc439b8	0.095813215
104	0xbe3f1482	-0.18660167
105	0xbe7b63ca	-0.24549785
106	0x3e8ddf87	0.277096
107	0x3c76f79b	0.015073682
108	0xbd5efb34	-0.054438785
109	0xbdf8b0d3	-0.121431015
110	0xbf017637	-0.50571007
111	0x3e2a2989	0.16617407
112	0x3e7238b0	0.23654437
113	0xbe87f15d	-0.26551333
114	0xbee2badc	-0.44283187
115	0x3d608951	0.054818455
116	0x3e56253b	0.2091264
117	0x3e37a3e2	0.1793361
118	0xbe55ef08	-0.20891964
119	0xbe54dd7e	-0.20787618
120	0xbf223f87	-0.63378185
121	0xbec51771	-0.38494447
122	0x3e85e7d9	0.26153448
123	0xbf0d6497	-0.5523161
124	0xbe8e1d2e	-0.27756637
125	0xbea63b32	-0.32467037
126	0xbe17bdbc	-0.14818472
127	0xbeeb5b1c	-0.45967948
128	0x3e2a516b	0.16632621
129	0x3e893722	0.26799875
130	0xbe3794c5	-0.17927845
131	0x3d804c69	0.06264574
132	0xb9e53b5b	-0.00043722507
133	0x3eb948c3	0.36188325
134	0xbea425ab	-0.32059988
135	0x3d7b707a	0.061386563
136	0xbe6a3a81	-0.2287388
137	0xbd88cc5b	-0.06679603
138	0xbf305eac	-0.6889446
139	0xbed04fa3	-0.40685758
140	0xbe077398	-0.1322769
141	0xbd09afeb	-0.033615034
142	0xbe3530d3	-0.17694406
143	0x3dd84b8d	0.10561285
144	0xbe29fcdf	-0.16600369
145	0xbe87da46	-0.26533717
146	0xbe0a8bff	-0.13529967
147	0xbe26591a	-0.16244927
148	0x3e61bb21	0.2204404
149	0xbe2f3484	-0.17109877
150	0xbf86c1f8	-1.0527945
151	0xbe4743d5	-0.1945947
152	0xbd08b236	-0.03337308
153	0xbc227df1	-0.009917722
154	0xbe8b81ce	-0.2724747
155	0xbe3e414e	-0.185796
156	0x3e98d793	0.2985197
157	0xbe56d793	-0.20980673
158	0x3ee3c7aa	0.4448827
159	0xbe82366e	-0.25432152
160	0xbe9de59e	-0.30839247
161	0xbefa4304	-0.48879254
162	0x3d027389	0.031848464
163	0xbe1ecca5	-0.15507753
164	0xbe18f76c	-0.14938134
165	0x3d802eb6	0.062589094
166	0xbdd73aaa	-0.10509236
167	0xbd84d445	-0.064858
168	0xbf63389b	-0.8875825
169	0xbef736d9	-0.48284033
170	0xbf7c9504	-0.9866488
171	0x3d18472e	0.037177257
172	0xbd580084	-0.052734867
173	0xbe85525c	-0.26039398
174	0xbe58db0a	-0.21177307
175	0x3e57fd9b	0.21092837
176	0x3e499d8b	0.19689004
177	0x3c169be2	0.009192439
178	0xbe4c7ef0	-0.19970298
179	0x3e670451	0.2256024
180	0xbe96c80a	-0.29449493
181	0xbdfcc542	-0.123423114
182	0xbe5bee1c	-0.2147755
183	0xbddfc629	-0.10926468
184	0xbefc921c	-0.49330223
185	0x3e88cb2d	0.2671751
186	0xbe932a6e	-0.2874331
187	0xbf313023	-0.69214076
188	0xbc2099fa	-0.009802336
189	0xbe1fd659	-0.15609111
190	0x3dd38a68	0.10329133
191	0xbde39212	-0.11111845

image_conv.0.bias f4 [16]
0	0xbf1b71e5	-0.60720664
1	0xbd90be72	-0.070675746
2	0xbabb4002	-0.0014286044
3	0xbef8b47d	-0.48575202
4	0xbbc6d8f4	-0.0060683433
5	0xbe53d86d	-0.20688029
6	0xba8fe5d4	-0.0010978528
7	0xbf15fb13	-0.58586234
8	0xbe0d7c46	-0.13816938
9	0xbf34598b	-0.7044913
10	0xbedd718b	-0.4325069
11	0xbf088f36	-0.5334352
12	0xbe75a40f	-0.23988365
13	0x3d73f241	0.059557203
14	0x3d61ec0a	0.055156745
15	0xbe176233	-0.14783554

image_conv.3.weight f4 [32, 16, 2, 2]
0	0xbe9ff2e3	-0.31239995
1	0xbe84fde6	-0.2597496
2	0xbf2c89e5	-0.6739791
3	0xbf60be5b	-0.8779046
4	0xbe127284	-0.14301497
5	0x3dbc7cf1	0.09203518
6	0x3d842d88	0.06453997
7	0x3da3e98e	0.080035314
8	0x3db7b2c9	0.089696474
9	0xbdd4a897	-0.103837185
10	0xbdb622d6	-0.08893363
11	0x3d1fd5fa	0.039022423
12	0x3eb03761	0.3441725
13	0x3ea0a551	0.31376126
14	0x3e01aa0f	0.12662528
15	0xbd814009	-0.06311042
16	0xbd9b1184	-0.075717
17	0xbe8ac9fc	-0.27107227
18	0x3d9c92ea	0.07645209
19	0x3e51cfd2	0.20489433
20	0xbd85d921	-0.06535555
21	0x3c5f0ec5	0.013614361
22	0xbe39cc3f	-0.1814432
23	0xbdcb2a08	-0.09920126
24	0x3d643685	0.055716056
25	0xbe1cf351	-0.15327193
26	0xbe4c5074	-0.19952565
27	0xbcb18ffb	-0.0216751
28	0xbd66b9d1	-0.056329552
29	0xbebcc7be	-0.3687114
30	0xbf0c47b6	-0.5479692
31	0xbf4cf77f	-0.8006515
32	0xbe03a0ff	-0.12854384
33	0x3dc596f5	0.096479334
34	0x3de242e8	0.110479176
35	0xbd41943e	-0.047260515
36	0xbe8b5843	-0.27215776
37	0x3e028fca	0.12750164
38	0x3c4c0b41	0.012453855
39	0xbf21dca2	-0.63227284
40	0xbf0623cb	-0.52398366
41	0x3db97ae5	0.090566434
42	0x3e6cb311	0.23115183
43	0x3f128942	0.5724069
44	0x3f306862	0.68909276
45	0xbde7a862	-0.11311413
46	0x3ea6a4f2	0.32547718
47	0xbea87525	-0.32901874
48	0xbe2d4b06	-0.1692315
49	0x3ea4de35	0.3220078
50	0xbf483433	-0.7820465
51	0xbf139bbe	-0.5765952
52	0x3ed65498	0.41861415
53	0xbed3b11c	-0.4134606
54	0xbedee57a	-0.43534452
55	0xbf02cb11	-0.51091105
56	0xbf1ddf65	-0.61669
57	0xbf3dc562	-0.7412931
58	0xbdccff42	-0.10009624
59	0xbf3a22d1	-0.72709376
60	0x3ecedd3f	0.40403172
61	0xbf020abf	-0.5079765
62	0x3ec81517	0.3907859
63	0xbf1098cd	-0.56483155
64	0xbe728d88	-0.23686802
65	0x3e84d0a8	0.25940442
66	0xbef8bd74	-0.4858204
67	0x3e854942	0.26032454
68	0xbe09a664	-0.13442379
69	0xbc9fc365	-0.019502351
70	0xbcb40a03	-0.02197743
71	0xbd4d1e73	-0.050077867
72	0xbd4ec6cb	-0.050482552
73	0x3ca4d5aa	0.020121414
74	0x3dcf19a8	0.101123154
75	0xbc559c8c	-0.013037812
76	0x39c7baf9	0.00038095543
77	0xbe85a913	-0.26105556
78	0x3e938ed3	0.28819904
79	0xbe751e16	-0.23937258
80	0xbc72be93	-0.014815944
81	0xbd724139	-0.059144232
82	0x3e15eba9	0.14640678
83	0xbcef1d91	-0.029188903
84	0xbeb6b284	-0.35683072
85	0xbd9be2c2	-0.0761161
86	0xbeb876d4	-0.3602816
87	0x3d375039	0.04475424
88	0x3d47012f	0.048585113
89	0x3def9e50	0.117001176
90	0xbc60adba	-0.013713295
91	0x3e5b9083	0.21441846
92	0xbf09ab26	-0.53776777
93	0xbe296fad	-0.16546507
94	0x3eafefad	0.34362546
95	0x3ea1e727	0.31621668
96	0xbcd9ab89	-0.026571052
97	0xbde09246	-0.109653994
98	0xbdb20248	-0.08691841
99	0x3e0f5633	0.13997726
100	0x3e50339a	0.20332184
101	0x3e2a7e8a	0.16649833
102	0x3e7d8255	0.24756749
103	0xbe5f76ad	-0.21822615
104	0xbf4a1e91	-0.7895289
105	0xbf521b60	-0.8207302
106	0xbe955bc2	-0.29171568
107	0xbef38893	-0.47565135
108	0xbf50a2c7	-0.8149838
109	0xbd344a61	-0.044016246
110	0xbd7c2af4	-0.0615644
111	0x3ba5c458	0.0050588064
112	0x3dd5d801	0.1044159
113	0x3e88006c	0.26562822
114	0xbcba8155	-0.022766748
115	0xbe44853b	-0.19191448
116	0x3edf615b	0.43628964
117	0x3e530ce7	0.2061039
118	0xbe8d4d5c	-0.27598083
119	0xbf0e2ce0	-0.55537224
120	0x3f866aa9	1.05013
121	0xbeea2344	-0.4573003
122	0x3dacd468	0.08438951
123	0xbd4232f8	-0.04741189
124	0xbeeb57c5	-0.459654
125	0xbedb34bf	-0.4281368
126	0xbecf9d70	-0.40549803
127	0xbdbcabdd	-0.09212468
128	0xbc64c41d	-0.013962773
129	0xbeb9e438	-0.3630693
130	0xbef8fcf2	-0.48630482
131	0xb92687ad	-0.00015881537
132	0xbe200bc9	-0.15629496
133	0xbe1b7b7e	-0.15183827
134	0xbddb70e4	-0.107148916
135	0x3e0019ca	0.12509838
136	0xbdcd721f	-0.100315325
137	0xbe0102c1	-0.12598707
138	0xbd5a06ce	-0.053229146
139	0xbdb9b470	-0.09067619
140	0xbc29edd0	-0.01037164
141	0xbc2595c4	-0.010106508
142	0xbeaa3f73	-0.33251533
143	0xbebe8d1b	-0.3721703
144	0xbebbcaf4	-0.36678278
145	0xbea4a11c	-0.32154167
146	0x3e0d8aeb	0.13822524
147	0x3d184f88	0.037185222
148	0x3e0500f6	0.12988648
149	0xbbc90ef3	-0.0061358153
150	0x3e429018	0.1900028
151	0xbe77b1e5	-0.24188955
152	0x3c3f6b92	0.011683362
153	0xbd53b478	-0.05168578
154	0xbe2f562d	-0.17122717
155	0xbe815bfb	-0.25265488
156	0xbb8315a2	-0.0040003816
157	0x3df0ae61	0.1175201
158	0xbedaa5ae	-0.4270453
159	0x3d3101e5	0.043214697
160	0xbe005163	-0.12531047
161	0xbd898d98	-0.0671646
162	0xbc80c1fb	-0.015717497
163	0x3d03c26e	0.032167844
164	0xbf377bd2	-0.7167331
165	0xbf0bbc89	-0.54584557
166	0xbd8f0c37	-0.06984752
167	0x3da45c5e	0.0802543
168	0xbe8005ad	-0.2500433
169	0xbd296e09	-0.041364703
170	0xbee6cfd3	-0.45080432
171	0xbe228b9f	-0.15873574
172	0xbe13425d	-0.14380784
173	0x3d82e965	0.06392173
174	0x3e7195eb	0.23592345
175	0xbf0fe993	-0.5621578
176	0xbe1da55a	-0.15395108
177	0xbf116676	-0.5679697
178	0xbe42a6f5	-0.19009002
179	0x3e9366f9	0.287895
180	0xbe510813	-0.20413236
181	0xbe936052	-0.28784424
182	0xbed642f9	-0.4184797
183	0x3de23c47	0.11046653
184	0xbeb9f0d0	-0.36316538
185	0xbd53814c	-0.05163698
186	0x3cd86516	0.026415389
187	0xbe1b80ab	-0.15185802
188	0x3e9735d1	0.29533246
189	0xbd86d6ea	-0.0658396
190	0x3e621f94	0.22082359
191	0xbe2d6d82	-0.16936305
192	0xbe2ad94d	-0.16684456
193	0xbedbe760	-0.42949963
194	0x3e8cac52	0.2747522
195	0x3c74e8fb	0.014948125
196	0xbd87b825	-0.0662692
197	0xbe2b019c	-0.16699833
198	0xbcf78149	-0.030213015
199	0xbd3fb5b8	-0.04680416
200	0x3d5edfce	0.054412656
201	0xbd9bf0e5	-0.07614306
202	0xbd0ae0b9	-0.03390572
203	0xbd054208	-0.032533675
204	0xbce26d95	-0.027640143
205	0xbdbd39bf	-0.0923953
206	0x3ee991e6	0.45619124
207	0x3e8e9eff	0.2785568
208	0xbe9fbd7b	-0.3119925
209	0xbe0c21ae	-0.13684723
210	0xbbd3fef1	-0.0064696004
211	0xbe349f61	-0.17638923
212	0xbd9f06ac	-0.077649444
213	0x3ca28689	0.019839542
214	0x3e191314	0.14948684
215	0x3de08e5d	0.10964654
216	0xbda8b394	-0.08237377
217	0x3bc90fc6	0.0061359135
218	0xbe855ae8	-0.26045918
219	0xbeabe846	-0.33575648
220	0xbf5e3f8e	-0.86815727
221	0xbeb67656	-0.35637158
222	0x3ead477a	0.33843595
223	0xbf188765	-0.59581596
224	0xbd6eb972	-0.058282323
225	0xbd323e0f	-0.043516215
226	0x3d730986	0.059335254
227	0xbe81af78	-0.25329185
228	0xbda72746	-0.08161788
229	0x3e5cfb86	0.21580324
230	0x3f0b9d0d	0.54536515
231	0x3efe71af	0.4969611
232	0xbf16c94f	-0.5890092
233	0x3ea4c6c2	0.3218289
234	0xbf8d218d	-1.1025864
235	0x3e6bf407	0.23042308
236	0x3ee26fe9	0.44226006
237	0x3e593ee7	0.21215402
238	0x3cc650f2	0.02420852
239	0xbebd7c2e	-0.37008804
240	0xbde573bf	-0.112037174
241	0x3e83489c	0.25641334
242	0xbd7744c2	-0.060368307
243	0x3ec58bcf	0.38583228
244	0xbe9cab9f	-0.30599687
245	0xbe2b71e1	-0.1674266
246	0x3e006131	0.12537076
247	0x3e24f1fe	0.16107938
248	0x3bd04de1	0.00635694
249	0xbf9cfdab	-1.2264913
250	0x3f18a601	0.596283
251	0xbe883438	-0.2660234
252	0x3f1b6659	0.60703045
253	0x3f767e8f	0.96286863
254	0xbf367416	-0.71270883
255	0xbea6822c	-0.32521188

image_conv.3.bias f4 [32]
0	0xbe560737	-0.2090119
1	0xbe7ad95e	-0.24496982
2	0xbf4ef327	-0.8083977
3	0xbd66d88e	-0.056358866
4	0xbe194fa5	-0.14971788
5	0xbe4c577a	-0.19955245
6	0xbe913d67	-0.2836716
7	0xbeec5736	-0.46160287
8	0xbe6b9e84	-0.23009688
9	0xbdabb16c	-0.0838345
10	0xbe2fb366	-0.17158279
11	0xbe2b0060	-0.16699362
12	0xbe4d98d7	-0.20077835
13	0xbec081fc	-0.3759917
14	0x3d58b7da	0.05290971
15	0x3db564a8	0.08857089
16	0xbc058b88	-0.008150943
17	0xbd53fb09	-0.051753078
18	0xbd1fd14e	-0.039017968
19	0xbe4d0ed7	-0.20025192
20	0xbe3c0612	-0.1836169
21	0xbe43c4d4	-0.19118053
22	0xbdcd3bec	-0.10021195
23	0xbeed6b5f	-0.4637098
24	0xbf06475c	-0.52452636
25	0xbda0d31c	-0.07852766
26	0xbe33639f	-0.17518471
27	0xbe8a079b	-0.26958928
28	0xbee54095	-0.44775835
29	0xbf3735dc	-0.7156656
30	0xbed43d02	-0.41452795
31	0xbea4349f	-0.32071397

image_conv.5.weight f4 [64, 32, 2, 2]
0	0x3eb7e1af	0.3591437
1	0x3e39122f	0.18073343
2	0xbe33699a	-0.17520753
3	0xbebd1619	-0.36930922
4	0x3ccaccb0	0.024755806
5	0x3e0d4a48	0.13797867
6	0x3d1c2313	0.038119387
7	0x3f22bbd2	0.6356784
8	0xbf4b3603	-0.7937929
9	0x3e53f573	0.206991
10	0xbf06e3ce	-0.5269135
11	0xbee5a5a0	-0.44852924
12	0xbf899bdb	-1.0750688
13	0x3f8e85e4	1.113461
14	0xbd6d3671	-0.057913247
15	0x3ea18c20	0.3155222
16	0xbe06d75e	-0.13168094
17	0x3eadd399	0.339505
18	0xbe41f767	-0.18942033
19	0x3ed76385	0.42068115
20	0x3c5d09ae	0.013491077
21	0xbecb67da	-0.3972767
22	0xbf8b1d56	-1.0868328
23	0xbea8b5a6	-0.32951087
24	0xbe640f62	-0.22271493
25	0xbe6e1e6b	-0.23253791
26	0xbe908dc7	-0.28233168
27	0x3e2fee10	0.17180657
28	0xbe081757	-0.13290153
29	0x3dc14f51	0.094389565
30	0xbf0e3acf	-0.55558485
31	0xbcb718f6	-0.02235077
32	0xbf15317f	-0.5827865
33	0x3e95880f	0.29205367
34	0xbf2875e5	-0.6580489
35	0x3e4f73ce	0.2025902
36	0x3f0052f6	0.5012659
37	0xbf104e01	-0.56369025
38	0x3f04bdbf	0.5185203
39	0x3f56b69f	0.8387241
40	0xbd9609a1	-0.07326055
41	0x3debd8f8	0.11515993
42	0xbe8d862b	-0.27641425
43	0x3da532f9	0.08066363
44	0x3e687270	0.22699904
45	0x3d9062f1	0.070501216
46	0xbe29abb8	-0.16569412
47	0x3efc67da	0.49297982
48	0xbdb3848e	-0.08765517
49	0xbe560549	-0.20900454
50	0x3dbd59d5	0.0924565
51	0x3d878677	0.06617444
52	0xbdfa070f	-0.122083776
53	0xbd924c6a	-0.07143481
54	0xbe2a61fe	-0.16638944
55	0xbde11486	-0.10990243
56	0xbe1aee02	-0.15129855
57	0xbece81c4	-0.40333378
58	0x3f140a52	0.5782825
59	0x3f7ada7b	0.97989625
60	0xbe1655c4	-0.14681154
61	0x3eaf5c61	0.34250167
62	0xbdca214a	-0.09869631
63	0x3ef6bb33	0.48189697
64	0xbe51a26d	-0.20472117
65	0x3ec142a3	0.37746152
66	0x3ef7f3e8	0.48428273
67	0xbe32fe8b	-0.17479913
68	0xbefdd7e7	-0.49578783
69	0x3e7e74bc	0.24849218
70	0x3e165bfb	0.14683525
71	0x3f00f7d8	0.5037818
72	0x3debf519	0.11521358
73	0xbe604c83	-0.21904187
74	0xbe276219	-0.16346015
75	0xbfb7b9ea	-1.4353611
76	0xbe3e49a9	-0.18582787
77	0xbe4af35e	-0.198194
78	0x3e80dbbf	0.25167653
79	0x3dabcf51	0.08389152
80	0xbdfcbba0	-0.12340474
81	0xbef91153	-0.4864603
82	0x3ea6c70d	0.3257374
83	0x3e15dbfe	0.14634702
84	0xbf085be5	-0.5326522
85	0xbd88c4f7	-0.06678193
86	0xbdd127e8	-0.1021269
87	0xbf253fdf	-0.64550585
88	0x3e8888e0	0.26666927
89	0xbe887cc0	-0.26657677
90	0x3eabe9bb	0.3357676
91	0x3ed6e97b	0.41975006
92	0xbf0b7a02	-0.54483044
93	0xbe5177e2	-0.20455888
94	0xbd8d77a9	-0.06907589
95	0xbedf38e9	-0.43598107
96	0x3c9ddc12	0.019269977
97	0xbe8cec2f	-0.27523944
98	0xbf6b3655	-0.9187978
99	0x3dbddd4d	0.092707254
100	0x3b6e695f	0.0036378724
101	0xbe899b12	-0.26876122
102	0x3e87051b	0.26371083
103	0xbec90e0d	-0.39268532
104	0x3e192b26	0.14957866
105	0x3e3fbf19	0.18725242
106	0x3ebf0c11	0.37313893
107	0x3f4321f6	0.76223695
108	0xbda9356c	-0.082621425
109	0x3e4bf90f	0.19919227
110	0xbd199a00	-0.03750038
111	0x3ec4d324	0.38442338
112	0x3f00d6df	0.5032787
113	0xbf8a9ae6	-1.0828521
114	0x3e610a61	0.21976615
115	0xbf8051ef	-1.0025004
116	0xbe319588	-0.17342198
117	0xbf093f7e	-0.53612506
118	0x3da433b1	0.08017672
119	0xbe03bd35	-0.12865146
120	0x3ea50285	0.32228485
121	0xbe488655	-0.19582494
122	0x3d9dac13	0.07698836
123	0x3d3b73ff	0.04576492
124	0xbdd8634a	-0.10565813
125	0x3eab128d	0.3341259
126	0xbe8fd9fb	-0.28095993
127	0x3f8d44df	1.1036643
128	0x3f37564d	0.7161606
129	0xbe9d8105	-0.30762497
130	0x3f841645	1.0319296
131	0x3f1b6f00	0.6071625
132	0x3f420528	0.7578912
133	0x3ce386d7	0.027774258
134	0xbef88617	-0.48539802
135	0x3fa9abcc	1.3255553
136	0xbe1425af	-0.144675
137	0x3db250f7	0.08706849
138	0x3ef55ecd	0.4792389
139	0xbc93b898	-0.018032357
140	0x3d9b7511	0.07590688
141	0x3fc1e104	1.5146794
142	0xbf3a67a3	-0.7281439
143	0x3eac8821	0.33697608
144	0x3ec5a365	0.38601223
145	0xbd96209d	-0.07330439
146	0x3f0d6d98	0.5524535
147	0x3ea0b7c6	0.31390208
148	0x3e1eeb45	0.15519436
149	0xbefa0dd0	-0.48838663
150	0x3e805588	0.25065255
151	0x3e6f1638	0.2334832
152	0xbea86479	-0.32889155
153	0xbee941b6	-0.45557946
154	0x3ea1cd44	0.31601918
155	0xbf071d08	-0.52778673
156	0xbd3b8c60	-0.04578817
157	0x3f3998bd	0.72498685
158	0x3e0c8c44	0.13725382
159	0x3f0a5818	0.5404067
160	0xbec9d80f	-0.39422652
161	0x3df3b3d8	0.11899537
162	0xbd917e55	-0.07104174
163	0x3c4699ff	0.0121216765
164	0xbe83bd43	-0.25730333
165	0xbed7e207	-0.42164633
166	0xbe808c3f	-0.25107
167	0x3e4aac4a	0.19792286
168	0x3f0ecaf1	0.55778414
169	0xbf486466	-0.78278196
170	0x3f915739	1.1354743
171	0xbd7aa954	-0.06119664
172	0xbf4b1ea6	-0.7934364
173	0x3e2f6883	0.17129712
174	0x3f2263a0	0.63433266
175	0xbf122d76	-0.5710062
176	0x3e10821d	0.14112134
177	0x3e847d1e	0.25876707
178	0x3d7ec440	0.062198877
179	0x3d1a39ea	0.037652887
180	0xbe533d4c	-0.20628852
181	0xbcc1a639	-0.023638831
182	0x3d729f0d	0.059233714
183	0xbebe3cee	-0.3715586
184	0xbecbf129	-0.39832428
185	0xbf7f7bda	-0.9979836
186	0xbded38c0	-0.1158309
187	0xbf083b5e	-0.5321559
188	0x3f128c24	0.5724509
189	0xbf1ea916	-0.61976755
190	0xbe0bc737	-0.13650213
191	0x3cb3f681	0.021968128
192	0x3e5a72e8	0.21332896
193	0xbdf3d777	-0.11906331
194	0x3e10cc02	0.14140323
195	0x3eb25299	0.34828642
196	0x3d046f39	0.032332633
197	0x3e32e971	0.17471863
198	0x3f1c7a9c	0.6112459
199	0xbdbd2266	-0.092350766
200	0xbe160ae1	-0.14652587
201	0xbe3dfbf9	-0.18553151
202	0x3e43bc2a	0.19114748
203	0x3e069cdf	0.13145779
204	0x3f888bbf	1.0667647
205	0xbdcde737	-0.10053866
206	0x3f71b116	0.94410837
207	0x3f8d6666	1.1046875
208	0xbea45783	-0.32098016
209	0x3ed5b57c	0.41740024
210	0xbdaa073a	-0.083021596
211	0x3ee6d4b1	0.45084146
212	0x3c6e7264	0.01455364
213	0x3ed718b0	0.42011023
214	0x3dca9535	0.0989174
215	0x3e60f95f	0.21970128
216	0x3f5f4bd8	0.87225103
217	0xbf002e8c	-0.50071025
218	0x3e84ec27	0.2596142
219	0xbf1ba385	-0.60796386
220	0x3ef919fb	0.48652634
221	0x3f2f9459	0.68585736
222	0x3ef0dee4	0.47045052
223	0x3e42c08e	0.19018766
224	0x3ecf4023	0.4047862
225	0xbe53fbc2	-0.20701507
226	0xbde1b262	-0.11020352
227	0x3e35afbe	0.17742822
228	0x3c74e213	0.014946478
229	0x3e06e5f5	0.13173659
230	0x3eba424b	0.36378703
231	0xbe94ff2c	-0.2910093
232	0xbea8b2ff	-0.32949063
233	0x3f962e79	1.1732932
234	0xbdaf6381	-0.08563901
235	0xbf21f762	-0.632681
236	0x3f807ab8	1.0037451
237	0xbeadde7d	-0.33958808
238	0x3c8dc4cc	0.017305754
239	0x3e584f75	0.2112406
240	0xbe1bf99c	-0.15231937
241	0x3e882ccf	0.26596686
242	0xbec2079a	-0.37896425
243	0xbd80e09c	-0.06292841
244	0x3dd5f980	0.10447979
245	0x3c85cd40	0.016333222
246	0xbf02bece	-0.51072395
247	0x3f6d66bd	0.9273489
248	0xbda497b4	-0.080367476
249	0x3f020847	0.5079388
250	0xbc19b5cd	-0.009381724
251	0x3f177e90	0.59177494
252	0x3e95295a	0.2913311
253	0x3f19b75a	0.600454
254	0x3e06fee4	0.1318317
255	0xbe6f1b3a	-0.2335023

image_conv.5.bias f4 [64]
0	0x3e8f24ee	0.27957863
1	0x3d6c64f4	0.057713464
2	0x3d98ce31	0.07461203
3	0xbe0ed7ab	-0.13949458
4	0x3de45559	0.11149091
5	0xbeefaad0	-0.46810007
6	0x3ef775e7	0.4833214
7	0xbe4c8101	-0.19971086
8	0xbd7e850f	-0.062138613
9	0x3c5e452d	0.0135662975
10	0xbee4a4c0	-0.44656944
11	0xbd8ff4b2	-0.07029094
12	0xbe1e484f	-0.15457271
13	0xbeabc903	-0.33551797
14	0x3ca359d4	0.019940294
15	0xbea567ab	-0.32305655
16	0xbe16d6ee	-0.14730427
17	0x3e06176c	0.13094872
18	0x3dae6533	0.08515396
19	0xbed05dfe	-0.4069671
20	0xbe4ca83f	-0.19986056
21	0x3ebef263	0.372943
22	0xbe24d002	-0.16094974
23	0x3e26d4b1	0.16292073
24	0xbe962f44	-0.29332936
25	0x3e5fa997	0.21842037
26	0xbd1306fa	-0.035895325
27	0xbe529913	-0.20566206
28	0x3e905df9	0.28196695
29	0xbe9f03ed	-0.31057683
30	0x3dcb0bb4	0.099143416
31	0x3e888709	0.26665524
32	0xbe16b83e	-0.1471872
33	0xbe750299	-0.23926772
34	0x3d8c37e4	0.06846598
35	0xbe80b13d	-0.25135222
36	0x3e75df43	0.24010949
37	0x3dfdd21b	0.1239359
38	0xbee731d4	-0.45155203
39	0xbd04b459	-0.032398555
40	0xbdc3af80	-0.09554958
41	0xbd216d23	-0.03941072
42	0x3edea889	0.43487957
43	0xbed85fb2	-0.4226051
44	0xbe18b227	-0.1491171
45	0xbecf3c06	-0.40475482
46	0xbd9cd52b	-0.07657846
47	0xbe75df3f	-0.24010943
48	0x3e7e8845	0.2485667
49	0xbf24459d	-0.6416872
50	0xbe9b94aa	-0.3038686
51	0xbe139ac8	-0.14414513
52	0xbcc9c737	-0.024631126
53	0x3dd921d6	0.10602157
54	0xbef1a986	-0.4719965
55	0xbd4b16c8	-0.049582273
56	0x3e2aa59c	0.16664737
57	0x3e9305fb	0.287155
58	0xbddf784b	-0.10911616
59	0xbf1ce0df	-0.61280626
60	0xbc9766f1	-0.018481703
61	0xbe6aad9a	-0.22917786
62	0x3e28625e	0.16443774
63	0xbecddecb	-0.4020904

memory_rnn.weight_ih f4 [256, 64]
0	0xbf98f031	-1.1948301
1	0x3ef857e3	0.48504552
2	0xbf23817e	-0.63869464
3	0x3d83f869	0.06443865
4	0xbe97d174	-0.29651988
5	0xbed14eab	-0.4088033
6	0xbfcf9823	-1.6218303
7	0xbf91b819	-1.1384307
8	0x3c5b1cc8	0.013373561
9	0xbe11ce01	-0.1423874
10	0x3f0e3a47	0.55557674
11	0x3b0915f4	0.0020917626
12	0xbd954f7d	-0.07290552
13	0xbfae0bb3	-1.359732
14	0x3dede0ab	0.11615118
15	0x3c43c51a	0.011948848
16	0xbd35cd78	-0.044385403
17	0x3cf05817	0.02933888
18	0xbf8427e0	-1.0324669
19	0xbef15c4a	-0.47140723
20	0xbe6f87f3	-0.23391704
21	0xbf24072f	-0.6407346
22	0xbf78c9f1	-0.9718314
23	0xbd82709e	-0.06369136
24	0x3d474c8e	0.048656993
25	0xbe7d701e	-0.247498
26	0xbf1f6699	-0.62265927
27	0xbf72f2ce	-0.9490174
28	0x3e97a879	0.29620722
29	0xbda877f4	-0.08226004
30	0x3ca4fb9d	0.02013951
31	0xbe9a79a1	-0.3017092
32	0xbddbf54c	-0.10740146
33	0x3e478954	0.1948598
34	0xbd7ab118	-0.061204046
35	0xbe6d8455	-0.23195012
36	0xbfacfa62	-1.3513911
37	0xbeaeea35	-0.3416306
38	0x3f2c6204	0.6733706
39	0xbce4ab41	-0.027913691
40	0xbfbd986b	-1.4812139
41	0xbc56dc39	-0.013114029
42	0x3deae358	0.11469144
43	0xbbd7caea	-0.0065854685
44	0xbdb7e3f9	-0.08979029
45	0x3d303cb6	0.04302665
46	0x3e200bf2	0.15629557
47	0xbe230699	-0.15920486
48	0xbf3c1be8	-0.7348008
49	0xbf612a03	-0.8795473
50	0xbc4e8817	-0.012605689
51	0xbdac8354	-0.08423486
52	0xbf13c8e7	-0.5772843
53	0x3e2e85ea	0.17043272
54	0xbede318c	-0.43397176
55	0xbdde0dae	-0.10842453
56	0xbf72e39b	-0.9487855
57	0xbf73699f	-0.9508304
58	0x3e40d961	0.18832923
59	0xbee1d222	-0.4410563
60	0xbe2c4d22	-0.16826299
61	0xbdcbf96c	-0.09959683
62	0x3e429d11	0.19005229
63	0xbeb84526	-0.35990256
64	0xbe93baca	-0.28853446
65	0x3eb99eb1	0.36253884
66	0x3f406dec	0.7516773
67	0xbdef967e	-0.11698626
68	0x3eee9cea	0.4660409
69	0x3f68619d	0.90773946
70	0xbf20036e	-0.62505233
71	0x3f6291f3	0.8850395
72	0x3f1c2faa	0.6101023
73	0xbe3ee861	-0.18643333
74	0x3f987eea	1.1913731
75	0xbdb01ba2	-0.085990205
76	0x3e04cfa6	0.12969837
77	0xbe57dfaf	-0.21081422
78	0x3f18a959	0.59633404
79	0x3f5af073	0.85523146
80	0xbd569ba4	-0.052394524
81	0x3d436f42	0.047713526
82	0x3e726617	0.23671757
83	0x3ecb0964	0.39655602
84	0x3e429b70	0.19004607
85	0x3ed04a5e	0.40681738
86	0x3ed8b4cb	0.42325434
87	0x3f35980d	0.70935136
88	0xbf21e67c	-0.63242316
89	0xbe554066	-0.20825347
90	0xbf6ebe01	-0.9325867
91	0x3db03071	0.086029895
92	0x3e50a347	0.20374785
93	0x3e95f306	0.29286975
94	0xbe8de497	-0.27713463
95	0x3f7c6a12	0.9859935
96	0x3dd11ac2	0.10210182
97	0xbec8602b	-0.3913587
98	0xbf27ecbf	-0.6559562
99	0xbed60804	-0.4180299
100	0x3ca81788	0.020519033
101	0x392cd474	0.00016482343
102	0x3debd3aa	0.11514981
103	0x3d3bae92	0.04582078
104	0x3ed346c5	0.4126493
105	0xbca7004d	-0.020385886
106	0x3f19d5ff	0.6009216
107	0x3e82dde9	0.2555993
108	0x3e0ccbe0	0.13749647
109	0x3e899e19	0.2687843
110	0x3e62bc10	0.22142053
111	0x3d76dc66	0.060268782
112	0x3e97972c	0.29607522
113	0x3eba0276	0.36330003
114	0x3db0840e	0.086189374
115	0xbdb6363b	-0.088970624
116	0x3c942a1a	0.018086482
117	0xbf8400ac	-1.0312705
118	0xbf799c99	-0.97504574
119	0xbe174a9c	-0.14774555
120	0xbe223a2b	-0.15842502
121	0x3dd5e256	0.10443561
122	0xbe780ec8	-0.24224389
123	0x3f91bf07	1.1386422
124	0x3f4cb32a	0.7996088
125	0xbe67c202	-0.22632602
126	0xbf064a4f	-0.52457136
127	0x3e16bb96	0.14719996
128	0xbd9d6b55	-0.076864876
129	0x3da810ee	0.08206354
130	0xbf24b091	-0.6433192
131	0xbdc5a88c	-0.096512884
132	0x3e3a1ee7	0.18175851
133	0xbcc5c9bc	-0.024144046
134	0x3f06cc4d	0.5265549
135	0xbc63780c	-0.013883602
136	0xbf473aed	-0.7782429
137	0xbea4d73b	-0.32195458
138	0x3d8f58e6	0.06999378
139	0x3ddbdef4	0.10735884
140	0x3cad9c2c	0.021192633
141	0xbf5024e0	-0.81306267
142	0xbf62f9ec	-0.886626
143	0xbf7e6b63	-0.9938261
144	0x3d59d814	0.053184584
145	0xbdf43929	-0.11924965
146	0xbee8e55f	-0.45487496
147	0xbebbec61	-0.3670378
148	0x3ebe426d	0.37160054
149	0xbee1c78b	-0.44097552
150	0x3f0af81c	0.54284835
151	0xbe305b3a	-0.172223
152	0xbdd39cea	-0.10332663
153	0x3ee9e520	0.4568262
154	0xbf206f72	-0.6267005
155	0xbf5f8e59	-0.8732658
156	0x3eb4765b	0.35246548
157	0x3d131427	0.03590789
158	0xbe210f81	-0.1572857
159	0xbe889487	-0.26675817
160	0x3dc5f45c	0.096657485
161	0x3ee4cc5a	0.44687158
162	0x3e0463b0	0.12928653
163	0xbdfbd8db	-0.12297221
164	0xbe816755	-0.2527415
165	0x3e1d5d51	0.15367629
166	0xbeb37ea4	-0.35057557
167	0xbe092b7d	-0.13395496
168	0x3e2596d0	0.16170812
169	0x3c3ada22	0.011404546
170	0xbccc1c65	-0.024915883
171	0x3ea6cd63	0.32578573
172	0xbd4e5b01	-0.050379757
173	0x3db601a9	0.088870354
174	0xbf0fb319	-0.56132656
175	0xbdbcb35e	-0.09213899
176	0x3f66eecb	0.9020812
177	0xbf130962	-0.5743619
178	0xbdd764ad	-0.10517249
179	0x3c6cbfa4	0.014449988
180	0xbf509dda	-0.8149086
181	0x3f695931	0.9115172
182	0xbe2e348d	-0.17012234
183	0x3e2d3d3b	0.16917889
184	0x3e3407e0	0.17581129
185	0x3db3a074	0.087708384
186	0xbc486d69	-0.012233117
187	0xbe21f046	-0.15814313
188	0xbf359877	-0.7093577
189	0xbd856a0c	-0.065143675
190	0x3da540f2	0.08069028
191	0xbed04b16	-0.40682286
192	0xbea6e7a2	-0.32598597
193	0xbe107e45	-0.14110668
194	0x3d098844	0.03357722
195	0x3cdc24cd	0.026873017
196	0xbd06432b	-0.0327789
197	0xbf003e00	-0.50094604
198	0xbf0e3104	-0.5554354
199	0xbf6cfe57	-0.9257559
200	0xbe82b9a2	-0.25532252
201	0xbf68e33e	-0.90971744
202	0xbf827c67	-1.0194215
203	0x3d178c92	0.036999293
204	0xbe0f4814	-0.1399234
205	0xbeeecd7d	-0.4664115
206	0x3ea29035	0.31750646
207	0xbecc16ed	-0.3986124
208	0xbd8aa788	-0.06770235
209	0xbe162e82	-0.14666179
210	0xbd98c8d0	-0.07460177
211	0xbbdf3b02	-0.006812454
212	0xbe2fff93	-0.17187338
213	0x3e68529b	0.22687761
214	0xbf92776f	-1.1442698
215	0x3f143a7d	0.57901746
216	0xbe141284	-0.14460188
217	0xbf2c7974	-0.6737282
218	0x3e07a5af	0.13246797
219	0xbf0f43d5	-0.5596288
220	0xbf35edec	-0.71066165
221	0xbef5bfca	-0.47997886
222	0xbdd9c70a	-0.10633667
223	0x3f203da6	0.6259407
224	0x3b28eb07	0.0025774853
225	0xbef970b1	-0.4871879
226	0xbf36f2a0	-0.71463966
227	0xbf8c573d	-1.0964123
228	0xbf71e5a4	-0.9449103
229	0x3d715316	0.058917128
230	0x3efed1da	0.4976948
231	0x3d90723d	0.07053039
232	0x3f629705	0.8851169
233	0x3debbe07	0.11510854
234	0x3f617692	0.8807155
235	0x3ec1b7dd	0.3783559
236	0xbe194f6f	-0.14971708
237	0xbe9e6806	-0.3093874
238	0x3f475fc9	0.7788053
239	0xbdff549c	-0.1246731
240	0xbe3708ff	-0.17874525
241	0xbf4a5718	-0.79039145
242	0x3a62b31f	0.0008647907
243	0x3b09ebdb	0.0021045122
244	0xbf502fed	-0.8132313
245	0x3ee29668	0.44255376
246	0x3d4e6a7e	0.050394528
247	0xbe3bf451	-0.18354918
248	0xbea6a311	-0.32546285
249	0xbe954f33	-0.29161987
250	0x3e00bd9b	0.12572329
251	0xbf59da69	-0.8509889
252	0xbe054855	-0.13015874
253	0x3dbfd71f	0.09367203
254	0xbe82fc42	-0.25583082
255	0xbead1ee1	-0.3381262

memory_rnn.weight_hh f4 [256, 64]
0	0x3f0d2f72	0.5515052
1	0xbf13f254	-0.5779164
2	0x3f38fb9f	0.72258943
3	0x3f3286d7	0.69737
4	0x3f266d1d	0.65010244
5	0xc020f80e	-2.51514
6	0x3e84964e	0.25895923
7	0x3eba16a0	0.36345387
8	0x3f47b2d8	0.7800727
9	0xbf56d214	-0.83914304
10	0xbdd945ca	-0.10609014
11	0x3ec26b52	0.37972504
12	0xbf0fe1c2	-0.56203854
13	0xbf071203	-0.5276186
14	0xbe8ec563	-0.2788497
15	0x3e60fe79	0.21972074
16	0x3ede34b8	0.43399596
17	0xbdab7b71	-0.08373154
18	0x3efb2c1a	0.49057084
19	0xbea89bce	-0.3293137
20	0x3ee683c8	0.45022416
21	0x3fbb9666	1.4655273
22	0xbf399603	-0.72494525
23	0xbf558fb6	-0.8342241
24	0xbe667c1c	-0.22508281
25	0x3f46c482	0.776436
26	0xbde5cbe9	-0.112205334
27	0x3ea1906b	0.31555495
28	0x3e4e578f	0.20150588
29	0xbdbb2356	-0.09137599
30	0x3ea6df75	0.3259236
31	0x3ef7af6c	0.48376024
32	0xbfa493d2	-1.2857611
33	0x405e3f4e	3.4726138
34	0xbe9e240f	-0.30886886
35	0xbe6040dc	-0.21899742
36	0xbe871385	-0.2638208
37	0x3ded45e8	0.11585599
38	0xbd39b0b2	-0.045334525
39	0x3dd086c4	0.101819545
40	0xbef06897	-0.46954796
41	0xbf390e9c	-0.7228792
42	0xbe7d4b89	-0.24735846
43	0xbf909ade	-1.1297262
44	0x3f2e4066	0.68067014
45	0x3f97f486	1.1871498
46	0x3e1a9c1c	0.15098614
47	0x3f45f5eb	0.77328366
48	0xbebd2d64	-0.36948693
49	0xbf96e7ba	-1.1789467
50	0x3f82f86b	1.0232061
51	0xbfdf151f	-1.7428321
52	0x3f2dc22a	0.67874396
53	0x3f0ba47a	0.54547846
54	0xbfe04a3d	-1.7522656
55	0x3fc0c780	1.5060883
56	0xbf1b7db5	-0.6073869
57	0xbf3544b5	-0.70807964
58	0xbeb2cd28	-0.34922147
59	0xbf6e6963	-0.9312956
60	0xbec03306	-0.37538928
61	0x3ee05ad8	0.43819308
62	0xbfd797ea	-1.6843235
63	0x3f98441a	1.1895783
64	0x3e7ec868	0.24881136
65	0x3e9ac6c0	0.3022976
66	0xbe3565ad	-0.17714567
67	0x3eb9f346	0.36318415
68	0x3c4056f0	0.0117394775
69	0xbff93bf9	-1.9471427
70	0x3f08e62a	0.534762
71	0xbf32713e	-0.69704044
72	0x3cb1fbc4	0.021726497
73	0xbdaa2e4d	-0.083096124
74	0xbf620350	-0.88286304
75	0x3e916f85	0.28405395
76	0xbf3b771a	-0.7322861
77	0x3eaf676c	0.34258592
78	0xbeca735d	-0.3954114
79	0xbdb4477c	-0.08802697
80	0x3ecf853c	0.40531337
81	0xbf9e3efe	-1.2362974
82	0xbe865c44	-0.26242268
83	0x3f6d316a	0.92653525
84	0x3d5ea66e	0.05435794
85	0x3f45329a	0.77030337
86	0x3f7f1272	0.9963752
87	0xbe979f23	-0.296136
88	0x3f6389f5	0.8888238
89	0x3e350c0b	0.17680375
90	0x3f0ee8e4	0.5582411
91	0x3d879518	0.06620234
92	0x3f04d59d	0.5188845
93	0x3f8e45eb	1.1115087
94	0xbe44ad22	-0.1920667
95	0x3fa321f0	1.2744732
96	0x3f62979a	0.88512576
97	0x3f9c3795	1.2204462
98	0x3ef996da	0.48747903
99	0xbe576446	-0.21034345
100	0x3d635dc4	0.055509344
101	0xbe9adc61	-0.3024626
102	0xbf3aa90b	-0.7291419
103	0xbeed6316	-0.4636466
104	0x3bb43cee	0.0055004274
105	0xbf77ef08	-0.9684911
106	0x3e56edde	0.20989177
107	0xbf8f0ce5	-1.117581
108	0xbfbba0f6	-1.4658496
109	0xbf6aba03	-0.9169008
110	0xbf1df9b1	-0.61709124
111	0x3dd1c658	0.10242909
112	0x3fa3fcd0	1.2811527
113	0x3ddc4913	0.10756125
114	0xbebb2335	-0.36550298
115	0xbee17daf	-0.440412
116	0xbf44e375	-0.7690957
117	0x3e511221	0.20417072
118	0xbf219b52	-0.63127625
119	0xbf8e2b96	-1.1107051
120	0xbd86a1d2	-0.065738335
121	0xbe9075f4	-0.2821499
122	0x3df8111b	0.121126376
123	0xbdb74d6b	-0.08950313
124	0x3e9ad434	0.30240023
125	0xbeb37b0d	-0.35054818
126	0xbea5bc0d	-0.32370034
127	0x3ebc6bef	0.36801097
128	0x3d5fbfff	0.05462646
129	0xbe6dceb4	-0.23223382
130	0x3f1e4c1c	0.61834884
131	0x3e34c4ba	0.1765317
132	0xbe78853e	-0.24269578
133	0xc013d51a	-2.3098817
134	0xbf4156a7	-0.75522846
135	0x3f85e592	1.0460684
136	0x3e92bea5	0.28661075
137	0xbf90b96c	-1.1306586
138	0x3f02a987	0.5103993
139	0x3f26cc8f	0.6515588
140	0x3e551d90	0.20812058
141	0xbf91a353	-1.1377968
142	0x3edb456a	0.42826396
143	0x3f42a7fe	0.76037586
144	0x3eacfbce	0.33785862
145	0x3d708091	0.05871636
146	0x3f89adac	1.0756125
147	0xbf69b69d	-0.9129427
148	0xbf421974	-0.7582009
149	0xbf4e82ae	-0.8066815
150	0x3eb17cc0	0.3466549
151	0xbcea9463	-0.02863521
152	0x3efd16f1	0.49431565
153	0xbe2c0314	-0.16798049
154	0xbe2848cc	-0.1643402
155	0xbe93040d	-0.28714028
156	0x3ee6e1c4	0.4509412
157	0x3dd21930	0.102587104
158	0xbfadd758	-1.3581343
159	0x3eb6caad	0.35701504
160	0xbec15062	-0.3775664
161	0x3ef85fdd	0.48510638
162	0x3fa41660	1.2819328
163	0xbf147654	-0.57993054
164	0x3ec0ee79	0.3768194
165	0xbe22b6fd	-0.15890117
166	0x3f099827	0.5374779
167	0xbef66423	-0.48123273
168	0xbe237017	-0.15960728
169	0xbed83c99	-0.42233732
170	0xbe83ed40	-0.25766945
171	0x3d49489a	0.049141504
172	0x3ebcf98e	0.36909145
173	0xbf4a8dcd	-0.7912262
174	0xbe3a1fe7	-0.18176232
175	0x3e0fbb0e	0.140362
176	0x3eca9d82	0.39573294
177	0x3e3aca45	0.18241222
178	0xbd7ab0a1	-0.061203603
179	0xbf2e987c	-0.6820142
180	0x3cd84233	0.026398754
181	0xbf0d3f61	-0.55174834
182	0xbf003056	-0.50073755
183	0x3dbdc951	0.09266914
184	0x3f19ade3	0.60030955
185	0x3fc1bc63	1.5135616
186	0xbdb53f22	-0.08849932
187	0x3eef3a3d	0.4672412
188	0x3de6347d	0.1124048
189	0xbeca37a9	-0.3949559
190	0xbe9805d3	-0.29691944
191	0xbe842062	-0.25805956
192	0x3f16ed25	0.58955604
193	0x3f769c83	0.9633257
194	0xbe09cf1b	-0.1345791
195	0xbd982a7b	-0.074299775
196	0x3e58da25	0.21176966
197	0xbf97daef	-1.1863688
198	0x3dfe3faa	0.12414487
199	0x3e978b5b	0.29598507
200	0xbf1e4790	-0.61827946
201	0xbd23ab4a	-0.039958276
202	0x3f4d041b	0.8008439
203	0x3e69dd88	0.22838414
204	0x3f229753	0.6351215
205	0x3ed70d7b	0.42002472
206	0x3f322dfb	0.6960141
207	0x3f419483	0.75617236
208	0xbedc4296	-0.4301955
209	0xbf126745	-0.57188827
210	0xbf4ce3c7	-0.8003506
211	0x3e276334	0.16346437
212	0x3e44c5ed	0.19216128
213	0xbed8de65	-0.42357174
214	0xbf7ee610	-0.995698
215	0x3d23de8c	0.04000716
216	0xbe9b7a80	-0.30366898
217	0xbec01f83	-0.37524042
218	0x3ed879b2	0.42280346
219	0x3ed03b5c	0.40670288
220	0xbe2560e1	-0.16150238
221	0x3f5dac7a	0.86591303
222	0xbf013cc7	-0.50483364
223	0xbf4d6b62	-0.8024198
224	0x3f59cabe	0.85074985
225	0x3fe61bf0	1.7977276
226	0xbed323fc	-0.4123839
227	0xbe73cf65	-0.23809583
228	0x3eadc2cd	0.33937684
229	0xbf946617	-1.1593655
230	0xbf0743ef	-0.52838033
231	0x3eba05b1	0.36332467
232	0x3fa5387a	1.290786
233	0x3ef23e33	0.4731308
234	0xbf55e6f4	-0.8355553
235	0x3f47cd74	0.7804787
236	0x3ec7cde6	0.39024276
237	0xbec3e230	-0.38258505
238	0xbf0f4dd7	-0.5597815
239	0xbd1d0086	-0.038330577
240	0xbf88c361	-1.0684625
241	0xbef4dbfb	-0.47824082
242	0xbfb1d74b	-1.3893827
243	0x3f57bc11	0.8427134
244	0xbf715c3b	-0.9428136
245	0x3ebe9dbd	0.3722972
246	0xbf1d10e2	-0.61353886
247	0xbe02e7e6	-0.12783775
248	0x3e85c357	0.26125595
249	0x3e50efa3	0.20403914
250	0x3e9f937f	0.31167218
251	0xbd0f7056	-0.03501924
252	0x3f84cd70	1.0375195
253	0xbf9fe2aa	-1.2491047
254	0x3d83b0a9	0.064301796
255	0xbdb79111	-0.08963216

memory_rnn.bias_ih f4 [256]
0	0xbde881ac	-0.11352858
1	0xbf100c77	-0.5626902
2	0x3de073f4	0.10959616
3	0xbe90562a	-0.28190738
4	0xbe712e26	-0.2355276
5	0xbf36daa5	-0.71427375
6	0x3dae5884	0.08512977
7	0x3d6701c9	0.056398187
8	0xbe4cf7df	-0.2001643
9	0xbe9c73b6	-0.3055703
10	0x3d7fd3ff	0.062458035
11	0xbe79011a	-0.24316826
12	0xbf20f3b4	-0.6287186
13	0xbe241b22	-0.16025975
14	0xbf036bd0	-0.51336384
15	0x3dbe4ab3	0.092915915
16	0xbe02588d	-0.12729092
17	0xbf09fb8d	-0.5389946
18	0x3da9c315	0.08289162
19	0xbe118cd8	-0.14213884
20	0x3dab7915	0.08372704
21	0xbe128d19	-0.14311637
22	0x3e24f093	0.16107397
23	0x3d59639e	0.053073518
24	0xbef2c3ef	-0.4741511
25	0xbf1b7635	-0.60727245
26	0x3d0ad444	0.03389384
27	0xbec99410	-0.39370775
28	0xbf25df11	-0.647935
29	0x3d6bf720	0.057608724
30	0xbe799573	-0.24373417
31	0xbe81cd25	-0.25351825
32	0xbe336688	-0.17519581
33	0xbe1f2129	-0.15539993
34	0xbe40a72f	-0.18813775
35	0xbe7d5c11	-0.24742152
36	0xbf3836ea	-0.7195879
37	0xbeba8ca1	-0.36435416
38	0xbe9e344f	-0.30899283
39	0x3e46a87f	0.19400214
40	0xbe83f822	-0.25775248
41	0xbd8ec988	-0.06972033
42	0xbe70491d	-0.2346539
43	0xbe4761c4	-0.19470888
44	0xbf85ffad	-1.0468651
45	0xbebba906	-0.36652392
46	0xbe02e93f	-0.12784289
47	0xbe406161	-0.18787147
48	0xbf077ee3	-0.5292799
49	0xbd417522	-0.047230847
50	0xbc0e622a	-0.008690396
51	0xbf70f6c4	-0.94126534
52	0xbe8f022a	-0.2793134
53	0xbecd8e82	-0.40147787
54	0xbd0a5edc	-0.03378187
55	0xbf3f3025	-0.7468284
56	0xbe05fc3e	-0.13084504
57	0x3d920aef	0.07130992
58	0xbebf074e	-0.3731026
59	0xbe962abc	-0.2932948
60	0xbe55fb10	-0.20896554
61	0xbe03100f	-0.12799095
62	0xbe916d56	-0.2840373
63	0x3db26826	0.08711271
64	0xbf2b01ed	-0.66799814
65	0xbf82c579	-1.0216514
66	0x3ee0ae6e	0.4388308
67	0xbdf83ed8	-0.121213615
68	0xbe2ba5ca	-0.16762462
69	0x3f31211e	0.6919116
70	0xbf3b1019	-0.7307144
71	0xbeac09ae	-0.33601135
72	0x3e9e535e	0.3092298
73	0xbf397108	-0.72438097
74	0xbfa6b220	-1.302311
75	0x3dd2a5d1	0.10285533
76	0xbf076ffc	-0.5290525
77	0xbf8adb09	-1.0848094
78	0xbf525810	-0.8216562
79	0xbee19c58	-0.44064593
80	0xbed391f9	-0.41322306
81	0x3f05c989	0.52260643
82	0xbd80494a	-0.06263979
83	0xbdebacaf	-0.11507546
84	0xbf03e038	-0.51514006
85	0xbee3b5f2	-0.4447475
86	0xbde11791	-0.10990823
87	0xbe748cc8	-0.23881829
88	0xbf40579d	-0.7513369
89	0xbe736a26	-0.23770961
90	0xbdeb950c	-0.11503038
91	0x3cc7c207	0.024384512
92	0xbe9de3fc	-0.30838
93	0xbf6a84a8	-0.9160867
94	0x3f22bc27	0.6356835
95	0x3da9e761	0.08296085
96	0xbca6ae85	-0.02034689
97	0x3f4fea66	0.8121704
98	0xbf1c3937	-0.610248
99	0xbe8ce917	-0.27521583
100	0xbdf3b31b	-0.11899396
101	0xbf0f60a9	-0.56006867
102	0xbea3f996	-0.32026356
103	0xbec25c94	-0.37961257
104	0xbde92342	-0.11383678
105	0xbeda9c73	-0.42697486
106	0xbe043a53	-0.12912874
107	0xbeeb5fa0	-0.45971394
108	0xbf3baa6f	-0.73306936
109	0xbc62c85c	-0.013841715
110	0x3ea6e236	0.3259446
111	0xbb9e5f73	-0.004833156
112	0xbe08c15b	-0.1335501
113	0xbf1ccc2d	-0.6124905
114	0xbd30ef4e	-0.04319697
115	0x3e01c9a2	0.12674573
116	0xbf7f394a	-0.9969679
117	0xbe64ec42	-0.2235575
118	0x3eb32631	0.34990075
119	0x3f0cc3e1	0.5498639
120	0xbf198ebd	-0.59983426
121	0x3ea21d76	0.31663102
122	0xbf4bf8dd	-0.7967661
123	0x3f0a22cf	0.53959364
124	0xbec218dc	-0.3790959
125	0x3d60bc63	0.05486716
126	0x3e1f43c7	0.15553199
127	0xbd532380	-0.051547527
128	0x3e125e01	0.14293672
129	0x3e4977a6	0.19674549
130	0xbedfd46f	-0.4371676
131	0xbe92b25a	-0.28651696
132	0x3e869e09	0.26292446
133	0x3f27738a	0.65410674
134	0x3f4bded3	0.7963688
135	0x3df73521	0.120706804
136	0x3b8222c8	0.0039714314
137	0x3e9c373a	0.30510885
138	0xbe090c98	-0.1338371
139	0x3eef18ca	0.466986
140	0x3f168e7b	0.5881116
141	0x3ed00a64	0.40632927
142	0x3efae42f	0.49002215
143	0x3e66be48	0.22533524
144	0x3e1bda78	0.15220058
145	0x3eb94eb2	0.36192852
146	0xbed38585	-0.41312805
147	0x3f1287a2	0.5723821
148	0xbf0db33f	-0.5535163
149	0xbefff2c3	-0.499899
150	0xbec3da5a	-0.38252527
151	0xbd6c45b0	-0.057683647
152	0x3f1e30fd	0.617935
153	0xbd68e8b8	-0.056862563
154	0xb8a810f0	-8.014019e-05
155	0xbdcc600c	-0.09979257
156	0xbf05e601	-0.52304083
157	0xbe2c25e6	-0.16811332
158	0xbecabb5a	-0.39596063
159	0xbcddf738	-0.027095422
160	0x3eb5a464	0.35476983
161	0xbf801b53	-1.0008339
162	0x3ec8bded	0.39207402
163	0x3beea5f7	0.007282968
164	0x3ddcf7fa	0.10789485
165	0xbee50b88	-0.4473536
166	0x3e833cf6	0.25632447
167	0x3f2e0ef9	0.67991596
168	0x3ddc9b17	0.107717685
169	0xbece323c	-0.402727
170	0xbf46cfbd	-0.77660733
171	0xbea7c242	-0.32765394
172	0x3ee6e2b4	0.45094836
173	0xbf21f45b	-0.6326348
174	0x3daa3a76	0.08311932
175	0xbf486a94	-0.78287625
176	0xbd1f1c47	-0.038845327
177	0x3dd2fd15	0.10302178
178	0xbf1fd1a5	-0.6242927
179	0xbeef891e	-0.467843
180	0xbf392154	-0.7231648
181	0x3eebc95d	0.46052065
182	0xbdb292b9	-0.087193914
183	0x3e3e2bf2	0.18571451
184	0x3d90f6a8	0.07078296
185	0xbeb03c04	-0.34420788
186	0xbdddbd3b	-0.108271085
187	0xbe3da0f9	-0.18518437
188	0x3dcf5072	0.101227656
189	0x3e35fd41	0.1777239
190	0xbcca4607	-0.024691595
191	0x3d07b591	0.03313214
192	0xbe3db634	-0.18526536
193	0xbf0c2582	-0.5474473
194	0x3e8bf4e2	0.27335268
195	0xbea6a78e	-0.3254971
196	0x3e05827a	0.13038054
197	0x3f8e208d	1.1103684
198	0xbd720b98	-0.059093088
199	0x3e3f3554	0.18672687
200	0xbebe7679	-0.37199762
201	0xbd9fee1c	-0.07809088
202	0x3e178498	0.14796674
203	0x3bb802cc	0.005615568
204	0xbeab3c09	-0.3344424
205	0xbeaa0bc5	-0.33212104
206	0xbf1c2a6a	-0.6100222
207	0xbd8e064b	-0.06934794
208	0x3cc3ed0c	0.023916744
209	0xbe9614ea	-0.2931283
210	0x3ec377b6	0.3817727
211	0xbd4bdab2	-0.04976911
212	0x3e770897	0.2412437
213	0x3c96c65b	0.01840513
214	0xbd2c51a5	-0.04207005
215	0x3d686ec3	0.056746256
216	0x3c69b1d5	0.01426359
217	0xbf5402b5	-0.8281663
218	0xbc3f2f33	-0.011668968
219	0xbbcafa1c	-0.006194366
220	0xbecc5503	-0.3990861
221	0xbd749bc1	-0.05971885
222	0xbf587b2b	-0.8456294
223	0xbf2ab6a3	-0.6668493
224	0xbca7a0f2	-0.020462487
225	0x3f6d86be	0.92783725
226	0xbd958357	-0.07300442
227	0xbed38f83	-0.41320428
228	0xbeb7844c	-0.35843122
229	0xbea7e2d7	-0.32790253
230	0xbe8c1a14	-0.27363646
231	0x3edbae9a	0.42906648
232	0xbe598e80	-0.21245766
233	0xbdd3384c	-0.10313472
234	0xbe64d2f4	-0.22346097
235	0x3c4793f6	0.012181273
236	0xbf1fb5b5	-0.6238664
237	0xbe85b1d4	-0.26112235
238	0x3de52408	0.11188513
239	0x3effb773	0.49944648
240	0xbe973ce2	-0.29538637
241	0xbe3faf72	-0.18719271
242	0x3e8b2798	0.27178645
243	0xbe44a1d7	-0.19202362
244	0xbf16ecf2	-0.589553
245	0xbe228e4e	-0.15874597
246	0xbecf430e	-0.40480846
247	0x3ed6bc0a	0.41940337
248	0xbd63253a	-0.055455424
249	0xbc2b063a	-0.010438496
250	0xbf22949e	-0.6350802
251	0xbe3c93fe	-0.1841583
252	0xbe683156	-0.2267507
253	0x3e369544	0.17830378
254	0xbd20ddb3	-0.03927393
255	0x3de89a43	0.11357548

memory_rnn.bias_hh f4 [256]
0	0xbe8c9e41	-0.27464488
1	0xbecb2726	-0.39678305
2	0x3e42f494	0.19038612
3	0xbe52732b	-0.20551746
4	0xbd11872a	-0.035529293
5	0xbf1efe73	-0.6210701
6	0x3d19d9e5	0.037561316
7	0xbcc5a84c	-0.024128102
8	0xbe21d8f5	-0.15805419
9	0xbe7e871b	-0.24856226
10	0x3d6ba626	0.0575315
11	0xbdaaee50	-0.08346236
12	0xbee901f9	-0.45509318
13	0xbdfaec2d	-0.12252078
14	0xbeeb2677	-0.45927784
15	0x3dd497eb	0.103805386
16	0xbc8213ff	-0.015878676
17	0xbecafa69	-0.39644173
18	0x3e3bd354	0.18342334
19	0xbe85ce50	-0.26133966
20	0x3e1e8f9d	0.15484472
21	0x3d352c54	0.044231728
22	0x3e0abeab	0.13549297
23	0x3dbb8fbc	0.091582745
24	0xbe8371e0	-0.25672817
25	0xbf3a446b	-0.7276065
26	0x3d8a08c5	0.06739954
27	0xbe8ce042	-0.27514845
28	0xbf4ea9cf	-0.8072786
29	0xbd8f81bd	-0.070071675
30	0xbd63e01b	-0.055633646
31	0xbe69af63	-0.22820811
32	0xbde4d2a6	-0.111729905
33	0xbe95ee64	-0.2928344
34	0xbea5d819	-0.32391432
35	0xbe01424c	-0.12622947
36	0xbf453c0e	-0.7704476
37	0xbea3abf9	-0.31967142
38	0xbe32b23d	-0.17450805
39	0x3e2f67eb	0.17129485
40	0xbe93cf2c	-0.28868997
41	0xbe87575e	-0.26433843
42	0xbe9a6045	-0.30151573
43	0xbe3fd37c	-0.18733019
44	0xbf8a347d	-1.0797268
45	0xbe9956a4	-0.29948914
46	0xbdb9d7cb	-0.09074362
47	0xbe9c4074	-0.30517924
48	0xbee7a6c4	-0.4524442
49	0xbcaf1731	-0.021373363
50	0xbd711fbb	-0.05886815
51	0xbf88f18e	-1.0698717
52	0xbeaa6558	-0.33280444
53	0xbe22f394	-0.1591323
54	0xbdec0996	-0.11525266
55	0xbf5303ad	-0.82427484
56	0xbdf9a933	-0.12190475
57	0x3d9c2c61	0.07625652
58	0xbeeaeefa	-0.4588545
59	0xbea59b92	-0.32345253
60	0xbe744102	-0.23852924
61	0xbe8f43f3	-0.2798153
62	0xbee6516c	-0.44983995
63	0x3e35200b	0.17688005
64	0xbf2f29b3	-0.68423
65	0xbf71c1f8	-0.944366
66	0x3ef0ae5a	0.4700802
67	0x3def7151	0.11691535
68	0xbe231320	-0.15925264
69	0x3f225880	0.6341629
70	0xbf46c5e9	-0.77645737
71	0xbe988148	-0.29786134
72	0x3e93dd3e	0.28879732
73	0xbf5b603a	-0.85693705
74	0xbf9a6342	-1.2061541
75	0x3e66512b	0.224919
76	0xbf00de6b	-0.5033938
77	0xbf9b443a	-1.2130196
78	0xbf2729e8	-0.6529832
79	0xbec459c6	-0.38349742
80	0xbeea58c1	-0.4577084
81	0x3ee65d18	0.449929
82	0xbe00c86b	-0.12576453
83	0xbde1c5cb	-0.11024054
84	0xbf17ab74	-0.5924599
85	0xbec6124c	-0.38685834
86	0xbe1670a3	-0.14691405
87	0xbe8a1515	-0.2696921
88	0xbf26942d	-0.6506985
89	0xbe902ab0	-0.28157568
90	0xbb843fce	-0.0040359264
91	0xbe12754a	-0.14302555
92	0xbe1cf331	-0.15327145
93	0xbf78ecdc	-0.9723642
94	0x3f1483ab	0.5801341
95	0xbd45ef13	-0.048323702
96	0x3cfe35ef	0.031031577
97	0x3f4c1a16	0.79727304
98	0xbf3cfa21	-0.73819166
99	0xbe9cb984	-0.30610287
100	0x3d9acb45	0.07558302
101	0xbed780b6	-0.42090386
102	0xbea6d81c	-0.32586753
103	0xbe9b7600	-0.30363464
104	0xbd6078ba	-0.054802634
105	0xbecd6617	-0.4011695
106	0xbe840552	-0.2578531
107	0xbeddef8e	-0.43346828
108	0xbf180333	-0.5937988
109	0xbdca7950	-0.0988642
110	0x3ea4bd02	0.32175452
111	0x3ce07cf7	0.027403338
112	0xbdcb0542	-0.09913112
113	0xbf2639b7	-0.64931816
114	0xbdfe0c2f	-0.124046676
115	0x3d846574	0.06464663
116	0xbf480fa1	-0.7814885
117	0xbe9177e8	-0.28411794
118	0x3eccde83	0.40013513
119	0x3ee7db06	0.4528429
120	0xbf0b3839	-0.54382664
121	0x3e887d0e	0.2665791
122	0xbf703615	-0.9383252
123	0x3efb85a4	0.49125397
124	0xbed0c640	-0.40776253
125	0xbd80cd7a	-0.062891915
126	0x3d644267	0.05572739
127	0x3d652f2e	0.055953197
128	0x3d65d4e6	0.05611124
129	0x3e54538c	0.20734996
130	0xbedf28c9	-0.43585804
131	0xbe88f2e0	-0.267478
132	0x3e9d8313	0.30764064
133	0x3f40a49c	0.75251174
134	0x3f1b823d	0.607456
135	0x3e578ab6	0.21049008
136	0x3de69865	0.11259536
137	0x3e85b745	0.26116386
138	0xbdff90d7	-0.12478798
139	0x3f148532	0.5801574
140	0x3f102d46	0.5631908
141	0x3ebf618c	0.3737911
142	0x3f0b2962	0.5436002
143	0x3e8aa893	0.27081737
144	0x3e1ebb14	0.15501052
145	0x3ead228a	0.33815414
146	0xbeec926d	-0.46205464
147	0x3effaa15	0.4993445
148	0xbf036ebc	-0.5134084
149	0xbf2f6f8f	-0.685296
150	0xbebe8c7a	-0.3721655
151	0xbd22ddb6	-0.03976222
152	0x3f046429	0.5171533
153	0x3dee7ea8	0.116452515
154	0x3c3cde32	0.011527585
155	0xbdb81046	-0.08987479
156	0xbeff297e	-0.49836344
157	0xbe29d5f8	-0.16585529
158	0xbf0ecd0a	-0.55781615
159	0xbe31b82d	-0.17355414
160	0x3ecf607e	0.40503305
161	0xbf607e40	-0.8769264
162	0x3eeac953	0.45856723
163	0x3b3d50ea	0.002888734
164	0x3d7f9bf0	0.062404573
165	0xbf13cc9f	-0.577341
166	0x3e3c90ec	0.18414658
167	0x3f2e3ac3	0.68058413
168	0xbde77bbc	-0.11302897
169	0xbe9b83d6	-0.3037402
170	0xbf1b496d	-0.60658914
171	0xbe817c6e	-0.25290245
172	0x3efc8d24	0.49326432
173	0xbedc32d3	-0.43007526
174	0x3e154424	0.14576775
175	0xbf480d20	-0.7814503
176	0x3c461f40	0.0120924115
177	0x3e30c9b7	0.17264448
178	0xbf2a4233	-0.6650726
179	0xbf00a07b	-0.50244874
180	0xbf330ee6	-0.6994461
181	0x3ead4897	0.33844444
182	0xbdc305cd	-0.09522591
183	0x3e4d5082	0.20050243
184	0x3daf7834	0.08567849
185	0xbe9aea87	-0.30257055
186	0xbe39149a	-0.18074265
187	0xbe514307	-0.20435725
188	0xbd8f2500	-0.06989479
189	0x3e299b17	0.16563068
190	0xbdd115bd	-0.102092244
191	0xbd5c836f	-0.053836282
192	0xbe31e884	-0.17373854
193	0xbee7bdfa	-0.45262128
194	0x3e528200	0.20557404
195	0xbe21c373	-0.15797214
196	0xbd4439cd	-0.047906686
197	0x3f8fd65d	1.1237293
198	0x3d9abaae	0.075551376
199	0x3dc54dd8	0.09633988
200	0xbea7ab19	-0.32747725
201	0xbe033de1	-0.12816574
202	0x3d8d3ea2	0.06896712
203	0x3dbbd53e	0.09171532
204	0xbeed2f3b	-0.46325096
205	0xbea0554b	-0.31315073
206	0xbed32d28	-0.4124539
207	0xbe2f7800	-0.1713562
208	0xbe0484c0	-0.12941265
209	0xbe2fd92b	-0.17172687
210	0x3e79d7dd	0.24398752
211	0xbe0b4bf5	-0.13603194
212	0x3e6ff41e	0.23432967
213	0xbda89e05	-0.08233265
214	0x3d68e368	0.056857497
215	0xbd7c1eb7	-0.06155273
216	0xbe31aef8	-0.17351902
217	0xbf4ef443	-0.80841464
218	0xbdc459f1	-0.095874675
219	0x3dd19b7a	0.10234733
220	0xbe6e047d	-0.232439
221	0x39eb66a2	0.0004489916
222	0xbf56da9b	-0.83927315
223	0xbf278ab9	-0.6544605
224	0x3d8cb99d	0.068713404
225	0x3f83e881	1.030533
226	0xbe8b9a16	-0.27265996
227	0xbeaf460f	-0.34233138
228	0xbea6bf32	-0.32567745
229	0xbe294371	-0.16529633
230	0xbef33828	-0.4750378
231	0x3efc3e89	0.4926646
232	0xbdf7d39a	-0.12100907
233	0xbe1e6785	-0.15469177
234	0xbd593fc8	-0.053039342
235	0xbd939ac2	-0.07207252
236	0xbf20565f	-0.6263179
237	0xbe746211	-0.23865534
238	0x3dd9b39d	0.10629962
239	0x3eb3dcbf	0.35129353
240	0xbe54f1f0	-0.20795417
241	0xbd95157b	-0.07279488
242	0x3eb70220	0.3574381
243	0xbea76969	-0.3269761
244	0xbf03b410	-0.5144663
245	0xbe56a00b	-0.20959489
246	0xbececb00	-0.40389252
247	0x3efe2b12	0.49642235
248	0xbdad4edd	-0.084623076
249	0x3e5102bb	0.20411198
250	0xbf31503a	-0.6926304
251	0x3ade3177	0.0016951998
252	0xbe1f2a3c	-0.15543455
253	0xbc04cc66	-0.008105373
254	0x3d8bb6cb	0.06821974
255	0x3dbb5915	0.091478504
