torch-rl/storage/Lstm-Customs-SimpleCorridor-v1/status.pt (torch, 650645 bytes, 51 tensors)

image_conv.0.weight f4 [16, 3, 2, 2]
000000 83 f7 c6 3e 00 37 67 be af d0 64 bd cf 43 44 3c
       0.3886071 -0.22579575 -0.05586308 0.011979057
000010 00 1f 82 bd a9 07 d7 3d c8 99 88 bd d1 cc 10 bc
       -0.06353569 0.10499508 -0.066699564 -0.008837895
000020 23 60 24 3d 94 c7 10 bd 45 fa a3 3d 7e 52 69 3c
       0.040130746 -0.035346583 0.080067195 0.014240859
000030 4f 00 2e bd 2d 2a 2f be 13 0a d5 bd b8 38 0c be
       -0.042480763 -0.17105933 -0.10402312 -0.13693511
000040 09 9d 48 3d b1 4f 1a be bd 01 25 3e 26 96 22 bd
       0.048977885 -0.15069462 0.16113944 -0.039693974
000050 47 2b dc bd 72 88 32 be e4 30 46 bd f1 02 ff bd
       -0.10750442 -0.17434862 -0.04838647 -0.12451733
000060 49 d0 af bd b7 00 5d be 9d 98 60 3e a3 c1 a0 bd
       -0.08584649 -0.21582304 0.21933217 -0.07849433
000070 0d c8 b6 be 57 a6 9d bd d9 4d e5 bd 4c 3a a0 3d
       -0.35699502 -0.076977424 -0.11196489 0.07823619
000080 aa 1d 43 3e ec aa 86 be f4 87 8c be 38 94 0e be
       0.19054285 -0.26302278 -0.27447474 -0.13923728
000090 a4 6b ff 3d 00 96 5c be fe 49 61 3c ac b6 82 be
       0.12471703 -0.21541595 0.013750551 -0.25529993
0000a0 ab a6 80 3e 71 e9 4c be 22 fa c1 3d e0 ea 0c be
       0.25127158 -0.20010926 0.09471537 -0.13761473
0000b0 9f ba 1b be cb f1 17 3e 86 e9 1c be 6d e0 ad 3d
       -0.15207909 0.1483833 -0.15323457 0.084900714
0000c0 65 fc 3c be c9 97 f0 bd a9 fc da be f3 04 a1 be
       -0.18455656 -0.11747701 -0.4277089 -0.31449088
0000d0 56 b5 9d 3d b8 71 23 be 23 63 0f 3e 18 39 fd 3d
       0.07700603 -0.15961349 0.14002661 0.123644054
0000e0 a1 75 5d bc 6b 4f 45 be e1 02 34 3e 35 7c b7 3d
       -0.013516814 -0.19268577 0.17579223 0.089592375
0000f0 d1 60 81 be 62 9f 04 3e bc 94 08 3e 0f 6c c7 3e
       -0.25269178 0.12951425 0.13337988 0.3894963
000100 51 61 66 3c 61 62 57 bd 12 43 0a 3c bf b7 e9 bd
       0.014061288 -0.052584056 0.008438842 -0.11412
000110 ba 56 60 be 49 c4 51 be 3f cf 20 3e 19 a2 8a bd
       -0.21908084 -0.20485033 0.15704058 -0.06769199
000120 65 35 1b 3e 69 bf 06 be cf 04 ec 3c 07 38 3d bd
       0.15157087 -0.13158955 0.028810887 -0.04619601
000130 31 16 f9 3a 7a a1 dd 3c d3 86 a4 be 91 59 a3 3d
       0.0019003806 0.027054537 -0.32134113 0.07976068
000140 77 d8 4f be 0e 09 5f be c3 d0 8f 3c e1 7d 49 bd
       -0.20297419 -0.21780798 0.0175556 -0.049192313
000150 1f 55 9d 3e 0a 87 8f be 12 59 9a be a5 21 e8 3e
       0.30729005 -0.28032714 -0.3014608 0.4533817
000160 df b9 de bd 35 f7 9f 3d bd 2d 97 3d 6f 95 32 be
       -0.10875296 0.07810823 0.07381771 -0.17439817
000170 79 8b 6d 3d 7e 01 8e 3d 7c ec 45 be 6e 41 0c be
       0.05799434 0.06933878 -0.19328493 -0.13696834
000180 05 65 df bd 7b 1b 87 3d 8e 30 95 be 22 1d 6b be
       -0.1090794 0.06597038 -0.29138607 -0.22960332
000190 b0 34 02 3e 18 c5 46 be bb d4 22 3c 90 4f 69 3d
       0.12715411 -0.19411123 0.009938414 0.056960642
0001a0 82 14 3f be ca 63 7b be 87 df 8d 3e 9b f7 76 3c
       -0.18660167 -0.24549785 0.277096 0.015073682
0001b0 78 68 7e 3e bd b4 47 bd 6a 11 2f be 28 d8 89 3d
       0.24844539 -0.04875635 -0.17096487 0.06730682
0001c0 47 e9 03 bd 07 17 c9 bd c6 18 68 be 85 d4 90 3d
       -0.032204892 -0.09818845 -0.226657 0.07071785
0001d0 3b 25 56 3e e2 a3 37 3e 08 ef 55 be 7e dd 54 be
       0.2091264 0.1793361 -0.20891964 -0.20787618
0001e0 14 0f a2 be e9 0f 28 bd db e0 e6 3e 3c 48 a9 be
       -0.3165213 -0.041030798 0.45093426 -0.33062923
0001f0 3e 85 be 3d 7d ea ce bd 99 50 57 be ac 0b cf bd
       0.09302758 -0.10103319 -0.2102684 -0.10109648
000200 6b 51 2a 3e 22 37 89 3e c5 94 37 be 69 4c 80 3d
       0.16632621 0.26799875 -0.17927845 0.06264574
000210 67 3a 12 bd 54 b6 a5 bd 43 bd c2 3d d9 f6 02 3e
       -0.035700228 -0.08091417 0.09508755 0.12789477
000220 df c7 01 3c 7d 6e 4f bd 6d 83 ae be 3f 1c 77 be
       0.007921188 -0.05064248 -0.34084645 -0.24131869
000230 98 73 07 be eb af 09 bd d3 30 35 be 8d 4b d8 3d
       -0.1322769 -0.033615034 -0.17694406 0.10561285
000240 61 42 97 bd af 2f 74 be e4 e0 6c bd ef 8d 38 be
       -0.07385708 -0.23846315 -0.05783166 -0.18022893
000250 d1 9f c0 3d 3f 4f 76 3b da 9c 32 be 13 4a 53 3d
       0.094054826 0.0037583855 -0.17442647 0.051584315
000260 36 b2 08 bd f1 7d 22 bc ce 81 8b be 4e 41 3e be
       -0.03337308 -0.009917722 -0.2724747 -0.185796
000270 0a ab cf bd d1 47 3d be 17 5b ad 3e 2a 33 85 be
       -0.10140045 -0.18484427 0.3385856 -0.26015598
000280 f9 fd a9 bc 3b aa b9 3d c8 61 87 bd b5 7f ef bc
       -0.020750986 0.09065672 -0.06610447 -0.0292357
000290 6c f7 18 be b6 2e 80 3d aa 3a d7 bd 45 d4 84 bd
       -0.14938134 0.062589094 -0.10509236 -0.064858
0002a0 1e 3d 97 be 2c cc b2 be 81 12 87 be 0f 9c a9 bd
       -0.29538816 -0.34921396 -0.26381305 -0.08281719
0002b0 e8 33 86 3d ae 4b b8 bd 0d a9 de 3d 99 b5 aa 3d
       0.06552869 -0.0899881 0.10872088 0.08335418
0002c0 8b 9d 49 3e e2 9b 16 3c f0 7e 4c be 51 04 67 3e
       0.19689004 0.009192439 -0.19970298 0.2256024
0002d0 ac 4d cf bd 9f da db bc 69 6e 81 be 46 98 81 bd
       -0.101222366 -0.026837645 -0.2527955 -0.06327872
0002e0 56 e8 68 be d3 74 8d 3e 28 8e 7f be 50 9e 7f be
       -0.22744879 0.27628192 -0.24956572 -0.24962735
0002f0 fa 99 20 bc 59 d6 1f be 68 8a d3 3d 12 92 e3 bd
       -0.009802336 -0.15609111 0.10329133 -0.11111845

image_conv.0.bias f4 [16]
000000 b4 ec 67 be 13 03 72 bd 18 51 0a bd c1 fc 8a be
       -0.22648889 -0.059084963 -0.033768743 -0.2714596
000010 b6 fb 28 bd d9 98 61 be b8 5a 24 3e 87 49 9d be
       -0.041255675 -0.22030963 0.16050231 -0.3072016
000020 e3 f1 02 be 15 eb e3 be f6 32 1e 3b 8c f2 02 bf
       -0.12787585 -0.4451529 0.0024139262 -0.5115135
000030 05 36 7e bc cf 89 ad bd 14 9f 92 be 22 a8 66 bd
       -0.015515809 -0.084735505 -0.28636992 -0.056312688

image_conv.3.weight f4 [32, 16, 2, 2]
000000 3b e1 1f bd 68 23 6c 3e 41 2d b1 bd 4c 34 86 be
       -0.039033156 0.23060381 -0.086512096 -0.26211774
000010 da 36 90 be 50 87 88 bd e5 24 45 3e 66 d5 93 3c
       -0.28166848 -0.06666434 0.19252355 0.018046092
000020 b8 27 9c 3d dc 97 1a be f9 b7 b8 bd 36 58 ef 3d
       0.07624763 -0.15096992 -0.09019465 0.11686747
000030 65 db c8 bd ed e8 9e bb 41 20 d8 bd a3 aa 01 be
       -0.09807471 -0.0048495443 -0.10553027 -0.12662749
000040 1c ba 0c 3c 94 ad 26 be 4a 68 f6 3b a6 6c 02 3d
       0.008589294 -0.16277152 0.0075197564 0.031841896
000050 c2 99 11 3d 05 6b 9b 3d e4 07 0d be f0 64 ac be
       0.035547026 0.07588772 -0.13772541 -0.3367076
000060 0d 10 9f 3d e6 6c 25 be fa 30 60 be b1 d6 eb bd
       0.07766733 -0.16154823 -0.21893683 -0.115155585
000070 86 15 f5 bd 02 9a bd 3d c6 89 0d 3d ba ca bb be
       -0.11966996 0.0925789 0.03455522 -0.36678106
000080 34 05 55 bd 93 5e cf 3c ea c9 58 3c f3 94 03 be
       -0.052006915 0.025313651 0.013231734 -0.12849788
000090 99 35 f3 bd cd aa 2a 3c 1b a3 0f be df 02 9d be
       -0.11875457 0.010416699 -0.14027064 -0.30666253
0000a0 40 8f 67 bd 1d 38 87 3e 4a 55 81 bc dd 9f 95 bd
       -0.0565331 0.2641 -0.01578774 -0.07305882
0000b0 54 02 ad 3c 10 49 a3 3d 6d c3 fd bc d1 1a 05 be
       0.021119274 0.0797292 -0.030976975 -0.12998511
0000c0 74 bb 5e 3d 63 a9 13 3d b7 31 81 bd 9d f5 b8 bd
       0.054377988 0.03605021 -0.063083105 -0.09031222
0000d0 6a 8b 2a 3e 67 11 7f 3e 23 03 e1 bd 07 1e 6a bd
       0.16654745 0.24908982 -0.109869264 -0.057157543
0000e0 bf 3f ef bb 32 a7 2c bd 70 5f 06 3e cd 4a d3 bd
       -0.0073013003 -0.042151637 0.13122344 -0.103170015
0000f0 7e 57 c3 3c e9 dd 8a be 3a d7 cc 3c a2 d5 51 bd
       0.02384543 -0.2712243 0.025004972 -0.051229127
000100 08 00 55 3e df d5 88 bd 3d 4c cd bd 43 61 8e bd
       0.20800793 -0.06681418 -0.10024307 -0.06952145
000110 bf b7 3e be b8 25 67 3d 17 cf 34 be a9 09 ec 3d
       -0.18624781 0.056432456 -0.17657124 0.1152528
000120 04 32 71 3c 07 27 77 bd c4 75 87 3b 4b 77 a9 bd
       0.014721397 -0.060339954 0.004133912 -0.082747065
000130 32 4b 96 bd 82 16 64 bd 15 66 08 be 16 f5 2e 3e
       -0.07338561 -0.055685528 -0.13320191 0.1708568
000140 39 c2 96 3c 74 77 86 3d 59 c9 30 bd 45 32 fc bb
       0.01840316 0.065657526 -0.04316077 -0.0076964223
000150 7f 65 0c 3e 4e 7f 73 3e 01 82 c2 bb e7 29 23 3d
       0.13710593 0.23779032 -0.005935908 0.039834883
000160 bd ae 99 bd b9 7a 4c 3d 3b f7 88 bd 22 cf de bd
       -0.07504032 0.049921725 -0.066877805 -0.10879351
000170 c2 b7 0b 3e 05 e3 20 3e b4 7c 4d 3d d8 05 c0 bd
       0.13644317 0.15711601 0.050167754 -0.093761146
000180 f6 d8 10 bd ca b9 99 bd 9d e5 1b be f7 19 fb 3d
       -0.03536316 -0.075061396 -0.1522431 0.12260812
000190 0e 90 22 3e 60 c8 2a 3d c6 4c 96 bd 24 b7 a8 bd
       0.15875265 0.041695 -0.07338862 -0.08238056
0001a0 00 b0 91 3c fa bd 3f be 1e fe 9b 3d 56 9d 98 bd
       0.017784119 -0.18724814 0.076168284 -0.074518844
0001b0 5f 57 38 bd 83 30 f2 3d 88 80 79 3d 0c 02 65 3d
       -0.0450052 0.11825659 0.060913593 0.055910155
0001c0 ac b1 05 bc d7 f5 56 bd 8b c3 e1 bc fd 0e 48 bd
       -0.008160036 -0.052480545 -0.027559062 -0.04884242
0001d0 be e1 20 3e 96 74 2b be e0 24 5a be b0 12 71 3d
       0.15711114 -0.16743693 -0.21303129 0.058855712
0001e0 4a 0e 9b bd dd 38 ef 3c 8f bf cf bc 99 37 95 3d
       -0.07571085 0.02920192 -0.025359897 0.07285995
0001f0 b6 54 07 3e a8 1e 5f bd fc 5c ba bd dd bf 7f 3b
       0.13215908 -0.054472595 -0.090997666 0.0039024272
000200 20 c8 98 3d 65 be 87 3d 61 f9 f7 bd b9 e0 99 be
       0.07460046 0.06628112 -0.12108112 -0.30054262
000210 67 3e 58 3c 8d 5a 92 bd da 0b 0d be e9 fc 8b 3d
       0.013198472 -0.071461774 -0.13774052 0.06835348
000220 8c b2 c0 3d 64 bc ae bd 87 22 f5 bd 82 68 89 bd
       0.09409055 -0.085320264 -0.11969476 -0.067093864
000230 bf c9 99 bd 6d 84 02 be c0 9e 57 3e 4f ef df 3c
       -0.07509183 -0.12745829 0.21056652 0.02733579
000240 2b eb c7 bd 13 9b 90 bd e0 0a 77 3d 38 74 c3 3d
       -0.097616516 -0.07060828 0.060313106 0.09543651
000250 dc 4d 5e 3e fe e0 f7 3d 8f 45 a8 bd cc cd 2d be
       0.21709388 0.12103461 -0.08216392 -0.16973037
000260 02 36 25 be 41 ab 73 be 53 ae a1 bd c6 07 23 be
       -0.16133884 -0.23795797 -0.07894578 -0.15920934
000270 44 a0 9f 3d ef c4 56 3d 8b 72 28 be 16 c6 b6 be
       0.0779424 0.052433904 -0.16449945 -0.35698003
000280 06 63 25 3e b7 3f 78 3c 9e 1a e8 bd b0 0a 3f 3d
       0.16151056 0.01515191 -0.11333202 0.04664105
000290 57 bd c5 3d 94 bb b2 3c ea 37 5c bd 1d c7 ea bd
       0.09655254 0.02181796 -0.05376426 -0.11463759
0002a0 fd 43 14 3d 90 3f b2 3d d5 e2 a2 3d 48 b4 d9 bd
       0.03619765 0.0870353 0.07953421 -0.10630089
0002b0 75 32 ff bc da 69 3d bd 70 26 09 3e 6c 23 d6 bc
       -0.03115199 -0.046243526 0.13393569 -0.026139937
0002c0 d3 b6 ad bd 7a ce 2d bc c1 e1 a0 3b 5e 96 55 3d
       -0.084821366 -0.01060831 0.0049097245 0.052145354
0002d0 f2 f0 44 3d b0 32 14 3d 3f 30 e0 bc 40 8b 94 bd
       0.048081346 0.036181152 -0.027366756 -0.07253122
0002e0 f2 55 a3 3b 60 04 00 bd 97 c7 de 3d 9c 5a 6a 3b
       0.0049846107 -0.031254172 0.108779125 0.0035759574
0002f0 17 4a b8 3a 6d aa e5 bd 39 3e 70 3e ad 02 ae bb
       0.0014060166 -0.11214147 0.23461236 -0.0053103776
000300 e5 27 51 3e 60 4b 51 3e 34 ba 32 be ca 06 7e be
       0.20425375 0.2043891 -0.17453843 -0.24807277
000310 5a 48 ae bd b0 8a f9 bc 7d 5f 6a bd 86 b9 2e be
       -0.08509894 -0.03046164 -0.05721997 -0.17062959
000320 2c c5 0e 3e c0 4a 09 bd bc d1 0e be d6 dd be bb
       0.13942403 -0.033518553 -0.13947195 -0.0058247847
000330 0c cd c9 3b b9 de a8 bd 59 8c 12 bd c3 04 09 3d
       0.0061584767 -0.08245606 -0.035778377 0.033451807
000340 de 53 aa bd 10 6f 86 3d d0 0f 39 bd cc da 53 bd
       -0.08316778 0.06564152 -0.045181096 -0.051722333
000350 7f ca ae bc da 65 37 3e 59 30 4d bd 2b ed a1 bd
       -0.021336792 0.17909947 -0.050094936 -0.07906564
000360 83 1f ac 3d 62 e4 31 3e 27 7c 3d be 31 71 56 be
       0.08404448 0.17372277 -0.18504392 -0.20941617
000370 6e 91 2d 3e 13 98 1f 3e e6 15 9f be 7e a1 be be
       0.16950008 0.15585355 -0.31071395 -0.37232584
000380 33 1a 6e 3d 48 7d 9c 3d 13 8e 43 bd e4 fd e2 bd
       0.058130454 0.07641083 -0.047742914 -0.11083582
000390 a5 eb 4b 3e 81 93 c3 3d e6 40 48 bc cb 45 64 bd
       0.1991411 0.095496185 -0.012222504 -0.055730622
0003a0 66 42 ad bc d1 aa a8 3e 87 d3 1b be e4 10 44 be
       -0.021149825 0.32942823 -0.1521741 -0.19147068
0003b0 8f 91 2b 3d e0 21 df 3d e7 77 a2 bd 15 26 81 3d
       0.041886862 0.10895133 -0.07933026 0.06306092
0003c0 14 38 42 bd ea 73 db bd 67 66 24 bb c5 f5 13 3d
       -0.04741676 -0.10715468 -0.002508545 0.036123056
0003d0 77 31 37 3e 64 bd 09 bd ca 9f 2c 3d 68 cd 1f 3c
       0.17889963 -0.033627883 0.042144574 0.0097535625
0003e0 20 82 13 bb 67 5e ad bc a5 2e d5 3c ef 99 a5 bd
       -0.002250798 -0.021163179 0.026023218 -0.08086001
0003f0 f8 50 fe 3d 81 61 3d be 9a 2f 33 3e 77 b9 74 3d
       0.12417787 -0.18494226 0.17498627 0.059747186

image_conv.3.bias f4 [32]
000000 b8 33 f5 bd 2a 09 6e 3c a6 e5 8d bd e7 80 de bd
       -0.11972755 0.014528552 -0.069285676 -0.1086443
000010 f4 94 5a bd ed f6 a5 bd 7c ff 30 be 5f c2 0d be
       -0.05336471 -0.08103738 -0.1728496 -0.13843678
000020 aa c7 01 bd 15 61 1c 3d 87 73 a4 bc 1d 16 36 bd
       -0.031684555 0.038178522 -0.020074619 -0.044454683
000030 6a 4b 06 be 9c f2 46 bd 8f 91 06 bd bf 43 4b be
       -0.13114706 -0.048571214 -0.03285366 -0.19850062
000040 60 6d 1c 3d 5b ca 8d bc 98 c8 3d 3e 50 46 7b bd
       0.038190246 -0.017308405 0.18533552 -0.061346352
000050 e2 13 9b bd dc 5b 6d 3d 02 43 91 bd b9 98 54 be
       -0.07572152 0.057948932 -0.07092859 -0.20761384
000060 c6 4e e0 bd 84 92 b9 bd fc d9 96 bd f7 7f 52 bd
       -0.10952525 -0.09061149 -0.07365796 -0.051391568
000070 5a 1d f4 3c 38 59 37 bc 0c 74 17 be 0a 6e c7 bc
       0.029799152 -0.011190705 -0.14790362 -0.024344463

image_conv.5.weight f4 [64, 32, 2, 2]
000000 67 61 7b 3d e3 88 6d bd 37 7f 2d bd 33 ec a2 bc
       0.061372187 -0.057991873 -0.04235765 -0.01988802
000010 2a 5c a5 ba 18 9a cb 3c 14 13 dc bb d2 4e 94 bc
       -0.0012615968 0.024853751 -0.0067161415 -0.01810399
000020 34 41 a2 bd 24 16 90 bd 44 ce 4b 3b 13 e3 e9 bd
       -0.07922593 -0.07035473 0.0031098286 -0.11420264
000030 0e 74 8d 3b fb 75 48 bd 2a 52 07 3d 65 c9 26 be
       0.0043168133 -0.04894064 0.033037342 -0.16287763
000040 03 d7 9e bc 3a f7 f0 3c 11 09 8e 3d 8b 89 64 3d
       -0.019389635 0.029414762 0.06935323 0.055795234
000050 4d 18 e6 bd 23 be 90 bd 60 7b 11 be d8 f1 0e 3e
       -0.11235104 -0.07067516 -0.1420722 0.13959444
000060 41 5d bd bd d8 25 65 bd e9 38 10 3d c6 e7 a9 3c
       -0.092463024 -0.055944294 0.035210524 0.020740401
000070 52 54 bc bd d0 d7 ae 3c dd 04 44 3d 86 b5 63 3d
       -0.0919577 0.021343142 0.0478562 0.055593036
000080 48 ea 17 bd 9c 9f e5 bc e7 4b 20 bd 95 e1 09 3d
       -0.037088662 -0.02803021 -0.039134886 0.033662397
000090 7f 65 46 bc 4c c0 89 bd 26 0f 3a 3c 85 bd bd bd
       -0.0121091595 -0.06726131 0.011356151 -0.092646636
0000a0 45 0f b5 3c 88 a8 7b 3d 9a cb 8c bd da b2 83 bd
       0.022102008 0.06144002 -0.068747714 -0.064305976
0000b0 fc db 56 3b 26 43 d6 bb 4a a0 16 bd f0 33 89 3d
       0.003278493 -0.0065387664 -0.036773957 0.066993594
0000c0 1b 76 3a bc cb 89 22 3c 9a 3a d5 3c 11 12 4d 3c
       -0.011380698 0.009920548 0.02602892 0.012516514
0000d0 67 62 cf bd 94 e7 6a bd d7 49 79 bd b3 de f6 bb
       -0.10126191 -0.057349756 -0.060861435 -0.007533872
0000e0 d5 e7 43 3d 68 af 9c bd 71 d0 00 bc 8d 84 b8 3d
       0.047828514 -0.076506436 -0.007862196 0.09009657
0000f0 53 f7 0b 3d 17 75 2a bd 18 2e f2 ba 7b be d0 bd
       0.034171414 -0.04161557 -0.0018476872 -0.10192581
000100 e9 01 0d bd 0b 3a 0d 3c d0 25 fd 3c 70 b9 3c bd
       -0.03442565 0.008619796 0.03090182 -0.046075284
000110 bc a5 54 3c 26 18 b2 bc bb e2 37 bd e1 d7 e2 ba
       0.012978967 -0.02174003 -0.04489396 -0.0017306769
000120 31 cd d1 bd ee 77 1b bd 2d 7a d9 bc 33 e4 8e bd
       -0.10244215 -0.03795617 -0.026547516 -0.06977119
000130 9d 1c 2b bd e3 83 9b bd 2b 03 a7 bc 80 aa 3b 3c
       -0.041775335 -0.07593515 -0.020387253 0.011454225
000140 b6 81 99 3d 29 14 b6 bd 17 d8 a3 bd ff 43 0d bd
       0.074954435 -0.08890564 -0.080002 -0.034488674
000150 eb 4f 2f 3d cc 5b 48 bd b5 21 1f bc 87 92 f0 bc
       0.042800825 -0.04891567 -0.009712626 -0.029366745
000160 40 5b 94 bc fb dd 13 3d 27 44 4e 3d ab bf b5 bd
       -0.018109918 0.03610037 0.050357964 -0.088744484
000170 d2 d0 58 bd b8 c1 8c bd b1 17 b0 bc 31 cc 05 bd
       -0.05293352 -0.068728864 -0.021495672 -0.032665435
000180 fd ea 8b 3d 20 23 c3 bd 13 b0 60 3d bd a0 91 bd
       0.0683193 -0.09528184 0.054855417 -0.071107365
000190 2b 88 8b 3b b8 25 0e bc 16 78 48 3d 7f b7 9e bd
       0.004258176 -0.008675985 0.048942648 -0.07749843
0001a0 1f ff c9 bd 31 45 0a bd 21 a3 73 3c ed fc 92 bd
       -0.098631136 -0.033757392 0.014870436 -0.07177148
0001b0 54 3e ab 3c 3f c7 ee bc fa e7 ae bd 90 d1 d4 bc
       0.020903744 -0.029147742 -0.0854034 -0.025978833
0001c0 c0 d7 a7 bc ff 29 52 3d f1 bc 72 3d f2 54 d8 3c
       -0.02048862 0.05130958 0.05926222 0.026407693
0001d0 44 0c 5c 3d 0b e9 a2 bd 09 3b b2 bd 1d 23 b3 bc
       0.053722635 -0.07954606 -0.08702666 -0.02186733
0001e0 fa a4 8e 3c 76 e4 95 bd da c7 7c 3d c9 fd 6c bc
       0.017412651 -0.07318966 0.06171403 -0.014464804
0001f0 95 90 8b bd c6 20 09 3d 82 4b 7c 3d aa 20 e6 bc
       -0.06814686 0.03347852 0.061595447 -0.028091747
000200 67 5e f3 bd 7e 36 80 3d 53 d7 1a be f1 bf cd 3d
       -0.1188324 0.062603936 -0.15121202 0.100463755
000210 94 1e c5 3c 6e 67 9d bd a3 82 8f bd 3b 02 7c 3c
       0.024062432 -0.07685743 -0.07007339 0.015381391
000220 c7 30 fe bd a7 2b f1 bd 01 35 99 bd 50 17 1c be
       -0.12411647 -0.11775904 -0.07480813 -0.15243268
000230 f6 a5 00 bd 2e 64 e8 3d 4e ea 8c bc 5d 54 9d 3c
       -0.031408273 0.11347233 -0.017201569 0.019205267
000240 45 8b 9a 3d 1a 61 77 3c 6b ea 56 bd f9 ee ed bc
       0.07546095 0.015098834 -0.052469652 -0.029044615
000250 52 29 8c bd f7 1a 76 bd 35 28 1f be b8 3e 38 be
       -0.06843819 -0.06008431 -0.15542682 -0.17992675
000260 0c e4 d2 bc 98 17 dc 3d de 6b da bc 2a d2 2f bd
       -0.025743507 0.10746688 -0.026662763 -0.042925037
000270 cd 36 d7 3c fe 3f 00 3e c4 15 9f 3d 71 e5 c0 bd
       0.026271248 0.12524411 0.07767823 -0.094187625
000280 9c 92 02 bc 04 d7 39 bd f4 5f 15 3c fc 8b 5e be
       -0.007969525 -0.04537107 0.009117115 -0.21733087
000290 77 2b 7c bd 07 ff af 3d e9 ec 5f bd 59 17 84 3d
       -0.06156489 0.085935645 -0.054669295 0.06449766
0002a0 7a bb 19 3c af 87 76 3c 5c c6 13 bd a1 1d 66 bd
       0.009383077 0.015046998 -0.036077842 -0.0561806
0002b0 66 40 67 bd f7 8e f2 bd d4 0e b8 3c e1 6c 9b 3d
       -0.0564579 -0.11843675 0.022468008 0.075891264
0002c0 4f fb 9c 3d a1 d3 ca 3a b3 15 93 bc 7a e4 3c bd
       0.07665121 0.0015474447 -0.017954683 -0.04611633
0002d0 d0 f6 05 be 60 07 e2 3c 9e 28 70 be b4 3b 5d bc
       -0.13082433 0.027591407 -0.23452994 -0.013503004
0002e0 10 d6 fe 3d 1d 35 97 bd 47 58 f8 bd 25 f3 5f bd
       0.12443173 -0.073831774 -0.121262126 -0.05467524
0002f0 a9 1a 4b be 08 1c 0c bd 4e 70 53 be ad e0 af be
       -0.19834389 -0.03420642 -0.2064831 -0.34351102
000300 8b 90 eb bd 89 a8 d7 3c f3 90 15 be 41 45 df bc
       -0.11502179 0.026325481 -0.14606075 -0.027254703
000310 c8 9d ab bd 47 01 3c 3a 06 de 88 bc 5f 57 9f bd
       -0.08379704 0.0007171821 -0.016707432 -0.077803366
000320 8e 06 7c bd 6d 16 fc bd 83 bd be bd 35 87 07 bd
       -0.06152969 -0.12308965 -0.0931349 -0.033087928
000330 03 54 18 bc b6 a1 9d bd a3 b6 32 3d ae 5d e6 bc
       -0.009297374 -0.076968595 0.043631207 -0.028120842
000340 4d 61 91 3d 16 73 d3 bc 8d 09 b8 bd 9b e3 03 bd
       0.07098637 -0.025811713 -0.08986197 -0.032199483
000350 22 44 83 bc e0 8a 24 be 83 39 1e 3d bd 7b ba bd
       -0.0160237 -0.16068602 0.038629066 -0.091056325
000360 d8 02 12 be d9 d8 c6 bd d2 fc 9c bc 92 24 af bc
       -0.14258897 -0.09709329 -0.019163523 -0.021379743
000370 65 5e c0 bd 18 c1 eb bd 84 80 87 bc 25 ce d3 3b
       -0.09393004 -0.11511439 -0.016540773 0.0064637833
000380 d3 cb 70 be 1e 70 07 3e 26 31 c3 bd b5 35 68 be
       -0.23515253 0.13226363 -0.09530859 -0.22676738
000390 dc 93 95 b8 ae f6 89 bb 07 ad 4e 3d 38 44 ec bc
       -7.1324146e-05 -0.0042103147 0.05045798 -0.028841123
0003a0 dc 15 60 bd 70 f2 9e bc 17 d3 9b bd 0b 1f 14 bd
       -0.054708347 -0.019402713 -0.076086216 -0.036162417
0003b0 a0 69 5f b9 aa 76 46 3d d1 95 6c bd b9 b7 0b 3c
       -0.00021306286 0.04845301 -0.057760064 0.00852769
0003c0 55 7a b3 bd 31 f9 84 bc d7 7d 14 3c fd 3f 36 bd
       -0.08763567 -0.016232105 0.009063206 -0.044494618
0003d0 9e 67 6d bd 8a 71 98 39 41 5b 13 3c 02 9f 69 be
       -0.057960145 0.00029076292 0.008993925 -0.22814563
0003e0 ca 45 21 bd 5c 4f 8f bc a7 fa 7f bd 6c d6 52 bd
       -0.039373197 -0.017493896 -0.0624949 -0.05147402
0003f0 32 04 18 3d 82 34 e4 bd b6 45 cc bc 23 c2 30 be
       0.037113376 -0.111428276 -0.024935585 -0.17261557

image_conv.5.bias f4 [64]
000000 36 b9 63 bd e5 93 94 bd f8 f8 51 bd d3 d6 42 bd
       -0.055596553 -0.07254771 -0.051262826 -0.047568154
000010 4a 39 39 3d d4 7b 33 bd d7 05 6a bc c4 cc de bd
       0.04522065 -0.043819264 -0.014283619 -0.108789
000020 e0 42 eb 3d 40 c8 fd bd d5 2d 9a bd ca df d8 3d
       0.11487365 -0.1239171 -0.07528273 0.105895594
000030 69 3d c6 3d 2e b3 02 be a1 d2 03 3c ef 96 b1 bd
       0.09679682 -0.12763664 0.008045823 -0.086713664
000040 3d 3d 17 be b4 5d 91 3d 0f 5c b3 bc 86 a5 f4 3c
       -0.14769454 0.070979506 -0.021894483 0.029864084
000050 7c 5b 1a bd 21 7d d6 bb a9 a1 04 be ec 02 94 bb
       -0.037684903 -0.0065456782 -0.12952293 -0.00451695
000060 07 3d 81 3c 32 d4 fb bc 67 8d f6 3d 7c 81 04 3d
       0.01577617 -0.030740831 0.12038689 0.03235005
000070 2a 0a e7 bc 4b 98 06 be c6 35 2a bd 49 4e 1d 3d
       -0.028203089 -0.13144033 -0.04155519 0.038404737
000080 ca 16 8d bd 08 6d a3 bd e4 b4 1c 3c 60 8c 4d bd
       -0.06889112 -0.079797804 0.009564612 -0.0501827
000090 3b 55 de bd 3e 91 df bd 27 b1 49 bc 46 76 e0 3c
       -0.108561 -0.109163746 -0.012310303 0.027400147
0000a0 9b 5e e1 bc bc 54 f7 3d ec 34 c5 bd 0f 55 64 3c
       -0.027510932 0.12076709 -0.09629235 0.013936295
0000b0 e3 68 de bc f6 e4 9d 3b 95 53 57 bd c4 70 69 bd
       -0.027149623 0.004818554 -0.052569944 -0.056992307
0000c0 3a d9 ac bc 9a 53 d2 bd 9b 53 c3 bd cd 1e 9f bd
       -0.021099675 -0.10269852 -0.09537431 -0.07769547
0000d0 36 2a 40 3c 1b c2 62 3d e2 a3 a5 bd a3 8f 1b 3d
       0.011728814 0.055360895 -0.08087899 0.03797878
0000e0 d9 f5 0c be 50 30 5c 3e bb 31 bc bc 06 72 ae bd
       -0.13765658 0.21502805 -0.022972932 -0.08517842
0000f0 5c ed 26 bd 9b b0 0c be ec bf 17 3b 32 52 01 be
       -0.040753707 -0.13739245 0.0023155166 -0.12629011

memory_rnn.weight_ih f4 [256, 64]
000000 cd 6c 65 bd 8c 81 cb bd 62 30 a2 3d bb da 64 3d
       -0.056011964 -0.099368185 0.079193845 0.05587266
000010 68 30 0d be 8c 4f f0 bd 13 1a 03 3d aa 0d 99 bd
       -0.13787997 -0.11733922 0.03200729 -0.07473309
000020 2d 97 4c 3e 6f 2f dd bc d7 53 ac 3d ea ca 0c 3e
       0.19979544 -0.027000157 0.08414429 0.1374928
000030 c4 e7 7d be c1 8b a7 3d 3d 7c 3a bc 45 4e da 3c
       -0.24795443 0.08180953 -0.01138216 0.02664865
000040 5a 41 42 bd dd a8 3b 3e 53 4a ad 3d ab 08 26 bd
       -0.047425605 0.18326135 0.08461442 -0.04053561
000050 27 e9 98 bd 3b 54 e6 bd f1 b8 ea bd a8 9a 29 bd
       -0.07466345 -0.112465344 -0.11461056 -0.041407257
000060 64 53 14 be 91 3f 54 be c2 7f fe bd 7a 17 fe 3c
       -0.14484936 -0.20727374 -0.124267116 0.031017054
000070 67 23 06 be bc 9c 65 bd be 96 21 be c7 1c 8f bd
       -0.13099442 -0.056057677 -0.1578016 -0.06987911
000080 91 05 7f be c8 2e ad bd b2 2e d2 3d ca f2 55 be
       -0.24904467 -0.084561884 0.10262813 -0.20893398
000090 9f d1 96 bb d7 a3 16 bd db 9b 3a 3d e2 f5 a2 bc
       -0.0046026255 -0.036777344 0.04555879 -0.019892637
0000a0 90 74 f0 bc f8 5f 85 3d 05 ec 88 bd 1f a6 ff 3d
       -0.029352456 0.06512445 -0.06685642 0.12482857
0000b0 2b 2a 63 bd d4 a9 d8 3d de 35 b2 3c 38 7a 36 be
       -0.055460136 0.10579267 0.021754202 -0.1782006
0000c0 b3 ae 4a 3e 78 aa f9 bb 30 ae aa 3d 71 cc 5b bd
       0.19793205 -0.0076191984 0.08334005 -0.053661767
0000d0 8a d7 6b 3d 51 db 40 be 43 e0 eb bd a4 e9 6d 3d
       0.0575786 -0.18833663 -0.11517384 0.058084145
0000e0 66 a6 a0 bd 7c 0f 4c be 3a 50 fb 3d 55 83 05 3d
       -0.07844238 -0.19927782 0.122711614 0.03259595
0000f0 3f ca 72 bd 3b 4b af bd 81 41 04 be df 84 2e bc
       -0.05927491 -0.08559271 -0.12915613 -0.010651796
000100 38 30 9e bc ee d2 0a 3e 47 4d 12 be 70 f4 a9 bd
       -0.019310102 0.13557026 -0.14287291 -0.08298576
000110 6e 67 80 be c7 bd 6a 3d 77 34 09 be d1 d4 61 bd
       -0.2507891 0.057309892 -0.1339892 -0.0551346
000120 98 fb 09 3d ae 5a a3 3d b7 6c 8d 3d 76 f7 14 3c
       0.033687204 0.0797628 0.06905501 0.009092202
000130 55 91 fc bd 02 13 40 bd 23 a0 1a 3e fa 55 4e 3d
       -0.123324074 -0.046893127 0.1510015 0.050374962
000140 08 52 45 bd a9 b0 05 be f7 a0 c8 3d bf b6 ac bd
       -0.048173934 -0.13055672 0.097963266 -0.084332936
000150 9e de 58 bd ab ff 0e be 8b d0 24 3d 17 fa b3 bd
       -0.05294668 -0.13964717 0.040237945 -0.08787935
000160 88 eb 26 be 3f e9 6c be 8f e9 1e be df 53 72 3c
       -0.16300786 -0.23135851 -0.15518783 0.014790504
000170 31 32 31 bb 0d 6a a2 3c 11 25 1f bd 40 af 3f be
       -0.0027037973 0.01982596 -0.03885371 -0.18719196
000180 e8 1e 1a 3d f5 54 3c be ab 00 63 3d b5 94 bf bd
       0.03762713 -0.18391784 0.05542056 -0.093545355
000190 c5 ee 88 bd f3 c9 df 3c 43 8c 2a be f5 6d 57 3d
       -0.06686167 0.027317977 -0.16655068 0.052595098
0001a0 43 ab b5 3d fe 4b 0e bd e0 3e 0d be ac 79 72 bd
       0.08870556 -0.03474044 -0.13793516 -0.059198067
0001b0 89 5a 81 3d e5 df 35 3a 64 35 03 be 70 be b0 bd
       0.06316096 0.0006937965 -0.12813336 -0.08630073
0001c0 d8 b2 10 3e 1a 7e b5 bd 83 f8 b5 3d cd 64 92 bd
       0.14130723 -0.088619426 0.088852905 -0.071481325
0001d0 e5 8d 0b bc 25 bd 8d be c2 3c a2 bd b0 36 87 3d
       -0.008517717 -0.27683368 -0.07921745 0.06602228
0001e0 5a 9f cb 3d b5 e6 94 be 0b ce ba bd 22 c7 e9 bc
       0.09942503 -0.29082265 -0.09121331 -0.028537337
0001f0 c2 28 a7 3d 85 bc 67 3d 9e ce fb bc 0c 9a 65 3c
       0.08162071 0.05657627 -0.030738171 0.014013778
000200 5f 15 39 3d 59 15 2a be 5d 82 80 bd e8 33 2a bd
       0.045186397 -0.16609706 -0.06274865 -0.041553408
000210 1b 2b c9 bc 29 91 6d bd 6c d4 ab 3d 38 cd ff bd
       -0.024556687 -0.057999764 0.08390126 -0.12490314
000220 3c cb 5a 3e f5 c8 19 bd 36 b6 83 3e 16 0c 62 be
       0.2136659 -0.037545163 0.25724953 -0.22074923
000230 d1 8e b1 be 1c 64 0f be 22 9e 08 be 31 a9 fe bd
       -0.34679273 -0.14003032 -0.13341573 -0.124346144
000240 2b f5 d3 3d 90 1a 59 bd 05 d6 88 bd 76 cd 31 be
       0.103494965 -0.053003848 -0.06681446 -0.17363533
000250 bc 31 42 be 6c a1 51 3e 28 f2 d7 3c 51 f6 c2 bd
       -0.18964285 0.20471734 0.026360586 -0.095196374
000260 0f cb e0 bc 98 8e 2e 3e ed 26 ba be 08 0a 54 be
       -0.027440576 0.17046583 -0.36357823 -0.20706952
000270 67 0d b2 3d 3c fc e8 bc 33 12 e8 bd 05 61 72 3d
       0.086939625 -0.028440587 -0.11331596 0.059174556
000280 ee 59 b6 bd b9 28 02 be 99 a8 8d bd f6 ac b2 3d
       -0.089038715 -0.12710847 -0.06916923 0.08724396
000290 3b 1d 92 bc ae 7d 42 3d ac f4 25 be 12 a3 9a bd
       -0.017836204 0.04748314 -0.16206616 -0.075506344
0002a0 03 87 01 bc eb 6a 63 3c c8 31 7c be 90 59 1b 3e
       -0.007905724 0.013880472 -0.24628365 0.15170884
0002b0 78 4f 47 bc 2d 58 b6 bd a2 8a e1 bd 2d 53 7d bc
       -0.012164943 -0.08903537 -0.1101277 -0.015461725
0002c0 3b 3f f5 3c ff 53 ea bd 74 bc cf 3d f4 f1 9b 3b
       0.029937377 -0.11441802 0.101433665 0.0047590677
0002d0 b6 ef 6d 3d 7d 21 21 bd 36 14 ea bc 62 4e 46 3e
       0.058089934 -0.039338578 -0.02857409 0.19365838
0002e0 07 65 0c bd db 7e 7f bc 22 cd 93 bd f7 e7 e0 bd
       -0.034276035 -0.01559421 -0.0721686 -0.10981744
0002f0 ff b9 87 bc a2 5d 8b be 69 e1 b5 bd ab a5 61 3c
       -0.016568182 -0.27219874 -0.08880884 0.0137724085
000300 8b 1d a9 3d 14 28 ae 3d 5c 68 b6 3d f2 3b 02 bd
       0.08257588 0.08503738 0.08906624 -0.03179545
000310 18 16 7c 3d 31 96 82 bd 5d 44 21 bd 23 d9 e9 3c
       0.061544508 -0.06376303 -0.039371837 0.028545922
000320 5e ed ad 3d 2d b5 49 bd f1 21 53 3e e7 7c d0 bd
       0.0849254 -0.04924505 0.20618416 -0.10180073
000330 7c 09 7f be 9e a7 1c 3d 6c 3b d7 3d 91 9f 88 bd
       -0.24905962 0.03824579 0.10509381 -0.0667106
000340 92 0a 2d bd c1 2b 9a bd e7 29 08 3d 32 32 ef bd
       -0.04224641 -0.07527877 0.033243086 -0.11679496
000350 ad 3f 2f bd 20 f2 25 3d 1a 8c bb bd cd d5 f9 bd
       -0.042785335 0.04051411 -0.091575816 -0.121989824
000360 7d a6 e2 bd 99 74 80 bc 5f 7f ca bd 2e e8 2b 3e
       -0.11066911 -0.015680598 -0.09887575 0.16787788
000370 bb 5c 91 bc a1 65 c0 bd 7a 49 8b bd 39 d7 b5 bd
       -0.017744413 -0.09394384 -0.06801124 -0.08878941
000380 f6 b3 11 be 3f 8b 36 be e8 b8 98 3d e8 52 be bd
       -0.14228806 -0.17826556 0.07457143 -0.09293157
000390 d5 a3 ef bc 43 83 1a 3d a1 98 c4 bd c5 29 dd 3d
       -0.029252926 0.037722837 -0.09599424 0.107989825
0003a0 ab f6 cd 3d ae da 2b 3e f1 96 3d 3d 90 80 17 3e
       0.10056814 0.16782638 0.046286527 0.14795136
0003b0 df c5 c3 bd 17 00 42 3d bd 33 09 be 91 99 0b bd
       -0.09559225 0.047363367 -0.13398643 -0.034082
0003c0 59 78 40 3e fa 3b 99 bd 0d d7 c3 ba e4 fb b2 3c
       0.18795909 -0.07482143 -0.001494141 0.021848626
0003d0 be f4 8c bd 90 02 55 be fc 1f 50 3e 48 49 de bd
       -0.06882618 -0.20801759 0.20324701 -0.10853821
0003e0 90 8b b3 bc e8 f9 22 be 2d b1 d1 3d 95 7d 0d be
       -0.021917135 -0.15915644 0.10238872 -0.13817437
0003f0 1c 2f 61 3d c2 a9 db 3d b4 7f 43 3d f9 d9 b7 bd
       0.054976568 0.10725738 0.04772921 -0.08977122

memory_rnn.weight_hh f4 [256, 64]
000000 16 e5 10 b9 d5 92 8d 3d e5 45 73 3e 02 bb 31 bb
       -0.00013818251 0.069127716 0.23757131 -0.0027119522
000010 87 6e 76 bd 44 a5 1d bd 21 94 bd bd 63 25 ca 3d
       -0.060164 -0.038487688 -0.09256769 0.09870412
000020 11 6e 01 3c e1 30 51 bd 90 99 77 bc 41 66 36 3e
       0.007899777 -0.051072005 -0.015112296 0.17812444
000030 80 9c 05 be 84 b9 ca 3d 7c ac 59 be ea e4 f6 3d
       -0.13047981 0.098986655 -0.21257204 0.12055381
000040 f0 fd 1f be b9 be fa bd f5 18 00 bc 23 cf 84 be
       -0.15624213 -0.12243409 -0.00781845 -0.25939283
000050 55 8c f5 3d 44 cc 75 be 67 17 11 3e d4 db 2d 3d
       0.11989657 -0.24003702 0.14169084 0.042445973
000060 ef 34 ee bd c9 6f f4 bc 49 3f 1b 3c 18 c7 a3 bd
       -0.1163119 -0.02983846 0.009475538 -0.079969585
000070 df 93 72 3c 1b 29 bd 3d 57 47 44 3d 2b 08 6b 3d
       0.014805763 0.09236356 0.047919597 0.057380836
000080 d2 e5 8c bc 1f 2d 07 3e 7e 01 d2 3d 0d 55 18 be
       -0.01719943 0.13200806 0.10254191 -0.14876194
000090 51 c1 88 3d 17 3c 93 bd 7a eb 71 bc c8 bd f4 bd
       0.06677497 -0.071891956 -0.014765615 -0.119502604
0000a0 54 0c 14 bd 26 9a aa bd ad 50 8d 3b 7b a0 01 be
       -0.03614457 -0.08330183 0.004312596 -0.12658875
0000b0 90 39 f1 bc 9e 14 34 3d 73 bb 08 3e 3c 7e 2f 3e
       -0.029446393 0.043964975 0.13352756 0.17137998
0000c0 37 74 ce bc 13 5a 47 be 0f 13 bb bd 17 a0 30 be
       -0.0252019 -0.19467954 -0.091344945 -0.1724857
0000d0 40 95 ec bc 66 be 82 3d 7e 29 2c be 2d f0 a6 3d
       -0.028879762 0.06383972 -0.16812703 0.08151279
0000e0 40 b9 c4 bc 59 bf 05 bd bb b4 09 3e 69 22 fe bb
       -0.024014115 -0.032653186 0.1344785 -0.007755567
0000f0 fb 47 b2 bd 3b 10 f0 3d 4a b8 e7 bd 8b f2 eb 3c
       -0.087051354 0.11721846 -0.11314447 0.028802177
000100 4c 74 3f 3e ce e5 89 bd 50 68 47 3e f9 8c 56 3c
       0.18696707 -0.06733285 0.19473386 0.013095134
000110 0c 8e 08 3e be 4f 94 bd 18 e9 22 3e f8 c1 d8 bc
       0.13335437 -0.07241772 0.1590923 -0.026459679
000120 24 39 c5 3d ff d7 81 3d 79 cc 64 be 8f 70 f5 3c
       0.09630039 0.06340026 -0.22343625 0.029960899
000130 21 46 f6 3d c0 a9 eb bd 7a c5 89 be fc aa 46 3c
       0.12025095 -0.115069866 -0.26908475 0.012125727
000140 4d 0f 61 be 4e 5f a0 3c e9 0c 87 3e 62 46 22 be
       -0.21978493 0.019576695 0.26377037 -0.15847161
000150 33 81 f0 3c c2 9f a5 bd 17 64 83 be d0 ea 50 3e
       0.029358482 -0.08087112 -0.256623 0.20402074
000160 8d 80 23 3e 67 bd cd 3d 4f d2 27 bd fa 9f 47 be
       0.15967007 0.10045891 -0.04097205 -0.1949462
000170 b2 c4 38 be 2e e1 4c 3e bb 8a cc 3c 0f 07 d1 3c
       -0.18043783 0.20007774 0.024968496 0.025516061
000180 13 02 dd bd c6 6d 2b 3d 09 16 29 3e 79 db 2f be
       -0.10791411 0.041852735 0.16512312 -0.17173566
000190 28 09 31 be 40 b0 c3 bd bd a7 2b 3d db 90 eb 3c
       -0.17288649 -0.095551014 0.041908015 0.028755596
0001a0 4b d7 00 bd 1a 1e af bc 23 b2 d1 bd ae 5f 80 be
       -0.03145532 -0.021376658 -0.10239055 -0.25072998
0001b0 52 ad c7 bc 1a e2 af 3d 3a 49 14 3e 46 30 8b 3d
       -0.024374638 0.08588047 0.14481059 0.06796317
0001c0 97 4e 7a bd 62 12 12 bd 9c db 26 bd 34 59 fc bd
       -0.061110105 -0.035662062 -0.04073678 -0.12321702
0001d0 c3 2b 37 3d 5d 80 6d 3d f9 7d a4 be 62 7a 8a 3e
       0.04471947 0.057983745 -0.3212736 0.27046496
0001e0 96 8c d9 3d b1 e7 65 bd 08 e8 f6 3d 70 74 3c 3c
       0.10622518 -0.05612916 0.12055975 0.01150237
0001f0 f5 c4 2c 3d d1 33 1a 3e 67 1e 28 be 03 01 10 3e
       0.04218002 0.15058829 -0.16417848 0.14062886
000200 d3 36 a2 3c 34 10 86 bc 7f 37 be bd 71 b6 38 bd
       0.019801533 -0.016365148 -0.09287929 -0.045095865
000210 3b a8 a1 bd 10 08 bb bd 58 ce 2d 3e 7e d9 07 3c
       -0.078934155 -0.09132397 0.16973245 0.0082916
000220 ed 99 74 3d 73 f2 3f bd 7f 92 2c be df cf fc 3d
       0.059717108 -0.046862077 -0.16852759 0.12344336
000230 1e 01 7f 3e 1f 9b 0d be 1b 86 ae bd a2 82 a0 bc
       0.2490277 -0.13828705 -0.08521672 -0.01959354
000240 e9 54 5a be d2 c6 d5 bc f8 af 91 bd 6b 77 7d be
       -0.21321453 -0.026095781 -0.071136415 -0.24752586
000250 8e eb 94 3d 55 b5 ff bb 34 08 b4 bd f4 3a 45 3e
       0.07271491 -0.007803599 -0.08790627 0.1926077
000260 c1 84 76 bd 3c 14 47 3c 0c 44 0c be c3 8f 21 be
       -0.060185198 0.01215082 -0.13697833 -0.15777497
000270 b6 b2 a4 bc 26 cf fb 3d 9b 11 e3 bd fc ab 7e 3d
       -0.020104747 0.1229537 -0.11087342 0.062175736
000280 7d 9f e5 bd a3 39 3c 3e 00 72 ce 3c bf 11 df bd
       -0.112120606 0.18381362 0.025200844 -0.10892057
000290 a8 f9 58 3d 5a 92 c5 3d c5 e6 3e be 11 87 5d 3d
       0.052972466 0.09647055 -0.18642719 0.054083887
0002a0 ea 5e df 3b 7e da fb 3b 28 a2 15 3e 57 b1 53 be
       0.0068167346 0.0076859584 0.14612639 -0.20673119
0002b0 1f 6b f8 bd 39 74 07 3e bd 07 5d 3c f3 e9 64 3e
       -0.12129807 0.13227929 0.0134906145 0.2235487
0002c0 18 40 f0 bc f5 8b 9c bc 24 14 36 3d fd f0 e1 bd
       -0.029327437 -0.019109705 0.0444528 -0.11032293
0002d0 8d 64 52 3e c6 81 f6 3d d1 f2 f9 bc a9 7b ff bb
       0.2054617 0.12036471 -0.030511292 -0.007796724
0002e0 2b 86 54 ba f1 9f bc ba ba b6 db bc b7 57 9b 3b
       -0.0008107151 -0.0014390928 -0.02682053 0.004740681
0002f0 08 cd 62 bc 63 e9 6c 3e 1d f4 74 be 07 97 41 3d
       -0.013842829 0.23135905 -0.23921247 0.04726317
000300 a4 c3 b7 3d 2c f2 8f bd 1a 6f 31 bc 06 23 1b 3d
       0.08972862 -0.070286125 -0.010829711 0.037875198
000310 17 28 3e be ad 84 5a 3e f3 49 86 3b 52 6e 51 3d
       -0.1856998 0.21339674 0.004098171 0.0511306
000320 2c 1f 23 bd 78 15 11 be f9 c2 9a 3d 24 20 d1 bd
       -0.03982465 -0.14168346 0.07556719 -0.102112085
000330 18 49 8c 3c 00 38 97 bd bf d7 86 bb 40 39 3f bd
       0.017124698 -0.07383728 -0.0041150744 -0.046685457
000340 12 0c e0 3d ed 00 ed 3c de 99 bf 3d d0 8d 81 bd
       0.10939802 0.028931106 0.0935552 -0.06325877
000350 8d bb 97 3d ee e9 99 3d df 3c 14 bd cc 6b d0 3d
       0.07408819 0.07515322 -0.036190864 0.101768106
000360 9a b6 e9 bb 42 c1 bc 3c f8 33 7b bd b2 1e 9d 3b
       -0.0071323635 0.023041371 -0.061328858 0.004794919
000370 22 cf 59 3e e8 12 86 3d f4 6f 0f bd 64 af 97 bb
       0.21270421 0.06546575 -0.035018876 -0.0046290625
000380 b7 7a 82 bd 97 bc 0d bd 9f d6 7f bd 85 87 25 3e
       -0.06371062 -0.03460368 -0.062460538 0.16164978
000390 d2 fd fb 3b 64 23 ec bc d9 c8 01 3e 2a 0d 8c 3d
       0.00769017 -0.02882547 0.12674274 0.06838448
0003a0 ef 4a 12 bd b5 90 8c bc ae 9a 9d 3c 09 f5 1f 3d
       -0.035715993 -0.017158845 0.019238796 0.039052043
0003b0 b7 4f 07 bd f7 2d 1d bd a8 ea 09 be 53 23 4e 3e
       -0.033035006 -0.038373914 -0.1346842 0.20130663
0003c0 6d 91 27 be 06 e2 d0 3d a9 66 2f 3e 72 0f 48 be
       -0.1636407 0.101993605 0.17129005 -0.19537142
0003d0 f7 cc c8 bd 8d 30 d3 bd c5 b8 14 3d dd e3 f8 3d
       -0.09804719 -0.10311995 0.036309022 0.121528365
0003e0 82 62 74 bd c2 4c 44 bd 22 84 c9 bd 48 25 1f bd
       -0.059664257 -0.047924764 -0.098396555 -0.038853914
0003f0 54 95 eb bd 9f 52 8e 3c cc 64 f4 bb e2 ae 89 3d
       -0.115030915 0.017373381 -0.007458305 0.067228094

memory_rnn.bias_ih f4 [256]
000000 b6 3a 75 bd 0b b3 a5 be 14 ed 8c be ce a3 44 be
       -0.059870444 -0.3236316 -0.27524626 -0.19203112
000010 83 1e d9 be 5e 55 83 be 7e c7 8b be bb a7 2d be
       -0.4240609 -0.25651067 -0.27300638 -0.16958515
000020 af e3 a9 be cd 2f 7f be c4 5d a5 be f1 2c 3c be
       -0.3318152 -0.24920578 -0.322981 -0.18376519
000030 a3 e2 51 be 19 b7 a9 be 23 a5 dd bb db 78 47 be
       -0.20496611 -0.33147505 -0.0067640706 -0.19479696
000040 20 5e b1 be db f5 05 be ce b4 be be c5 f8 55 be
       -0.34642124 -0.13082068 -0.37247318 -0.2089568
000050 92 8e df bd 58 02 88 be 01 5f 05 be 0b fd 59 be
       -0.10915865 -0.26564288 -0.13024522 -0.21287934
000060 32 e4 0a be d1 93 82 be 3f 56 86 be 13 b0 65 be
       -0.13563612 -0.255034 -0.26237676 -0.22430448
000070 1f ce 69 be 18 6d 32 be ff 4d 8d be 2d 5d 8e be
       -0.22832535 -0.17424428 -0.2759857 -0.27805462
000080 6c fe 8b bd 58 fc df bd 46 c1 3f bd 4a 2d 72 be
       -0.068356365 -0.109368026 -0.04681518 -0.23650089
000090 24 4a 42 be 70 e6 82 be 09 9e 99 be 55 dc 0f bf
       -0.18973595 -0.25566435 -0.30003384 -0.56195575
0000a0 30 b3 23 be 73 69 d2 bd 03 28 dd bd 65 8c 81 be
       -0.15986323 -0.10274019 -0.10798647 -0.25302425
0000b0 90 32 46 be 51 2d ac be e0 c2 86 be c6 88 8d bd
       -0.19355226 -0.33628324 -0.26320553 -0.06910853
0000c0 df 76 bc bd 57 b4 9f bd 84 69 aa bc 3a 82 b2 3b
       -0.0920236 -0.07798069 -0.020802267 0.005447653
0000d0 17 bd 88 bd a9 0a 4e be d8 4a 2c bd 67 f3 81 3d
       -0.06676691 -0.20121254 -0.042063564 0.063452534
0000e0 6f 4a 8f be b0 d5 21 be e4 ae 8a bc 53 3c cc bd
       -0.27986476 -0.15804172 -0.016929097 -0.099724434
0000f0 bb bb 16 be 26 05 c8 bd bf 51 d6 bc ac eb 84 bd
       -0.14720051 -0.09766607 -0.026162026 -0.06490263
000100 f8 52 1f be 4c 22 67 be f4 83 87 be 7a bf 8b be
       -0.15558994 -0.22571677 -0.2646786 -0.27294523
000110 d2 fa 78 be d0 bc 72 bd 8f 8a be bd 2a 83 97 be
       -0.2431443 -0.059262097 -0.09303772 -0.29592258
000120 ef 5b c0 be 92 a8 02 3b 92 3a bb be b6 4f 7c be
       -0.3757014 0.0019936902 -0.36568123 -0.24639782
000130 b3 96 5f be fb fe b0 bd c5 e4 20 be f8 3c 14 bd
       -0.21834831 -0.08642384 -0.15712269 -0.036190957
000140 ca 36 3c be 26 a7 82 bc 04 d5 7f 3d fc 41 ed bd
       -0.18380275 -0.015948843 0.062459007 -0.11584851
000150 54 fb 38 be a3 8a 8f be a9 44 8f be b5 12 82 be
       -0.18064624 -0.2803546 -0.2798207 -0.25404897
000160 86 24 64 be 95 25 f8 be 05 a9 a1 bd 66 35 16 bd
       -0.22279558 -0.48466173 -0.07893566 -0.03667202
000170 73 1a 07 bf db 16 b2 be b5 a1 81 be b6 da a2 be
       -0.52774733 -0.34783062 -0.25318685 -0.31807488
000180 1c 34 a0 be df d1 2f be c2 3e 71 be 1b 61 25 be
       -0.31289756 -0.17169903 -0.23559096 -0.16150324
000190 ab 37 81 be 73 b6 b3 be 1e 36 61 be bd 4d 08 bf
       -0.25237784 -0.35100135 -0.219933 -0.5324362
0001a0 4a 7e db bd ae 35 54 be f7 3b 5d be 85 57 92 be
       -0.10717447 -0.20723602 -0.21604906 -0.28582397
0001b0 5c 56 89 be a6 ed 3b bd c9 5b ac bd de b6 0b be
       -0.268237 -0.045880936 -0.08415944 -0.13643977
0001c0 2e d2 6c be 85 a9 a7 be 31 8d 55 bd 95 06 da bd
       -0.23127052 -0.3274652 -0.052136604 -0.10645787
0001d0 b4 3b d9 be b9 02 21 be c4 fb 90 bd 62 c8 8b 3e
       -0.42428362 -0.15723695 -0.070792705 0.27301317
0001e0 ef b8 ce be d1 f3 32 be dc d0 36 bd ec cc 0a be
       -0.40375468 -0.17475821 -0.044632778 -0.13554734
0001f0 5b c0 85 be 80 78 cb bd fe b1 94 bd 29 b0 a5 be
       -0.26123318 -0.09935093 -0.07260512 -0.32360962
000200 d4 49 6f 3d 0c d5 d8 bc b7 8e 44 3c ae 12 db 3c
       0.058420017 -0.026468776 0.0119969165 0.026742306
000210 26 4a c3 3c 8d 01 11 bd d2 6e cb 3d f1 3c 81 bd
       0.023839068 -0.03540187 0.09933247 -0.06310452
000220 66 3b 30 bd 1e fb 37 3d c3 6c b2 bc fa b5 a5 bc
       -0.043025397 0.04491722 -0.021780377 -0.020228375
000230 ef a3 f1 3c 38 07 8b 3b 0e 21 b5 bb e6 df 47 bd
       0.029497115 0.004242804 -0.005527622 -0.04879751
000240 d7 ac 52 3d 1e 48 8c 3d 6a 6d 7a bc 46 10 78 3d
       0.051434364 0.06849693 -0.015284875 0.060562395
000250 fa f1 d2 3b 80 fb a7 3d 80 24 92 3a 9e 63 2a 3d
       0.0064375373 0.08202267 0.0011149794 0.04159891
000260 50 f2 9e 3d 72 e8 be bd 17 57 92 bb 5a 36 d5 3c
       0.07761061 -0.09321679 -0.0044659483 0.026026893
000270 4e 18 28 bd 6b 0b 9e 3c 6a f7 c4 3d 6d f0 84 3d
       -0.041038804 0.019292554 0.09617503 0.0649117
000280 e3 53 b2 bd 73 53 ed bc 97 fe a3 bd f0 61 ed 3c
       -0.08707406 -0.028970456 -0.080075435 0.028977364
000290 d8 58 0e bd 16 07 8a 3d 9f c2 3b 3d 79 eb 16 3c
       -0.034752697 0.06739633 0.045839902 0.0092114145
0002a0 bc 77 0c 3e 92 31 b2 bd e8 8a 75 bd ce a5 a6 bd
       0.1371755 -0.08700861 -0.059946924 -0.081370935
0002b0 94 cc a8 bd b4 48 bf bd 49 28 f2 ba 34 21 8d bb
       -0.08242145 -0.09340039 -0.0018475141 -0.0043069366
0002c0 fe 39 9a bd a5 73 2f 3a cd e5 fa 3a 26 59 b8 3c
       -0.075305924 0.00066929526 0.0019141972 0.022503447
0002d0 2d 2b 28 bd f2 c3 84 3d 52 81 d7 3c 85 ae e1 39
       -0.0410568 0.06482686 0.026306782 0.0004304537
0002e0 29 9c 4b 3d 94 bc 74 bd da 78 bd 3d 0a 48 96 bc
       0.049709473 -0.059750155 0.09251566 -0.018344898
0002f0 0b 62 ad 3d 80 9f 15 3d 25 c1 08 3d f3 61 89 3d
       0.08465966 0.036529064 0.033387322 0.067081355
000300 5c bf 92 bd 93 e9 9c be 7e c2 6b be e7 8e 6e be
       -0.07165405 -0.30646953 -0.23023412 -0.232967
000310 be 16 59 be 34 04 ee bd 69 4f 9e be 1b 10 43 be
       -0.21200082 -0.116218954 -0.3091996 -0.19049112
000320 77 f7 66 be 3a a2 24 be 85 d0 b2 be eb 80 1e be
       -0.22555338 -0.1607751 -0.34924713 -0.15478866
000330 23 f2 f9 bd 43 b1 8f be 0e 68 62 bd ee b8 80 bd
       -0.12204387 -0.28064927 -0.055275016 -0.062852725
000340 97 6e 24 be 81 74 16 be 21 82 ba bd 37 75 47 be
       -0.16057812 -0.1469288 -0.09106851 -0.19478308
000350 62 44 30 bb e4 f3 38 be 69 0b d0 bd ed ed cb bd
       -0.0026896228 -0.18061787 -0.10158426 -0.0995749
000360 c5 47 53 3d f5 64 9b be f7 a1 49 be 3d e8 74 be
       0.051582117 -0.30350462 -0.19690691 -0.23916717
000370 5f 52 af be 96 4b 9c be 0a ef 81 bd 12 53 9f be
       -0.34242532 -0.30526417 -0.06344421 -0.31118065
000380 b3 cd 35 be fc 72 06 be 63 73 9a bd 24 1d ab be
       -0.1775425 -0.131298 -0.075415395 -0.3342067
000390 93 36 b2 bd 5f a8 a5 be c1 24 06 be cd 9c d5 be
       -0.087018155 -0.3235502 -0.13099958 -0.41721192
0003a0 76 2a a9 be 7e 07 08 be 6b 14 40 be ac bb bf bd
       -0.33040208 -0.13284108 -0.18757789 -0.093619674
0003b0 6c 64 0d be 1a de 39 be 1c a7 18 be 34 7e 98 bd
       -0.13807839 -0.18151131 -0.14907497 -0.07445946
0003c0 da 2a 29 be d9 86 e5 bd 0e 99 c5 bd 3b cb cf 3c
       -0.16520253 -0.11207361 -0.096483335 0.025365463
0003d0 c0 a0 1b be dd 46 4e bd bd 6a 8f be 5b d5 36 3d
       -0.1519804 -0.05036055 -0.28011122 0.044637065
0003e0 19 cd 8c be ac 67 a6 be 35 12 15 be b2 15 5c be
       -0.27500227 -0.3250097 -0.14557727 -0.21492651
0003f0 b8 56 7b be 20 a5 8f 3a c2 32 f1 bd dc d8 2e bd
       -0.245448 0.0010959245 -0.117772594 -0.042687282
