torch-rl/storage/SimpleCorridor_5M_v3x3/status.pt (torch, 650709 bytes, 51 tensors)

image_conv.0.weight f4 [16, 3, 2, 2]
000000 59 f9 ee 3e d8 69 81 be 71 19 bb bd af 47 2f 3d
       0.46674612 -0.25276065 -0.09135712 0.042792972
000010 3c 3f f6 bd 9c c9 7a 3d 24 50 07 be eb 7c fd 3d
       -0.1202378 0.061227426 -0.13214165 0.12377342
000020 23 60 24 3d 94 c7 10 bd 45 fa a3 3d 7e 52 69 3c
       0.040130746 -0.035346583 0.080067195 0.014240859
000030 2e 6a 07 be e0 04 ce be 33 c6 d5 bd 79 6d b6 bc
       -0.13224098 -0.40238094 -0.10438194 -0.022268998
000040 2f a5 88 bc c3 2e 5f bd e1 dc 3c 3e 65 78 be 3d
       -0.016680328 -0.054487955 0.18443634 0.09300307
000050 47 2b dc bd 72 88 32 be e4 30 46 bd f1 02 ff bd
       -0.10750442 -0.17434862 -0.04838647 -0.12451733
000060 63 eb 34 be 27 04 a7 3c 45 f4 b4 3c b3 c2 04 3d
       -0.17667918 0.020387722 0.022089133 0.032412242
000070 37 df 56 be b5 4b 7c 3e 79 ea 30 bd 5b 81 00 3e
       -0.20983587 0.24638255 -0.04319236 0.12549345
000080 aa 1d 43 3e ec aa 86 be f4 87 8c be 38 94 0e be
       0.19054285 -0.26302278 -0.27447474 -0.13923728
000090 ec 70 d1 3e 44 0a 15 be e1 c4 02 3e 27 66 7d be
       0.40906465 -0.14554697 0.12770416 -0.24746
0000a0 43 84 69 3e 05 c4 9a be 09 59 34 3e e7 0f 0a be
       0.2280436 -0.30227676 0.17612089 -0.13482629
0000b0 9f ba 1b be cb f1 17 3e 86 e9 1c be 6d e0 ad 3d
       -0.15207909 0.1483833 -0.15323457 0.084900714
0000c0 1a af 7e be 61 08 5b be c4 75 b0 be 89 f0 37 be
       -0.24871483 -0.21389915 -0.34464848 -0.1796285
0000d0 bf ea 8d 3d f2 4c 42 be 21 7e 5a 3e b1 17 65 3e
       0.0692954 -0.18974665 0.21337177 0.22372319
0000e0 a1 75 5d bc 6b 4f 45 be e1 02 34 3e 35 7c b7 3d
       -0.013516814 -0.19268577 0.17579223 0.089592375
0000f0 e8 a9 6d be 69 cc 83 3e fe 15 89 3e b8 77 8a 3e
       -0.23209345 0.2574189 0.2677459 0.27044463
000100 c9 85 10 3d 2f 29 5c bd 9c a4 29 bd f7 2c 35 be
       0.035283837 -0.053750213 -0.04141675 -0.17692934
000110 ba 56 60 be 49 c4 51 be 3f cf 20 3e 19 a2 8a bd
       -0.21908084 -0.20485033 0.15704058 -0.06769199
000120 99 b2 37 3d 14 0c 3d be 2c c3 ba bd 76 91 e2 bb
       0.04484806 -0.18461639 -0.09119257 -0.006914313
000130 ea e1 42 bc 1d 24 6d 3a 9e ee c9 be 2a 89 16 3e
       -0.011894682 0.0009046214 -0.39439863 0.14700761
000140 77 d8 4f be 0e 09 5f be c3 d0 8f 3c e1 7d 49 bd
       -0.20297419 -0.21780798 0.0175556 -0.049192313
000150 bd 8f b7 3e 9b d1 4d be c8 3d 91 be 82 5b b6 3e
       0.3585185 -0.2009949 -0.28367448 0.3561669
000160 38 c3 ea bd 9e 5d 04 3e 9a 6e 6f 3d d6 ad ad bd
       -0.11463016 0.12926337 0.058455087 -0.08480422
000170 79 8b 6d 3d 7e 01 8e 3d 7c ec 45 be 6e 41 0c be
       0.05799434 0.06933878 -0.19328493 -0.13696834
000180 3a 20 42 3e 00 03 c7 bd 07 4e ae bd 37 44 48 be
       0.18957606 -0.09717369 -0.08510976 -0.19557272
000190 d3 8a 82 3e fe 8e 9b be c3 7a 50 3e f6 62 06 be
       0.2549654 -0.30382532 0.2035933 -0.13123688
0001a0 82 14 3f be ca 63 7b be 87 df 8d 3e 9b f7 76 3c
       -0.18660167 -0.24549785 0.277096 0.015073682
0001b0 65 2a 34 3e a9 36 f7 bc 13 ec bc bd 3d 87 99 3e
       0.17594297 -0.030177431 -0.09224715 0.2998599
0001c0 bb 6d 0e 3e d3 08 2f be d3 ae 24 be f8 64 09 3e
       0.13909046 -0.1709321 -0.16082315 0.13417423
0001d0 3b 25 56 3e e2 a3 37 3e 08 ef 55 be 7e dd 54 be
       0.2091264 0.1793361 -0.20891964 -0.20787618
0001e0 bd a2 81 be 47 a5 cd 3d fb 00 ec 3e 31 6d 8a be
       -0.25319472 0.1004129 0.46094498 -0.2703643
0001f0 d6 c7 de 3d 57 d1 b0 bd 78 ce 2a be 02 f7 33 3d
       0.108779594 -0.086336784 -0.16680324 0.043936737
000200 6b 51 2a 3e 22 37 89 3e c5 94 37 be 69 4c 80 3d
       0.16632621 0.26799875 -0.17927845 0.06264574
000210 b3 91 e1 3d db b3 7d 3e 6b b6 69 3e 0b 1f a8 3e
       0.11014118 0.2477564 0.22823493 0.32836184
000220 ea f0 97 3d ee d7 94 3c 09 f6 1f be 93 db 5c be
       0.074189976 0.01816937 -0.15621199 -0.21568136
000230 98 73 07 be eb af 09 bd d3 30 35 be 8d 4b d8 3d
       -0.1322769 -0.033615034 -0.17694406 0.10561285
000240 06 10 5b bd 9b 99 9b be 39 e4 92 bd 07 a4 9f bd
       -0.053482078 -0.3039063 -0.07172436 -0.077949576
000250 28 b4 d9 3d 8f 4c 49 3c 16 97 06 be 3a 3b 30 3e
       0.10630065 0.012286319 -0.13143572 0.17210093
000260 36 b2 08 bd f1 7d 22 bc ce 81 8b be 4e 41 3e be
       -0.03337308 -0.009917722 -0.2724747 -0.185796
000270 81 91 3d be aa ed 87 be 96 95 b1 3e 35 c6 2f be
       -0.18512537 -0.2654851 0.34684438 -0.17165454
000280 e3 4f b5 bd cb bf f9 bc b3 47 2a 3a 90 e5 88 3d
       -0.08853128 -0.030486962 0.00064956694 0.066844106
000290 6c f7 18 be b6 2e 80 3d aa 3a d7 bd 45 d4 84 bd
       -0.14938134 0.062589094 -0.10509236 -0.064858
0002a0 e5 af cf be f3 b4 b8 be ff 8f 6d be f0 70 51 3d
       -0.40563884 -0.36075553 -0.23199461 0.051133096
0002b0 61 63 31 3e d1 cd af bd 94 b6 02 3e 69 d3 45 3e
       0.17323066 -0.08584178 0.1276496 0.19318928
0002c0 8b 9d 49 3e e2 9b 16 3c f0 7e 4c be 51 04 67 3e
       0.19689004 0.009192439 -0.19970298 0.2256024
0002d0 d5 fe 0b 3d 9d 2f 66 3c 49 39 99 be ed ff 0a be
       0.034178574 0.014049438 -0.29926518 -0.1357419
0002e0 81 e1 28 bb a9 58 9f 3e 28 8e 7f be 87 23 b1 be
       -0.0025769176 0.3112233 -0.24956572 -0.34597418
0002f0 fa 99 20 bc 59 d6 1f be 68 8a d3 3d 12 92 e3 bd
       -0.009802336 -0.15609111 0.10329133 -0.11111845

image_conv.0.bias f4 [16]
000000 00 45 20 be 16 53 bc bc 63 6a 0b 3d 67 5b 80 be
       -0.15651321 -0.022988837 0.034037005 -0.25069734
000010 e6 cf b8 3d 4e cf 82 bd da ec f8 3d b2 5d 71 be
       0.090240285 -0.063871965 0.12154551 -0.23570898
000020 5e c0 91 3c 19 82 be be b4 e8 10 3e a6 97 92 be
       0.017791923 -0.37208632 0.14151269 -0.28631324
000030 75 41 97 3d 53 d2 2a bc 27 91 00 be 7a ff ad bb
       0.07385532 -0.010426122 -0.12555371 -0.005309996

image_conv.3.weight f4 [32, 16, 2, 2]
000000 07 0c 0f bd 87 4c 97 3e 3a 75 e1 bd f8 dd 54 be
       -0.03492358 0.29550573 -0.11008687 -0.207878
000010 bf 56 00 be 49 d8 90 3d 90 41 6e 3e 32 b0 13 3e
       -0.12533091 0.07072503 0.23267198 0.14422682
000020 57 69 72 3d 46 2f 77 bd 9f 5a 8d bd a0 a3 2f 3d
       0.05918249 -0.060347818 -0.0690205 0.042880654
000030 71 8f 25 be 66 da 13 3e 0f 29 b6 bc 36 29 16 be
       -0.16168 0.14438781 -0.022236375 -0.14664158
000040 b5 0f 6f 3d 56 af 10 be 0f b9 0c 3e 67 34 41 3e
       0.05836459 -0.14129385 0.13742469 0.18867646
000050 fe 9d bf 3d 5a f7 53 3e a2 72 b5 bd 56 db 11 be
       0.093563065 0.20699826 -0.08859755 -0.14243826
000060 49 8a 5b 3d 98 27 6b bc 20 65 eb bd 71 47 b2 bd
       0.053598676 -0.014352702 -0.114938974 -0.087050326
000070 8b 86 3c bd a9 d7 7f 3e 6b 05 3d 3c 3d 81 57 be
       -0.046026748 0.24984612 0.011536936 -0.21045394
000080 d2 9f 01 be f7 d9 2e 3c b8 99 29 3e 25 29 58 bd
       -0.12658623 0.010672084 0.16562545 -0.052773613
000090 7e 06 4c be 64 63 21 3d 63 df 07 be 84 d0 e0 bd
       -0.19924352 0.039401427 -0.13268809 -0.10977271
0000a0 d1 7b db bd 9a 31 24 3e 62 5a 07 be 06 95 a4 bd
       -0.107169755 0.16034546 -0.13218072 -0.080362365
0000b0 5a 68 66 bd 80 64 ff 3d 11 fa ae 3d 54 3c 9f 3c
       -0.05625186 0.12470341 0.0854379 0.019437946
0000c0 8e 79 3c 3b 20 70 3a 3d e3 22 d9 bc 0f f9 ee bd
       0.0028758976 0.045517087 -0.026505893 -0.11668598
0000d0 42 59 f6 3d a6 2d da 3d b5 fc 22 bd 75 01 31 3e
       0.12028743 0.10653238 -0.03979178 0.17285712
0000e0 64 c0 33 3d ec b4 a5 bd b8 8a 87 3e 15 51 85 bd
       0.04388465 -0.08091149 0.26473022 -0.06509606
0000f0 5e 6e 7c bd db c4 1d be 8f b3 e7 3d d7 f6 27 3e
       -0.06162869 -0.15407126 0.11313545 0.16402756
000100 42 15 f4 bc 2c e6 94 3d bb 1b 08 bd 93 12 df bd
       -0.029795293 0.07270464 -0.03322957 -0.108922146
000110 c6 e5 03 be 2e 4c 63 bd e6 d1 ca bd 29 c1 a1 bd
       -0.1288062 -0.055492572 -0.09903316 -0.078981705
000120 5c 03 c1 bd ea d6 03 3d 54 ce a5 3d f1 73 5a 3a
       -0.09424469 0.03218738 0.080959946 0.00083333167
000130 ef 7c 80 bd c1 fe e4 bd e0 92 00 be a9 7c 5f 3d
       -0.06273829 -0.11181403 -0.12556028 0.054562245
000140 0a 8f 57 bd 41 48 bf bc 85 e9 1d bd d6 c1 2e be
       -0.052626647 -0.023349883 -0.03855278 -0.1706613
000150 31 47 3a 3c 31 ac a1 3c 3f 81 81 bd 56 07 fb bd
       0.011369512 0.019735428 -0.0632348 -0.122572586
000160 3e 9d d6 bd 4c 7e b9 bb fe d7 a8 bd c1 2f fc bd
       -0.1047921 -0.0056608077 -0.08244322 -0.12313796
000170 f0 57 42 bd eb ee 1c bd c2 7b a7 3c 7d aa a1 bd
       -0.047447145 -0.038313787 0.020444755 -0.07893846
000180 b3 c0 c0 bc b5 61 bb bd af d2 16 be 38 d9 80 3d
       -0.023529386 -0.091494955 -0.14728807 0.06291431
000190 b3 39 9f 3c 1e fb b2 3d 88 59 2f 3c 38 33 c1 bd
       0.019436693 0.08739303 0.010702498 -0.09433597
0001a0 09 9f 29 be 55 3c d8 bd db 0d 2a 3d cc 66 19 be
       -0.16564573 -0.105583824 0.04151712 -0.1498062
0001b0 9c ac 73 bd 4c f2 cb 3c 91 a6 31 3d da e4 d0 3b
       -0.059490785 0.02489581 0.04337174 0.0063749375
0001c0 c5 91 94 bd ac 7f 80 bb 84 a4 85 bc 7a 6c dc bd
       -0.07254366 -0.0039214697 -0.016313799 -0.10762878
0001d0 84 b4 28 3d 0d de a5 bd 16 ba ea bd 6a be 4c bd
       0.041187778 -0.080989935 -0.11461274 -0.04998628
0001e0 e2 0b cb bd d6 87 00 bd e9 35 3d 3d 05 b9 45 bd
       -0.09914376 -0.031379543 0.04619399 -0.04827215
0001f0 1e eb 05 3e f0 8e 07 be ce ee 55 bc 35 55 2a bd
       0.13077971 -0.1323812 -0.013057424 -0.041585166
000200 87 1e c0 bd 16 2c 77 be 4b 59 e6 3d c1 3d bd bb
       -0.09380823 -0.24137911 0.112475 -0.005775184
000210 a4 d5 8d bc f5 e7 26 bd 63 80 85 be 7e 77 bc 3d
       -0.017313786 -0.040748555 -0.26074514 0.09202479
000220 ee df 44 bd 30 38 f6 bd cf a4 95 bd a3 22 17 bd
       -0.04806512 -0.12022436 -0.07306825 -0.036898267
000230 d0 72 b5 bd a4 ea 9a bd 0e 0f 4b 3d 12 f6 c0 3d
       -0.08859789 -0.075642854 0.049574904 0.09421934
000240 91 4a 50 3d 11 e7 21 bc b2 64 30 bd 09 51 91 3d
       0.050852362 -0.009881751 -0.04306478 0.07095534
000250 05 0b b0 3d 1c b0 31 bc 69 a3 9f 3d ac 56 60 bd
       0.08595852 -0.01084521 0.0779484 -0.054770157
000260 91 d9 03 be 8c 48 10 be d1 32 c7 3d af b1 4d 3d
       -0.12875964 -0.14090174 0.09726489 0.05021828
000270 4d 92 0e bd 34 a3 91 3c 7d c1 3d be 53 28 cd bd
       -0.034807492 0.017778017 -0.18530841 -0.10017457
000280 b6 83 35 3d 8a ac 59 bd d2 27 1c be 91 66 0b 3e
       0.044315062 -0.05314306 -0.15249565 0.13613345
000290 da 2f a3 3d d6 1a 10 be da c3 78 bb 2e 9d d9 3d
       0.07968111 -0.14072737 -0.0037958534 0.10625683
0002a0 56 41 0c bd fd 9d c2 3d 89 7b 0a 3e 5f 39 37 3d
       -0.034241997 0.0950279 0.13523687 0.044732448
0002b0 be f6 83 bd 5c ba fa bd 42 5e 21 3d 76 5a 1e be
       -0.06443547 -0.122425765 0.039396532 -0.15464196
0002c0 52 95 d9 bd b0 1f 9b bc a0 8a 84 3c 3f cf 7c 3d
       -0.10624184 -0.018936008 0.016179383 0.061721083
0002d0 ff 90 d4 bb 4a 3b 04 be fd fc ba bc b3 ca ea bc
       -0.0064870114 -0.12913242 -0.022825712 -0.028661108
0002e0 ad 7d 84 3d 67 31 94 bd 8f d6 8e bd f5 1b ae bd
       0.06469283 -0.07235985 -0.069745176 -0.08501426
0002f0 bc ec 18 3e b3 d6 cb bb 3a a7 d8 3d 46 47 93 bd
       0.14934057 -0.0062206625 0.10578771 -0.07191329
000300 a0 a6 c5 bd 4c dc 73 3d a6 d9 09 bd ce 36 06 be
       -0.09650922 0.059536263 -0.03365483 -0.13106844
000310 8d e3 39 bd 7d 37 f0 bd d1 77 b6 bd 1c bb e8 bd
       -0.045383025 -0.117293335 -0.08909572 -0.11363813
000320 61 94 3f 3d e4 24 63 bd a9 69 85 bd 99 35 d6 3c
       0.046772365 -0.055455104 -0.06514294 0.026148604
000330 b5 9c d8 3c 75 49 e4 bd b0 34 92 3c 82 6b e1 3c
       0.026441911 -0.11146823 0.017847389 0.027517084
000340 5e 9b fe bd 42 96 d5 3d 00 6a e3 bd f3 ec a4 bd
       -0.12431978 0.1042905 -0.11104202 -0.08053007
000350 4d f6 0f be c1 eb 9b 3d 43 17 81 bc dd 21 95 3d
       -0.140588 0.07613326 -0.015758162 0.072818495
000360 be 80 fe bc 21 b6 1d 3d 21 00 9c bd ec 05 0b be
       -0.031067248 0.03850377 -0.07617212 -0.13576478
000370 cc 72 93 3b e1 f8 4b bd ff f1 db bc 96 30 be bd
       0.004499769 -0.049797896 -0.026848791 -0.09286611
000380 eb ca ea bc fb b5 99 3b d9 d8 7a 3c 4a 01 03 be
       -0.028661212 0.004690883 0.01531049 -0.1279346
000390 67 2b dd 3c 0f a1 af bc 20 3b 69 3d 56 4f 6f 3d
       0.026998235 -0.021439103 0.05694115 0.05842527
0003a0 80 ad 02 be 52 65 a7 3d 80 ce 1a be c5 7f 72 3d
       -0.12761497 0.08173622 -0.15117836 0.05920388
0003b0 c7 be d9 bc 4f d7 b3 3c b0 41 cb bd e9 19 29 3d
       -0.026580228 0.021953253 -0.09924638 0.041284475
0003c0 cd 13 d2 bd cd 84 12 be 75 65 01 3b 39 df ed 3c
       -0.10257683 -0.14308472 0.001974431 0.029037105
0003d0 3e 79 d0 3d d5 52 2d bd ea 7f b0 3d fb 46 51 3d
       0.10179375 -0.042315323 0.08618148 0.051093083
0003e0 8b 12 ad bd 47 74 dd bd 70 fd 11 3d b1 fc c8 bd
       -0.084508024 -0.10813194 0.035642087 -0.09813822
0003f0 28 c3 54 3d 38 df e8 bd 39 27 6d 3d c1 af 04 bc
       0.051943928 -0.113707006 0.057898734 -0.008098544

image_conv.3.bias f4 [32]
000000 b5 98 8e bc 25 14 ae bd d6 9c 5b 3a e8 4b e9 bd
       -0.0174068 -0.08499936 0.00083775574 -0.11391431
000010 24 81 68 bd 3d f4 54 bd 99 49 9e bd 1e 62 d6 3b
       -0.056763783 -0.051990736 -0.077288814 0.006542458
000020 30 80 d5 bc 9e 68 94 3d 59 ba 3b ba c7 f1 5b bd
       -0.026062101 0.07246517 -0.0007161252 -0.053697374
000030 c7 59 f2 bd 2d ca 8f 3d d8 ba 7c bb 53 de 00 be
       -0.1183353 0.07020984 -0.0038563516 -0.1258481
000040 17 93 18 3e aa d1 05 3d 97 21 3b 3d 67 d5 0d 3d
       0.1489986 0.032670654 0.04568633 0.034627344
000050 f0 8e 96 bd 1f 91 fc 3d 41 8d 87 bd 1b 08 02 be
       -0.07351482 0.12332367 -0.06618739 -0.12698404
000060 29 06 58 bd 38 b7 47 bd dd dc df bd 9a e1 87 bd
       -0.05274025 -0.048758715 -0.10930798 -0.06634827
000070 fb 64 e2 bd f2 2e 89 bc f4 4e a0 bd 12 eb 0c 3e
       -0.11054417 -0.016746018 -0.07827559 0.13761547

image_conv.5.weight f4 [64, 32, 2, 2]
000000 69 28 92 bc c9 c4 aa bd 2e 53 df bd c8 e5 a3 bc
       -0.017841535 -0.08338315 -0.10904537 -0.02000703
000010 b5 7d ce bb d8 6e 56 3d c1 76 44 bc 31 b6 69 3c
       -0.0063016065 0.052351803 -0.011991204 0.014264629
000020 31 e9 12 bd 0a a9 3d 3c e9 02 8c bb 68 64 c1 bd
       -0.03586692 0.011575947 -0.004272808 -0.09442979
000030 0d f2 35 3d 64 37 d4 bc 39 1b a3 3d d2 34 c4 bd
       0.04442029 -0.025905319 0.07964177 -0.09580387
000040 09 de d1 bb 69 96 23 3d 91 a6 79 3d 03 17 04 3c
       -0.0064046425 0.039938364 0.060949866 0.008062127
000050 fa 09 42 bd 63 ed 8b bd fe 14 88 bd 0d c0 91 3d
       -0.047372796 -0.06832387 -0.06644629 0.07116709
000060 38 fa ec bd 3b d7 65 bd a5 8d 9e 3c 77 7f cf 3c
       -0.11571163 -0.056113463 0.01935465 0.025329335
000070 f7 64 a1 bd 81 8e 8f 3c 58 13 2f 3c da 21 8c 3d
       -0.07880586 0.017524006 0.010685764 0.06842394
000080 e0 a6 e9 bb 97 fd e4 3c cc c3 27 bc bc 57 92 3d
       -0.0071304888 0.027952952 -0.010239553 0.0714564
000090 0c f4 13 bc a0 93 88 bd d2 05 8b 3a 6e d1 84 bd
       -0.009030353 -0.06668782 0.0010606593 -0.06485258
0000a0 e4 59 b4 3c 88 a8 7b 3d 9a cb 8c bd da b2 83 bd
       0.02201552 0.06144002 -0.068747714 -0.064305976
0000b0 29 1e d7 bc f7 ef 0d bd 8f 53 55 bd 68 88 41 3d
       -0.026259499 -0.034652676 -0.05208164 0.047249228
0000c0 b2 0c 13 3d 85 47 03 bd 12 5a b6 3b 90 77 82 bc
       0.03590078 -0.03205063 0.0055649364 -0.015926152
0000d0 fe 47 a2 bd 13 55 17 3d ad 24 a6 bd 18 3b b4 3c
       -0.07923888 0.036946367 -0.08112464 0.022000834
0000e0 51 fc 40 3d 8c a4 a9 bd f3 89 4d bc b7 d7 9c 3d
       0.047115628 -0.08283338 -0.012545097 0.07658332
0000f0 ec f2 95 3b cc 60 ac bd 42 fe e9 bc b2 a4 f8 bd
       0.0045760777 -0.084169 -0.028563622 -0.12140788
000100 f9 04 c0 3b 6a bc 0e 3d 65 24 5d 3d ca b5 38 bd
       0.005859968 0.034847654 0.053989787 -0.045095243
000110 bb 37 14 3b 76 5e 9e bc 93 30 8e bd bd 29 03 bc
       0.0022616226 -0.019332152 -0.069428585 -0.008005557
000120 d1 aa ad bd 1f d3 03 bc 4e 08 c3 bc cd 8e 6d bd
       -0.08479846 -0.008045941 -0.02380767 -0.057997514
000130 4c d1 95 bc 03 77 d0 bd ec 0c 86 3c ff fd 14 3b
       -0.018288277 -0.1017895 0.016363584 0.0022734401
000140 ab 14 9c 3d fd b9 bc bd 98 8f d2 bd aa b2 30 bc
       0.076211296 -0.09215162 -0.102812946 -0.010784784
000150 a6 ce 32 3d cd e6 30 bd cb 31 99 bc b3 a7 09 bd
       0.043654107 -0.04318886 -0.018700501 -0.033607196
000160 02 e0 42 bc 20 6c 4e 3d 0d 88 76 3d 04 c7 80 bd
       -0.011894228 0.050396085 0.060188342 -0.06287959
000170 d2 d0 58 bd b8 c1 8c bd b1 17 b0 bc 60 7e 02 bb
       -0.05293352 -0.068728864 -0.021495672 -0.001991175
000180 7c c3 8d 3d b9 c6 b7 bd 20 cc 55 3d 2d 00 5e bd
       0.06922051 -0.0897345 0.052196622 -0.054199386
000190 b3 35 c3 3b 7c 80 5e bc 7c f1 2a 3d 14 e6 9b bd
       0.005957329 -0.013580438 0.041734204 -0.07612243
0001a0 70 e1 d2 bd 51 96 cf bb f0 af 8f 3c 48 df 4d bd
       -0.10296905 -0.006335058 0.017539948 -0.050261766
0001b0 cb 1a dc 3c 6b 47 fd bc cd ad aa bd 12 53 25 bd
       0.026868245 -0.030917844 -0.08333931 -0.040362425
0001c0 c5 bd 7d bc 59 2c dc 3c 15 05 6a 3d 96 d7 05 3d
       -0.015487139 0.026876615 0.057133753 0.032676302
0001d0 1f 35 f5 3c b4 63 b2 bd 96 ff b6 bd 0d dc 1d 3b
       0.029932557 -0.08710423 -0.08935468 0.002408746
0001e0 3b 5a e0 3b 25 cf a1 bd 13 34 57 3d 7d 2b ed bc
       0.006846694 -0.07900838 0.052539896 -0.0289514
0001f0 93 80 cb bd be a5 28 3d d6 d5 52 3d 0e e5 a9 3b
       -0.09936633 0.04117369 0.05147346 0.005184776
000200 69 48 a2 bd d0 f5 06 bd ba b7 d8 bd 30 59 11 bd
       -0.079239674 -0.03294927 -0.10581918 -0.035485446
000210 41 47 63 3d a3 c0 94 bc a3 82 8f bd 68 15 83 3d
       0.055487875 -0.018158263 -0.07007339 0.06400567
000220 c7 88 90 bd d8 a6 b2 bd 8e 51 48 3d 61 12 16 be
       -0.07057338 -0.08723229 0.0489059 -0.14655448
000230 63 e7 89 3c 49 cb 94 3d ef 11 37 bc 88 c9 a3 bc
       0.016833967 0.07265336 -0.011173709 -0.019993559
000240 c7 ce 62 3d 2c 23 02 3c f2 9c 64 3b 8c 91 1b bd
       0.05537298 0.007942956 0.0034883586 -0.0379806
000250 5a 2b 9c bd d9 b4 62 3c fc 04 56 bd ad 3d 3b bd
       -0.07625456 0.013837063 -0.052250847 -0.045713115
000260 61 33 ff bd 89 47 32 3d d0 2a e8 bd a4 05 31 3c
       -0.124609716 0.043525252 -0.11336291 0.0108045675
000270 33 e1 77 3c 47 eb 55 3d dc 31 39 3d 86 91 91 bd
       0.015129375 0.05222633 0.045213565 -0.071078345
000280 d1 38 18 3d e2 c3 40 bd b5 c9 a0 3a 6d 03 0c bd
       0.03716356 -0.04706181 0.0012267145 -0.034182955
000290 1b 77 bf bd a7 53 09 3c 99 32 a8 bd 9f 0b df 3d
       -0.093488894 0.008381761 -0.08212776 0.108908884
0002a0 6c a9 11 3d b4 75 fa bc 04 40 54 bd 59 d8 a6 bd
       0.035561964 -0.030573703 -0.051818863 -0.08146734
0002b0 2e dd 99 bd 8e 22 70 bd a8 d0 26 bb 5e a0 27 3c
       -0.0751289 -0.058626704 -0.0025453959 0.010231106
0002c0 4f fb 9c 3d c1 76 37 3b b3 15 93 bc 4d 9c 46 bd
       0.07665121 0.0027994367 -0.017954683 -0.048488904
0002d0 29 95 00 bc a5 fd 35 3d 89 26 a5 bd ec 72 b5 bd
       -0.007848063 0.044431347 -0.080639906 -0.0885981
0002e0 68 a1 fe 38 42 7a 84 bd 36 09 7d bd 81 61 c6 bd
       0.00012141728 -0.06468631 -0.061776362 -0.09686566
0002f0 e3 32 b0 bd c3 7b b9 bd 8d df 80 bd 80 c9 c6 bd
       -0.08603456 -0.09056809 -0.06292639 -0.09706402
000300 a3 c5 28 bd 21 68 0c 3b ee f7 5d bd ee 65 1b bc
       -0.041204106 0.002142437 -0.054191522 -0.009484751
000310 8e d4 c4 bd 42 d7 87 bc cb 3a 04 bd ff 40 b2 bd
       -0.09610854 -0.016582135 -0.03228263 -0.08703803
000320 ee 66 1e bd 6f 21 f0 3c b4 5f a6 bd 9a fe c1 3c
       -0.03867238 0.029312817 -0.08123723 0.023680974
000330 4a 99 52 bd 22 f8 da bc 48 14 86 3c 6f f7 a0 3d
       -0.05141572 -0.026729647 0.016367093 0.07859694
000340 ae a6 85 3d 27 0c 2f 3d 2a 62 b8 bd bd 00 e2 bc
       0.06525932 0.0427362 -0.09003098 -0.027588243
000350 6e d9 24 bc 0e 68 96 bd bd ef e0 3c 16 f4 af bd
       -0.010061605 -0.073440656 0.027458066 -0.085914776
000360 3d 05 dc bd 89 e5 44 bd 7b be b6 bd dc 71 0c 3d
       -0.107431866 -0.048070464 -0.0892305 0.034288272
000370 c6 b9 83 bd a9 85 b6 bc 8b f4 14 3c 95 1c 1c 3d
       -0.06431918 -0.022280531 0.009091507 0.038113195
000380 86 c0 a1 bd f5 88 53 3d 63 b2 8a bd 19 d4 9d bd
       -0.07898049 0.051644284 -0.06772306 -0.0770647
000390 4f a7 8c bb 90 39 49 bd f8 1e 01 3d 17 c0 20 3d
       -0.0042924057 -0.04912716 0.031523675 0.03924569
0003a0 ea c5 8c bd 7d c8 07 bd f5 b7 87 bd 3f 6f 4a 3c
       -0.068736866 -0.033150185 -0.06626884 0.012355625
0003b0 c9 63 c6 bc ec db d0 bc c3 0d 88 bd e4 fc e4 bd
       -0.024217503 -0.025495492 -0.0664325 -0.111810476
0003c0 2b 87 67 bd 65 7e 74 3c d7 7d 14 3c fd 3f 36 bd
       -0.05652539 0.014922713 0.009063206 -0.044494618
0003d0 2d b6 6a bc d5 b4 5b bc 00 20 80 3d 23 06 bc bd
       -0.014325661 -0.013409813 0.062561035 -0.09180858
0003e0 2b 27 6b bd 48 1c bd bc 94 57 05 bd 95 b0 99 bd
       -0.0574104 -0.023084775 -0.032554224 -0.075043835
0003f0 97 1a a8 3c 2b a9 0e bd 11 1f 55 bc fc f4 4d bd
       0.020520492 -0.0348293 -0.013007895 -0.050282463

image_conv.5.bias f4 [64]
000000 86 c9 29 bd 4d b6 42 bd 89 ba ae bd c5 3e c4 3a
       -0.041451953 -0.047537137 -0.085316725 0.001497232
000010 9d 58 49 bd b4 c7 70 bd f0 c8 a8 3b 86 72 6f bd
       -0.049156774 -0.0587842 0.0051509067 -0.058458827
000020 51 3a 02 bb d2 d9 08 bc 3d d6 bf bc b7 99 14 3e
       -0.0019871185 -0.008352714 -0.023417586 0.14511763
000030 11 d2 9b bd c1 9d c6 bd 88 da 07 bd 6c c7 3c bd
       -0.07608426 -0.09698058 -0.033167392 -0.04608862
000040 48 5c 25 3d e8 99 c9 3d 9c eb 0a 3d 39 c1 06 bd
       0.04037121 0.098438084 0.0339161 -0.032899115
000050 2f d9 4a bd a1 9b 2f bd af 42 ac bd 83 35 82 bd
       -0.04952353 -0.04287303 -0.084111564 -0.06357863
000060 19 c5 6e bd 04 7b c3 bc 66 b0 b4 3d 53 8a 2b bd
       -0.058293436 -0.02386237 0.08822708 -0.041879963
000070 2a 71 1f 3c 90 96 ef bd 0b 36 1a 3c 58 54 7f 3d
       0.00973157 -0.116986394 0.009412299 0.062336296
000080 dd 6e b3 bd 3d fe 09 be d4 c4 0b 3d 3c 23 a9 bd
       -0.0876138 -0.1347589 0.034123257 -0.082586735
000090 1c 3a 00 be 6d 6f b3 bd d6 fc 36 bc 4a 46 87 3c
       -0.12522167 -0.08761487 -0.011168679 0.016513009
0000a0 c8 e3 2e 3d 6d e4 15 bc b5 56 90 bd de 23 0e bc
       0.042697698 -0.009148699 -0.07047788 -0.008675544
0000b0 38 df f0 bc 93 82 6e 3d a7 5a f1 bc 67 17 c4 bd
       -0.029403314 0.058229994 -0.029462172 -0.09574776
0000c0 aa e5 17 3d 54 0c a7 bd ce 4e d6 bd c4 4b 6b 3c
       0.03708426 -0.08156648 -0.104642496 0.014361326
0000d0 78 6e 61 3d 62 ce 6d 3c bd 85 07 be 78 fe e4 3c
       0.05503699 0.0145145375 -0.13234611 0.027953371
0000e0 22 dc d4 bc 25 4f db 3c e6 cf 03 3b 99 5c 62 bd
       -0.025983874 0.026771137 0.002011293 -0.05526409
0000f0 6e de 05 bd 95 f7 cc bd a8 94 c3 3d 3c 9d 24 bd
       -0.03268283 -0.1000816 0.09549838 -0.040189013

memory_rnn.weight_ih f4 [256, 64]
000000 26 b3 04 bd cd f9 dd bd 0f 34 02 3e 5d ca 88 3d
       -0.03239741 -0.10838661 0.12715171 0.06679223
000010 1d dd 4c bc 88 fe da bd d7 2b 25 3d 93 12 d2 bc
       -0.012503889 -0.10693079 0.040325012 -0.025643623
000020 47 bd 1c be ea b8 6c 3e cf 0f 08 3d 38 d5 9d bd
       -0.15306579 0.23117414 0.0332182 -0.07706684
000030 95 6b f9 bc 6c 71 07 be 38 55 9a 3d 60 89 2b 3e
       -0.030446807 -0.13226861 0.075357854 0.16751623
000040 10 27 83 3d 4b b8 8b 3c f2 73 8e 3c 75 43 07 be
       0.06403935 0.017055651 0.017389271 -0.13209327
000050 ee 0a 01 bd 60 45 0a be 14 e3 12 bd d5 48 98 bb
       -0.031504564 -0.13503027 -0.03586109 -0.004647354
000060 70 03 cf bd 6d 5f 24 be a5 0e ef be c9 64 6d be
       -0.101080775 -0.16052027 -0.4669086 -0.23182978
000070 7b 79 59 3d e5 f2 cb bd b4 d7 5e be 29 c2 98 bd
       0.05309437 -0.09958438 -0.21761972 -0.07458908
000080 45 ca 75 be 80 43 ca bc b0 e2 67 3d 72 99 e5 bd
       -0.24002941 -0.02469039 0.05661267 -0.11210908
000090 71 94 5c bb 09 48 5d be 14 19 2e 3e f5 09 8b 3e
       -0.0033657814 -0.2160951 0.17001754 0.27156034
0000a0 4e 48 6d 3c 33 1b e7 bc 8d 5f e1 bd 92 27 04 3e
       0.014482571 -0.028211212 -0.11004553 0.1290572
0000b0 ca 19 4b bd 77 cf 4a bd f3 6b a1 3d 8e ce aa be
       -0.04958514 -0.04951426 0.07881918 -0.33360714
0000c0 0d dc 51 bb 92 46 76 b9 73 0d 9b 3d 31 2a 46 3e
       -0.003202203 -0.00023486678 0.075709246 0.19352032
0000d0 9d 6c 06 ba ed 1a 61 3c dd e6 b3 3d 61 f9 08 bd
       -0.0005127879 0.01373933 0.08784268 -0.03344095
0000e0 c3 21 08 3e 89 ac 36 be 73 e4 35 bd 99 42 be 3b
       0.13294129 -0.17839254 -0.04440732 0.005806279
0000f0 c1 90 8d bd a6 af 7b bc 9b 93 da 3d 58 e7 9f 3d
       -0.06912375 -0.015361702 0.10672685 0.07807797
000100 11 19 f2 3c 79 f8 f4 3d 65 a8 0a be 97 8b bd bd
       0.029552968 0.11961455 -0.135408 -0.0925514
000110 80 f5 cc bd 8b 88 b7 3d a7 d7 f8 bd 2c 4c a9 3d
       -0.10007763 0.089615904 -0.121505074 0.08266482
000120 18 6d bb 3c 2c 09 2c 3e ce 45 39 3d b0 d3 09 3e
       0.022879168 0.16800374 0.045232587 0.13459659
000130 a1 bc fb 3d 2c 01 f2 bd 87 86 da 3d be ab e0 bb
       0.122918375 -0.1181663 0.1067019 -0.0068564108
000140 2d 26 fe 3c 32 80 ae 3d 70 c0 c6 3d e2 63 d9 bd
       0.031024063 0.08520545 0.09704673 -0.10614754
000150 e6 ff ae 3c 33 2e 23 be 20 04 80 3e c6 42 bb bd
       0.021362256 -0.15935592 0.25003147 -0.091435954
000160 5e 31 78 3c ec de 03 be 4b 88 51 3a 3f fd f2 bd
       0.015148489 -0.12878007 0.00079930265 -0.11864709
000170 17 3c 8e bd 99 7d 8c bc 09 1b c0 bd 23 69 58 bd
       -0.06945055 -0.017149733 -0.093801565 -0.05283464
000180 1b 29 6f 3d 09 0a ee bd ca 14 9c 3d 79 e7 89 bd
       0.05838881 -0.11623008 0.07621153 -0.06733603
000190 1d d8 b5 bd 33 7c 9d bc fc e4 24 3d cb 6a 0a 3e
       -0.08879111 -0.019224262 0.04025744 0.13517301
0001a0 e5 eb 83 bd 3d 6a 28 bd f1 be 24 bc fe c6 ce bd
       -0.06441478 -0.04111694 -0.01005529 -0.100965485
0001b0 2a 29 db 3d a9 75 d0 3d b6 bc 1e 3d 4b f0 13 bd
       0.10701211 0.10178692 0.038754188 -0.036117833
0001c0 9d 04 3d 3d 04 a1 95 bd 47 38 a6 3d ab 9a 8d bc
       0.046146978 -0.07306102 0.08116203 -0.017285665
0001d0 d9 0d 49 3d f6 b5 d5 bd a5 51 51 3d 5b 22 e4 3d
       0.04908547 -0.10435097 0.051103253 0.11139365
0001e0 ae 86 f4 bb 55 24 b2 3d 28 31 1a be 56 3a b2 bd
       -0.007462344 0.08698336 -0.15057814 -0.08702533
0001f0 28 ff 99 3d ac 95 0f 3d 71 1b 43 bb 19 34 58 3a
       0.0751937 0.035054848 -0.0029770995 0.0008247509
000200 8c 94 cd 3d e5 74 6d bd f7 1a 56 be 9d 63 3a be
       0.10038099 -0.057972807 -0.20908724 -0.18202062
000210 db 6a 9e 3d 09 51 e9 3d 8e d2 c9 3d 6e 9b d0 bd
       0.07735225 0.11392409 0.09854613 -0.10185896
000220 30 fe e3 3c c4 6f 3c be 3d 4b ca 3d b0 8a f7 3d
       0.027831167 -0.1840201 0.09877632 0.120869994
000230 02 76 d7 bd 0a c4 a2 bd e0 15 02 3d 34 b0 61 be
       -0.10520555 -0.07947548 0.031759143 -0.22039872
000240 54 46 c2 3b 65 b7 f8 bd fe 53 91 be 6c 84 01 be
       0.005928794 -0.12144355 -0.28384393 -0.12648171
000250 9d b5 89 3d 06 70 ca 3d 76 df e6 bd bd c7 c3 3d
       0.06724093 0.09884648 -0.112730905 0.095595814
000260 6a 8b bf 3c 11 91 09 3e 8b f6 bd bc 41 73 de b9
       0.023381907 0.13434245 -0.02318885 -0.0004242901
000270 56 82 38 bd e3 ac 0f bd 61 a1 2a 3c cd 4e 92 bd
       -0.045046173 -0.035076987 0.010414452 -0.07143936
000280 a0 7d 2a 3e ed c5 80 3d 09 8b 6b bc 6d 3a fa 3d
       0.16649485 0.06287751 -0.01437641 0.12218175
000290 c8 d4 a6 3c cb e8 d9 3b 77 a4 df bd 97 54 82 be
       0.020365134 0.0066500655 -0.10920041 -0.25455162
0002a0 a1 5d 69 bd 81 c9 7a 3c 3d 82 b5 bd e8 27 22 3d
       -0.056974057 0.015306831 -0.088627316 0.03958884
0002b0 6e c9 2a 3d 60 25 a8 3d 8b dd 96 bd e9 03 93 bd
       0.041696005 0.08210254 -0.07366475 -0.0717848
0002c0 43 96 f0 3d ff e5 e5 bd 79 0a 52 3d e5 94 33 be
       0.1174741 -0.11225509 0.05127952 -0.17537268
0002d0 50 59 1f 3d 54 48 b2 3d 9c 43 31 be 65 c6 54 3d
       0.038903534 0.08705202 -0.17310947 0.051947016
0002e0 ed 12 3d bc 5a 4f 96 3e 50 2d 25 3e b3 7d 09 bd
       -0.011540157 0.29357415 0.16130567 -0.03356714
0002f0 17 fa 08 bd 35 fd c3 bd 96 5b 31 be 94 97 e1 bc
       -0.03344163 -0.0956978 -0.17320094 -0.027538098
000300 3c de c4 3d 9b 3f b5 3d 75 e2 ee 3d 32 f7 41 3e
       0.096127 0.088500224 0.11664287 0.18941954
000310 e0 b1 ad 3d 08 2f 01 be ec 9b 13 bd 13 52 04 3e
       0.084811926 -0.12615597 -0.03603737 0.12921934
000320 cc a5 4b ba ad d1 71 3d ae ce b4 3d 2f fd e0 bc
       -0.0007768541 0.059037853 0.088284835 -0.027464477
000330 65 f7 10 bd ec 81 0d b9 bf 32 c0 3d 32 9d da bd
       -0.035392184 -0.00013495208 0.09384679 -0.10674514
000340 8e 55 04 bd ea 74 aa be 49 6b eb 3d b7 fe 8d 3d
       -0.032308154 -0.33292323 0.114950724 0.069333486
000350 c9 f7 9c 3d 67 7d fa bd b7 b9 88 3d 91 1c c5 3d
       0.07664449 -0.1223095 0.06676047 0.09624589
000360 26 89 22 bd d6 85 a9 3d 8a 77 83 bd 5e 6c 60 3d
       -0.039681576 0.0827748 -0.06419285 0.054790847
000370 59 91 5f bc 25 5d fb bd 3f e5 15 be 29 25 6c be
       -0.013645493 -0.12273625 -0.14638232 -0.2306105
000380 21 a0 07 3d 51 df ce bd 52 55 06 3e bc c0 cd bd
       0.033111695 -0.10101188 0.13118485 -0.10046527
000390 c3 85 87 bd a1 0c 2d 3d a3 52 94 3c 47 bb 25 3e
       -0.0661731 0.042248372 0.01810581 0.16184722
0003a0 a9 f2 9c bd d6 94 f5 3d 95 27 36 bd 09 d7 5d 3d
       -0.07663471 0.11991279 -0.044471342 0.05416015
0003b0 15 aa 8e bd 99 fc c8 bc 2b 54 75 3d 1a f0 4e be
       -0.06966034 -0.02453451 0.059894722 -0.20208779
0003c0 e3 57 bf bd 76 d1 b1 bd d1 06 c7 3c 02 bb 48 3e
       -0.09342935 -0.0868253 0.024295243 0.19602588
0003d0 1d ef 87 b9 d9 df cc 3b 19 a5 08 3e 30 e2 b2 bd
       -0.0002592736 0.0062522707 0.1334423 -0.08734548
0003e0 a3 0c ef 3d 18 2f bf 3a b6 ec bd 3c b3 c5 10 be
       0.11672332 0.0014586179 0.023184162 -0.14137916
0003f0 83 95 4d 3d c6 4a f1 3d 24 85 42 3e 71 4e 85 bc
       0.050191414 0.1178184 0.18996102 -0.016272755

memory_rnn.weight_hh f4 [256, 64]
000000 0e 8f c9 3d 47 a3 00 3d 9f ae 2c bd da 83 9a 3d
       0.09841739 0.031405713 -0.04215872 0.0754468
000010 2f 79 06 3e 82 2e be 3d ef 66 94 bd e2 74 3f 3e
       0.13132165 0.092862144 -0.072461955 0.18696931
000020 89 7f f2 3d 6d 8b cb bd 2e 57 bd 3e 07 32 01 bd
       0.11840732 -0.09938703 0.36980575 -0.03154185
000030 11 68 e4 3d 3f 3a 31 3d 4a 62 f5 bd 4b d8 ab 3d
       0.111526616 0.04326844 -0.11981638 0.08390864
000040 d2 62 30 3e 17 1d 12 3d 21 16 84 3e 29 7a a0 bd
       0.17225197 0.035672273 0.25798133 -0.078358
000050 a4 90 06 3e c6 11 95 be b9 8c 36 3e 6f 3a 37 3e
       0.13141114 -0.29115123 0.17827119 0.17893384
000060 a6 6b 23 bd d2 a7 3c be 5f 99 c8 3c c4 ec 4a 3d
       -0.039897583 -0.18423393 0.024487196 0.049542204
000070 be fc 23 3e 3e dd cc bd 93 2a 21 3e 9f 29 10 3d
       0.16014382 -0.10003136 0.15738897 0.035195943
000080 f2 d2 dc bd 45 da 82 3e 7b 84 59 3d a3 c2 6a be
       -0.10782422 0.2555715 0.05310486 -0.2292581
000090 cc a5 80 bd b5 08 a0 be 82 b8 31 3e 3a ea 60 3d
       -0.06281623 -0.31256643 0.1735554 0.054910876
0000a0 1b 33 b5 bd 07 92 53 3d 24 09 4d 3d f1 7b 03 be
       -0.08847638 0.051652934 0.050057545 -0.12840249
0000b0 8d bc af bd e7 89 8b bd 18 47 65 3e 9f f4 fb 3d
       -0.08580885 -0.06813412 0.22390401 0.12302517
0000c0 28 c4 11 bd 62 7b 90 3d 6a 40 f9 3d 5d 6a c8 bd
       -0.03558746 0.070547834 0.12170489 -0.09785912
0000d0 f9 d9 4f bd 29 83 ba 3b 09 e1 37 be e1 5d bd 3d
       -0.050744984 0.005691905 -0.17956938 0.092464216
0000e0 79 2f 84 bc a3 21 bc be f4 32 12 bd 88 23 16 bd
       -0.016135918 -0.36744413 -0.035693124 -0.03665498
0000f0 60 d0 7b 3d 2c 2e 21 3d c0 31 24 be 5c e2 1c 3e
       0.06147802 0.039350674 -0.16034603 0.15320724
000100 f4 d2 3f be 99 27 ed bd fd 95 b3 3d c4 88 2f 3e
       -0.18732816 -0.11579818 0.08768842 0.17142016
000110 4e f6 b7 bb 6d fa 88 3e 0d 85 a4 bc 0d cf 23 3e
       -0.0056140786 0.2675356 -0.020082975 0.15996952
000120 ae 54 4d 3c be e7 72 be 09 df 1d bd 17 a7 e9 bc
       0.012532396 -0.23721215 -0.03854278 -0.028522057
000130 d3 c3 05 be 9e 31 72 be d6 cc 28 3e d2 6d 8a be
       -0.13062982 -0.2365174 0.16484389 -0.2703691
000140 0a 78 06 3e 58 27 cb 3e f1 42 6f bd 00 c9 48 be
       0.13131729 0.39678454 -0.05841345 -0.19607925
000150 19 0d 2d 3d 6b d3 56 3e fb 4f ce bd 41 0a 34 3e
       0.04224882 0.20979087 -0.10073849 0.17582037
000160 52 0a d3 3e a9 53 9c 3b 66 1f 44 3c ef 44 6d 3e
       0.4121881 0.0047707153 0.011970377 0.23170827
000170 22 8f ed bd bb cb 8f 3e 99 bf 3b be 54 e7 fb bd
       -0.11599566 0.28085122 -0.18334807 -0.12299982
000180 d6 43 0a be 61 2c 06 be 11 57 2e 3e a3 8d 4d bd
       -0.1350244 -0.13102867 0.170254 -0.050183903
000190 67 2d 6e be d2 e5 00 be 3a c0 98 bd 92 7d a9 bd
       -0.23259507 -0.1258767 -0.07458539 -0.08275904
0001a0 01 7b f9 bc fb 2f 2d 3d a2 33 a0 be ba 5c c0 3d
       -0.03045416 0.042282086 -0.31289393 0.09392686
0001b0 52 68 ed 3d 73 b8 93 3c f4 8c d8 3d a3 66 62 bc
       0.11592163 0.018032288 0.1057376 -0.013818416
0001c0 06 b2 ad 3d bb 8a 28 3e 2c 74 97 bd d5 1b da 3c
       0.08481221 0.16459171 -0.07395205 0.0266246
0001d0 f4 c0 af bd 39 1b b9 3d 46 da ee bd 18 78 ae 3d
       -0.08581725 0.090383954 -0.11662726 0.08519
0001e0 7f 0b 6d 3e a8 79 3c be 8c 96 6f 3b 38 a8 90 3e
       0.23148917 -0.18405783 0.0036558239 0.2825334
0001f0 40 90 86 3e b8 55 cb bd 7f 49 6e 3e 56 51 86 bd
       0.2628193 -0.09928459 0.23270224 -0.06558482
000200 62 a3 56 be 64 a1 84 be 14 ef 66 3e 07 87 a5 3e
       -0.20960763 -0.2590438 0.22552139 0.3232958
000210 ed 62 46 be 26 9a 79 3e 76 f2 15 be 77 8c 23 be
       -0.19373675 0.24375209 -0.14643273 -0.15971552
000220 ff 7d e7 be 11 96 c9 be 73 93 c6 be 4f 09 e8 3e
       -0.45213315 -0.39372304 -0.3878437 0.45319602
000230 ca d1 e6 3d ff 47 ed be 40 d2 08 3e e1 2b ae be
       0.11270483 -0.4634399 0.13361454 -0.34017852
000240 13 ed 35 be 2f 4c 26 3f 6f 9c ee be c1 3d de be
       -0.17766218 0.64959997 -0.46603724 -0.4340649
000250 59 cf ad bd f9 d3 de 3e 75 13 a6 bd 5d 23 91 3d
       -0.08486814 0.43521097 -0.0810918 0.07086823
000260 a3 66 7a 3e 63 f2 10 be a6 aa 5a 3d 38 45 fd 3e
       0.24453215 -0.14154963 0.0533854 0.49466872
000270 a7 fa 43 be 09 d2 f0 3e e9 93 9e be ca fc 76 3e
       -0.19138585 0.47035244 -0.30972221 0.24119869
000280 6d ba 9a be eb a1 85 be 40 99 d8 3d a3 29 a8 3e
       -0.30220357 -0.26100096 0.10576105 0.32844266
000290 ac ee a5 3c 45 d2 19 3d 89 0a f1 be 15 e4 81 3d
       0.02025541 0.037554044 -0.4707835 0.06342331
0002a0 01 ec 1e 3d f3 60 5a 3e 02 cd 94 be ac 3b 03 3f
       0.03879929 0.21326046 -0.2906266 0.5126293
0002b0 d4 92 4a 3e e0 a2 4b 3d 45 b1 85 3e 7e a5 90 be
       0.19782573 0.049715877 0.26111808 -0.2825126
0002c0 36 4c 62 3e c0 ab ec 3e 44 86 b2 bc a7 13 2e 3e
       0.22099385 0.46224785 -0.021792538 0.16999684
0002d0 08 ed 82 be ca 46 ad 3e 79 36 4e 3d e2 ac e1 3d
       -0.25571465 0.3384307 0.050344918 0.11019303
0002e0 c3 50 67 3d 15 e6 0f bb bb 23 71 3e 61 8c c9 3e
       0.056473505 -0.0021957208 0.23548786 0.39364913
0002f0 f3 86 8b 3e 7b c7 0b 3e e3 87 8d 3a 11 85 83 be
       0.27251396 0.13650315 0.0010797944 -0.2568746
000300 b9 8a cc bd 15 af 28 bd 04 65 2e 3c 0c 7d 0b 3d
       -0.09987397 -0.041182596 0.010644201 0.0340548
000310 69 8d 02 be bf cb 4b 3e 5c b8 ad bd 5b 70 ac 3d
       -0.12749256 0.19901942 -0.084824294 0.084198676
000320 da 9c d6 bd 4a 66 55 be e4 e2 47 bd 70 ec a5 bc
       -0.10479136 -0.20839801 -0.048800364 -0.020254344
000330 f9 cd 94 bd e0 d0 04 be d9 e2 49 3d c2 db 0f be
       -0.07265849 -0.12970304 0.049288604 -0.14048675
000340 47 13 42 3e 2a b0 58 3e ce 7c 02 3d 03 a8 c8 bd
       0.18952666 0.21160951 0.031857304 -0.09797671
000350 b0 7c 21 3d 7f c8 59 3d 1f 94 cc bd 17 12 65 3c
       0.039425552 0.053169724 -0.09989189 0.013981364
000360 85 20 4c 3e d0 2b d9 3b f4 d6 3b 3d 26 2e 93 3e
       0.1993428 0.0066275373 0.045859292 0.28746146
000370 1f 62 11 3e 8b 90 07 3e d5 03 fe bd cc c0 ed bd
       0.14197586 0.13238733 -0.12403075 -0.11609039
000380 5e b5 8b 3d 77 16 1c be a1 38 29 bd cb 98 e9 3d
       0.068217024 -0.15242945 -0.04131377 0.11406096
000390 3d 75 39 be d0 83 c5 bd 53 d0 03 3d 2c 09 c4 3d
       -0.18111129 -0.09644282 0.032181095 0.09572062
0003a0 71 5c 91 3d 46 0d 40 3d 12 02 4d be db 4e 88 3e
       0.0709771 0.04688766 -0.20020321 0.26622662
0003b0 b5 ea a1 bc 90 17 f8 bc 1f fa eb 3d 46 85 28 3d
       -0.019765237 -0.030284673 0.11522316 0.041142724
0003c0 0f 88 02 3d d2 3b a2 3d a0 9f 7b 37 40 0e 37 bd
       0.031868037 0.07921566 1.4997931e-05 -0.044691324
0003d0 3b ca 30 bd 3e 6e 05 be 12 1e 56 3c f1 5a 2c 3d
       -0.043161612 -0.13030335 0.013068693 0.042078916
0003e0 fe 3b bd 3b 74 06 39 be 74 01 b5 bd 0d e0 27 3e
       0.005774974 -0.18068868 -0.08838168 0.16394062
0003f0 a7 9c 28 3d b6 88 01 be d2 7b 2c 3d 50 a2 0f bc
       0.04116502 -0.12649807 0.04211027 -0.008766726

memory_rnn.bias_ih f4 [256]
000000 68 da ad b8 03 09 3e 3c c2 01 28 be 88 d1 f3 bc
       -8.289964e-05 0.011598828 -0.1640692 -0.029762998
000010 e9 e9 e0 bd 00 3b 8d 3c 67 4a ea bd b0 1e 9d 3d
       -0.10982115 0.017240047 -0.11439972 0.07671869
000020 a4 74 0d bd 17 a7 0b be fd e7 9b bd 90 b8 e6 bd
       -0.034535065 -0.13637958 -0.07612608 -0.11265671
000030 d1 70 55 be 2c 16 6b bd 1c 2f 59 be 2c 86 55 bd
       -0.20843817 -0.05739419 -0.21209377 -0.05212991
000040 5d 3b 46 be df a3 59 3d 90 5c 47 be f7 2d 77 bc
       -0.19358583 0.053134795 -0.19468904 -0.0150866425
000050 a2 04 bf 3d 60 c8 cf bd 76 f9 9e 3d 74 9a 45 be
       0.093270555 -0.101456404 0.07762425 -0.192972
000060 18 be 28 be c5 80 ca 3b 5b a8 81 bd 88 f8 1b bd
       -0.16478765 0.0061799013 -0.063309394 -0.038078815
000070 f1 b5 8b 3c 27 33 49 3d d3 88 41 3d 78 25 6a bd
       0.01705453 0.04912105 0.047249626 -0.05716464
000080 e9 03 48 3b 22 e8 9f 3b 84 68 db bc d9 a0 0b be
       0.0030519909 0.0048799673 -0.026783235 -0.13635577
000090 fb f7 2f be 17 00 4f be 7f dd 5a 3d f2 08 ec bd
       -0.17184441 -0.20214878 0.05343389 -0.11525144
0000a0 4b 03 b7 3b 9a 80 1c 3d ac 3b 48 bd 32 e2 d0 bd
       0.0055851093 0.03820858 -0.048885033 -0.10199393
0000b0 63 5c b2 3d e2 5d ab bd 5c ee 43 3d a3 a2 df 3d
       0.087090276 -0.08367516 0.04783474 0.10919692
0000c0 05 c5 29 bd 35 47 94 3b 58 eb 87 3e 2b 73 5f 3d
       -0.041447658 0.00452509 0.2654674 0.054553192
0000d0 8a f4 6c 3c 40 d9 0c be a2 d1 57 3d ac fb 20 3d
       0.0144625995 -0.1375475 0.052690156 0.039302513
0000e0 db 23 1c bd 22 34 9e 3d f8 8b 27 3c ca 41 86 b8
       -0.038120132 0.07724787 0.010226242 -6.401872e-05
0000f0 44 3b d7 3d 08 59 15 3e bb 01 38 bc aa 79 a5 3c
       0.10509351 0.14584744 -0.011230881 0.020199616
000100 e8 5c 14 bd b9 f7 4b be cf 60 4c 3d 04 2f 23 be
       -0.036221415 -0.19918717 0.04989701 -0.15935904
000110 d5 39 bd bd 79 aa 74 be 9c fa 28 bb 3e f0 86 be
       -0.09239546 -0.23893155 -0.002578414 -0.26355165
000120 0f e3 64 3c b0 30 5d 3d c0 60 b8 bd ac d7 02 be
       0.013970151 0.05400151 -0.090028286 -0.12777585
000130 cc 35 53 be e0 9f d8 3d 81 74 a9 bd 40 79 4f be
       -0.2062599 0.10577369 -0.082741745 -0.20261097
000140 0e 7d c0 3d d3 56 23 3d f7 7a 2d 3e 2d 7b de bc
       0.09398852 0.039877724 0.16941439 -0.027158344
000150 0f 51 87 bd c4 65 83 be bc 88 57 be 0c 72 31 be
       -0.066072576 -0.2566358 -0.21048254 -0.17328662
000160 29 01 62 be 3f 58 93 be b8 af 53 be 79 7a 89 3d
       -0.22070755 -0.28778264 -0.206725 0.06712813
000170 54 06 0d bd db 3e 2b be 45 16 62 be 92 0b c8 3c
       -0.034429863 -0.16723196 -0.22078808 0.02441958
000180 5c 56 2b be 42 7a 2a be 26 af 6b bc fc 2c cb bd
       -0.16732162 -0.166482 -0.01438502 -0.099206895
000190 12 d1 d2 bd a7 da 74 be 15 b1 fb 3d 81 16 b9 be
       -0.10293783 -0.23911534 0.12289635 -0.36149982
0001a0 0f b2 c7 bd 2e 40 37 be f9 60 0d bd 92 d8 e3 bd
       -0.09750759 -0.17895576 -0.03451631 -0.11125292
0001b0 6d a8 c7 be 73 f7 8e bc 6c d0 95 be 85 be 78 be
       -0.38995686 -0.017451977 -0.29260576 -0.24291427
0001c0 39 5e ff bd 25 e4 1e be 5a 5c a7 bd 6f 00 68 be
       -0.124691434 -0.15516718 -0.081719115 -0.22656415
0001d0 03 34 1c be db d0 16 be 15 4f ce bd 6f bc 8f bd
       -0.15254216 -0.1472811 -0.100736775 -0.07018363
0001e0 44 e2 9e be 3d 1f ad bd c8 03 8f 3c c7 ba 59 3d
       -0.31032002 -0.08453224 0.017457858 0.05315664
0001f0 67 68 8b be 24 31 d7 bd 93 1c 2c be c0 b5 88 bd
       -0.2722809 -0.1050742 -0.16807775 -0.06675291
000200 e2 a3 fb 3c 96 dc da bc fe 2f 91 bd bc 59 ed 3c
       0.030717794 -0.026716512 -0.07089232 0.028973453
000210 23 1d 3e 3c 45 4d 9c ba 7b dc a3 3d 8a e4 a0 bd
       0.011603626 -0.0011924884 0.08001038 -0.0785609
000220 1a 97 39 bd 5d fc 2b 3d 09 90 bc bc 92 35 4e bd
       -0.045310117 0.04198872 -0.0230179 -0.050344057
000230 f1 1d 6c 3d 32 95 2e 3d 17 83 77 bd 2c 25 cb 3c
       0.05764574 0.042622752 -0.06042775 0.024797998
000240 e8 3b ec 3c 1d c6 be 3a cd 66 a2 bb 03 ef fb 3c
       0.02883716 0.0014554892 -0.0049561025 0.030753618
000250 fe 2b 09 bb 38 cd 3e 3d 2c 93 84 bc d4 f3 fd 3c
       -0.0020930762 0.04658243 -0.016183458 0.031000055
000260 ff c9 24 3d 16 f6 ca bd 88 d3 4b 3d 88 db 23 3d
       0.0402317 -0.099102184 0.04976228 0.040004283
000270 39 b1 26 bd fc 45 bc bc ad d8 fc 3d 13 31 9f 3d
       -0.040696356 -0.02298259 0.12346015 0.07773032
000280 c4 24 85 bd c4 4b 06 bd 92 2c 7b bd f5 11 81 bc
       -0.06501153 -0.0327871 -0.061321802 -0.015755633
000290 b2 f2 ee bc 1d 3d 33 3d 6f fb ac 3b db de 99 3d
       -0.02916846 0.043759454 0.0052789967 0.075132094
0002a0 bf c7 d5 3d 5d 9d 7f bd d5 20 17 bd 6b d3 a5 bd
       0.10438489 -0.062405933 -0.036896545 -0.080969654
0002b0 55 ed a5 bd 59 fe e7 bd 28 46 91 bb 48 19 04 bd
       -0.08101908 -0.1132781 -0.004433412 -0.032250673
0002c0 9c 38 7e bd 5e 45 e7 bc f9 38 d6 bc 06 07 e4 3c
       -0.062065706 -0.028231319 -0.026150214 0.02783538
0002d0 fb c4 79 bd 0d a3 1f 3c 25 ca 87 3d d6 c6 67 bc
       -0.06097887 0.009743464 0.06630353 -0.014146527
0002e0 0e 27 be bc be ec 85 bd 8c fb 99 3d 02 26 3c bc
       -0.023211982 -0.065392956 0.07518682 -0.011483671
0002f0 f7 61 e5 3d fe e2 a5 3d d8 e3 95 3d 65 06 c6 3c
       0.11200326 0.08099936 0.07318848 0.024172971
000300 36 f5 52 bd a1 c7 8b bd ea 41 1f 3d e0 3e d3 bd
       -0.051503383 -0.068251856 0.03888122 -0.10314727
000310 dd db 06 3d f6 cf 87 3d dd 43 52 be 69 8b 4f 3c
       0.03292452 0.06631462 -0.205337 0.012667515
000320 ac 56 35 3e a6 03 de bd 50 eb ec bd a9 47 8a bd
       0.17708844 -0.1084054 -0.1156832 -0.06751949
000330 f2 68 bf bd 5e 04 38 bd 34 53 dc bd 8f bd 7c 3c
       -0.093461886 -0.04492604 -0.10758057 0.015426054
000340 e8 e9 27 3d b7 1d eb 3b 9c 78 8a 3d dd 50 c9 bd
       0.040994555 0.007175173 0.06761286 -0.098298766
000350 a4 d1 1c 3e 53 51 8a bd e4 00 b2 3d 85 e7 fb bd
       0.15314347 -0.067537926 0.08691576 -0.12300018
000360 94 ae ad 3c 31 fd be bd ae aa e2 bc 40 d0 3c bd
       0.02120141 -0.09325636 -0.027669277 -0.04609704
000370 bb 44 80 bd 61 3e 10 be 9f ed 59 3e 7d 47 cf bc
       -0.06263109 -0.14086296 0.21282052 -0.025302643
000380 5b 26 eb bd 30 54 93 bd 16 13 86 3c a7 92 9b be
       -0.11481925 -0.07193792 0.016366523 -0.30385324
000390 4c 25 ee 3c 19 4e 91 be 34 e6 3b 3e 7a 47 db 3b
       0.029070519 -0.28379896 0.18349534 0.0066918703
0003a0 e0 c7 0a be d8 28 7a bd 79 b9 39 be 20 ec 83 3c
       -0.13552809 -0.061074108 -0.18137158 0.016103804
0003b0 4a 20 c7 3d 11 53 a4 bc e1 48 78 3d 8a b9 25 bd
       0.097229555 -0.02005914 0.060616378 -0.040460147
0003c0 a6 04 d6 bd 0e e4 a0 bc bb a5 02 3e 81 31 6a 3d
       -0.10450105 -0.019639995 0.12758534 0.057176117
0003d0 d5 8c d6 bd 70 25 31 bd 6b 0a 04 be 0b fd 8f bd
       -0.1047608 -0.043248594 -0.12894599 -0.07030686
0003e0 12 62 a8 bd fc 83 16 be c9 3e 65 bd 99 fc 2b be
       -0.082218304 -0.14698786 -0.05596808 -0.16795577
0003f0 7b 16 37 bd 26 e2 45 3e 51 76 03 be 6a b3 8e 3d
       -0.044699173 0.1932455 -0.12838103 0.06967814
