torch-rl/storage/Lstm-Customs-SimpleCorridor18x18-v0_15M/status.pt (torch, 649941 bytes, 51 tensors)

image_conv.0.weight f4 [16, 3, 2, 2]
00000000: 77ea 113f 5cbc 1ebf 8036 6f3d 3b0e a3be
00000010: fa1d a9be 9e15 b7bd b6f1 06bf 7c36 c7be
00000020: 2360 243d 94c7 10bd 45fa a33d 7e52 693c
00000030: a1f3 14be e028 97be 1fd7 17be 9896 53bd
00000040: 1bdf c8bd 351a 5d3c f665 f63d 83e0 dbbc
00000050: 472b dcbd 7288 32be e430 46bd f102 ffbd
00000060: ad64 1fbd 424e 15be 6cc2 aabd bc5b 8bbd
00000070: 5a84 afbe 72f0 6fbd e823 4cbe bf35 393d
00000080: aa1d 433e ecaa 86be f487 8cbe 3894 0ebe
00000090: a652 023d aba5 1dbf cbb5 92bd fb35 1bbf
000000a0: 185d dd3e bbe7 c6be c00a dd3e 2298 edbe
000000b0: 9fba 1bbe cbf1 173e 86e9 1cbe 6de0 ad3d
000000c0: 8b9d 8cbe ae96 ccbe e1be cbbe 05e3 dcbe
000000d0: 5c4a 6b3e d567 41be 68cd 743e 95bc 87bd
000000e0: a175 5dbc 6b4f 45be e102 343e 357c b73d
000000f0: 605e e2be 191b b8bd 161b 4f3d 0f74 29be
00000100: b117 b3be ad05 37be c6ec 213e c1b5 ffbe
00000110: ba56 60be 49c4 51be 3fcf 203e 19a2 8abd
00000120: a69c 05bf 5456 b9bd 9e45 cebe c98b e13d
00000130: b8ac bcbe 26c0 be3d fcd9 17bf 4a15 8b3e
00000140: 77d8 4fbe 0e09 5fbe c3d0 8f3c e17d 49bd
00000150: 7966 173f 2e73 1bbf a72b 2abf e881 133f
00000160: 00d2 94be 7ce6 333d e1a0 a43d a598 58be
00000170: 798b 6d3d 7e01 8e3d 7cec 45be 6e41 0cbe
00000180: e73d 5abe 7621 f03d b0ba 9ebe 6e30 bbbe
00000190: d018 863d 748a efbd f921 c53d 8bc1 0dbe
000001a0: 8214 3fbe ca63 7bbe 87df 8d3e 9bf7 763c
000001b0: 48bd 10be 93c3 2dbe 0c11 5cbe af14 64bd
000001c0: aa67 6f3e 0fb2 c4be 01c8 eebe ce4d e2be
000001d0: 3b25 563e e2a3 373e 08ef 55be 7edd 54be
000001e0: 52e5 9abe ce5e 61be 3c22 323f ac75 2bbf
000001f0: 4484 703c 13d7 533c 5804 87be cd79 fdbd
00000200: 6b51 2a3e 2237 893e c594 37be 694c 803d
00000210: 9509 3fbe bdc3 0a3d a7ce 1ebe 4385 033f
00000220: c469 b13d 8625 90bd 8660 4fbf 79cf fdbd
00000230: 9873 07be ebaf 09bd d330 35be 8d4b d83d
00000240: 910f ccbd 9707 97be 5774 ca3d dcc4 1fbe
00000250: 33db 9f3d 6c6b 3bbb ce41 40be 1afd 323d
00000260: 36b2 08bd f17d 22bc ce81 8bbe 4e41 3ebe
00000270: 66c6 c0be d2e2 b0be 6021 183e 001b 98be
00000280: a04f 8ebe 2c8e ac3d ca3d 0bbe ac03 31bb
00000290: 6cf7 18be b62e 803d aa3a d7bd 45d4 84bd
000002a0: 4746 c8be 72f8 78be 9004 a8be a42e 83bd
000002b0: 9893 c03b 63cb 2c3d b169 473d fad5 983d
000002c0: 8b9d 493e e29b 163c f07e 4cbe 5104 673e
000002d0: 3629 b4be ba5c 17be 3fa5 8ebe 2dfb a9be
000002e0: 4814 e5be 93e5 003e 4b32 efbe d8ea e7be
000002f0: fa99 20bc 59d6 1fbe 688a d33d 1292 e3bd
0.5699839 -0.62006164 0.058401585 -0.31846794 -0.33030683 -0.0893967 -0.5271257 -0.38908756
0.040130746 -0.035346583 0.080067195 0.014240859 -0.14546062 -0.29523373 -0.14828156 -0.05165729
-0.09808179 0.013495018 0.12031166 -0.026840454 -0.10750442 -0.17434862 -0.04838647 -0.12451733
-0.03891437 -0.14580634 -0.08337864 -0.06804606 -0.34280664 -0.058578916 -0.19935572 0.045217272
0.19054285 -0.26302278 -0.27447474 -0.13923728 0.0318171 -0.61580914 -0.071635805 -0.6062924
0.43235087 -0.3884867 0.43172264 -0.4640513 -0.15207909 0.1483833 -0.15323457 0.084900714
-0.27463946 -0.3995871 -0.39794067 -0.43141952 0.22977585 -0.18887265 0.23906481 -0.06627766
-0.013516814 -0.19268577 0.17579223 0.089592375 -0.44212627 -0.089895435 0.05056294 -0.16548179
-0.34979013 -0.17873259 0.15812978 -0.49943355 -0.21908084 -0.20485033 0.15704058 -0.06769199
-0.5219215 -0.09049669 -0.4028749 0.1101299 -0.36850524 0.09313993 -0.5931699 0.2716468
-0.20297419 -0.21780798 0.0175556 -0.049192313 0.59140736 -0.60722625 -0.6647286 0.57620096
-0.29066467 0.04392098 0.08038498 -0.2115198 0.05799434 0.06933878 -0.19328493 -0.13696834
-0.21312676 0.11725132 -0.31001806 -0.36560386 0.06547701 -0.1169633 0.096256204 -0.13843362
-0.18660167 -0.24549785 0.277096 0.015073682 -0.14134705 -0.16969137 -0.21490878 -0.055683788
0.23379388 -0.38417098 -0.46636966 -0.44199985 0.2091264 0.1793361 -0.20891964 -0.20787618
-0.30253083 -0.22008821 0.6958349 -0.6697643 0.014679972 0.012929696 -0.26370502 -0.12376747
0.16632621 0.26799875 -0.17927845 0.06264574 -0.18655999 0.033878077 -0.15508519 0.51375216
0.08662751 -0.07038407 -0.8100666 -0.12393088 -0.1322769 -0.033615034 -0.17694406 0.10561285
-0.099639066 -0.29497978 0.09885471 -0.1560244 0.07805481 -0.0028597964 -0.18775102 0.043698408
-0.03337308 -0.009917722 -0.2724747 -0.185796 -0.37651366 -0.3454805 0.14856482 -0.297081
-0.27795124 0.08425555 -0.1359779 -0.0027010245 -0.14938134 0.062589094 -0.10509236 -0.064858
-0.39116117 -0.24313524 -0.3281598 -0.0640538 0.0058769695 0.042186152 0.04868478 0.07462688
0.19689004 0.009192439 -0.19970298 0.2256024 -0.3518769 -0.14781466 -0.27860448 -0.33199444
-0.44742036 0.12587576 -0.46718058 -0.4529636 -0.009802336 -0.15609111 0.10329133 -0.11111845

image_conv.0.bias f4 [16]
00000000: 183f a9bd 8acc fdbd d91c d3bd 933d 46bf
00000010: a9de 3ebe 35b8 66be b5a4 f83d f939 67bf
00000020: bce8 87be 809a f4be ed47 05be d33d 3cbf
00000030: e7e7 04be 2777 2abe 6f95 81be a6e0 b1be
-0.08263987 -0.12392528 -0.10308237 -0.77437705 -0.18639626 -0.22531207 0.121407904 -0.90322834
-0.2654475 -0.47774124 -0.13015719 -0.73531836 -0.12979089 -0.16647016 -0.2530932 -0.34741706

image_conv.3.weight f4 [32, 16, 2, 2]
00000000: 8793 483e 1e1a 3cbf 5de0 2f3f 9c9c d4be
00000010: a233 4bbe dcb9 b43d 63db 94bc 5eb2 9c3d
00000020: 4939 d83d 6633 43bd d9f1 cfbd 0a46 4f3e
00000030: f63c 92bf e434 3a3f b007 57bf 8892 82be
00000040: 411d 0abe 8dea fa3c f751 c4be 9305 b4b9
00000050: cb02 92bd efa1 db3e 6de9 1abe 0736 46bf
00000060: b3e1 873e f3e5 e2bd 97ea 9dbf 17e4 acbe
00000070: 13ce f23d 63c4 07bf b172 9ebe 7d66 bebf
00000080: a295 1fbe 6160 f13d e196 88be c81f bcbe
00000090: 8810 a5be 4f1b c03e 2f4d ddbe 9740 2b3f
000000a0: 5521 083f f5d8 5f3d 742c 433e d0e8 9fbd
000000b0: 7f2a 533e 2cd2 183f 0b80 cfbd 0463 30be
000000c0: cb74 183e d218 9e3c 406b 913d 35e6 a23d
000000d0: 6a94 d13d 4b30 093e 7f85 29be 557d aa3e
000000e0: 8988 cdbc 97b3 69bb 6d73 6dbc d04e 8abd
000000f0: 64f5 543f 0d0e d5bd 602b e53e 676b e6be
00000100: a369 113e 25e9 393f c50d d23d 7a47 a63e
00000110: 5289 09be 8923 5fbd 08c1 e8bd e397 60bd
00000120: b6fb 273e 2c25 41be 87bc 4d3e 45fc 7bbd
00000130: f590 18bc 6a3d 69bf 121f 96be 8aa0 87be
00000140: b0d2 0dbf 0c24 98bd 56cd c4be 661f 89be
00000150: 2863 86bd b73f 53be 3bab 643e 0ed0 0cbf
00000160: 18a7 ef3d 44e8 55be 388d cabd 0e73 4abf
00000170: 96a9 86bf 9931 563e 56d0 053f 4202 32be
00000180: 1f3a 96be 9e7f 1dbe bb6f e2bd 9592 a53d
00000190: f1f7 02be 5123 0c3f b72d 6ebd 6862 51be
000001a0: 31cb ab3d 5fec 713d b69c 203f 4436 cebc
000001b0: 118d febc b3bf adbe 3688 3a3f 9816 42be
000001c0: ec29 433e a642 a2bd 20f2 4f3d 234a 233e
000001d0: 3b8c c9bc e145 b0bc e38b 34bd e7a9 483e
000001e0: 6ce1 00be 0ee3 a8bd 184f 2d3d 68a8 38bc
000001f0: f808 ac3e b819 afbe 0aad 1f3f ef62 8cbe
00000200: 116e d1bd 6dfc 163e 37ef d6be 4832 fe3d
00000210: 248c 99bd f54f 8bbd 28da 14be 401c 0f3e
00000220: 0e1b ee3d 3068 423d 87f0 edbb cb4b 963d
00000230: b0cb 863d cb15 1f3f 2828 453f 29eb 573d
00000240: a888 dabd e04c 9a3d 83a1 893e 421a 783e
00000250: 81ee efbd 15ce 38bf cb95 813e ce42 743e
00000260: 1601 84bc 1fef e13e c583 2d3d 79be 0ebf
00000270: 94d3 8bbd c1ea 5cbf 5803 9bbb 83d6 4c3e
00000280: 5ef5 d2bd 219d 613e 4e5b 80be 4107 453d
00000290: b009 1a3e a6d3 d43e 0297 5c3e 54bd 40bd
000002a0: 19f7 04bf f852 173e 734b bfbe e160 123e
000002b0: 3ee7 a0bd 6200 2bbf 03ad 2bbd e36c ebbd
000002c0: eabe b6bc 2793 bd3d 42b0 b23c e8af 273e
000002d0: 6bb4 1d3e bf3f a23c 8924 0e3e d803 223e
000002e0: d5c8 3a3d 3058 a5bd dc3f 823d 1e2b 4dbd
000002f0: d02f 03be d950 00bd 999d 8abf 67f6 41be
00000300: a59d f4be c8fb bd3e 3fac c9be dd5d 88bf
00000310: 7508 34bd df3c ffbd 20cc 96bd d4cc d6bd
00000320: cd67 a13c bed4 6bbd 5cdc 87bd 71e2 2f3d
00000330: 595d 9bbf a918 e6be 391c 2c3f efe7 c93d
00000340: 18e1 9cbe f705 cf3d 3508 6ebe 6db4 f5b9
00000350: 8ad2 99bd e302 223e 6589 913d f759 18be
00000360: 2c4d b83d 84ef 8e3e 6137 54bf 0212 12bf
00000370: 9563 d63e 4d2a 613e ffff c33e 0c0f acbe
00000380: 8928 e0bc bf27 0cbd 7bd4 863c 9eaf 04be
00000390: 7d10 7c3e d904 52bf 0897 7bbe 7831 813d
000003a0: e118 4dbc 592a 303f d216 97be ad1f 05bf
000003b0: a964 003e 707d cb3d 4f03 833e 1dda 49bc
000003c0: 64c2 e6bd 0ac3 25be 545d 4bbb af19 1c3d
000003d0: 5eb7 eb3d 7a25 1dbd aa7b e63d 3659 783d
000003e0: 3ae0 e9bd dc8c ddbd 470b e53c aa55 9ebd
000003f0: 4075 873c c1b6 7ebe e49b 9dbc 6f6a 9a3e
0.19587527 -0.7347735 0.68701726 -0.41525733 -0.19843915 0.08824512 -0.018171018 0.07651208
0.10557801 -0.04765644 -0.10153551 0.20241562 -1.1424854 0.72736955 -0.83996105 -0.2550242
-0.13487722 0.03062942 -0.38343784 -0.00034336429 -0.07129439 0.42896983 -0.15128107 -0.7742619
0.26539382 -0.110790156 -1.2337216 -0.3376777 0.11855712 -0.5303404 -0.30946878 -1.4875027
-0.15584424 0.11785961 -0.2667761 -0.36742997 -0.32239175 0.37520835 -0.4322295 0.6689543
0.5317586 0.054650266 0.19059926 -0.07808077 0.2062168 0.59695697 -0.10131844 -0.17225271
0.14888303 0.019298945 0.071005344 0.07954065 0.10233386 0.13397329 -0.16554831 0.33298746
-0.02508952 -0.0035660022 -0.014492852 -0.067533135 0.83186936 -0.104030706 0.44759655 -0.45003816
0.14200453 0.72621375 0.102565326 0.32476407 -0.1343129 -0.05447725 -0.11364943 -0.05483235
0.16404614 -0.18861836 0.20091449 -0.06151988 -0.009311904 -0.91109335 -0.2932058 -0.2648967
-0.5539961 -0.074287504 -0.3843791 -0.26781768 -0.06561881 -0.20629774 0.22330944 -0.55004966
0.117017925 -0.20889384 -0.098902166 -0.7908181 -1.0520504 0.20917358 0.5227102 -0.17383674
-0.29341218 -0.15380713 -0.11056467 0.08084599 -0.12789895 0.5474139 -0.058149066 -0.20447695
0.08388365 0.05906331 0.6273912 -0.02517236 -0.031073125 -0.33935317 0.7286409 -0.18953931
0.1905896 -0.079228684 0.050768018 0.1594625 -0.024603 -0.021517696 -0.04407872 0.19596063
-0.12585992 -0.08246432 0.042311758 -0.01127062 0.33600593 -0.3419931 0.6237341 -0.2741923
-0.102260716 0.1474473 -0.4197938 0.12411934 -0.07497433 -0.0680236 -0.14536345 0.1397562
0.11626254 0.047462642 -0.007261339 0.07338675 0.06581819 0.6214263 0.770144 0.0527145
-0.10670596 0.07534194 0.26881036 0.24228767 -0.11715413 -0.72189456 0.25309595 0.23853609
-0.016113799 0.44127747 0.042361993 -0.5575939 -0.06827465 -0.86295706 -0.004730623 0.20003705
-0.10300706 0.22032596 -0.2506966 0.04810262 0.15042758 0.41567725 0.2154198 -0.047055557
-0.5193954 0.14777744 -0.3736225 0.14294769 -0.07856606 -0.6679746 -0.041913044 -0.11495378
-0.022307832 0.09256583 0.021812562 0.16375697 0.15400855 0.019805787 0.13881125 0.15821779
0.045601685 -0.08073461 0.063598365 -0.050089948 -0.12811208 -0.031327102 -1.0829345 -0.18941651
-0.47776523 0.37106156 -0.39389226 -1.0653645 -0.043953378 -0.12462782 -0.073631525 -0.104882866
0.019702816 -0.057575934 -0.06633827 0.04294056 -1.2137862 -0.4494069 0.67230564 0.09858691
-0.30640483 0.101085596 -0.23245318 -0.0004686447 -0.0751086 0.15821414 0.07106284 -0.14878069
0.08999094 0.2791711 -0.82897 -0.5705873 0.4187285 0.21988793 0.38281247 -0.3360523
-0.027363079 -0.034217592 0.01645874 -0.12957618 0.24615665 -0.82038647 -0.24569333 0.063082635
-0.012518139 0.6881462 -0.29509598 -0.5200146 0.12538399 0.09936035 0.25588462 -0.012320069
-0.11267546 -0.16187683 -0.003103097 0.03811043 0.11509584 -0.03836582 0.11254056 0.060631953
-0.11419721 -0.108178824 0.027959479 -0.07731183 0.016535401 -0.24874403 -0.019239374 0.30159327

image_conv.3.bias f4 [32]
00000000: 5f7a a0bd 7020 6c3d 7b62 70bd 1307 1ebf
00000010: d178 593d 719e 09bf c4ee f6be f21a 90be
00000020: 5e69 0dbe fba9 dfbd f70b 5abe 299d 823d
00000030: 23e1 f4bc 1152 51be 842d 0fbf 39b0 91be
00000040: 02fe 30be e0a8 e63e 349d adbc beb3 27bf
00000050: b09d 1ebe cca2 f33d 7325 07be 0380 1dbf
00000060: c4f5 19be 9256 02be 7c63 8abe efdc 1fbf
00000070: c7a8 42be b469 4bbf 6984 20be e49a 81be
-0.078358404 0.057648122 -0.05868767 -0.61729544 0.053093735 -0.5375739 -0.4822904 -0.28145558
-0.13809726 -0.10921093 -0.21293627 0.06377632 -0.02989251 -0.20441462 -0.55928826 -0.2845476
-0.17284396 0.45050716 -0.021193124 -0.6550864 -0.1548984 0.118962854 -0.1319788 -0.61523455
-0.15035158 -0.12728336 -0.27029026 -0.6244649 -0.19009696 -0.79458165 -0.1567551 -0.25313485

image_conv.5.weight f4 [64, 32, 2, 2]
00000000: dc70 bebf 9562 d7bc 1b6c 93bf ecc1 86bf
00000010: dd22 c1be 5ca6 1d3f 7647 aebe ed74 0abf
00000020: 03f8 0abf 22ff 4c3e 299d 16bf 785c f83e
00000030: da94 313e 6620 783c eb3f 3dbf 1431 94be
00000040: 1e85 b73e 96ee 643e b59e 3c3e cd69 4f3c
00000050: 8af3 37bd aa9a 1cbf fa32 3d3e d4aa 9cbe
00000060: 8731 233e cef6 a2be 24ea 4e3e ba6d e63d
00000070: 0a5b 06bf 80f4 cabe 87d4 f1be b916 c33e
00000080: 2417 1d3f 327d 2d3f 52c5 e9be c174 aebe
00000090: fc0e 86bc e2c9 72bd 24bf 763c 8bba 4ebd
000000a0: e10c 0b3e 1d95 023c 1459 6ebf 7a05 b4bf
000000b0: 49fe ac3e 8202 dcbe b84a 01bf cba4 d5be
000000c0: 1d52 31bf 2bb0 843f 5212 36bf dbe5 c4bd
000000d0: ace2 d73c 7caa 383c 9ce6 a5bc c9b0 c33c
000000e0: 2c43 a9bb 3852 b63e 56c9 e5be 21b3 343e
000000f0: e1c8 7a3d 90fa 933e 8946 56bf eec2 a23d
00000100: daf0 d13e 2e78 933e 2712 a73e efde c7bf
00000110: dc2c e4bd 679b 43bf 4bf5 8dbe 578b 0abf
00000120: eb1a ab3f e7b6 0ebf 1e94 183f eaf6 58bf
00000130: 575b 723e c4e7 2f3e 0a29 713d caef afbe
00000140: de6a ef3e d1ef 473f 7ca0 6abd 43bd 85bd
00000150: b082 f23e a105 17bf 8935 ef3e b5c4 7bbd
00000160: 4528 0ebe 3e51 93bd 5557 68be 96bf 2b3f
00000170: d473 3b3e a568 62be fd17 7c3b d76c e6bd
00000180: 9802 623d 2e27 cebd de08 703d 264a 78bd
00000190: 01b8 e13e adef bc3e a18e bc3d c7fb 79be
000001a0: 6224 89bc 501a 3abd db5e 0a3e 88d3 a2bd
000001b0: fc4f 31be 79ad 013f 51ba cfbf 2aa6 613e
000001c0: c033 88bc f9cc 433d 4e56 7b3d 750c 703d
000001d0: 08e4 96bd 77a9 eebe fdce 55bf a62e 5f3d
000001e0: e088 b73e 8ab1 363f 4198 84be 9f02 203e
000001f0: cab5 51bf 8a9d 97bd 0bca 3b3e c570 763e
00000200: 8df2 1ebd 3779 a9bd e0db e9be 8009 623d
00000210: 42c9 94be 704c 09bf a69a a8bd 6b5b fb3c
00000220: 1c20 16bf 7fec 0ebe 26a2 50bd 27c4 50bd
00000230: 05a0 cb3d 6d8c 93bd 740a ce3d 1a65 f33c
00000240: 4821 513e 056c 0f3f cfc1 d63d 366b e63e
00000250: cdf7 1bbe fccb debe 05e4 ae3e 0e56 48be
00000260: 73e0 87bc 23c7 94be b053 dcbe f243 4f3f
00000270: 13a5 303f cba4 523d 8ab6 abbe af8f 553e
00000280: 6edc 78be b2ce 11bf 5dcd 2dbf 4ff3 093f
00000290: f17c a2bd 1fd6 da3c 834b 80bd ea71 b13d
000002a0: 09ac 0fbf 6b69 51bf c48e 6bbe 20b0 8f3e
000002b0: 9bd8 053f 4b19 88be 539e 463c 6828 4d3e
000002c0: 740d b4bd 1940 41bf d17c 753e a3b1 d63e
000002d0: f411 00bd c849 273d aefb f2bd 43e5 b1bd
000002e0: dee0 503e bfdb 15bd 0b0b a6be d8c6 963e
000002f0: e707 93be 213d b2be 050a 00bf 6fc0 d43e
00000300: 032a fe3d 3230 36bf d945 363e afd2 2d3f
00000310: 8d0b 70be 3a62 713e 638e 893d 8f79 463e
00000320: 0799 88be 6be1 b0bd ea66 e9be 8a73 523f
00000330: a335 9dbe e70b 18bf 5aeb 51be cb55 7d3e
00000340: f6d9 603f 98c1 18be 5f8f 5ebe a873 ea3c
00000350: 9ef3 1fbf 7a68 00bf 6b33 e2be 0545 85be
00000360: fada 2f3e c768 46bd 3f64 afbc a504 c0bd
00000370: c6b9 83bd a985 b6bc 8bf4 143c 951c 1c3d
00000380: 9f61 a9bd 2d4e 623d 2671 96bd 1519 96bd
00000390: cc6b a03f 84a4 05bf 8d92 e739 89ce 55bd
000003a0: 9d47 56bd ef67 3dbc 1f12 82bd 3458 45bc
000003b0: 8008 abbe 61ae 0b3e 35f1 c0be 04f1 69bc
000003c0: 2b87 67bd 657e 743c d77d 143c fd3f 36bd
000003d0: ee9f 7dbe d154 393e 9388 783d 6829 d5be
000003e0: a25a 373e 5063 8fbd 1e3d 01be adb5 59be
000003f0: f4d5 bf3e 6e3f 8abe 73ef ab3e 5fb8 1dbf
-1.4878192 -0.026292125 -1.1517366 -1.052793 -0.3772191 0.6158197 -0.34038895 -0.54084665
-0.54284686 0.200192 -0.5883356 0.48508048 0.17341939 0.015144443 -0.73925656 -0.28943694
0.35843748 0.22356638 0.18419917 0.012659502 -0.04490999 -0.611735 0.18476477 -0.30599082
0.15936862 -0.31828922 0.20206505 0.112513974 -0.52482665 -0.39639664 -0.47232458 0.38103274
0.61363435 0.6776916 -0.45658356 -0.3407345 -0.016364567 -0.05927456 0.01506022 -0.05047087
0.13579132 0.007970122 -0.9310467 -1.4064171 0.33787754 -0.42970663 -0.50504637 -0.4172729
-0.6926592 1.0366262 -0.71121705 -0.09614154 0.026353203 0.011271115 -0.020251565 0.023888009
-0.005165478 0.35609603 -0.4488017 0.17646457 0.06122673 0.28902102 -0.8370138 0.07947336
0.41004068 0.28802627 0.32631037 -1.5614909 -0.11141369 -0.76409 -0.27726206 -0.54118866
1.336759 -0.55747837 0.5960101 -0.8475176 0.23667656 0.17178255 0.05887703 -0.34362632
0.4676122 0.78100306 -0.057281956 -0.065302394 0.47365332 -0.58992964 0.46720532 -0.06146689
-0.13882549 -0.0719323 -0.22689565 0.6708921 0.18305904 -0.22110231 0.0038466447 -0.11251228
0.055178255 -0.10066067 0.058602206 -0.06061759 0.44085696 0.36901608 0.09206892 -0.24412452
-0.016740981 -0.04543525 0.13512747 -0.07950503 -0.17315668 0.50655323 -1.6228734 0.22036043
-0.016626239 0.0478029 0.061361603 0.05860563 -0.07367712 -0.46613666 -0.83518964 0.054487847
0.35846615 0.71364653 -0.2589741 0.15626 -0.81918013 -0.07403095 0.18338792 0.24066456
-0.038805533 -0.08275073 -0.45675564 0.05518484 -0.29059798 -0.5363226 -0.08232622 0.03068324
-0.58642745 -0.13957404 -0.050935887 -0.050968315 0.09942631 -0.072045185 0.100605875 0.029711295
0.20422852 0.560242 0.10486185 0.4500367 -0.15231247 -0.43515003 0.3415834 -0.19564077
-0.016586518 -0.2905818 -0.43032598 0.8096305 0.69001883 0.05142669 -0.33537704 0.20855592
-0.24302837 -0.56956017 -0.67891484 0.53886884 -0.07933987 0.026713429 -0.06264403 0.086643055
-0.5612188 -0.8180148 -0.2300368 0.2806406 0.5228364 -0.26581797 0.012122708 0.20034945
-0.087916285 -0.7548843 0.23973395 0.419324 -0.03126712 0.040841848 -0.1186441 -0.08686306
0.2039828 -0.03658652 -0.324303 0.2944858 -0.28716967 -0.34812263 -0.5001529 0.41553065
0.12410357 -0.7116729 0.17800082 0.678996 -0.23441906 0.23572627 0.06716611 0.19382308
-0.2667925 -0.08636745 -0.4558633 0.8220755 -0.30704984 -0.5939316 -0.20499936 0.24739759
0.8783258 -0.149176 -0.21734379 0.028619602 -0.62481105 -0.5015942 -0.44179854 -0.2602922
0.17173377 -0.048439767 -0.021410106 -0.09375886 -0.06431918 -0.022280531 0.009091507 0.038113195
-0.08270573 0.055250335 -0.073458 -0.07329003 1.2532897 -0.52204156 0.00044168942 -0.05219892
-0.05231439 -0.011560424 -0.063511126 -0.012044955 -0.33404922 0.13640739 -0.37684026 -0.014278654
-0.05652539 0.014922713 0.009063206 -0.044494618 -0.2476804 0.18098761 0.060677122 -0.41633153
0.17905667 -0.07001364 -0.1262097 -0.2126071 0.3746792 -0.27001518 0.33581123 -0.6160945

image_conv.5.bias f4 [64]
00000000: 0cdc 9ebb 6ac2 223d 43d6 20be fd8b 6b3c
00000010: dc0d 433d 668b 7a3f dc50 603f cd96 f1bd
00000020: 2476 c83d 87bf 19be a30d a2bd 6891 c43a
00000030: d9c5 a83d f0ae b83e 86b4 1d3e 5ee1 d8bd
00000040: d34d 3bbe 00ad f6bd d962 2ebd 015d 88be
00000050: c77b fbbd b9b0 f5be 9445 e4bd dfb9 d5bd
00000060: 6f26 dcbe 2397 183d 1096 323d 29f6 1d3f
00000070: 7425 80be b235 07bf 0fa5 543e 13d1 04be
00000080: 836e 1ebe 2953 36be 1226 afbe 5603 8cbe
00000090: 8aea 853e f60d 39be 17d1 69be 5f6b 8abd
000000a0: 89ff 5bbd 7d61 f53d 8830 6dbe 66cb d5bd
000000b0: 7d4d 8fbd 666e 503d 171b d1bd 6cd9 15be
000000c0: ed43 113e ba41 07bf c3de 1b3e 5782 09be
000000d0: 0aac c3be e6b1 7abd 21de 76be 965d debe
000000e0: 00cc 29be 6a23 113e 8919 d2bd 9748 85be
000000f0: bd60 2dbe 68e1 1ebe 6a17 e5be 565a 99be
-0.004848009 0.03973619 -0.15706734 0.0143766375 0.04762064 0.97868955 0.8762338 -0.11796341
0.097881585 -0.15014468 -0.07912757 0.0014996948 0.082408614 0.36070967 0.15400895 -0.105898604
-0.18291406 -0.12044716 -0.042574737 -0.26633456 -0.12279468 -0.4798639 -0.111460835 -0.10435843
-0.42998073 0.03725351 0.043600142 0.61703736 -0.25028574 -0.5281631 0.2076609 -0.1297038
-0.15471844 -0.1780516 -0.34208733 -0.27346295 0.26155502 -0.18071732 -0.22833668 -0.06758761
-0.053710494 0.11981485 -0.23163044 -0.10439186 -0.069972016 0.050886534 -0.10210245 -0.14633721
0.14186068 -0.52834666 0.15221696 -0.13428627 -0.38217193 -0.061204813 -0.24108173 -0.43430775
-0.16581726 0.14173666 -0.10258777 -0.26031944 -0.16931434 -0.15515673 -0.44744426 -0.29951733

memory_rnn.weight_ih f4 [256, 64]
00000000: dafe 79be 5d7c 563e fe2d 2d3d d5d2 34be
00000010: 4181 593f b8d5 2ebe f247 1bbe bde3 96bd
00000020: cd64 7c3d f0f6 acbc 2da3 55be 320c 6dbf
00000030: 850d 073f 7e00 553c 40f0 b23d ab65 ec3c
00000040: c994 2bbe 2c39 043d 1a7b bcbe bca8 863f
00000050: 0f42 35bf 1c96 843e 66e2 013e fe8b a8bc
00000060: ee10 673e 4efd f2bc bbc6 313f 8314 04be
00000070: ca88 97be 41a4 d9be 71e6 23bf ccf8 ffbc
00000080: 7470 dbbd 9623 7bbd 6e0a 84be 7ead e53e
00000090: 6db2 14bf ca50 52bd ef4d 8b3e b82b d23c
000000a0: 216d 16bf 0530 4e3f 6e4e b9bc f873 bf3d
000000b0: 0d02 42bf fce9 f73d e7ff a13e ae46 78be
000000c0: bdd8 bbbe 2e53 803f 0d7a 8d3e 506d 08bd
000000d0: 292c 3c3e 3d13 8dbd 246f 9bbe e9f9 dc3d
000000e0: 85c9 8ebd f388 98be b0db 97bd c026 053f
000000f0: 6b76 143f 2e73 17bd e8a7 37bd 96df fcbd
00000100: 333b 453e 0355 dd3d 9766 62be 5054 d1bf
00000110: 474d 5ebe 8058 9a3e c1c6 a6be d8c5 6dbc
00000120: d6f6 1c3f 2c70 883d 9b99 103e c424 e43d
00000130: f8ae 1c3f 3144 bf3e f03e 0e3d 5d47 0a3d
00000140: 6d00 5bbd 39ea 07be 26d6 96be 5a90 31bf
00000150: bc29 373d 27b3 3e3f 95cd 1f3e adc1 04be
00000160: 641e b33e 429e 2fbe 5aa1 9f3e 01db 32bf
00000170: 1b00 c43d c0db 82bd f69b 093f fca3 1abd
00000180: 26d5 e23d 37d2 16be 6ba4 063f c9de 5c3f
00000190: 5f3a 51bf 725c 27bd 7a49 f3bd 0b7d 093e
000001a0: 9196 1e3e 59a9 b3bd fdd9 b8be 2b76 a63c
000001b0: 79c5 8b3e b582 32be 8235 4cbc 634f 50bb
000001c0: df2d c83e 72e3 973e 928e 87be 87c0 a4bd
000001d0: 3671 f1be 3a1d f8bd 12c1 b1be a300 ee3d
000001e0: 36a7 993d 8d20 5a3f c11c 82be ea81 88be
000001f0: 4ec8 d3bd 0d98 103d 9c07 1bbf 1c36 17bf
00000200: 8159 3d3f 08ef 0dbf 5ea2 93bd 85d8 733e
00000210: 4d4c ecbe 537b b1be c029 2b3e de04 c2bd
00000220: 0b95 2abf 2462 93bd 8919 e63f 9405 46bf
00000230: 077c 433f 7d1f 0dbe b54a 8bbe 3f8e 07be
00000240: 0197 1a3e c278 e2bd d442 05bf e671 8abf
00000250: 380c 32bf 800c 1d3c d6db 95bf 02a2 c33d
00000260: 5e84 51bd 04bf 9d3e a190 303f b7ed aa3e
00000270: 8ec1 fc3e 4d32 943d 367c 6dbe 79e3 0b3d
00000280: e35a a43d 27e5 713d 87b5 2a3e 4bea 20be
00000290: ae7b c23e 37a2 febb 8dec bebe 93b6 47bd
000002a0: c00c 70bf 73f3 253f e84c 8e3e 1106 eb3d
000002b0: 6fe0 d2bd 6c88 c13e 11b3 fc3e 18c9 493d
000002c0: a7a6 00be 11f4 efbd 31bf 1a3d cfa4 12bd
000002d0: 67b1 1bbc 6904 27be 35c8 f3be 6bfa a33f
000002e0: 640c 8bbc 5ff1 bcbe c53f 37bd 7590 7e3e
000002f0: 6857 5dbf c272 d9bd 7018 b7be 1d6a 8d3f
00000300: dd94 37bf b269 f93e c303 913d 012f c03e
00000310: de43 cebd 52de 2d3f cf59 243f 2c14 553d
00000320: 6339 ec3d df99 1d3c 7960 8d3e 8f21 8abb
00000330: b8a5 f43e e2e3 aa3d 7c49 3d3e 1cbf 58bd
00000340: 9803 ecbc 6755 9abd cf91 14bf d742 f73e
00000350: da0d 9ebd ecf2 95bf 1b78 c5be 92bc ca3d
00000360: 8fff 83bd fef3 6d3e a6f7 093f 63b9 a43e
00000370: bbe0 463b 3026 243e b5e0 fcbe 0780 04be
00000380: fd27 85bd ee05 85bd 3f86 23bf fca2 023e
00000390: f53e d93c e117 b03d 918a 20be c277 833d
000003a0: 82a2 81be ce56 a63e 5734 36bf 71df b23d
000003b0: 1f91 23bf 38b3 a6bd 7af2 d5be 2c8c 603c
000003c0: b9eb 533f 1148 e33e e42a f1be 087e f13c
000003d0: 1cca 04be 7b76 0ebd ce57 77be 9755 3dbf
000003e0: 820b 363b 3cdc b53d a8fe 1f3d a46f b33e
000003f0: 1daa 34bf 4b5b f33d 8c19 ef3c 0e38 f43d
-0.24413624 0.20945878 0.04228019 -0.17658551 0.8496285 -0.17073715 -0.15164164 -0.073676564
0.06161957 -0.021113843 -0.20863028 -0.92596734 0.52755004 0.013000606 0.0873723 0.028857073
-0.16755976 0.032281086 -0.3681267 1.0520244 -0.7080392 0.25895774 0.1268402 -0.020574566
0.22565052 -0.0296618 0.69443864 -0.1289845 -0.2959655 -0.42508128 -0.640235 -0.031246565
-0.10714808 -0.061313234 -0.25789207 0.44858927 -0.58084756 -0.051346578 0.27207896 0.025655612
-0.5876027 0.8054202 -0.022620406 0.09348291 -0.7578438 0.12105176 0.3164055 -0.24245712
-0.36688796 1.0025384 0.2763218 -0.033307374 0.18376221 -0.06888435 -0.3035823 0.10789854
-0.069720306 -0.29791984 -0.07414949 0.5201225 0.5799319 -0.03697508 -0.044837862 -0.12347333
0.19260864 0.1080723 -0.22109447 -1.6353855 -0.21709166 0.30145645 -0.32573512 -0.014512502
0.6131414 0.0666202 0.14121096 0.11139825 0.6120448 0.37356713 0.03472799 0.033759464
-0.053467203 -0.13272943 -0.29460257 -0.6936089 0.044717535 0.74492115 0.15605767 -0.12964506
0.34984124 -0.17150214 0.3117779 -0.69865423 0.095703326 -0.0638957 0.537536 -0.037754044
0.11075811 -0.14728628 0.5259463 0.86277443 -0.8172969 -0.040859647 -0.11879249 0.13426606
0.15487124 -0.08772535 -0.36103812 0.020320019 0.27299097 -0.17432673 -0.012463929 -0.00317856
0.39097497 0.29665715 -0.2647596 -0.08044534 -0.47156686 -0.121149495 -0.34717613 0.11621215
0.07502596 0.8520592 -0.25412562 -0.26661617 -0.103409395 0.035301257 -0.60558486 -0.5906694
0.739647 -0.5544286 -0.072087035 0.23813064 -0.46151963 -0.346644 0.16715145 -0.094735846
-0.6663367 -0.07196453 1.7976543 -0.7735226 0.76361126 -0.13781543 -0.27205434 -0.13237856
0.15096666 -0.11058189 -0.52055097 -1.0816009 -0.69549894 0.0095855 -1.1707714 0.09552385
-0.051151626 0.30809796 0.68970686 0.33384487 0.4936642 0.072361566 -0.23191914 0.03415248
0.08025148 0.059056427 0.1667081 -0.15714376 0.37984985 -0.0077708024 -0.3728985 -0.0487581
-0.93769455 0.648246 0.2779305 0.114757665 -0.102967136 0.37799394 0.49355367 0.049264044
-0.12563573 -0.11716474 0.03777999 -0.035801705 -0.009502745 -0.16310276 -0.47613683 1.2810796
-0.016973682 -0.36902902 -0.04473855 0.24859793 -0.86461496 -0.106175914 -0.35760832 1.1048008
-0.7171152 0.48713452 0.070807956 0.3753586 -0.100715384 0.6791736 0.6419954 0.05202119
0.11534383 0.009619205 0.27612665 -0.0042154263 0.47782683 0.083442464 0.18485063 -0.05291663
-0.028810307 -0.075358205 -0.58034986 0.48293182 -0.07717486 -1.1714759 -0.38568196 0.09899248
-0.06445228 0.23237607 0.53893507 0.3217269 0.0030346352 0.16030192 -0.49390188 -0.12939464
-0.06501768 -0.064952716 -0.6387672 0.12757486 0.026519278 0.085983045 -0.15677859 0.06419326
-0.25319296 0.32488102 -0.71173614 0.08734024 -0.6389331 -0.08139652 -0.41786557 0.013705295
0.8278156 0.4439092 -0.47103035 0.029479042 -0.12967724 -0.03478096 -0.24154589 -0.73958725
0.0027777855 0.08879897 0.03906122 0.35046113 -0.7057207 0.11882647 0.029186986 0.11924754

memory_rnn.weight_hh f4 [256, 64]
00000000: 997d 883e 0b3c 573f 3b86 3b3f 325c 623f
00000010: 8f90 9fbf 35d0 2b3f a5c8 c8bc c5fd a33e
00000020: 7d67 5ebf 51bc 90bf 02ef 92be ed5f 2540
00000030: e98c 943f 459c c7be d734 f63e e3f5 4dbf
00000040: 0b0b bf3d fb56 88bd 9ad9 16bd 0da8 453f
00000050: 8ef4 9f3e c919 003f fc00 a0be a33f 37be
00000060: ad5c c2bd 542e 94bd a4ef 61bf 4589 7b3e
00000070: f7d7 4ebe 2af6 dd3e 3120 a33e 9094 c73f
00000080: 745b 3d3f 9fbb 093f e9cd 943f 57ec 6ebe
00000090: 8a16 053f 6ede 66bf 27ac 5a3f cdc9 353e
000000a0: 2066 ee3e f800 17c0 d272 f7be 0e4e 223d
000000b0: 95b6 cdbe d0f6 ccbe 6871 1abe b6dd 44bf
000000c0: 7dfa 103f a3f5 783f 95cb 323f 37e9 ed3c
000000d0: 5b22 6f3d 0046 84bc d5b1 3dbf cc62 ae3c
000000e0: db3b 453f becf 04c0 8cf4 eabe c9eb 603f
000000f0: bdfd 0440 958a 273e 3aab 98bf ab90 903f
00000100: c283 8a3e 4a61 b83d 77a5 193e a6b0 8e3e
00000110: 7a14 9b3e 0146 97bf a458 c6bb bbba 58bf
00000120: 1539 01be b75e d03e 9e54 e73f 01f3 7d3f
00000130: 1435 713d e1e3 863f 12c6 f3be 59d1 c53d
00000140: 5140 d0be ae68 ef3d b5ec 16bf 0c37 16bd
00000150: 5451 4a3e 63fd a63e d918 ae3e 6062 9c3e
00000160: 179b 453f 3931 553e 639a 903e 0433 903e
00000170: e18d d53c 8dfd 783f f2e7 d83f 1492 e73e
00000180: e376 febe 90ea a23f 76f7 c93e e791 ee3f
00000190: 9d1c 753f afe6 a0bf d7de febe d2bb 8cbe
000001a0: d4e1 673f d2ab 2f3e d541 1fbf 3d74 1a3e
000001b0: acfb bebe 89ae dbbe ef88 8e3f aecb f0be
000001c0: 1a56 08bf c380 213e 42c5 2cbf 5c8a 213f
000001d0: 70ee c3bf 8ab9 933f 1182 b03f c748 94bf
000001e0: 4160 1dbe a027 8fbe da70 55be 8338 f9be
000001f0: fb92 9c3d f254 98be c3ef 05bf f11a d03e
00000200: 373b 8bbf 78d5 07bf 1b7f 0fbb 5edd edbf
00000210: 88df bebf 8816 0e3f d29e dbbe dcf9 8bbe
00000220: a8e5 cabe b84f c23e 6ecd 1a3e 8a15 883e
00000230: 16c4 8e3f 4498 813d cd8f 4c3f 0cf7 cebe
00000240: 6480 4cbe 823d b6be 6030 9fbf 5b67 b83e
00000250: 85da 9cbf 83d8 133f 4f7f 373e 3499 febc
00000260: 8661 863e a4b8 f33e 2e76 1a3e 4456 353e
00000270: 713c 90bf 42c0 fe3e d59d 4abe 322e 833e
00000280: b7e3 393d e65e f2bb 6c84 483f 7736 7fbf
00000290: f904 ca3d fcb2 983e f922 19bf c575 c3be
000002a0: 2516 e03e daab 63bf 106b 8ebe 0df2 ba3f
000002b0: 3de8 88bf 37c0 1bbf 1144 193f 2030 d13f
000002c0: 001b 86be c735 903f 8798 a03f 1b11 be3e
000002d0: 6ad3 d6bd 2a6a ed3f 08ff 253e 0e34 613f
000002e0: c7cc 9c3f 66c0 19be b4d4 bf3d 425b 8d3f
000002f0: db3e d4be 9937 8f3f 062f 183e 1122 3c3e
00000300: c887 20be 378b 7dbe b7b9 34bf 1f26 b63f
00000310: 2de0 a93f d8c2 8ebf b588 1d3f a161 6a3e
00000320: 2c46 dbbc dd63 8fbe b3c4 503f 8e9b 8c3f
00000330: 6a2e e13e 8bb4 c0bd ec57 0a3f 7660 513f
00000340: cc54 543f 2855 e53d cc70 8bbe 9dcb 3bbf
00000350: fac0 663e 486d a63e ca7e d23e 192f cf3f
00000360: b545 4d3f 40c8 4cbf 0003 2bbf b3b2 04c0
00000370: 42dd 9a3e 8481 0bbf 5399 453f 147e 513e
00000380: bf96 8dbf f3d3 ea3f c9ad 433f ef1d bd3e
00000390: a9fc 233f 2ee6 6cbf 257d 073f 1558 cfbf
000003a0: b8ca 8bbf 63be 44bf 3940 833e f562 de3d
000003b0: 1b18 d7bd b855 e33e b275 883f 4db1 a83d
000003c0: 1dc6 89bf d9d6 1c3f 3f72 a73d 0bfc c73f
000003d0: 473f 41bf 0d87 08bf 9d0e 443f 8a03 42bf
000003e0: d5a8 bc3f 3076 3bbf 8cc6 72bf ced8 93be
000003f0: 2e66 ca3e 8e1c fc3d 1fa8 33bf 60ce f5be
0.26658323 0.84075993 0.73251694 0.8842193 -1.2465991 0.67114574 -0.024509737 0.32029548
-0.8687666 -1.130747 -0.28697973 2.5839798 1.1605502 -0.38986412 0.4808719 -0.8045332
0.09328278 -0.06657215 -0.036828615 0.7720955 0.31241268 0.50039345 -0.3125075 -0.17895369
-0.09490333 -0.07235399 -0.8825629 0.24564083 -0.20199572 0.4335187 0.31860498 1.5592213
0.7396767 0.5380191 1.1625339 -0.23332344 0.51987517 -0.9018315 0.85418934 0.17752762
0.4656229 -2.3594341 -0.48329788 0.03962522 -0.40178362 -0.40032053 -0.15082324 -0.76900804
0.56632215 0.9724981 0.6984189 0.02904187 0.058382373 -0.01614666 -0.74099475 0.021287344
0.7704446 -2.0751796 -0.458897 0.8785978 2.077987 0.16361459 -1.1927254 1.1294149
0.27053648 0.090029314 0.15004526 0.27869147 0.3028906 -1.1818238 -0.0060530473 -0.8465993
-0.12619431 0.40697262 1.8072698 0.9919892 0.05888851 1.0538293 -0.47612053 0.096590705
-0.4067407 0.11689888 -0.58954936 -0.03667359 0.19757587 0.32615194 0.34003332 0.30543804
0.77189773 0.20819558 0.28242788 0.28163922 0.02606863 0.9726189 1.6945784 0.45228636
-0.49700078 1.2727833 0.3944661 1.8638276 0.95746785 -1.2570399 -0.49779388 -0.27487046
0.9057896 0.17155388 -0.62209827 0.15083404 -0.37301385 -0.42906597 1.1135539 -0.47030395
-0.5325638 0.15771775 -0.6748849 0.63101745 -1.530714 1.1540997 1.3789693 -1.158471
-0.15368749 -0.2795992 -0.2084383 -0.48675928 0.07645222 -0.29752308 -0.5231897 0.40645555
-1.0877446 -0.530601 -0.002189583 -1.8583181 -1.4911966 0.5550313 -0.42894608 -0.27339065
-0.3962834 0.37951446 0.15117428 0.26578933 1.1153591 0.063278705 0.7990692 -0.40422857
-0.19970852 -0.35593802 -1.2436638 0.36016354 -1.2254187 0.57752246 0.17919658 -0.031078912
0.2624628 0.47601807 0.15084144 0.17708689 -1.1268445 0.49756056 -0.1978677 0.25621182
0.04538318 -0.0073965667 0.7832706 -0.9969248 0.0986423 0.29824054 -0.5981899 -0.3817579
0.43766895 -0.889341 -0.27816057 1.4605118 -1.0695873 -0.6084017 0.59869486 1.6342812
-0.26192474 1.1266412 1.2546548 0.37122425 -0.10489543 1.8548024 0.16210568 0.87970054
1.2249993 -0.150148 0.09366742 1.1043475 -0.41454205 1.1188842 0.14861688 0.1837237
-0.15676796 -0.24760137 -0.7059588 1.4230384 1.3271538 -1.1153212 0.61536723 0.22888805
-0.026766859 -0.28005877 0.8155014 1.0984972 0.43980724 -0.09409436 0.5404041 0.8178781
0.8294189 0.11197883 -0.27234495 -0.73357564 0.22534552 0.3250525 0.41112357 1.6186248
0.8018449 -0.7999306 -0.6680145 -2.073407 0.3024693 -0.544945 0.7718708 0.20458251
-1.1061629 1.8345932 0.7643705 0.369369 0.64057404 -0.92538726 0.5292533 -1.6198756
-1.092124 -0.7685301 0.25634935 0.10858718 -0.10502645 0.44401336 1.0660918 0.082369424
-1.0763584 0.6126533 0.081760876 1.5623792 -0.7548718 -0.5333107 0.765848 -0.7578665
1.4739023 -0.73227215 -0.9483421 -0.28876346 0.39531082 0.12310134 -0.7017841 -0.48009014

memory_rnn.bias_ih f4 [256]
00000000: 7455 c03e cfd6 5a3e 5ad9 04bf b5b5 153e
00000010: 5475 3fbd 7be9 173d 3473 f73d cbb1 c63d
00000020: 4854 afbe f4af 33be 8109 7b3d 3618 4bbe
00000030: 8e32 0bbf f588 babe 3f1d 7ebe b389 1ebd
00000040: 4c66 e03d a380 033e bb0f 74bf 9649 e33d
00000050: 592a 653e 3a9f 8e3e 3150 debe 2572 ed3e
00000060: b1fb 3abe 806c efbd d469 753e 515b 1ebe
00000070: 439d 893e 1013 183f 5894 54be 724f b1be
00000080: 5da9 263e bff1 99be b38a 1c3f 388a 65be
00000090: de35 abbe 0fcf 44bd 3de6 653e 03f9 10bf
000000a0: 71ce 6dbe aecc afbf 60ab 343e 17e1 033f
000000b0: 6886 23be e64c ba3d 46a5 c5be 6fb0 363c
000000c0: 8fee 2abf 1728 abbe 7c1e e03e d690 ce3d
000000d0: 8997 993e 202c a0be 9abd ba3e 24fb 963e
000000e0: 099e a3be a907 7dbe 36b8 debe 7d0e c93d
000000f0: bf1d 7b3e 8ec9 473e 61ab 3ebf 732a a23c
00000100: 5c98 8a3e f1db 20bd d916 12be ef99 b53e
00000110: 78a2 ebbe e65a 0c3f 5c11 e03e 8740 ccbe
00000120: ff2e 3cbf b5d1 4bbe a300 7abe 144c 89bc
00000130: a856 f03d df7d 1fbe 9fe4 2fbe 9574 37be
00000140: c320 a7bc f09a b23d 83a1 233e 9a00 64be
00000150: e7d1 63bd 9e08 94be 5b70 3fbe f152 35bf
00000160: 8d73 45bf 742e 38be 46fc 8bbe bbf1 633e
00000170: 05fa 4a3c f247 b1be 4184 77be 69a6 70bd
00000180: 5782 7bba 95ec dbbe 829a 40be c726 23bf
00000190: 11ba 02bf e56b 103f 041e d63e 459e 7b3e
000001a0: 68af 2fbe 3c12 3cbe 0d01 fcbe 7304 1c3e
000001b0: b966 b7bd e8e8 09bf 96c5 74be 0217 3d3f
000001c0: 28db a83d e5e0 92bd b929 08be 5bff a6be
000001d0: 7ed3 11bf 2237 283e f489 dbbd 2e44 5a3e
000001e0: 5f4d 1d3e bf5a 93be b79c 433e 8b81 81bf
000001f0: 6927 e7bd b22c 7fbd a6f8 283e 69d7 2c3e
00000200: a01b 413d 4a30 2d3f a8a6 603e 7c27 8abd
00000210: cd07 64bf 859a d3be 2fee 843e 3f6c bebd
00000220: f48f dfbd 40b7 d13e b315 7bbd 811a 8abe
00000230: c8b5 72be 3332 1d3e e088 c33d c177 0fbf
00000240: c85a dbbd 01bf 263f 4fa8 d63e 6a3d 083f
00000250: 50b7 4abe 2790 983e 6876 acbc 8fa8 03bf
00000260: 2f88 8abe 967f 27be 4d9d eb3e 04d7 b33e
00000270: a7d0 2b3e 0e22 69be c002 013e 7ace 2abd
00000280: ee45 213f f3b5 80be d900 243e 32e1 403e
00000290: bcfd 69be 0d08 96be 266c 9dbe f845 293e
000002a0: e7d1 30be c0df 39be 3114 a93d d098 c9be
000002b0: 4c81 a23e b7d7 bd3d 3115 1fbe 7779 e4bd
000002c0: 56cc 00bf 51be 6d3e 387d 2b3c 552e 3dbf
000002d0: 33a4 0a3f 52a7 89be 7089 193f 32ad b03e
000002e0: df24 8d3e 2724 503e f625 343f b151 10bd
000002f0: c22c d53c 1b4d b23e 62a9 b8be 1792 de3e
00000300: 86d9 adbd ae0e c73e 3e21 95bd 031a ce3d
00000310: 2452 d53e afbd df3e 4ff6 88bd 3500 7b3d
00000320: 56b3 45be e9bc adbd 4c14 b7be 79d6 033e
00000330: b57f 30bf 6f6c 30bd 24fb c43e 21fb c33d
00000340: ab1e 4f3e 7c9a 01be a081 213c 9728 293e
00000350: 698b 733d bef7 ce3d 6028 e2be e48b e63c
00000360: 937c 5d3e e0fd 0cbe 2329 803c 8e58 723f
00000370: c882 2b3d 6b16 81be ae34 babe 59b4 753e
00000380: dcb0 f53e 28b7 8d3e 32f4 883f 943e bcbd
00000390: f7d2 17bf 3eca 46be 333e ba3e 1fc2 273f
000003a0: 4ad9 033c 1ad2 1f3f 32df 9ebe bf7d 9bbe
000003b0: 46a7 433f 88ed c1be dd28 083f e246 4e3f
000003c0: 3a7d 913e c7e1 e33e e2bc 8bbd 376e 363f
000003d0: 1a74 3e3f 434f 083f 6e61 8f3e 04de 893d
000003e0: 4fb1 ccbe 9644 083e 5361 58bc d94b 933e
000003f0: 4d67 663e 3c25 6e3e bd4e 34be c5c8 94be
0.37565196 0.21371005 -0.5189415 0.14620097 -0.046742752 0.0370879 0.1208252 0.0970188
-0.3424399 -0.1754759 0.06128836 -0.19833454 -0.54374015 -0.36432615 -0.24815844 -0.03870554
0.109570116 0.1284204 -0.953365 0.1109802 0.22379436 0.27855855 -0.43420556 0.46376148
-0.18260075 -0.116906166 0.23966151 -0.15464522 0.26877794 0.5940409 -0.20759714 -0.34630924
0.16275544 -0.3006725 0.6114914 -0.22416008 -0.33439535 -0.04804903 0.2245111 -0.5662996
-0.23223282 -1.3734338 0.176435 0.51515335 -0.1596924 0.090966985 -0.38602656 0.0111504635
-0.6677026 -0.33429024 0.43773258 0.10086219 0.29998425 -0.31283665 0.3647278 0.2948848
-0.3195651 -0.24709953 -0.43499917 0.098172165 0.24523066 0.19510481 -0.74480253 0.019795632
0.27069366 -0.039272252 -0.14266528 0.35469005 -0.4602239 0.548262 0.43763244 -0.3989298
-0.7350921 -0.19904216 -0.24414305 -0.01675991 0.11735278 -0.1557536 -0.17177056 -0.17915566
-0.020401364 0.08720958 0.1597958 -0.22265854 -0.0556201 -0.28912824 -0.18695204 -0.70829684
-0.7712944 -0.1798647 -0.27340907 0.22260182 0.012388711 -0.34625202 -0.24171545 -0.05875245
-0.0009594312 -0.42953935 -0.1880894 -0.63731045 -0.51065165 0.56414634 0.41819775 0.24572094
-0.17156756 -0.18366331 -0.49219552 0.15236072 -0.0895514 -0.5387101 -0.23903498 0.7386323
0.08244926 -0.071718015 -0.13297166 -0.32616696 -0.56963336 0.16427281 -0.10719672 0.21315071
0.15361546 -0.2878017 0.1910275 -1.0117658 -0.11286814 -0.062298484 0.16501102 0.16879047
0.047145486 0.6765181 0.21938574 -0.06745812 -0.89074403 -0.41328827 0.2596297 -0.0929799
-0.10916129 0.4096012 -0.06129999 -0.26973346 -0.23702157 0.1535118 0.09547591 -0.56042105
-0.107106745 0.651352 0.41925284 0.5321871 -0.1979649 0.2979748 -0.021052554 -0.51429075
-0.27057025 -0.16357264 0.46018448 0.3512498 0.16778813 -0.22766897 0.12598705 -0.041700818
0.6299733 -0.25138816 0.16015948 0.18835905 -0.22850698 -0.29303017 -0.30746573 0.16530597
-0.17267571 -0.1815176 0.08255804 -0.393744 0.3173927 0.0926966 -0.15535428 -0.1115598
-0.5031179 0.23217131 0.010466866 -0.7389882 0.541568 -0.26885468 0.5997534 0.34507138
0.27567193 0.20326291 0.70370424 -0.035234157 0.026022319 0.34824452 -0.3606673 0.43470833
-0.08488755 0.38878387 -0.07281731 0.10063555 0.4166423 0.43699405 -0.06687605 0.061279494
-0.19306692 -0.084832974 -0.35757673 0.12874784 -0.68944865 -0.04307216 0.38472855 0.095693834
0.20226543 -0.12656587 0.009857565 0.1651939 0.059459124 0.10105847 -0.4417143 0.028142877
0.21629553 -0.1376872 0.015644616 0.94666374 0.04187277 -0.25212416 -0.36368316 0.23994578
0.47986495 0.276788 1.0699522 -0.09191623 -0.5930628 -0.19413087 0.3637558 0.6553058
0.008047411 0.62429965 -0.3102966 -0.30369374 0.76427114 -0.37876534 0.5318735 0.8057691
0.28415853 0.44508192 -0.06823136 0.71261925 0.74395907 0.53245944 0.2800402 0.06731799
-0.39979026 0.13307413 -0.013206798 0.28768805 0.22500344 0.23256391 -0.17608161 -0.29059425

memory_rnn.bias_hh f4 [256]
00000000: f3af 5b3e e25d c23e 5455 e0be 23f0 633e
00000010: acee 1c3e 6e6e 053e cd08 963d 9221 873c
00000020: d9c4 99be 06a2 f2bd 16dc 663d e23a 1ebd
00000030: 4880 bdbe 0536 a7be 67b9 46be 36e2 e3bc
00000040: 4149 623e 8fbc 8a3e c152 5abf 81d3 06bc
00000050: 99fe 963e 5b8b ee3e 1a69 ebbe db94 003f
00000060: 4ea6 0e3d eaf0 72be cbdc 8b3e 00cb 13bd
00000070: 0f1e e03d c4c5 ee3e 8bb9 9fbc b059 a4be
00000080: bea8 673e 2250 e0be d290 f33e 8fe2 d2bd
00000090: c840 c5be 6320 5cbb 5cce b73e 49c9 16bf
000000a0: ebbd 86be 00b6 c8bf ef65 e03d b9c4 053f
000000b0: b82b 45be 34cb 213e f8a6 b2be 826a d9bd
000000c0: e042 17bf 15eb 9dbe 766e c63e 9547 e3bc
000000d0: 9669 7c3e fc62 90bd 3b07 913e 12a6 5e3e
000000e0: 650a 9fbe 64f7 77be 3850 05bf fd48 8b3d
000000f0: cbd7 5c3e 5b45 313d 171e 69bf f661 e03d
00000100: 7948 823e 2cb2 1b3d a02d e4bd 07c4 173f
00000110: e658 e7be d823 fb3e b8a6 c83e 55b7 b8be
00000120: 2b6a 41bf fac6 a9be fb86 17be 4ea8 d73d
00000130: 4872 123e 4f64 91be b8b1 4abb b3e0 f9bd
00000140: 13e4 84bd 4c1c 6e3c cefa c53d ac0c 5fbe
00000150: 561f 08be 07c8 6cbe c354 65be 433a 3dbf
00000160: dcaf 2bbf 3a19 65be 9e51 26be 4e04 623d
00000170: 2182 2b3e e81a cebe 4732 98be a29a 42be
00000180: 2285 4e3d 2f8d e3be e6cd a1be 150f 2bbf
00000190: aed4 a1be 2b0c 343f 5e3f d33e 5eb6 a43e
000001a0: bb77 e6bd 5aa6 21be 32f4 1ebf d8e4 363e
000001b0: eba8 4b3d c0ad 1fbf c70f 79be ae57 453f
000001c0: cc58 ef3d 3b49 debd 04f5 5abe 61cb c6be
000001d0: bb55 b5be e162 d43d 6e51 69bd bcce ed3d
000001e0: 3fa5 563e b3fa acbe 5b9f 4a3d 6cb1 87bf
000001f0: feed 10be 7361 38be 2c89 853d f075 8d3e
00000200: 9181 22bd 3ee7 2f3f defd 613e fe54 46bd
00000210: 6395 58bf 5d38 a1be feda 903d 9c39 51bb
00000220: 3c10 0dba 8c37 bb3e 4505 56bd 9c51 20be
00000230: f81c 86be e3c3 f73d 96a2 183e e9d2 03bf
00000240: 9399 d5bd a3a8 203f 4b9b bd3e ba16 eb3e
00000250: 68a4 21be 328e e63d 4c33 2fbc 0424 febe
00000260: cd21 bebe 429e 1f3c d18e f13e faea b83e
00000270: a617 453e 30d2 66be d3ef 12bd 25ab 40be
00000280: f623 2e3f 0389 02be f117 683e 4661 3c3e
00000290: 6e49 8cbe c593 d8be 8660 c2be e8f4 293e
000002a0: 7c6f c9be 3005 a9bd d750 813e 3253 a3be
000002b0: 882b b83e f82b 973e 06da bdbd b98d e1bd
000002c0: d183 e7be f784 9a3e 845b f8bc 470a 46bf
000002d0: b1b6 103f b527 c8be 117b 173f c43f b83e
000002e0: 35c5 943e 55c6 7a3e 0e99 213f 13da 5ebd
000002f0: 9f94 14be f31b ac3e b24a e0be b50a b23e
00000300: 973f 96bd d09b f73e 0bf9 0fbe d44c 893e
00000310: f713 743e 4594 e63e 91cb 8a3d 477d eebc
00000320: dc1b 18be 7824 0abe 9887 dfbe c801 5c3e
00000330: df79 51bf 7970 c5bc 7811 153f fbcd cebb
00000340: dc72 483d 9051 a9bb 89ff 02be 3ca8 a13d
00000350: 7939 573d f6be a639 3482 afbe 89a2 b8bd
00000360: 0b96 e93c 7188 f1bd e26a 8cbd 4911 873f
00000370: a984 553e 3291 44be 90f3 b6be dd31 813e
00000380: 39ac 113f b04b c23e fdcb 5e3f 5f5e acbc
00000390: a770 0fbf ac22 01bd 1942 263e 650a 383f
000003a0: 5ac6 cb3d a69f 123f 633d 0fbe 69a1 c6be
000003b0: 9806 433f ae6c b6be f7ba 063f fe59 283f
000003c0: 7841 be3e 8339 0f3f fcb5 8e3c 13e2 133f
000003d0: ceac 513f c895 f63e 8ad9 8f3e 21cf 133e
000003e0: a9a0 dbbe 08fc b13e 59e8 90bd 1475 f23e
000003f0: 14b7 973e 2f0a 3d3d 4b74 8cbd 0919 a0be
0.21453838 0.37962252 -0.438151 0.22259574 0.15325421 0.13030407 0.07325897 0.0164955
-0.30032995 -0.1184731 0.056362234 -0.038630374 -0.37011933 -0.326584 -0.19406663 -0.027817827
0.22098257 0.27096984 -0.8528252 -0.008229137 0.29491118 0.46590695 -0.45978624 0.50227135
0.03482657 -0.23724714 0.2731689 -0.036082268 0.10943233 0.46635258 -0.019497653 -0.32099676
0.22622964 -0.43811136 0.47571427 -0.10297119 -0.38525987 -0.003358864 0.35899627 -0.58900887
-0.2631677 -1.5680542 0.10956942 0.522533 -0.19254959 0.15800172 -0.34893012 -0.10616018
-0.5908642 -0.30843416 0.3875615 -0.027744094 0.24649653 -0.0705013 0.2832583 0.21743038
-0.31062618 -0.24215466 -0.5207553 0.06801031 0.21566693 0.043279033 -0.9106154 0.109561846
0.25445917 0.038011715 -0.11141515 0.5928349 -0.45185012 0.49050784 0.39189696 -0.3607737
-0.75552624 -0.3315962 -0.14797585 0.105301484 0.14301407 -0.28396842 -0.0030928683 -0.12201061
-0.06488814 0.014533114 0.09666978 -0.21782178 -0.13293204 -0.2312318 -0.22395615 -0.73917025
-0.67065215 -0.22372904 -0.16242072 0.055179887 0.16748859 -0.40254903 -0.2972586 -0.190043
0.050419934 -0.44443652 -0.316024 -0.6681989 -0.31607574 0.70331067 0.41259283 0.32170385
-0.112533055 -0.15786114 -0.6209136 0.17860734 0.04972164 -0.62374496 -0.24322425 0.77086914
0.116868585 -0.10853811 -0.21382529 -0.3882704 -0.3541697 0.10370422 -0.056962423 0.11611697
0.20961474 -0.33785018 0.04946838 -1.060102 -0.14153287 -0.18005924 0.06520304 0.27629042
-0.039674345 0.6871222 0.22069499 -0.0484209 -0.84602946 -0.31488314 0.070730194 -0.0031925207
-0.0005381142 0.36565816 -0.05225112 -0.15656132 -0.26193976 0.12097909 0.14905772 -0.514937
-0.104296826 0.6275732 0.37032542 0.45915776 -0.15785372 0.1125759 -0.0106933825 -0.49636853
-0.37135163 0.009742321 0.47179273 0.36116773 0.19247302 -0.22541118 -0.035873245 -0.18815286
0.6802362 -0.12747578 0.22665383 0.18396482 -0.27399772 -0.4230024 -0.37964267 0.1659733
-0.39342868 -0.082529426 0.25256988 -0.3189941 0.35970712 0.29525733 -0.092701 -0.110133596
-0.45217755 0.3017957 -0.030317076 -0.7735943 0.56528765 -0.39092794 0.5917216 0.3598615
0.29056707 0.2448972 0.6312417 -0.05440719 -0.1450982 0.33615074 -0.43806988 0.34773794
-0.073363476 0.48361063 -0.14059846 0.26816428 0.23835741 0.45034996 0.067771085 -0.029112471
-0.14854378 -0.13490474 -0.43658137 0.21485054 -0.81826586 -0.024101483 0.5822978 -0.006311176
0.048937663 -0.0051671937 -0.12792791 0.07893416 0.052545045 0.00031804264 -0.34279025 -0.09015376
0.028513929 -0.11793602 -0.06856324 1.055215 0.20851387 -0.19196013 -0.35732698 0.25233355
0.56903416 0.3794837 0.8703001 -0.021041093 -0.5603127 -0.031527206 0.16236152 0.7189086
0.09949942 0.57274854 -0.13988261 -0.3879502 0.76181936 -0.3562979 0.52629036 0.6576232
0.37159324 0.5594713 0.017420761 0.57766837 0.81904304 0.4816115 0.28095657 0.14434482
-0.4289601 0.34762597 -0.07075567 0.4735495 0.29631865 0.04615229 -0.068581186 -0.312691
