torch-rl/storage/bak/Lstm-Customs-SimpleCorridor18x18-v0_30M/status.pt (torch, 649941 bytes, 51 tensors)

image_conv.0.weight f4 [16, 3, 2, 2]
00000000: 9a7e 003f a3ab 7ebf c85a a53d 3ade 31bf
00000010: bc92 2bbf 9e15 b7bd 354a 82bf a8ae babe
00000020: 2360 243d 94c7 10bd 45fa a33d 7e52 693c
00000030: a1f3 14be e028 97be 1fd7 17be 9896 53bd
00000040: 1bdf c8bd 351a 5d3c f665 f63d 83e0 dbbc
00000050: 472b dcbd 7288 32be e430 46bd f102 ffbd
00000060: ad64 1fbd 424e 15be 6cc2 aabd bc5b 8bbd
00000070: 5a84 afbe 72f0 6fbd e823 4cbe bf35 393d
00000080: aa1d 433e ecaa 86be f487 8cbe 3894 0ebe
00000090: a5ff 7e39 1d58 bcbe 219e ecbd 4e26 1abf
000000a0: ae02 f03e acd5 52bf 3ae0 b43e 4d2e 1dbf
000000b0: 9fba 1bbe cbf1 173e 86e9 1cbe 6de0 ad3d
000000c0: 8b9d 8cbe ae96 ccbe e1be cbbe 05e3 dcbe
000000d0: 5c4a 6b3e d567 41be 68cd 743e 95bc 87bd
000000e0: a175 5dbc 6b4f 45be e102 343e 357c b73d
000000f0: 605e e2be 191b b8bd 161b 4f3d 0f74 29be
00000100: b117 b3be ad05 37be c6ec 213e c1b5 ffbe
00000110: ba56 60be 49c4 51be 3fcf 203e 19a2 8abd
00000120: bbe5 c1be dabc 47be 51ed 7bbe a49a 0a3e
00000130: 8161 00bf 1147 023d fcd9 17bf dda0 823e
00000140: 77d8 4fbe 0e09 5fbe c3d0 8f3c e17d 49bd
00000150: 9f1c 1b3f 1b33 0fbf 7dc0 2cbf 1cee 133f
00000160: 22e2 47be 776a 573e 5d94 803e e95e ffbd
00000170: 798b 6d3d 7e01 8e3d 7cec 45be 6e41 0cbe
00000180: e73d 5abe 7621 f03d b0ba 9ebe 6e30 bbbe
00000190: d018 863d 748a efbd f921 c53d 8bc1 0dbe
000001a0: 8214 3fbe ca63 7bbe 87df 8d3e 9bf7 763c
000001b0: 48bd 10be 93c3 2dbe 0c11 5cbe af14 64bd
000001c0: aa67 6f3e 0fb2 c4be 01c8 eebe ce4d e2be
000001d0: 3b25 563e e2a3 373e 08ef 55be 7edd 54be
000001e0: 1c12 bc3d 00e5 1cbf d85a 2b3f 7ada 7dbf
000001f0: bc56 89bd 45df d3bd fb58 c4be cd79 fdbd
00000200: 6b51 2a3e 2237 893e c594 37be 694c 803d
00000210: d957 febe 4117 87be 9ed2 d3be c13b 953e
00000220: a2d4 dfbd 9bd2 73be 8660 4fbf 3902 c3be
00000230: 9873 07be ebaf 09bd d330 35be 8d4b d83d
00000240: 910f ccbd 9707 97be 5774 ca3d dcc4 1fbe
00000250: 33db 9f3d 6c6b 3bbb ce41 40be 1afd 323d
00000260: 36b2 08bd f17d 22bc ce81 8bbe 4e41 3ebe
00000270: 66c6 c0be d2e2 b0be 6021 183e 001b 98be
00000280: a04f 8ebe 2c8e ac3d ca3d 0bbe ac03 31bb
00000290: 6cf7 18be b62e 803d aa3a d7bd 45d4 84bd
000002a0: 4746 c8be 72f8 78be 9004 a8be a42e 83bd
000002b0: 9893 c03b 63cb 2c3d b169 473d fad5 983d
000002c0: 8b9d 493e e29b 163c f07e 4cbe 5104 673e
000002d0: 3629 b4be ba5c 17be 3fa5 8ebe 2dfb a9be
000002e0: 4814 e5be 93e5 003e 4b32 efbe d8ea e7be
000002f0: fa99 20bc 59d6 1fbe 688a d33d 1292 e3bd
0.5019318 -0.99480647 0.08073956 -0.69479716 -0.67020774 -0.0893967 -1.0178896 -0.36461377
0.040130746 -0.035346583 0.080067195 0.014240859 -0.14546062 -0.29523373 -0.14828156 -0.05165729
-0.09808179 0.013495018 0.12031166 -0.026840454 -0.10750442 -0.17434862 -0.04838647 -0.12451733
-0.03891437 -0.14580634 -0.08337864 -0.06804606 -0.34280664 -0.058578916 -0.19935572 0.045217272
0.19054285 -0.26302278 -0.27447474 -0.13923728 0.00024318563 -0.36785975 -0.11553598 -0.602147
0.46877044 -0.8235729 0.3532732 -0.61398774 -0.15207909 0.1483833 -0.15323457 0.084900714
-0.27463946 -0.3995871 -0.39794067 -0.43141952 0.22977585 -0.18887265 0.23906481 -0.06627766
-0.013516814 -0.19268577 0.17579223 0.089592375 -0.44212627 -0.089895435 0.05056294 -0.16548179
-0.34979013 -0.17873259 0.15812978 -0.49943355 -0.21908084 -0.20485033 0.15704058 -0.06769199
-0.37870583 -0.19505635 -0.24602248 0.13535553 -0.5014878 0.031806055 -0.5931699 0.25513354
-0.20297419 -0.21780798 0.0175556 -0.049192313 0.6059055 -0.55937356 -0.67481214 0.577852
-0.19519857 0.21036707 0.25113192 -0.124692746 0.05799434 0.06933878 -0.19328493 -0.13696834
-0.21312676 0.11725132 -0.31001806 -0.36560386 0.06547701 -0.1169633 0.096256204 -0.13843362
-0.18660167 -0.24549785 0.277096 0.015073682 -0.14134705 -0.16969137 -0.21490878 -0.055683788
0.23379388 -0.38417098 -0.46636966 -0.44199985 0.2091264 0.1793361 -0.20891964 -0.20787618
0.091831416 -0.61286926 0.6693549 -0.99161494 -0.067059964 -0.1034532 -0.38349137 -0.12376747
0.16632621 0.26799875 -0.17927845 0.06264574 -0.49676397 -0.2638493 -0.41371626 0.2914715
-0.10929228 -0.23810808 -0.8100666 -0.38087633 -0.1322769 -0.033615034 -0.17694406 0.10561285
-0.099639066 -0.29497978 0.09885471 -0.1560244 0.07805481 -0.0028597964 -0.18775102 0.043698408
-0.03337308 -0.009917722 -0.2724747 -0.185796 -0.37651366 -0.3454805 0.14856482 -0.297081
-0.27795124 0.08425555 -0.1359779 -0.0027010245 -0.14938134 0.062589094 -0.10509236 -0.064858
-0.39116117 -0.24313524 -0.3281598 -0.0640538 0.0058769695 0.042186152 0.04868478 0.07462688
0.19689004 0.009192439 -0.19970298 0.2256024 -0.3518769 -0.14781466 -0.27860448 -0.33199444
-0.44742036 0.12587576 -0.46718058 -0.4529636 -0.009802336 -0.15609111 0.10329133 -0.11111845

image_conv.0.bias f4 [16]
00000000: f281 40be 8acc fdbd d91c d3bd a8a7 4ebf
00000010: a9de 3ebe 35b8 66be 77dd 6f3e f76d 91bf
00000020: bce8 87be 809a f4be dcdd ca3d ed1a 81bf
00000030: e7e7 04be 2777 2abe 6f95 81be a6e0 b1be
-0.1879957 -0.12392528 -0.10308237 -0.80724573 -0.18639626 -0.22531207 0.23424326 -1.1361684
-0.2654475 -0.47774124 0.099055976 -1.0086342 -0.12979089 -0.16647016 -0.2530932 -0.34741706

image_conv.3.weight f4 [32, 16, 2, 2]
00000000: 111e 413e 1431 1cbf dd4e aa3d 1ee3 85be
00000010: a233 4bbe dcb9 b43d 63db 94bc 5eb2 9c3d
00000020: 4939 d83d 6633 43bd d9f1 cfbd 0a46 4f3e
00000030: 82c9 63bf fee9 8f3f b1a9 82bf ae63 46bc
00000040: 411d 0abe 8dea fa3c f751 c4be 9305 b4b9
00000050: cb02 92bd efa1 db3e 6de9 1abe 0736 46bf
00000060: de6d 603f e729 a2be c275 37c0 b26b 95bf
00000070: 9f56 17bf 0f9e 64bf b98b 03bf c40a 8cbf
00000080: a295 1fbe 6160 f13d e196 88be c81f bcbe
00000090: 8810 a5be 4f1b c03e 2f4d ddbe 9740 2b3f
000000a0: 0717 fa3e cb41 2d3e 26ea ffbf 54ce aabf
000000b0: 1885 323e b5ca f13e 8f00 06be e93b 70be
000000c0: cb74 183e d218 9e3c 406b 913d 35e6 a23d
000000d0: 6a94 d13d 4b30 093e 7f85 29be 557d aa3e
000000e0: 8988 cdbc 97b3 69bb 6d73 6dbc d04e 8abd
000000f0: 64f5 543f 0d0e d5bd 602b e53e 676b e6be
00000100: 642a 0cbf 61c4 b83e d3c5 ebbd 2c51 2e3f
00000110: 5289 09be 8923 5fbd 08c1 e8bd e397 60bd
00000120: b6fb 273e 2c25 41be 87bc 4d3e 45fc 7bbd
00000130: d0fe 55be 55ca a9bf 874b 22bf 8a35 98be
00000140: b0d2 0dbf 0c24 98bd 56cd c4be 661f 89be
00000150: 2863 86bd b73f 53be 3bab 643e 0ed0 0cbf
00000160: 2981 91bf 419b c9bf 73fe 14bf 0b7a 3dbf
00000170: 2fc6 87be 9707 bebe 42ac 523f bc27 cdbe
00000180: 1f3a 96be 9e7f 1dbe bb6f e2bd 9592 a53d
00000190: f1f7 02be 5123 0c3f b72d 6ebd 6862 51be
000001a0: 68b5 173f 25f1 c2bf 0718 953e 52ba f1be
000001b0: 13dd 6fbd 21d7 e8be c9b9 3b3f 4f1b f5bd
000001c0: ec29 433e a642 a2bd 20f2 4f3d 234a 233e
000001d0: 3b8c c9bc e145 b0bc e38b 34bd e7a9 483e
000001e0: 6ce1 00be 0ee3 a8bd 184f 2d3d 68a8 38bc
000001f0: f808 ac3e b819 afbe 0aad 1f3f ef62 8cbe
00000200: 8310 b7bc 405c 3fba cb0c adbe df81 fbbe
00000210: 248c 99bd f54f 8bbd 28da 14be 401c 0f3e
00000220: 0e1b ee3d 3068 423d 87f0 edbb cb4b 963d
00000230: c5df cd3e 90d0 433f 0305 993f 28fc 423d
00000240: a888 dabd e04c 9a3d 83a1 893e 421a 783e
00000250: 81ee efbd 15ce 38bf cb95 813e ce42 743e
00000260: 9327 b3bb 85f1 083f 3fa3 fd3b 6c08 bdbe
00000270: 1b7d ab3d 1b31 84bf e980 1dbe bd58 dd3e
00000280: 5ef5 d2bd 219d 613e 4e5b 80be 4107 453d
00000290: b009 1a3e a6d3 d43e 0297 5c3e 54bd 40bd
000002a0: 2ca5 1abf 638a 4bbd 58fc 17bf 612e b4bd
000002b0: 468f 10bc a7f9 0cbf d1e9 cbbd 2a54 c2be
000002c0: eabe b6bc 2793 bd3d 42b0 b23c e8af 273e
000002d0: 6bb4 1d3e bf3f a23c 8924 0e3e d803 223e
000002e0: d5c8 3a3d 3058 a5bd dc3f 823d 1e2b 4dbd
000002f0: d02f 03be d950 00bd 999d 8abf 67f6 41be
00000300: eed4 babe 5d03 04bf fdf5 77be 1c4d 38bf
00000310: 7508 34bd df3c ffbd 20cc 96bd d4cc d6bd
00000320: cd67 a13c bed4 6bbd 5cdc 87bd 71e2 2f3d
00000330: 6a88 a7bf af23 d3bd 8e49 c63f 4ada bfbd
00000340: 18e1 9cbe f705 cf3d 3508 6ebe 6db4 f5b9
00000350: 8ad2 99bd e302 223e 6589 913d f759 18be
00000360: 41ec 4e3d 9fc7 693f 9f09 34bf f3b5 35be
00000370: 94bf 2bbf 8f2e 0e3e 2a38 a53e e8a3 22bf
00000380: 8928 e0bc bf27 0cbd 7bd4 863c 9eaf 04be
00000390: 7d10 7c3e d904 52bf 0897 7bbe 7831 813d
000003a0: 5f98 9dbc fcf9 913e 6097 ca3c 3f3e 843e
000003b0: cf66 df3d a87a 9a3e 32c3 8b3e 8afd af3c
000003c0: 64c2 e6bd 0ac3 25be 545d 4bbb af19 1c3d
000003d0: 5eb7 eb3d 7a25 1dbd aa7b e63d 3659 783d
000003e0: 3ae0 e9bd dc8c ddbd 470b e53c aa55 9ebd
000003f0: 4075 873c c1b6 7ebe e49b 9dbc 6f6a 9a3e
0.18859126 -0.6101239 0.08315823 -0.2614984 -0.19843915 0.08824512 -0.018171018 0.07651208
0.10557801 -0.04765644 -0.10153551 0.20241562 -0.8897935 1.1243284 -1.0208036 -0.012108726
-0.13487722 0.03062942 -0.38343784 -0.00034336429 -0.07129439 0.42896983 -0.15128107 -0.7742619
0.87667644 -0.31672594 -2.8665624 -1.1673491 -0.5911655 -0.8930368 -0.51385075 -1.0940785
-0.15584424 0.11785961 -0.2667761 -0.36742997 -0.32239175 0.37520835 -0.4322295 0.6689543
0.48845693 0.1691963 -1.9993331 -1.3344216 0.17433584 0.47224966 -0.1308615 -0.23460354
0.14888303 0.019298945 0.071005344 0.07954065 0.10233386 0.13397329 -0.16554831 0.33298746
-0.02508952 -0.0035660022 -0.014492852 -0.067533135 0.83186936 -0.104030706 0.44759655 -0.45003816
-0.5475218 0.36087325 -0.11512341 0.6809261 -0.1343129 -0.05447725 -0.11364943 -0.05483235
0.16404614 -0.18861836 0.20091449 -0.06151988 -0.20897985 -1.3264872 -0.63396496 -0.29728347
-0.5539961 -0.074287504 -0.3843791 -0.26781768 -0.06561881 -0.20629774 0.22330944 -0.55004966
-1.1367542 -1.5750505 -0.5820076 -0.7401435 -0.2651839 -0.37115166 0.82294095 -0.40069377
-0.29341218 -0.15380713 -0.11056467 0.08084599 -0.12789895 0.5474139 -0.058149066 -0.20447695
0.5926118 -1.5229841 0.29119894 -0.47212464 -0.058560442 -0.4547663 0.7333036 -0.11968099
0.1905896 -0.079228684 0.050768018 0.1594625 -0.024603 -0.021517696 -0.04407872 0.19596063
-0.12585992 -0.08246432 0.042311758 -0.01127062 0.33600593 -0.3419931 0.6237341 -0.2741923
-0.02234674 -0.0007299818 -0.33798823 -0.4912252 -0.07497433 -0.0680236 -0.14536345 0.1397562
0.11626254 0.047462642 -0.007261339 0.07338675 0.40209785 0.76490116 1.1954654 0.047603756
-0.10670596 0.07534194 0.26881036 0.24228767 -0.11715413 -0.72189456 0.25309595 0.23853609
-0.005467364 0.5349353 0.0077404077 -0.36920488 0.08373471 -1.0327486 -0.15381207 0.43231764
-0.10300706 0.22032596 -0.2506966 0.04810262 0.15042758 0.41567725 0.2154198 -0.047055557
-0.6040828 -0.049692523 -0.5936942 -0.087979086 -0.008823222 -0.5506844 -0.09956706 -0.37954837
-0.022307832 0.09256583 0.021812562 0.16375697 0.15400855 0.019805787 0.13881125 0.15821779
0.045601685 -0.08073461 0.063598365 -0.050089948 -0.12811208 -0.031327102 -1.0829345 -0.18941651
-0.36490577 -0.5156763 -0.24214931 -0.7199266 -0.043953378 -0.12462782 -0.073631525 -0.104882866
0.019702816 -0.057575934 -0.06633827 0.04294056 -1.3088505 -0.103095405 1.5491197 -0.09367807
-0.30640483 0.101085596 -0.23245318 -0.0004686447 -0.0751086 0.15821414 0.07106284 -0.14878069
0.050518278 0.9132022 -0.7032718 -0.1774519 -0.670892 0.13884948 0.32269412 -0.6353135
-0.027363079 -0.034217592 0.01645874 -0.12957618 0.24615665 -0.82038647 -0.24569333 0.063082635
-0.019237695 0.28511035 0.024730384 0.2582874 0.10908281 0.30171704 0.2729736 0.021483202
-0.11267546 -0.16187683 -0.003103097 0.03811043 0.11509584 -0.03836582 0.11254056 0.060631953
-0.11419721 -0.108178824 0.027959479 -0.07731183 0.016535401 -0.24874403 -0.019239374 0.30159327

image_conv.3.bias f4 [32]
00000000: 28ca e3bc 931b 55be 5e3a 88bd e189 13be
00000010: 0f1c e0be 6875 a5bf c6fa 1ebf 88ae a1be
00000020: 5f55 2cbe fba9 dfbd 20e9 72bf f505 763e
00000030: 846e 78be 5105 5cbe 2e03 35bd 18c4 68be
00000040: d369 e6be e492 b63e 3e72 e4be 9337 84bf
00000050: 009b 81be a4db 863e 9bcd 3ebe eeae 22bf
00000060: c4f5 19be 05c5 afbe 7c63 8abe 929c 3abf
00000070: c7a8 42be b469 4bbf e5c6 21be 9887 bcbe
-0.027806357 -0.208113 -0.06651758 -0.14408065 -0.43771407 -1.2926455 -0.621014 -0.3157847
-0.16829441 -0.10921093 -0.9488697 0.2402571 -0.24260908 -0.21486403 -0.044192486 -0.22731054
-0.45002612 0.35658944 -0.4461841 -1.032946 -0.25313568 0.26339447 -0.1863312 -0.6354817
-0.15035158 -0.3433 -0.27029026 -0.7289516 -0.19009696 -0.79458165 -0.15798528 -0.368222

image_conv.5.weight f4 [64, 32, 2, 2]
00000000: e1e7 d5bf 58e8 c03e e6a4 73bf 98f2 03bf
00000010: ee64 15bf cb52 4b3f e355 46be c78f 0cbf
00000020: 07e3 e3be e663 f0bc dff1 93bd cbd6 3b3f
00000030: 9a0a 26be d145 65be 7fe2 78bf 588d 313f
00000040: 77fb 103f f60a 3e3e 833e d23e 52c0 7c3e
00000050: 8af3 37bd 3ec1 7fbe fa32 3d3e f095 8ebe
00000060: e5b7 43be d554 06bf ee72 4b3d 3e34 a73e
00000070: 37ca 66bf eeac 9cbe 2bfb d2be 90a6 a33e
00000080: 18bc c43e 542e ae3f 55c8 47bf 1cf9 e0be
00000090: fc0e 86bc e2c9 72bd 24bf 763c 8bba 4ebd
000000a0: 020f 1ebf cabd 94be c438 bcbf 325f edbf
000000b0: 0cbe f2bd 4ea2 8ebf 5299 b5bf a09a 59be
000000c0: b8e6 aabf 3800 a93f c9b0 97bf 1277 43bf
000000d0: ace2 d73c 7caa 383c 9ce6 a5bc c9b0 c33c
000000e0: 743e 043e c4c0 f1be 4b5b 453d 07bc 043e
000000f0: ef27 7cbd 7463 403f 0c7b 42bf b027 4f3e
00000100: 9d56 1a3e 5cf0 253f 6f32 ec3d c660 92bf
00000110: 46fd 663e 9921 65bf 23d2 fa3e af32 a93d
00000120: 0b85 af3f 0662 23bf 568a 233f 4e34 89bf
00000130: 7ae1 043f ff90 c53e 04d4 9f3e 0197 08be
00000140: f2c4 3cbf 036d 793e 7314 e63e 7d14 0f3b
00000150: d4c5 9e3e f237 3bbf 88be 003f d43e 0fbf
00000160: 92ee bf3e 59c0 33bd a3c0 c7be 1f38 f13e
00000170: d473 3b3e 874d 90be fd17 7c3b c308 143e
00000180: 9802 623d 2e27 cebd de08 703d 264a 78bd
00000190: 28e7 073f 957b 413f e881 87be 0068 973e
000001a0: 6224 89bc 501a 3abd db5e 0a3e 88d3 a2bd
000001b0: 7e82 bebd 7128 c73e 2d62 0cc0 e572 433f
000001c0: c033 88bc f9cc 433d 4e56 7b3d 750c 703d
000001d0: 08e4 96bd 77a9 eebe fdce 55bf a62e 5f3d
000001e0: 4575 55be 11de aebe 2fed 2bbe fe6c 87be
000001f0: 120a b3bf 3d77 26bf 63fd ff3e 39e6 e43e
00000200: 5647 783e c2ae 0cbf 68d5 2abf 4ab1 d2bd
00000210: b3b2 8d3e 6c1b 2dbf 958c 55be d4c4 083f
00000220: 1280 eebe 031b 0dbf 452a 32bf 00c9 003d
00000230: dcc1 a0be cea1 28bd 6e5f 313e 20c5 e1bd
00000240: acb7 06be 5f3a 87bd b3c8 583e d8a4 2d3f
00000250: 7662 473e a4f7 9fbe f4e0 0a3f c373 9cbe
00000260: ee10 993e cb11 793d e40c febe 5f93 8f3f
00000270: 7681 a13f cc40 99be ec7f c4bd 6e94 903e
00000280: 5a39 a6be ba11 863e 7231 1ebf 18e6 503f
00000290: f17c a2bd 1fd6 da3c 834b 80bd ea71 b13d
000002a0: 86f8 37bf 4fb7 0abf 6ba9 58be 08f9 c93e
000002b0: 653e 603f 4d99 543e 31aa 4cbe cfe4 703e
000002c0: 6467 1c3f b333 d5be 8b13 f73e 5e06 2d3e
000002d0: f411 00bd c849 273d aefb f2bd 43e5 b1bd
000002e0: 6d0a 1c3f 1f3d 31be 4c1a 39be 0048 c83e
000002f0: 2e09 3abc c957 8e3d 6b03 7dbe 6af0 683f
00000300: 7b2b f73e 7715 c23d 2983 143f de53 7d3f
00000310: 6fdd 00be 7ac4 a5be cf07 6dbe 5836 c6be
00000320: 57ff 403e 30a1 7abe 7e6e 2fbf 4b4f 513f
00000330: 8ff9 963e 87f7 81bf 3722 b5be d69e b13d
00000340: 93d0 6c3f 536e 57bf 729a fabb 4da9 a53e
00000350: 473f 09bf 410f 69bf 5988 a4be 84ff 1fbf
00000360: be4f 193f 18ca 4b3d 04fd 91bd 0eb6 73be
00000370: 7365 003e 58ec 13bd 467d 15be 44a0 cdbe
00000380: 9f61 a9bd 2d4e 623d 2671 96bd 1519 96bd
00000390: 3e0a 9a3f 76f8 25bf b63e fa3c 4d22 2abf
000003a0: 9d47 56bd ef67 3dbc 1f12 82bd 3458 45bc
000003b0: f7b9 21bc 81dc bf3d 2d1d 0f3e 911c 37be
000003c0: 2b87 67bd 657e 743c d77d 143c fd3f 36bd
000003d0: ee9f 7dbe d154 393e 9388 783d 6829 d5be
000003e0: 36dd 643e 036e 53be a3e4 d03c 54af 9bbe
000003f0: cb4c 063f 15c5 62bf 7ba0 d5bd 1ffe 6ebe
-1.6711389 0.37677264 -0.9517349 -0.51542044 -0.5835713 0.7942321 -0.193687 -0.54906887
-0.44509146 -0.02934451 -0.072238676 0.73374623 -0.16214982 -0.22389914 -0.97220606 0.693563
0.56633705 0.18558869 0.41063318 0.2468274 -0.04490999 -0.2497606 0.18476477 -0.27848768
-0.19113119 -0.52473193 0.049670152 0.32657045 -0.90152305 -0.30600685 -0.4120725 0.31963015
0.38424754 1.3607888 -0.7804006 -0.43940055 -0.016364567 -0.05927456 0.01506022 -0.05047087
-0.6174165 -0.29051048 -1.4704823 -1.8544676 -0.11852655 -1.1143281 -1.4187415 -0.21250391
-1.335166 1.3203192 -1.1850826 -0.7635356 0.026353203 0.011271115 -0.020251565 0.023888009
0.12914449 -0.4721738 0.048182767 0.12962352 -0.06156152 0.75151753 -0.75969005 0.20229983
0.15072103 0.64819884 0.11533057 -1.1435783 0.22557554 -0.8950439 0.48988447 0.0826162
1.3712476 -0.63821447 0.6388296 -1.0719087 0.5190655 0.38587186 0.31216443 -0.13338853
-0.73738015 0.24357991 0.44937477 0.002183228 0.31010306 -0.7313224 0.5029073 -0.55955243
0.37486702 -0.04388461 -0.39014158 0.4711313 0.18305904 -0.2818415 0.0038466447 0.14456467
0.055178255 -0.10066067 0.058602206 -0.06061759 0.5308709 0.75579196 -0.26466298 0.29571533
-0.016740981 -0.04543525 0.13512747 -0.07950503 -0.09302233 0.38898042 -2.1934922 0.7634719
-0.016626239 0.0478029 0.061361603 0.05860563 -0.07367712 -0.46613666 -0.83518964 0.054487847
-0.20845516 -0.34153798 -0.16789697 -0.26450342 -1.3987448 -0.65025693 0.49998006 0.44706896
0.24245963 -0.5495416 -0.6673188 -0.102877215 0.276754 -0.6761997 -0.20854409 0.53425336
-0.46582085 -0.5511934 -0.6959575 0.03144169 -0.31397903 -0.041169934 0.1732156 -0.11023927
-0.13156003 -0.0660293 0.2117031 0.67829657 0.19471154 -0.31243622 0.542495 -0.3055707
0.2989573 0.060807984 -0.4961921 1.1216849 1.2617633 -0.2993225 -0.09594712 0.28238243
-0.3246563 0.261854 -0.617942 0.81601095 -0.07933987 0.026713429 -0.06264403 0.086643055
-0.7186359 -0.54185957 -0.21158378 0.39447808 0.87595206 0.20761605 -0.19986798 0.23524784
0.6109526 -0.41641006 0.48257098 0.1689696 -0.03126712 0.040841848 -0.1186441 -0.08686306
0.6095341 -0.17308472 -0.18076438 0.39117432 -0.011354728 0.069503374 -0.24708335 0.9099184
0.4827536 0.0947675 0.58012635 0.98956096 -0.1258447 -0.32376462 -0.2314751 -0.38713336
0.18847404 -0.2447555 -0.6852797 0.81761616 0.29487273 -1.0153664 -0.35377666 0.08672874
0.9250576 -0.84152716 -0.007647806 0.3235573 -0.5361218 -0.910389 -0.32135275 -0.6249926
0.598873 0.04975328 -0.07128337 -0.23799917 0.125387 -0.036114067 -0.1459857 -0.40161335
-0.08270573 0.055250335 -0.073458 -0.07329003 1.2034376 -0.64832246 0.030547481 -0.6645859
-0.05231439 -0.011560424 -0.063511126 -0.012044955 -0.009870998 0.0936823 0.13975973 -0.17881991
-0.05652539 0.014922713 0.009063206 -0.044494618 -0.2476804 0.18098761 0.060677122 -0.41633153
0.2235001 -0.20647435 0.025499647 -0.30407202 0.52460927 -0.88581973 -0.10431 -0.23339127

image_conv.5.bias f4 [64]
00000000: f815 a63c 101d 733c df1c 53be 7b7c 803e
00000010: efd6 2abf 1051 9d3f 6015 813f cd96 f1bd
00000020: 5abf eb3e 9e05 39be a98b e2be 3414 89bb
00000030: 65b4 acbe 7cc8 f23d ffae f83d 5ee1 d8bd
00000040: d34d 3bbe 66e7 0cbe 4371 99be cf66 e93d
00000050: 7fb6 3c3e 428e e0be 10d3 5dbe cb68 1b3f
00000060: 90e8 3b3e 82a9 d33d 7e9b f1bc 35d6 853f
00000070: c0dd 8fbe 5b47 ecbc 3f48 99be b13e 1cbe
00000080: 3d5b 60be 978b 4bbe 7506 cbbe c9fa 07bf
00000090: d5d8 103f 3cf5 56be 17d1 69be 5f6b 8abd
000000a0: 7200 743e eabc 18bf 2bce e3be 006b 3fbe
000000b0: dc34 99bd 03df a03e df05 07be 816d 2abe
000000c0: 922d b03e 1eed f0be 1e15 ddbc 5782 09be
000000d0: 0aac c3be 0889 de3e b2aa 0ebf 6915 c2be
000000e0: 00cc 29be 0fe9 5dbe 8919 d2bd 8002 8fbe
000000f0: c224 083d d147 ae3d b48f febe 1bb8 1dbf
0.020274147 0.014838472 -0.20616482 0.2509497 -0.6673421 1.2290363 1.0084648 -0.11796341
0.46044427 -0.18068549 -0.44247177 -0.0041833166 -0.3373138 0.118546456 0.12142753 -0.105898604
-0.18291406 -0.13760146 -0.29969224 0.11396562 0.18428992 -0.43858534 -0.21662545 0.60706776
0.18350434 0.103350654 -0.02949309 1.0455996 -0.2809887 -0.028842619 -0.29937932 -0.1525829
-0.21909805 -0.19877468 -0.39653364 -0.5311704 0.5658086 -0.20991987 -0.22833668 -0.06758761
0.23828295 -0.5966326 -0.4449323 -0.18693161 -0.07480785 0.31420144 -0.13185833 -0.16643335
0.34409767 -0.47055906 -0.026987609 -0.13428627 -0.38217193 0.43463922 -0.5572921 -0.3790696
-0.16581726 -0.21670936 -0.10258777 -0.27931595 0.03323818 0.08509792 -0.49719012 -0.6160905

memory_rnn.weight_ih f4 [256, 64]
00000000: 330b dbbe 40e7 1ebc b02e 2d3d 3b71 1c3e
00000010: 5bd8 643f 5d0f 573f 22b7 373d bde3 96bd
00000020: 3d74 243f f0f6 acbc dc7e b9be 733e 9abf
00000030: 51a1 3e3e 2a30 5ebd 003b fcbe ab65 ec3c
00000040: c994 2bbe 2c39 043d c525 c7bd 22e7 263f
00000050: f279 b73e a4fb dd3f 7a9e c43e b844 8e3e
00000060: 30c7 ddbd ede1 c93e 864b 9e3f 0563 9f3d
00000070: ca88 97be 6f6a cbbf 99b7 73bd ccf8 ffbc
00000080: 6029 31be 9623 7bbd c8bf 1cbf 124e 163f
00000090: 4183 5bbf ca50 52bd ef4d 8b3e b82b d23c
000000a0: 5947 6bbf 451d b53f a838 283b cc50 a3bd
000000b0: af15 0bbf 3199 b83d d39d 8f3e ae46 78be
000000c0: fe47 893e 017e 563f 3bf1 d53e 506d 08bd
000000d0: 292c 3c3e 7bb7 243f ca1e 153f 1da0 ecbd
000000e0: 85c9 8ebd 906f 883e b0db 97bd c026 053f
000000f0: 5b54 bc3f b2b1 9bbd 20a8 37bd 5d45 bdbd
00000100: a3f8 203e 444d 423f 9766 62be f3d0 57bf
00000110: eabe 40bf aa7e 963e 48d2 45bd d8c5 6dbc
00000120: f56e 503f 2c70 883d 2dc4 cc3e 5006 08bf
00000130: 2839 c23f 05c4 083e 8156 08bf 5d47 0a3d
00000140: 6d00 5bbd 39ea 07be fc7c fa3e 1fc6 54be
00000150: 8b11 463e d5e9 d33f bc38 d83d 7043 993d
00000160: 858c 893f e929 8e3e 9b0a f83e a4fc bbbf
00000170: 0eff c33d 7f0b 6e3e 6051 883f fca3 1abd
00000180: 1606 993e f6d0 16be c6e0 9f3f 96b2 893f
00000190: cff9 54bf 725c 27bd 7a49 f3bd 0b7d 093e
000001a0: ed6b 513e 3c5f a1be b0d3 c8be 3c20 1a3f
000001b0: b301 913e 946b f33d 0c0e 08be 634f 50bb
000001c0: 5f61 d7be de23 bc3f 2a00 ffbe 87c0 a4bd
000001d0: 3671 f1be 5880 b0be ba21 c0be 2083 fc3d
000001e0: 36a7 993d 7a2d 613f c11c 82be ea81 88be
000001f0: ad22 16bf 6a61 223e 9c07 1bbf 0289 06bf
00000200: d791 5dbd 0fe6 7fbf c53d a0bd 507f 953e
00000210: c229 3cbf 71ed 0cbf 093f a73e de04 c2bd
00000220: a70d 8fbf 2462 93bd c657 0040 5c36 47bf
00000230: 00b0 283f 7864 1b3d 5a45 ee3d 3f8e 07be
00000240: 0197 1a3e c278 e2bd b745 62bf 9481 a1bf
00000250: 231c febe 2174 853e 3cf9 afbf 09b3 69be
00000260: 1220 7abf fe81 333f d566 833f ea11 cfbd
00000270: 8ec1 fc3e d679 e03b 486a 03bf 68e3 0b3d
00000280: 11bd aabe 5cd6 713d ad7d 27bf 722c 873e
00000290: fa02 b93d 37a2 febb 8dec bebe 93b6 47bd
000002a0: 8666 9dbf 66da 8f3e b1df 5a3e c69c 5d3e
000002b0: 15a2 0dbe cabb 063e 8962 573f 18c9 493d
000002c0: 46de 87be a7f6 1e3f 06f8 04bf cfa4 12bd
000002d0: 67b1 1bbc 6e86 e2be 459e 9abf 2c43 a83f
000002e0: 640c 8bbc f5db c2be c53f 37bd ee8c 7e3e
000002f0: 06da b0bf aaa7 35be 7018 b7be c452 873f
00000300: 63e7 b5be 4905 8a3f c203 913d 1eb2 4e3f
00000310: a869 3fbe 4a24 803f 4fb8 d13f 2c14 553d
00000320: f766 103f df99 1d3c 20a9 4fbc 170e 78bc
00000330: 6ee6 1e3e ac28 20bd 0a41 463f 1cbf 58bd
00000340: 9803 ecbc 6755 9abd ee86 4a3d 6b95 e73f
00000350: 4229 113e 6fae 08bf 8e82 c6be 472e 293e
00000360: 89b5 883b 0810 113f d2c4 473f 2371 923f
00000370: bbe0 463b 725c 313f edc0 e83c 969d 04be
00000380: 01b3 89be ee05 85bd 4e10 d3bd 3c6b f23e
00000390: f102 c9bd ae16 b03d 918a 20be c277 833d
000003a0: f913 2bbf 0fdb c73e 2301 39bf 3694 10be
000003b0: ca4f 0bbf c7d5 a4be 3c5d 77be 2c8c 603c
000003c0: d8f9 863f 04e3 bc3f 2f6b d83e 087e f13c
000003d0: 1cca 04be 4e25 313f 437f 383e 4f4f 31bf
000003e0: 820b 363b 820e cabe a8fe 1f3d a46f b33e
000003f0: bd24 9e3c f598 443e 8c19 ef3c 2d86 123e
-0.42781982 -0.009698689 0.042280853 0.15277569 0.8939263 0.8400782 0.044852383 -0.073676564
0.64239866 -0.021113843 -0.362296 -1.2050308 0.18616225 -0.05424515 -0.49263763 0.028857073
-0.16755976 0.032281086 -0.09724001 0.6519643 0.35835224 1.734242 0.38402158 0.27786803
-0.108290076 0.3943018 1.2366798 0.07782558 -0.2959655 -1.5891856 -0.059501264 -0.031246565
-0.1730094 -0.061313234 -0.61230135 0.58712876 -0.8574715 -0.051346578 0.27207896 0.025655612
-0.9190574 1.4149557 0.0025668535 -0.07974395 -0.5432996 0.09013594 0.28050098 -0.24245712
0.26812738 0.83786017 0.41785607 -0.033307374 0.18376221 0.6434247 0.58250105 -0.11553977
-0.069720306 0.26647615 -0.07414949 0.5201225 1.4713243 -0.07602252 -0.04483807 -0.092417456
0.15719847 0.7589915 -0.22109447 -0.84303206 -0.7529131 0.29393512 -0.048296243 -0.014512502
0.81419307 0.0666202 0.3999342 -0.5313463 1.5173693 0.13356026 -0.53256994 0.033759464
-0.053467203 -0.13272943 0.4892348 -0.20778702 0.1934263 1.6555735 0.10557696 0.07483566
1.0746008 0.2776635 0.4844559 -1.4686475 0.09570132 0.23246573 1.0649834 -0.037754044
0.29887456 -0.1472815 1.249047 1.0757625 -0.8319368 -0.040859647 -0.11879249 0.13426606
0.20451327 -0.3151797 -0.39224005 0.60205436 0.2832161 0.11885753 -0.13286608 -0.00317856
-0.42066476 1.4698446 -0.49804813 -0.08044534 -0.47156686 -0.3447292 -0.3752573 0.123296976
0.07502596 0.87960017 -0.25412562 -0.26661617 -0.5864666 0.15857473 -0.60558486 -0.5255281
-0.05409416 -0.99960417 -0.078242816 0.29198694 -0.7350122 -0.55049807 0.3266528 -0.094735846
-1.1176041 -0.07196453 2.0053573 -0.7781732 0.65893555 0.03793761 0.116343215 -0.13237856
0.15096666 -0.11058189 -0.88387626 -1.2617669 -0.49630842 0.26065162 -1.3747935 -0.22822203
-0.97705185 0.7012023 1.0265757 -0.10110839 0.4936642 0.0068504615 -0.5133405 0.03415242
-0.3334737 0.05904232 -0.6542614 0.26401097 0.09033771 -0.0077708024 -0.3728985 -0.0487581
-1.2296913 0.28096312 0.21374394 0.21641836 -0.1383136 0.13157573 0.8413473 0.049264044
-0.2653677 0.6209511 -0.51940954 -0.035801705 -0.009502745 -0.44243187 -1.207955 1.3145499
-0.016973682 -0.3805844 -0.04473855 0.24858448 -1.3816535 -0.1773974 -0.35760832 1.0572133
-0.35528097 1.0782863 0.07080795 0.80740535 -0.18692648 1.0011075 1.6384372 0.05202119
0.5640711 0.009619205 -0.0126746 -0.015140078 0.1551759 -0.039101288 0.7744299 -0.05291663
-0.028810307 -0.075358205 0.049445085 1.8092474 0.14175895 -0.53391165 -0.3877148 0.1652156
0.0041720313 0.56665087 0.780347 1.1440777 0.0030346352 0.69281685 0.028412307 -0.1295074
-0.26894382 -0.064952716 -0.10305844 0.47347438 -0.09815014 0.08598076 -0.15677859 0.06419326
-0.6682735 0.39034316 -0.7226736 -0.14119038 -0.54418623 -0.3219435 -0.2415666 0.013705295
1.0544996 1.475678 0.42269275 0.029479042 -0.12967724 0.6919755 0.18017296 -0.6926164
0.0027777855 -0.39464194 0.03906122 0.35046113 0.019304628 0.19198973 0.029186986 0.14308996

memory_rnn.weight_hh f4 [256, 64]
00000000: b692 3e3d 274e 7e3f 8838 b23f ca5d a03f
00000010: 0da3 7fbf 3582 893f f834 203f acce 653e
00000020: 35d1 dabf d642 48bf 19d2 08bf 87b4 d93f
00000030: 697e aa3f b9d3 423e 83a6 053f 596b b9bf
00000040: 8f33 7bbe f504 923f ec85 033d c771 fc3c
00000050: 8a01 813e 79ff 973f 6037 4abf 6e36 b0be
00000060: 3ad9 2cbf 613f 3cbf 9654 f5be 402d 43bf
00000070: 6752 84be 957a b73f f416 093f d3f0 0e3f
00000080: a3e5 053d a913 f73e 2047 1d3f 1304 cd3d
00000090: e4ab 303f 402b b93e beb8 773f 9268 1ebd
000000a0: 714a 153f 278c eabf 61ab 96bc 7c4d b5be
000000b0: ec2d 3abf 66fc 0dbf 21be 123e 810b 38bf
000000c0: 7d06 7a3f 9892 7c3f c975 6bbc 7a11 90bf
000000d0: 55cb 1d3f 6404 453e 5759 9ebf 03f9 eebd
000000e0: 95e3 063f dbb2 dfbf 87b8 aa3f 5030 9f3f
000000f0: 9d52 a83f fe00 0b3f f631 60be 205f 863f
00000100: 2fbe 3e3f 0651 ad3f ffa0 b13f cf41 a33f
00000110: eaef 9c3e bc8f ccbf a9da 8a3f 7429 e0be
00000120: d0dd 77bf 9cc9 7bbe 15ae 0d3f a71e 53be
00000130: 2156 42be 090d af3f 10e2 4b3e 4eac f0bc
00000140: c3a8 e7bd 3d65 57be b41a 39bf 5c13 643e
00000150: b962 ea3c 4b9d c43e 3a66 403f 6be8 3a3b
00000160: ed3c c53f 09fd 813e 4aaf 793f 5d84 11be
00000170: 4101 563f cadf af3f e8e4 8f3f 4885 d73e
00000180: 4839 8a3f 1768 3d3f 402b 46be 540c 0840
00000190: 56b5 2a3f c1ff 5ebf 1770 6cbf 5989 34bf
000001a0: c83f a23f 8d08 4b3f c878 30bf 3d34 a2bd
000001b0: 8d97 bfbd 8e74 e7be cec1 e13d 792a 6bbf
000001c0: dfa7 43bf 3fb9 b4bf 2d2e a3be 2c20 c43f
000001d0: d05b c7bf 0f00 5a3f 1e79 1240 85b5 0fbf
000001e0: bb50 8abf 9a01 87be 99a6 10bf 3e3e 19bf
000001f0: daeb ae3d 0a03 8e3d 87b0 50bf 07dc ff3e
00000200: da9b 3dc0 9a4a 45bf 52fc 083f 1c9f dbbf
00000210: bfa6 9fbf f7bb 183e c55d b7bf 6499 1b3f
00000220: 903c b1be c038 573f 1c28 253f 978c b7bc
00000230: f023 0940 c13b 31bf e1eb b93b 4a27 b8be
00000240: 32fa 07be 7f18 66bf 8268 a7bf f28a 3b3f
00000250: a8c8 2dc0 7b5f 193f 49a5 c03e 9daf 9b3e
00000260: 0b5a 463f 8f94 04bf 8c11 1e3e 7695 f6be
00000270: 583e 91bf f9da bd3f 3ccb 3abf 088a 6a3f
00000280: 9fcd b9bf b505 b93f b4fc 3bbe fa57 fbbe
00000290: b8e1 ce3e 4a5c 9dbe 88f4 3bbf 40f7 5dbf
000002a0: 54dc 8b3f 61c0 e3bf cd7c 223f 45df e53f
000002b0: aca0 9fbf 5727 1dbe 26c3 5b3f 321a fa3f
000002c0: 9061 16bf 9d17 8e3f 5147 f63f 2ebc 58be
000002d0: 2ebf 19bd a26f dd3f c02b 08be 02e2 9a3e
000002e0: ddaf cb3f 9490 a83e 1ead af3e 7c80 613f
000002f0: 6376 cbbf 27fe 1940 6ce0 563f 6ae2 3b3e
00000300: cd04 bd3d d1f2 713e 4a80 16bf a6e7 0f40
00000310: 4d26 5b3f 3513 dabf 477c 563f 6e2a bf3f
00000320: 5904 b9bf 1980 f9be be20 be3e c3ad bc3f
00000330: f50d 9abf 26d8 45bd 5f8a 023e 873f a63f
00000340: 9783 a43e 0095 1c3f f9bf 5dbe 5d35 3abf
00000350: fc0b 183f ee69 f13c dfdb 2a3f 8f92 1b40
00000360: 872f 2e3f 49d2 99bf a549 a2bd 1c9a c5bf
00000370: 2a4a 39bd b827 8bbe 3fe5 923f 9528 943f
00000380: edde a7bf 2bf4 3840 2603 c33e 5c23 023f
00000390: 4d57 b63f e4bc 4bbf c9a7 19bf 92b8 2cc0
000003a0: 01cb 9fbe 441e ebbf a924 9bbe 6384 163f
000003b0: 94b3 1cbd bf2e 433f de21 2240 ae18 6f3f
000003c0: 13f4 53bf 23f6 683d ca39 4fbd 21d2 bd3f
000003d0: e872 c9bf abd1 8fbf 09bd 6c3f 6a62 39be
000003e0: 41e3 f83f 4ae9 c2bf f997 03c0 8e1d bd3c
000003f0: d449 11bb 8aac 5e3d 59ab c9be 5059 aabf
0.046526633 0.99338 1.3923502 1.2528622 -0.9985817 1.0742861 0.62580824 0.2244212
-1.7095095 -0.78226984 -0.53445584 1.7008218 1.3319827 0.19026078 0.522072 -1.4485885
-0.24531387 1.1407763 0.03211014 0.030815972 0.25196487 1.1874839 -0.78990746 -0.34416527
-0.6751896 -0.7353421 -0.47916096 -0.7624092 -0.25844118 1.4334284 0.5355065 0.5583622
0.0326897 0.48257187 0.61436653 0.10010543 0.69012284 0.3616581 0.9676627 -0.038673945
0.58316714 -1.8324021 -0.018392267 -0.35410678 -0.7272632 -0.55463254 0.14330341 -0.71892554
0.9766615 0.98661184 -0.014371344 -1.1255333 0.61638385 0.19239956 -1.2371014 -0.11668589
0.5269101 -1.7476457 1.3337563 1.2436619 1.3150212 0.5429839 -0.21894059 1.049778
0.7450895 1.3540351 1.3877257 1.2754458 0.3065179 -1.5981364 1.084798 -0.43781626
-0.96822834 -0.24588627 0.55343753 -0.20617162 -0.18978168 1.3675853 0.19910455 -0.029379036
-0.113114856 -0.21034713 -0.7230637 0.2227301 0.028611528 0.38401255 0.75155985 0.002851988
1.5409218 0.25388363 0.97533095 -0.14210649 0.83595663 1.374017 1.1241732 0.42093873
1.0798731 0.73986953 -0.19352436 2.1257524 0.66682947 -0.87109 -0.92358536 -0.70522076
1.2675714 0.7930992 -0.689343 -0.0792012 -0.09355078 -0.45206112 0.110232934 -0.91861683
-0.76428026 -1.4119033 -0.31871167 1.5322318 -1.5574894 0.8515634 2.2886424 -0.5613635
-1.0805887 -0.2636841 -0.5650421 -0.598606 0.08541079 0.069341734 -0.8151936 0.49972555
-2.9626374 -0.7706696 0.5351001 -1.7157931 -1.2472762 0.14915453 -1.4325491 0.6078093
-0.34616518 0.8407097 0.6451433 -0.022405906 2.1428185 -0.692318 0.005673871 -0.35967475
-0.13279036 -0.8988113 -1.3078768 0.7325889 -2.715372 0.59911317 0.37626103 0.3040742
0.77481145 -0.5178918 0.15436381 -0.48160905 -1.1347151 1.483245 -0.7296636 0.9161687
-1.4515876 1.4454867 -0.18358117 -0.49090558 0.40406585 -0.30734473 -0.7342 -0.867054
1.0926614 -1.7793084 0.6347168 1.7958761 -1.2470908 -0.15347038 0.8584465 1.9539244
-0.5874262 1.1100956 1.9240514 -0.21165535 -0.03753584 1.7299693 -0.1329794 0.30250555
1.5913044 0.32922804 0.34311765 0.88086677 -1.5895504 2.4061372 0.8393619 0.18348089
0.09229431 0.23627783 -0.58789504 2.2485137 0.8560532 -1.7037112 0.8378338 1.4934824
-1.4454452 -0.48730543 0.37134355 1.4740528 -1.2035509 -0.04830184 0.12748097 1.2988137
0.32131645 0.61164856 -0.21655263 -0.72737676 0.59393287 0.029469457 0.66741747 2.4308202
0.6804127 -1.2017299 -0.07924203 -1.5437655 -0.045236744 -0.2717874 1.147621 1.1574885
-1.3114907 2.8899028 0.3808834 0.50835204 1.4245392 -0.795851 -0.60021645 -2.6987653
-0.31209567 -1.8368611 -0.30301407 0.58795756 -0.038257197 0.76243204 2.533317 0.93397033
-0.827943 0.05687536 -0.05059222 1.4829751 -1.5738192 -1.123586 0.92475945 -0.18103948
1.9444352 -1.5227444 -2.0561507 0.023085382 -0.002216925 0.054363765 -0.3938854 -1.3308506

memory_rnn.bias_ih f4 [256]
00000000: 23b0 093f 9a84 383e 8192 a8be 4c87 93bd
00000010: d1d6 76bf 5308 1b3f 692e b73e cb9a ef3e
00000020: e699 263e 9c93 b3be ceb4 2a3f b6a8 643e
00000030: 43b9 14bf 6d9f 9dbe 9992 67bd f948 cf3d
00000040: cf59 873e 5ca0 2fbb 5b8f f1be 5f30 293e
00000050: e461 113f 6611 013f 57d3 83bc cf57 eebe
00000060: 96f5 ff3c 49e4 51bd 4014 e1be 4902 19bf
00000070: 9642 8d3e ffe6 b83e 9ee6 74be 51b5 00bf
00000080: ada5 673f 2354 14be 09b3 233f e169 0bbe
00000090: 9187 3cbf 394d b5bd 20e2 81bc 81c7 15bf
000000a0: 4249 c4be aa89 06c0 8cd4 c23e ff3e b1be
000000b0: 42d5 dc3e 6972 0f3e bcce 02bf e43e 2abf
000000c0: 9e09 1bbf 3bf1 993e 5595 243f 6f77 7b3e
000000d0: 03a3 133e 74c0 d4b9 8961 703f 0f35 213f
000000e0: 91a8 dfbe 1f7c cebe e962 cabe 0176 f33e
000000f0: 08dd c9be 8fa5 0cbe ef9f 793d b698 a83c
00000100: ea01 0ebf 66e2 f93e 8a2c 21be 69a1 edbd
00000110: 52aa 9fbe a093 9d3f de3c 803e de54 1b3f
00000120: ac6c 4dbf 2423 1a3e 0c12 fdbe fa65 0ebd
00000130: 30ae 2cbf e89d fabd c7a9 1ebe d16a 253f
00000140: 80bb ecbe 938d 03be 7078 283f 9de8 bebc
00000150: 3484 773e 45a0 f73d ed57 73be ad69 77bf
00000160: b6d1 70bf 2e26 27bf f2fb 1abd e848 8e3e
00000170: 8e49 dbbe 4e42 6fbf 4af1 84bd 88bb 29be
00000180: 074b ce3d 9a30 cabe 6065 d2be 391e 82be
00000190: c4c5 f3be 21fb f93e b333 d13e 9729 0b3d
000001a0: 3378 533e 7e2a 64bf b63c 41bf fd5f a13e
000001b0: a45f 50bd 4579 82bf a8a7 2ebe 133c a33e
000001c0: 44cc 283f 4834 5ebd 174e 1fbf c983 8dbe
000001d0: 24d8 ac3e 6e2e fb3e 86fe 9abc 1e7c da3e
000001e0: d29f b53e 3165 09be ed05 4cbe 57ca 3abf
000001f0: c1f2 82be 71a9 cfbb 1a5a a13d 5604 f9bc
00000200: cf59 923e c387 a43f aa40 a43e 7e82 0f3f
00000210: e75d 84be a284 8fbe c91b f23e 7870 933e
00000220: 9e78 da3e e754 583f 0fa4 91be 666b 1dbe
00000230: 2013 0bbd 351a 23be 6c3b 693e c01a d6be
00000240: 2a09 10be d1db 8ebe a698 8b3f 5084 8c3e
00000250: 1a4c e2be a142 553e 8790 c7bd 6263 20bd
00000260: 2a0c 01bf 4174 29be f29e 343f f3ca 40be
00000270: c3f6 01be 233e ab3d d99f bfbe 17db fe3d
00000280: c1e0 163f 887d eebe 1579 6a3f dc0d abbe
00000290: b12f 1cbf 1f34 dabe a66a 6bbf 8edf 2b3f
000002a0: 14d0 00bf 87da 3bbe ceae a3be 8db0 183e
000002b0: 3bbc fd3e deca a4be c284 46bf 7be5 8e3e
000002c0: 6adb b6bf 3832 4ebe e0ef 573e 622a f8bd
000002d0: 6ea4 7a3f 3098 9ebe db15 103f 0603 533f
000002e0: c597 5bbe 2a94 153f e2bd 8b3f a459 42be
000002f0: 3912 62be 6d6f 423f 7afa bfbe 234f 4f3e
00000300: 1c48 a2be 7ba9 b23e dad2 093f 7390 433f
00000310: f4ad f13d 5fa2 afbd 1025 c13e 2468 753f
00000320: 1ce5 bbbe 5e86 a3be 3cb1 9d3e 9b06 993c
00000330: 68cc 4bbf 4679 d93e 30ba 523f 2f97 e53c
00000340: 1fb0 9cbe 20bb d33e 850f 2b3e 23fb c03d
00000350: d0e7 aabe 7fcd a23e 3cd6 06be cf9f e93e
00000360: 0206 533f 1111 1e3f cddd 563f 00dd b43f
00000370: f6ce b13d f10d debb eaba 6ebe 096b 473f
00000380: 8c19 333f 3516 3f3f b21b c03f 57b8 053e
00000390: 366e e43d b3ca 9a3d 0b5c 383f 1f17 673f
000003a0: ece6 d23e a296 7a3e 0b14 e6be 8260 27bf
000003b0: 6367 703f 538e 503e b834 1b3f 9380 7f3f
000003c0: 3fbb 493f 3534 cf3e eb67 92be bfcd 4b3f
000003d0: 628d 2d3f a64b ae3d 7817 12be 5202 ea3e
000003e0: a308 1d3e 1247 2f3f 34c9 183f 8d52 0f3f
000003f0: 73ec 183e 3553 e5bd 9ed9 883d 6600 c4bd
0.5378439 0.18019333 -0.32924274 -0.0720354 -0.96421534 0.60559577 0.35777596 0.46797785
0.16269645 -0.35073555 0.66682136 0.22329983 -0.58095187 -0.30785695 -0.05653629 0.1012134
0.26435706 -0.0026798462 -0.47179684 0.16522358 0.56789994 0.5041717 -0.016091986 -0.46551368
0.031245034 -0.0512431 -0.43960762 -0.5976911 0.27589864 0.36113736 -0.23916098 -0.50276667
0.90487176 -0.1448522 0.6394506 -0.13614608 -0.7364436 -0.0885262 -0.015854895 -0.58507544
-0.3833714 -2.1021523 0.38052785 -0.34618375 0.43131453 0.14008488 -0.510967 -0.66502213
-0.6056155 0.30066857 0.6429036 0.24557279 0.14417653 -0.0004057918 0.93898827 0.62971586
-0.43683293 -0.40329072 -0.39528587 0.47550967 -0.39426446 -0.1373503 0.06094354 0.02058063
-0.5547167 0.4880554 -0.15739647 -0.11603052 -0.31184632 1.2310677 0.25046438 0.6067637
-0.80243945 0.15052468 -0.4942783 -0.03476522 -0.6745329 -0.122371495 -0.15494452 0.64616114
-0.462368 -0.12846975 0.65808773 -0.023304278 0.24171525 0.12091116 -0.2376401 -0.96645623
-0.94069993 -0.6529263 -0.03783793 0.27789998 -0.42829555 -0.9346055 -0.06491335 -0.16575444
0.10072904 -0.39490205 -0.41092968 -0.25413683 -0.4761182 0.4882441 0.40859756 0.03397521
0.20651321 -0.8912734 -0.7548326 0.31518546 -0.05087246 -1.0193259 -0.17056143 0.3188177
0.65936685 -0.054249078 -0.6222853 -0.27639607 0.33758652 0.4905886 -0.018920194 0.4267282
0.35473496 -0.13417508 -0.19924136 -0.72964996 -0.25575832 -0.0063373377 0.07878514 -0.030397575
0.28584144 1.2853931 0.32080585 0.5605849 -0.25852892 -0.28030878 0.47286823 0.28796744
0.4267015 0.8450455 -0.2844548 -0.15373 -0.033953786 -0.15927966 0.22776574 -0.41817284
-0.14065996 -0.27902082 1.090596 0.27444696 -0.44198686 0.20826198 -0.09744363 -0.03915728
-0.50409186 -0.16548254 0.7055503 -0.18827419 -0.12691788 0.08361461 -0.37426642 0.12444132
0.589367 -0.46580148 0.91591007 -0.3340901 -0.6101027 -0.4261789 -0.9195961 0.6713799
-0.503175 -0.1834508 -0.31969303 0.14911099 0.4955767 -0.32186025 -0.7754632 0.27909455
-1.428571 -0.20136344 0.21087599 -0.12117459 0.9790715 -0.30975485 0.5628335 0.8242649
-0.21444614 0.58429205 1.0917323 -0.18979508 -0.22077264 0.7595127 -0.37495786 0.20245032
-0.3169564 0.34894928 0.5383736 0.76392287 0.11800757 -0.08575892 0.3772359 0.9586203
-0.36698234 -0.31938452 0.30799282 0.018679908 -0.79608774 0.42475337 0.8231535 0.028026192
-0.3060312 0.41353703 0.16705139 0.094229005 -0.33379984 0.31797406 -0.13167661 0.45629737
0.8243104 0.6174479 0.8393219 1.4129944 0.08682053 -0.0067765643 -0.2331349 0.778977
0.69960856 0.7464326 1.5008452 0.13058601 0.111538336 0.07558193 0.72015446 0.90269655
0.41191804 0.24471524 -0.44937167 -0.65381634 0.93907756 0.20366792 0.6062732 0.99805564
0.7880134 0.40469518 -0.28594908 0.7961082 0.6779386 0.085105225 -0.14266765 0.45704895
0.15335326 0.6846782 0.5968201 0.5598534 0.14933948 -0.11197511 0.06682132 -0.095703885

memory_rnn.bias_hh f4 [256]
00000000: 25e3 c03e ab34 b13e 4369 7ebe e7dd 8e3b
00000010: f7a3 43bf f3e5 323f bdd3 9e3e d761 c63e
00000020: d6b8 513e e863 96be f871 293f a418 c43e
00000030: a48c d0be c94c 8abe 55fc 1fbb ed94 e53d
00000040: 0465 c03e 833a 0f3e 4116 bebe 2b77 3c3d
00000050: d096 233f 2607 313f 09b4 2abd 2fa0 dabe
00000060: 0fa5 7e3e aeb3 2fbe cbec cfbe b54f f5be
00000070: 09b6 ee3d 730c 6f3e d924 51bd 7374 f4be
00000080: 0de5 773f 6688 90be 8cf0 003f a813 75bc
00000090: 0f8d 49bf b88e 33bd 3ef2 f23d e197 1bbf
000000a0: c91f d4be ccfd 12c0 4298 a03e 0178 adbe
000000b0: 9202 cc3e f518 543e 5c9f f2be dc46 48bf
000000c0: 7d5d 07bf f92d a73e b1bd 173f ba8b ef3d
000000d0: 80ba b93d 00bd 773e 7986 5b3f 1561 0d3f
000000e0: e514 dbbe 41f4 cbbe e34a f6be 3705 e43e
000000f0: 1a00 d9be 5f0e 94be e6c5 d6bd cdfa e13d
00000100: f229 12bf 4fba 103f a82b 01be d116 fa3d
00000110: e860 9bbe 3a2f 963f 78a4 513e 9419 253f
00000120: dca7 52bf 5a31 933c 87d5 cbbe 12c9 b23d
00000130: 661c 26bf 5c4c 80be 171d 613c 110c 343f
00000140: 87c1 01bf fbf7 4dbe a24f 183f a749 97bc
00000150: 1659 283e c218 373e 639e 8cbe 2e51 7fbf
00000160: 5e0e 57bf ae60 32bf e4cc 953d 6346 e23d
00000170: 4ae2 8bbe beab 7dbf c0b2 f6bd 7816 98be
00000180: 3fc2 1b3e fcd0 d1be 0ef3 09bf 1aef 91be
00000190: 0e29 90be fd9d 203f 2f55 ce3e 6130 e13d
000001a0: e0f5 873e bc8f 5dbf 4c2f 62bf 35d0 ae3e
000001b0: ee0a b53d e15b 8dbf 90f1 32be 63bd b33e
000001c0: ea9b 313f 1282 babd c100 34bf 7d50 adbe
000001d0: d494 0d3f 062c dc3e 7444 003d 8acd a83e
000001e0: d64b d23e 25a4 3cbe 2a7e aebe 172a 47bf
000001f0: 33a0 91be 8126 febd 8333 acbc bbe6 9d3d
00000200: a3cc 4b3e 4fe3 a53f 36ec a43e 1662 143f
00000210: 70f3 5abe 8745 3abe ad63 913e 0a69 c13e
00000220: 360b 093f 0b15 4d3f ed01 8dbe 871e 26bd
00000230: 4927 71bd 3f6a 44be 020d 903e d0d0 bebe
00000240: 3228 0dbe 5508 9bbe 1355 853f 6c42 4e3e
00000250: 39c3 cdbe bf54 bb3c e058 b2bd 94f7 adbc
00000260: 55d8 1abf aa5d 003c ac97 373f 8ba2 36be
00000270: 3160 d1bd 21de af3d bf3f 09bf 3553 b4bc
00000280: 3dbf 233f 240d afbe ad7e 7b3f d04d adbe
00000290: e3d4 27bf ed5f 0ebf e3e3 7dbf 4e0b 2c3f
000002a0: 6452 39bf 34fa acbd b044 19be 103c 653e
000002b0: d0b2 093f 2c50 f4bd fe7a 36bf 69a0 8f3e
000002c0: d855 b0bf 28e7 06be 3c2c 2e3e 3285 1fbe
000002d0: 2a5b 803f 1019 ddbe 6d07 0e3f 5acc 563f
000002e0: 2157 4cbe 5c3c 203f 4e77 823f 87fb 55be
000002f0: 54a6 c8be fd56 3f3f 179b e7be 707d ec3d
00000300: 7c61 9cbe de36 e33e 7af2 f03e 9773 6e3f
00000310: 0dea 76bd ff48 94bd 4e0a 033f e643 5e3f
00000320: c419 a5be 1e29 bdbe 207c 6a3e 9c98 d63d
00000330: 9ac6 6cbf a02f e33e 07a7 823f 9880 97bd
00000340: cf30 ebbe 94f1 083f 5abd ef3c 2998 023c
00000350: 3472 aebe 6475 5e3e d528 06bd 130e ad3e
00000360: a4f3 223f 631f 233f 754f 413f e4c1 c23f
00000370: 4dc5 813e 79aa 5a3d ab38 68be f196 4a3f
00000380: 60ed 493f 2560 593f 8e8d a63f 594b 4e3e
00000390: 65c0 133e 35e7 733e 87cd 043f 635f 773f
000003a0: 87dc 003f 00cd 453e 88d3 8ebe f0f1 3cbf
000003b0: c5c6 6f3f 8590 673e cec6 193f 8294 593f
000003c0: 2b1d 603f d9e2 043f 961a 4dbe db41 293f
000003d0: 20c6 403f fb4d 0c3d 3427 11be 15b9 083f
000003e0: 4c54 fe3d 9234 663f f20d 0a3f 75e6 3e3f
000003f0: 5bf4 613e 8ec6 98be 0582 323e b341 f1bd
0.37673298 0.34610495 -0.24844842 0.004359949 -0.76422065 0.69882125 0.31020918 0.3874652
0.20480666 -0.29373097 0.6618953 0.3830005 -0.407323 -0.27011707 -0.0024411876 0.11210046
0.3757707 0.13987164 -0.37126353 0.046012085 0.63901997 0.6915153 -0.0416756 -0.42700335
0.24867652 -0.17158386 -0.40610346 -0.47912374 0.11655814 0.23344593 -0.05106053 -0.47745094
0.9683388 -0.28229064 0.50367045 -0.0149583 -0.78730863 -0.04383728 0.1186261 -0.60778624
-0.414305 -2.2967405 0.31366163 -0.33880618 0.3984571 0.20712645 -0.47387207 -0.7823312
-0.52877027 0.32652262 0.5927382 0.116965726 0.09068775 0.24193192 0.85752064 0.5522626
-0.4278938 -0.39834788 -0.4810401 0.4453523 -0.4238289 -0.28917214 -0.10486965 0.110341646
-0.57095253 0.56534284 -0.1261431 0.12211383 -0.3034737 1.1733162 0.20472896 0.64492154
-0.82287383 0.017967869 -0.39811346 0.08729757 -0.6488708 -0.25058258 0.013739846 0.7033091
-0.50685924 -0.20114128 0.5949651 -0.018467737 0.16440234 0.17880538 -0.2746459 -0.99733245
-0.840063 -0.6967877 0.073144704 0.110485815 -0.27321082 -0.9909018 -0.120458126 -0.29704642
0.15210818 -0.40979755 -0.538865 -0.28502733 -0.28156322 0.6274107 0.40299365 0.10995556
0.26554775 -0.86547446 -0.8835342 0.34143224 0.08839975 -1.1043664 -0.17474961 0.35105428
0.6937853 -0.0910684 -0.7031365 -0.3385047 0.5530522 0.43002337 0.031315282 0.32969314
0.41073483 -0.18421991 -0.3408063 -0.777986 -0.28442535 -0.12409688 -0.021020656 0.07710024
0.19902281 1.2959994 0.32211465 0.5796217 -0.21381927 -0.18190585 0.2839636 0.3777545
0.5353273 0.80110234 -0.27540532 -0.040556457 -0.058875356 -0.19181155 0.28134924 -0.37268686
-0.13784865 -0.30279794 1.0416588 0.20142525 -0.40188006 0.022867559 -0.08708358 -0.021236219
-0.60486346 0.007834831 0.7171581 -0.17835443 -0.10223425 0.085872896 -0.53612894 -0.022012332
0.6396368 -0.34189713 0.98240167 -0.3384843 -0.65559214 -0.5561512 -0.9917585 0.6720475
-0.72391343 -0.0844616 -0.14967608 0.22386193 0.5378847 -0.11929354 -0.7128142 0.2805207
-1.3776197 -0.13174117 0.17009062 -0.15578154 1.0027821 -0.43183184 0.5548008 0.83905566
-0.19955112 0.625921 1.0192659 -0.20896731 -0.39189398 0.7474211 -0.45235512 0.11547363
-0.30543125 0.44377798 0.47059995 0.93145126 -0.060281802 -0.072404854 0.511876 0.86822355
-0.3224622 -0.36945432 0.22898912 0.10478327 -0.9249054 0.44372272 1.0207223 -0.07397574
-0.45935676 0.5349362 0.029265095 0.007970848 -0.34071505 0.21724468 -0.032753784 0.337998
0.63653016 0.6371977 0.75511867 1.5215421 0.2534584 0.05338523 -0.22677867 0.7913657
0.7887783 0.8491233 1.3011949 0.2014593 0.14428861 0.23818667 0.5187611 0.96629924
0.503365 0.19316483 -0.2789576 -0.7380667 0.93662673 0.22613724 0.60068977 0.8499223
0.87544507 0.5190864 -0.20029673 0.6611611 0.75302315 0.034254055 -0.14175111 0.5340741
0.12418422 0.89923966 0.5392753 0.745704 0.2206587 -0.29838985 0.17432411 -0.11780109

actor.0.weight f4 [64, 64]
00000000: 0d84 9a3e a2d7 45bf 7d7b ae3e 6a21 dcbe
00000010: 37b1 0840 7733 4cbe 764d 4fbe 3d52 5bbf
00000020: c55d c13f ddc1 96bf 6cf9 78bf fc93 25bf
00000030: 1d39 adbf 64cc 2c3e 8f1c 27be 12c7 953e
00000040: a49b ad3f d5b2 873b 18c5 c93f 3949 0040
00000050: da8b 5cbf 9b70 9bbe 8a60 ca3f 65cb 0ac0
00000060: f31e 1abf 80ff 9d3e f998 e7bd 7a27 de3e
00000070: 6719 3ebf 5e9a 07bf e621 90bf 7d4d 133e
00000080: 25b0 a93e 046c 973f 88df 4ebd f398 ab3e
00000090: a6f8 dbbe 026b 5d3f 73d1 a6be bf65 453f
000000a0: b3e2 26be a778 4b3f 2dd5 47bf e33a aabf
000000b0: 3bdf e63e f1be c9be 8d11 803f 2fde 31be
000000c0: 313f cbbf 9896 d7be 2b6a bebf 0d4a 7cbe
000000d0: d064 adbe 6c96 5ebe 4480 913f 29e1 e5be
000000e0: 2125 c8bf 3e45 d23f 80c1 a73f 4ef3 6abe
000000f0: 4537 193e d94c f4be c2f8 7cbe 9403 4d3f
00000100: 844f a6bf 27bf ca3f e92d abbd a13a 8a3f
00000110: 5653 d53e 8807 01c0 ae67 9e3e 6f58 1d3f
00000120: c724 acbe 67cb c8be 8377 953e 7060 6b3f
00000130: 908e b3be 44b4 8fbe edab e83d 10a7 93bd
00000140: 4f90 9abf 2fe7 9a3f 3513 1040 447a ecbf
00000150: 8d31 4abf 0927 1abe 6f5e e73e 61fa a23f
00000160: d6b3 ed3f d9e9 b1be e730 7bbf fdfe 993f
00000170: 0208 003f 601f 92bf 9be1 6ebf 7571 153d
00000180: fe80 a03f 3a4f 163e fa76 4ebf a13d 623f
00000190: 2f0b a5bf 4e61 193d 0db5 20bf 0358 9c3f
000001a0: 9ee5 1ebf ebff 683f df7b d3bd 67d2 503f
000001b0: 3615 7c3f 7822 19bf f851 b93e e780 b93f
000001c0: c9e9 0ebf ff88 7fbf 482f edbc bfef 3bbf
000001d0: a1ba 63bf 2e6f 553f a384 203f b4b2 acbf
000001e0: 5910 1f3e 07db 07be 5417 79bf c311 e8bf
000001f0: 5575 cb3f 2d79 8abf 3b14 7a3e 90ec 523e
00000200: 4305 0c3e 65a7 4b3f b3aa 723f 000b 0140
00000210: 5a0b 983f 32b7 85bf edf9 cabe 779d 75bf
00000220: 6cb2 bc3e e98d a5bf 04a0 953f ad0c c1bc
00000230: bcf3 debd 5d7d 85bf 6b07 613e 8b7c 05be
00000240: 2440 843d 98a5 0cbe c225 d6be dee0 8a3f
00000250: ea5d 18be 453f 70be 15a3 b8be b2aa 503e
00000260: ec4d fc3d e805 0bbf ebb1 023f e9a7 d9bf
00000270: 7ac1 a23e d627 2fbf c22c 303d b2e2 1b3e
00000280: c8e7 9f3e 1120 6c3f c7ff d73e d8b0 e53e
00000290: b28b e33e 8fdb 8fbf d95d c63f b040 9f3f
000002a0: 9c8e 78bf b99c fb3e 63f8 b63f 8f36 44bf
000002b0: 6271 db3f 5ac1 253f d6f3 af3d f829 293f
000002c0: 096b ccbe 15e6 21bf 400d b5be 83e2 963f
000002d0: 0481 4cbf 0209 30bf 571a 8abe 38a0 143f
000002e0: 3cd5 753e e969 0dbf 93c6 7c3f e08e 5dbf
000002f0: 3be2 2e3f 018f 45bf ce74 313e e529 0e3f
00000300: 3b44 39bf 20d6 8dbe 02f7 213e 8508 29bf
00000310: 349a 56bf c3c9 0f40 1a75 26bf 6e00 a6be
00000320: cb21 8fbe 8a34 df3d 6f82 e1bf 464c 3f3f
00000330: 0573 b5bf 512f 553f c5c4 c13b 1dc5 bcbf
00000340: 4bad 4c3f ca4f e33e 1fe3 92bf 1c41 553f
00000350: daf2 833e 6268 6e3c b486 26bf a86f 353f
00000360: 51d5 0dbf e822 993f 26af 7ebf a5c1 2f3f
00000370: c5dd 51bf ca1b 323d 1333 96be 05ca b93f
00000380: 5998 c23e fc2a 38bb 46fa 94be 25fd 81bf
00000390: ed0b 24bf 423b 2b3f b5e5 74bf d133 89bf
000003a0: b15b 29be e3e0 f4be 2e77 97be e2fd 163d
000003b0: 16d4 75bf b93d a0bf 4359 45bf 5dc6 94bf
000003c0: 0bcb 2040 71cd 7abb f069 89bf 7009 973e
000003d0: fdb6 fa3e 8a7e e2bf 69e9 ff3e dd7d 6bbf
000003e0: 47c9 e33e 72f3 ae3e 5d88 babe 5151 0fbf
000003f0: e8a7 4bbf 2b5b 633f 1e82 30bf f4a1 0f3f
0.30178872 -0.77282155 0.3407859 -0.42994243 2.1358163 -0.19941507 -0.20244393 -0.8567236
1.5106741 -1.1777912 -0.9725559 -0.6467893 -1.3533055 0.16874844 -0.16319488 0.2925344
1.3563123 0.0041411915 1.5763273 2.0044692 -0.86150897 -0.3035935 1.5810711 -2.1686642
-0.60203475 0.30858994 -0.11308474 0.43389493 -0.7425751 -0.5296992 -1.1260345 0.14385028
0.331422 1.1829839 -0.050506145 0.33515128 -0.4296314 0.86491406 -0.32581672 0.7710838
-0.16297416 0.79480976 -0.78059655 -1.3299221 0.45092186 -0.3940349 1.0005356 -0.17369913
-1.587866 -0.4210708 -1.487615 -0.24637623 -0.33865976 -0.21737069 1.1367269 -0.44898346
-1.5636331 1.6427381 1.3105927 -0.22944376 0.1496249 -0.4771488 -0.24704269 0.80083585
-1.2993016 1.5839585 -0.08358366 1.0799142 0.41665143 -2.0160847 0.30938476 0.61463064
-0.3362181 -0.39217684 0.29192743 0.91944027 -0.35069704 -0.2806722 0.11360917 -0.07209599
-1.207529 1.2101802 2.2511723 -1.8474813 -0.7898186 -0.15053953 0.45189235 1.273266
1.8570507 -0.34748724 -0.98121494 1.2030941 0.5001222 -1.1415825 -0.93312997 0.036485154
1.2539365 0.1467866 -0.80650294 0.8837529 -1.2894038 0.037446313 -0.6277626 1.2214359
-0.6206912 0.910155 -0.10326361 0.8157105 0.98469865 -0.5981822 0.3619535 1.4492463
-0.5582548 -0.99818414 -0.02895321 -0.734127 -0.8895665 0.8337277 0.6270239 -1.3492036
0.1553358 -0.13267146 -0.9730122 -1.813042 1.5895182 -1.081823 0.2442178 0.20598054
0.13673882 0.795523 0.94791716 2.0162964 1.1878464 -1.0446532 -0.39643803 -0.959434
0.36854875 -1.2933933 1.1689458 -0.023565615 -0.108863324 -1.0428883 0.21975486 -0.1303579
0.06457546 -0.13735044 -0.41825682 1.0849874 -0.14879575 -0.23461635 -0.36061922 0.20377615
0.1231955 -0.5430589 0.5105273 -1.7004367 0.31788236 -0.6842016 0.043011434 0.15223196
0.31231523 0.9223643 0.4218733 0.44861484 0.44442517 -1.1238879 1.549739 1.2441616
-0.97092605 0.49143007 1.4294552 -0.7664575 1.7143977 0.64748156 0.0859143 0.66079664
-0.3992541 -0.632417 -0.3536167 1.1787876 -0.7988436 -0.68763745 -0.2697322 0.58056974
0.24007124 -0.5523973 0.987405 -0.86546135 0.6831395 -0.7717133 0.17329714 0.55532676
-0.72369736 -0.27702427 0.15816882 -0.66028625 -0.83829045 2.2466896 -0.6502243 -0.32422203
-0.2795547 0.10898693 -1.761793 0.7472576 -1.4175726 0.83275324 0.0059133493 -1.4747654
0.79951924 0.44396812 -1.1475562 0.83302474 0.2577122 0.014551254 -0.6504929 0.708735
-0.5540362 1.1963778 -0.99486005 0.68654853 -0.8197902 0.043483533 -0.29335842 1.4514776
0.38006857 -0.0028101793 -0.29097193 -1.0155379 -0.640807 0.66887295 -0.95663005 -1.0718938
-0.16538884 -0.47827825 -0.29583114 0.036863215 -0.9602674 -1.2518836 -0.7708933 -1.1623036
2.5123928 -0.0038269425 -1.0735455 0.29499388 0.48967734 -1.7694867 0.49982765 -0.9198893
0.444895 0.3417011 -0.36432162 -0.55983454 -0.7955308 0.88810986 -0.68948543 0.56106496
