torch-rl/storage/bak/SimpleCorridor_20M/status.pt (torch, 650709 bytes, 51 tensors)

image_conv.0.weight f4 [16, 3, 2, 2]
0.41151386 -0.21399122 -0.12096837 0.11695196 -0.10213531 0.0637084 -0.15830347 0.11608199
0.040130746 -0.035346583 0.080067195 0.014240859 -0.01896283 -0.20058888 -0.06489643 -0.21035334
0.15193783 -0.05194018 0.22750743 -0.12362033 -0.10750442 -0.17434862 -0.04838647 -0.12451733
-0.11922425 -0.06253935 0.05112561 0.050787125 -0.34445205 0.10832642 -0.11664813 0.15643251
0.19054285 -0.26302278 -0.27447474 -0.13923728 0.36928147 -0.17068656 0.16627209 -0.22405846
0.230639 -0.27711287 0.14693028 -0.17188579 -0.15207909 0.1483833 -0.15323457 0.084900714
-0.2730088 -0.15886971 -0.31886247 -0.13655835 0.035227932 -0.2652595 0.2570811 0.2494329
-0.013516814 -0.19268577 0.17579223 0.089592375 -0.17112763 0.13533154 0.2712866 0.28754464
0.0329413 -0.056709256 -0.07359104 -0.15200552 -0.21908084 -0.20485033 0.15704058 -0.06769199
-0.05034095 -0.2256286 0.25216436 -0.1701704 0.011640752 0.021556417 -0.049808893 -0.043664116
-0.20297419 -0.21780798 0.0175556 -0.049192313 0.30585453 -0.25253963 -0.34312898 0.3094449
-0.07298028 0.08479934 0.07525877 -0.08414792 0.05799434 0.06933878 -0.19328493 -0.13696834
0.10573578 -0.06790828 -0.15078199 -0.1759999 0.22729348 -0.31898162 0.11301055 -0.02136256
-0.18660167 -0.24549785 0.277096 0.015073682 0.18675235 -0.030216793 -0.20826343 0.29129523
0.16600628 -0.16912663 -0.20992209 0.14146288 0.2091264 0.1793361 -0.20891964 -0.20787618
-0.19521697 -0.018076532 0.535465 -0.21257238 0.16224964 -0.18780875 -0.22180174 -0.044679217
0.16632621 0.26799875 -0.17927845 0.06264574 0.1937384 0.13625506 0.27851406 0.2158321
0.07641536 0.016599558 -0.2744807 -0.23030426 -0.1322769 -0.033615034 -0.17694406 0.10561285
-0.06575001 -0.1636055 -0.12907544 -0.019623207 0.052814573 0.08186853 -0.15437941 0.22144108
-0.03337308 -0.009917722 -0.2724747 -0.185796 -0.28549922 -0.29021385 0.2612486 -0.13623112
-0.042332906 -0.023448382 -0.026695607 0.08124828 -0.14938134 0.062589094 -0.10509236 -0.064858
-0.28122386 -0.34662983 -0.2148389 0.15847358 0.13947839 -0.022987176 0.114733234 0.06749813
0.19689004 0.009192439 -0.19970298 0.2256024 -0.0112146465 0.0506289 -0.22002402 -0.105784096
-0.15776357 0.33333778 -0.24956572 -0.32904938 -0.009802336 -0.15609111 0.10329133 -0.11111845
00000000: f2b1 d23e 8420 5bbe 44be f7bd 8284 ef3d
00000010: 512c d1bd 8d79 823d 4e1a 22be 65bc ed3d
00000020: 2360 243d 94c7 10bd 45fa a33d 7e52 693c
00000030: f057 9bbc 2c67 4dbe 6be8 84bd de66 57be
00000040: 9795 1b3e 3abf 54bd b5f7 683e a82c fdbd
00000050: 472b dcbd 7288 32be e430 46bd f102 ffbd
00000060: d82b f4bd a114 80bd 1669 513d 2906 503d
00000070: 055c b0be 3eda dd3d 37e5 eebd d82f 203e
00000080: aa1d 433e ecaa 86be f487 8cbe 3894 0ebe
00000090: 7612 bd3e 75c8 2ebe 3b43 2a3e 956f 65be
000000a0: a12c 6c3e bde1 8dbe e474 163e d402 30be
000000b0: 9fba 1bbe cbf1 173e 86e9 1cbe 6de0 ad3d
000000c0: cfc7 8bbe beae 22be f141 a3be f4d5 0bbe
000000d0: 2a4b 103d 18d0 87be 22a0 833e 576b 7f3e
000000e0: a175 5dbc 6b4f 45be e102 343e 357c b73d
000000f0: 153c 2fbe 5a94 0a3e 14e6 8a3e 0d39 933e
00000100: 75ed 063d f747 68bd e6b6 96bd 56a7 1bbe
00000110: ba56 60be 49c4 51be 3fcf 203e 19a2 8abd
00000120: 5032 4ebd 2f0b 67be b01b 813e 2641 2ebe
00000130: dab8 3e3c 1597 b03c 6904 4cbd 25d9 32bd
00000140: 77d8 4fbe 0e09 5fbe c3d0 8f3c e17d 49bd
00000150: f798 9c3e e04c 81be 9aae afbe 906f 9e3e
00000160: af76 95bd 47ab ad3d 4521 9a3d bf55 acbd
00000170: 798b 6d3d 7e01 8e3d 7cec 45be 6e41 0cbe
00000180: 008c d83d 7f13 8bbd 9866 1abe 5139 34be
00000190: 9fbf 683e 8f51 a3be 1372 e73d 8900 afbc
000001a0: 8214 3fbe ca63 7bbe 87df 8d3e 9bf7 763c
000001b0: 023c 3f3e 3589 f7bc 0243 55be a624 953e
000001c0: 8dfd 293e 882f 2dbe d1f5 56be a5db 103e
000001d0: 3b25 563e e2a3 373e 08ef 55be 7edd 54be
000001e0: f5e6 47be 3c15 94bc 3c14 093f 93ac 59be
000001f0: c524 263e f050 40be ff1f 63be 8e01 37bd
00000200: 6b51 2a3e 2237 893e c594 37be 694c 803d
00000210: 5c63 463e 7286 0b3e 6599 8e3e 1703 5d3e
00000220: a87f 9c3d ccfb 873c bc88 8cbe e1d4 6bbe
00000230: 9873 07be ebaf 09bd d330 35be 8d4b d83d
00000240: f1a7 86bd 3388 27be 5a2c 04be d9c0 a0bc
00000250: 1854 583d b0aa a73d a315 1ebe 73c1 623e
00000260: 36b2 08bd f17d 22bc ce81 8bbe 4e41 3ebe
00000270: f42c 92be e996 94be 60c2 853e 2c80 0bbe
00000280: 4565 2dbd d216 c0bc bfb0 dabc 8065 a63d
00000290: 6cf7 18be b62e 803d aa3a d7bd 45d4 84bd
000002a0: 93fc 8fbe 7779 b1be bbfe 5bbe e646 223e
000002b0: 6cd3 0e3e 9a4f bcbc 42f9 ea3d 763c 8a3d
000002c0: 8b9d 493e e29b 163c f07e 4cbe 5104 673e
000002d0: a3bd 37bc 4060 4f3d fa4d 61be 55a5 d8bd
000002e0: c68c 21be 40ab aa3e 288e 7fbe 2979 a8be
000002f0: fa99 20bc 59d6 1fbe 688a d33d 1292 e3bd

image_conv.0.bias f4 [16]
-0.16584182 -0.034286264 0.11342768 -0.22018518 0.062745444 -0.05437558 0.11026277 -0.28819
-0.022674149 -0.36382994 0.12046513 -0.15918212 -0.0024534275 -0.013343333 -0.13874954 0.043226838
00000000: 70d2 29be c16f 0cbd c64c e83d 3978 61be
00000010: af80 803d eeb8 5ebd 72d1 e13d a48d 93be
00000020: 23bf b9bc eb47 babe 6cb6 f63d a300 23be
00000030: afc9 20bb ff9d 5abc 5c14 0ebe a00e 313d

image_conv.3.weight f4 [32, 16, 2, 2]
0.16331108 0.18473114 -0.013441017 -0.11680884 -0.29752532 0.10735577 0.09059155 0.073348425
0.07823755 -0.12091479 -0.027038092 0.02049243 -0.005563937 0.27102435 -0.08214343 -0.11567022
0.0442909 -0.13871522 -0.011812557 0.14501269 0.16806877 0.19356751 -0.07780878 -0.17142041
0.117968515 -0.082860515 -0.06987516 0.019017873 0.105882786 0.28915223 0.022405628 -0.13509913
-0.06955381 0.11864016 0.10301328 -0.049379136 0.01777295 0.18570188 -0.17723349 -0.11985493
-0.0015149679 0.3122436 0.027453264 -0.14649685 0.082717754 0.136681 0.016605755 -0.0055668578
0.04515665 0.028069763 0.011003936 -0.1281422 0.14908431 -0.0019169343 -0.0975185 0.035383545
0.06536975 -0.12057234 0.07256859 -0.04542478 -0.18107094 -0.025848303 0.02657418 0.06204642
0.0679107 0.35499546 -0.09187068 -0.27368045 -0.044213902 -0.12570862 -0.0008621974 -0.021984126
-0.03790641 -0.037896834 0.10018447 -0.03689759 0.04737671 -0.015294036 -0.075669356 0.046184428
0.022029048 0.10616681 -0.005644569 -0.06946716 0.03625346 0.120371915 -0.06309366 -0.11395096
-0.111987785 0.11465797 -0.0980042 -0.14199862 0.11579015 0.31745994 0.07772909 -0.031985525
0.09234554 -0.063867815 -0.028673833 0.115899906 -0.0025271866 0.21132399 -0.004924479 -0.118321076
-0.23758693 0.13923787 0.049790245 -0.1508051 -0.19962408 0.12732308 0.005142163 0.04447934
-0.037441183 -0.0041135564 -3.2271437e-06 -0.2253582 0.036264308 -0.033933397 -0.032520372 0.08657192
-0.042789686 -0.01356127 0.057151448 0.055014547 -0.10099567 -0.16973782 0.053033058 -0.0025900055
-0.07375616 -0.13255814 -0.011742143 -0.009984259 -0.09784733 -0.10198187 -0.17308392 0.053487036
-0.030808749 -0.06285703 -0.1015263 -0.13251747 -0.13784398 -0.095292106 0.05811183 -0.020117395
-0.06987415 -0.042247295 0.0063560414 0.02861985 0.10734845 0.00028781086 0.0098309135 -0.0795857
-0.116470106 -0.16098028 0.04028159 -0.046852518 0.077118814 -0.009826128 -0.10324145 -0.074145764
0.015304888 -0.069796346 -0.1532536 -0.0074593895 0.025627997 -0.0750023 0.033612154 -0.00919254
-0.0711991 0.09135977 0.055227727 -0.03332305 -0.033997968 -0.12780398 0.06635665 -0.09805169
-0.09555556 0.037583526 -0.0014337483 -0.012771353 -0.051348746 -0.067168914 -0.037768308 0.0035254273
-0.0032023406 -0.08843958 0.019650485 -0.09820728 0.09168984 -0.044685233 0.102392346 0.0066544176
-0.021340687 0.09363252 -0.039595366 -0.022298522 -0.036944803 -0.1908302 -0.090292305 -0.0029804192
0.04256417 -0.11444099 -0.046588156 0.100007795 0.019666804 -0.06677505 -0.0036235757 0.11351575
-0.12560204 0.055026643 0.009248792 -0.013110561 -0.09545335 0.09947852 -0.042573676 0.06836949
-0.046362475 0.07783532 -0.08252571 -0.22932918 0.051322293 0.0632103 -0.02624316 -0.112040944
-0.045300346 0.05158063 -0.020907858 -0.0311729 0.089209385 0.027496627 0.032863643 0.15515807
-0.1054358 0.12525558 -0.26979733 0.06842445 0.046172276 0.04648508 -0.01027232 0.011608336
-0.051990774 -0.18055287 0.021517564 0.1748892 0.12054618 -0.03680709 0.14869162 0.041974213
-0.10893383 -0.15614271 0.08307977 -0.092384905 0.14909124 -0.038227353 0.12579864 0.060674798
00000000: 053b 273e 292a 3d3e b637 5cbc 7939 efbd
00000010: 3d55 98be 58dd db3d 1088 b93d b337 963d
00000020: 023b a03d 2ca2 f7bd fd7e ddbc bedf a73c
00000030: b051 b6bb b4c3 8a3e d13a a8bd 82e4 ecbd
00000040: 606a 353d 5d0b 0ebe 7489 41bc 357e 143e
00000050: 381a 2c3e 9036 463e 365a 9fbd d588 2fbe
00000060: 7a99 f13d c6b2 a9bd b51a 8fbd 5fcb 9b3c
00000070: 13d9 d83d c30b 943e 028c b73c 6d57 0abe
00000080: 3a72 8ebd 9df9 f23d a0f8 d23d c741 4abd
00000090: 9498 913c a228 3e3e b27c 35be 8076 f5bd
000000a0: e391 c6ba 65de 9f3e abe5 e03c 4503 16be
000000b0: ed67 a93d 1bf6 0b3e cb08 883c 306a b6bb
000000c0: 2ef6 383d 8ff2 e53c da49 343c b537 03be
000000d0: 8fa9 183e a441 fbba c8b7 c7bd 56ee 103d
000000e0: 93e0 853d a2ee f6bd d79e 943d 560f 3abd
000000f0: a96a 39be d2bf d3bc 18b2 d93c 6324 7e3d
00000100: c414 8b3d f7c1 b53e b226 bcbd d81f 8cbe
00000110: a319 35bd c3b9 00be 1705 62ba 0e18 b4bc
00000120: c043 1bbd b639 1bbd 842d cd3d ed21 17bd
00000130: 150e 423d d693 7abc 89f8 9abd e22b 3d3d
00000140: 4376 b43c fc6d d93d 14f6 b8bb cc44 8ebd
00000150: 827e 143d 8d85 f63d 4037 81bd 1f5f e9bd
00000160: da59 e5bd ccd1 ea3d 6db6 c8bd 1668 11be
00000170: 6323 ed3d 1c8a a23e 6e30 9f3d 4103 03bd
00000180: a91f bd3d 21cd 82bd 63e5 eabc ee5c ed3d
00000190: 289f 25bb 5165 583e 865d a1bb 5252 f2bd
000001a0: fd49 73be 5f94 0e3e dbf0 4b3d a76c 1abe
000001b0: 416a 4cbe fb60 023e 977f a83b f82f 363d
000001c0: ed5b 19bd 03cb 86bb e891 58b6 4dc4 66be
000001d0: e289 143d bffd 0abd 1534 05bd 9e4c b13d
000001e0: 3d44 2fbd 1730 5ebc a317 6a3d ef56 613d
000001f0: d1d6 cebd c0cf 2dbe 3139 593d 15bd 29bb
00000200: 780d 97bd 52bd 07be 1e62 40bc 0495 23bc
00000210: 2e64 c8bd dfdb d0bd e93c 31be 3915 5b3d
00000220: a162 fcbc 30bb 80bd 05ed cfbd a9b2 07be
00000230: f926 0dbe 8228 c3bd ac06 6e3d 3ccd a4bc
00000240: 2e1a 8fbd 800b 2dbd 5746 d03b 2d74 ea3c
00000250: 81d9 db3d 52e5 9639 d711 213c d4fd a2bd
00000260: e187 eebd 04d8 24be 4ffe 243d 6de8 3fbd
00000270: 78f0 9d3d c5fd 20bc 4170 d3bd bcd9 97bd
00000280: 5ac1 7a3c 63f1 8ebd 83ee 1cbe e56d f4bb
00000290: cef1 d13c ce9a 99bd e6ac 093d 4f9c 16bc
000002a0: d5d0 91bd d51a bb3d 7836 623d c07d 08bd
000002b0: 7441 0bbd 0cdf 02be ffe5 873d 53cf c8bd
000002c0: a2b2 c3bd 2ff1 193d 9cec bbba f03e 51bc
000002d0: 1053 52bd db8f 89bd f1b2 1abd db0a 673b
000002e0: 5cde 51bb cf1f b5bd 0efa a03c e620 c9bd
000002f0: e2c7 bb3d dd07 37bd 14b3 d13d 4d0d da3b
00000300: aad2 aebc 68c2 bf3d c02e 22bd 64ab b6bc
00000310: 6f53 17bd fe68 43be 2ceb b8bd 2353 43bb
00000320: c457 2e3d 0a60 eabd 39d3 3ebd e3d0 cc3d
00000330: 471c a13c 5bc1 88bd 8379 6dbb f27a e83d
00000340: d29d 00be 9e63 613d 3f88 173c aecd 56bc
00000350: 0c7d c3bd 65bb cb3d bc61 2ebd 4e05 8c3d
00000360: 94e6 3dbd 2068 9f3d 3d03 a9bd 45d5 6abe
00000370: 5337 523d 6774 813d e5fb d6bc b975 e5bd
00000380: db8c 39bd 3646 533d f546 abbc 4f5e ffbc
00000390: 69b3 b63d 9b40 e13c 079c 063d c2e1 1e3e
000003a0: baee d7bd 0043 003e e022 8abe 1e22 8c3d
000003b0: 241f 3d3d 2467 3e3d 3c4d 28bc e430 3e3c
000003c0: 47f4 54bd dae2 38be 9a45 b03c 2816 333e
000003d0: eae0 f63d 08c3 16bd 9e42 183e 27ed 2b3d
000003e0: b318 dfbd e0e3 1fbe ba25 aa3d 4c34 bdbd
000003f0: 60ab 183e 4994 1cbd 5cd1 003e 2386 783d

image_conv.3.bias f4 [32]
-0.06692041 -0.15926233 0.00853422 -0.07233511 -0.023780221 -0.03592449 -0.097379915 0.07839662
0.044984527 0.16260822 0.0030887006 0.008244632 -0.09135697 -0.04303924 -0.019223629 -0.09360579
0.0493758 0.05548741 0.03080464 -0.082106866 -0.05668852 0.08685039 0.028644731 -0.1367313
-0.07866982 0.051240623 -0.059385065 -0.08100366 -0.07444939 0.050810922 -0.058617778 0.07537513
00000000: 910d 89bd aa15 23be 1dd3 0b3c 6e24 94bd
00000010: bdce c2bc 8f25 13bd 1f6f c7bd 688e a03d
00000020: b241 383d c582 263e cc6b 4a3b 7e14 073c
00000030: 5d19 bbbd ea49 30bd df7a 9dbc 64b4 bfbd
00000040: 473e 4a3d c446 633d 035a fc3c a527 a8bd
00000050: 3932 68bd 9ede b13d 5ba8 ea3c 4a03 0cbe
00000060: a51d a1bd b0e1 513d c13d 73bd 3fe5 a5bd
00000070: ec78 98bd 1d1f 503d 3219 70bd 475e 9a3d

image_conv.5.weight f4 [64, 32, 2, 2]
0.0392591 -0.06107271 -0.05818481 -0.0077573573 -0.038755808 0.04234362 -0.04489099 -0.0020158675
-0.048510462 0.03747324 0.008173357 -0.07032516 0.034726717 -0.04114713 0.06232527 -0.11349399
-0.006266807 0.037598632 0.04964199 -0.011423526 -0.04662947 -0.07093576 -0.06978218 0.0679263
-0.08312483 -0.04064571 0.041815337 0.04079023 -0.08773306 0.0120028835 0.010685764 0.081123084
-0.00724792 0.026471574 -0.015096781 0.06436178 -0.015740735 -0.060886607 0.013965043 -0.053013083
0.012893663 0.035156444 -0.08121444 -0.09384091 -0.009184329 -0.029659726 -0.04320164 0.04844427
0.030496337 -0.03285025 0.007450247 -0.017643096 -0.07786154 0.03106429 -0.08013436 0.01069647
0.040321395 -0.093034916 -0.018929308 0.0854393 0.013545573 -0.067590825 -0.013172069 -0.11221535
-0.014214037 0.050205823 0.05230663 -0.033061784 -0.005899838 -0.020981262 -0.0683575 -0.005394682
-0.07558554 0.023064304 0.015065621 -0.040953804 -0.031986516 -0.07605969 -0.0069922428 0.013204394
0.07361864 -0.09746719 -0.09493957 -0.00020737677 0.078003176 -0.006763578 0.02123777 0.0022732508
-0.02281833 0.036863517 0.039908994 -0.07469416 -0.05293352 -0.068728864 -0.021495672 -0.001991175
0.061785497 -0.10098114 0.049305532 -0.05432948 -0.0027127457 -0.018864293 0.03662846 -0.086433776
-0.06800213 0.0020271686 0.038625903 -0.04252386 0.009069679 -0.045462806 -0.10383788 -0.019647399
-0.014949075 0.03303302 0.043411463 0.03366716 0.039149508 -0.0840986 -0.10780512 -0.0057600895
0.02260057 -0.07216429 0.066419706 -0.02185421 -0.06823406 0.055626642 0.062430844 -0.0050353524
-0.035372715 0.00085717294 -0.07234017 0.04237246 0.055487875 -0.022232687 -0.07007339 0.06162997
-0.07681555 -0.0464147 0.048217297 -0.04392769 0.016833967 0.06998738 -0.011173709 -0.021219525
0.07606189 0.015098834 0.024959156 -0.029176803 -0.08071214 0.013616485 -0.05670844 -0.045713115
-0.076060995 0.056598146 -0.06288269 0.010831367 0.009018699 0.059593674 0.03910284 -0.061882026
0.034628116 -0.05172622 -0.0013087023 -0.036654275 -0.08360821 0.02066502 -0.06691226 0.08189723
0.025248649 -0.045497138 -0.06213212 -0.0910338 -0.051343486 -0.062411703 0.0027244564 0.014511344
0.07665121 -0.0005445653 -0.017954683 -0.050611563 -0.012433457 0.045093175 -0.08522543 -0.08302233
0.034029573 -0.04176534 -0.027003974 -0.070421815 -0.06833757 -0.0804314 -0.063280456 -0.09928193
-0.053088885 0.05812152 -0.060458872 0.05616705 -0.08260638 0.0040402496 -0.015516899 -0.073392615
-0.007076577 0.05348552 -0.04916079 0.05895272 -0.009297374 -0.02794844 0.043631207 0.06909644
0.072749674 0.045504406 -0.08254063 -0.02166618 0.006499481 -0.041607976 0.038186874 -0.021087235
-0.081320554 -0.043993983 -0.062182512 0.028342558 -0.06431918 -0.022280531 0.009091507 0.038113195
-0.07093939 0.05299332 -0.059681877 -0.07200202 0.028560875 -0.055649992 0.056561235 0.03611221
-0.04290132 -0.03260389 -0.040405676 -0.024014669 0.0023395 0.0029328729 -0.05520757 -0.06946038
-0.05652539 0.014922713 0.009063206 -0.044494618 -0.0144189475 -0.0060112854 0.06315369 -0.08296727
-0.039373197 -0.01443874 -0.014517018 -0.048824843 0.03327501 -0.033224043 -0.0016401239 -0.050282463
00000000: 26ce 203d 6127 7abd 3253 6ebd 6e31 febb
00000010: 69be 1ebd 8170 2d3d 9ddf 37bd a51c 04bb
00000020: e8b2 46bd 8a7d 193d 8be9 053c a306 90bd
00000030: 9a3d 0e3d e589 28bd c848 7f3d 896f e8bd
00000040: ca59 cdbb 0601 1a3d 6655 4b3d be29 3bbc
00000050: 8bfe 3ebd c546 91bd f6e9 8ebd f21c 8b3d
00000060: 5a3d aabd 1e7c 26bd 8f46 2b3d a813 273d
00000070: 64ad b3bd bea7 443c 5813 2f3c dc23 a63d
00000080: f67f edbb eada d83c 7d58 77bc 1cd0 833d
00000090: b7f2 80bc 3c64 79bd a3cd 643c 3f24 59bd
000000a0: f13f 533c 3400 103d c253 a6bd aa2f c0bd
000000b0: de79 16bc f4f8 f2bc 34f4 30bd 806d 463d
000000c0: 74d3 f93c fc8d 06bd 3421 f43b 4188 90bc
000000d0: df75 9fbd 8a7a fe3c 7c1d a4bd 3f40 2f3c
000000e0: 0c28 253d 1789 bebd a311 9bbc cdfa ae3d
000000f0: 40ee 5d3c 0f6d 8abd a9cf 57bc 29d1 e5bd
00000100: fee1 68bc 9fa4 4d3d 7a3f 563d cb6b 07bd
00000110: 6e53 c1bb e5e0 abbc 04ff 8bbd dfc5 b0bb
00000120: 97cc 9abd 5af1 bc3c cbd5 763c 2dbf 27bd
00000130: 4b04 03bd 2fc5 9bbd 2f1f e5bb 3e57 583c
00000140: 5fc5 963d e19c c7bd ad6f c2bd 4773 59b9
00000150: 21c0 9f3d 01a1 ddbb d5fa ad3c d2fa 143b
00000160: 82ed babc 33fe 163d 9d77 233d 40f9 98bd
00000170: d2d0 58bd b8c1 8cbd b117 b0bc 607e 02bb
00000180: ca12 7d3d 33cf cebd 99f4 493d 9788 5ebd
00000190: 52c8 31bb 4a89 9abc b907 163d 3104 b1bd
000001a0: b344 8bbd 3fda 043b 3236 1e3d 802d 2ebd
000001b0: fe98 143c 3537 3abd f4a8 d4bd 95f3 a0bc
000001c0: f7ec 74bc a24d 073d 38d0 313d 93e6 093d
000001d0: 3c5b 203d e33b acbd eec8 dcbd 22bf bcbb
000001e0: d524 b93c dfca 93bd 0e07 883d 9a07 b3bc
000001f0: 4dbe 8bbd c3d8 633d 7cb7 7f3d 99ff a4bb
00000200: fbe2 10bd e7b3 603a 1527 94bd bf8e 2d3d
00000210: 4147 633d 5321 b6bc a382 8fbd b56f 7c3d
00000220: 7951 9dbd 571d 3ebd 807f 453d 85ed 33bd
00000230: 63e7 893c 8b55 8f3d ef11 37bc 92d4 adbc
00000240: 56c6 9b3d 1a61 773c 2577 cc3c 3104 efbc
00000250: 684c a5bd ad17 5f3c 1c47 68bd ad3d 3bbd
00000260: dec5 9bbd 75d3 673d a4c8 80bd 0c76 313c
00000270: 2ac3 133c 7f18 743d 4d2a 203d 0278 7dbd
00000280: 36d6 0d3d dfde 53bd c388 abba cb22 16bd
00000290: c83a abbd b049 a93c 4c09 89bd bcb9 a73d
000002a0: 41d6 ce3c 355b 3abd 407e 7ebd ee6f babd
000002b0: 8c4d 52bd 6aa3 7fbd cb8c 323b fdc0 6d3c
000002c0: 4ffb 9c3d 29c1 0eba b315 93bc 124e 4fbd
000002d0: b3b5 4bbc 9fb3 383d ac8a aebd 9d07 aabd
000002e0: 9862 0b3d 2212 2bbd 7037 ddbc 5039 90bd
000002f0: 91f4 8bbd 38b9 a4bd 2f99 81bd 5354 cbbd
00000300: bb73 59bd d510 6e3d b9a3 77bd 6c0f 663d
00000310: 892d a9bd 1264 843b 973a 7ebc de4e 96bd
00000320: a1e2 e7bb a213 5b3d d35c 49bd 6878 713d
00000330: 0354 18bc 20f4 e4bc a3b6 323d 6f82 8d3d
00000340: c8fd 943d d462 3a3d 100b a9bd 467d b1bc
00000350: 99f9 d43b 206d 2abd d769 1c3d 23bf acbc
00000360: 648b a6bd 0933 34bd 17b3 7ebd a72e e83c
00000370: c6b9 83bd a985 b6bc 8bf4 143c 951c 1c3d
00000380: ac48 91bd 860f 593d fc74 74bd cc75 93bd
00000390: 7ff8 e93c 3ff1 63bd c1ac 673d 66ea 133d
000003a0: 4bb9 2fbd a88b 05bd 6c80 25bd 69ba c4bc
000003b0: 4c52 193b 7135 403b 5521 62bd 3e41 8ebd
000003c0: 2b87 67bd 657e 743c d77d 143c fd3f 36bd
000003d0: 733d 6cbc 51fa c4bb b956 813d beea a9bd
000003e0: ca45 21bd 7790 6cbc c9d8 6dbc 8ffc 47bd
000003f0: 604b 083d ef15 08bd 6df9 d6ba fcf4 4dbd

image_conv.5.bias f4 [64]
-0.020759521 -0.03389511 0.006325829 0.044406146 0.007163285 0.037036806 0.03560901 -0.049460262
0.026289176 0.020909818 -0.026163533 0.03683607 -0.061667487 -0.082493596 -0.022886742 -0.084562026
0.018776538 0.00094390585 -0.00081566727 0.078668766 -0.06489754 -0.03754112 -0.05614994 0.0002839525
-0.079675816 0.043162987 0.1489709 -0.014149015 0.030684764 -0.10828898 0.020660765 -0.027606586
-0.08004223 -0.07947227 0.028314417 -0.08515639 -0.061446365 -0.039161902 -0.013033705 0.028764525
0.011221913 -0.036419205 -0.074566394 -0.021176064 -0.013967445 0.097488865 5.53429e-05 -0.076959915
0.13510835 -0.050227303 -0.112977184 -0.05791941 0.013398038 0.07904187 -0.11693079 0.07386629
-0.039753016 0.015470201 -0.035447698 -0.08537355 -0.031683326 -0.050279323 0.052615028 -0.0066442317
00000000: df0f aabc 99d5 0abd e648 cf3b 38e3 353d
00000010: fdb9 ea3b e8b3 173d c1da 113d d896 4abd
00000020: 665c d73c 114b ab3c e854 d6bc 6be1 163d
00000030: 0c97 7cbd 67f2 a8bd fa7c bbbc db2e adbd
00000040: 41d1 993c 7370 773a 81d2 55ba 171d a13d
00000050: 00e9 84bd b8c4 19bd 7bfd 65bd 76df 9439
00000060: 132d a3bd accb 303d d48b 183e 45d1 67bc
00000070: 9d5e fb3c 9dc6 ddbd c440 a93c 3527 e2bc
00000080: 2eed a3bd 5cc2 a2bd a3f3 e73c 7966 aebd
00000090: 2faf 7bbd 3b68 20bd 528b 55bc 95a3 eb3c
000000a0: 1ddc 373c 4e2c 15bd 44b6 98bd 6d79 adbc
000000b0: b6d7 64bc 3ea8 c73d fd1f 6838 299d 9dbd
000000c0: d859 0a3e 25bb 4dbd 9560 e7bd e73c 6dbd
000000d0: 7283 5b3c b4e0 a13d 6979 efbd 3647 973d
000000e0: 0fd4 22bd ba76 7d3c 9b31 11bd 54d8 aebd
000000f0: 60c6 01bd b1f1 4dbd db82 573d dbb7 d9bb

memory_rnn.weight_ih f4 [256, 64]
-0.040782716 -0.102003045 0.03450385 0.08638857 -0.06394781 -0.0971428 -0.057521377 0.007442403
0.09232682 -0.027268676 0.03827236 0.027661292 -0.05031845 0.06618115 0.03589405 -0.013420667
-0.04511847 0.08210326 0.038274307 -0.21156293 0.028470961 -0.12336591 -0.1748553 -0.11124553
-0.11992633 -0.20093223 -0.43316436 -0.0389607 0.05166654 0.36012957 -0.12038765 0.0051503875
-0.1053538 0.17122413 0.077760324 -0.13389696 -0.10809371 -0.19956885 0.10078866 -0.015796984
0.34132814 -0.025847819 -0.10076329 0.083342806 0.38438758 0.04963696 0.25499275 -0.11637135
-0.24715072 -0.03333135 0.21565065 -0.05998823 0.025299327 0.3572593 -0.074110076 -0.1257463
0.02442889 -0.07282907 0.089275256 0.055275813 -0.040781595 0.48246178 -0.110894665 -0.17598508
0.016190207 0.11961752 -0.2499422 -0.08389371 -0.10460722 0.1777346 -0.21007748 0.13346937
0.05316313 0.19130144 0.046812873 -0.023378067 0.11932995 -0.015589701 0.0885394 -0.08972503
-0.042621672 -0.048439037 0.052767716 -0.09651252 0.031104513 -0.10621531 0.08099744 -0.167803
0.005985283 -0.082714014 -0.079268426 0.07909119 -0.09021455 0.04527598 -0.022021133 -0.024288632
0.09031172 -0.087024264 0.048987646 -0.09351637 0.013919075 0.08356269 0.0030042569 0.05225187
0.1332499 -0.04575262 0.08970784 0.019044919 0.17259246 0.22348869 0.13273302 0.026354231
0.05832167 0.057974033 0.08092969 -0.06666552 0.015009479 0.031695716 0.020440811 0.07554699
0.080131955 -0.040170845 -0.062279694 -0.013599706 0.07815417 0.100212336 -0.04713896 -0.122273564
0.08795733 -0.07652663 -0.08548376 0.0014842686 0.13997942 0.11216042 0.051665258 -0.03920961
0.060595907 0.042867243 0.050861053 0.13495272 -0.10172973 -0.084270135 -0.033564296 -0.023482528
0.09621569 -0.09746485 -0.07607027 -0.10237621 0.12595996 0.10162273 0.019312944 0.03605425
0.0063131857 0.07955747 -0.07948426 -0.1425882 -0.039322525 -0.07021105 -0.19628145 0.042725224
0.089590885 0.0356737 -0.083857775 0.10906321 -0.023017064 0.004345465 -0.100113146 -0.061745074
-0.006356595 0.007990112 -0.07827333 0.12122422 -0.0009508428 0.04059857 -0.11592485 -0.051973432
-0.0037241227 -0.10166731 0.04103611 0.009847068 0.067321554 0.10756763 0.04983065 0.12120824
0.013138535 0.114893824 -0.015544559 -0.083052024 -0.015284697 -0.13395561 -0.08337423 0.06651736
0.08718935 0.09531672 0.06618376 0.22315256 0.23340958 0.07157747 -0.12382538 0.012529565
-0.04001437 0.26517165 0.119263336 -0.12241543 -0.029690335 0.07106351 0.10698832 -0.18970872
-0.0071536168 -0.11516526 0.02219224 0.032028344 0.069407545 -0.094603494 -0.13947198 -0.11346808
-0.024495726 0.03648188 -0.11953871 0.15631561 -0.022392888 -0.0009668672 -0.04481834 -0.12450232
-0.021867925 -0.24617526 0.09448111 -0.112803176 -0.16566043 0.12861049 0.046575893 0.08112221
0.104401216 0.12773266 0.14428386 0.074351825 -0.008244928 -0.1084335 0.20207378 -0.041165147
-0.10651401 -0.05170506 -0.060605217 0.029967707 -0.06709214 0.06513571 0.14818758 -0.10672966
0.11014842 0.06997044 0.106487095 -0.11355649 0.084927194 0.21750228 0.08848729 -0.23416673
00000000: c70b 27bd f9e6 d0bd e953 0d3d 7eec b03d
00000010: 12f7 82bd cef2 c6bd 899b 6bbd 67df f33b
00000020: d815 bd3d 8f62 dfbc 7ac3 1c3d ef99 e23c
00000030: b81a 4ebd fc89 873d a405 133d 5be2 5bbc
00000040: 25ce 38bd c125 a83d 85c5 1c3d f4a3 58be
00000050: ef3b e93c 44a7 fcbd 450d 33be b2d4 e3bd
00000060: f09b f5bd 2ec1 4dbe b8c7 ddbe 4195 1fbd
00000070: 4ba0 533d e762 b83e cd8d f6bd 95c4 a83b
00000080: bcc3 d7bd 6155 2f3e ce40 9f3d 491c 09be
00000090: 3c60 ddbd c75b 4cbe 496a ce3d ad68 81bc
000000a0: 90c2 ae3e cebe d3bc fc5c cebd a2af aa3d
000000b0: 73ce c43e 2050 4b3d 698e 823e 1a54 eebd
000000c0: 1415 7dbe 7486 08bd 86d3 5c3e 38b6 75bd
000000d0: 8940 cf3c b1ea b63e 06c7 97bd a3c3 00be
000000e0: 181f c83c 6827 95bd f2d5 b63d e468 623d
000000f0: 9a0a 27bd 3b05 f73e be1c e3bd 6f35 34be
00000100: 53a1 843c 08fa f43d d9f0 7fbe 77d0 abbd
00000110: 4f3c d6bd 0f00 363e 8d1e 57be 32ac 083e
00000120: 95c1 593d 86e4 433e dbbe 3f3d 5c83 bfbc
00000130: 4363 f43d f26b 7fbc 2554 b53d c2c1 b7bd
00000140: 1094 2ebd 0368 46bd f622 583d 5ba8 c5bd
00000150: e4ce fe3c 6a87 d9bd fce1 a53d 8dd4 2bbe
00000160: 3120 c43b f765 a9bd 7c57 a2bd 90fa a13d
00000170: 68c2 b8bd 4e73 393d aa65 b4bc f4f8 c6bc
00000180: 5af5 b83d c739 b2bd 45a7 483d 8385 bfbd
00000190: d50c 643c ea22 ab3d 11e3 443b 0f06 563d
000001a0: a972 083e 1967 3bbd beb8 b73d 1704 9c3c
000001b0: 14bc 303e 38da 643e 2aeb 073e d4e4 d73c
000001c0: b4e2 6e3d 2e76 6d3d 77be a53d ef87 88bd
000001d0: 51ea 753c 5ed3 013d 7d73 a73c 61b8 9a3d
000001e0: 391c a43d 2f8a 24bd fe18 7fbd 4dd1 5ebc
000001f0: 4b0f a03d 203c cd3d c814 41bd 906a fabd
00000200: f922 b43d feb9 9cbd 1c12 afbd ca8b c23a
00000210: c456 0f3e 5db4 e53d f39e 533d 429a 20bd
00000220: 6a33 783d 9095 2f3d ae53 503d 0c31 0a3e
00000230: ad57 d0bd d295 acbd b77a 09bd 6e5e c0bc
00000240: bb0c c53d a79b c7bd bbca 9bbd 9eaa d1bd
00000250: a6fb 003e 941f d03d 2e36 9e3c 9fad 133d
00000260: d7de ce3b 07ef a23d a5c8 a2bd a402 12be
00000270: a810 21bd d0ca 8fbd 01fe 48be a500 2f3d
00000280: 6d7b b73d 961e 123d a0bd abbd 885c df3d
00000290: 488e bcbc 6764 8e3b 1f08 cdbd 67e8 7cbd
000002a0: fc4a d0bb f5e8 023c c54d a0bd 6744 f83d
000002b0: fb41 79ba b04a 263d 026a edbd 18e2 54bd
000002c0: 6910 74bb f336 d0bd 7b15 283d 9955 213c
000002d0: e2df 893d 6b4c dc3d 391b 4c3d 073c f83d
000002e0: 0343 573c 744d eb3d 9bae 7ebc 2e17 aabd
000002f0: aa6c 7abc a92b 09be 1cc0 aabd 413a 883d
00000300: 5490 b23d 6a35 c33d 5a8b 873d 1b82 643e
00000310: ec02 6f3e 3597 923d 2998 fdbd ce48 4d3c
00000320: 1ce6 23bd 94c4 873e 5640 f43d f1b4 fabd
00000330: 2539 f3bc bf89 913d b11c db3d 0143 42be
00000340: e368 eabb c4db ebbd 80cc b53c 2730 033d
00000350: 8b25 8e3d 7abf c1bd bed1 0ebe f461 e8bd
00000360: 43ab c8bc 066e 153d b6d0 f4bd 3311 203e
00000370: 4a71 b7bc 5c75 7dba 7093 37bd 13fb febd
00000380: 5d24 b3bc 5e15 7cbe 507f c13d 5a05 e7bd
00000390: e3a2 29be 78b2 033e 5dc6 3e3d 6723 a63d
000003a0: 4ed0 d53d 5acc 023e 26bf 133e c545 983d
000003b0: bc15 07bc 6212 debd 6eec 4e3e c99c 28bd
000003c0: 0424 dabd afc8 53bd 2d3d 78bd d67e f53c
000003d0: 9b67 89bd df65 853d 7cbe 173e 1495 dabd
000003e0: 7f95 e13d a94c 8f3d e815 da3d 4e90 e8bd
000003f0: 4fee ad3d ebb8 5e3e d338 b53d 67c9 6fbe

memory_rnn.weight_hh f4 [256, 64]
-0.046204586 0.048557717 0.23619747 0.12680458 -0.08942379 0.12076613 -0.2175961 0.015545543
-0.20066117 -0.22063392 0.12009274 -0.06457767 -0.034524884 0.107843354 -0.031876866 -0.18881454
0.043241475 -0.09163462 0.02017072 -0.17566349 0.06548835 -0.15886082 0.17860988 0.24262282
-0.0009776824 -0.35065114 -0.16501468 0.016779808 0.11949979 -0.15902528 0.11629372 -0.0029135128
0.10412442 -0.0990878 0.07874612 -0.012424878 -0.06253997 -0.18053989 -0.11970088 -0.11289674
-0.2072072 -0.0051960843 0.035751328 -0.025984034 0.14042738 0.06897367 -0.053507455 0.17938437
-0.16177602 -0.16925907 0.043043617 -0.01031508 0.0817476 0.01760253 -0.017544203 -0.0070160874
-0.079064995 -0.099329054 -0.092499904 -0.18030831 -0.042711973 0.0072498615 0.0007073044 -0.09640532
0.054295477 -0.1422974 0.11442679 0.22969401 0.047983255 -0.14991514 0.25785503 -0.011247319
-0.014831313 0.061148718 -0.1347064 -0.15327573 0.033066634 -0.027979365 -0.051666483 0.013589677
0.013498336 0.05832332 0.07325921 -0.061676763 -0.05913615 -0.028317427 -0.1771623 0.12075207
0.13810873 -0.000322422 -0.014957288 -0.08177912 0.060296852 0.18871017 -0.08843627 -0.024014637
-0.12252029 -0.042585187 0.1254684 -0.27936938 -0.0963893 -0.07394965 0.036434688 -0.11135888
0.0026969325 -0.02478581 -0.14049159 0.0031181811 0.14268744 0.035824087 -0.060751654 0.004053555
0.026087958 0.03087385 0.042745344 0.070895106 0.0061963564 0.07982533 -0.072607554 0.22279017
0.05151676 -0.20277329 -0.1510256 0.03518106 -0.06703097 0.0014086253 0.110459246 0.058056053
-0.06441537 -0.13352501 -0.120155156 -0.026156483 -0.082341075 -0.098964654 0.2173987 -0.0451381
-0.07405871 -0.02358857 -0.108865984 0.09550199 0.050658222 0.06921111 0.032036915 -0.019681662
-0.0019642313 0.098171934 0.013951571 -0.08709297 -0.113916256 0.10325517 -0.11355611 -0.017140696
-0.20199735 -0.07945756 -0.107085936 -0.24183944 0.084368534 0.15556894 -0.022737086 0.11645797
-0.10495362 0.09568557 0.14902724 -0.14050956 0.043946218 -0.039310906 -0.17930478 -0.106866255
0.03559242 0.046418965 -0.037665788 -0.096866846 -0.09284468 -0.06413014 -0.069047906 -0.016085975
0.07035106 -0.0069498722 0.17031297 0.17430997 0.096428424 0.103047706 -0.009112629 0.09180445
-0.13209863 -0.078814596 -0.07060148 -0.14702608 -0.22516909 0.15048337 -0.20417571 0.038224965
0.009803507 -0.14404994 -0.010097016 0.24489595 -0.3083917 -0.19078311 0.0064207925 0.079865694
-0.2958066 -0.16723146 -0.2069465 -0.33215448 -0.16677673 0.013846737 0.014088479 -0.07050099
0.29134092 -0.08779326 0.03614573 -0.073738046 -0.06040196 -0.20264204 -0.30872566 0.045516323
0.1430181 -0.29066136 -0.20293342 -0.13728945 -0.016296376 -0.074482165 -0.09623206 -0.1569436
0.089325674 -0.3584708 -0.43238655 0.124628834 -0.091774926 -0.24138902 -0.24770854 -0.0055472096
-0.10199756 -0.23026319 0.24673244 0.07991429 0.113871 -0.104341775 -0.3819573 0.40158495
-0.04177912 -0.15070583 -0.15886047 -0.25397697 0.25376555 -0.12332525 0.20867053 -0.008965983
-0.09100561 -0.29096696 -0.19362631 -0.07323773 0.045384362 -0.051611725 -0.13264962 -0.18384205
00000000: 0541 3dbd 75e4 463d c0dd 713e 0fd9 013e
00000010: d223 b7bd 3c54 f73d 83d1 5ebe bcb2 7e3c
00000020: 1f7a 4dbe dced 61be 2ff3 f53d 4c41 84bd
00000030: f769 0dbd fadc dc3d 5191 02bd 9958 41be
00000040: f91d 313d efaa bbbd 113d a53c 21e1 33be
00000050: c21e 863d 69ac 22be 82e5 363e 1e72 783e
00000060: 9425 80ba 8c88 b3be 9cf9 28be cf75 893c
00000070: 4ebc f43d 86d7 22be 672b ee3d a2f0 3ebb
00000080: 2f3f d53d 8bee cabd a545 a13d b791 4bbc
00000090: f514 80bd 73df 38be bc25 f5bd 6836 e7bd
000000a0: 202e 54be ea43 aabb fc6f 123d 78dc d4bc
000000b0: 32cc 0f3e 1142 8d3d a22a 5bbd 89b0 373e
000000c0: 9da8 25be 4052 2dbe 814e 303d 9500 29bc
000000d0: 496b a73d 2e33 903c dcb8 8fbc 35e7 e5bb
000000e0: d4ec a1bd 086d cbbd 9770 bdbd bea2 38be
000000f0: c0f2 2ebd 3f90 ed3b 656a 393a 2770 c5bd
00000100: ef64 5e3d 69b6 11be 9858 ea3d e834 6b3e
00000110: 178a 443d 5b83 19be 9305 843e ad46 38bc
00000120: 09ff 72bc 1477 7a3d 79f0 09be 50f4 1cbe
00000130: e170 073d fb34 e5bc 3ca0 53bd 3da7 5e3c
00000140: 2028 5d3c 6fe4 6e3d ed08 963d c6a0 7cbd
00000150: bf38 72bd f3f9 e7bc 096a 35be dc4c f73d
00000160: 606c 0d3e c00a a9b9 6a0f 75bc d07b a7bd
00000170: d5f9 763d 3d3d 413e 131e b5bd 58ba c4bc
00000180: ebeb fabd ce6d 2ebd ca7a 003e 8109 8fbe
00000190: c167 c5bd ea72 97bd 8a3c 153d 2010 e4bd
000001a0: 05bf 303b 9c0b cbbc 07dd 0fbe 665a 4c3b
000001b0: a81c 123e 47bc 123d bad6 78bd afd3 843b
000001c0: 6ab6 d53c 28eb fc3c be15 2f3d 7431 913d
000001d0: ce0a cb3b 767b a33d 45b3 94bd 1b23 643e
000001e0: 3d03 533d cda3 4fbe 74a6 1abe 041a 103d
000001f0: 8847 89bd 9fa1 b83a 7538 e23d 2fcc 6d3d
00000200: 35ec 83bd c8ba 08be e813 f6bd 1f46 d6bc
00000210: 70a2 a8bd fbad cabd c49d 5e3e bae2 38bd
00000220: 18ac 97bd d13c c1bc 21f5 debd 8c96 c33d
00000230: ff7e 4f3d 8ebe 8d3d 2439 033d 703b a1bc
00000240: 55ba 00bb 5e0e c93d 2195 643c cd5d b2bd
00000250: ed4c e9bd 7277 d33d 1b90 e8bd a56a 8cbc
00000260: 65d8 4ebe a5ba a2bd df4f dbbd c2a4 77be
00000270: 69c9 ac3d 774d 1f3e 2043 babc 8481 ee3d
00000280: ecf1 d6bd ccf6 c33d 999a 183e bde1 0fbe
00000290: f300 343d 7904 21bd ac9b 37be b2dc dabd
000002a0: 5bc9 113d d021 3e3d 7147 1abd 2062 c6bd
000002b0: 5a25 bebd aa56 83bd fd68 8dbd bcc6 83bc
000002c0: 3714 903d c1bb e3bb 8666 2e3e 507e 323e
000002d0: 447c c53d ad0a d33d 234d 15bc f903 bc3d
000002e0: dd44 07be 8c69 a1bd 8297 90bd 018e 16be
000002f0: ba92 66be 5018 1a3e 7013 51be c891 1c3d
00000300: e39e 203c d481 13be f46d 25bc 01c6 7a3e
00000310: 84e5 9dbe a65c 43be 8365 d23b a090 a33d
00000320: f673 97be b93e 2bbe c9e9 53be 2710 aabe
00000330: 85c7 2abe 6ddd 623c 5dd3 663c d362 90bd
00000340: a32a 953e f4cc b3bd 8c0d 143d f903 97bd
00000350: 0c68 77bd 6581 4fbe 4a11 9ebe 536f 3a3d
00000360: 5673 123e 91d1 94be c7cd 4fbe 9b95 0cbe
00000370: fa7f 85bc 1b8a 98bd 5015 c5bd d3b5 20be
00000380: 61f0 b63d 7c89 b7be c561 ddbe 673d ff3d
00000390: 7ef4 bbbd af2e 77be 4fa7 7dbe 5ec5 b5bb
000003a0: 19e4 d0bd 1dca 6bbe 6ea7 7c3e 1aaa a33d
000003b0: 3335 e93d 24b1 d5bd e88f c3be 8b9c cd3e
000003c0: 9520 2bbd a152 1abe 52ac 22be 4509 82be
000003d0: 8fed 813e f391 fcbd baad 553e 0fe6 12bc
000003e0: 2661 babd 9ff9 94be fa45 46be aafd 95bd
000003f0: f4e4 393d d166 53bd 4dd5 07be 1741 3cbe

memory_rnn.bias_ih f4 [256]
0.076002076 0.020174248 -0.06205382 0.02834593 -0.03638053 -0.0022439628 0.04188682 0.28306586
0.03931045 -0.01965453 0.04281324 -0.10927056 -0.034123965 -0.043386262 -0.11313623 0.08894659
-0.114495814 -0.035556354 -0.14305444 -0.01804633 0.15567549 -0.044269785 0.111221954 -0.07986807
-0.02018424 -0.09099593 -0.03137639 -0.09642312 0.08457844 0.15275146 -0.025643704 -0.13972007
0.12285471 -0.06955329 0.13183242 0.13912517 0.0837312 -0.028432256 0.06786282 -0.025750652
0.16058685 0.20977482 -0.016866919 0.063444704 0.104796916 -0.015754033 0.052868355 0.1617624
-0.024716033 0.07949539 0.18144506 0.046265732 -0.013770945 -0.18565 0.05184474 0.1328767
0.14123394 0.119943485 -0.039156944 -0.009658712 0.07270637 -0.0431469 0.14244555 -0.10431891
-0.13835177 -0.17678563 0.06894392 -0.2338686 0.03193203 -0.1271483 -0.041065115 -0.09631656
-0.28323224 -0.04032196 -0.0914132 -0.03496225 0.03585435 0.026588261 -0.12891074 0.04818669
0.035015002 0.050586887 0.031100612 -0.057668686 -0.09989422 -0.14594536 -0.16047795 0.08478842
-0.050687514 -0.06439038 -0.115741596 -0.02948542 -0.16087872 -0.17816384 -0.18508533 0.17886552
-0.233791 0.13957408 -0.023518879 -0.04564512 -0.121416 -0.24491641 -0.0830251 -0.1833208
-0.0784769 -0.18546598 0.02252393 -0.3029381 -0.08868454 0.05203755 -0.018686991 -0.19959864
-0.15710619 -0.1354282 -0.17337018 -0.13493389 -0.122016594 -0.117925175 -0.19114067 0.0011766121
-0.14254107 -0.030355655 0.14822115 0.0009186383 -0.17707843 -0.052393828 0.072402865 -0.07850358
0.07739073 -0.0030838582 -0.0769671 0.010041404 0.024183528 -0.094011806 0.051513374 -0.09209758
-0.027335351 0.026975013 -0.061792847 -0.06659952 0.040317915 0.008704393 -0.09732578 0.012744815
0.07651142 0.07201953 0.006652665 0.11439274 0.017904092 0.067118645 -0.050560683 0.0560389
0.027544871 -0.085816704 0.0048533366 0.0835478 -0.048920833 -0.011232347 0.12204593 -0.03140467
-0.023737555 -0.0499264 -0.047875527 -0.0034372902 0.021837829 0.05558963 0.041360278 0.036947772
0.13450682 -0.077544756 -0.0947926 -0.051835384 -0.024860648 -0.06934651 0.02067349 -0.047388144
-0.053669892 -0.02329052 0.005749118 0.09216429 -0.14966772 -0.03306156 0.066361345 0.04593989
0.011467461 -0.033397317 -0.0042796996 0.11606879 0.12951736 -0.02385118 0.017718134 0.0790765
0.01690437 -0.049862243 0.020756949 -0.06157053 0.19475192 0.11575071 -0.012693147 0.2240302
0.11643114 0.0035760475 0.007917823 0.038385514 0.07592156 -0.044548854 -0.14098677 0.18173577
0.04405385 -0.0764998 0.0035453395 -0.07243988 0.18949449 0.04052717 0.100459695 0.032222383
0.19579305 -0.1121895 0.00743972 -0.1022039 -0.058010407 0.038638417 0.15530232 -0.0147987865
0.06328416 -0.018242795 0.14236334 0.022418786 0.1212499 -0.10336974 0.21994284 0.08377786
-0.014472892 0.09257504 -0.11741899 0.15923488 0.1382178 0.056109395 0.10789043 0.11974728
-0.1514115 0.051759247 0.08647958 0.054977972 -0.10014318 -0.035256676 -0.20393385 -0.030814016
0.103232875 -0.04995335 -0.10165921 -0.15643105 -0.054905575 0.041574027 -0.00961579 -0.05506767
00000000: faa6 9b3d 7744 a53c 252c 7ebd b935 e83c
00000010: c003 15bd 730f 13bb 8491 2b3d 02ee 903e
00000020: ff03 213d 8902 a1bc f05c 2f3d 3ec9 dfbd
00000030: 92c5 0bbd cbb5 31bd f8b3 e7bd a129 b63d
00000040: c87c eabd 8aa3 11bd dd7c 12be e6d5 93bc
00000050: 6569 1f3e 3c54 35bd 56c8 e33d df91 a3bd
00000060: 6b59 a5bc 135c babd 8884 00bd 7c79 c5bd
00000070: 7637 ad3d e16a 1c3e bf12 d2bc c712 0fbe
00000080: 409b fb3d f571 8ebd 14ff 063e d476 0e3e
00000090: 437b ab3d c3ea e8bc aafb 8a3d 08f3 d2bc
000000a0: e170 243e 36cf 563e 7e2c 8abc 4cef 813d
000000b0: c49f d63d 9a0e 81bc 7d8c 583d 0ba5 253e
000000c0: 4779 cabc 7bce a23d bccc 393e 2381 3d3d
000000d0: 889f 61bc 091b 3ebe 265b 543d d410 083e
000000e0: a19f 103e eea4 f53d 0863 20bd 933f 1ebc
000000f0: 14e7 943d ceba 30bd 3fdd 113e 27a5 d5bd
00000100: 16ac 0dbe 4b07 35be 7832 8d3d 407b 6fbe
00000110: 29cb 023d 2a33 02be e533 28bd 9e41 c5bd
00000120: d103 91be a428 25bd d836 bbbd 9434 0fbd
00000130: 03dc 123d a0cf d93c 2d01 04be 685f 453d
00000140: e46b 0f3d 3234 4f3d b6c6 fe3c 0036 6cbd
00000150: 5795 ccbd b372 15be 5554 24be 8da5 ad3d
00000160: b69d 4fbd 1bdf 83bd ee09 edbd 688b f1bc
00000170: 64bd 24be 9570 36be 0287 3dbe 8628 373e
00000180: e866 6fbe 82ec 0e3e aaaa c0bc 61f6 3abd
00000190: f4a8 f8bd 5ecb 7abe 1009 aabd 73b8 3bbe
000001a0: 7fb8 a0bd cbea 3dbe 1b84 b83c b41a 9bbe
000001b0: 3da0 b5bd 5325 553d 7615 99bc 9663 4cbe
000001c0: 72e0 20be b1ad 0abe f487 31be 1c2c 0abe
000001d0: d6e3 f9bd c182 f1bd 61ba 43be 8d38 9a3a
000001e0: 49f6 11be 6cac f8bc 49c7 173e c6d0 703a
000001f0: 0c54 35be e99a 56bd f447 943d 7cc6 a0bd
00000200: 087f 9e3d 8e1a 4abb eda0 9dbd b384 243c
00000210: 891c c63c 4389 c0bd b0ff 523d a89d bcbd
00000220: 63ee dfbc b4fa dc3c 7f1a 7dbd 5465 88bd
00000230: 6624 253d df9c 0e3c bd52 c7bd a1cf 503c
00000240: 05b2 9c3d fa7e 933d 99fe d93b be46 ea3d
00000250: 9aab 923c 8075 893d b818 4fbd 0c89 653d
00000260: c8a5 e13c abc0 afbd bd08 9f3b 1c1b ab3d
00000270: 3661 48bd e107 38bc 37f3 f93d 2fa2 00bd
00000280: 4375 c2bc a07f 4cbd 2119 44bd 2944 61bb
00000290: 3fe5 b23c f4b1 633d 6569 293d 8c56 173d
000002a0: 28bc 093e c9cf 9ebd 9f22 c2bd 5751 54bd
000002b0: 8fa8 cbbc 8b05 8ebd 735b a93c 121a 42bd
000002c0: f6d4 5bbd c3cb bebc 1963 bc3b a2c0 bc3d
000002d0: 7f42 19be 8f6b 07bd 75e8 873d 772b 3c3d
000002e0: 04e2 3b3c a0cb 08bd b93c 8cbb 79b5 ed3d
000002f0: 33a0 043e 8d63 c3bc 9f25 913c dcf2 a13d
00000300: 097b 8a3c 5a3c 4cbd 7a0a aa3c 6131 7cbd
00000310: 0c6d 473e b50e ed3d ebf6 4fbc 2c68 653e
00000320: 7373 ee3d 1f5c 6a3b c2b9 013c 213a 1d3d
00000330: c37c 9b3d dc78 36bd d65e 10be f118 3a3e
00000340: cf71 343d edab 9cbd ed58 683b 5c5b 94bd
00000350: d80a 423e d1ff 253d d0bd cd3d 9efb 033d
00000360: f97d 483e 9cc3 e5bd e5c8 f33b 4750 d1bd
00000370: 529c 6dbd 5143 1e3d 9207 1f3e 9c76 72bc
00000380: 209b 813d ea71 95bc b2c7 113e 9aa7 b73c
00000390: de51 f83d 84b3 d3bd b238 613e ba93 ab3d
000003a0: b51f 6dbc fc97 bd3d 5e79 f0bd 780e 233e
000003b0: f888 0d3e f7d2 653d a8f5 dc3d 103e f53d
000003c0: 9e0b 1bbe 8101 543d 351c b13d 9530 613d
000003d0: de17 cdbd 4e69 10bd 09d4 50be ad6d fcbc
000003e0: c26b d33d e29b 4cbd b432 d0bd 762f 20be
000003f0: abe4 60bd 8749 2a3d 8c8b 1dbc a38e 61bd

memory_rnn.bias_hh f4 [256]
-0.08511552 0.18608215 0.018736068 0.104741365 0.16361524 0.090960234 -0.005680549 0.20254159
0.08142165 0.037348762 0.03788755 0.050429568 0.13950148 -0.0056442427 -0.05905048 0.09983576
-0.0030817252 0.10699306 -0.042517357 -0.1372516 0.22679423 0.14307861 0.085642666 -0.041360635
0.19724232 -0.21133886 0.002132201 0.022137519 -0.07476814 0.025063522 0.16245233 -0.114412434
0.18632442 -0.20698941 -0.0039425073 0.26031733 0.032867346 0.016256409 0.20234948 -0.048460264
0.12965046 0.01515817 -0.08373462 0.07082396 0.07194108 0.051277712 0.08996793 0.044454403
0.052113727 0.10535387 0.13126937 -0.08233726 -0.06725513 0.05669639 -0.029625613 0.055421896
0.1501726 0.1248893 -0.12491056 -0.039820503 0.043146785 -0.19497012 -0.02335887 -0.014549843
-0.1545837 -0.09951202 0.1001932 0.0042711077 0.040306028 -0.18489975 -0.08680177 -0.05816081
-0.30366632 -0.17287228 0.0047519375 0.08710103 0.061514646 -0.10163294 0.039768003 0.1053353
-0.009472068 -0.022089595 -0.032025773 -0.052833445 -0.1772055 -0.088052414 -0.19748722 0.05391594
0.04995414 -0.108257994 -0.0047485516 -0.19690062 -0.0057725725 -0.23445714 -0.24063016 0.04758003
-0.18241265 0.12467676 -0.15145463 -0.07652808 0.07315991 -0.10574732 -0.08863002 -0.10733976
-0.019442733 -0.15966417 -0.10619866 -0.27669418 0.050581038 -0.03299088 -0.022876397 -0.16736445
-0.12269013 -0.17224972 -0.25422233 -0.19703662 0.09345082 -0.1784933 -0.14090772 -0.09585172
-0.08653167 -0.080400676 0.0066574495 -0.047415562 -0.2057412 -0.17014755 -0.027408402 0.028998332
-0.009431506 0.0075190486 -0.07565824 0.029079484 0.06889535 0.0043929024 -0.13738695 -0.0023141177
0.081287764 -0.016967127 -0.052744377 0.046572585 0.015398314 -0.023829164 -0.043743066 0.058224358
0.07932141 0.04824376 -0.04227231 0.041359894 0.058016486 -0.1182764 -0.040201962 0.07395766
-0.07323646 0.08749614 0.016461203 0.09346573 -0.024238054 -0.008974259 -0.03981218 -0.17785995
0.026525965 0.073987655 0.018616533 -0.007831281 -0.02365307 -0.074391 -0.030815722 0.03761503
-0.08624416 0.021439582 0.07522153 0.022915406 0.017453833 0.13321555 0.083323255 -0.04596147
-0.0027299505 0.046333972 -0.03503256 0.05755789 -0.12594654 -0.1551376 0.058330253 0.060728785
0.026362307 0.008239584 -0.076749094 0.09689786 -0.041602984 -0.035946008 -0.05968272 -0.007891431
0.028429694 0.0449676 -0.047025517 0.10595146 0.016464626 0.12910408 0.12195251 0.13364092
0.1609537 -0.046494715 -0.07108438 0.124485925 -0.052885022 -0.025579121 0.056578483 0.079729244
-0.10927547 0.044905182 -0.13423777 -0.15870258 0.18258059 -0.060212407 0.19938391 -0.0860789
0.008011413 -0.09244065 -0.076766916 0.006343782 0.10863317 0.09880475 0.1616584 -0.0024117206
0.1524583 0.08445762 -0.0572888 0.093295164 0.1540034 0.05923252 0.018546289 0.14738023
0.076977305 0.041020934 0.052996285 0.07497797 0.13576609 0.07857711 0.10230596 -0.028402703
-0.06397599 0.16615862 0.17213129 -0.079972535 -0.025059763 -0.08610727 -0.20301704 0.046209067
0.07406272 0.16459535 -0.15920836 0.029425688 0.016412688 -0.14483465 0.09788227 -0.07716419
00000000: 0c51 aebd 528c 3e3e 627c 993c a482 d63d
00000010: c18a 273e 5c49 ba3d e623 babb 1067 4f3e
00000020: 65c0 a63d 04fb 183d fa2f 1b3d 3c8f 4e3d
00000030: 7ad9 0e3e 57f3 b8bb ebde 71bd b176 cc3d
00000040: c5f6 49bb 2d1f db3d ae26 2ebd af8b 0cbe
00000050: bf3c 683e 3383 123e 6c65 af3d c569 29bd
00000060: e4f9 493e 3769 58be 66bc 0b3b be59 b53c
00000070: 0a20 99bd 0452 cd3c e759 263e 1151 eabd
00000080: d4cb 3e3e 08f5 53be 2630 81bb 5048 853e
00000090: e99f 063d 292c 853c b434 4f3e 457e 46bd
000000a0: 17c3 043e f959 783c 0e7d abbd 270c 913d
000000b0: d855 933d 9408 523d 1b41 b83d d215 363d
000000c0: 3475 553d c5c3 d73d 7a6b 063e 70a0 a8bd
000000d0: 0fbd 89bd 793a 683d 6ab1 f2bc 1202 633d
000000e0: d9c6 193e f6c5 ff3d 1cd1 ffbd d31a 23bd
000000f0: afba 303d 3fa6 47be 1a5b bfbc 7762 6ebc
00000100: 304b 1ebe f5cc cbbd 1832 cd3d a6f4 8b3b
00000110: ef17 253d 5c56 3dbe 20c5 b1bd 083a 6ebd
00000120: 277a 9bbe 6e05 31be 24b6 9b3b 0662 b23d
00000130: c8f6 7b3d ee24 d0bd c6e3 223d 09ba d73d
00000140: bc30 1bbc 3df5 b4bc 752d 03bd e267 58bd
00000150: 5c75 35be d354 b4bd 173a 4abe f6d6 5c3d
00000160: b69c 4c3d 5eb6 ddbd bd99 9bbb 51a0 49be
00000170: d927 bdbb 8815 70be c167 76be 47e3 423d
00000180: 62ca 3abe 8756 ff3d ec16 1bbe c1ba 9cbd
00000190: ddd4 953d 0d92 d8bd a883 b5bd f3d4 dbbd
000001a0: 5e46 9fbc 017f 23be af7e d9bd dcaa 8dbe
000001b0: 102e 4f3d 7221 07bd 4867 bbbc 9661 2bbe
000001c0: f644 fbbd 3b62 30be 6e29 82be f8c3 49be
000001d0: 2563 bf3d f3c6 36be 1d4a 10be e84d c4bd
000001e0: 8437 b1bd 1ca9 a4bd bc26 da3b d236 42bd
000001f0: d2ad 52be 293b 2ebe 9687 e0bc e98d ed3c
00000200: 9a86 1abc 5a62 f63b b5f2 9abd 1938 ee3c
00000210: 0119 8d3d 56f2 8f3b 2aaf 0cbe 74a8 17bb
00000220: 337a a63d a5fe 8abc 7d0a 58bd e5c2 3e3d
00000230: 3649 7c3c 6135 c3bc ee2b 33bd aa7c 6e3d
00000240: 4373 a23d 409b 453d bb25 2dbd fe68 293d
00000250: b2a2 6d3d e63a f2bd d0aa 24bd 1d77 973d
00000260: fffc 95bd 2d31 b33d a5d9 863c f66a bf3d
00000270: e28e c6bc c508 13bc 1912 23bd eb20 36be
00000280: fb4c d93c d786 973d b381 983c c64e 00bc
00000290: 15c4 c1bc 4f5a 98bd 4171 fcbc 3812 1a3d
000002a0: c7a0 b0bd 10a2 af3c bf0d 9a3d 17b9 bb3c
000002b0: 57fb 8e3c a869 083e 62a5 aa3d 1842 3cbd
000002c0: f8e8 32bb b1c8 3d3d 4d7e 0fbd d2c1 6b3d
000002d0: 21f8 00be 64dc 1ebe b4eb 6e3d bfbe 783d
000002e0: c4f5 d73c 52ff 063c a12e 9dbd 6372 c63d
000002f0: e467 2abd 1f3c 13bd de75 74bd 104b 01bc
00000300: 64e5 e83c f22f 383d d49d 40bd 14fd d83d
00000310: d3e0 863c dc33 043e 3dc2 f93d 2ad9 083e
00000320: 0cd1 243e 3e71 3ebd b094 91bd 7af2 fe3d
00000330: f79d 58bd 4e8b d1bc d7be 673d 1649 a33d
00000340: d1cb dfbd 7fee 373d a075 09be ee82 22be
00000350: 68f6 3a3e 49a1 76bd 4c2b 4c3e 224a b0bd
00000360: 4d42 033c 8651 bdbd f937 9dbd 80df cf3b
00000370: 117b de3d 255a ca3d c889 253e f50d 1ebb
00000380: 071e 1c3e 1ef8 ac3d a9a7 6abd 8911 bf3d
00000390: 11b3 1d3e cd9d 723d 63ee 973c d8ea 163e
000003a0: 47a6 9d3d 9105 283d a212 593d 0d8e 993d
000003b0: 4406 0b3e 09ed a03d ca85 d13d c9ac e8bc
000003c0: d805 83bd 7c25 2a3e 2f43 303e a4c8 a3bd
000003d0: 224a cdbc 0259 b0bd b3e3 4fbe b845 3d3d
000003e0: 32ae 973d af8b 283e 8407 23be 240e f13c
000003f0: e773 863c 894f 14be 8076 c83d 4208 9ebd
