torch-rl/storage/bak/SimpleCorridor_10M_2/status.pt (torch, 650065 bytes, 51 tensors)

image_conv.0.weight f4 [16, 3, 2, 2]
0	0x3f013e0b	0.50485295
1	0xbe9461c5	-0.28980842
2	0xbd0bdf21	-0.03414834
3	0x3d2b8dc2	0.041883238
4	0xbd4dabfd	-0.05021285
5	0x3dbfdf83	0.09368803
6	0xbcfa37f4	-0.030544259
7	0x3cbc8f3c	0.023017518
8	0x3d246020	0.040130734
9	0xbd10c790	-0.035346568
10	0x3da3fa44	0.08006719
11	0x3c695280	0.014240861
12	0xbc575f7b	-0.013145323
13	0xbe098cd8	-0.13432634
14	0xbe17c6e2	-0.14821962
15	0xbe5072c7	-0.20356284
16	0x3d9e68f9	0.07734866
17	0x3d840273	0.0644578
18	0x3ddfd66a	0.10929568
19	0xbc25f8df	-0.010130136
20	0xbddc2b48	-0.10750443
21	0xbe328872	-0.17434862
22	0xbd4630e4	-0.04838647
23	0xbdff02f2	-0.12451734
24	0xbddbd38f	-0.10733711
25	0x3d3ceb62	0.046122916
26	0x3947fc5a	0.00019072127
27	0x3d8bab6c	0.068198055
28	0xbeaee594	-0.3415953
29	0x3e3fefc1	0.18743803
30	0xbd5fa6c3	-0.054602396
31	0x3e1a0ef5	0.15044768
32	0x3e431daa	0.19054285
33	0xbe86aaec	-0.26302278
34	0xbe8c87f4	-0.27447474
35	0xbe0e9438	-0.13923728
36	0x3e98ff8a	0.2988246
37	0xbdba9161	-0.0910976
38	0x3df71771	0.12065018
39	0xbe6fd232	-0.23420027
40	0x3e791f31	0.24328305
41	0xbeaf8340	-0.34279823
42	0x3e441d90	0.19151902
43	0xbe166f69	-0.14690937
44	0xbe1bba9f	-0.15207909
45	0x3e17f1ca	0.14838329
46	0xbe1ce986	-0.15323457
47	0x3dade06c	0.08490071
48	0xbe4928ec	-0.19644517
49	0x3e1867bd	0.14883323
50	0xbee42638	-0.4456041
51	0xbeab8acd	-0.33504334
52	0x3df67702	0.12034418
53	0xbcc341e0	-0.023835123
54	0x3e01e638	0.12685478
55	0x3db6160b	0.08890923
56	0xbc5d75a0	-0.0135168135
57	0xbe454f6b	-0.19268577
58	0x3e3402e2	0.17579225
59	0x3db77c34	0.08959237
60	0xbea4ecea	-0.32212
61	0x3d959217	0.07303255
62	0x3ea60d9f	0.32432267
63	0x3eaa088b	0.33209643
64	0xbda22d0b	-0.079187475
65	0xbd2355cc	-0.039876744
66	0xbc3d60f2	-0.011558758
67	0xbe3d3422	-0.18476918
68	0xbe6056ba	-0.21908084
69	0xbe51c449	-0.20485033
70	0x3e20cf40	0.1570406
71	0xbd8aa21a	-0.067692
72	0x3da1c830	0.07899511
73	0xbe1f7663	-0.15572505
74	0x3df0b040	0.11752367
75	0xbd80a408	-0.062812865
76	0xbe19d967	-0.15024339
77	0xbd25bdbf	-0.04046416
78	0xbea4527a	-0.32094175
79	0x3d1fdbaf	0.039027866
80	0xbe4fd877	-0.20297419
81	0xbe5f090e	-0.21780798
82	0x3c8fd0c0	0.017555594
83	0xbd497de0	-0.04919231
84	0x3e26ec10	0.16300988
85	0xbe5afee4	-0.21386296
86	0xbebc806b	-0.36816725
87	0x3ea8e727	0.32988855
88	0xbda823e8	-0.082099736
89	0x3e023969	0.12717213
90	0x3de02609	0.10944755
91	0xbe644f81	-0.22295953
92	0x3d6d8b78	0.057994336
93	0x3d8e017c	0.06933877
94	0xbe45ec7c	-0.19328493
95	0xbe0c416e	-0.13696834
96	0x3d06a514	0.032872275
97	0xbe019150	-0.12653089
98	0xbe211ebb	-0.15734379
99	0xbe313b91	-0.17307879
100	0x3e5486b6	0.20754513
101	0xbe47715c	-0.19476837
102	0x3de381cc	0.11108741
103	0x3c28c9c6	0.010302013
104	0xbe3f1482	-0.18660167
105	0xbe7b63ca	-0.24549785
106	0x3e8ddf86	0.27709597
107	0x3c76f7a0	0.015073687
108	0x3e487348	0.19575226
109	0x3cb3b307	0.021935953
110	0xbe2ce099	-0.16882552
111	0x3eb401cb	0.35157618
112	0x3e37b2ee	0.1793935
113	0xbe251e9d	-0.1612496
114	0xbe0fb4a7	-0.14033757
115	0x3e02322e	0.12714455
116	0x3e56253a	0.20912638
117	0x3e37a3e2	0.1793361
118	0xbe55ef08	-0.20891964
119	0xbe54dd7e	-0.20787618
120	0xbe8cab95	-0.27474657
121	0xbd653bca	-0.055965222
122	0x3f0faee6	0.5612625
123	0xbea0db4a	-0.31417304
124	0x3d73b931	0.059502784
125	0xbdeb2f11	-0.114835866
126	0xbe2198aa	-0.15780893
127	0x3ce18586	0.02752949
128	0x3e2a516c	0.16632622
129	0x3e893722	0.26799875
130	0xbe3794c6	-0.17927846
131	0x3d804c68	0.06264573
132	0x3d8b1af0	0.06792247
133	0x3de292ff	0.110631935
134	0x3ea80b11	0.32820943
135	0x3eaac563	0.3335372
136	0xba83896c	-0.0010035462
137	0xbd828957	-0.06373852
138	0xbe1e367f	-0.15450476
139	0xbdd0cf12	-0.101957455
140	0xbe077398	-0.1322769
141	0xbd09afe8	-0.033615023
142	0xbe3530d3	-0.17694406
143	0x3dd84b8c	0.105612844
144	0x3d95a13c	0.07306144
145	0xbe84e819	-0.25958326
146	0x3e521d12	0.20518902
147	0xbd3c16c7	-0.04592016
148	0x3c0f8342	0.008759322
149	0x3d6d96c0	0.058005095
150	0xbe694b11	-0.22782542
151	0x3e1c44b1	0.15260579
152	0xbd08b238	-0.033373088
153	0xbc227e00	-0.009917736
154	0xbe8b81ce	-0.2724747
155	0xbe3e414e	-0.185796
156	0xbef340bb	-0.47510323
157	0xbf08b47e	-0.5340041
158	0x3e2be43c	0.16786283
159	0xbe1295df	-0.14314984
160	0xbe42d16d	-0.19025202
161	0xbd8f145b	-0.069863044
162	0x3d4593af	0.048236545
163	0x3e145f82	0.14489558
164	0xbe18f76c	-0.14938134
165	0x3d802eb8	0.06258911
166	0xbdd73aaa	-0.10509236
167	0xbd84d446	-0.064858004
168	0xbed8329c	-0.42226112
169	0xbee46638	-0.44609237
170	0xbe264c27	-0.16239987
171	0xbcca0bc7	-0.024663819
172	0x3e13bc38	0.14427269
173	0xbe01245b	-0.12611525
174	0x3e53441e	0.20631453
175	0x3e343414	0.17597991
176	0x3e499d8c	0.19689006
177	0x3c169be0	0.009192437
178	0xbe4c7ef0	-0.19970298
179	0x3e670450	0.22560239
180	0x3d347b2e	0.044062786
181	0x3db2a3cc	0.08722648
182	0xbeb380dc	-0.3505925
183	0xbe5748cd	-0.21023865
184	0xbd40b8f3	-0.04705138
185	0x3eb99e8f	0.36253783
186	0xbe7f8e28	-0.24956572
187	0xbeb96d97	-0.36216423
188	0xbc209a00	-0.009802341
189	0xbe1fd659	-0.15609111
190	0x3dd38a68	0.10329133
191	0xbde39212	-0.11111845

image_conv.0.bias f4 [16]
0	0xbe62f697	-0.22164379
1	0xbd4070db	-0.046982627
2	0x3ce893c8	0.02839078
3	0xbe8d3e0d	-0.27586403
4	0x3d38d700	0.045126915
5	0xbde70943	-0.112810634
6	0x3e95dabb	0.2926844
7	0xbe86a086	-0.26294345
8	0xbc0dd590	-0.008656874
9	0xbedbaebf	-0.42906758
10	0x3d41efd5	0.047347862
11	0xbe957ac4	-0.29195225
12	0xbd54f4c4	-0.05199124
13	0xbd13ee33	-0.036115836
14	0xbe11567b	-0.14193146
15	0x3d55fe6c	0.05224459

image_conv.3.weight f4 [32, 16, 2, 2]
0	0x3bee6eb3	0.00727638
1	0x3e9655f3	0.2936245
2	0xbdf21968	-0.11821252
3	0x3bb504dc	0.005524261
4	0xbe83c007	-0.25732443
5	0xbd3cbb0f	-0.04607683
6	0xbc1af078	-0.009456746
7	0x3dc118e0	0.09428573
8	0x3da34318	0.079717815
9	0xbe3bb56d	-0.18330927
10	0xbd15a394	-0.036532953
11	0x3d2e15f8	0.04250142
12	0xbe0d2183	-0.13782315
13	0x3d672459	0.05643115
14	0xbe2f56d0	-0.1712296
15	0xbd5f46cd	-0.05451088
16	0xba26624f	-0.00063470466
17	0xbae48715	-0.0017435277
18	0xbdfd8397	-0.123786144
19	0x3d76906b	0.06019632
20	0xbc6a7545	-0.014310186
21	0x3e328e79	0.17437162
22	0xbe0ea11e	-0.13928649
23	0xbe37493c	-0.1789903
24	0x3d085822	0.033287175
25	0xbd367aad	-0.044550586
26	0xbdfbc46e	-0.12293325
27	0xbd90dd57	-0.07073467
28	0xbe8d09c8	-0.27546525
29	0x3e9bb3cc	0.30410612
30	0x3d42bac1	0.047541384
31	0xbe3f96d5	-0.18709882
32	0xbd956197	-0.072940044
33	0xbe016834	-0.12637407
34	0xbb8cb3fd	-0.004293917
35	0x3d356511	0.044285838
36	0xbdb91675	-0.090374865
37	0x3d80898e	0.062762365
38	0xbe64ec65	-0.22355802
39	0xbdf77dcd	-0.120845415
40	0xbe0db45e	-0.13838336
41	0x3e99144c	0.29898298
42	0xbc55efc4	-0.013057653
43	0xbe765dfd	-0.24059291
44	0xbe35babd	-0.17747016
45	0x3dbd3e51	0.092404015
46	0xbe2e2058	-0.17004526
47	0xbdd1ca4d	-0.10243664
48	0x3d742c1b	0.059612375
49	0x3df1ac5a	0.118004516
50	0x3cf17649	0.029475348
51	0xbd2f4d67	-0.042798426
52	0x3d429e09	0.047513995
53	0x3e01928a	0.12653556
54	0xbd35fcc0	-0.044430494
55	0x3e6ed418	0.23323095
56	0xbb01d3d3	-0.0019810095
57	0xbe20e529	-0.15712418
58	0x3d1762d8	0.0369595
59	0x3d9e9e92	0.07745089
60	0xbe251966	-0.1612297
61	0xbead2702	-0.33818823
62	0x3d01317d	0.031541336
63	0xbd1049db	-0.035226684
64	0x3ecb4190	0.39698458
65	0x3ea7bd36	0.32761544
66	0xbe1b6a4b	-0.15177266
67	0xbdb8e6a9	-0.0902837
68	0xbda6f915	-0.081529774
69	0xbdd8423b	-0.105595075
70	0xbdb1b93a	-0.08677907
71	0x3bc8456c	0.0061117914
72	0x3c9d29b8	0.019184932
73	0xbc860677	-0.016360505
74	0x3e1c3744	0.15255457
75	0x3d314430	0.04327792
76	0x3d306876	0.04306837
77	0xbdae066c	-0.084973186
78	0xbd2bc056	-0.041931473
79	0x3e322971	0.17398621
80	0xbd44319e	-0.04789888
81	0x3c613be7	0.013747192
82	0xbc24267c	-0.010018941
83	0xbde40c4d	-0.11135159
84	0x3e42d38b	0.1902601
85	0x3e6679e0	0.22507429
86	0xbca6a527	-0.020342423
87	0x3a14a7f3	0.00056707783
88	0x3c35440b	0.011063586
89	0xbc5acab7	-0.013353995
90	0xbe13723f	-0.1439905
91	0xbe04731c	-0.12934536
92	0x3de305a0	0.11085057
93	0x3e5126d2	0.20424965
94	0xbc558192	-0.01303138
95	0xbd866de5	-0.065639295
96	0xbdc68994	-0.0969421
97	0xbdbf720a	-0.09347923
98	0xbd726c4f	-0.059185322
99	0x3e14fef2	0.14550379
100	0x3e5e4b4e	0.21708414
101	0x3e7ae577	0.24501596
102	0xbd978206	-0.07397847
103	0x3dcb5372	0.09928025
104	0x3d88344a	0.06650598
105	0x3e710f8f	0.23541091
106	0xbcdfa8b2	-0.02730212
107	0xbe30f120	-0.17279482
108	0xbae3452b	-0.0017339339
109	0x3e31e99c	0.17374271
110	0x3df5a1a1	0.11993719
111	0x3e026d07	0.12736903
112	0x3db442da	0.088018134
113	0x3d250956	0.040292107
114	0xbc073b46	-0.008253878
115	0x3d33edb9	0.043927882
116	0x3e21290e	0.15738317
117	0x3ce7fede	0.028319772
118	0x3e048f4f	0.12945293
119	0x3ebad997	0.36494133
120	0xbd6be0c5	-0.057587404
121	0x3bb5df31	0.005550288
122	0x3e4ca93b	0.19986431
123	0x3e7e0d2e	0.24809715
124	0x3c7fb05c	0.015606012
125	0xbe23db43	-0.1600161
126	0x3d06a011	0.032867495
127	0xbe159f57	-0.14611565
128	0x3e388297	0.18018566
129	0x3e09600f	0.1341555
130	0x3ea3558c	0.31901205
131	0x3e0ecd68	0.13945544
132	0xbdaf82f2	-0.08569898
133	0xbdc8864e	-0.097912416
134	0xbeaa3678	-0.3324468
135	0x3bbc9397	0.005754899
136	0xbcf2412a	-0.029572088
137	0xbd0180b9	-0.0316169
138	0xbe0c835b	-0.13721983
139	0xbe65c1ca	-0.22437206
140	0xbdd5781a	-0.10423298
141	0x3a08a9b8	0.00052132783
142	0x3e13f206	0.14447793
143	0x3d00c928	0.031441838
144	0xbd9ae1a5	-0.075625695
145	0x3d1c1380	0.038104534
146	0xbdd7914b	-0.10525759
147	0xbc98eaad	-0.01866659
148	0x3e8224f9	0.25418833
149	0x3da09282	0.07840444
150	0x3e2047e4	0.15652424
151	0xbdcb1f96	-0.09918134
152	0xbdb044d6	-0.086068794
153	0xbe50cf45	-0.20391567
154	0x3daa952e	0.08329235
155	0xbd6201de	-0.055177562
156	0x3e038d9c	0.12846988
157	0x3e37fcb5	0.17967494
158	0xbd2a1d3b	-0.041531783
159	0xbdcce17a	-0.10003944
160	0xbe0164a0	-0.12636042
161	0x3cafc509	0.021456258
162	0xbe5a8e64	-0.2134338
163	0x3d0e12f4	0.034686044
164	0x3daf1613	0.08549132
165	0x3b2c5e42	0.00263013
166	0x3dbac69e	0.091199145
167	0x3dd6d3f9	0.10489649
168	0x3e591961	0.21201088
169	0x3ec3876d	0.3818926
170	0x3e37f338	0.17963874
171	0xbd15080e	-0.036384635
172	0x3c964e97	0.018348021
173	0xbddb3d49	-0.107050486
174	0x3e3295be	0.17439935
175	0xbd9ef45b	-0.07761451
176	0xbcfd7fb3	-0.03094468
177	0x3e27fe0a	0.16405502
178	0x3d7cc8b9	0.06171486
179	0xbd019d81	-0.031644348
180	0x3e04ae18	0.12957036
181	0xbcef71cd	-0.02922907
182	0xbdb73bd6	-0.0894696
183	0xbc267bd4	-0.010161359
184	0x3d8d6001	0.06903077
185	0xbdbef73d	-0.09324501
186	0xbe282a5e	-0.16422412
187	0xbdeb8c58	-0.11501378
188	0xbe0b866d	-0.13625498
189	0xbd9f8eeb	-0.07790931
190	0x3d4354c9	0.04768828
191	0xbd3518c1	-0.04421306
192	0x3d3f8f46	0.046767496
193	0x3ea361bf	0.31910512
194	0xbd778a1c	-0.060434446
195	0xbeaf824d	-0.342791
196	0x3d5fffb0	0.054687202
197	0xbded6de0	-0.115932226
198	0xbd43c951	-0.047799412
199	0xbd7f7428	-0.062366635
200	0x3d722e75	0.059126336
201	0x3ca1f4c0	0.019770026
202	0xbdc41415	-0.09574143
203	0x3e03de28	0.12877715
204	0x3d56ab1a	0.05240927
205	0xbbf43982	-0.0074531445
206	0x3c947080	0.01812005
207	0x3e032721	0.12807895
208	0xbdbc3a05	-0.09190754
209	0x3e1013be	0.14070031
210	0xbd93686c	-0.07197651
211	0xbe19b078	-0.15008724
212	0xbdb5720f	-0.088596456
213	0x3dca0987	0.098650984
214	0x3e1a6988	0.1507932
215	0x3e5cc8a1	0.21560909
216	0xbdf24c30	-0.11830938
217	0x3b037c83	0.0020063228
218	0xbd4e8fdf	-0.050430175
219	0xbdf91bcd	-0.12163506
220	0x3cfe90ca	0.0310749
221	0x3daebb7a	0.08531852
222	0x3d240904	0.04004766
223	0xbdd58528	-0.10425788
224	0x3c2f2414	0.010689754
225	0x3dcc9332	0.09989013
226	0x3cbb160a	0.022837657
227	0xbd8c8a3b	-0.06862303
228	0xbd49c1f9	-0.049257252
229	0x3e0f0aec	0.1396901
230	0xbd290e43	-0.041273367
231	0x3e4b88cb	0.19876401
232	0xbe1c379a	-0.15255585
233	0x3e3fe745	0.18740566
234	0xbdfd953b	-0.12381979
235	0x3e6431bf	0.22284602
236	0x3cd6ac9c	0.026205353
237	0x3d7913b7	0.060809817
238	0x3d265c86	0.04061558
239	0x3db21b58	0.08696622
240	0xbdfe39dd	-0.1241338
241	0xbddd6fe3	-0.10812356
242	0xbd9b99e9	-0.075977154
243	0x3e006d34	0.12541658
244	0x3e942877	0.28937122
245	0xbd33045c	-0.04370533
246	0x3ed8ae30	0.42320395
247	0x3e922cf5	0.28549924
248	0x3da748d2	0.08168186
249	0xbd0211d6	-0.03175529
250	0x3e8a044e	0.2695641
251	0x3d9a1dd0	0.075252175
252	0x3d5f0836	0.05445119
253	0xbdb7a4b8	-0.089669645
254	0x3d8ed27c	0.069737405
255	0xbe44dca7	-0.19224797

image_conv.3.bias f4 [32]
0	0xbdde3451	-0.10849822
1	0xbd9fb9a8	-0.07799083
2	0xbd1831f5	-0.037157018
3	0xbde03bc3	-0.10948899
4	0xbc298ff9	-0.010349267
5	0xbc8ba51f	-0.01704651
6	0xbd8490a9	-0.06472904
7	0xbd1e75a7	-0.03868642
8	0xbc20160d	-0.009770882
9	0x3dd4cc56	0.103905365
10	0x3dc030d4	0.09384313
11	0xbd9c855d	-0.076426245
12	0xbdcf9f38	-0.101377904
13	0xbd93e1be	-0.07220791
14	0xbb2333da	-0.0024902732
15	0xbc31c584	-0.010850314
16	0x3e44c673	0.19216327
17	0x3d2bfc5a	0.041988708
18	0xbc7642cc	-0.015030574
19	0xbcb1c6d4	-0.021701254
20	0xbde66800	-0.11250305
21	0x3d86e4b9	0.06586594
22	0xbdc9c1e8	-0.09851438
23	0xbd4b6a40	-0.049661875
24	0xbe023469	-0.12715305
25	0xbd2553f6	-0.040363275
26	0xbdd7f6c4	-0.10545114
27	0xbd849be2	-0.06475045
28	0xbe039227	-0.12848721
29	0xbae0cc19	-0.001715067
30	0xbdedd11e	-0.116121516
31	0x3d8458ec	0.06462273

image_conv.5.weight f4 [64, 32, 2, 2]
0	0x3d4f3c12	0.050594397
1	0xbd83216c	-0.06402859
2	0xbd960796	-0.07325666
3	0xbc67c72c	-0.014146607
4	0xbd5083b2	-0.050906844
5	0x3baf7da1	0.0053555523
6	0xbd5cf87b	-0.053947907
7	0xbcad021a	-0.021119166
8	0xbd56f673	-0.052481126
9	0x3ce7bf85	0.028289566
10	0x3cebb117	0.028770966
11	0xbdc7593f	-0.09733819
12	0x3c4e00c6	0.012573427
13	0xbd021edd	-0.031767715
14	0x3d5cc34c	0.053897187
15	0xbddb8380	-0.10718441
16	0xbcb109c0	-0.021611094
17	0x3d17d3ba	0.037067153
18	0x3d2bbed3	0.04193003
19	0xbc81ef26	-0.015861105
20	0xbd419840	-0.047264338
21	0xbd8bed63	-0.06832387
22	0xbd872121	-0.06598116
23	0x3d91c00d	0.07116709
24	0xbdc25a96	-0.09489934
25	0xbd1ef2df	-0.03880584
26	0x3cf46767	0.029834462
27	0x3d1f4e7a	0.0388932
28	0xbda26207	-0.079288535
29	0x3c8f8e80	0.017524004
30	0x3c2f1358	0.010685764
31	0x3da623db	0.08112308
32	0xbbcd78e9	-0.006270517
33	0x3cfd8f6f	0.030952184
34	0xbc54e95c	-0.01299509
35	0x3d92d82b	0.07170137
36	0xbc40c523	-0.011765751
37	0xbd6b5117	-0.05745038
38	0x3c97c6be	0.018527385
39	0xbd2a7bce	-0.041621976
40	0x3ac510df	0.0015034935
41	0x3d8073c1	0.06272078
42	0xbd9de781	-0.077101715
43	0xbd41cac8	-0.047312528
44	0x3bc2fe7f	0.0059507485
45	0xba00c977	-0.0004912833
46	0xbd2e59e7	-0.042566206
47	0x3d8b8273	0.068119906
48	0x3d1aef18	0.037825674
49	0xbcf3eb01	-0.029775145
50	0x3c8f7a06	0.01751424
51	0xbc7a85d8	-0.0152907
52	0xbda317ee	-0.079635486
53	0x3cd24c24	0.025671072
54	0xbda7856c	-0.08179745
55	0x3a52d5b2	0.00080427073
56	0x3d438b82	0.047740467
57	0xbda5e9db	-0.08101245
58	0xbc3c00f8	-0.01147484
59	0x3da52453	0.08063569
60	0x3b01ef2b	0.0019826393
61	0xbd8cc4ac	-0.0687345
62	0xbc4f0200	-0.012634754
63	0xbdd89924	-0.10576084
64	0xbd252fb6	-0.040328704
65	0x3d68ef3e	0.056868784
66	0x3d468992	0.04847104
67	0xbd369347	-0.04457405
68	0x3bd697de	0.0065488657
69	0xbcd2cbbd	-0.025731916
70	0xbd5d6606	-0.054052375
71	0xbc452707	-0.012033231
72	0xbdc164b5	-0.094430365
73	0x3ca34967	0.019932462
74	0x3ca829a0	0.02052766
75	0xbd32f9f1	-0.043695394
76	0xbd84ccc6	-0.0648437
77	0xbdc40eae	-0.095731124
78	0xbcde27b2	-0.027118538
79	0xbac5f20a	-0.001510204
80	0x3d88f1d2	0.066867486
81	0xbdbf66d7	-0.09345787
82	0xbdd65103	-0.104646705
83	0xbc82b96c	-0.015957557
84	0x3d5f41a9	0.054505978
85	0xbd0446a5	-0.032293934
86	0xbc5696e8	-0.013097502
87	0xbce216b6	-0.02759872
88	0xbd26535f	-0.040606853
89	0x3cfc573d	0.030803317
90	0x3d57cb75	0.052684266
91	0xbd8b6c28	-0.068077385
92	0xbd58d0d2	-0.05293352
93	0xbd8cc1b8	-0.068728864
94	0xbcb017b0	-0.02149567
95	0xbb027e60	-0.001991175
96	0x3d517fbc	0.051147208
97	0xbdab0ae4	-0.083516866
98	0x3d578949	0.05262116
99	0xbd94db3c	-0.07268378
100	0x3c1ea4d4	0.009682853
101	0xbca4a34e	-0.020097401
102	0x3d3a460c	0.04547696
103	0xbd9d4678	-0.076794565
104	0xbdbf5f4a	-0.09344347
105	0x397c64e7	0.00024070182
106	0x3c88d910	0.016705066
107	0xbd3e05ef	-0.046392377
108	0x3c9b063d	0.018923873
109	0xbcc40d43	-0.023932105
110	0xbdb22502	-0.08698465
111	0x3a4db793	0.0007847484
112	0xbd58f828	-0.052971035
113	0x3d3325ea	0.04373733
114	0x3cc6aa6c	0.024251185
115	0x3d08a8ae	0.03336399
116	0x3d4047c6	0.04694345
117	0xbd9fd730	-0.07804716
118	0xbde76541	-0.112986095
119	0xbc812c69	-0.015768247
120	0x3cc4f278	0.0240414
121	0xbd8f11a9	-0.0698579
122	0x3d8d8b25	0.06911305
123	0xbc5de4de	-0.013543336
124	0xbd9df2c9	-0.07712323
125	0x3d21a3cd	0.039462853
126	0x3d166589	0.036717925
127	0xbcde8e7d	-0.027167553
128	0xbd428718	-0.047492117
129	0x3d22a366	0.03970661
130	0xbdebbbef	-0.11510455
131	0xbd928ae4	-0.071553975
132	0xbc4aaec8	-0.012370773
133	0xbb6d3e55	-0.0036200483
134	0xbe67aa19	-0.22623481
135	0xbda5035a	-0.0805728
136	0xbdc43d9d	-0.09582064
137	0x3cf18239	0.02948104
138	0x3d768126	0.06018176
139	0xbdba8eee	-0.09109293
140	0x3e4190d5	0.18902905
141	0x3d9131fe	0.070896134
142	0x3dede8b8	0.11616653
143	0xbe0188ff	-0.12649916
144	0x3d82365e	0.06358026
145	0x3d949059	0.07254095
146	0x3cd4411e	0.025909957
147	0xbd300aea	-0.04297916
148	0xbe40c43c	-0.18824857
149	0x3c3c51cc	0.011494111
150	0xbe1e3069	-0.15448155
151	0xbcf5a632	-0.029986475
152	0xbdad7a10	-0.08470547
153	0x3d37ffde	0.04492175
154	0x3d2819bc	0.041040167
155	0xbd836120	-0.064150095
156	0x3c8a2ae0	0.016866148
157	0x3d7a0d9e	0.061048143
158	0x3d3bbfd7	0.04583725
159	0xbd7d7802	-0.061882026
160	0x3da2fc27	0.079582505
161	0xbd834a03	-0.06410601
162	0x3cc31d89	0.023817794
163	0xbe084058	-0.13305795
164	0xbda016cd	-0.07816849
165	0xbd4b8d40	-0.049695253
166	0xbe1b92d4	-0.15192729
167	0x3da31498	0.07962912
168	0xbdab7209	-0.0837136
169	0xbe038b71	-0.12846161
170	0xbd6bc043	-0.057556402
171	0xbe2c9205	-0.16852577
172	0xbd36e6db	-0.044653755
173	0xbd7460d5	-0.05966266
174	0x3d1a5af2	0.03768439
175	0x3cfe4640	0.031039357
176	0xbe2e3c4c	-0.17015189
177	0x3c0145f4	0.007890213
178	0xbe5fe092	-0.2186301
179	0x3b9a8342	0.004715354
180	0xbd855920	-0.0651114
181	0xbdb663e2	-0.0890577
182	0xbe60ff93	-0.21972494
183	0xbe12a89b	-0.1432213
184	0xbe4c6e2c	-0.19963902
185	0xbd9ba1ff	-0.07599258
186	0xbe133f69	-0.14379658
187	0xbb9549f5	-0.0045559355
188	0xbdc925e3	-0.098216794
189	0xbe92a035	-0.28637853
190	0xbda72b2c	-0.08162531
191	0xbe326adc	-0.17423576
192	0xbde11f3d	-0.10992286
193	0x3da1ada8	0.078944504
194	0xbe386b7f	-0.18009757
195	0x3d2faecd	0.042891312
196	0xbdb6c638	-0.08924526
197	0xbcd594a4	-0.026071854
198	0xbdb2d568	-0.0873211
199	0xbde39bdd	-0.11113713
200	0x3bc9e7db	0.0061616725
201	0xbdb2fd7e	-0.08739756
202	0xbcacaa0c	-0.021077178
203	0x3cb59ab1	0.02216849
204	0xbc977226	-0.018487047
205	0xbdb334e5	-0.08750323
206	0x3daaf9da	0.08348437
207	0x3dc929ce	0.09822427
208	0xbc2f8629	-0.010713139
209	0xbd142a42	-0.036173113
210	0xbe127c44	-0.14305216
211	0xbdb20922	-0.08693148
212	0x3da80541	0.08204127
213	0x3d56b02a	0.052414097
214	0x3d7ae9e6	0.06125822
215	0xbd92c535	-0.071665205
216	0xbdacc983	-0.08436873
217	0xbd29770a	-0.04137329
218	0xbd88ed56	-0.06685893
219	0x3d00b96a	0.031426825
220	0xbe456a31	-0.1927879
221	0xbded7361	-0.115942724
222	0xbde233f1	-0.11045063
223	0x3c6835e3	0.014173004
224	0xbea83e95	-0.32860246
225	0x3de5e608	0.112255156
226	0xbd875c86	-0.06609444
227	0xbdd2eae0	-0.10298705
228	0x3e482916	0.19546923
229	0xbdcb704a	-0.09933527
230	0x3d44bc77	0.048031297
231	0xbe369f1e	-0.17834136
232	0xbe3004b2	-0.17189291
233	0x3c74126c	0.01489697
234	0xbe24ce8b	-0.16094415
235	0xbdf84f67	-0.1212452
236	0x3c53049a	0.012879515
237	0xbce60e6c	-0.028083049
238	0xbda209d0	-0.07912028
239	0xbe336fdc	-0.1752314
240	0xbd89ad83	-0.06722548
241	0x3c747e68	0.014922716
242	0xba8c2548	-0.0010692263
243	0xbd363ffd	-0.044494618
244	0xbda6ece5	-0.08150653
245	0xbd94e03a	-0.0726933
246	0xbd07adee	-0.033124857
247	0xbe728f60	-0.23687506
248	0xbd2145ca	-0.039373197
249	0xbc7e6950	-0.015528038
250	0xbc6dd8c8	-0.014517017
251	0xbd4b6107	-0.04965308
252	0x3de31fa9	0.11090023
253	0x3d40585f	0.046959277
254	0xbdba6499	-0.09101219
255	0x3bf34507	0.007424

image_conv.5.bias f4 [64]
0	0xbd0ed912	-0.034874983
1	0xbdaab2e0	-0.08334899
2	0x3c4af66b	0.012387852
3	0x3cb8a3ed	0.022539103
4	0xbd2cbdd6	-0.04217323
5	0xbd93dfd8	-0.07220429
6	0x3dd6a4d0	0.10480654
7	0xbd35c987	-0.044381645
8	0x3c1bfbf9	0.009520524
9	0xbd9d494c	-0.07679996
10	0xbd00f05f	-0.031479236
11	0x3e0eb4ec	0.13936204
12	0xbd80ec2c	-0.06295046
13	0xbdbd5d3e	-0.092463
14	0xbcba12cc	-0.022714041
15	0xbdba5dc2	-0.09099914
16	0xbc40c3eb	-0.0117654605
17	0xbc62b005	-0.013835912
18	0xbc8b1699	-0.016978549
19	0xbd54d175	-0.051957566
20	0xbd8c13e5	-0.06839732
21	0x3dc3504f	0.09536802
22	0xbddc68fc	-0.10762212
23	0xbd21a238	-0.039461344
24	0xbd610991	-0.054940764
25	0xbd607010	-0.05479437
26	0x3df933ea	0.12168105
27	0xbca16ca3	-0.019705122
28	0x3c17eddb	0.009273018
29	0xbe1bf145	-0.15228756
30	0xbb41378f	-0.0029482578
31	0xbd2540a9	-0.040344868
32	0xbd9eef18	-0.07760447
33	0xbe291c4c	-0.165147
34	0x3d2df380	0.042468548
35	0xbc0484e5	-0.008088325
36	0xbe0afd4c	-0.13573188
37	0xbe0650b8	-0.1311673
38	0xbb0b7488	-0.0021279175
39	0x3d6f73ac	0.058459923
40	0xbd2116f2	-0.039328523
41	0xbc62c709	-0.013841399
42	0xbddcea2b	-0.107868515
43	0xbd4e322e	-0.050340824
44	0xbcafcb7c	-0.021459334
45	0x3ce81a38	0.028332815
46	0x3d7573b1	0.059924785
47	0xbdc81ae7	-0.09770756
48	0xba565409	-0.00081759744
49	0xbd3b7db3	-0.045774173
50	0xbdb8599c	-0.09001467
51	0xbdbadb36	-0.091238424
52	0x3d083314	0.033251837
53	0x3ca9d11a	0.02072959
54	0xbe08fd96	-0.13377985
55	0x3cdc8cb9	0.02692257
56	0xbdd8f033	-0.10592689
57	0x3c5bea41	0.01342255
58	0xbd2ae331	-0.041720573
59	0xbd0e734e	-0.034777932
60	0xbd4dfba8	-0.050288826
61	0xbd2ad34d	-0.04170542
62	0x3d86b49d	0.06577418
63	0xbda1f3f4	-0.079078585

memory_rnn.weight_ih f4 [256, 64]
0	0xbd2135a8	-0.03935781
1	0xbdf9eab4	-0.12202969
2	0x3df7693e	0.1208062
3	0x3e75f5a9	0.24019493
4	0x3ca3b3d4	0.01998321
5	0xbd2eebe3	-0.042705428
6	0x3e291d62	0.16515115
7	0x3dd66c65	0.10469893
8	0x3dfbe7dd	0.12300084
9	0xbd2b2d14	-0.041791037
10	0x3c7077c9	0.0146769965
11	0x3b943cec	0.004523864
12	0xbd8c5f6e	-0.06854139
13	0x3dab42c3	0.08362343
14	0x3d2854bd	0.041096438
15	0xbd9f2d0b	-0.07772263
16	0xbe5552fe	-0.2083244
17	0x3dda68b9	0.106645055
18	0x3c938fce	0.018012907
19	0xbd01e749	-0.03171471
20	0xbd09748d	-0.033558417
21	0x3de2a75f	0.1106708
22	0xbe1b1635	-0.1514519
23	0xbd1347da	-0.035957195
24	0xbe06849a	-0.13136521
25	0x3c9e5524	0.019327708
26	0x3c8e2922	0.017353598
27	0xbe53da9b	-0.2068886
28	0x3dd8ef72	0.105925456
29	0xbdd9fef0	-0.106443286
30	0x3d789c42	0.060695894
31	0x3c50bd39	0.012740427
32	0x3d376676	0.04477545
33	0xbe1a330f	-0.1505854
34	0x3d79423c	0.06085418
35	0xbca43ff8	-0.020050034
36	0x3d0a8e97	0.03382739
37	0x3dc888fc	0.09791753
38	0x3e9306d9	0.28716162
39	0xbd54ac01	-0.05192185
40	0xbd26f31f	-0.040759202
41	0xbce3739c	-0.027765088
42	0x3c4e9c30	0.01261048
43	0xbe0e6c27	-0.13908444
44	0xbd1ee8a6	-0.03879609
45	0x3dfae9dd	0.12251637
46	0x3e477a64	0.19480282
47	0xbd099a04	-0.033594146
48	0x3d869e1a	0.06573124
49	0xbc466fb5	-0.012111594
50	0x3da93425	0.08261899
51	0xbe3a455d	-0.18190522
52	0x3d625574	0.055257276
53	0x3cb57465	0.022150228
54	0x3db0a1e7	0.086246304
55	0xbe3320bb	-0.17492954
56	0x3daa9330	0.08328855
57	0xbda8cc8e	-0.08242141
58	0x3d066ed5	0.03282054
59	0x3cf97aea	0.030454118
60	0xbd7bee88	-0.061506778
61	0xbdc1d1fc	-0.094638795
62	0xbdb64666	-0.08900146
63	0xbc9e8ce6	-0.019354295
64	0x3c82c249	0.015961783
65	0xbc5cc8f3	-0.013475644
66	0xbea7ec6f	-0.32797572
67	0x3e2900b2	0.16504171
68	0xbdb3a3ea	-0.087714985
69	0x3ee8086b	0.45318922
70	0xbe1ee2c8	-0.15516198
71	0x3e72f2cf	0.23725437
72	0x3ce925fe	0.028460499
73	0x3dcba3e1	0.09943367
74	0x3d00a05a	0.031402923
75	0xbd64e14d	-0.055878926
76	0x3de33620	0.11094308
77	0xbd2bbdac	-0.041928932
78	0x3dca8c69	0.09890062
79	0x3e9bcac1	0.30428126
80	0xbe0519a0	-0.12998056
81	0x3e92af17	0.28649208
82	0x3cc6099c	0.024174504
83	0xbc4d2e26	-0.01252321
84	0x3eaf9480	0.34292984
85	0xbcae6647	-0.021289004
86	0x3e300e5e	0.1719298
87	0xbdde293e	-0.1084771
88	0x3d27d7b0	0.04097718
89	0x3e2ff4a6	0.1718317
90	0xbe928490	-0.28616762
91	0x3eabf1e7	0.33582994
92	0xbdd9e1d8	-0.106387794
93	0xbd86a342	-0.06574108
94	0x3e16b080	0.14715767
95	0xbc4c0886	-0.012453204
96	0x3ea3ce5a	0.3199337
97	0xbe0fa49b	-0.14027636
98	0x3d6eba9d	0.058283437
99	0xbd5060d4	-0.050873592
100	0xbd806f55	-0.06271235
101	0x3e059307	0.13044368
102	0x3eb8b863	0.36078176
103	0x3e194f06	0.14971551
104	0x3dc93851	0.098251946
105	0xbd22218f	-0.039582785
106	0xbe9ea448	-0.30984712
107	0xbe483ef2	-0.19555262
108	0x3dc9ebb4	0.0985941
109	0x3e8c3208	0.2738192
110	0xbdbb1b96	-0.09136121
111	0x3e8b3e8c	0.27196157
112	0x3dcdb60e	0.1004449
113	0xbd350edb	-0.04420362
114	0x3dee9cd4	0.11651006
115	0x3e9516f7	0.29119083
116	0x3d97632e	0.07391964
117	0xbe03ddf7	-0.12877642
118	0x3e0843a2	0.1330705
119	0x3f01600c	0.5053718
120	0x3ebbe151	0.3669534
121	0xbd098990	-0.033578455
122	0xbd37eb99	-0.044902418
123	0xbdf713a4	-0.12064293
124	0x3dc0d457	0.094155006
125	0x3e9325b5	0.28739706
126	0xbd4c9a01	-0.049951557
127	0xbd9b6cba	-0.07589097
128	0x3db106ee	0.086439
129	0xbe321284	-0.17389876
130	0xbe6faa63	-0.23404841
131	0xbe1d7a51	-0.15378691
132	0x3dd2501a	0.102691844
133	0x3c1d9810	0.009618774
134	0x3e5e9141	0.21735097
135	0xbe816352	-0.25271088
136	0x3d2f2d66	0.042767905
137	0xbc6a7a9e	-0.014311461
138	0x3d76d64a	0.060262956
139	0x3d606e0a	0.05479244
140	0xbdded008	-0.108795226
141	0xbdfe33c3	-0.124122165
142	0x3c822ab0	0.015889496
143	0xbe94bc66	-0.29049987
144	0xbd57e100	-0.05270481
145	0xbeb9283c	-0.3616351
146	0xbd97e464	-0.07416609
147	0xbdd059dd	-0.1017339
148	0xbd53e6a6	-0.051733635
149	0x3e4f54bd	0.20247169
150	0xbe0e2869	-0.13882603
151	0x3dadeb81	0.084921844
152	0x3d05b7b6	0.032645904
153	0x3e890e35	0.26768652
154	0xbd8e940e	-0.06961833
155	0xbe12caa2	-0.14335111
156	0xbc946829	-0.018116074
157	0xbc91a9df	-0.017781196
158	0xbe17e318	-0.14832723
159	0x3c105044	0.008808199
160	0xbd3e9fb5	-0.046539027
161	0xbb47a2e5	-0.0030462083
162	0xbd92e0e4	-0.07171801
163	0x3e4a9235	0.19782336
164	0x3c111fe1	0.008857698
165	0xbd01a5c3	-0.031652223
166	0xbe8842e5	-0.26613536
167	0x3e90eda8	0.28306317
168	0x3d1f314c	0.038865373
169	0x3c6f5851	0.014608459
170	0x3e252507	0.16127406
171	0xbde3f44a	-0.11130579
172	0x3d5c3b6e	0.053767614
173	0x3e0b2eaf	0.13592027
174	0x3e908af5	0.28231016
175	0xbe3fe84a	-0.18740955
176	0x3ceb10c6	0.028694522
177	0xbdffc86f	-0.124894015
178	0x3d8fab9f	0.07015156
179	0xbd508e4a	-0.050916947
180	0x3d90fa7e	0.070790276
181	0x3d93957a	0.07206245
182	0xbe1165f2	-0.14199045
183	0xbe04124f	-0.12897609
184	0xbe3b2764	-0.18276745
185	0x3e00b305	0.1256829
186	0xbb9fbe29	-0.004874964
187	0xbde2566d	-0.11051641
188	0xba26dfcc	-0.0006365746
189	0x3dbb9c73	0.091607
190	0xbda1891b	-0.07887479
191	0x3c0403bf	0.008057534
192	0x3dbe0466	0.09278183
193	0x3c588596	0.013215443
194	0xbd8e416e	-0.069460735
195	0x3e93f602	0.28898627
196	0x3deecc25	0.11660031
197	0x3d93d843	0.07218983
198	0x3e574c3e	0.21025178
199	0x3ea5f3ea	0.32412654
200	0xbd4f433a	-0.05060122
201	0xbb0e0a04	-0.002167345
202	0x3de08542	0.10962917
203	0x3e32f5dc	0.174766
204	0xbd334810	-0.043769896
205	0x3d5dd43c	0.05415748
206	0x3deaf838	0.11473125
207	0xbdcf7451	-0.101296075
208	0x3e119b12	0.14219311
209	0x3d9cce3b	0.07656523
210	0x3c55b843	0.01304442
211	0x3e11dd3c	0.1424455
212	0x3ea041b9	0.31300142
213	0x3e1316c1	0.14364149
214	0x3df54d2e	0.119776115
215	0x3dbdb063	0.09262159
216	0xbd324bba	-0.04352925
217	0x3e53ceec	0.20684403
218	0xbd2c2f51	-0.042037312
219	0x3eaac7be	0.33355516
220	0xbd093308	-0.033495933
221	0xbe155f89	-0.14587225
222	0xbbfb4aa3	-0.0076688095
223	0xbdfd20e4	-0.12359789
224	0x3e69a9c1	0.22818662
225	0xbde18a5f	-0.1101272
226	0x3db0700a	0.0861512
227	0xbdacb3dd	-0.08432744
228	0xbd0b15d2	-0.033956356
229	0x3e97ef84	0.29674923
230	0x3eeedf20	0.46654606
231	0x3deffe80	0.11718464
232	0x3ce5414a	0.027985234
233	0x3dfa1022	0.12210108
234	0xbe33bf4a	-0.1755344
235	0x3db9a4ca	0.09064634
236	0xbda5d66a	-0.08097537
237	0x3d8f9b37	0.07012027
238	0x3e36c872	0.17849901
239	0x3e57d7b4	0.21078378
240	0x3d18617d	0.037202347
241	0xbc98e144	-0.018662103
242	0xbbfa21df	-0.0076334323
243	0x3e77d2c2	0.24201491
244	0xbc528799	-0.012849712
245	0x3c8e7368	0.017389014
246	0x3e8f5ffe	0.28002924
247	0x3e1e3673	0.15450458
248	0x3ea6f187	0.32606146
249	0x3d60946c	0.054829046
250	0x3dc99eb4	0.09844723
251	0xbe47ba72	-0.19504717
252	0x3d838711	0.06422246
253	0x3eb0ca9f	0.34529588
254	0x3dca299e	0.09871219
255	0xbde4d055	-0.11172549

memory_rnn.weight_hh f4 [256, 64]
0	0xbf068d0b	-0.52558964
1	0x3e9e1ba6	0.3088047
2	0x3f278441	0.6543618
3	0x3f31ad1f	0.69404787
4	0x3ce22933	0.027607536
5	0xbd931376	-0.07181446
6	0xbeb7f840	-0.35931587
7	0xbe5dca85	-0.21659286
8	0xbf35398f	-0.7079095
9	0xbf1e3aa3	-0.6180822
10	0x3e005daf	0.12535737
11	0xbf07267c	-0.527931
12	0xbdc20aea	-0.09474738
13	0x3e8f92da	0.28041726
14	0x3b9f0082	0.0048523555
15	0x3e9ccf40	0.3062687
16	0xbe9d6157	-0.30738327
17	0xbe79aa9f	-0.24381493
18	0xbecaf37e	-0.39638895
19	0xbf3ad0cc	-0.7297485
20	0xbe5441f6	-0.20728287
21	0x3d311d71	0.04324097
22	0xbd50d160	-0.050980926
23	0x3e4dcd6f	0.20097898
24	0xbf2ce407	-0.6753544
25	0x3d912db6	0.07088797
26	0xbe6b515e	-0.22980258
27	0xbf25c5c4	-0.6475489
28	0x3ee6dd87	0.45090887
29	0x3e25494c	0.16141242
30	0x3e269160	0.16266394
31	0xbe780cb4	-0.24223596
32	0x3e8cd161	0.27503493
33	0xbd1fe910	-0.039040625
34	0x3decdc78	0.115654886
35	0xbe3ac502	-0.18239215
36	0xbec6704f	-0.3875756
37	0xbd605d26	-0.054776333
38	0xbe09f860	-0.13473654
39	0x3c6175a2	0.013760956
40	0x3e8184d4	0.25296652
41	0x3e1169aa	0.14200464
42	0x3e70bc57	0.23509346
43	0x3de37e61	0.11108089
44	0xbe8e6651	-0.27812436
45	0x3e91d8cb	0.28485712
46	0xbf069815	-0.5257581
47	0xbc19d90b	-0.009390126
48	0xbe5eb617	-0.2174915
49	0x3e5718fd	0.21005626
50	0xbd1ec34a	-0.03876046
51	0xbeef9fae	-0.46801513
52	0xbe61ddaf	-0.22057222
53	0x3e644f78	0.2229594
54	0xbe38e5fd	-0.18056484
55	0x3eb01752	0.34392792
56	0xbee332d1	-0.44374707
57	0x3e72cfb9	0.23712052
58	0xbd919781	-0.07108975
59	0xbd71fbbb	-0.05907796
60	0x3e9f0f3c	0.3106631
61	0x3e8ee771	0.2791095
62	0x3ef5e5ea	0.48026973
63	0x3e66f5fb	0.22554772
64	0xbe18768c	-0.14888972
65	0x3e37c707	0.17947017
66	0x3f08df83	0.5346605
67	0x3f04f27a	0.5193249
68	0x3d211eaa	0.039335884
69	0xbe322109	-0.17395414
70	0xbecfb154	-0.40564978
71	0xbe0c34ba	-0.13691989
72	0xbeec2fd9	-0.46130255
73	0xbef3313d	-0.47498503
74	0xbe1c8405	-0.15284736
75	0xbee96c1f	-0.45590302
76	0xbe9a4158	-0.30127978
77	0xbdf69649	-0.12040383
78	0xbddf61dc	-0.10907337
79	0xbdd32044	-0.103088886
80	0xbe172fc0	-0.14764309
81	0x3ecc5573	0.39908943
82	0xbe68226d	-0.22669382
83	0xbee7318e	-0.45154995
84	0xbd1a4fa5	-0.03767361
85	0x3e60f215	0.21967347
86	0xbe8355ef	-0.256515
87	0x3efeae27	0.49742243
88	0xbee7c34e	-0.45266193
89	0x3e18e582	0.149313
90	0xbd4c623c	-0.04989837
91	0xbf257065	-0.64624625
92	0x3e9267e1	0.28594878
93	0x3e08ef01	0.13372423
94	0xbe3e29da	-0.18570653
95	0xbdef1eec	-0.1167582
96	0x3c694fe0	0.014240235
97	0xbdc1682d	-0.09443698
98	0x3c887fdc	0.01666253
99	0xbe69ba0b	-0.22824876
100	0xbeb55e50	-0.35423517
101	0x3deeb886	0.11656289
102	0x3de4bcab	0.11168798
103	0xbe37f5fd	-0.17964931
104	0xbc3c80c7	-0.011505312
105	0x3dda8ecf	0.1067177
106	0x3ec63d68	0.38718724
107	0xbd375101	-0.044754986
108	0xbec84d46	-0.39121455
109	0x3df633e7	0.12021618
110	0xbf0e8569	-0.5567232
111	0x3e70954f	0.23494457
112	0xbf1f5b7b	-0.62248963
113	0xbce1dbce	-0.027570631
114	0x39d49428	0.00040546176
115	0xbe74494a	-0.23856083
116	0xbe5491b1	-0.20758702
117	0x3dcff930	0.101549506
118	0xbe408d2c	-0.18803853
119	0x3ea8d53d	0.32975188
120	0xbe9e610d	-0.3093342
121	0x3dbf7a7d	0.09349535
122	0x3ddba244	0.10724309
123	0xbdf5c050	-0.11999571
124	0x3ea7a97c	0.32746494
125	0x3d02082c	0.031746075
126	0x3eba1417	0.36343452
127	0x3e1f134a	0.15534702
128	0xbd0e5428	-0.034748226
129	0x3cb0476a	0.021518428
130	0x3e3d9421	0.18513538
131	0xbde28747	-0.11060958
132	0x3dbe9b13	0.09306922
133	0x3da0f4ea	0.07859214
134	0x3db81ab2	0.08989467
135	0x3d394aff	0.045237537
136	0xbddb28f9	-0.10701174
137	0xbdc0d276	-0.09415142
138	0xbe9f9088	-0.31164956
139	0x3d98d139	0.07461781
140	0x3db41ab7	0.08794158
141	0x3d8f1240	0.06985903
142	0x3d47a182	0.04873801
143	0xbd056708	-0.03256896
144	0xbdbc8a26	-0.09206037
145	0xbc4111aa	-0.011783997
146	0x39d28459	0.00040152928
147	0xbe256db4	-0.1615513
148	0xbdee4f02	-0.11636163
149	0x3e8b0e2e	0.27159256
150	0xbe832d12	-0.25620323
151	0xbde6d5a4	-0.112712175
152	0xbe49b5a7	-0.19698201
153	0xba504203	-0.0007944407
154	0xbe7a0bea	-0.24418607
155	0xbdec407d	-0.11535738
156	0x3e869444	0.26284993
157	0x3d0e7723	0.034781586
158	0x3d784820	0.06061566
159	0x3c8d49f7	0.017247183
160	0x3d5c8fc8	0.053848058
161	0xbc91c88c	-0.017795824
162	0x3d9d258a	0.07673176
163	0x3b6ec553	0.0036433532
164	0xbdf3758e	-0.11887656
165	0x3d5df23d	0.054186095
166	0xbc8f23eb	-0.017473182
167	0x3c88940b	0.016672155
168	0xbc986684	-0.01860357
169	0xbdc75b2c	-0.097341865
170	0xba773ca6	-0.00094313396
171	0xbdcf5ee2	-0.10125519
172	0xbcadcc36	-0.02121554
173	0x3e886801	0.2664185
174	0x3d9f3b48	0.07774979
175	0xbd632faa	-0.055465378
176	0xbd075980	-0.03304434
177	0x3e5b4c93	0.2141593
178	0x3dadd08d	0.084870435
179	0x3d5ee439	0.05441687
180	0xbc6d76ef	-0.014493688
181	0x3e19c5f8	0.15016925
182	0xbdff9581	-0.124796875
183	0x3e1fa2f2	0.15589502
184	0xbe31c647	-0.17360793
185	0xbd5188b1	-0.05115575
186	0xbdee369e	-0.11631511
187	0xbe086e5d	-0.1332335
188	0xbdd2c933	-0.10292282
189	0x3e39047d	0.18068118
190	0xbda859a2	-0.08220221
191	0xbcd38e81	-0.025824787
192	0x3e3520e1	0.17688324
193	0x3da568b5	0.08076612
194	0x3ea8a651	0.3293939
195	0x3e8e4bdc	0.2779225
196	0xbe2da311	-0.16956736
197	0xbe472c48	-0.19450486
198	0xbe8f1985	-0.27949157
199	0xbcb8f50e	-0.022577789
200	0xbe9c354b	-0.3050941
201	0xbecf6ec7	-0.40514204
202	0xbe637ed6	-0.22216353
203	0xbeaf8b35	-0.34285894
204	0xbda57cda	-0.08080454
205	0xbde1de2c	-0.11028704
206	0xbe74ee79	-0.23919095
207	0x3d92c4d3	0.071664475
208	0xbdc2db56	-0.09514491
209	0xbcf18daa	-0.029486496
210	0xbe556fd0	-0.20843434
211	0xbe6f7834	-0.23385698
212	0xbe20c77e	-0.157011
213	0x3ea0b591	0.31388524
214	0xbec14f5a	-0.37755853
215	0x3ece34eb	0.40274748
216	0xbf07e1e0	-0.5307903
217	0x3e4b5815	0.1985782
218	0xbda72f28	-0.08163291
219	0xbef99485	-0.48746124
220	0x3f0620fc	0.5239408
221	0x3d84b011	0.064788945
222	0x3e08ffb2	0.1337879
223	0x3e08189c	0.13290638
224	0x3eaf0459	0.34183004
225	0xbda4bc71	-0.08043755
226	0x3e0d8758	0.13821161
227	0xbd8aa83a	-0.06770368
228	0xbe566381	-0.20936395
229	0xbe804191	-0.25050023
230	0xbc8432a2	-0.016137425
231	0x3e8665da	0.26249582
232	0x3d15cfa0	0.03657496
233	0x3e507201	0.20355989
234	0x3eaf0ecf	0.34190986
235	0xbdfdf37d	-0.12399957
236	0xbeafbc32	-0.3432327
237	0x3e0f8730	0.14016414
238	0xbed968e6	-0.42462844
239	0x3d8148b4	0.06312695
240	0xbf062bde	-0.52410686
241	0xbd13fce0	-0.036129832
242	0xbe48d3e5	-0.19612081
243	0xbe99539d	-0.29946604
244	0xbd3b6ee5	-0.045760054
245	0xbe35809e	-0.17724845
246	0xbcd6bc37	-0.026212795
247	0x3ea98b06	0.3311388
248	0xbea78527	-0.32718775
249	0x3db6790d	0.08909807
250	0x3ccb01da	0.024781156
251	0x3cec691e	0.028858718
252	0xbdb10a54	-0.08644548
253	0x3e3ec086	0.1862813
254	0x3da7c042	0.08190967
255	0x3eb2ea9d	0.3494462

memory_rnn.bias_ih f4 [256]
0	0x3dfc4664	0.123181134
1	0xbe2d5aed	-0.16929217
2	0xbe893653	-0.2679926
3	0x3cf77e5e	0.030211624
4	0xbe183a21	-0.14865924
5	0xbd65e9a0	-0.056131005
6	0x3ceb267c	0.028704874
7	0x3e692b26	0.22770366
8	0xbde80bc2	-0.113303676
9	0xbd89f4ce	-0.06736146
10	0xbd125ebe	-0.035734884
11	0x3d0be6fe	0.03415584
12	0xbd9d0a05	-0.07667927
13	0xbd32f505	-0.0436907
14	0xbda138b5	-0.07872144
15	0xbe119979	-0.14218701
16	0xbdb7f7a7	-0.08982783
17	0xbe5c5e3e	-0.21520326
18	0xbe8fb0d2	-0.2806459
19	0xbe0b78c3	-0.13620286
20	0x3dd48216	0.103763744
21	0xbe2c693c	-0.16837019
22	0xbdbf19c4	-0.09331086
23	0xbd0ea171	-0.03482193
24	0xbcc15b99	-0.023603247
25	0xbeaa33de	-0.33242697
26	0x3d58655c	0.05283104
27	0xbc5d49f6	-0.013506403
28	0x3d73beae	0.05950802
29	0xbe466b5c	-0.19376892
30	0xbddc9de3	-0.10772302
31	0xbd481274	-0.048845723
32	0x3dc8d4f8	0.098062456
33	0xbcac4cf6	-0.021032792
34	0x3cd9ae4b	0.026572367
35	0x3a3c8930	0.00071920734
36	0x3d3e3c4e	0.04644423
37	0xbd47012b	-0.0485851
38	0xbdcb22fd	-0.09918783
39	0xbe171b27	-0.14756452
40	0xbd9d5f12	-0.07684149
41	0x3c7b68c0	0.015344799
42	0x3de035c1	0.10947753
43	0xbdc0ad3d	-0.094080426
44	0x3db5d92a	0.088793114
45	0xbe1fe343	-0.15614037
46	0xbbc0a83d	-0.0058794306
47	0x3df5e11d	0.120058276
48	0x3cc8f084	0.02452875
49	0xbdc37647	-0.09544044
50	0x3e3f60d2	0.18689278
51	0xbd6c92e4	-0.057757273
52	0xbddaf2c1	-0.10690833
53	0xbb48dba0	-0.0030648485
54	0x3e1bfe99	0.1523384
55	0x3d4ef804	0.050529495
56	0x3ce8168c	0.028331064
57	0xbe36c118	-0.17847097
58	0xbda44208	-0.08020407
59	0xbd677b77	-0.05651423
60	0xbe35ae9a	-0.17742386
61	0x3c5c42e7	0.013443685
62	0x3dc66065	0.096863545
63	0x3bedcc0f	0.0072569917
64	0x3bc53c8c	0.0060191806
65	0x3cf704f0	0.030153722
66	0xbcb3cd9c	-0.021948628
67	0xbd79e695	-0.061010916
68	0xbe19fa43	-0.15036874
69	0xbe5dc2ee	-0.21656391
70	0x3dee7925	0.116442
71	0xbe20fb8b	-0.15720956
72	0xbda07e95	-0.078366436
73	0x3c5b3c67	0.0133811
74	0xbe684458	-0.22682321
75	0xbd6f29a2	-0.058389314
76	0xbe075461	-0.13215782
77	0xbdfdb52f	-0.12388074
78	0xbe5b4fa1	-0.21417095
79	0xbeb01258	-0.34388995
80	0xbe8ec062	-0.2788115
81	0xbe0da698	-0.13833082
82	0xbd8cccfa	-0.06875034
83	0x3dc355d9	0.095378585
84	0xbe23b47b	-0.15986817
85	0xbeabad6b	-0.33530745
86	0xbe9da25e	-0.3078794
87	0x3e10afef	0.14129613
88	0xbe191792	-0.14950398
89	0xbea9e846	-0.33185023
90	0xbedc2c60	-0.43002605
91	0x3e344ad4	0.1760667
92	0xbeabc6cf	-0.33550116
93	0xbe7cd68e	-0.24691221
94	0xbe6dee73	-0.23235492
95	0xbc6d7b08	-0.014494665
96	0xbe8149fd	-0.2525176
97	0xbe74387b	-0.2384967
98	0xbe346c4c	-0.17619437
99	0xbe10215a	-0.14075223
100	0xbeb5b76e	-0.35491508
101	0xbe809d17	-0.2511985
102	0x3d4f3082	0.05058337
103	0xbecf594b	-0.40497813
104	0xbd504e85	-0.050856132
105	0xbe81480a	-0.25250274
106	0xbe4fd15a	-0.20294705
107	0xbe81cc41	-0.25351146
108	0xbc8a7b9a	-0.016904641
109	0xbdfb8bd9	-0.12282533
110	0x3ce1e31e	0.027574118
111	0xbeb8549d	-0.36002055
112	0xbe26af95	-0.16277917
113	0xbe660b29	-0.22465195
114	0xbdcbd58a	-0.09952839
115	0xbe61f4d6	-0.22066054
116	0xbe5626d2	-0.20913246
117	0xbe782902	-0.24234393
118	0xbd903c14	-0.07042709
119	0xbd8fbcab	-0.070184074
120	0xbea139ed	-0.31489506
121	0xbec16a92	-0.3777662
122	0xbe6864a0	-0.22694635
123	0xbe0ba74e	-0.1363804
124	0xbe2b9873	-0.16757374
125	0xbe665165	-0.22491987
126	0x3c46235b	0.01209339
127	0xbe6b98cc	-0.23007506
128	0x3dd519c5	0.10405306
129	0xbcf0ff58	-0.029418632
130	0x3c931d21	0.017958226
131	0x3d07acc0	0.03312373
132	0x3d3fbca2	0.046810754
133	0xbd8e92ae	-0.06961571
134	0x3d8752bd	0.06607578
135	0xbd2c9b3a	-0.042140223
136	0xbd297143	-0.04136778
137	0x3d7c2b3c	0.06156467
138	0xbce99e99	-0.028518008
139	0x3cc7a085	0.024368534
140	0xbaad9580	-0.0013243407
141	0x3c5334ba	0.012890989
142	0xbd92cecf	-0.07168352
143	0xbd72537f	-0.05916166
144	0x3dcfc3bf	0.101447575
145	0x3de93ac4	0.11388162
146	0xbc0a75c5	-0.00845093
147	0x3d4b7d89	0.049680267
148	0xbbe2f7c3	-0.006926508
149	0x3dd485a2	0.10377051
150	0xbcbce83a	-0.023059953
151	0x3d2dd2c8	0.042437345
152	0x3dc77737	0.09739535
153	0xbd86708d	-0.06564436
154	0x3d50998d	0.050927687
155	0x3c948c18	0.018133208
156	0xbd614f9b	-0.05500756
157	0xbd938cb2	-0.0720457
158	0x3dc3db91	0.09563363
159	0x3dd44d9b	0.103663646
160	0xbd59e8bb	-0.053200465
161	0xbda8212b	-0.08209451
162	0xbcc7b656	-0.024378937
163	0x3d32eb51	0.043681446
164	0xbbbbefc7	-0.005735371
165	0x3d53703e	0.051620714
166	0xb8a2c55e	-7.7615245e-05
167	0x3d9f1951	0.077685006
168	0x3ddd4bd5	0.108054794
169	0xbe03618d	-0.12830181
170	0xbd222d69	-0.039594088
171	0xbd97118a	-0.07376392
172	0xbd87f69f	-0.06638836
173	0xbe00f660	-0.12593985
174	0x3cc23bdc	0.023710184
175	0xbdb745c3	-0.08948853
176	0xbdc9d5b6	-0.09855215
177	0xbd16b6fa	-0.036795594
178	0xbd2a1a2e	-0.041528873
179	0x3ccd837c	0.02508711
180	0xbd844401	-0.06458283
181	0x3d2cfea2	0.042235024
182	0x3de1176b	0.10990795
183	0x3c66d446	0.014088696
184	0x3d44e04e	0.048065476
185	0xbe00525b	-0.12531416
186	0x3dbd47bf	0.092422
187	0x3d5b480d	0.05353551
188	0x3cab4ab2	0.020909641
189	0x3d8a26b2	0.06745662
190	0x3bfd7ef2	0.0077360803
191	0x3d3f71dc	0.046739444
192	0x3d29fb30	0.041499317
193	0x3c030ad4	0.007998187
194	0xbd914b15	-0.07094399
195	0xbd8e71fa	-0.06955333
196	0xbc8f0cd6	-0.017462175
197	0x3d4882b1	0.048952762
198	0x3c6d11f3	0.014469611
199	0x3e258b3e	0.16166398
200	0x3d7aaf50	0.061202347
201	0xbd1c76ba	-0.038199164
202	0xbdbc0491	-0.091805585
203	0x3dd4bf2a	0.10388024
204	0x3d2e457f	0.042546745
205	0xbde997fe	-0.11405943
206	0xbd87fa12	-0.06639494
207	0xbd3c40ca	-0.045960225
208	0x3d388e86	0.045057796
209	0xbe772cd9	-0.24138202
210	0xbe0b1a73	-0.13584308
211	0xbdd20fb1	-0.10256899
212	0x3dffbb38	0.12486881
213	0xbe109229	-0.14118256
214	0xbdda165b	-0.10648795
215	0x3d826795	0.06367413
216	0x3e0cef94	0.13763267
217	0xbec1f40c	-0.37881505
218	0x3db3ebe8	0.0878523
219	0xbc9f786e	-0.019466605
220	0xbdd67211	-0.10470975
221	0xbe8d0539	-0.27543047
222	0x3ca37dc0	0.019957423
223	0xbda83fde	-0.08215307
224	0xbcc77f92	-0.024352822
225	0xbdde5072	-0.108551875
226	0x3db1f326	0.08688955
227	0xbe10d024	-0.141419
228	0x3d31fc20	0.043453336
229	0xbe0f0926	-0.13968334
230	0x3dd5bed4	0.10436788
231	0xbd18d8df	-0.0373162
232	0xbe80c3e1	-0.25149444
233	0xbdb2af53	-0.08724847
234	0xbd045756	-0.032309853
235	0xbd0e56c2	-0.034750707
236	0x3dd1b8aa	0.102403
237	0xbd455da7	-0.048185017
238	0x3d36e192	0.044648714
239	0xbb92f865	-0.0044851773
240	0xbda9629c	-0.08270761
241	0xbe00240b	-0.1251375
242	0x3d8a2b64	0.06746557
243	0xbdaa4377	-0.08313649
244	0xbe26ffc2	-0.16308501
245	0x3d182b21	0.037150506
246	0xbe0a2b22	-0.13493016
247	0xbd88c28a	-0.066777304
248	0x3d7a9595	0.06117781
249	0xbecb95dd	-0.39762774
250	0xbe35db9e	-0.17759559
251	0xbe547c90	-0.20750642
252	0xbe63fdb0	-0.22264743
253	0x3d0c16ed	0.03420155
254	0xbcb9a52a	-0.022661764
255	0xbb8ebc24	-0.004355924

memory_rnn.bias_hh f4 [256]
0	0xbd1b6370	-0.037936628
1	0xbb5dad4a	-0.0033825212
2	0xbe3fb1fc	-0.1872024
3	0x3dda5445	0.106606044
4	0x3d5246da	0.0513371
5	0x3d17db3d	0.037074316
6	0xbc9a83f7	-0.018861754
7	0x3e16b68a	0.1471807
8	0xbd91cd94	-0.07119289
9	0xbc29acc5	-0.010356133
10	0xbd268bec	-0.040660784
11	0x3e46826f	0.19385694
12	0x3dc68b59	0.09694547
13	0xbbc2eada	-0.0059484066
14	0xbcc9cd16	-0.024633925
15	0xbe067311	-0.13129832
16	0x3cb0d692	0.02158669
17	0xbd94cb67	-0.072653584
18	0xbe386edd	-0.18011041
19	0xbe82c487	-0.25540563
20	0x3e331459	0.17488231
21	0x3c9b7634	0.018977262
22	0xbdf37d09	-0.11889083
23	0x3b7177c1	0.003684506
24	0x3e467987	0.19382297
25	0xbee7d1e4	-0.4527732
26	0x3db0d2ea	0.08633979
27	0x3dd725a2	0.10505225
28	0xbdcc7989	-0.099841185
29	0xbea4956e	-0.32145256
30	0x3da49c81	0.08037663
31	0xbcc0c851	-0.023533018
32	0x3e2567dc	0.161529
33	0xbe2246f0	-0.15847373
34	0xbddfa452	-0.109200135
35	0x3df9acf9	0.12191195
36	0xbb90cbce	-0.0044188267
37	0xbb7f5bf0	-0.003896471
38	0x3d1095e8	0.03529921
39	0xbe2e5c0f	-0.17027305
40	0xbddcb9fc	-0.10777661
41	0xbe37933e	-0.17927262
42	0x3d2e8a03	0.042612087
43	0xbdb190ab	-0.08670171
44	0x3d651ffb	0.055938702
45	0xbdb67d6b	-0.0891064
46	0x3cffc165	0.031220147
47	0x3b34561d	0.0027517148
48	0x3dcf94b6	0.10135786
49	0xbd8e813f	-0.069582455
50	0x3e0bffec	0.13671845
51	0xbe3ed5bc	-0.1863622
52	0xbe243f23	-0.1603971
53	0x3e75069f	0.23928307
54	0x3d912448	0.07086998
55	0xbcdc94de	-0.026926454
56	0x3d18a81e	0.037269704
57	0xbe31b0c6	-0.1735259
58	0xbe29f05a	-0.16595593
59	0xbdb18210	-0.086673856
60	0xbe53f41a	-0.20698586
61	0xbe0db3f7	-0.13838182
62	0xbd8d3033	-0.06893959
63	0x3dc6b55c	0.0970256
64	0xbc2753ad	-0.010212821
65	0x3ddc0566	0.10743217
66	0x3c186028	0.009300269
67	0x3e3561a3	0.17713027
68	0xbe116737	-0.1419953
69	0xbe8c7337	-0.27431652
70	0x3d90cd25	0.07070378
71	0xbdf3d3d0	-0.119056344
72	0xbdca5705	-0.09879879
73	0xbdf41048	-0.11917168
74	0xbe05cbf0	-0.13066077
75	0x3d826977	0.06367772
76	0xbdda1b59	-0.106497474
77	0xbe811302	-0.25209814
78	0xbd3a5619	-0.045492265
79	0xbe92d008	-0.2867434
80	0xbea587b4	-0.32330096
81	0xbe58124c	-0.2110073
82	0xbe070afd	-0.13187785
83	0x3dcd3cd9	0.100213714
84	0xbe72df1d	-0.23717923
85	0xbe8e0965	-0.27741542
86	0xbeb0949e	-0.34488386
87	0x3de22521	0.11042238
88	0xbd4822ad	-0.048861194
89	0xbec05e14	-0.37571776
90	0xbea3580c	-0.31903112
91	0x3c0dc64c	0.008653235
92	0xbe38b95d	-0.1803946
93	0xbe9b3ee7	-0.30321428
94	0xbe9367af	-0.28790042
95	0xbe1547eb	-0.14578216
96	0xbe4df6e4	-0.20113713
97	0xbe81bce0	-0.25339413
98	0xbe9bb7aa	-0.30413562
99	0xbe2fc16e	-0.17163631
100	0xbe243011	-0.16033961
101	0xbde56f5b	-0.1120288
102	0x3d383b65	0.044978518
103	0xbea8722b	-0.32899603
104	0x3c060043	0.008178773
105	0xbe68242f	-0.22670053
106	0xbea9d04d	-0.33166733
107	0xbe68b812	-0.22726467
108	0x3dfa99f1	0.12236393
109	0xbe54d6f6	-0.20785126
110	0x3cbf912a	0.02338465
111	0xbea7d3a9	-0.3277867
112	0xbe036fff	-0.12835692
113	0xbe85e04e	-0.26147693
114	0xbe38b4d0	-0.18037724
115	0xbe90c629	-0.28276184
116	0x3bcf9c43	0.0063357665
117	0xbe9b175b	-0.30291256
118	0xbca570da	-0.020195413
119	0xbe2b39c4	-0.16721255
120	0xbe848cad	-0.25888577
121	0xbedb0a80	-0.42781448
122	0xbebcad17	-0.36850807
123	0xbe3d2697	-0.18471752
124	0xbe48f36f	-0.19624113
125	0xbeaf7392	-0.3426786
126	0xbdb3a49f	-0.08771633
127	0xbdfb08ee	-0.122575626
128	0x3c8d279b	0.0172308
129	0xbc9a2067	-0.018814279
130	0x3c9dd5cf	0.019266991
131	0x3d55a6d1	0.05216104
132	0x3dbb70b0	0.09152353
133	0x3cebd6dd	0.028788978
134	0xbdfb8bf3	-0.122825526
135	0x3d4325be	0.047643416
136	0x3d89bd6e	0.06725584
137	0x3c905eac	0.017623268
138	0xbc9f7e85	-0.019469509
139	0x3e0cd800	0.13754272
140	0xbcd6fb53	-0.026242888
141	0xbca0e8cf	-0.019642262
142	0xbc944b60	-0.018102348
143	0xbc602e45	-0.0136829065
144	0x3dd58507	0.104257636
145	0x3db88976	0.090105936
146	0xbd6b02a2	-0.057375558
147	0xbcbf5066	-0.023353767
148	0x3d07eda1	0.033185605
149	0xbda72aa2	-0.081624284
150	0xbc50191f	-0.012701302
151	0x3d773a02	0.060358055
152	0xbb5e1c39	-0.0033891334
153	0x3ddc819a	0.10766907
154	0x3d801251	0.062534936
155	0x3ce5cc22	0.02805144
156	0xbcf86b69	-0.030324655
157	0xbd8eecea	-0.069787815
158	0xbd87a105	-0.06622509
159	0xbd2f44f4	-0.04279037
160	0xbb40883a	-0.0029378072
161	0x3d2b4b5b	0.04181991
162	0x3d2c801c	0.042114362
163	0x3d20ec14	0.03928764
164	0xbd51d303	-0.051226627
165	0xbda079df	-0.07835745
166	0xbd93f9fc	-0.07225415
167	0x3da0770b	0.07835206
168	0xbde6cc5b	-0.112694465
169	0xbcf027b3	-0.029315805
170	0x3e058ca2	0.13041928
171	0x3a815e64	0.000987005
172	0xbcc536fe	-0.024074074
173	0x3d9cec46	0.07662253
174	0x3db0ddf2	0.08636083
175	0xbdb459f3	-0.08806219
176	0xbd4304d0	-0.04761201
177	0x3d06778a	0.032828845
178	0xbda892cf	-0.082311265
179	0xbc1be6ab	-0.009515445
180	0xbd276196	-0.04086455
181	0xbda3833b	-0.079840146
182	0x3dd0a451	0.10187591
183	0x3cec8ed2	0.028876696
184	0x3d80f168	0.062960446
185	0xbdab5ecb	-0.0836769
186	0x3ca37514	0.019953288
187	0x3d0cc171	0.034364168
188	0xbe19d0db	-0.15021078
189	0x3d62c374	0.05536218
190	0xbd8eac1d	-0.06966422
191	0xbd24c620	-0.04022801
192	0x3d592f32	0.053023525
193	0x3dd296b2	0.10282649
194	0xbe0e0de0	-0.1387248
195	0x3dc8a388	0.09796816
196	0xbe487265	-0.19574888
197	0x3d7f361c	0.062307462
198	0x3e18b0a4	0.14911133
199	0x3d91f8b6	0.07127516
200	0x3dd88771	0.105727084
201	0xbdb4c6bc	-0.08826968
202	0xbe2ee7dc	-0.17080635
203	0x3e428ae5	0.18998297
204	0xbdb0a88a	-0.08625896
205	0xbdc2bf08	-0.095090926
206	0x3e06519c	0.13117069
207	0xbe178580	-0.1479702
208	0xbdddbd60	-0.10827136
209	0xbdf5b75e	-0.11997865
210	0xbe8c18c0	-0.27362633
211	0xbe415cd7	-0.18883072
212	0x3df192d1	0.11795581
213	0xbe77b945	-0.24191768
214	0xbbf7e295	-0.0075648525
215	0xbd5fbffc	-0.05462645
216	0xbd4d666a	-0.050146498
217	0xbeb7d732	-0.35906368
218	0x3b6eecf6	0.0036457158
219	0x3db66da1	0.08907629
220	0x3d7daf59	0.061934803
221	0xbe5c6e38	-0.2152642
222	0x3cd78f62	0.026313487
223	0xbd8ee21a	-0.06976719
224	0x3d84c068	0.06482011
225	0xbbbfce54	-0.0058534537
226	0xbde6f27b	-0.11276718
227	0xbd90798c	-0.07054433
228	0x3d9c1107	0.07620435
229	0x3cbbc971	0.022923203
230	0xbdc6b66c	-0.09702763
231	0x3cd754b6	0.02628551
232	0xbe23e2c1	-0.16004469
233	0xbe0e231b	-0.13880579
234	0x3e0d6ba3	0.13810591
235	0xbdf3b934	-0.11900559
236	0x3dccb350	0.09995139
237	0xbcd2aaf5	-0.025716284
238	0x3d2001a0	0.03906405
239	0xbe1c4bc9	-0.15263285
240	0x3b9af36c	0.004728725
241	0xbc2ff23f	-0.010738908
242	0x3e1cca95	0.15311654
243	0xbe5f520a	-0.21808639
244	0xbdb437a7	-0.08799677
245	0xbc606eb8	-0.013698272
246	0xbe093afc	-0.13401407
247	0x3c27eb57	0.0102489805
248	0x3d031ab2	0.03200788
249	0xbe3b7918	-0.18307912
250	0xbe70c961	-0.2351432
251	0xbcb15815	-0.021648446
252	0xbe1af640	-0.15133
253	0xbe1bdbfe	-0.15220639
254	0x3dadbe6f	0.08483588
255	0xbcd8b0ae	-0.026451435
