torch-rl/storage/MiniGrid-DoorKey-6x6-v0/status.pt (torch, 246121 bytes, 39 tensors)

image_conv.0.weight f4 [16, 3, 2, 2]
0.5795688 -0.16184314 -0.06407569 -0.11499253 -0.2313666 0.12444349 -0.20935093 0.08357915
0.41268444 0.1345259 0.23981568 -0.12677808 0.013390344 -0.209908 -0.2271854 -0.08560449
-0.0031992425 0.02384174 0.098384194 0.05019775 0.01706743 -0.27061492 0.17882895 -0.42907465
-0.16382833 0.023992272 0.1551961 0.16415244 -0.6112035 0.010268477 0.06134816 0.0014660336
0.14468265 -0.23939462 -0.30172467 0.43640321 0.23489201 -0.29916066 0.064636245 -0.25331807
0.27967334 -0.2172794 0.016578123 0.0016646654 -0.28554365 0.07710139 -0.14729388 0.16508195
-0.21058504 -0.071268715 -0.37196782 -0.2814842 0.1571072 -0.06480828 0.2693037 0.13866447
0.15786639 -0.2460996 -0.23836069 -0.30116186 -0.15291037 0.24167192 0.18767147 0.35978344
0.049851708 -0.03640747 -0.12032458 -0.04021339 -0.2633134 -0.25795293 -0.0665091 -0.30908796
-0.065302 -0.106202014 0.19557175 -0.31908146 0.17079242 0.0717208 -0.49347228 -0.18341927
-0.2614379 0.13619044 -0.14922856 -0.30873546 0.19020002 -0.30258188 -0.272088 0.5488257
-0.013499656 0.06777135 -0.007873973 -0.1498244 0.0030633626 -0.3050737 -0.13822788 -0.42648768
-0.12764005 -0.0873428 -0.062560536 -0.28223747 0.2322441 -0.007883863 0.14493306 -0.13019942
-0.053856846 -0.32173255 0.48437974 -0.279839 0.02597513 0.27785593 0.17593184 0.23493974
0.072988324 -0.097247444 -0.14433973 0.026535228 0.29900947 0.3938685 0.06561576 -0.30500042
-0.21453522 0.036226794 0.53258884 -0.04257949 0.11244821 -0.07542822 -0.19327764 -0.021774452
0.46264648 0.5420223 -0.39125994 0.2383159 0.3046607 0.19640556 0.05990645 0.29274493
-0.029522471 0.041892253 -0.19805925 -0.15921463 0.06684585 0.1966069 -0.6606144 0.06906315
0.22845237 -0.26810324 0.04872516 -0.10040501 0.19758883 -0.038224295 -0.13603172 0.11963969
-0.5513365 -0.17152624 0.07240447 -0.28069273 -0.04985479 -0.15034424 0.45994905 -0.25191775
-0.22379643 0.10735002 0.08323779 -0.08782013 0.38594928 0.07709975 -0.25361532 -0.1639892
-0.2590691 -0.35262114 -0.20293666 -0.023084177 -0.0122156665 -0.08685418 0.16240947 0.12655775
0.48596016 -0.041180603 0.19311091 0.42296803 -0.11656379 0.011104764 -0.09483979 0.0071302303
0.015901404 0.33790177 -0.3501126 -0.13355622 -0.23240273 -0.21288213 0.032759648 -0.5987133
00000000: 9f5e 143f 35ba 25be 1e3a 83bd 3481 ebbd
00000010: 5eeb 6cbe 3adc fe3d 1760 56be 8c2b ab3d
00000020: 604b d33e 28c1 093e 3e92 753e 1dd2 01be
00000030: 2c63 5b3c 1ff2 56be 4aa3 68be 6851 afbd
00000040: 62aa 51bb c14f c33c a77d c93d 289c 4d3d
00000050: ffd0 8b3c 0a8e 8abe f01e 373e acaf dbbe
00000060: 9dc2 27be 718b c43c baeb 1e3e 9417 283e
00000070: d577 1cbf 1d3d 283c 3548 7b3d ed27 c03a
00000080: b027 143e dd23 75be a87b 9abe 3e70 df3e
00000090: 8887 703e 962b 99be 0260 843d e8b2 81be
000000a0: 5831 8f3e 7e7e 5ebe d8ce 873c e730 da3a
000000b0: c732 92be 55e7 9d3d 35d4 16be 3e0b 293e
000000c0: 9ba3 57be 55f5 91bd 9172 bebe b21e 90be
000000d0: b6e0 203e 34ba 84bd 2de2 893e 0ffe 0d3e
000000e0: baa7 213e 8901 7cbe d314 74be e331 9abe
000000f0: 8994 1cbe d878 773e f32c 403e 8935 b83e
00000100: 4e31 4c3d 0020 15bd bc6c f6bd ccb6 24bd
00000110: 04d1 86be 6812 84be ec35 88bd c740 9ebe
00000120: 0ebd 85bd 7180 d9bd f643 483e a55e a3be
00000130: 35e4 2e3e 5be2 923d 66a8 fcbe 43d2 3bbe
00000140: 30db 85be 8275 0b3e 5fcf 18be 9312 9ebe
00000150: cbc3 423e 03ec 9abe 1e4f 8bbe d77f 0c3f
00000160: a92d 5dbc b5cb 8a3d d601 01bc 916b 19be
00000170: b2c2 483b 9f32 9cbe 9c8b 0dbe 985c dabe
00000180: 13b4 02be c8e0 b2bd bd1f 80bd 6e81 90be
00000190: 66d1 6d3e 512b 01bc 5569 143e ff52 05be
000001a0: ff98 5cbd 21ba a4be 9f00 f83e 0f47 8fbe
000001b0: ccc9 d43c 2243 8e3e 7a27 343e 0b94 703e
000001c0: e77a 953d ab29 c7bd cbcd 13be 6860 d93c
000001d0: c517 993e 22a9 c93e 8e61 863d 0429 9cbe
000001e0: 1faf 5bbe 8c62 143d be57 083f d567 2ebd
000001f0: 3f4b e63d 1c7a 9abd 93ea 45be 5660 b2bc
00000200: 00e0 ec3e f9c1 0a3f 3953 c8be 1509 743e
00000210: 7dfc 9b3e 8a1e 493e 7760 753d aae2 953e
00000220: 1cd9 f1bc 3697 2b3d 0bd0 4abe 2909 23be
00000230: 7ae6 883d 5253 493e 061e 29bf fb70 8d3d
00000240: 6bef 693e d444 89be 0994 473d 24a1 cdbd
00000250: ba54 4a3e 1491 1cbd e64b 0bbe a705 f53d
00000260: 6424 0dbf 93a4 2fbe cb48 943d f5b6 8fbe
00000270: 8934 4cbd d7f3 19be 717e eb3e 5dfb 80be
00000280: e42a 65be 54da db3d 9378 aa3d 0adb b3bd
00000290: 259b c53e 79e6 9d3d ded9 81be c9ec 27be
000002a0: b4a4 84be c28a b4be a1ce 4fbe 071b bdbc
000002b0: 3824 48bc 9be0 b1bd ab4e 263e 5b98 013e
000002c0: c5cf f83e feac 28bd debe 453e 448f d83e
000002d0: ffb8 eebd c2f0 353c 5d3b c2bd b5a4 e93b
000002e0: a943 823c 7601 ad3e f541 b3be f6c2 08be
000002f0: fbfa 6dbe c6fd 59be fb2e 063d 4645 19bf

image_conv.0.bias f4 [16]
-0.20952438 -0.14515445 -0.08362186 -0.30059037 0.058145337 -0.17233168 0.115800105 -0.29859465
0.038302045 -0.57670975 0.081683815 -0.3141465 0.06643754 -0.036688562 -0.15029058 -0.0026735105
00000000: 8f8d 56be 5ea3 14be f041 abbd fbe6 99be
00000010: ce29 6e3d b777 30be 9b28 ed3d 66e1 98be
00000020: 9be2 1c3d 40a3 13bf d849 a73d cfd7 a0be
00000030: 6810 883d bf46 16bd c6e5 19be 1036 2fbb

image_conv.3.weight f4 [32, 16, 2, 2]
0.07807301 0.15839459 -0.13753423 -0.15067396 -0.0714649 0.052823283 0.12988374 0.038637504
0.0001408441 -0.16827467 0.003083829 0.147554 -0.06644829 0.19837323 -0.016134994 -0.15246232
0.07700441 -0.3066615 0.040071048 0.026944667 -0.018054575 0.27243206 -0.14846145 -0.23217306
0.1385474 -0.15939176 -0.051875714 0.01812643 -0.0732761 0.064847045 -0.022143178 -0.16171567
-0.007200916 -0.17159028 0.096333854 0.038770694 -0.05593293 0.10407086 -0.16900048 -0.10156267
0.0014374063 0.27022436 0.081164114 0.08830771 0.009989846 0.14656271 -0.022466613 -0.10859063
0.032386295 0.22676736 -0.05391613 0.0075818356 0.078998 0.11795956 -0.12252202 0.11379965
0.04660788 -0.14396629 0.14655544 0.049226265 -0.033670958 -0.35924524 -0.032147 0.08700326
0.06752163 0.11651171 -0.096984915 -0.12881634 -0.037054252 0.0043195584 -0.19020793 -0.14827083
-0.019696673 0.023136217 0.0048686154 -0.11305881 0.050664015 -0.15850301 -0.40050104 -0.033062372
0.08899568 0.120361485 -0.23215164 -0.22373877 0.13070975 0.03156923 -0.105450794 -0.16451502
-0.18611442 -0.03605701 0.0011483845 -0.07052889 0.062485058 0.13442735 -0.11831426 0.13270503
0.062254585 -0.16429397 -0.0015803704 0.051098924 0.058740396 0.066938244 -0.3192046 -0.19604959
-0.22117868 0.007549511 -0.06413765 -0.27268636 -0.091262825 0.12494988 0.15637535 0.013033609
0.11221188 -0.032130722 0.028030245 -0.090663895 0.11696821 -0.1297885 -0.1282992 -0.2017541
-0.20222877 0.04447028 -0.1353792 -0.1760572 0.18622196 -0.13653031 0.083574116 -0.04866765
-0.099841714 -0.082599275 0.01026465 -0.052492186 -0.12017844 -0.09177076 -0.15006612 0.12806106
-0.07166716 -0.055795126 -0.0791088 -0.08187519 -0.19265881 -0.109658 0.027467571 0.036870405
-0.10225735 -0.04640208 0.014064612 0.105738126 0.065573506 0.021305999 0.029826801 -0.051407162
-0.11427011 -0.14963838 0.04608526 -0.07153477 -0.116985604 -0.060569763 -0.15407446 -0.20255835
-0.03870526 -0.06885468 -0.18688087 0.0154628055 -0.055925597 -0.055988614 0.000978642 0.008553184
-0.09794353 0.09040453 0.06626997 -0.11535894 -0.16583039 -0.16304879 0.038402636 -0.08481687
-0.14052527 0.034471422 0.009176476 0.023580106 -0.05978101 -0.029985398 0.0011670938 0.06733641
-0.03586446 -0.055420745 0.09110837 -0.0065711513 0.10810851 -0.07226455 0.065250136 0.036350805
-0.0019699256 0.22488323 0.06641837 -0.018233607 -0.0079025095 -0.14634953 -0.031367283 -0.13371006
0.12080869 -0.11550833 -0.053281758 0.0552733 -0.19909419 -0.053498365 -0.013837542 -0.050069876
-0.13793036 0.086553335 -0.07211945 -0.16085005 -0.14678374 0.071577854 -0.06312143 0.09687574
-0.06356717 0.024486933 -0.11928007 -0.18825038 -0.15144199 0.08141884 -0.06639143 0.15066998
-0.13796446 -0.05651071 -0.01523103 -0.21514297 -0.0036517044 -0.027264046 0.04701291 0.071046345
-0.17404623 0.08370199 -0.09287663 0.26978537 -0.12329188 0.08699776 -0.21087314 0.09138937
-0.14274535 -0.09939395 0.06850807 0.058038604 0.14915934 -0.04102619 0.07930945 0.38355353
0.01702506 -0.16487536 0.07801097 -0.06357942 0.1386903 -0.09111522 0.017749432 -0.2397081
00000000: bee4 9f3d 3132 223e c6d5 0cbe 464a 1abe
00000010: 315c 92bd 3a5d 583d 3e00 053e 5c42 1e3d
00000020: 8daf 1339 3250 2cbe 111a 4a3b 6518 173e
00000030: 0b16 88bd 5a22 4b3e 892d 84bc 151f 1cbe
00000040: 7db4 9d3d bc02 9dbe 8a21 243d 10bb dc3c
00000050: 30e7 93bc 377c 8b3e 4706 18be c6be 6dbe
00000060: 5fdf 0d3e 9837 23be a17b 54bd e17d 943c
00000070: c811 96bd 87ce 843d 9c65 b5bc cb98 25be
00000080: a9f5 ebbb 5db5 2fbe af4a c53d 05ce 1e3d
00000090: ee19 65bd 1a23 d53d 760e 2dbe 1700 d0bd
000000a0: 5a67 bc3a d95a 8a3e 5f39 a63d acda b43d
000000b0: 73ac 233c 8914 163e e70b b8bc c464 debd
000000c0: 7ea7 043d b435 683e 29d7 5cbd 0c71 f83b
000000d0: b4c9 a13d c894 f13d d3ec fabd ca0f e93d
000000e0: e8e7 3e3d e66b 13be a112 163e 7ba1 493d
000000f0: 8fea 09bd feee b7be 93ac 03bd c42e b23d
00000100: c848 8a3d b19d ee3d 07a0 c6bd 6ee8 03be
00000110: 33c6 17bd 158b 8d3b dec5 42be 4fd4 17be
00000120: eb5a a1bc 2a88 bd3c e888 9f3b 618b e7bd
00000130: 1285 4f3d 9d4e 22be 790e cdbe 696c 07bd
00000140: 5e43 b63d 1580 f63d 29b9 6dbe c71b 65be
00000150: c7d8 053e bd4e 013d 96f6 d7bd a076 28be
00000160: c794 3ebe 84b0 13bd 6485 963a 7371 90bd
00000170: 55f0 7f3d 53a7 093e bf4e f2bd d4e3 073e
00000180: aafe 7e3d ae3c 28be 6e24 cfba 1b4d 513d
00000190: c599 703d eb16 893d c96e a3be 39c1 48be
000001a0: aa7c 62be e361 f73b 9a5a 83bd 8c9d 8bbe
000001b0: 01e8 babd b9e5 ff3d dc20 203e eb8a 553c
000001c0: 58cf e53d 819b 03bd af9f e53c fead b9bd
000001d0: 078d ef3d 47e7 04be de60 03be a098 4ebe
000001e0: 0f15 4fbe 7826 363d d8a0 0abe 5748 34be
000001f0: f8b0 3e3e 9ace 0bbe e828 ab3d bb57 47bd
00000200: d079 ccbd cf29 a9bd 102d 283c 0c02 57bd
00000210: 1d20 f6bd 4ff2 bbbd efaa 19be 7022 033e
00000220: 3bc6 92bd 6e89 64bd cb03 a2bd 2eae a7bd
00000230: 5a48 45be 6094 e0bd ac03 e13c 6c05 173d
00000240: 4d6c d1bd 1c10 3ebd 426f 663c 3b8d d83d
00000250: 674b 863d eb89 ae3c 5657 f43c 5190 52bd
00000260: 7306 eabd ce3a 19be e6c3 3c3d d280 92bd
00000270: 2696 efbd 0018 78bd b2c5 1dbe 756b 4fbe
00000280: 6889 1ebd af03 8dbd b35d 3fbe b557 7d3c
00000290: 3d12 65bd 5154 65bd c745 803a a722 0c3c
000002a0: 9e96 c8bd 0326 b93d 8db8 873d 4f41 ecbd
000002b0: 71cf 29be 43f6 26be 154c 1d3d 78b4 adbd
000002c0: dbe5 0fbe e831 0d3d ee58 163c 112b c13c
000002d0: efdc 74bd f0a3 f5bc 2bf9 983a ace7 893d
000002e0: 9de6 12bd dd00 63bd 0697 ba3d d052 d7bb
000002f0: ff67 dd3d 70ff 93bd dda1 853d 95e4 143d
00000300: de19 01bb ca47 663e 5b06 883d a55e 95bc
00000310: 8779 01bc a7dc 15be fb7a 00bd 4aeb 08be
00000320: 8c6a f73d a28f ecbd f93d 5abd 4166 623d
00000330: 59df 4bbe 1a21 5bbd dcb6 62bc 1216 4dbd
00000340: 9e3d 0dbe e042 b13d 5db3 93bd e0b5 24be
00000350: 7a4e 16be 6997 923d cf45 81bd ca66 c63d
00000360: 812f 82bd d298 c83c 1c49 f4bd b5c4 40be
00000370: 9c13 1bbe ecbe a63d 3bf8 87bd 3b49 1a3e
00000380: 8e46 0dbe c677 67bd 928b 79bc 704e 5cbe
00000390: 6f51 6fbb d958 dfbc 9c90 403d bf80 913d
000003a0: 2d39 32be f36b ab3d 1a36 bebd 4f21 8a3e
000003b0: 7480 fcbd e22b b23d 21ef 57be 5a2a bb3d
000003c0: d62b 12be 0e8f cbbd f64d 8c3d e3b9 6d3d
000003d0: 3abd 183e 140b 28bd fe6c a23d 2161 c43e
000003e0: 2378 8b3c 16d5 28be 37c4 9f3d ed35 82bd
000003f0: d404 0e3e 9e9a babd 4267 913c 0a76 75be

image_conv.3.bias f4 [32]
-0.046115335 -0.08456696 -0.014058097 -0.16456123 -0.10693885 -0.10373201 -0.10897149 -0.011620923
-0.038605314 0.056947768 -0.01290785 -0.08077072 -0.050550126 -0.048485767 -0.025088754 -0.0701517
-0.0705723 -0.028668582 0.06971678 -0.08310344 -0.12133092 0.13362247 0.005101596 -0.16288663
-0.06758482 -0.011213649 -0.12965703 -0.034231838 -0.12778802 -0.0022801196 -0.11551097 -0.012744636
00000000: 6fe3 3cbd 7131 adbd ef53 66bc bd82 28be
00000010: c102 dbbd 7371 d4bd 722c dfbd af65 3ebc
00000020: 9b20 1ebd 1042 693d 727b 53bc 1f6b a5bd
00000030: a60d 4fbd 0399 46bd ee86 cdbc b2ab 8fbd
00000040: 3688 90bd 60da eabc acc7 8e3d 2332 aabd
00000050: 587c f8bd 54d4 083e 4a2b a73b c1cb 26be
00000060: e969 8abd 74b9 37bc d0c4 04be af36 0cbd
00000070: ddda 02be 0f6e 15bb 0491 ecbd e1ce 50bc

image_conv.5.weight f4 [64, 32, 2, 2]
0.12087153 0.0031038332 -0.08143497 -0.020866055 -0.021899937 0.00464184 -0.009844905 -0.07016111
-0.11453228 0.002460714 0.053513624 -0.047250196 -0.12882832 0.013838322 0.014202348 -0.1151695
-0.008774373 0.039938364 0.060950063 0.0011490074 -0.047765832 -0.06832387 -0.06693211 0.07116709
-0.123707145 -0.0231475 0.030447729 0.056246527 -0.18456268 0.017524006 -0.09656008 0.081123084
-0.019815825 -0.0023696264 -0.042463146 0.018199012 -0.058685385 -0.19793217 -0.026763828 -0.14108455
-0.0033714967 0.026442442 -0.09590471 -0.090078406 -0.108318865 -0.06105814 -0.15107976 0.009224732
-0.034077965 -0.043336663 0.03382839 -0.17699452 -0.10204597 0.13799919 -0.2096999 -0.05708514
0.010279008 -0.09340982 -0.028424146 0.20821646 0.07748813 -0.09186102 -0.018302519 -0.3219315
0.0077971057 0.07202378 0.09317409 -0.025184909 -0.04463913 -0.071686134 -0.124409236 -0.045019023
-0.11023985 -0.018248606 0.006482985 -0.25406212 -0.083022386 -0.06818841 0.011301583 -0.015506487
0.08240791 -0.09437648 -0.1180646 -0.0142258145 0.11053908 -0.0062624826 0.026365558 0.04175565
-0.09254753 0.115567766 -0.07996177 -0.10940943 -0.024341002 -0.05399353 -0.021495672 -0.001991175
0.030922804 -0.116277434 0.04482488 -0.20427601 -0.10517874 -0.13522705 -0.041700516 -0.18062514
-0.036659814 -0.109439775 -0.123672605 -0.010612231 0.0015666365 -0.023358436 -0.09717816 0.0003250254
-0.03940586 0.04935588 0.058219273 0.05390897 0.052250262 -0.10391722 -0.044465598 -0.020155955
0.060924534 -0.020400938 0.0034886408 -0.15680194 -0.20061617 0.10594033 -0.07248861 -0.021194398
-0.18957563 0.0410816 -0.09365702 0.11637522 -0.018957807 -0.29045874 -0.04730407 0.16035523
-0.078775615 -0.01574952 0.046206363 -0.094514884 0.01991258 0.054460023 0.08213621 -0.17005995
0.07408354 0.006790114 0.030829946 -0.029044615 -0.07625456 0.013837063 -0.05273396 -0.045713115
-0.09780737 0.01586792 -0.042478103 0.052375246 0.00904395 0.06104815 0.03912812 -0.061882026
0.115216196 0.07613553 -0.056049272 -0.055362355 -0.04844195 0.1584568 -0.025576778 0.07137234
-0.027576093 -0.007527665 -0.105001636 -0.053678088 -0.031101523 0.00660654 -0.09595171 0.041120306
0.077425465 -0.10198215 -0.035316814 0.16441652 -0.094277404 -0.04793911 -0.050337918 0.08316257
-0.13452487 0.02356756 -0.07287655 -0.114261985 -0.036405288 -0.13850176 0.111838 -0.13174401
-0.03889636 -0.0025226779 -0.047272008 0.006470999 -0.13228643 0.25406396 -0.030106042 -0.13788624
0.06487891 -0.13488454 0.026524203 0.075722545 -0.009297374 -0.11714445 0.043631207 0.06909644
0.001108303 0.07780304 -0.1639309 -0.046149887 -0.016670115 -0.070771225 0.088345215 0.14397734
-0.09781848 -0.012797828 -0.06264026 -0.06906068 -0.06431918 -0.022280531 0.009091507 0.038113195
-0.048819754 0.018302018 -0.03559696 -0.23182683 0.045127377 -0.052873597 -0.044349927 -0.016691566
-0.10046112 0.042666513 -0.055573612 0.056288026 0.1569672 0.05245038 -0.027437856 0.117121324
-0.05652539 0.03822218 0.098377265 -0.060637027 -0.015817123 -0.10051107 0.10773232 0.049925536
0.1326463 -0.011775558 0.07496388 -0.17624828 0.023652483 -0.077668 -0.008141382 -0.029177861
00000000: 7e8b f73d ae69 4b3b 61c7 a6bd 4aef aabc
00000010: 7f67 b3bc 931a 983b 864c 21bc a1b0 8fbd
00000020: e68f eabd ee43 213b 1a31 5b3d 6c89 41bd
00000030: 92eb 03be 21ba 623c f7b0 683c fddd ebbd
00000040: 63c2 0fbc 6996 233d c6a6 793d 4a9a 963a
00000050: 1ba6 43bd 63ed 8bbd b413 89bd 0dc0 913d
00000060: 2c5a fdbd d39f bdbc 846d f93c c262 663d
00000070: 00fe 3cbe 818e 8f3c 4bc1 c5bd dc23 a63d
00000080: cc54 a2bc bc4b 1bbb d6ed 2dbd 1816 953c
00000090: 1660 70bd bbae 4abe d13f dbbc 7878 10be
000000a0: 54f4 5cbb d29d d83c b069 c4bd 077b b8bd
000000b0: 48d6 ddbd 1a18 7abd a7b4 1abe 5523 173c
000000c0: 5695 0bbd c981 31bd a38f 0a3d 0d3e 35be
000000d0: 7afd d0bd a94f 0d3e 92bb 56be 1cd2 69bd
000000e0: 4969 283c a64d bfbd c1d9 e8bc b236 553e
000000f0: 19b2 9e3d a121 bcbd 2aef 95bc 35d4 a4be
00000100: dd7e ff3b 3481 933d 0fd2 be3d 9550 cebc
00000110: 85d7 36bd 2ed0 92bd 45ca febd de65 38bd
00000120: 6ec5 e1bd 1a7e 95bc 386f d43b 6e14 82be
00000130: a407 aabd 5da6 8bbd 462a 393c ec0e 7ebc
00000140: 7ac5 a83d 7548 c1bd dacb f1bd 6413 69bc
00000150: 5062 e23d 8335 cdbb 95fc d73c f907 2b3d
00000160: 8f89 bdbd cbae ec3d ffc2 a3bd 0d12 e0bd
00000170: c866 c7bc 5228 5dbd b117 b0bc 607e 02bb
00000180: d251 fd3c dd22 eebd 4b9a 373d bb2d 51be
00000190: f467 d7bd f678 0abe 29ce 2abd ccf5 38be
000001a0: 9a28 16bd f621 e0bd 1048 fdbd ecde 2dbc
000001b0: 9957 cd3a 315a bfbc 5805 c7bd 2c68 aa39
000001c0: 0a68 21bd 6429 4a3d 5577 6e3d a7cf 5c3d
000001d0: 5f04 563d 8dd2 d4bd 8f21 36bd 1a1e a5bc
000001e0: 018c 793d de1f a7bc aea1 643b b090 20be
000001f0: 536e 4dbe 3ef7 d83d e974 94bd e09f adbc
00000200: 1d20 42be 2e45 283d 40cf bfbd 2256 ee3d
00000210: 674d 9bbc 02b7 94be eac1 41bd 2934 243e
00000220: 1c55 a1bd 2305 81bc e242 3d3d 0591 c1bd
00000230: b51f a33c 7911 5f3d 0737 a83d 3224 2ebe
00000240: 1cb9 973d 9b7f de3b 158f fc3c f9ee edbc
00000250: 5a2b 9cbd d9b4 623c 91ff 57bd ad3d 3bbd
00000260: 3b4f c8bd 71fd 813c 85fd 2dbd 6d87 563d
00000270: 132d 143c a00d 7a3d cf44 203d 0278 7dbd
00000280: 78f6 eb3d f2ec 9b3d ec93 65bd a3c3 62bd
00000290: 116b 46bd 8042 223e 6486 d1bc a92b 923d
000002a0: 42e7 e1bc a1aa f6bb 190b d7bd 8edd 5bbd
000002b0: 9fc8 febc ad7b d83b 5582 c4bd c46d 283d
000002c0: 3e91 9e3d 04dc d0bd 5da8 10bd ce5c 283e
000002d0: 8314 c1bd cd5b 44bd 222f 4ebd 2351 aa3d
000002e0: e3c0 09be c110 c13c 4d40 95bd 3002 eabd
000002f0: b61d 15bd 68d3 0dbe 520b e53d e7e7 06be
00000300: ca51 1fbd 8353 25bb 4ba0 41bd ad0a d43b
00000310: 1876 07be ac14 823e f2a0 f6bc 0d32 0dbe
00000320: 3cdf 843d 2c1f 0abe 4949 d93c 6c14 9b3d
00000330: 0354 18bc 6ee9 efbd a3b6 323d 6f82 8d3d
00000340: 7a44 913a 3357 9f3d 80dd 27be aa07 3dbd
00000350: c48f 88bc 81f0 90bd 56ee b43d cc6e 133e
00000360: 0e55 c8bd fbad 51bc 8949 80bd b06f 8dbd
00000370: c6b9 83bd a985 b6bc 8bf4 143c 951c 1c3d
00000380: 39f7 47bd 1dee 953c 1ece 11bd 0364 6dbe
00000390: 7cd7 383d fc91 58bd 45a8 35bd c0bc 88bc
000003a0: 8fbe cdbd 15c3 2e3d 28a1 63bd 468e 663d
000003b0: 02bc 203e 36d6 563d 5bc5 e0bc 4edd ef3d
000003c0: 2b87 67bd dc8e 1c3d 057a c93d 885e 78bd
000003d0: e992 81bc bfd8 cdbd c3a2 dc3d b87e 4c3d
000003e0: 6fd4 073e 45ee 40bc aa86 993d 6e7a 34be
000003f0: dac2 c13c 6610 9fbd 6e63 05bc 6906 efbc

image_conv.5.bias f4 [64]
-0.088849016 -0.030472793 0.0041410825 0.10004275 -0.03438088 -0.011399043 -0.026343364 -0.07503725
-0.025729625 0.07071375 -0.12387116 0.06502042 -0.0005821617 -0.03578251 0.11903764 -0.008424636
-0.13111845 0.02244644 0.08940612 -0.051858746 -0.118381135 0.14226982 -0.17279127 -0.06829704
-0.093243934 -0.0012967575 0.008111406 0.034888204 0.13577974 -0.08074585 0.007499067 0.051949024
-0.08293587 -0.13618577 0.15997392 -0.095861785 0.0389588 -0.14810543 0.036117934 -0.031111564
0.025573894 -0.060862135 -0.010774989 -0.062171943 -0.02165516 -0.05951107 0.052956924 0.006949007
-0.0059470898 -0.08706061 -0.109574035 -0.091727935 -0.004186145 -0.08435483 -0.12901722 -0.049110394
-0.12407378 0.036585093 0.15824409 0.0033579124 -0.04339037 -0.1450583 -0.017478578 -0.17987382
00000000: 79f6 b5bd 14a2 f9bc ebb1 873b 37e3 cc3d
00000010: f7d2 0cbd 0dc3 3abc 0ace d7bc 21ad 99bd
00000020: efc6 d2bc 5fd2 903d 2ab0 fdbd 6d29 853d
00000030: 369c 18ba ae90 12bd 02ca f33d 7c07 0abc
00000040: ea43 06be 99e1 b73c 8e1a b73d d669 54bd
00000050: cf71 f2bd 2eaf 113e 32f0 30be 52df 8bbd
00000060: adf6 bebd f6f7 a9ba b4e5 043c efe6 0e3d
00000070: d809 0b3e 155e a5bd bcba f53b 80c8 543d
00000080: 48da a9bd 4874 0bbe 34d0 233e 2f53 c4bd
00000090: 4393 1f3d f3a8 17be 66f0 133d aedd febc
000000a0: 5880 d13c 934a 79bd 9489 30bc 02a8 7ebd
000000b0: 2966 b1bc e1c1 73bd 5ce9 583d 7fb4 e33b
000000c0: cedf c2bb d54c b2bd 5a68 e0bd dbdb bbbd
000000d0: ee2b 89bb 3ac2 acbd 171d 04be fb27 49bd
000000e0: 651a febd 40da 153d bd0a 223e 6c10 5c3b
000000f0: 1aba 31bd 2a8a 14be 3c2f 8fbc d830 38be

actor.0.weight f4 [64, 64]
0.048926394 -0.04845577 0.095862135 -0.17434841 -0.11513369 -0.21368077 0.4565183 -0.35409123
-0.17325625 -0.0456634 0.2888747 0.17037147 0.10320599 -0.12225184 0.16486467 -0.16288863
0.08134745 0.06436249 -0.49018866 -0.15323047 -0.040776893 0.22041674 0.10901799 -0.17445879
-0.23532277 -0.069611005 0.104544505 -0.17218985 -0.039553996 -0.2995023 -0.26535743 0.04554586
-0.1142683 0.019669183 -0.26590326 -0.25445116 -0.28462845 -0.1300509 -0.45602497 -0.13313325
-0.22710149 -0.11845707 -0.15496424 0.09286526 0.09135683 0.1815567 -0.5418714 -0.16960506
0.21640415 0.43278402 0.06579305 -0.21752429 0.04884224 0.06875729 -0.097297356 -0.21252407
-0.09861681 -0.07263062 0.015698262 0.020645553 -0.22213449 -0.047246214 0.07692435 -0.08450659
0.37062258 -0.24677391 -0.032906078 0.07602971 -0.14881395 0.042657793 0.17967546 -0.5337337
0.078721635 0.06999899 0.05555424 0.24292322 -0.041255206 0.057740606 -0.12590735 -0.23170394
0.045200285 -0.17194119 -0.40238935 -0.28940186 0.038172893 0.0839863 -0.37497693 -0.2337481
-0.008739496 -0.30813834 -0.1278454 -0.08856211 -0.1875695 -0.09765575 -0.45955622 0.15968063
-0.40898412 -0.09559136 0.10254114 -0.08401056 -0.052891877 0.15079764 -0.50968647 0.05184842
-0.102519765 -0.19837527 -0.29035214 -0.04478385 -0.096693255 -0.103279546 -0.44375274 -0.17658861
0.02097339 -0.06523682 -0.30085552 0.09418891 -0.14274523 -0.17610534 -0.10463512 0.034684934
-0.18356138 -0.02426508 -0.04740236 0.15500121 -0.056641206 0.20019186 -0.04427123 -0.037559982
0.19734009 0.11034203 -0.0038342648 0.038411036 -0.13329451 0.15797341 -0.031060902 0.2404652
0.1693406 -0.31772012 -0.21072665 -0.010441632 0.09383931 0.0757884 0.30391002 0.004993641
-0.21351093 0.16902767 0.3038712 0.053117022 0.117703445 -0.342451 -0.09385718 0.0022819522
-0.251243 -0.14419188 -0.14588493 -0.025236644 -0.0068935803 0.091212735 0.025847776 -0.07005514
-0.026630303 -0.03229282 -0.085557446 -0.12717934 -0.08022149 -0.1924009 0.26840785 0.28299958
0.0057480433 0.25410998 0.1497737 0.25528303 0.32287914 0.1923192 0.57214516 0.18610604
0.3324339 -0.19537282 0.11491194 -0.00059507013 0.24825226 0.1258486 0.20429337 -0.012212321
0.36634785 -0.055032093 -0.031330306 0.20820741 0.27369186 0.20333266 0.124809764 -0.051334724
0.06536935 0.13087377 0.11445807 -0.06550284 -0.050308924 0.051248815 0.0007324454 0.0357198
0.11349443 -0.0495356 0.29784253 -0.27859652 0.018430658 0.15780576 -0.046397187 -0.11993849
0.2064511 -0.11745113 0.06634938 0.11786317 -0.06921459 0.17010297 -0.015790679 -0.14237945
-0.2073229 -0.38663942 -0.33717096 -0.25002238 -0.021726975 0.036375 -0.06528653 -0.28136224
0.14053038 0.005536331 -0.18738817 0.12805171 0.05530743 -0.16392739 0.15212785 0.116455734
0.04935697 -0.03783445 -0.08363597 0.09774129 -0.041399673 0.056902062 0.04151925 -0.035925552
0.13018547 -0.2562018 -0.12535006 0.1225911 0.111158915 -0.19140898 0.14634404 0.4114092
0.08716108 0.33048838 -0.17367524 0.01933314 0.0878323 0.23297034 -0.064578705 -0.28697917
00000000: 0b67 483d 8f79 46bd 5e53 c43d 6488 32be
00000010: 36cb ebbd 22cf 5abe c4bc e93e 724b b5be
00000020: 166a 31be 8c09 3bbd 62e7 933e dc75 2e3e
00000030: a95d d33d 2c5f fabd 49d2 283e 47cc 26be
00000040: 7e99 a63d 7bd0 833d 02fa fabe 73e8 1cbe
00000050: ac05 27bd edb4 613e d344 df3d 53a5 32be
00000060: 74f8 70be 3790 8ebd 6e1b d63d 8952 30be
00000070: 5f03 22bd 5e58 99be eedc 87be 4c8e 3a3d
00000080: 8005 eabd 4421 a13c 7924 88be 6c47 82be
00000090: d2ba 91be 102c 05be 1b7c e9be 1554 08be
000000a0: 4b8d 68be 9f99 f2bd f2ae 1ebe 2430 be3d
000000b0: 4a19 bb3d 00ea 393e 16b8 0abf f3ac 2dbe
000000c0: 0d99 5d3e de95 dd3e 82be 863d b0be 5ebe
000000d0: cd0e 483d 9fd0 8c3d d643 c7bd e99f 59be
000000e0: 9cf7 c9bd 5dbf 94bd a499 803c dd20 a93c
000000f0: 3977 63be 3f85 41bd 838a 9d3d cb11 adbd
00000100: 3ec2 bd3e 4db2 7cbe 86c8 06bd 77b5 9b3d
00000110: af62 18be f0b9 2e3d d8fc 373e c6a2 08bf
00000120: cf38 a13d a15b 8f3d d88c 633d ddc0 783e
00000130: 38fb 28bd 6a81 6c3d dbed 00be cc43 6dbe
00000140: ef23 393d 5a11 30be fa05 cebe 7b2c 94be
00000150: 2e5b 1c3d 0201 ac3d fafc bfbe a95b 6fbe
00000160: 1a30 0fbc 4fc4 9dbe e8e9 02be 0d60 b5bd
00000170: 3812 40be bdff c7bd f44a ebbe 5283 233e
00000180: 5e66 d1be 67c5 c3bd 1701 d23d ba0d acbd
00000190: 27a5 58bd b26a 1a3e d07a 02bf 025f 543d
000001a0: e2f5 d1bd e322 4bbe 09a9 94be 456f 37bd
000001b0: 1d07 c6bd 3a84 d3bd 8f33 e3be a5d3 34be
000001c0: 63d0 ab3c e29a 85bd bc09 9abe 1ee6 c03d
000001d0: ce2b 12be f554 34be f04a d6bd ca11 0e3d
000001e0: 84f7 3bbe 90c7 c6bc fa28 42bd a3b8 1e3e
000001f0: 9c00 68bd 18ff 4c3e c055 35bd 7fd8 19bd
00000200: 8513 4a3e 01fb e13d 4a48 7bbb e454 1d3d
00000210: 5b7e 08be c8c3 213e 6f73 febc 823c 763e
00000220: 9f67 2d3e 36ac a2be bac8 57be 6113 2bbc
00000230: d32e c03d f336 9b3d 189a 9b3e b2a1 a33b
00000240: 9ca2 5abe 9715 2d3e 0295 9b3e 3c91 593d
00000250: 810e f13d bd55 afbe 3138 c0bd ce8c 153b
00000260: eca2 80be 09a7 13be dc62 15be 14bd cebc
00000270: 8be3 e1bb becd ba3d b7be d33c 1279 8fbd
00000280: cb27 dabc 7a45 04bd be38 afbd 4d3b 02be
00000290: 2a4b a4bd be04 45be c16c 893e 52e5 903e
000002a0: 155a bc3b b41a 823e 475e 193e 75b4 823e
000002b0: 6a50 a53e 53ef 443e 1b78 123f 9592 3e3e
000002c0: c734 aa3e d00f 48be f456 eb3d 7bfe 1bba
000002d0: d735 7e3e 75de 003e 4832 513e 3016 48bc
000002e0: f291 bb3e 5569 61bd 3554 00bd 5334 553e
000002f0: 5721 8c3e 7036 503e 439c ff3d 5c44 52bd
00000300: 5ee0 853d c603 063e fe68 ea3d 5a26 86bd
00000310: bb10 4ebd 47ea 513d 9401 403a ed4e 123d
00000320: c56f e83d d7e5 4abd d17e 983e 34a4 8ebe
00000330: e4fb 963c d597 213e fa0a 3ebd 50a2 f5bd
00000340: eb67 533e 388a f0bd 2fe2 873d 3f62 f13d
00000350: 61c0 8dbd 792f 2e3e 745b 81bc ebcb 11be
00000360: 744c 54be 9af5 c5be aca1 acbe ef02 80be
00000370: c5fc b1bc f4fd 143d f2b4 85bd b60e 90be
00000380: 32e7 0f3e 1c6a b53b afe2 3fbe fd1f 033e
00000390: 0b8a 623d 95dc 27be 67c7 1b3e 5880 ee3d
000003a0: 892a 4a3d 4cf8 1abd 5649 abbd 962c c83d
000003b0: b492 29bd 2312 693d 1710 2a3d ac26 13bd
000003c0: 574f 053e e22c 83be c45b 00be 0b11 fb3d
000003d0: 49a7 e33d b700 44be 36db 153e 3aa4 d23e
000003e0: 8281 b23d c635 a93e ecd7 31be 8960 9e3c
000003f0: 6ce1 b33d c78f 6e3e d741 84bd efee 92be

actor.0.bias f4 [64]
0.017060919 0.07867983 -0.124777436 -0.017100178 0.02775169 -0.13014337 0.103965774 -0.07403397
-0.035012055 0.16972576 -0.049666394 0.10848338 -0.055142887 -0.18247494 -0.0077859988 -0.10295902
0.018393602 0.08180562 0.08499837 0.012936846 -0.05220294 0.0770004 -0.064920634 -0.090825066
0.01073898 0.011592977 0.16606805 -0.041409526 0.13085786 0.079706945 -0.08015066 -0.14259718
-0.022012113 -0.0864022 -0.21532647 -0.03901689 -0.13671693 0.10832006 0.180231 0.09643861
0.17668192 -0.031341743 0.041135646 -0.056349076 0.023380931 0.11989676 -0.043688912 -0.0032263761
-0.1304082 -0.04246421 -0.076306015 -0.101123035 0.12375264 -0.071626425 0.07120202 -0.017666513
-0.07408737 -0.0648191 0.09358025 0.06842215 0.08744155 -0.11735932 0.039772287 -0.051045433
00000000: 57c3 8b3c e422 a13d 508b ffbd ac15 8cbc
00000010: 8357 e33c 4e44 05be 02ec d43d 1f9f 97bd
00000020: cd68 0fbd 97cc 2d3e fd6e 4bbd 892c de3d
00000030: 82dd 61bd b6da 3abe b121 ffbb 2edc d2bd
00000040: 2eae 963c b489 a73d a013 ae3d 11f5 533c
00000050: c0d2 55bd 63b2 9d3d 1cf5 84bd 7e02 babd
00000060: 8cf2 2f3c 78f0 3d3c be0d 2a3e 099d 29bd
00000070: 9aff 053e 653d a33d 0726 a4bd ff04 12be
00000080: bf52 b4bc a3f3 b0bd 8b7e 5cbe 2dd0 1fbd
00000090: 86ff 0bbe e8d6 dd3d 7a8e 383e 9b81 c53d
000000a0: 1bec 343e 3360 00bd da7d 283d 4ace 66bd
000000b0: 5e89 bf3c 6f8c f53d 25f3 32bd 9c71 53bb
000000c0: ba89 05be f4ee 2dbd 5446 9cbd 9819 cfbd
000000d0: 0672 fd3d e0b0 92bd 5dd2 913d 5db9 90bc
000000e0: 1ebb 97bd e0bf 84bd 01a7 bf3d ea20 8c3d
000000f0: 8e14 b33d 155a f0bd 44e8 223d 0415 51bd

actor.2.weight f4 [7, 64]
-0.016683202 0.09689861 -0.55797356 -0.071540885 -0.040341 0.014670851 0.089856744 0.15436745
-0.13432576 -0.10525943 -0.3315861 -0.13027893 -0.20541245 -0.090796106 0.021764265 -0.39569315
0.14360085 0.39389542 0.017064668 -0.01604262 -0.44818017 -0.028860195 -0.031627573 0.031418264
0.41760543 0.29340428 0.029657505 -0.04214886 -0.061100457 -0.0020344004 -0.028807199 0.22362581
0.028830556 -0.1401688 -0.010521339 -0.3537819 -0.09329871 0.07475656 0.031370603 0.11072203
0.06631442 -0.31349546 0.03494842 0.14130254 -0.054859098 0.008274762 0.19130798 0.40563655
-0.06789046 -0.08692627 -0.1501455 -0.16613118 -0.17665143 -0.0014843033 -0.16849478 -0.09235604
-0.10758023 -0.20733328 0.04328329 -0.083993316 0.12284905 -0.023786394 0.27590543 -0.44602823
0.1414849 0.12824512 -0.35397416 -0.03563777 0.05738473 0.030450853 0.24908969 0.28968024
-0.06529607 0.14179532 0.2948842 0.35099962 0.082879215 0.019791937 -0.13308044 -0.1299196
0.11750803 0.16855343 0.111574806 -0.038398933 -0.1534497 -0.09683618 -0.18372121 -0.19468087
0.10237658 -0.1636792 -0.020195039 -0.09827904 0.07463566 0.01709803 -0.21137768 -0.37706354
0.031297352 -0.18277194 0.005682354 -0.16281843 -0.09758983 0.39566085 0.23239438 0.2789014
0.01484988 -0.106325336 0.20216256 0.11188368 -0.16217199 -0.09072453 0.02386598 0.10996522
0.029848555 0.075938694 0.03748573 0.073413864 0.18596184 0.13554631 0.3415996 -0.07805575
-0.13687819 -0.1475989 0.21265915 -0.059554424 0.01083038 0.009626257 -0.19080192 0.09938177
-0.21688479 -0.032454163 -0.110409066 0.034868993 -0.20833167 -0.037877314 0.120767064 -0.10070819
-0.016385928 -0.019069156 -0.19747019 -0.00042644146 -0.017521871 0.028480005 0.26059777 -0.015968189
-0.23976569 -0.107777536 -0.04864454 0.18455818 0.19363752 -0.047899954 -0.3120341 0.07934595
-0.18936034 0.1898076 0.047453616 0.16319789 0.42375216 0.04907792 -0.08028345 -0.28496212
-0.010933241 -0.09895472 -0.22789252 0.058812767 -0.02103898 0.012595154 0.24088208 0.08318309
-0.004192356 -0.08060198 -0.101141624 -0.34096336 0.3201373 0.22426732 -0.04723699 -0.082808435
-0.026906924 -0.005898901 0.16162889 -0.16531657 -0.029931648 -0.23442371 0.03551334 0.10130693
-0.026413055 0.18911017 -0.039928716 0.051276878 0.033205073 -0.013249691 0.061850183 0.10038953
-0.18677573 -0.2743701 -0.09719272 0.0697727 0.16069138 -0.055479255 -0.051547922 -0.12819663
0.13049757 -0.06763426 -0.12891142 0.131132 -0.045906052 0.10580313 0.022753375 -0.027333422
0.23043573 0.0075585856 0.11436839 -0.08604875 0.06093599 -0.019575015 0.016319701 -0.08983214
0.13554755 0.06210284 -0.065138586 -0.16232459 -0.028441096 -0.061877064 0.061695438 0.0147976605
0.09972999 -0.07250713 -0.085743606 0.006231337 -0.064958505 -0.026619295 0.10552408 -0.13548148
0.042521603 0.085965745 -0.2316298 -0.08115835 -0.18373318 0.069024175 -0.15514776 -0.13601376
-0.039559573 -0.13999785 0.16843304 -0.013248402 -0.10953629 0.079222016 -0.074710086 0.14603215
-0.22086927 -0.03820191 -0.09253226 -0.123611934 0.097254805 0.1346184 -0.2305258 -0.15455037
00000000: 36ab 88bc c772 c63d 5bd7 0ebf 0784 92bd
00000010: 9b3c 25bd 025e 703c d006 b83d 8012 1e3e
00000020: b18c 09be 4292 d7bd a7c5 a9be d767 05be
00000030: a457 52be 4ff3 b9bd f94a b23c 4b98 cabe
00000040: 1a0c 133e a9ac c93e 34cb 8b3c d06b 83bc
00000050: df77 e5be 376c ecbc ea8b 01bd 70b0 003d
00000060: 61d0 d53e 1639 963e 4cf4 f23c 48a4 2cbd
00000070: 7944 7abd 9353 05bb 13fd ebbc 2afe 643e
00000080: 0f2e ec3c 6988 0fbe b261 2cbc e722 b5be
00000090: 6513 bfbd f819 993d 767e 003d 3bc2 e23d
000000a0: dbcf 873d 7a82 a0be 1326 0f3d 9db1 103e
000000b0: efb3 60bd de92 073c 3de6 433e 98af cf3e
000000c0: 270a 8bbd 6606 b2bd bebf 19be 4b1e 2abe
000000d0: 1de4 34be f48c c2ba e589 2cbe 2a25 bdbd
000000e0: 0653 dcbd 2d4f 54be d249 313d b004 acbd
000000f0: 4898 fb3d afdb c2bc 7a43 8d3e d05d e4be
00000100: 6be1 103e b052 033e 1a3c b5be e9f8 11bd
00000110: 400c 6b3d 1174 f93c 5e11 7f3e f850 943e
00000120: f2b9 85bd cb32 113e 10fb 963e 39b6 b33e
00000130: 94bc a93d b322 a23c 3d46 08be a509 05be
00000140: 0da8 f03d 4599 2c3e 5581 e43d 3348 1dbd
00000150: eb21 1dbe 0c52 c6bd 6a21 3cbe 6c5a 47be
00000160: d0aa d13d 859b 27be 1170 a5bc 8546 c9bd
00000170: 95da 983d 2b11 8c3c 6473 58be 790e c1be
00000180: a731 003d 9128 3bbe 0a33 ba3b e0b9 26be
00000190: 2ddd c7bd 0f94 ca3e cbf8 6d3e 2acc 8e3e
000001a0: e94c 733c 19c1 d9bd b403 4f3e 4523 e53d
000001b0: 6a10 26be c8cd b9bd 9682 c33c 7235 e13d
000001c0: f584 f43c bf85 9b3d a38a 193d 025a 963d
000001d0: c86c 3e3e a7cc 0a3e 25e6 ae3e b1db 9fbd
000001e0: cc29 0cbe 2b24 17be 52c3 593e 57ef 73bd
000001f0: e871 313c 73b7 1d3c 9461 43be ab88 cb3d
00000200: 0c17 5ebe a8ee 04bd 261e e2bd cad2 0e3d
00000210: e654 55be 3e25 1bbd b954 f73d 1840 cebd
00000220: c83b 86bc eb36 9cbc a035 4abe 0194 dfb9
00000230: 078a 8fbc e64e e93c 126d 853e b8cf 82bc
00000240: 2385 75be 78ba dcbd 7f3f 47bd d2fc 3c3e
00000250: ea48 463e be32 44bd efc2 9fbe 2180 a23d
00000260: ade7 41be ec5c 423e b95e 423d 591d 273e
00000270: 0bf6 d83e ee05 493d a66b a4bd 8ee6 91be
00000280: 5621 33bc c6a8 cabd a85c 69be a8e5 703d
00000290: f059 acbc e85b 4e3c cba9 763e e55b aa3d
000002a0: 0860 89bb a712 a5bd 5723 cfbd c092 aebe
000002b0: 09e9 a33e 55a6 653e 937b 41bd 7897 a9bd
000002c0: e96b dcbc 914b c1bb 0b82 253e bf48 29be
000002d0: 3733 f5bc c50c 70be 7076 113d 027a cf3d
000002e0: 3160 d8bc 19a6 413e 4b8c 23bd b407 523d
000002f0: 0b02 083d 3b15 59bc 9e56 7d3d 0799 cd3d
00000300: 2342 3fbe 3d7a 8cbe fa0c c7bd fde4 8e3d
00000310: 488c 243e 373e 63bd ea23 53bd fa45 03be
00000320: 28a1 053e d583 8abd 5b01 04be 7847 063e
00000330: fc07 3cbd 50af d83d 4965 ba3c 57ea dfbc
00000340: 58f7 6b3e 03ae f73b f939 ea3d 543a b0bd
00000350: 0498 793d c85b a0bc e5b0 853c eaf9 b7bd
00000360: facc 0a3e 8c5f 7e3d 6167 85bd 6b38 26be
00000370: 4dfd e8bc ce72 7dbd 5bb4 7c3d e371 723c
00000380: 3d3f cc3d 9e7e 94bd 589a afbd 3e30 cc3b
00000390: f708 85bd b510 dabc 021d d83d a8bb 0abe
000003a0: 222b 2e3d cf0e b03d 5d30 6dbe 5936 a6bd
000003b0: 8d24 3cbe 8c5c 8d3d 0edf 1ebe 3147 0bbe
000003c0: 3809 22bd 995b 0fbe b679 2c3e d30f 59bc
000003d0: 9054 e0bd 273f a23d 9a01 99bd 7489 153e
000003e0: 8e2b 62be 9b79 1cbd 8e81 bdbd 4128 fdbd
000003f0: 872d c73d 68d9 093e f50e 6cbe 7442 1ebe

actor.2.bias f4 [7]
0.030206356 0.09791303 0.055706512 0.058170307 -0.104693845 -0.04892674 -0.13373262
00000000: 5273 f73c a086 c83d 832c 643d fd43 6e3d
00000010: ba69 d6bd 6867 48bd 34f1 08be

critic.0.weight f4 [64, 64]
0.089017496 -0.09346909 -0.025368094 0.035962455 0.19853131 -0.07144291 0.028265126 0.14495778
0.022834457 0.11168349 0.073799476 0.02646747 0.0002706409 0.06320877 -0.02525124 -0.024733977
0.19531344 0.01738024 -0.03984347 -0.09073431 0.1157191 -0.09638935 0.13468033 0.038164686
-0.14216636 -0.027007349 0.12234702 -0.045085948 0.041475218 0.058563236 -0.16588691 0.20001781
-0.10495074 0.13077913 -0.04604391 -0.12230877 -0.12866768 -0.12835349 0.049271356 0.10116975
-0.1171327 -0.005327933 -0.055227693 0.104500145 0.10851815 -0.024071854 0.07932609 0.018744247
0.1719025 -0.071991995 0.16524945 0.1295498 0.13426857 -0.19791006 0.18518403 -0.06558994
-0.12589997 -0.17800811 -0.011362631 -0.008702959 0.35404918 -0.021729968 -0.04718294 0.05250932
0.023034364 0.18420792 -0.20492002 -0.13435942 -0.07763275 -0.023515131 -0.13740109 0.1498543
0.055082083 -0.0258315 -0.14143883 -0.066142075 0.15744898 0.104663916 0.035297412 -0.10091204
-0.07905334 -0.117812306 -0.110015176 -0.031822342 0.04978329 0.12132338 0.08314517 0.034603488
-0.045544237 -0.054699577 -0.13821098 0.06917159 -0.07351626 0.018564012 0.069656365 0.20693609
-0.09014736 -0.053934347 -0.021820566 -0.0023946555 0.14224523 0.14640486 -0.2047979 -0.033960227
-0.20053658 0.19378068 0.14655186 0.038278133 0.09860932 0.17413643 -0.025723225 -0.034677923
-0.196456 0.2760154 -0.044433296 -0.10753921 -0.07372297 -0.11700018 -0.18670067 -0.014715245
0.109581605 0.089509144 0.16008061 0.22664425 0.21589032 -0.052896436 0.11827908 -0.058273293
-0.15402605 -0.24683627 -0.1279313 -0.1889388 0.015562372 -0.14739999 0.060047712 0.06076541
0.009717395 0.08384139 0.18465808 -0.264668 0.15221417 -0.07439089 -0.16916244 0.11035433
0.013957633 0.10181191 -0.023157818 0.06648714 -0.062423244 0.062033698 0.0077724527 -0.1894094
0.22371098 -0.0025058526 0.0012946262 0.019335221 0.088496506 0.07715873 -0.023780353 0.0018294534
0.09317329 0.12406455 0.0045238845 -0.16943862 -0.034708906 -0.17109899 -0.11939434 -0.08674118
-0.19067253 0.20192665 -0.28997308 0.16034894 -0.10603039 0.09810669 0.098603465 0.07187814
0.023263454 0.14681922 0.06614355 -0.0052794125 -0.080821596 0.07534421 -0.13361113 -0.14005461
0.19077459 0.11535284 0.10150198 -0.084985584 -0.028535774 0.18710788 0.12229144 0.015909504
0.08715178 0.029340575 0.18451531 -0.13009062 -0.17088768 -0.19791214 0.036720295 -0.011532353
0.10367548 -0.03245699 -0.050423 0.03289772 -0.065013155 -0.07718381 -0.014636278 0.020517018
0.011696257 0.017731903 0.0053104176 0.012203662 -0.018086433 -0.10862374 0.29335108 0.09340312
-0.014297598 -0.13870068 -0.014618993 -0.07786746 -0.12063688 0.23596318 -0.16929793 0.028539889
0.054819092 0.06761 -0.02035309 -0.17051145 0.35153443 -0.25841495 -0.12220579 0.061955933
0.020817881 0.16311672 0.27250063 0.007763523 0.10986878 0.24379669 -0.24720465 0.049059104
0.07888046 0.004257236 0.061512962 -0.2680425 0.1253316 -0.03922764 0.024116557 -0.03228108
0.030889228 -0.27905315 -0.07876367 -0.011434327 0.0055994317 -0.15936789 0.051650416 -0.080313876
00000000: ce4e b63d b96c bfbd c0d0 cfbc 5e4d 133d
00000010: cb4b 4b3e a950 92bd 448c e73c d06f 143e
00000020: 540f bb3c 50ba e43d 2e24 973d 4fd2 d83c
00000030: cfe4 8d39 9973 813d b0db cebc e99e cabc
00000040: 3f00 483e 0161 8e3c e832 23bd e9d2 b9bd
00000050: 23fe ec3d c867 c5bd a4e9 093e 9352 1c3d
00000060: 0f94 11be 843e ddbc 1391 fa3d 0bac 38bd
00000070: ebe1 293d 01e0 6f3d 42de 29be 78d1 4c3e
00000080: 6af0 d6bd f7ea 053e 8a98 3cbd 057d fabd
00000090: 76c1 03be 196f 03be c3d0 493d 1632 cf3d
000000a0: 45e3 efbd f195 aebb 6f36 62bd 2c04 d63d
000000b0: c43e de3d 5632 c5bc b875 a23d 898d 993c
000000c0: 3507 303e 8a70 93bd 2737 293e b4a8 043e
000000d0: b37d 093e efa8 4abe e2a0 3d3e 0554 86bd
000000e0: eceb 00be c247 36be 542a 3abc db96 0ebc
000000f0: ef45 b53e 0c03 b2bc e642 41bd 0314 573d
00000100: 90b2 bc3c 00a1 3c3e 8ed6 51be 8495 09be
00000110: ebfd 9ebd cea2 c0bc dfb2 0cbe 6873 193e
00000120: c09d 613d 959c d3bc 57d5 10be 7f75 87bd
00000130: 4e3a 213e 095a d63d 0594 103d f9aa cebd
00000140: b8e6 a1bd 9447 f1bd a34f e1bd 2558 02bd
00000150: 90e9 4b3d 6478 f83d 0448 aa3d 63bc 0d3d
00000160: 988c 3abd aa0c 60bd 2e87 0dbe d6a9 8d3d
00000170: b18f 96bd 8e13 983c ffa7 8e3d 0ee7 533e
00000180: 2e9f b8bd 43ea 5cbd 0bc1 b2bc a7ef 1cbb
00000190: bca8 113e 28eb 153e 8ab6 51be e119 0bbd
000001a0: 7659 4dbe 716e 463e b111 163e 88c9 1c3d
000001b0: aff3 c93d d250 323e 83b9 d2bc 700a 0ebd
000001c0: c32b 49be e451 8d3e b0ff 35bd 843d dcbd
000001d0: 12fc 96bd ca9d efbd 762e 3fbe 3618 71bc
000001e0: 526c e03d 9250 b73d 2cec 233e 6e15 683e
000001f0: 5a12 5d3e efa9 58bd 4d3c f23d faaf 6ebd
00000200: 01b9 1dbe a6c2 7cbe 6c00 03be 2c79 41be
00000210: 52f9 7e3c 06f0 16be 97f4 753d 27e5 783d
00000220: b535 1f3c 09b5 ab3d 0217 3d3e 9082 87be
00000230: 08de 1b3e 405a 98bd eb38 2dbe 7301 e23d
00000240: 8eae 643c c382 d03d 77b5 bdbc 692a 883d
00000250: 84af 7fbd 0c17 7e3d 0fb0 fe3b 8af4 41be
00000260: 7e14 653e 3b39 24bb 72b0 a93a e664 9e3c
00000270: a83d b53d 6505 9e3d 04cf c2bc 45ca ef3a
00000280: a3d1 be3d 8e15 fe3d 183d 943b 5181 2dbe
00000290: ed2a 0ebd 9334 2fbe 0585 f4bd 5ca5 b1bd
000002a0: a93f 43be dcc5 4e3e 5a77 94be 8332 243e
000002b0: 7626 d9bd 29ec c83d 9df0 c93d d934 933d
000002c0: 0093 be3c c757 163e 4576 873d ecfe acbb
000002d0: cb85 a5bd 114e 9a3d 5bd1 08be 7a6a 0fbe
000002e0: 6a5a 433e 1c3e ec3d 45e0 cf3d ec0c aebd
000002f0: dbc3 e9bc 3599 3f3e ef73 fa3d a654 823c
00000300: a27c b23d a55b f03c 95f1 3c3e 7a36 05be
00000310: 2efd 2ebe 7ba9 4abe 0568 163d 32f2 3cbc
00000320: cf53 d43d 9ff1 04bd 5988 4ebd c2bf 063d
00000330: 9e25 85bd 8c12 9ebd 00cd 6fbc 4e13 a83c
00000340: a8a1 3f3c 7f42 913c 0303 ae3b def1 473c
00000350: 002a 94bc 2076 debd 1d32 963e 234a bf3d
00000360: 7940 6abc 8d07 0ebe 8084 6fbc fa78 9fbd
00000370: 7810 f7bd 55a0 713e 705c 2dbe 7ccc e93c
00000380: fc89 603d 1d77 8a3d 86bb a6bc 8e9a 2ebe
00000390: 52fc b33e f74e 84be 0747 fabd 81c5 7d3d
000003a0: 438a aa3c 1208 273e 3485 8b3e 2765 fe3b
000003b0: e202 e13d d7a5 793e 3723 7dbe 33f2 483d
000003c0: 148c a13d 4980 8b3b 04f5 7b3d de3c 89be
000003d0: ed56 003e 29ad 20bd 1690 c53c 2a39 04bd
000003e0: 680b fd3c 0ee0 8ebe d94e a1bd 0b57 3bbc
000003f0: 707b b73b 5631 23be 638f 533d 9a7b a4bd

critic.0.bias f4 [64]
0.025439579 -0.10175296 0.012775343 -0.10126181 0.13641106 -0.11350237 0.1536752 -0.14427324
-0.11388172 0.093991905 0.21352662 0.04694838 0.1391646 -0.11393868 0.032232903 0.21914524
-0.11901249 -0.12003139 -0.09914754 0.15203251 -0.056264248 0.08357565 0.044147916 0.15504795
-0.10675562 0.030814376 0.12264624 0.02803671 0.12420907 -0.19486248 -0.04877861 0.07495086
-0.09285443 -0.14783393 -0.18680783 -0.035863034 -0.07571424 0.079418436 0.15342265 -0.070276566
0.021557454 0.072599225 -0.10276044 -0.06544474 0.15998466 -0.025792575 0.039066043 0.066037185
-0.16259208 -0.106603265 -0.06462938 -0.23468857 -0.12746626 0.08237912 -0.083506025 0.0654819
0.015651014 0.13551526 0.0016528278 -0.06484507 0.17222178 0.11939205 -0.2531523 -0.08319067
00000000: aa66 d03c db63 d0bd ac4f 513c 5a62 cfbd
00000010: 57af 0b3e ee73 e8bd 085d 1d3e 5dbc 13be
00000020: d23a e9bd d47e c03d b9a6 5a3e f24c 403d
00000030: 2a81 0e3e af58 e9bd a606 043d 9c67 603e
00000040: d2bc f3bd 04d3 f5bd de0d cbbd 69ae 1b3e
00000050: 5775 66bd b629 ab3d 72d4 343d e4c4 1e3e
00000060: b1a2 dabd 6e6e fc3c f42d fb3d 3ead e53c
00000070: 5361 fe3d 088a 47be 14cc 47bd d67f 993d
00000080: 772a bebd c761 17be 8d4a 3fbe 1ee5 12bd
00000090: 1110 9bbd 22a6 a23d d41a 1d3e 29ed 8fbd
000000a0: 4299 b03c e7ae 943d 1174 d2bd e407 86bd
000000b0: 05d3 233e f34a d3bc b703 203d 813e 873d
000000c0: 8a7e 26be d052 dabd 695c 84bd 3352 70be
000000d0: 8486 02be 62b6 a83d 3505 abbd 601b 863d
000000e0: 8e36 803c 83c4 0a3e b3a3 d83a 7ecd 84bd
000000f0: e85a 303e d283 f43d 2e9d 81be df5f aabd

critic.2.weight f4 [1, 64]
0.001973689 -0.0112881055 0.0023317852 -0.013504876 0.06361375 -0.0039165365 0.10165166 -0.039504196
-0.03675476 -0.0014664107 0.07431042 -0.003076565 0.048349604 -0.0042094346 -0.0043872907 0.14150754
0.0009230428 -0.03790495 -0.0030865942 0.07670576 -0.0076141786 0.0074716303 -0.007204616 0.058813866
0.0027422293 0.0008790442 0.012781889 0.0012397126 0.068890415 -0.20260054 0.0029785752 -0.0052607805
-0.00242139 -0.016836472 -0.06961265 -0.004199726 0.0057378 -0.0017253741 0.0582137 -0.0042139557
0.004726729 4.147133e-05 -0.0051272125 0.0043745814 0.060074545 0.0016450714 -0.0059804213 -0.005523009
-0.0012827532 -0.008756279 -0.0035100733 -0.06962114 -0.12286924 0.003985117 -0.003920071 0.006421238
-0.006677001 0.076601334 0.0033067488 0.001491714 0.08764633 0.04546093 -0.1373443 -0.0035708442
00000000: 0259 013b bff1 38bc ddd0 183b 8e43 5dbc
00000010: ed47 823d 4a56 80bb bf2e d03d 27cf 21bd
00000020: 298c 16bd 9434 c0ba 1030 983d 32a0 49bb
00000030: 3c0a 463d 4cef 89bb 43c3 8fbb 5ae7 103e
00000040: 5bf8 713a 3942 1bbd 7548 4abb e917 9d3d
00000050: 5c80 f9bb 94d4 f43b b314 ecbb cfe6 703d
00000060: f9b6 333b a86f 663a 216b 513c da7d a23a
00000070: 6b16 8d3d 8476 4fbe 3334 433b a062 acbb
00000080: 2fb0 1ebb a4ec 89bc 1491 8ebd db9d 89bb
00000090: 2804 bc3b f325 e2ba 7d71 6e3d 3915 8abb
000000a0: ade2 9a3b 80f1 2d38 2d02 a8bb a658 8f3b
000000b0: ba10 763d 709f d73a 69f7 c3bb 5cfa b4bb
000000c0: 0e22 a8ba 7f76 0fbc 4209 66bb 8795 8ebd
000000d0: dea2 fbbd 9695 823b f073 80bb 4069 d23b
000000e0: beca dabb 29e1 9c3d 0ab6 583b 9e85 c33a
000000f0: eb7f b33d 3d35 3a3d fca3 0cbe d304 6abb

exp_avg f4 [16, 3, 2, 2]
0.00013603318 -2.8962072e-06 -8.9818896e-05 -0.00014282718 0.00029593706 0.00014764155 -8.18472e-05 -0.00022880225
-5.8220423e-05 2.9566274e-05 -2.3727391e-06 -1.1005815e-05 6e-45 6e-45 6e-45 6e-45
6e-45 -6e-45 6e-45 6e-45 6e-45 6e-45 6e-45 -6e-45
-1.3556297e-05 -0.000103094964 1.2904123e-05 -3.868763e-05 6e-45 -0.00015831097 -1.6281962e-05 -5.161058e-05
6e-45 -6e-45 -1.2908649e-05 -6.445955e-05 -0.00028617174 -8.612971e-05 -0.00010625047 -0.00015591721
-0.00037278674 -1.4677342e-05 -0.000363401 -0.00035453375 6.0980915e-06 -2.1847974e-20 4.8571783e-05 -3.9553735e-05
8.535424e-05 0.00015811884 0.00011931702 8.961791e-05 0.00036538905 9.5432166e-05 0.00030053608 7.755169e-05
1.5127029e-06 6e-45 -6e-45 -5.55405e-17 -0.00022256725 -0.00029744476 2.1865635e-05 0.00015644736
-0.00048284687 -2.186186e-05 0.00017806658 0.00039049322 -4.1163645e-08 -9.132944e-05 -1.6578e-05 9.3036e-05
0.00021593976 0.00015357281 -0.000108380846 -8.225069e-06 0.00038767097 0.00022175688 -1.4319911e-05 2.9143886e-33
7.280597e-07 6.0667455e-05 6e-45 6e-45 -0.00035844225 -9.8922654e-05 -0.00014722346 -0.00043575905
-0.00038415843 -3.6398116e-05 -0.00024473213 -0.00033467912 -0.00013618502 -5.9467943e-06 -2.2530969e-05 4.381199e-05
-6.21043e-05 -0.00011716184 -0.00016038242 -2.123115e-05 -0.00017177752 -0.00021044271 -8.225333e-05 4.5891597e-06
8.426434e-06 5.4637787e-11 -1.8057879e-05 6e-45 -5.1702984e-05 -0.00014582342 0.00018823802 5.7998765e-05
7.3967305e-05 -1.0228705e-06 3.5158995e-05 0.0002524946 -4.357074e-05 5.2956428e-05 9.793402e-05 -8.63701e-06
-0.000105706546 0.00017299197 -0.00030130372 0.00022124102 -0.00024505865 8.1132086e-05 -0.000643769 0.00019303638
-3.6802277e-05 9.187764e-05 3.2268075e-05 1.2151402e-05 2.5211411e-06 0.00014180868 7.3097945e-06 0.00013375931
0.0001520877 0.00022198721 -0.00012167422 -2.9042428e-06 -4.712745e-05 3.698297e-05 6e-45 6.3544525e-05
-0.00010814586 3.727482e-05 -5.4143973e-05 -1.7820622e-06 -0.00014621699 0.00032629582 -0.00010615367 -0.00019508296
-2.2391224e-09 -4.4061605e-11 1.9513247e-05 7.0410624e-06 -0.00024524864 -7.5460084e-06 -0.00031880703 -0.00019265048
-0.00024247644 1.3238211e-05 -0.0006125517 -0.00017434014 -8.12893e-05 3.4153338e-05 -1.0896893e-05 6e-45
3.4974353e-05 5.1543437e-05 9.4948635e-05 9.8220065e-05 3.0418169e-05 8.4238645e-06 0.00018248278 9.452736e-05
-1.6688735e-05 -6e-45 1.8158104e-05 7.13085e-05 -1.5905343e-05 -6.8725403e-06 -5.504491e-05 8.965835e-05
6.1013383e-05 3.461613e-05 -1.260882e-05 -0.00010957032 -1.9133782e-05 -5.0274448e-05 1.4938663e-28 1.3639647e-05
00000000: 21a4 0e39 765c 42b6 275d bcb8 e1c3 15b9
00000010: 0028 9b39 3ad0 1a39 62a5 abb8 a3ea 6fb9
00000020: b431 74b8 1705 f837 593b 1fb6 9ea5 38b7
00000030: 0400 0000 0400 0000 0400 0000 0400 0000
00000040: 0400 0000 0400 0080 0400 0000 0400 0000
00000050: 0400 0000 0400 0000 0400 0000 0400 0080
00000060: da6f 63b7 b034 d8b8 c97e 5837 8744 22b8
00000070: 0400 0000 4700 26b9 3f95 88b7 7078 58b8
00000080: 0400 0000 0400 0080 3a92 58b7 752e 87b8
00000090: 5209 96b9 89a0 b4b8 c9d2 deb8 b57d 23b9
000000a0: 9772 c3b9 b43e 76b7 db86 beb9 b7e0 b9b9
000000b0: 359e cc36 2959 ce9e 8eb9 4b38 80e6 25b8
000000c0: 3500 b338 b4cc 2539 d639 fa38 40f1 bb38
000000d0: b091 bf39 c122 c838 4591 9d39 3fa3 a238
000000e0: 1308 cb35 0400 0000 0400 0080 5311 80a4
000000f0: f160 69b9 5cf2 9bb9 186c b737 050c 2439
00000100: 9c26 fdb9 fd63 b7b7 62b7 3a39 1dbb cc39
00000110: e8cb 30b3 1f88 bfb8 fc10 8bb7 521c c338
00000120: e36d 6239 6308 2139 864a e3b8 67fe 09b7
00000130: 5140 cb39 6987 6839 8d3f 70b7 311e 7209
00000140: e26f 4335 2f75 7e38 0400 0000 0400 0000
00000150: 4eed bbb9 b274 cfb8 ff5f 1ab9 9776 e4b9
00000160: df68 c9b9 2eaa 18b8 644f 80b9 df77 afb9
00000170: e3cc 0eb9 938a c7b6 e300 bdb7 c4c2 3738
00000180: fe3d 82b8 c9b4 f5b8 542c 28b9 8c19 b2b7
00000190: 2d1f 34b9 49aa 5cb9 6c7f acb8 95fc 9936
000001a0: 425f 0d37 ae4c 702e 007b 97b7 0400 0000
000001b0: a8db 58b8 2de8 18b9 c261 4539 b343 7338
000001c0: e51e 9b38 9049 89b5 af77 1338 4061 8439
000001d0: babf 36b8 881d 5e38 ed61 cd38 ade7 10b7
000001e0: c5ae ddb8 2e65 3539 4df8 9db9 effc 6739
000001f0: 377b 80b9 7525 aa38 9bc2 28ba cf69 4a39
00000200: 255c 1ab8 6fae c038 9557 0738 e0dd 4b37
00000210: e030 2936 7ab2 1439 a846 f536 be41 0c39
00000220: bb79 1f39 3dc5 6839 592b ffb8 83e6 42b6
00000230: b7aa 45b8 291e 1b38 0400 0000 3543 8538
00000240: 5ecc e2b8 8957 1c38 a618 63b8 312f efb5
00000250: d351 19b9 af12 ab39 d19e deb8 2f8f 4cb9
00000260: 0fdf 19b1 f5c8 41ae 61b0 a337 4442 ec36
00000270: b794 80b9 b833 fdb6 8e25 a7b9 3802 4ab9
00000280: 4641 7eb9 af19 5e37 a693 20ba 13cf 36b9
00000290: dc79 aab8 de3f 0f38 cdd1 36b7 0400 0000
000002a0: 6db1 1238 5830 5838 291f c738 7ffb cd38
000002b0: 852a ff37 3954 0d37 d958 3f39 fd3c c638
000002c0: c9fe 8bb7 0400 0080 3b52 9837 768b 9538
000002d0: 776c 85b7 ac9a e6b6 06e0 66b8 f606 bc38
000002e0: 9fe8 7f38 c930 1138 788a 53b7 1ec9 e5b8
000002f0: 7c81 a0b7 c7dd 52b8 bc5e 3d11 d6d5 6437
