torch-rl/storage/SimpleCorridor_5M_r16/status.pt (torch, 650709 bytes, 51 tensors)

image_conv.0.weight f4 [16, 3, 2, 2]
00000000: 5f0b 613e 7031 44be 4f13 f6bc 2823 f43d
00000010: 7c5d 3bbe 98be 9f3d 9681 19bd 2db0 de3d
00000020: 2360 243d 94c7 10bd 45fa a33d 7e52 693c
00000030: 1e48 163d e90f 25be 6138 d6bd fee5 59bd
00000040: 4092 df3b dc9a 963c d5d1 283e 1182 023d
00000050: 472b dcbd 7288 32be e430 46bd f102 ffbd
00000060: af0b efbd f366 25bd 9091 203e b598 b63d
00000070: c2db adbe 4056 b23d e46b b63c 1237 753e
00000080: aa1d 433e ecaa 86be f487 8cbe 3894 0ebe
00000090: d22e 593e 2dc8 98bc 2d47 e43d 6165 24be
000000a0: 6f71 853e 484b 8dbd 9598 3d3e 85b4 c83c
000000b0: 9fba 1bbe cbf1 173e 86e9 1cbe 6de0 ad3d
000000c0: 49bc 00be 795d 6ebc d805 a3be c6e9 36be
000000d0: 7726 dd3d 0d93 f5bd 9556 783e ff74 413e
000000e0: a175 5dbc 6b4f 45be e102 343e 357c b73d
000000f0: 24ae 20be c3ea 363e 62c6 283e bdb9 9a3e
00000100: 609d 92bc 4e3c abbd d15d cb3a c3b7 d1bc
00000110: ba56 60be 49c4 51be 3fcf 203e 19a2 8abd
00000120: e032 2a3d 51e1 fcbc 8139 0cbc 0fa7 c73b
00000130: 9b07 843c 1b1a ca3d f74b b6be beb5 b83d
00000140: 77d8 4fbe 0e09 5fbe c3d0 8f3c e17d 49bd
00000150: 0ffa 513e 4fdc 34be b89f 83be 2cfd 8a3e
00000160: 0606 4fbd 2c95 223e 7524 ce3d 6e39 17be
00000170: 798b 6d3d 7e01 8e3d 7cec 45be 6e41 0cbe
00000180: 4497 093d 5d87 61b8 5ba8 63be 11b5 30be
00000190: 51eb 463e e7e8 a7bd 16c1 943d df68 7d3d
000001a0: 8214 3fbe ca63 7bbe 87df 8d3e 9bf7 763c
000001b0: 0c1b 3b3e d2df ed3b 598d 783c ec4a 673e
000001c0: d090 3f3e 905b 64be 3704 38bd 0721 103e
000001d0: 3b25 563e e2a3 373e 08ef 55be 7edd 54be
000001e0: 00db 2dbe 292e 7f3d 4eb2 bf3e 90fa 3fbe
000001f0: cbf4 3f3e 4bee d1bd c55c 65be 9c31 a4bd
00000200: 6b51 2a3e 2237 893e c594 37be 694c 803d
00000210: fc17 393e c3ec 293e fe46 7b3e 3208 443e
00000220: 0b07 da3d 8040 563d 078a 63be 11c9 35be
00000230: 9873 07be ebaf 09bd d330 35be 8d4b d83d
00000240: ff6b 9b3d b966 03be 1133 203e 4ef9 2e3d
00000250: 6d06 283e cd62 f73d e572 92bd 46ab 483e
00000260: 36b2 08bd f17d 22bc ce81 8bbe 4e41 3ebe
00000270: 6752 77be beb4 15be 2c77 413e bfc0 04be
00000280: 4f6e 19be dee7 ca3d 6a9e 9d3b 0aa0 133e
00000290: 6cf7 18be b62e 803d aa3a d7bd 45d4 84bd
000002a0: 5e67 9ebe 65f8 3abe fe3b 40be 008f 763d
000002b0: 0b57 b43c 1d79 203d cc5b 453e 71d5 2e3e
000002c0: 8b9d 493e e29b 163c f07e 4cbe 5104 673e
000002d0: 509a 29bd 0f46 363c e342 5cbe 37f7 69bd
000002e0: b1ee 0fbe 19c5 963e 288e 7fbe 45b5 8ebe
000002f0: fa99 20bc 59d6 1fbe 688a d33d 1292 e3bd
0.21976994 -0.19159484 -0.030038504 0.11920768 -0.1829738 0.07800025 -0.0374771 0.108734466
0.040130746 -0.035346583 0.080067195 0.014240859 0.03668987 -0.1611935 -0.10459972 -0.053197853
0.0068228543 0.01838439 0.16486295 0.031862322 -0.10750442 -0.17434862 -0.04838647 -0.12451733
-0.1167215 -0.040381383 0.15680528 0.08915845 -0.33956724 0.08707857 0.022268243 0.23946789
0.19054285 -0.26302278 -0.27447474 -0.13923728 0.21209267 -0.018650139 0.11146388 -0.16054298
0.26063105 -0.068991244 0.18515237 0.02450014 -0.15207909 0.1483833 -0.15323457 0.084900714
-0.12571825 -0.014548653 -0.31840396 -0.17862615 0.10798352 -0.11990938 0.24251778 0.18892287
-0.013516814 -0.19268577 0.17579223 0.089592375 -0.1569143 0.17862992 0.16481927 0.30219832
-0.017897308 -0.083611116 0.001551563 -0.02560032 -0.21908084 -0.20485033 0.15704058 -0.06769199
0.041552424 -0.030869158 -0.008558632 0.006092913 0.016116908 0.098682605 -0.35604832 0.090190396
-0.20297419 -0.21780798 0.0175556 -0.049192313 0.20505546 -0.17662166 -0.25707793 0.2714628
-0.050542854 0.15877217 0.100655474 -0.14768001 0.05799434 0.06933878 -0.19328493 -0.13696834
0.033591524 -5.3770247e-05 -0.22232191 -0.17256571 0.19425704 -0.081987195 0.07263391 0.06186759
-0.18660167 -0.24549785 0.277096 0.015073682 0.18272036 0.0072593475 0.015170419 0.22587174
0.18707585 -0.22300553 -0.044925895 0.14075099 0.2091264 0.1793361 -0.20891964 -0.20787618
-0.16978073 0.06229988 0.37440723 -0.18747926 0.18745725 -0.10250529 -0.2239867 -0.08017275
0.16632621 0.26799875 -0.17927845 0.06264574 0.18075556 0.16594224 0.245388 0.19143751
0.106458746 0.052307606 -0.22220622 -0.17752482 -0.1322769 -0.033615034 -0.17694406 0.10561285
0.07588958 -0.12832154 0.1564448 0.042718224 0.16408701 0.12079392 -0.07150821 0.19596586
-0.03337308 -0.009917722 -0.2724747 -0.185796 -0.24152528 -0.14619729 0.18893117 -0.12964152
-0.14983486 0.099075064 0.004810144 0.14416519 -0.14938134 0.062589094 -0.10509236 -0.064858
-0.30938238 -0.18258817 -0.18772885 0.06019497 0.022014162 0.039178003 0.19273299 0.17073609
0.19689004 0.009192439 -0.19970298 0.2256024 -0.04140693 0.011125102 -0.2150989 -0.057120528
-0.14055897 0.2944725 -0.24956572 -0.27872673 -0.009802336 -0.15609111 0.10329133 -0.11111845

image_conv.0.bias f4 [16]
00000000: b918 0bbe d244 27bd da3c 333e 00e0 5bbe
00000010: d219 c83d d94d 1b3e e48a 893e c825 5abe
00000020: 7b56 0b3d 83b6 8dbe dd26 583e fc61 18be
00000030: 596e 103e 3ef2 f9bc 7e00 d5bd ff40 483c
-0.1358365 -0.040837117 0.17503682 -0.21472168 0.0977055 0.15166415 0.26863778 -0.21303475
0.03401802 -0.27678308 0.21108575 -0.14881128 0.14104594 -0.030511018 -0.104004845 0.0122225275

image_conv.3.weight f4 [32, 16, 2, 2]
00000000: 3da8 8c3d 1ea8 fb3d c4ea df3c d7d6 d23c
00000010: 4bf9 05be 1e2c 193d 2622 f03d a34d e73d
00000020: 2ead b43d 58db dabd de4c 91bc 042c 003e
00000030: 0499 4cbd 2923 c93d 71d5 c1bd 02ff 87bd
00000040: 4a48 3a3d 51e3 0abe 4362 05bc 726d e23d
00000050: e181 053e 3d4a 2a3e 649f 20bd fc89 9fbd
00000060: 84ab de3d 940c 01bd aa49 45bc e251 353d
00000070: b0eb f1bc c8be 2a3e 94e2 3c3d dac7 09be
00000080: 6370 91bd 86f2 0bbd 7f0d 8e3d 81e2 a43c
00000090: b647 82bc 56d7 883c 914a 06be d1ae 7cbd
000000a0: c5b4 eaba 6858 3c3e 37ce a03d e977 92bd
000000b0: e49e f93c 5ff2 a13d 9f23 223d 7d4d 46bd
000000c0: af1f ca3d 7380 bd3d 00f3 033d 92f5 263c
000000d0: bcc1 043e 3ffa 013e 92ef 7cbd 3f3e 0b3e
000000e0: d2d6 ab3c 98ea 91bd 51de bc3d a36e 88bd
000000f0: 0be1 12bd 3f34 14be d79a a93d c63c 753d
00000100: 3234 853c 62c0 b63d d012 8cbd 6a25 86bd
00000110: 47f5 efbd 4625 aabc 2aa9 9bbd d3b0 52bc
00000120: 8886 31bd 5f2e e43c 972b b03d 3b92 a93c
00000130: 836c 1dbd ed65 a2bd f26b fdbd 3141 b23d
00000140: 9c62 20bd ccde 373c 9055 85bc d2b5 c9bd
00000150: 716d 523d 9589 593d 3fa4 8cbc d03b b6bd
00000160: 2dbd 95bd 684a 85bc 4e70 bdbd 5e5f aebd
00000170: 9634 babc 7566 57bd 092a 923c c826 77bd
00000180: 6ced ebbc 7c58 84bd 5003 08be 8e1b b73d
00000190: 0c52 8b3c de40 c73d e7a7 1ebd 5a50 52bd
000001a0: 8eb0 07be 557d a4bd c8b0 893d 8bab 0dbe
000001b0: bbc9 39bd a375 513d e96a 733d 532b cc3c
000001c0: 8721 2dbd 6356 d8bc 4711 39bd 2437 81bd
000001d0: 66d8 213d afdf 60bd 243b b7bd ef93 683c
000001e0: 779c d0bd 400c 30bd 46ed 363d f81d f53c
000001f0: 9fd5 cb3d 6d12 b7bd d439 adba 9461 03bd
00000200: 59cf adbd e213 c8bd d6e9 123d 2237 50bb
00000210: 91ba b4bd 8b5a e7bd 8d4e b6bd d7c0 023e
00000220: b1f8 d0bc 3dff 73bd e733 1cbd 1275 5fbd
00000230: 1f2f cdbd 0edf 6ebd 749f c13d 9843 423d
00000240: 7192 adbd af3b 9ebd f41e e63d 051a ca3d
00000250: ad8d 093e 2fd3 af3c 15b8 8a3d c20e 9ebc
00000260: 852a 74bd 0570 edbd 2cd7 bd3d 0068 77ba
00000270: 9175 a13d b928 91bc c0a5 00be 9c88 a8bd
00000280: 1217 813d bff6 82bc 4a75 bbbd 3194 793d
00000290: 91fa 4e3b d3d7 17bd 02bb 763d ad27 b23c
000002a0: 639e 9bba a2f9 113e 9eef 253d 4a0c 6eb9
000002b0: 1a30 91bb 1e36 d8bd b0bf de3d ebec 27bd
000002c0: ca68 98bd 6c93 973d ce45 523d c0eb ac3c
000002d0: 5a71 35bd 8103 99bd 0bca 833c be82 ae3d
000002e0: 9cac 94bc b8a8 c4bd 823e 093e 6a05 e3bb
000002f0: 3e23 db3d 33bd df3c e83e 1e3e ef0e de3d
00000300: a6ba 85bd 0752 c73d 379a 4fbb 18e8 b0bd
00000310: bbdc 2bbd 87d3 e5bd ac47 e7bd 7818 c7bd
00000320: 43d0 a13d 1e99 00bd 3bd5 0cbd 381e 2f3d
00000330: d8f0 3f3c e52d b4bd 8a51 833b 73c9 5f3d
00000340: 2aa4 c5bd 631c e13d f8a1 e4bd ad04 7dbd
00000350: 8dba e1bd 486c f43d 7e34 3c3c 1ed1 d13d
00000360: b7ff a2bb 44e8 623d c319 41bd 76f4 d3bd
00000370: cb70 17bc 7c08 0a3b 50c4 183c 181e 42bd
00000380: 33f2 c8bc ab20 cb3c 0de0 9d3c af9a d2bd
00000390: dab0 3f3d 7855 3d3c 4550 323d ab29 b83d
000003a0: cb4d 03be 1a0a 083e 4f23 1bbe e458 bd3d
000003b0: 78a1 16bd 96ba 643d ad3f 94bd 96c4 aa3d
000003c0: ed6d 99bd 9e9c e4bd 3c83 e63c d471 853d
000003d0: d548 ff3d 50f4 8f3a 1af5 dd3d eb7a a03d
000003e0: 5b45 59bd 5c33 a7bd 8790 653d 2fc2 90bd
000003f0: f8e8 863a 2e4f 26be d59f b93d 7a9c 993c
0.068680264 0.12287925 0.027333625 0.02573721 -0.13083379 0.03739559 0.11725263 0.11294105
0.08822094 -0.10686368 -0.017736848 0.1251679 -0.049950615 0.098211594 -0.09464539 -0.06640436
0.045479096 -0.13563277 -0.008141103 0.11056031 0.13037826 0.16629882 -0.039214507 -0.0778999
0.10872558 -0.031506136 -0.012041489 0.044267543 -0.02953133 0.1667434 0.04611452 -0.13455144
-0.07101514 -0.034166835 0.06936168 0.020127537 -0.015903335 0.016704243 -0.13114382 -0.061690155
-0.0017906657 0.183931 0.07851832 -0.07151777 0.030471273 0.07907557 0.039584752 -0.048413742
0.098693244 0.09253015 0.032214165 0.010190384 0.12964529 0.12693118 -0.06175191 0.13597964
0.020976458 -0.07124823 0.09222091 -0.06661727 -0.03585915 -0.14473055 0.082814865 0.05987241
0.01626024 0.08923413 -0.06839526 -0.06550105 -0.11716705 -0.020769726 -0.07600625 -0.012859541
-0.04334119 0.027854143 0.08602064 0.020699611 -0.038433563 -0.07929597 -0.123741046 0.087038405
-0.03915654 0.0112225525 -0.016276151 -0.098491326 0.051373903 0.053109724 -0.017168162 -0.08898127
-0.07311473 -0.016270831 -0.09249936 -0.085142836 -0.022730153 -0.052587945 0.01784231 -0.06033972
-0.028799735 -0.064621896 -0.13282514 0.089408025 0.017006896 0.09729169 -0.038734343 -0.05134616
-0.13250944 -0.08031718 0.067231715 -0.1383497 -0.0453584 0.051137578 0.05942813 0.024923002
-0.042268302 -0.02640838 -0.045182493 -0.06309345 0.039513014 -0.05490082 -0.08946827 0.014195426
-0.10186093 -0.042980433 0.044659875 0.029921517 0.09952854 -0.08939061 -0.0013216087 -0.03207548
-0.08486814 -0.09769417 0.035867535 -0.0031771143 -0.08824647 -0.112965666 -0.08901701 0.12768875
-0.02550921 -0.059569586 -0.038135435 -0.054555006 -0.10018753 -0.05831819 0.094542414 0.047427744
-0.08475197 -0.077262275 0.112363726 0.09868244 0.13432951 0.021463005 0.06773392 -0.019294146
-0.059610862 -0.11593632 0.092695564 -0.00094377995 0.07883752 -0.017719613 -0.12563229 -0.08229181
0.063032284 -0.015986798 -0.091532305 0.060932342 0.0031582455 -0.03707106 0.06023694 0.021747435
-0.0011872764 0.14255384 0.04051172 -0.00022702027 -0.004430783 -0.10557197 0.10876405 -0.040997427
-0.07441862 0.07401165 0.051336102 0.021108508 -0.044297554 -0.074713714 0.016087553 0.08521031
-0.018148713 -0.09602493 0.13402751 -0.0069281356 0.10700081 0.027311897 0.15453684 0.10842692
-0.06529741 0.09732442 -0.0031677613 -0.08638018 -0.04195855 -0.11221986 -0.11292967 -0.09721464
0.07901051 -0.031396024 -0.03438304 0.04275343 0.0117151365 -0.08797816 0.004007523 0.054635476
-0.096504524 0.109917425 -0.111637056 -0.061772037 -0.1102191 0.119347155 0.0114871245 0.10244964
-0.0049743312 0.055397287 -0.04714371 -0.103493616 -0.0092432005 0.0021062186 0.009324148 -0.04739198
-0.024529552 0.02479585 0.019271875 -0.1028341 0.04679952 0.011556022 0.043533582 0.089923225
-0.12822644 0.13285103 -0.15150188 0.0924547 -0.036775082 0.055842005 -0.07238708 0.08338277
-0.0749167 -0.11162685 0.02813875 0.065158516 0.124650635 0.0010982845 0.10837765 0.07835945
-0.05304466 -0.08164093 0.056046035 -0.070682876 0.0010292819 -0.16241142 0.09063689 0.018751372

image_conv.3.bias f4 [32]
00000000: ba18 08bc b23c 6fbd 0e72 393d ad63 babd
00000010: 2a29 69bd 9c59 f8bc 9b9d bebd 975c 91bc
00000020: 0d4d 80ba 7910 b83d dcac bd3d 7a69 1abd
00000030: e8b7 dfbd 673e 85bd 8a79 ffbc d7d2 a2bd
00000040: 4000 303d 1a50 923d 6e2f 883d 5ff9 30bd
00000050: 2523 39bd fc22 1b3e 99a7 23bd 54ef e5bd
00000060: edbd 27bd 4319 243d a1d4 2bbd 5f6a 21bd
00000070: ebbd 86bd 48bc 6e3c cb06 86bd e8a5 da3b
-0.0083066765 -0.058407493 0.045274787 -0.09101043 -0.056924023 -0.030316167 -0.093074046 -0.017744346
-0.0009788588 0.08987517 0.09261486 -0.037698247 -0.10923749 -0.06506043 -0.031185884 -0.07950371
0.04296899 0.071441844 0.066496715 -0.04320657 -0.045199532 0.15150064 -0.039954755 -0.11227289
-0.04095261 0.040063154 -0.041950826 -0.039408084 -0.06579193 0.014571257 -0.065442644 0.0066726096

image_conv.5.weight f4 [64, 32, 2, 2]
00000000: 99de 003d e0f6 89bd 51c9 7dbd 4ed0 21bc
00000010: 0413 eebb ea15 533d fd9f 49bc 6e21 563c
00000020: c452 61bd 29cb bb3c 205a 1b3b c2c0 9fbd
00000030: 178d 2d3d d28c e6bc 8267 a13d ed13 c3bd
00000040: 1147 6fbc be5d c83c b137 5a3d 4d5f 97bc
00000050: ac52 43bd 63ed 8bbd deea 89bd 0dc0 913d
00000060: 0ea9 c3bd b4c2 21bd cc6c f93c 7f03 2c3d
00000070: 4caf a2bd 818e 8f3c 5813 2f3c dc23 a63d
00000080: d469 74bb 13cf f53c 1a85 47bc 796c 8a3d
00000090: 0adb fcbc 43a6 94bd 50f5 9bbb be74 8abd
000000a0: 4c72 24bb bff1 823d cb8c cabd 054f 75bd
000000b0: 0c99 e6bb 1b79 9ebc a53a 1fbd 5ccb 753d
000000c0: bd49 033d 5897 72bd 73e3 bb3b ac8b e2bb
000000d0: 70d8 9cbd 5c6f 533b 088e a6bd 63fd 7bbb
000000e0: 90da 233d 135e c1bd b5be a3bc f943 9e3d
000000f0: 9eef 4c3c 2072 6ebd 4d5b 64bc 05ec eebd
00000100: 3a56 a7ba c5dc 733d 2a06 803d 74f2 dabc
00000110: 2fd3 e63a ac53 92bc e5c5 60bd 5339 dfba
00000120: 8137 90bd e604 153d bd49 213c 022c 40bd
00000130: e1ba 17bd 590f 97bd 7464 a5bb 5072 c33b
00000140: d4bd 7c3d 3254 bcbd 05b4 d2bd 4df5 9ebc
00000150: 2dc5 5d3d 7c72 cabc c71b eb39 b29b bebc
00000160: 3eac dbbc 9bb7 2f3d 0aea 553d 163b 8ebd
00000170: d2d0 58bd b8c1 8cbd b117 b0bc 607e 02bb
00000180: a5d0 613d afe9 cebd a5e2 2e3d 26c1 67bd
00000190: 6428 9e3c 4ba3 3ebd 0ec0 353d 8e66 a6bd
000001a0: 22cd b5bd 3fda 043b 6aef 5b3c 802d 2ebd
000001b0: cd21 d33c 2cec 25bd a4d0 c4bd 5946 ddbc
000001c0: 4099 0dbd ee34 133d 7c31 353d 582e 883c
000001d0: 444d 223d d486 9ebd 4087 c0bd 0ca2 e33b
000001e0: c0ee 6f3c 2c90 98bd eb47 733d 0078 8dbc
000001f0: ac10 61bd e116 313d a944 923d c28f 283c
00000200: e384 18bd a9b8 a73a 6d56 9fbd ca1b 353d
00000210: 4147 633d 63c9 9ebc a382 8fbd 8b33 7e3d
00000220: 6413 9dbd 00dc 66bd bb35 863d 2db8 0cbd
00000230: 63e7 893c 3f37 8a3d ef11 37bc 0ab9 dfbc
00000240: 3790 9b3d 3969 373c dade 123d a311 10bd
00000250: 5a2b 9cbd d9b4 623c fc04 56bd ad3d 3bbd
00000260: 8170 9fbd bfa0 9a3d dd9f a0bd 9d0f 393c
00000270: 8fb5 723c a00d 7a3d 0be7 373d 0278 7dbd
00000280: cf1a 1b3d 49ba 3abd 9209 fd3a 63e6 06bd
00000290: 30d8 a9bd f9f9 e63c dc98 51bd 7591 b43d
000002a0: 7804 5e3c 6225 12bd dd6d 96bd fc47 b4bd
000002b0: 2888 36bd 096d 60bd 34a3 d039 d10c b03c
000002c0: 4ffb 9c3d 90d1 f43b b315 93bc e689 33bd
000002d0: b3b5 4bbc 9287 453d ac8a aebd 4168 a3bd
000002e0: 0e2d 1e3d 46a9 f9bc 05f1 09bd cc2d 75bd
000002f0: 2fd6 9bbd d88b 9dbd 30e2 2cbd de22 b2bd
00000300: b847 59bd 3dee 863d 2cb9 0bbd 61bf 883d
00000310: ad99 a8bd b8e4 b03b 84d0 0bbd 8b54 babd
00000320: e172 02bc 50f2 813d 87ba 35bd 8a48 9d3d
00000330: 6d9f 1fbc b26f e5bc a64d 423d 1881 9d3d
00000340: 0ae4 993d 7a00 433d 97ab a8bd 20bd b7bc
00000350: a5fb 223a 89bd 4cbd 34c8 f93c 5610 d7bc
00000360: 2e9d 9ebd 58ce 2dbd 29c5 80bd 0259 f73c
00000370: c6b9 83bd a985 b6bc 8bf4 143c 951c 1c3d
00000380: 1f18 99bd 62f5 573d 2b4b 87bd 258d bbbd
00000390: 5de8 033d babd 4dbd 3c39 303d 045d fa3c
000003a0: 2d48 22bd a667 07bd edd7 48bd 6633 aabc
000003b0: 6b6c 8d3a ccb6 9dbb 0e4b 67bd d2ae 9ebd
000003c0: fb88 62bd 7580 f73b dac1 493c 4dcf 58bd
000003d0: 2db6 6abc 7e36 8dbb 9787 813d 79df a6bd
000003e0: ca45 21bd 4654 d8bc 2e43 3ebc dc60 33bd
000003f0: ccd3 193d ef15 08bd fd69 b13b fcf4 4dbd
0.031462286 -0.06736541 -0.06195957 -0.009876324 -0.0072654504 0.05153457 -0.012306211 0.013069494
-0.055010572 0.022924023 0.0023704842 -0.078004375 0.042370882 -0.02814332 0.07881071 -0.09525285
-0.014604346 0.024458762 0.053275768 -0.01847806 -0.047686264 -0.06832387 -0.067342505 0.07116709
-0.09553729 -0.039492324 0.030447386 0.04199552 -0.079435915 0.017524006 0.010685764 0.081123084
-0.0037294524 0.030005967 -0.01217773 0.06758971 -0.030866165 -0.072582744 -0.004759468 -0.06760548
-0.002509254 0.06393766 -0.098901354 -0.059889812 -0.0070372876 -0.019344857 -0.038874287 0.06000839
0.032052744 -0.059226364 0.005733901 -0.006913623 -0.0765847 0.003226242 -0.08132559 -0.003845059
0.04000336 -0.09441771 -0.019988397 0.077278085 0.012508301 -0.058214307 -0.013937783 -0.11666111
-0.0012766786 0.059536714 0.06251176 -0.026726939 0.0017610545 -0.017862163 -0.054876227 -0.0017030634
-0.070418365 0.036381625 0.009844241 -0.04691697 -0.037043456 -0.07375974 -0.0050473753 0.005964555
0.06170447 -0.091957465 -0.10288242 -0.019404078 0.05414312 -0.024712794 0.0004484339 -0.0232676
-0.02681553 0.04289971 0.05222515 -0.069448635 -0.05293352 -0.068728864 -0.021495672 -0.001991175
0.05513062 -0.10103165 0.042696614 -0.056580685 0.01930637 -0.046542447 0.04437261 -0.081250295
-0.088770166 0.0020271686 0.01342378 -0.04252386 0.025772953 -0.040508434 -0.096101075 -0.027011083
-0.03456998 0.03593915 0.044236645 0.01662366 0.039624467 -0.0774056 -0.09400797 0.0069468077
0.014644325 -0.074493736 0.05939476 -0.017269135 -0.05494754 0.04323471 0.07142002 0.010288181
-0.037236106 0.0012796122 -0.07780156 0.044215955 0.055487875 -0.019383138 -0.07007339 0.062060874
-0.07669714 -0.056362152 0.06553217 -0.03435533 0.016833967 0.067488186 -0.011173709 -0.027309913
0.07595866 0.011194521 0.03585706 -0.03517307 -0.07625456 0.013837063 -0.052250847 -0.045713115
-0.0778513 0.07550191 -0.078429915 0.011295226 0.014813795 0.06104815 0.044898074 -0.061882026
0.037867364 -0.04558781 0.001930522 -0.032934558 -0.082931876 0.028195368 -0.05117117 0.08816806
0.01355087 -0.035680182 -0.073451735 -0.088027924 -0.044563442 -0.054791484 0.00039794447 0.021490486
0.07665121 0.007471271 -0.017954683 -0.043832682 -0.012433457 0.048224993 -0.08522543 -0.07978869
0.038617186 -0.030476224 -0.03367712 -0.05985813 -0.07609212 -0.07692689 -0.042207897 -0.08698057
-0.053046912 0.06588409 -0.03411214 0.06677128 -0.08232436 0.005398359 -0.034134403 -0.090981565
-0.00796196 0.063450456 -0.04436734 0.07679851 -0.0097426 -0.028007362 0.047437333 0.07690638
0.07514198 0.047607876 -0.08235853 -0.022429049 0.00062173075 -0.049985442 0.030490972 -0.026252907
-0.077448234 -0.042433113 -0.06287605 0.03019381 -0.06431918 -0.022280531 0.009091507 0.038113195
-0.07475304 0.05272425 -0.06606134 -0.091577806 0.03220402 -0.050229765 0.043023333 0.030561931
-0.039619613 -0.03305783 -0.049034048 -0.020776462 0.0010789757 -0.004813051 -0.056468062 -0.07748188
-0.055306416 0.007553155 0.012314284 -0.052932072 -0.014325661 -0.0043094745 0.0632469 -0.08148093
-0.039373197 -0.026407372 -0.011612697 -0.043793544 0.0375555 -0.033224043 0.005414246 -0.050282463

image_conv.5.bias f4 [64]
00000000: a861 a9bc 0b2c b0bc b340 adbb 0392 9bbb
00000010: 3a4c dabc 374e 46bc 3441 76bb 23d0 c7bc
00000020: b97a fa3c 323d 06bd 7700 e13b c3c4 873d
00000030: 7d71 87bd 8e01 cdbc 1c3d a33c 7123 26bd
00000040: ae7f 04bc 2199 b43c 74fa 523d 58a2 8b3b
00000050: 4197 d6bc 7880 0cbc e05b d5bd 05a1 87bc
00000060: c034 313c 3edb b93c 568e 023e 5fbb a13c
00000070: 34e4 f43c 9ce1 efbd 9541 383c 37f6 243a
00000080: 112a 7fbd 35cc f0bd 95d5 cf3d 553f 8ebd
00000090: 79e8 d3bd ee68 d6bd efe0 a23b b7ec 123c
000000a0: 7c08 c9bc a824 723b 9b17 33bd 00e2 b3bc
000000b0: 1493 73bc 2cd7 9c3d ee05 703b 1884 52bd
000000c0: 4052 6f3c 1237 58bd 1dbd b7bc 4e8f 58bd
000000d0: 38ff 853d ffe5 1b3d 20a3 bfbd 6072 413d
000000e0: 5a32 acbd 9568 4b3d 6288 92bc 7d87 8bbd
000000f0: 22f4 05bd bf36 80bd d1af 463d 37e6 8fbd
-0.020676449 -0.021505376 -0.0052872538 -0.0047476306 -0.026647676 -0.012103609 -0.0037575485 -0.02439124
0.030576097 -0.032773204 0.0068665105 0.06629326 -0.06613443 -0.025025155 0.0199266 -0.040561143
-0.008087082 0.022045674 0.051508382 0.0042612962 -0.02619517 -0.008575551 -0.104179144 -0.016556272
0.010815799 0.02268755 0.1274961 0.019742666 0.029893972 -0.117129534 0.011246105 0.00062927924
-0.062295977 -0.117576994 0.101481594 -0.069456734 -0.10347075 -0.104692325 0.004970662 0.00896757
-0.024540178 0.0036948118 -0.043723684 -0.021958351 -0.014866609 0.07658228 0.0036624628 -0.051395506
0.014607012 -0.052786894 -0.022429043 -0.05287104 0.0654282 0.03806114 -0.093572855 0.047228217
-0.08408041 0.049660284 -0.017887298 -0.06812952 -0.032703526 -0.06260442 0.048507515 -0.07026332

memory_rnn.weight_ih f4 [256, 64]
00000000: 05c9 2ebd 1a12 d8bd e483 113d 933c dc3d
00000010: af2a 843c 59c7 abbc 8e4b 243d 4538 7bbd
00000020: e95c 003e c743 1dbd 9a70 353d 96d2 623d
00000030: a16a 0cbd 2f11 993d ecf9 623d 9437 abbc
00000040: 4ba2 25be 561f a43d 7a3b 5d3d 0e38 71bc
00000050: d5e6 47bd 153d edbd 019d c6bd 4a8e 58bc
00000060: fda0 c9bd 2201 d9bd 055d 06be 88f8 9fbc
00000070: 27f8 953d 6da6 b4bd 3f40 04be 7dfc 563b
00000080: 84eb 0dbe ef27 39bc ac4d d03d 6df3 e2bd
00000090: 4c36 e63c d0e3 26bd dad8 1a3e e9b0 543b
000000a0: de65 4dbc 81a7 79bc 20ae 94bd 7a5d a83d
000000b0: 0ce1 24bd df65 c43d a735 d63d 6c60 afbd
000000c0: 7ae6 c33d 1de3 ddbb 46ee 823d 78af 77bd
000000d0: 3fcc 593d 315c d83c 737e 1a3b b31e 89ba
000000e0: f7e3 513c 5394 77bd f355 c43d c4e1 6c3d
000000f0: b6ce 7abd 5514 cfba 252f f7bd 5701 23bd
00000100: 33a3 453c e362 f43d 8faa 20be 77e8 37bd
00000110: a050 adbd ba0d b13d 978a ddbd b4e5 f53c
00000120: bcc9 eb3c 6980 8c3d ce40 0b3d 3dd9 95bc
00000130: 26f6 fa3d 33c1 86bd 6a4c c03d 6421 503d
00000140: 4233 c9bd d40f 19bd 725b 703d 2b3d b2bd
00000150: 5f30 bb39 a6e7 f6bd 1366 773d ed74 d9bd
00000160: a5a4 873c e15c d4bd 4667 8dbd db9b 2fbd
00000170: e484 95bd d3d3 bfbc 87e5 0b3c ab3d 02bd
00000180: f9b4 ba3d 6c35 f8bd 3922 203c aa00 c5bd
00000190: 2280 64bd 2733 3bb8 492e a9bd 4f04 6e3d
000001a0: 567e f13d 052d 39bd 3b6f 71bc 0406 773c
000001b0: 1121 b43d 518b db3d 203e 213d f280 9c3c
000001c0: cec7 ee3d 86e1 97bd e6bd 753d 55db 94bd
000001d0: af44 203d 46cf fdbd 2d76 14bd 00e7 f43d
000001e0: 81e7 9e3d 8ea0 e4bc f317 6fbd af8d cebc
000001f0: 06c2 b53d 8e90 b73c e743 35bd 871f 63bd
00000200: 3c63 a53d 4373 a0bd 0144 61bd 7401 dabc
00000210: 9239 d43d 55a7 c43d 8434 af3d 82b4 d0bd
00000220: 02a1 1f3d f5ed 0cbc e452 4c3d d2d2 c13d
00000230: 6b68 cfbd 8ca8 0bbe d52f e63b e3e8 03be
00000240: 9c6d 343d 7d82 bfbd 2343 85bd d9a0 c3bb
00000250: 361e 733d 963a e33d acce 313c b45c 9b3d
00000260: 07df 073d 0a06 013e 3385 d7bd 6858 46bd
00000270: 66d1 0bbd b0b4 f9bc aaa7 d9bd ad35 343d
00000280: 5d0c 8f3d 8215 7f3d 3969 bbbd 251f dd3d
00000290: ce78 a7ba 7df4 423c 93b9 f1bd 64cf 63bd
000002a0: 2d6e 483d d56b 5e3c 213e 97bd 2479 f33d
000002b0: 4d46 1f3d 270d 7e3d e163 b8bd 2358 a0bd
000002c0: 8b2f 1b3d 18ab e2bd 9fa7 a4ba 6cd6 b93b
000002d0: 7fdc ac3d 476c a73d e57c 953b 1fbe 5b3d
000002e0: 78e1 c239 deda d33d 1ed9 a4bc a30b b3bd
000002f0: 5402 29bc 8b00 bfbd 6eca 90bd f3d6 dd3c
00000300: fba1 b53d d777 c13d 7905 913d 449a 013e
00000310: 1dc5 f23d 92fb 99bd e367 05bd 3358 583d
00000320: 2a20 75bd bb97 aebc f351 c93d 652b 18bd
00000330: 5746 e0bc 5433 163d 08e4 d03d dbb8 66bd
00000340: 8d59 cebd 207e efbd 776e 2f3d fbf0 003c
00000350: 1a42 823d 44db e5bd b132 9fbd 1d37 b73d
00000360: 6b66 f2bb 8690 b93c 0bdc 103d 32d6 dc3d
00000370: ba6a 85bc 3f42 f9bd 948f ddbd 90bf 08be
00000380: bb34 c8bc 830b dabd f0ad a03d cca9 dbbd
00000390: 1efa 1abd 8661 623d 3dfe c6bc 07f7 c53d
000003a0: 5389 a83c 5096 e13d 5683 a43c bd75 943d
000003b0: 843e aabd 0eeb 7bbd 4341 823d f867 0fbc
000003c0: f26e 233d a04a b1bd 9a32 0f3c a757 6b3c
000003d0: b76d efbc 78c3 d33c 9d84 cb3d acfa 96bd
000003e0: fc1d 1d3d fa59 9f3d 707d e23d 61e6 e6bd
000003f0: 073f 643d d53c 103e 27b2 9c3d a2ed edbd
-0.042672176 -0.105503276 0.03552617 0.10753741 0.016133634 -0.02096908 0.040111117 -0.06133296
0.12535442 -0.038394716 0.04429684 0.05537661 -0.034281377 0.07473981 0.055414125 -0.020900525
-0.16175191 0.08013789 0.0540118 -0.014722837 -0.048804123 -0.11583916 -0.09697915 -0.013217518
-0.09845159 -0.10595919 -0.13121422 -0.019527689 0.07322722 -0.08820806 -0.12915133 0.0032804303
-0.13859373 -0.011301025 0.10171065 -0.11081586 0.028102063 -0.040744603 0.15121785 0.003245408
-0.012536494 -0.01523769 -0.07259774 0.08220954 -0.040253684 0.09589743 0.10459452 -0.08563313
0.09565444 -0.006771459 0.06393103 -0.060470074 0.0531733 0.026411148 0.0023573905 -0.001046142
0.012810699 -0.060444187 0.09586706 0.057832494 -0.06123229 -0.0015798906 -0.12069539 -0.0397962
0.0120628355 0.11932924 -0.15690063 -0.04489943 -0.084626436 0.08645196 -0.108174495 0.030016758
0.028782718 0.0686043 0.03399735 -0.018292064 0.1225398 -0.065798186 0.09389575 0.050813094
-0.0982423 -0.03736861 0.05868096 -0.08703073 0.0003570346 -0.12055902 0.06040008 -0.10618005
0.016558 -0.10369278 -0.069044635 -0.042873245 -0.073007375 -0.023416435 0.00853861 -0.031797092
0.09116549 -0.121195644 0.009773784 -0.09619267 -0.05578626 -4.4631914e-05 -0.08260781 0.058109578
0.11791675 -0.04520895 -0.014735992 0.015077118 0.087953694 0.10719932 0.039365888 0.019104455
0.116592035 -0.07416062 0.059995554 -0.07268397 0.039128 -0.1239305 -0.036245514 0.11958122
0.077589996 -0.02790859 -0.05837245 -0.025214044 0.08874898 0.022407796 -0.04425421 -0.05544999
0.08075568 -0.078344844 -0.054996494 -0.026612021 0.10362543 0.096022286 0.085549384 -0.10190679
0.03897191 -0.008601655 0.04988374 0.09464039 -0.10127338 -0.13638514 0.007024745 -0.12881808
0.044049844 -0.093510605 -0.06506946 -0.0059701023 0.059354983 0.11095159 0.010852497 0.07586041
0.03317168 0.1259996 -0.105234526 -0.048424155 -0.034135245 -0.030481666 -0.106276825 0.0439965
0.0698478 0.06227637 -0.09150929 0.10796956 -0.0012777091 0.011899111 -0.118029736 -0.055617705
0.048933197 0.013575514 -0.07384897 0.1188834 0.038885403 0.06202426 -0.090034254 -0.07829311
0.037887137 -0.1106779 -0.0012562162 0.005671313 0.08440494 0.08174949 0.0045620077 0.05364811
0.0003717055 0.1034448 -0.02012306 -0.08742454 -0.0103154965 -0.093262754 -0.070698604 0.027080035
0.08868786 0.09446686 0.07081122 0.12656504 0.118540026 -0.07518686 -0.032569777 0.05281849
-0.059845127 -0.021312585 0.09830084 -0.03715076 -0.02737729 0.036670044 0.101997435 -0.056328636
-0.10075674 -0.11693978 0.042829957 0.007869954 0.06360264 -0.11223462 -0.077733405 0.08946059
-0.007397463 0.022651922 0.0353661 0.10783042 -0.016286243 -0.121708386 -0.10818401 -0.13354325
-0.024439206 -0.10646727 0.07845676 -0.107257456 -0.037836187 0.055268787 -0.024291152 0.09666257
0.020573294 0.11014998 0.020082157 0.07249019 -0.08312705 -0.061503462 0.06360104 -0.008752815
0.039900728 -0.08656812 0.008740092 0.01436416 -0.02922712 0.025850043 0.09937403 -0.073720306
0.038358673 0.077808335 0.110590816 -0.1127441 0.05572417 0.14085706 0.07651167 -0.116175905

memory_rnn.weight_hh f4 [256, 64]
00000000: c419 f4bd 2b6e 663d b314 0f3e 60b2 563d
00000010: 6f8d ce3c 2236 003e 5c70 94bd 2d85 1f3d
00000020: 8758 28bd d85c 2cbe a72c 993d 6ee0 c73d
00000030: 5bc5 aabd 5a63 a63d 3495 bdbd 3c08 223d
00000040: 93a1 01bd fd18 873d b01c c93d 285f 15be
00000050: 16cc 9a3b 2d66 98bd af54 0a3e a1f3 c23d
00000060: b421 0fbe fae5 e4bd df00 393d a3e8 4ebd
00000070: c040 f43d 5d4c 3c3d cefe 683d d4a7 be3c
00000080: f153 2d3d 4c5d 9d3d 0de4 a63d 45d1 ccbd
00000090: 4c17 b4bc 512d 0ebe 211f 333c 0d2e 2bbd
000000a0: 4080 b2bd a999 193c afd8 c73c eb5a f2bc
000000b0: 6ac2 9a3c 0e20 563d ea91 c43d eabe 823d
000000c0: 6f10 44bd 103e 62bd 0cd8 833d a02d 09be
000000d0: 107b b4bd 6a9d 0e3d 5880 90bd ae37 d53d
000000e0: be65 01be 7834 07bd 68ec 753d 8f0c c8bc
000000f0: a91f 7d3c 07e6 243d 68c1 22bc 5b2d 353d
00000100: 3354 a73d cc09 42bd 88bf fc3d 3031 b03d
00000110: d40d 423d 85f7 6d3b 06c4 d83d 0792 163d
00000120: db29 a23d f3e7 ffbc 2581 60bd b5f5 dabd
00000130: 30e8 6dbc 3687 81bc d817 a0bd 9923 1abd
00000140: a9b6 0fbe 6cc9 a23d 6623 183e 5168 17be
00000150: 1cce 38bd 05e2 c43d fa4e f4bd 3354 dd3d
00000160: 7f5e 513d 75df df3c c96c 1fbd baf1 d6bd
00000170: ab52 a53d da3e c03d 72fe a4bd 4122 24bd
00000180: 4679 11bd a428 26bc b7f6 eb3d 9025 14be
00000190: da27 afbd d9c0 b9bd d58f f83d 2738 47bd
000001a0: 51ce b6bd 3c5c 543d edf8 d5bd 9cf4 5abd
000001b0: a7e0 2c3d 94df 003e a2a9 53bc 9b9d b83c
000001c0: 6845 cdbd d6e1 233c 402e c83d f197 813d
000001d0: ced1 80bc fe4b ee3d 7a3e f9bd f614 163e
000001e0: 41c2 9f3d 5b80 83bc 4e59 c5bd 20e0 1c3d
000001f0: a5d1 b53d 24a6 333c bbd6 a63d c713 8d3d
00000200: 0755 3abc 3ebe 0fbd 5774 99bc 2c6e 113c
00000210: b064 dabc a14a b2bc 61c7 a03d ba58 4ebd
00000220: 46bd e9ba 2a70 f0bc e3c2 d0bd 3924 9e3d
00000230: 61cc 003e 3dd2 0bbd 4954 b6bd 5691 3dbd
00000240: 0940 12be 6b81 d43d e26f 80bd c61a eabd
00000250: 2350 93bd 2f7b 633d d80e 5bbd f639 b43d
00000260: 789e 06be ad69 9dbd 04cc 7bbd 1e99 1abe
00000270: 2cc5 ed3d 1c0f 993d 5ba8 5739 0493 8f3d
00000280: 1497 4dbd 8884 893d a6d8 a73d 0324 c1bd
00000290: 9a75 14bd 2a0c 60bd 6cdc 2abd b215 62bd
000002a0: 9248 b3bd df57 8e3d ec0e 443d 8a6f a2bd
000002b0: 478a 6fbd 4c16 163d af80 513d 4c3d 243d
000002c0: b8e4 1c3d bd37 a03c 410a da3d faa6 bb3d
000002d0: f856 853d 9075 4e3d 5fd3 65bd ac08 9a3d
000002e0: a6f9 eabd 2806 233d c15f 52bd e0d0 ebbd
000002f0: c218 dcbd c196 f53d 6d4a eebd 2ab2 933c
00000300: 34fa 953d 4ba8 b2bd d404 3b3d 4939 dbbc
00000310: 5fc0 bfbd 314e cb3d 71c8 6cbc 4127 b93d
00000320: 69a8 01be 06f8 9ebd 0d67 37bc 1d7b 17bd
00000330: fdd9 9a3a b154 9dbd 3448 583a 960d 063c
00000340: e8f7 763d f9da 953c 3279 ed3d db20 1fbd
00000350: c186 173d b96c 0cbc d7a3 a0bd bee9 753d
00000360: 6f84 e6bc d824 2abc 1324 adbd ade6 94bc
00000370: d6af 0b3e 37b6 4a3d 4320 d3bd 77f4 adbd
00000380: 4cb2 8e3c bb8a b1bd 4889 f1bd 9a1f ce3d
00000390: d4cd c7bd 20e9 febd 36b0 ec3d 7368 9b3d
000003a0: 6ac4 89bd ae90 943d 122b ebbc c77e b23d
000003b0: 43e5 4abd 2efe e8bd 360b 2fbd 2b49 d33d
000003c0: ce86 b4bd 2eea 113d 85ff 373d cfaf 15bd
000003d0: 1a0c 3dbd d982 e4bd dc08 153d 28e0 893c
000003e0: 7401 34bd ecd9 85bd a977 00be 3faa 753b
000003f0: 9fd3 0abd 41f6 6abd db7b bbbb 3680 99bd
-0.11918977 0.056257408 0.1397274 0.052416205 0.025213925 0.1252065 -0.07247993 0.038945366
-0.04110005 -0.16832292 0.0747922 0.097596034 -0.08338424 0.081244186 -0.09256974 0.039558634
-0.03164823 0.06596563 0.09819925 -0.1458708 0.004724036 -0.074413635 0.13508867 0.09519125
-0.139777 -0.11176677 0.045166846 -0.05051483 0.119264126 0.045971263 0.056883626 0.023273386
0.04231638 0.076838106 0.08148966 -0.100008525 -0.021983765 -0.13884474 0.010932715 -0.041791964
-0.08715868 0.009375014 0.024395315 -0.029584369 0.018891532 0.052276663 0.095981434 0.0638407
-0.047867235 -0.05523497 0.06437692 -0.13396311 -0.08812535 0.03481809 -0.0705573 0.10411011
-0.12636468 -0.033009022 0.060039908 -0.02442005 0.015449443 0.040258434 -0.009933807 0.044232707
0.081703566 -0.047372624 0.12341219 0.08603132 0.04737647 0.0036310863 0.105842635 0.036760356
0.079181395 -0.031238532 -0.05481066 -0.10691396 -0.01452069 -0.015811544 -0.07817048 -0.037631605
-0.14034523 0.079485744 0.14857253 -0.14785887 -0.045118436 0.09613422 -0.11929126 0.10807075
0.05111551 0.027328232 -0.038922105 -0.104953244 0.08072408 0.09386988 -0.08056344 -0.04007173
-0.035516046 -0.010141525 0.115216665 -0.14467454 -0.08552523 -0.09069986 0.12136809 -0.048637535
-0.089260705 0.051845774 -0.104478694 -0.053455934 0.042206433 0.12585288 -0.012918862 0.02253609
-0.10023004 0.010002574 0.097744465 0.06327809 -0.015725043 0.11635588 -0.121701196 0.14656433
0.07800723 -0.016052416 -0.09636174 0.03829968 0.08877877 0.010964904 0.08146425 0.06888538
-0.011372811 -0.03509354 -0.018732233 0.008876365 -0.02665934 -0.021764101 0.078505285 -0.050377585
-0.0017832897 -0.029350359 -0.10193422 0.07721753 0.12577964 -0.034136046 -0.08902795 -0.04628118
-0.1428224 0.10376247 -0.0627134 -0.11430888 -0.07193019 0.0555374 -0.053480953 0.08800118
-0.13146389 -0.07686172 -0.06147386 -0.15097472 0.11609873 0.07473585 0.00020566715 0.07010463
-0.050192907 0.067147315 0.08195619 -0.09430697 -0.036244966 -0.0546991 -0.041714117 -0.05519647
-0.08754076 0.06950354 0.047865793 -0.07931431 -0.05848148 0.036642358 0.051148113 0.04009752
0.03830406 0.019557828 0.10646487 0.091627076 0.065107286 0.050405085 -0.056109782 0.07521185
-0.11473398 0.039800793 -0.05136085 -0.11514449 -0.1074691 0.11991645 -0.11635289 0.018029291
0.07323113 -0.087235056 0.0456589 -0.026760714 -0.09362864 0.09927023 -0.014452086 0.0904069
-0.126619 -0.077621505 -0.011194003 -0.036982644 0.0011814233 -0.07682169 0.0008250505 0.00818195
0.060295016 0.01829289 0.11595382 -0.038849693 0.036993746 -0.008570843 -0.0784375 0.060037367
-0.028139321 -0.010384761 -0.08454146 -0.018176401 0.13641295 0.04949018 -0.10308888 -0.084938936
0.017419003 -0.08669039 -0.117937624 0.10064621 -0.097560555 -0.12446809 0.11557047 0.075882815
-0.06726916 0.07254158 -0.028707061 0.08715587 -0.049535047 -0.11376606 -0.0427353 0.1031669
-0.088147745 0.03562372 0.044921417 -0.036544617 -0.04615412 -0.1115777 0.036385402 0.016830519
-0.0439467 -0.06535706 -0.12545647 0.0037485508 -0.033893224 -0.057363752 -0.005721552 -0.074951574

memory_rnn.bias_ih f4 [256]
00000000: 4e12 0e3d a765 febd 1666 d9bd 612c 77bd
00000010: 8122 14be 81b4 18be 9975 f6bd 77ef c93d
00000020: a4a7 72bd 2a58 f6bd 6f2e d7bd ad0e a8bd
00000030: ba35 f3bd 5c35 dcbd 87eb 26be f92c 0fbe
00000040: 3528 1abe 33a6 1bbe c108 5cbe d31b efbc
00000050: 42ae d1bc 2a34 01be 370a e5bd ad5f 21be
00000060: 8a81 16be d346 b1bd 4392 60bd 22b0 26be
00000070: fa1a 7b3c b085 1fbd ef5a 40be 9b45 2cbe
00000080: 87cd 59bd 62c2 76bd 9b80 65bc bc5b 03bd
00000090: b6d8 9abd 7ecc 16be 303f bcbd 4c6b 14be
000000a0: 1795 f5bc 97ab 4d3d 0404 88bc b0d3 14be
000000b0: b830 12bd 1c75 16be 0b45 d4bd 77d8 9a3d
000000c0: dac0 d9bd f346 3bbd c0b8 803d 07f7 373c
000000d0: 3591 5bbd b7ca 3fbe f3e5 c63d f4d7 c93b
000000e0: a439 84bd 88b1 483c 95d2 7abc 9209 b9bd
000000f0: 35b0 443b f412 e8bc 1f6e 19bc ebf6 51bd
00000100: 3ae0 c9ba 7b21 dcbd 6aaf 8cb9 9012 44be
00000110: 9f8d 483c 42b9 48bd fd26 68bc 9cab f3bd
00000120: 4c3c 11bd f205 c93c 9833 acbd 140b bcbd
00000130: 4ee1 8bbb 81bd 9dbc 5f1d 35be 78e1 c7bd
00000140: d48b 433d ed0b 5abc 7726 4cbc 4977 da3c
00000150: 7bd9 38bd d6cb 07be 3957 3bbe 7671 73bd
00000160: 8e0a abbd bf57 eabd cbf0 41bd fb59 083c
00000170: 04a2 d6bd ad71 f3bd 8c88 5cbd 51a0 663d
00000180: 7946 1bbe e868 fa3c 68b4 01bd 5535 5fbc
00000190: 0e89 17be 767c 06be 8793 32bd 1633 53be
000001a0: 3501 d4bc 335b d3bd 9f23 563d 7918 27be
000001b0: ac2c 27be 6445 ca3d 20d4 96bd 7431 93bd
000001c0: 2dba 00be f1f1 f9bd 370c 91bd 2bd4 03be
000001d0: 4126 16be 6380 cbbc b745 70bd 4512 e53c
000001e0: d37d 16be 5f5b 98bd 6567 ef3c c011 70bc
000001f0: 715a d8bd 12b8 5a3c 5f84 37bd fb96 babd
00000200: 8758 433d d89e 63bd 254d 7abd bc87 1e3d
00000210: e2a6 57b9 7ba0 91bd 3a7c 813d 07f5 8fbd
00000220: 8074 8abc 4221 663d 200a 8bbc 07a4 c0bc
00000230: cd3a 873c 44ae 713c 1112 33bd e317 aabc
00000240: ca11 ad3d 9309 163d 94c1 a03c b9e5 173d
00000250: 5e4c 43ba c334 723d 7870 033c 4526 823c
00000260: 5706 b93d 36d3 b0bd 31a2 a03c 00f5 453d
00000270: 2ed6 84bd 1cb6 d0bc 5f81 c13d 6372 4b3d
00000280: 9863 86bd 14fd d4bc 0ceb 77bd f55b 193d
00000290: f324 3c3a e72a 963d 9f5c bebb 51fa 493d
000002a0: be21 d23d c64f 64bd d43e 84bd 63ad 8dbd
000002b0: a432 2fbd 9a62 bebd ca1e 03bb 7dc6 dbbc
000002c0: 512b 82bd 4522 0ebd cbe9 faba cda9 3f3d
000002d0: b6e0 92bd ad31 093d 9655 bb3d effc 31bc
000002e0: fabb 243c 5df3 1abd 68ea 773d 0d5a de3c
000002f0: ede6 a93d d362 f53b eb1e 523d 7fc2 383d
00000300: fb74 5ebc 11ab 09be 824b 4ebb c3dd e1bd
00000310: f539 433d 74e7 2e3b 9033 30be 2c29 953d
00000320: cf1f 373d 940f a7bd 1795 e3bd 5393 f9bc
00000330: 9788 07bc 3ec5 bdbd 6f8b 0dbe 970c 78bc
00000340: edfb 413d b9ea 2abe 195b 2bbd 5695 11bd
00000350: f978 103d dfd0 7dbd dc5e bdbd 0e51 46bd
00000360: 3f38 6e3d 8528 0fbe a444 833c 3c3b 34be
00000370: f491 e0bd 316d 30be 91cc ce3c 681f 25be
00000380: 35c5 18be 4e73 dcbd 7b00 a1bc 10ad 1abe
00000390: c97f d63b ed14 53be c388 4e3d 078f fb39
000003a0: 9152 49be c221 c9bc de0b d9bd 8940 acbc
000003b0: 8d8a 453c f53b afbc 8307 1ebd 6ff1 02bc
000003c0: 1a6b 2dbe 6025 36bd 96b3 37bd f51b d83b
000003d0: 382b 05be 2607 64bd a9de 0fbe fd64 e7bd
000003e0: 4a8c 53bd 75cb 4cbe 9198 e8bd 7d92 4ebe
000003f0: d602 e0bd 0ce8 193d 9cee cbbd 7a76 03bd
0.034685425 -0.124217324 -0.106151745 -0.060345057 -0.14466287 -0.14912607 -0.12034149 0.098601274
-0.059241906 -0.12028535 -0.105069034 -0.08205924 -0.11875482 -0.10752365 -0.16300784 -0.13982
-0.150544 -0.15200119 -0.21487714 -0.029188072 -0.025595788 -0.12617555 -0.11183589 -0.15759154
-0.14697853 -0.08656087 -0.054826986 -0.16278127 0.015326256 -0.038945854 -0.18784688 -0.16823427
-0.05317452 -0.06024397 -0.014007713 -0.032069907 -0.075608656 -0.14726445 -0.091917396 -0.14494056
-0.029978318 0.05021247 -0.016603477 -0.14533877 -0.035690993 -0.14693111 -0.103647314 0.07560819
-0.10632487 -0.04572196 0.06285238 0.0112283295 -0.053605277 -0.18729673 0.09711828 0.006159777
-0.064563066 0.012249358 -0.015308996 -0.090350285 0.0030012254 -0.02832935 -0.009364634 -0.05126087
-0.0015401908 -0.107485734 -0.00026833575 -0.19147706 0.012240796 -0.0490048 -0.014169452 -0.11897966
-0.035457894 0.024538968 -0.08408278 -0.091818005 -0.004268802 -0.019255402 -0.17686985 -0.097598016
0.047740772 -0.013308507 -0.012460343 0.026668208 -0.04512928 -0.13261351 -0.18294992 -0.059434377
-0.083516225 -0.114425175 -0.04734878 0.008322234 -0.10480121 -0.11886916 -0.05384116 0.056305233
-0.15163602 0.030567601 -0.03166619 -0.013623555 -0.14798376 -0.13133416 -0.043597724 -0.20624956
-0.025879482 -0.10320129 0.052280065 -0.1631793 -0.16325635 0.098765165 -0.073646784 -0.07187167
-0.1257102 -0.1220435 -0.07082408 -0.12873904 -0.1466303 -0.024841493 -0.058660235 0.027962813
-0.14696436 -0.07439303 0.029224107 -0.014652669 -0.10564125 0.01334955 -0.044803973 -0.091108285
0.047691848 -0.055571407 -0.061108727 0.038703665 -0.00020566166 -0.07110687 0.063225225 -0.07029157
-0.016901255 0.05618406 -0.016972601 -0.023515714 0.01650753 0.014751021 -0.0437184 -0.020763343
0.084506586 0.036630224 0.019623555 0.037084315 -0.0007450039 0.05913235 0.00802242 0.015887389
0.09034412 -0.08634035 0.019608589 0.048329353 -0.06486164 -0.025477462 0.09448504 0.049669635
-0.06561965 -0.025999583 -0.060526893 0.037441213 0.0007177137 0.07332402 -0.005809381 0.049310986
0.10260342 -0.05574014 -0.06457296 -0.069178365 -0.042772904 -0.092961505 -0.0020007365 -0.026828045
-0.06355918 -0.03470065 -0.0019143162 0.046792794 -0.071717665 0.03349464 0.091471836 -0.010863527
0.010054583 -0.037829746 0.06052628 0.027142549 0.08295999 0.0074885874 0.051299017 0.04510736
-0.013577695 -0.13444163 -0.0031478112 -0.11028626 0.047662694 0.002668825 -0.1720717 0.072832435
0.04470807 -0.08157268 -0.11112421 -0.030465757 -0.008272312 -0.092661366 -0.13822721 -0.01513972
0.047359396 -0.16691102 -0.041834924 -0.03554281 0.03527162 -0.061966773 -0.092466086 -0.048417144
0.05815911 -0.139803 0.016023941 -0.17600721 -0.10965338 -0.17229153 0.02524403 -0.16125262
-0.14918979 -0.1076418 -0.01965355 -0.1510508 0.006545995 -0.20613451 0.050423395 0.00047981014
-0.19660403 -0.02455223 -0.105979666 -0.021026867 0.012056959 -0.021390894 -0.038581382 -0.007992133
-0.16935387 -0.044469237 -0.044849 0.0065951296 -0.13004768 -0.05567088 -0.14049782 -0.11298559
-0.051647462 -0.19999488 -0.11357225 -0.20173068 -0.10938041 0.037574813 -0.099576205 -0.03209541

memory_rnn.bias_hh f4 [256]
00000000: 4277 01be 26c7 2a3d 27c0 cfbc 7c7a 833c
00000010: 1ca5 623d 820c 65bd caef 2bbe 7819 943c
00000020: 2555 8cbc b098 81bd eb44 e1bd 4b02 9f3d
00000030: 32c0 603d ece9 8ebd 0911 dfbd 3e06 04be
00000040: 6947 20bd 34d9 1abc 352c eabd 30f4 17be
00000050: a974 3a3d e890 7a3d 4ab6 0cbe e9e2 f3bd
00000060: 4347 903d c2de 53be 56a5 aebc 3525 35bd
00000070: 357a 13be 9aa0 2abe eb95 8339 585a 12be
00000080: 00a5 283c 926d 4abe d55f 19be 2f85 b63d
00000090: db81 01be f412 d2bd 2e5c 2e3d 8eac 2bbe
000000a0: 2a81 79bd 47de 13be d5f1 aabd 4345 0dbe
000000b0: bb61 8cbd fba1 a3bd 004a 88bd efcb 2abd
000000c0: 2ba2 f1bc 5aba a2bc 64b1 4f3c 4763 f0bd
000000d0: d852 dbbd 297b 613d ca30 803c 4703 92bd
000000e0: 7dd6 63bd 89dc 8c3c dcf9 cebd e4ce f6bd
000000f0: 0a95 d9bc 0a7a 38be 755e 33be a2b9 1d3d
00000100: bc96 91bc 9276 f7bc ceca fd3c f623 3f3d
00000110: 22dd a83c 95a3 dabd 7d60 75bd 3788 a5bd
00000120: 0ced 64bd 0b36 ddbd 90f5 453c f1c7 f73c
00000130: fc3c af3c 5803 17be 7338 06bc edae 25bd
00000140: 7520 553b c418 b0bd 8acd 9abd 0f0a 013d
00000150: 7bc2 fabd 5e07 99bd 6d3c 61be 60f3 b8bd
00000160: 304a 8c3c cc17 22be 0a58 823d 8ae9 22be
00000170: 560e 4e3d ef5c 33be 8105 e0bd df8e 99bd
00000180: 5954 cdbd 4f5d 803c d66e 23be fd4c 36bd
00000190: 92d7 3e3d 3d54 003c 5388 49bd 6765 05be
000001a0: 40cd 073d ff82 9ebd b18d 9cbd c138 0cbe
000001b0: f77f c4bc 2013 613c 7a68 9fbd 1f5a 22bd
000001c0: 7ff6 babd b2ad 22be c950 1bbe ef6b 43be
000001d0: f8f9 8c3d ccea aebd 2711 0abc 5272 8dbd
000001e0: 6147 babd 4bdb febd af11 e6bd a200 81bd
000001f0: 9587 09be 64d3 d5bd 9715 14be bc46 863c
00000200: 6147 20bd 3e30 38bd 8bf0 74bd 6a82 6c3d
00000210: 6e4b 363d de9e df3c 01b1 00be 4db0 9f3c
00000220: d6d8 bb3d 2298 483c 07d3 01bc 279e b73d
00000230: 90d0 09bc 20ac 91bc 1c9c 213c c578 ca3c
00000240: 18d3 b23d 3e99 523c 220b f0bc b93f 13bd
00000250: ee3e 213d 194b 01be 5f94 963c cd7a 0a3d
00000260: bd05 2bbc 001f b23d 21ba ff3c 6495 6e3d
00000270: de93 24bd 4436 bebc 4dfb 89bd 1637 c6bd
00000280: d899 7bbc b387 c83d 9483 c33b 975c 073d
00000290: 5364 37bd bd0f 68bd 4bb7 9fbd ffb5 4c3d
000002a0: 25f7 f1bd 4a22 313d 0df2 d73d 409c b63b
000002b0: 6d06 f0b9 a075 e03d 7e6d 783d 3117 d0bc
000002c0: 7fc1 4ebc 350c 0f3d 79e2 2ebd 11b5 473c
000002d0: a59a 44bd bf69 b5bd bce2 aa3d 8f99 803b
000002e0: f261 cc3c 3b71 793b 38aa 43bc 849a 023c
000002f0: 908d b4bd 84ed 96bb 7cd1 d5bc 5375 2bbd
00000300: 5993 06bb 2d41 22bd 2d43 91bd f66f 6a3d
00000310: 51c2 05be 4045 833c df4f 19bd 8dd2 8fbc
00000320: ffbe b63d a4cd 06be 17b1 42be 70e1 633d
00000330: d55d 0cbe 90ec 96bd d80b 733d 3deb efbd
00000340: 6a06 d9bd 0a68 3abd 55ed 37be c474 f9bd
00000350: 494f e83c 1c9c 26be caa6 d33b 7fb7 2abe
00000360: fbba 04be 1dde f5bd 15a3 8bbd 9129 8abd
00000370: ee6e 693d f8a2 e5bd fa6e 013d 1f70 18be
00000380: 01d3 75bd 49f9 a1bb b692 60be d333 a4bd
00000390: 50f8 203d be4d 32bd f498 1abe 343d 833d
000003a0: 8f5a d7bd 63de 9bbd 0ef7 833d cc9d d7bd
000003b0: c760 1d3c 5639 8d3a 7be7 34bd 6de3 1fbe
000003c0: b9c5 a7bd 3637 8f3d 1e1f 273d 9a6f 03be
000003d0: 761d 61bd 4d27 dabd 89ee 0ebe 4e4c 13bd
000003e0: 5783 a5bd b780 6e3c 433a 2fbe ef07 82bc
000003f0: bce6 1bbd 5a68 18be 2bc8 013c 1af8 5dbd
-0.1264315 0.04169383 -0.02536018 0.016049616 0.05533324 -0.05592013 -0.16790691 0.01807855
-0.017130444 -0.06327951 -0.10999473 0.07764109 0.05487079 -0.06978211 -0.10891921 -0.12893006
-0.039130602 -0.009451199 -0.11434213 -0.14839244 0.045521412 0.06117335 -0.13741413 -0.11908514
0.07044842 -0.20690444 -0.021319073 -0.044224937 -0.14402087 -0.16662827 0.00025097965 -0.14292276
0.010293245 -0.1976836 -0.14977963 0.089121215 -0.12647192 -0.10257521 0.04256838 -0.16765043
-0.060914196 -0.14440261 -0.08346907 -0.13795952 -0.06854578 -0.0798988 -0.066547394 -0.041698392
-0.029496273 -0.01986425 0.012676571 -0.11737686 -0.107091606 0.055049095 0.015648264 -0.07129531
-0.055624474 0.017195003 -0.10106251 -0.1205118 -0.026560325 -0.18015304 -0.17516501 0.03850711
-0.017772071 -0.030207906 0.030980494 0.046665154 0.020613257 -0.10675732 -0.05990647 -0.080826215
-0.055890128 -0.108013235 0.012082472 0.030246707 0.021391384 -0.1474737 -0.0081921695 -0.040450025
0.0032520567 -0.08598474 -0.07558735 0.031503733 -0.122441255 -0.07472108 -0.21995707 -0.09030795
0.01712522 -0.1582939 0.06364448 -0.159094 0.05030664 -0.1751592 -0.1093855 -0.074979536
-0.10025854 0.015669493 -0.1596025 -0.044507015 0.046592303 0.007832584 -0.049202275 -0.13026963
0.033154726 -0.07739829 -0.07644213 -0.13693525 -0.0239868 0.01373747 -0.07783599 -0.039636727
-0.09129047 -0.15886572 -0.15167536 -0.19084142 0.06883615 -0.08540878 -0.008426941 -0.069065705
-0.09095646 -0.124441706 -0.11233842 -0.06298949 -0.13430627 -0.1044071 -0.14461361 0.01639115
-0.039130572 -0.044967882 -0.059799712 0.05774156 0.04450553 0.027297433 -0.12567522 0.019493246
0.091722175 0.012243303 -0.007923848 0.08965712 -0.008411542 -0.01778227 0.0098638795 0.02471579
0.08731669 0.012853919 -0.029302184 -0.035949443 0.039366655 -0.12626304 0.018381296 0.03380852
-0.01043838 0.08697319 0.031216683 0.05824794 -0.04018008 -0.023219235 -0.06737385 -0.096784756
-0.015356503 0.097915076 0.005966613 0.033047285 -0.04477341 -0.056655634 -0.07798632 0.049978253
-0.11814717 0.04324559 0.105442144 0.0055728257 -0.00045781155 0.10959935 0.060651295 -0.025401684
-0.012619375 0.03492375 -0.04269645 0.012189166 -0.047999043 -0.0885806 0.083440274 0.0039245556
0.024949048 0.0038061875 -0.011942439 0.00797141 -0.088160634 -0.004605951 -0.026100866 -0.041859936
-0.0020534603 -0.039612938 -0.07092891 0.05723568 -0.13062407 0.016024232 -0.037429687 -0.017556453
0.08923148 -0.13164383 -0.19012867 0.055634916 -0.13707669 -0.073693395 0.059337467 -0.1171479
-0.105969265 -0.045509376 -0.17961629 -0.121804744 0.028358119 -0.16270489 0.006459092 -0.1667156
-0.12961952 -0.12005255 -0.06818215 -0.067462094 0.056990556 -0.112127244 0.031599976 -0.14886521
-0.060015682 -0.004943047 -0.21930966 -0.08017697 0.03929931 -0.043531172 -0.1509741 0.06408158
-0.105153196 -0.07610776 0.06443606 -0.10528144 0.009605593 0.0010774534 -0.04416607 -0.156141
-0.081920095 0.069929525 0.04080116 -0.12835541 -0.054959737 -0.10652027 -0.13958181 -0.03596144
-0.08081692 0.014557055 -0.17112069 -0.015872924 -0.038061842 -0.14883557 0.007921259 -0.054191686
