torch-rl/storage/Lstm-Customs-DoorKeyMaze-9x9-v0/status.pt (torch, 649173 bytes, 51 tensors)

image_conv.0.weight f4 [16, 3, 2, 2]
0.15213062 -0.15722257 -0.039322983 0.10361206 -0.2877622 0.12644537 -0.032737866 0.12075952
0.036018662 -0.037439685 0.08195451 -0.03307029 0.080947176 -0.12413399 -0.07089801 -0.08901576
0.01448404 0.02170464 0.1849811 -0.004270143 -0.13936338 -0.17434862 -0.06539753 -0.117823586
-0.115415104 -0.013197163 0.13990024 0.11573001 -0.30755612 0.12324954 0.04036854 0.21378435
0.21327588 -0.26302278 -0.24369052 -0.15348189 0.20277205 -0.057890154 0.0950308 -0.1223454
0.20611413 -0.098797075 0.16211767 0.052602235 -0.109981894 0.18425193 -0.16385488 0.079129115
-0.12478608 -0.05101667 -0.32012227 -0.20549574 0.114712454 -0.030719955 0.23434028 0.13630146
-0.017574659 -0.19071892 0.19604795 0.06657255 -0.20071375 0.16380093 0.15630665 0.23825738
-0.038169328 -0.07242329 -0.018237488 0.013319181 -0.21908084 -0.20613565 0.15452011 -0.08136124
0.08993214 -0.04332404 0.044438057 -0.0054847365 0.048754163 0.07451085 -0.23392491 0.08190029
-0.23253924 -0.24701902 0.030439679 0.003448453 0.14187615 -0.18466952 -0.28269115 0.18872239
-0.07500556 0.14635496 0.060539633 -0.24830377 0.02096641 0.06933878 -0.19328493 -0.13696834
0.0618651 0.02422713 -0.15670313 -0.10791082 0.21741103 -0.059698343 0.11706136 0.09659651
-0.106338516 -0.27855673 0.262712 0.01970722 0.16110176 0.052512504 0.058116954 0.14849299
0.22515604 -0.16821118 -0.005581518 0.14224406 0.16508426 0.20249358 -0.1698216 -0.23399232
-0.18198155 0.026805256 0.2735458 -0.17926013 0.14219512 -0.17047745 -0.29534337 -0.051176604
0.19416144 0.2541558 -0.19006863 0.06264574 0.23999739 0.16891138 0.1752619 0.2024203
0.16504203 0.025017528 -0.18434998 -0.20618755 -0.08592665 -0.06880323 -0.1724552 0.08530102
0.06734078 -0.09653587 0.10546169 0.04735686 0.13595171 0.15609756 -0.0873284 0.24213663
0.0047602914 -0.014751489 -0.30653748 -0.1933034 -0.18662347 -0.14811246 0.1702802 -0.119166605
-0.21351281 0.08538164 0.04786685 0.15691704 -0.1561179 0.06530573 -0.12402191 -0.06981905
-0.24468921 -0.12951837 -0.10439654 0.10404997 0.013433585 0.09457219 0.25052762 0.26070935
0.18135712 -0.004817735 -0.16743326 0.19587061 -0.048845608 -0.016014157 -0.24009235 -0.048561104
-0.15605819 0.27282634 -0.24956572 -0.22129202 -0.044969805 -0.15609111 0.10329133 -0.18393128
00000000: 21c8 1b3e f4fe 20be 2311 21bd 8f32 d43d
00000010: 9155 93be e57a 013e 2418 06bd c450 f73d
00000020: 4e88 133d 5b5a 19bd c4d7 a73d b674 07bd
00000030: a2c7 a53d f639 febd fa32 91bd e54d b6bd
00000040: 784e 6d3c eecd b13c af6b 3d3e 8eec 8bbb
00000050: 46b5 0ebe 7288 32be 24ef 85bd 7e4d f1bd
00000060: c15e ecbd ea38 58bc 0242 0f3e db03 ed3d
00000070: ff77 9dbe 416a fc3d 7b59 253d 49ea 5a3e
00000080: fe64 5a3e ecaa 86be 028a 79be 5b2a 1dbe
00000090: 7aa3 4f3e 3a1e 6dbd 829f c23d 3a90 fabd
000000a0: 950f 533e 1f56 cabd 2d02 263e 7175 573d
000000b0: 303e e1bd 8aac 3c3e 93c9 27be 720e a23d
000000c0: d88f ffbd dbf6 50bd 11e7 a3be 7a6d 52be
000000d0: 5dee ea3d 6aa8 fbbc e6f6 6f3e 9c92 0b3e
000000e0: bbf8 8fbc d24b 43be cbc0 483e 3057 883d
000000f0: e887 4dbe 6ebb 273e da0e 203e bef9 733e
00000100: 7157 1cbd a952 94bd c966 95bc b238 5a3c
00000110: ba56 60be 3915 53be 853a 1e3e b9a0 a6bd
00000120: 582e b83d 8c74 31bd ae04 363d 4eb9 b3bb
00000130: 72b2 473d 2599 983d 038a 6fbe 57bb a73d
00000140: c41e 6ebe 8ef2 7cbe a25c f93c 71ff 613b
00000150: fb47 113e 021a 3dbe e5bc 90be 7140 413e
00000160: 849c 99bd 13de 153e 68f8 773d 5843 7ebe
00000170: c0c1 ab3c 7e01 8e3d 7cec 45be 6e41 0cbe
00000180: 4266 7d3d f977 c63c c976 20be 5900 ddbd
00000190: ffa0 5e3e 4086 74bd debd ef3d 64d4 c53d
000001a0: 02c8 d9bd fd9e 8ebe 3082 863e 0971 a13c
000001b0: dcf7 243e 5a17 573d 0b0c 6e3d 8c0e 183e
000001c0: 4e8f 663e 8d3f 2cbe 2be5 b6bb 6da8 113e
000001d0: d90b 293e 7a5a 4f3e b7e5 2dbe af9b 6fbe
000001e0: 5f59 3abe b296 db3c 320e 8c3e f88f 37be
000001f0: 999b 113e a491 2ebe 3f37 97be 8f9e 51bd
00000200: 42d2 463e b620 823e 5aa1 42be 694c 803d
00000210: e0c1 753e 1bf7 2c3e db77 333e 4447 4f3e
00000220: c700 293e 8ff1 cc3c 3ec6 3cbe d422 53be
00000230: 50fa afbd b5e8 8cbd 1998 30be 4db2 ae3d
00000240: f6e9 893d 99b4 c5bd 4cfc d73d 44f9 413d
00000250: ed36 0b3e 0ad8 1f3e 3bd9 b2bd aaf2 773e
00000260: 38fc 9b3b 3bb0 71bc 7bf2 9cbe 54f1 45be
00000270: 391a 3fbe cbaa 17be ef5d 2e3e 9f0d f4bd
00000280: 1aa3 5abe 92dc ae3d 0810 443d dcae 203e
00000290: 5fdd 1fbe 03bf 853d 33ff fdbd 4afd 8ebd
000002a0: cf8f 7abe 77a0 04be dacd d5bd 2718 d53d
000002b0: 8a18 5c3c 10af c13d 2845 803e b27b 853e
000002c0: aeb5 393e 17de 9dbb a073 2bbe 4e92 483e
000002d0: 5512 48bd 1f30 83bc c5da 75be 02e8 46bd
000002e0: b8cd 1fbe e5af 8b3e 288e 7fbe 609a 62be
000002f0: 4232 38bd 59d6 1fbe 688a d33d 7b58 3cbe

image_conv.0.bias f4 [16]
-0.15441395 -0.018126894 0.18206884 -0.21142179 0.10334885 0.18039335 0.24849048 -0.22148007
0.04357763 -0.23341627 0.2364174 -0.114402615 0.16363765 -0.018824488 -0.0273245 0.0072958767
00000000: b11e 1ebe da7e 94bc 4170 3a3e f47e 58be
00000010: 90a8 d33d 09b9 383e 4a74 7e3e accb 62be
00000020: 757e 323d ad04 6fbe 6717 723e eb4b eabd
00000030: a190 273e d035 9abc a1d7 dfbc 4012 ef3b

image_conv.3.weight f4 [32, 16, 2, 2]
0.0032677364 0.046924956 0.0029886467 0.028238235 -0.11295832 0.07923362 0.1080644 0.093795426
0.07458939 -0.10520552 -0.06463853 0.09936585 -0.09529774 0.09172223 -0.09885828 -0.10504333
0.056845333 -0.10223019 -0.032796886 0.08072987 0.08639695 0.10602924 -0.03790846 -0.10553201
0.10993444 -0.0382241 -0.061973903 0.021478131 -0.08930192 0.077561684 0.074175745 -0.10446645
-0.10692009 -0.028719623 0.05002342 -0.018052923 -0.0678754 -0.017638817 -0.12094573 -0.10209668
-0.09940224 0.09834973 0.091553405 -0.058238402 0.00577113 0.037741084 0.012071268 -0.074851505
0.051035468 0.059714347 -0.02487031 -0.030109644 0.100409485 0.099281415 -0.084751084 0.11296966
0.0149007905 -0.097488634 0.05158588 -0.105862245 0.10687907 -0.08752019 0.026745846 0.018183807
0.024346948 0.09098717 -0.058329377 -0.07208694 -0.11419895 -0.01654528 -0.067025594 -0.013463618
-0.031864826 0.027137738 0.10072038 0.016251678 -0.04525813 -0.07457471 -0.113105215 0.08439197
-0.031127885 0.017110579 -0.0060159606 -0.095627554 0.063192055 0.05795967 -0.0042583705 -0.090199076
-0.059872415 -0.009824026 -0.08111461 -0.08312408 -0.023197906 -0.038409587 0.02609089 -0.03959602
-0.023547916 -0.059322584 -0.12448717 0.092861496 0.015525596 0.10025195 -0.029180637 -0.049563885
-0.1295916 -0.057021674 0.06989654 -0.123873465 -0.061269052 0.068441615 0.06718642 0.037276365
-0.03090027 -0.022087801 -0.03107333 -0.06250307 0.046789736 -0.055534016 -0.07670334 0.010009115
-0.09603802 -0.039726432 0.054786302 0.027177116 0.099216364 -0.09022963 -0.003925514 -0.03851389
-0.048937894 -0.085303485 0.03750105 0.008985575 -0.063282005 -0.09014286 -0.105679885 0.11081795
-0.024686832 -0.040431254 -0.062241815 -0.07135223 -0.08941932 -0.06738092 0.08920143 0.008354118
-0.050900154 -0.04787721 0.08081758 0.071813114 0.1220484 0.037380476 0.05219126 -0.019947061
-0.056941412 -0.11716638 0.06526842 -0.025062606 0.061964337 0.021764034 -0.12036737 -0.05374217
0.047957584 -0.021336807 -0.11364693 0.026735295 0.0119842095 -0.038886536 0.05425598 -0.011710885
-0.04682113 0.13059023 0.061059326 0.04090108 -0.008906026 -0.07670893 0.079470105 -0.049114607
-0.06515627 0.07066829 0.025182137 0.015677346 -0.032063674 -0.03828447 0.0042581744 0.08959908
0.00572664 -0.069691174 0.11064982 -0.026807625 0.081761196 0.025480205 0.12046355 0.05657931
-0.076123804 0.08092167 -0.009258891 -0.11479458 -0.032510728 -0.120228805 -0.07271456 -0.09841984
0.074365385 -0.033535726 -0.03288164 0.047797453 0.040606488 -0.09470262 0.03402043 0.03759681
-0.10553978 0.10116205 -0.08535634 -0.058585502 -0.112661526 0.10632527 0.01317725 0.0965906
-0.0018787015 0.057692435 -0.04791707 -0.10848724 0.014651817 -0.016526747 -0.017947402 -0.06427
-0.006454193 0.025298903 0.03428227 -0.11188921 0.051137343 0.0022065481 0.073032044 0.07693721
-0.10195709 0.11136024 -0.13437438 0.060661558 -0.00010565172 0.047571618 -0.07746837 0.066552535
-0.07412313 -0.120362096 0.03147037 0.058379997 0.116430186 -0.018214216 0.11086941 0.06921206
-0.07173793 -0.10266617 0.05825189 -0.079445966 0.044442575 -0.095914826 0.08493599 0.041963685
00000000: 8527 563b 6234 403d 2cdd 433b df53 e73c
00000010: b156 e7bd 3c45 a23d de50 dd3d d117 c03d
00000020: 52c2 983d fe75 d7bd 3561 84bd 5380 cb3d
00000030: 762b c3bd ddd8 bb3d 3676 cabd f520 d7bd
00000040: a7d6 683d 105e d1bd 0756 06bd b455 a53d
00000050: e2f0 b03d dc25 d93d e745 1bbd 2b21 d8bd
00000060: 4f25 e13d e090 1cbd 59d8 7dbd e8f2 af3c
00000070: ede3 b6bd a9d8 9e3d 74e9 973d 82f2 d5bd
00000080: ecf8 dabd 6a45 ebbc 5ce5 4c3d b9e3 93bc
00000090: 4202 8bbd 487f 90bc 65b2 f7bd 1018 d1bd
000000a0: 6793 cbbd 956b c93d 5a80 bb3d 648b 6ebd
000000b0: bf1b bd3b 6596 1a3d 91c6 453c bf4b 99bd
000000c0: 910a 513d 0897 743d d2bc cbbc 80a8 f6bc
000000d0: 7da3 cd3d 0e54 cb3d fa91 adbd a35c e73d
000000e0: 7222 743c 1fa8 c7bd b74b 533d 4ece d8bd
000000f0: 6ae3 da3d c93d b3bd 1b1a db3c 35f6 943c
00000100: 4073 c73c 7b57 ba3d c9ea 6ebd 51a2 93bd
00000110: 24e1 e9bd f889 87bc b744 89bd 8296 5cbc
00000120: b184 02bd f64f de3c 7d46 ce3d 3d22 853c
00000130: 9760 39bd a0ba 98bd b5a3 e7bd b2d5 ac3d
00000140: e8ff febc 7c2b 8c3c 8921 c5bb 61d8 c3bd
00000150: d66a 813d 1e67 6d3d cd89 8bbb 4bba b8bd
00000160: c73c 75bd f4f4 20bc 6b1f a6bd f53c aabd
00000170: 8909 bebc 5f53 1dbd 90bc d53c 702f 22bd
00000180: 8fe7 c0bc 3dfc 72bd 21f3 febd 2b2e be3d
00000190: 125f 7e3c e550 cd3d 3b0c efbc 8003 4bbd
000001a0: a9b3 04be 8f8f 69bd eb25 8f3d 5fb1 fdbd
000001b0: 42f5 7abd 1e2b 8c3d 0999 893d 1aaf 183d
000001c0: 9022 fdbc 7af1 b4bc 7f8d febc 9c01 80bd
000001d0: 98a6 3f3d a377 63bd a416 9dbd 45fd 233c
000001e0: 95af c4bd 2fb8 22bd 9a67 603d 8ba2 de3c
000001f0: f331 cb3d 50ca b8bd 99a1 80bb bec0 1dbd
00000200: 1a73 48bd 98b3 aebd b39a 193d 3c38 133c
00000210: ff99 81bd d29c b8bd b26e d8bd 85f4 e23d
00000220: 0a3c cabc 3e9b 25bd 46f1 7ebd 1e21 92bd
00000230: 7a21 b7bd 02ff 89bd 3daf b63d b6df 083c
00000240: ae7c 50bd e51a 44bd b083 a53d c112 933d
00000250: 83f4 f93d 451c 193d 81c6 553d 0568 a3bc
00000260: 663b 69bd edf4 efbd 73ab 853d 1850 cdbc
00000270: 51ce 7d3d 7d4a b23c 2b83 f6bd c020 5cbd
00000280: 2c6f 443d 87ca aebc b9bf e8bd fa03 db3c
00000290: 6b59 443c 7d47 1fbd 853b 5e3d 03df 3fbc
000002a0: 83c7 3fbd 72b9 053e 5819 7a3d e487 273d
000002b0: 95ea 11bc 9219 9dbd 39c1 a23d 662c 49bd
000002c0: a770 85bd 89ba 903d c54a ce3c c76d 803c
000002d0: 3355 03bd 2dd0 1cbd 2888 8b3b b97f b73d
000002e0: 8aa6 bb3b 3fba 8ebd 5f9c e23d aa9b dbbc
000002f0: 6a72 a73d ddbb d03c 98b5 f63d b5bf 673d
00000300: cce6 9bbd 43ba a53d 9bb2 17bc 6c19 ebbd
00000310: f829 05bd 853a f6bd 5feb 94bd 5790 c9bd
00000320: e14c 983d c25c 09bd e6ae 06bd 43c7 433d
00000330: fd52 263d 72f3 c1bd 0259 0b3d 1dff 193d
00000340: 3d25 d8bd 0d2e cf3d 4ecf aebd 5af7 6fbd
00000350: 16bb e6bd 10c1 d93d 64e5 573c 4bd1 c53d
00000360: c33e f6ba e74e 6c3d b144 44bd 8f2e debd
00000370: 2d0e 703c 1a63 87bc 6e06 93bc fd9f 83bd
00000380: b27d d3bb a53f cf3c 916b 0c3d 2c26 e5bd
00000390: 6475 513d bc9b 103b d391 953d 4291 9d3d
000003a0: e1ce d0bd d610 e43d 7099 09be 4178 783d
000003b0: 5691 ddb8 75da 423d bda7 9ebd b24c 883d
000003c0: decd 97bd 6780 f6bd 13e7 003d dd1f 6f3d
000003d0: f372 ee3d fb35 95bc 800f e33d 0dbf 8d3d
000003e0: 56eb 92bd a442 d2bd 8999 6e3d 91b4 a2bd
000003f0: 6b09 363d fe6e c4bd ecf2 ad3d 1de2 2b3d

image_conv.3.bias f4 [32]
-0.008106386 -0.05316891 0.024627421 -0.08096559 -0.095609404 -0.035033654 -0.1124181 -0.004666699
0.022080775 0.11573756 0.029688643 -0.017113473 -0.10292017 -0.058969717 -0.037843976 -0.09649216
0.020047445 0.07372649 0.05619434 -0.06396021 0.005689814 0.112439945 -0.03067721 -0.11226432
-0.007898062 0.012517001 -0.05205334 -0.0016740492 -0.11031697 0.029849138 -0.092474885 0.051962696
00000000: a6d0 04bc a5c7 59bd 72bf c93c 4ad1 a5bd
00000010: ddce c3bd 737f 0fbd 763b e6bd 1ceb 98bb
00000020: bee2 b43c d007 ed3d 9935 f33c 8e31 8cbc
00000030: cfc7 d2bd 3b8a 71bd 4902 1bbd ae9d c5bd
00000040: 8a3a a43c eafd 963d 092c 663d 92fd 82bd
00000050: 9f71 ba3b ea46 e63d c64e fbbc d6ea e5bd
00000060: df66 01bc 1b14 4d3c e235 55bd c56b dbba
00000070: dded e1bd 2e86 f43c 7963 bdbd d6d6 543d

image_conv.5.weight f4 [64, 32, 2, 2]
0.075380065 -0.05343509 -0.035134263 0.014594568 -0.008395877 0.0518235 -0.013898881 0.010447892
-0.033676334 0.025713673 0.026603337 -0.062697895 0.04674955 -0.01509142 0.080289096 -0.087974995
-0.008774373 0.039938364 0.060950063 0.0011490074 -0.047765832 -0.06832387 -0.06693211 0.07116709
-0.07666134 -0.03430321 0.046051074 0.04851252 -0.077316865 0.017524006 0.010685764 0.081123084
0.0026890296 0.03816749 -0.0054315864 0.07563999 -0.008560136 -0.05389645 0.019405428 -0.045702633
0.022102008 0.06144002 -0.068747714 -0.064305976 -0.0014549296 -0.0064837 -0.02863927 0.072035305
0.03030694 -0.028980248 0.0023448307 -0.013298616 -0.067644835 0.036163714 -0.07943955 -0.042876866
0.05352769 -0.08391672 -0.004124028 0.07948899 0.041369 -0.035057012 0.014764008 -0.08247339
0.014961703 0.07474468 0.07588751 -0.0035788836 0.014538313 -0.014669379 -0.04073305 -0.082669236
-0.053581763 0.037145585 0.03883632 -0.021581 -0.022973284 -0.070929036 0.0048084105 0.023764309
0.073772185 -0.08208059 -0.08702383 -0.0331138 0.08279383 0.0050892006 0.02347243 0.014270779
-0.008138796 0.06414031 0.06640167 -0.049609475 -0.05293352 -0.068728864 -0.021495672 -0.001991175
0.075411245 -0.089063264 0.0635821 -0.046956785 -0.0013582198 0.011804163 0.029563598 -0.07215849
-0.07379967 0.0020271686 0.03536397 -0.04252386 -0.007758339 -0.00019495301 -0.10432879 -0.0032774995
-0.017522095 0.043256607 0.04574441 0.048611905 0.052617602 -0.06940762 -0.08503347 0.012687545
0.02313361 -0.06579832 0.06811554 -0.011395472 -0.064932235 0.059696756 0.072451375 0.007204499
-0.031219134 0.0048693987 -0.06814214 0.05130136 0.055487875 -0.019147675 -0.06689385 0.06289176
-0.07494172 -0.0464147 0.045498297 -0.04392769 0.016833967 0.07265336 -0.013949617 -0.019993559
0.07856199 0.015098834 0.027447512 -0.029044615 -0.079688855 0.013837063 -0.052250847 -0.045713115
-0.07600089 0.07303034 -0.0636769 0.022013433 0.0150926085 0.06104815 0.04517677 -0.061882026
0.03545299 -0.04896048 -0.0004801649 -0.03710921 -0.07841785 0.023777919 -0.061835065 0.08322053
0.03562161 -0.030573703 -0.051759217 -0.08146734 -0.04789947 -0.058664884 0.0058926945 0.020392554
0.07665121 0.009580323 -0.017954683 -0.04334672 -0.015825355 0.04663705 -0.0886363 -0.08225055
0.03158887 -0.029260257 -0.029417971 -0.059142843 -0.06364277 -0.07151011 -0.05989027 -0.08465108
-0.043819778 0.0674643 -0.05480378 0.06718334 -0.07751063 0.0073317317 -0.010392556 -0.069556065
-0.00094504206 0.07075286 -0.04296797 0.077987984 -0.0139175495 -0.02794844 0.038022824 0.06909644
0.06987238 0.047520503 -0.08161733 -0.022833642 0.007057339 -0.04268438 0.03802916 -0.021516178
-0.08043884 -0.042821035 -0.06040527 0.030668993 -0.06431918 -0.022280531 0.009091507 0.038113195
-0.07133586 0.056529935 -0.05874576 -0.07139948 0.0323923 -0.059646312 0.06054681 0.03480909
-0.046912245 -0.017185595 -0.043889295 -0.009392909 -0.0033668638 -0.0022294766 -0.057760064 -0.08210796
-0.05652539 0.014922713 0.009063206 -0.044494618 -0.02074197 -0.005068274 0.061692867 -0.08367519
-0.039373197 -0.014015639 -0.014517018 -0.048649497 0.04164856 -0.033224043 0.004285587 -0.050282463
00000000: dd60 9a3d c1de 5abd f2e8 0fbd 0e1e 6f3c
00000010: dc8e 09bc e144 543d 22b8 63bc a32d 2b3c
00000020: 32f0 09bd 7ba5 d23c 3eef d93c c167 80bd
00000030: 757c 3f3d 0142 77bc 9c6e a43d 3c2c b4bd
00000040: 63c2 0fbc 6996 233d c6a6 793d 4a9a 963a
00000050: 1ba6 43bd 63ed 8bbd b413 89bd 0dc0 913d
00000060: 9f00 9dbd 8681 0cbd 0da0 3c3d 10b5 463d
00000070: 4e58 9ebd 818e 8f3c 5813 2f3c dc23 a63d
00000080: 6e3a 303b 8455 1c3d 73fb b1bb 24e9 9a3d
00000090: d03f 0cbc 86c2 5cbd 22f8 9e3c af32 3bbd
000000a0: 450f b53c 88a8 7b3d 9acb 8cbd dab2 83bd
000000b0: 56b3 beba 3875 d4bb e79c eabc 3f87 933d
000000c0: 4346 f83c fc67 edbc bbab 193b 70e2 59bc
000000d0: 6089 8abd 6720 143d 34b1 a2bd a79f 2fbd
000000e0: da3f 5b3d 87dc abbd db22 87bb 20cb a23d
000000f0: 8a72 293d f197 0fbd bde4 713c cfe7 a8bd
00000100: ee21 753c bd13 993d e96a 9b3d b48b 6abb
00000110: 1b32 6e3c d657 70bc b3d7 26bd 7d4e a9bd
00000120: 8d78 5bbd f825 183d d512 1f3d a3ca b0bc
00000130: 7832 bcbc 3e43 91bd df8f 9d3b 5ead c23c
00000140: df15 973d de19 a8bd 8d39 b2bd 56a2 07bd
00000150: d08f a93d 4fc3 a63b 4149 c03c fccf 693c
00000160: 9658 05bc ff5b 833d 99fd 873d 4e33 4bbd
00000170: d2d0 58bd b8c1 8cbd b117 b0bc 607e 02bb
00000180: 3671 9a3d cd66 b6bd 5537 823d c255 40bd
00000190: 4b06 b2ba 4066 413c 5c2f f23c d5c7 93bd
000001a0: 4824 97bd 3fda 043b cfd9 103d 802d 2ebd
000001b0: aa39 febb 4d6c 4cb9 55aa d5bd 51cb 56bb
000001c0: 7f8a 8fbc d72d 313d 7e5e 3b3d 471d 473d
000001d0: 8e85 573d 9525 8ebd 0726 aebd 6cdf 4f3c
000001e0: b282 bd3c 45c1 86bd 2980 8b3d 13b4 3abc
000001f0: 31fb 84bd 9684 743d 6361 943d b813 ec3b
00000200: 45bf ffbc 7a8f 9f3b 1b8e 8bbd 6021 523d
00000210: 4147 633d 96db 9cbc a5ff 88bd 65cd 803d
00000220: 0b7b 99bd 571d 3ebd 6c5c 3a3d 85ed 33bd
00000230: 63e7 893c 49cb 943d ef8c 64bc 88c9 a3bc
00000240: 1ce5 a03d 1a61 773c 9bd9 e03c f9ee edbc
00000250: e933 a3bd d9b4 623c fc04 56bd ad3d 3bbd
00000260: 5ba6 9bbd ee90 953d 0969 82bd 8455 b43c
00000270: fd46 773c a00d 7a3d 470b 393d 0278 7dbd
00000280: 2837 113d c98a 48bd a4be fbb9 d4ff 17bd
00000290: 8a99 a0bd e9c9 c23c c446 7dbd 866f aa3d
000002a0: f7e7 113d b475 fabc 7901 54bd 59d8 a6bd
000002b0: 3c32 44bd 974a 70bd 8117 c13b 490e a73c
000002c0: 4ffb 9c3d c9f6 1c3c b315 93bc 558c 31bd
000002d0: 2da4 81bc 7e06 3f3d f386 b5bd fa72 a8bd
000002e0: 5563 013d 35b3 efbc f5fd f0bc c43f 72bd
000002f0: 2457 82bd e473 92bd 804f 75bd 8c5d adbd
00000300: 5e7c 33bd b92a 8a3d ee79 60bd 6b97 893d
00000310: e5bd 9ebd 063f f03b 8a45 2abc 6973 8ebd
00000320: b3bc 77ba e0e6 903d 2fff 2fbd 2ab8 9f3d
00000330: 6f06 64bc 20f4 e4bc d2bd 1b3d 6f82 8d3d
00000340: 4019 8f3d dca4 423d fd26 a7bd 9e0d bbbc
00000350: 4041 e73b d1d5 2ebd 77c4 1b3d b242 b0bc
00000360: 1ebd a4bd 1c65 2fbd 846b 77bd 8a3d fb3c
00000370: c6b9 83bd a985 b6bc 8bf4 143c 951c 1c3d
00000380: 8918 92bd ef8b 673d 659f 70bd e439 92bd
00000390: caad 043d b14f 74bd efff 773d fa93 0e3d
000003a0: 0e27 40bd cec8 8cbc 43c5 33bd b7e4 19bc
000003b0: 9aa6 5cbb 691c 12bb d195 6cbd 3828 a8bd
000003c0: 2b87 67bd 657e 743c d77d 143c fd3f 36bd
000003d0: 10eb a9bc c413 a6bb a9b1 7c3d e65d abbd
000003e0: ca45 21bd daa1 65bc c9d8 6dbc b244 47bd
000003f0: ae97 2a3d ef15 08bd 1c6e 8c3b fcf4 4dbd

image_conv.5.bias f4 [64]
0.0091813775 -0.017578436 0.02278927 0.0033602389 -0.016371433 -0.0054701865 0.0048490213 -0.02752567
0.01236697 -0.021904727 -0.0013426983 0.069911875 -0.036575563 -0.067603484 0.015729101 -0.028336706
-0.0752208 0.042168036 0.042061757 0.0132029 -0.014530536 -0.002162624 -0.009881721 -0.040913023
-0.0054764897 0.014468538 0.046488665 0.013826444 0.033686776 -0.09204067 0.034889266 -0.006282504
-0.049891382 -0.09757236 0.053988963 -0.04727462 -0.085532285 -0.091632225 0.012980691 0.028458623
-0.012707109 0.013920732 -0.023984829 6.518696e-05 -0.016758267 0.054892633 0.015085486 -0.070894055
0.00028793787 -0.042851657 -0.06762005 -0.05868816 0.043093823 0.029160671 -0.05306918 0.054012623
-0.08228722 0.04010568 -0.004179663 -0.040721644 -0.01587166 -0.057863474 0.048342355 -0.045982916
00000000: 7d6d 163c a700 90bc 90b0 ba3c 7437 5c3b
00000010: 621d 86bc 403f b3bb 8ae4 9e3b 847d e1bc
00000020: d59e 4a3c 8b71 b3bc 7bfd afba f52d 8f3d
00000030: 42d0 15bd b273 8abd 51da 803c 6122 e8bc
00000040: 5d0d 9abd 64b8 2c3d f348 2c3d fa50 583c
00000050: 7c11 6ebc cfba 0dbb f1e6 21bc 6a94 27bd
00000060: 2074 b3bb 720d 6d3c e66a 3e3d 4f88 623c
00000070: 25fb 093d d27f bcbd 0ce8 0e3d 77dd cdbb
00000080: e85a 4cbd 04d4 c7bd 8823 5d3d 08a3 41bd
00000090: 8d2b afbd ada9 bbbd f7ac 543c 0f22 e93c
000000a0: 7a31 50bc c813 643c d57b c4bc fcb4 8838
000000b0: a248 89bc 19d7 603d 1d29 773c e730 91bd
000000c0: 5ef6 9639 3885 2fbd 617c 8abd ff62 70bd
000000d0: 2683 303d 5ce2 ee3c 125f 59bd 573c 5d3d
000000e0: 3486 a8bd da45 243d 8ef5 88bb bdcb 26bd
000000f0: 4905 82bc 4002 6dbd a202 463d 9558 3cbd

memory_rnn.weight_ih f4 [256, 64]
-0.0104581695 -0.10478974 0.07106303 0.08196875 0.017273115 -0.020969018 0.03727433 -0.06542719
0.108188905 -0.03843659 0.034301043 0.1086917 -0.03093121 0.07111163 0.07191445 -0.00740931
-0.06546993 0.06447676 0.04103954 0.0039307806 -0.055767298 -0.14425938 -0.13681021 0.008727149
-0.11638849 -0.12133939 -0.046856835 -0.007852443 0.103034236 -0.08997083 -0.10799288 -0.0032145535
-0.11576353 -0.0149886 0.09706059 -0.11920255 0.03515417 -0.029978108 0.1343502 0.0030957211
-0.013622597 -0.028080773 -0.069666766 0.089916885 -0.053253356 0.11072489 0.083250195 -0.10233568
0.096024364 -0.022594178 0.074295335 -0.05659236 0.027105296 -0.0023306007 0.004359461 -0.020928398
-0.013606429 -0.07129408 0.08137622 0.05734394 -0.059306376 -0.0142824175 -0.106798135 -0.051226065
0.02628607 0.11647702 -0.16007254 -0.026409153 -0.08193055 0.08645187 -0.107815556 0.030847896
0.025203878 0.06861074 0.040337447 0.011145518 0.13219436 -0.050992128 0.099236876 0.05832576
-0.007628385 -0.06983372 0.061718494 -0.074189335 0.01666785 -0.14406855 0.031719625 -0.114310846
0.03189361 -0.114783436 0.0015895178 -0.020223143 -0.066796325 -0.032666788 0.01855809 -0.014024444
0.09358526 -0.101063 0.087800525 -0.09299826 -0.05595761 -0.009342807 -0.083471246 0.063597485
0.1275283 -0.04138076 -0.028748373 0.020427475 0.09672812 0.12449118 0.03636001 0.028548189
0.1226099 -0.07456975 0.07825197 -0.06599183 0.04064832 -0.11975277 -0.039468944 0.12012319
0.11846551 -0.041477796 -0.05099592 -0.009540272 0.08168441 0.029979078 -0.049184136 -0.054760084
0.083935566 -0.08679052 -0.078868404 -0.02638176 0.114367664 0.09602222 0.09980827 -0.08699369
0.03751608 -0.008592546 0.07224288 0.07806312 -0.090256706 -0.12755834 0.021212863 -0.13116041
0.09102895 -0.12041771 -0.07555053 -0.01619511 0.06758556 0.08509594 -0.014825563 0.089553244
0.051955815 0.11886892 -0.052428775 -0.032963872 -0.04178928 -0.030958885 -0.107257724 0.03546616
0.08962591 0.06694896 -0.07593566 0.102869675 -0.0032315308 -0.008819668 -0.1152887 -0.046723142
0.046485722 0.015085419 -0.085454285 0.115969405 0.04808415 0.06809569 -0.073596366 -0.05532116
0.042346243 -0.12787314 0.060384654 0.010899854 0.082696036 0.100983374 0.014187114 0.07373531
0.00318918 0.107816756 -0.01148828 -0.07562944 -0.016717542 -0.09615774 -0.077465266 0.024449121
0.08783167 0.10521603 0.06946878 0.08570112 0.1069782 -0.075186685 -0.047041792 0.05284635
-0.05769636 -0.021324888 0.09180656 -0.00598878 -0.038395073 0.05601672 0.11615256 -0.047783144
-0.026041983 -0.14449476 0.015224551 0.022516813 0.081534 -0.11407519 -0.10013681 0.102212094
-0.057165448 0.0116654895 0.085951 0.108451776 -0.013530185 -0.115323596 -0.09802614 -0.1201554
-0.007438721 -0.100620314 0.09776738 -0.11987499 -0.033138227 0.055703305 -0.046767995 0.09289227
0.019325582 0.12013529 0.020782497 0.07626212 -0.10149404 -0.05371832 0.056292444 -0.048524853
0.037527245 -0.07409048 0.01916591 0.010082863 -0.07093797 -0.0053295763 0.07579257 -0.10094204
0.019725326 0.07630183 0.102100044 -0.11918841 0.056553602 0.11952479 0.09157166 -0.10789855
00000000: be58 2bbc 019c d6bd 7e89 913d 3bdf a73d
00000010: 5980 8d3c 38c7 abbc f8ac 183d b1fe 85bd
00000020: 2592 dd3d b06f 1dbd 407f 0c3d c199 de3d
00000030: 7363 fdbc f9a2 913d e247 933d ccc9 f2bb
00000040: 1915 86bd 640c 843d 1419 283d c7cd 803b
00000050: 406c 64bd bbb8 13be fa17 0cbe 51fc 0e3c
00000060: 175d eebd c980 f8bd f4ec 3fbd 88a7 00bc
00000070: 9d03 d33d a042 b8bd 5f2b ddbd 42ab 52bb
00000080: 6e15 edbd bf92 75bc b4c7 c63d 7720 f4bd
00000090: d2fd 0f3d a694 f5bc 1993 093e 95e1 4a3b
000000a0: 5031 5fbc a609 e6bc 73ad 8ebd 5826 b83d
000000b0: 3120 5abd bbc3 e23d 147f aa3d 5e95 d1bd
000000c0: 6ca8 c43d 6d17 b9bc 2728 983d 64cd 67bd
000000d0: ed0b de3c febc 18bb cfd9 8e3b 0872 abbc
000000e0: 80ed 5ebc a102 92bd 93a8 a63d 7be1 6a3d
000000f0: 3eeb 72bd cd00 6abc fbb8 dabd 6cd2 51bd
00000100: e255 d73c 818b ee3d 0eea 23be 0258 d8bc
00000110: 34cb a7bd ae0d b13d 67ce dcbd bab4 fc3c
00000120: 5d78 ce3c ca83 8c3d e138 253d b19b 363c
00000130: f55d 073e 1fdd 50bd b43c cb3d fee6 6e3d
00000140: 88f7 f9bb fb04 8fbd 88cc 7c3d 94f0 97bd
00000150: 048b 883c b586 13be 70ec 013d ce1b eabd
00000160: e0a2 023d 9413 ebbd 5e57 d03a 01ab a5bc
00000170: 83cc 88bd 9ccd 05bd 2307 983c c8c6 65bc
00000180: a1a9 bf3d 1efa cebd c3d0 b33d df75 bebd
00000190: cf33 65bd 9312 19bc f9f2 aabd 663f 823d
000001a0: c796 023e df7e 29bd b581 ebbc 8557 a73c
000001b0: 6519 c63d 3bf5 fe3d 3cee 143d e4dd e93c
000001c0: e61a fb3d 06b8 98bd 9242 a03d b926 87bd
000001d0: da7e 263d f140 f5bd 30aa 21bd 2603 f63d
000001e0: 0c9e f23d 9fe4 29bd 19e1 50bd cd4e 1cbc
000001f0: 284a a73d af96 f53c 4e75 49bd 1c4c 60bd
00000200: 69e6 ab3d 3abf b1bd c285 a1bd 901e d8bc
00000210: 9839 ea3d 4ca7 c43d 4768 cc3d bf29 b2bd
00000220: 76aa 193d c0c7 0cbc 13f4 933d 8fdf 9f3d
00000230: 82d8 b8bd a79e 02be 99c6 ad3c ea4e 06be
00000240: 636d ba3d 8f9d f6bd 3cba 9abd 9bab 84bc
00000250: 4c6a 8a3d c846 ae3d ebe6 72bc b167 b73d
00000260: 9fcf 543d 8c71 f33d 8ebf 56bd 2005 07bd
00000270: 3c2b 2bbd 7d9d fdbc f0a9 dbbd f744 113d
00000280: ca8d b73d 891c 893d 2884 9bbd 56ad d23d
00000290: 17c8 53bb 5e80 10bc 7b1c ecbd c460 3fbd
000002a0: d067 3e3d d528 773c a802 afbd 5e81 ed3d
000002b0: e3f3 443d c175 8b3d b1b9 96bd 7198 62bd
000002c0: 4173 2d3d 2df1 02be e655 773d 4d95 323c
000002d0: 8a5c a93d 5fd0 ce3d 1271 683c 8a02 973d
000002e0: 9001 513b 08cf dc3d 5739 3cbc 9ce3 9abd
000002f0: 3af3 88bc 59ee c4bd 1ca6 9ebd 8649 c83c
00000300: 17e1 b33d 807b d73d a645 8e3d 1284 af3d
00000310: 6317 db3d 7afb 99bd e5ae 40bd 6a75 583d
00000320: 0553 6cbd 88b1 aebc 1405 bc3d 873d c4bb
00000330: 2744 1dbd ca71 653d 65e1 ed3d 42b8 43bd
00000340: ff55 d5bc 6ff6 13be 6570 793c 2e75 b83c
00000350: 4cfb a63d 41a0 e9bd 8714 cdbd 9354 d13d
00000360: 5126 6abd 9c20 3f3c 1407 b03d f71b de3d
00000370: b6ad 5dbc c72e ecbd eec1 c8bd 0914 f6bd
00000380: 84c0 f3bb 0612 cebd 443a c83d 0581 f5bd
00000390: f3bb 07bd 2629 643d cc8f 3fbd 4d3e be3d
000003a0: af50 9e3c 7e09 f63d 0e40 aa3c 502f 9c3d
000003b0: 1bdc cfbd be07 5cbd e892 663d ffc1 46bd
000003c0: 2bb6 193d c0bc 97bd d401 9d3c 9832 253c
000003d0: ed47 91bd baa3 aebb 2339 9b3d b3ba cebd
000003e0: 0297 a13c 2244 9c3d d419 d13d 0e19 f4bd
000003f0: c0a4 673d 6ac9 f43d ec89 bb3d eaf9 dcbd

memory_rnn.weight_hh f4 [256, 64]
-0.08527487 0.055317335 0.13800819 0.06625377 -0.013887594 0.1139616 -0.0792264 0.043926172
-0.0056404145 -0.13016912 0.073669225 0.08744367 -0.10115968 0.11972957 -0.1079932 0.041166127
-0.03149631 0.036672395 0.09368621 -0.108616926 -0.001067542 -0.091227755 0.13218695 0.073255695
-0.13859744 -0.12867723 0.07963309 -0.053402327 0.09201063 0.0064848433 0.042649057 0.029546825
0.06554895 0.08883152 0.06770898 -0.10684354 0.02349201 -0.10382514 0.022119852 -0.04729642
-0.0949429 0.00028738476 0.005413634 -0.0043342756 0.048204597 0.04553619 0.11888932 0.059228048
-0.03686901 -0.058925584 0.0648837 -0.10185502 -0.06847943 0.035738736 -0.07158306 0.09891351
-0.13086759 -0.025047615 0.0854047 -0.04134414 0.0096328035 0.022534743 -0.02314476 0.047087703
0.056372773 -0.05886469 0.1096148 0.09365192 0.044074606 0.0029215761 0.09869276 0.013054112
0.09940224 -0.02681644 -0.043405205 -0.073375314 -0.018981377 -0.005470681 -0.082103886 -0.072506
-0.118094675 0.05355086 0.11756448 -0.12667742 -0.041650098 0.070035756 -0.09611197 0.11627382
0.09275951 0.03926949 -0.03278751 -0.10167512 0.06680503 0.08641717 -0.08237932 -0.056810196
-0.032320626 0.0015668403 0.13455597 -0.10526236 -0.082419015 -0.09254818 0.12495611 -0.03748038
-0.09397767 0.03947889 -0.11869759 -0.08515537 0.0508429 0.12968643 0.013846085 0.041150905
-0.09679676 -0.007395825 0.08508358 0.09769604 -0.041397456 0.13856229 -0.12330344 0.12650773
0.087399065 -0.041514877 -0.082176626 0.053781234 0.096965834 -0.0073114415 0.10866666 0.040832218
-0.02491903 -0.032453522 -0.031403847 -0.0019429955 -0.016219847 -0.041009966 0.07842871 -0.036358133
0.0018236934 -0.03706591 -0.11178104 0.069173336 0.1241365 -0.020265117 -0.07857285 -0.06148477
-0.13599695 0.08872976 -0.057174496 -0.1464019 -0.032448273 0.06768668 -0.038083553 0.08072348
-0.11189903 -0.07649783 -0.0634537 -0.10964476 0.13631454 0.07496671 0.0065790755 0.05346317
-0.042345613 0.07706393 0.06944691 -0.06554264 -0.036622744 -0.07585517 -0.035581578 -0.05183001
-0.08635978 0.061422672 0.040627886 -0.07624601 -0.06772453 0.06194635 0.047082312 0.058589537
0.027690988 0.027238922 0.13548808 0.09274267 0.050254345 0.063607 -0.07080711 0.06652616
-0.12350966 0.02447502 -0.05130563 -0.07875911 -0.0961691 0.11999558 -0.10370214 -0.003113603
0.07008787 -0.10873228 0.0380674 -0.013783363 -0.12188693 0.120598234 -0.017071411 0.10324472
-0.12036388 -0.06837334 -0.025312511 -0.030658878 -0.0027259793 -0.053346347 0.010098435 0.0059244093
0.06424487 0.018373996 0.104746714 -0.02472197 0.037640207 -0.042540222 -0.070045754 0.06360532
-0.01201304 -0.020346763 -0.0626501 -0.05732685 0.11282958 0.032109037 -0.11376583 -0.065849744
0.030549975 -0.088075966 -0.084872276 0.10818094 -0.10274493 -0.10281906 0.11772226 0.07422516
-0.07092254 0.06259058 -0.034886584 0.108900785 -0.026167087 -0.120151125 -0.03860082 0.085955404
-0.06542222 -0.000892245 0.04835589 -0.02012299 -0.04198848 -0.11098961 0.047335558 0.026894324
-0.06602538 -0.048873737 -0.09735624 -0.0121204695 -0.04288243 -0.04232281 -0.0060716104 -0.05580888
00000000: 97a4 aebd 6e94 623d 0552 0d3e 0eb0 873d
00000010: cb88 63bc b364 e93d 7341 a2bd eeeb 333d
00000020: 3ad3 b8bb 0e4b 05be e4df 963d ab15 b33d
00000030: ce2c cfbd c734 f53d 8a2b ddbd d09d 283d
00000040: 4602 01bd cb35 163d 8ede bf3d 8d72 debd
00000050: c4ec 8bba 9ed5 babd 045c 073e 1507 963d
00000060: 7dec 0dbe f7c3 03be ac16 a33d 66bc 5abd
00000070: 1270 bc3d cf7e d43b c7b0 2e3d 2f0c f23c
00000080: 873e 863d 4ded b53d 01ab 8a3d c9d0 dabd
00000090: 5172 c03c 46a2 d4bd b134 b53c e4b9 41bd
000000a0: 6c71 c2bd 21ac 9639 da64 b13b 8a06 8ebb
000000b0: 2f72 453d 2884 3a3d 3e7c f33d 1c99 723d
000000c0: f603 17bd f45b 71bd bfe1 843d 5d99 d0bd
000000d0: f23e 8cbd c862 123d 249a 92bd 2b93 ca3d
000000e0: 2702 06be a830 cdbc a9e8 ae3d 7958 29bd
000000f0: e8d2 1d3c c89a b83c 149a bdbc 09df 403d
00000100: 23e7 663d 1a1c 71bd b97d e03d 94cc bf3d
00000110: 9387 343d ea77 3f3b 6e1f ca3d eae0 553c
00000120: 6793 cb3d 27ae dbbc a8c9 31bd cc45 96bd
00000130: d57e 9bbc 6643 b3bb 1526 a8bd 077e 94bd
00000140: 9fdb f1bd 2658 5b3d a5c5 f03d bab7 01be
00000150: 4b99 2abd e86e 8f3d 5ad6 c4bd f820 ee3d
00000160: b3f8 bd3d 0bd9 203d 324c 06bd 0c3b d0bd
00000170: 13d1 883d 7cfb b03d 7db6 a8bd cfb1 68bd
00000180: a262 04bd 705e cd3a 0ac9 093e cb93 d7bd
00000190: 4dcb a8bd e689 bdbd fde8 ff3d 0785 19bd
000001a0: 5d77 c0bd 9eb4 213d b917 f3bd f065 aebd
000001b0: a540 503d 85cc 043e b1da 623c da8d 283d
000001c0: 613d c6bd ad58 f2bb 4d40 ae3d dd14 c83d
000001d0: 6190 29bd 46e3 0d3e 8486 fcbd 3e8b 013e
000001e0: 48fe b23d 810b 2abd 384c a8bd b649 5c3d
000001f0: 0696 c63d d194 efbb a08c de3d af3f 273d
00000200: fe22 ccbc fced 04bd 52a1 00bd 1cac feba
00000210: 7cdf 84bc 11fa 27bd 3b9f a03d 44ec 14bd
00000220: ff08 ef3a 6cd2 17bd 75ed e4bd c0aa 8d3d
00000230: 473b fe3d 0803 a6bc cdea a0bd 74d7 7bbd
00000240: c942 0bbe f3b7 b53d ce2f 6abd 61ea 15be
00000250: 7be8 04bd 509f 8a3d 80fd 1bbd 5a52 a53d
00000260: 522b e5bd e5aa 9cbd 03f4 81bd 6f8d e0bd
00000270: 0a96 0b3e 2588 993d 4995 d73b 32fc 5a3d
00000280: 9872 2dbd b2d3 9d3d 2e3a 8e3d 383b 86bd
00000290: bb01 16bd f559 9bbd fdbd 11bd b44b 54bd
000002a0: 65dd b0bd 5796 7b3d 6d69 263d de26 9cbd
000002b0: 29b3 8abd 75bb 7d3d 62d9 403d 95fb 6f3d
000002c0: 36d8 e23c 2924 df3c 63bd 0a3e deef bd3d
000002d0: 80d7 4d3d 6344 823d 5103 91bd de3e 883d
000002e0: a2f2 fcbd d67f c83c da25 52bd 754c a1bd
000002f0: 4ef4 c4bd 3ec0 f53d ca61 d4bd 970d 4cbb
00000300: 3b8a 8f3d 08af debd 90ec 1b3d 9dd3 61bc
00000310: db9f f9bd 35fc f63d 58d9 8bbc f871 d33d
00000320: 5781 f6bd 5207 8cbd 2f5c cfbc 5428 fbbc
00000330: 58a6 32bb b381 5abd e873 253c 8c21 c23b
00000340: d092 833d 1085 963c 7285 d63d bb85 cabc
00000350: 9e2c 1a3d a83e 2ebd 2674 8fbd 8243 823d
00000360: 57d2 44bc 41ae a6bc b24e 80bd 8fcf 6abd
00000370: 3213 e73d c484 033d 0ffe e8bd 3bdc 86bd
00000380: f143 fa3c 2c61 b4bd 84d1 adbd f88d dd3d
00000390: ef6b d2bd cd92 d2bd 5e18 f13d 5c03 983d
000003a0: d63f 91bd 7d2f 803d 3ce5 0ebd 6007 df3d
000003b0: 5c5c d6bc cb11 f6bd e51b 1ebd 6309 b03d
000003c0: 16fc 85bd 8ce5 69ba d310 463d f8d8 a4bc
000003d0: 1dfc 2bbd 854e e3bd eee2 413d 7c51 dc3c
000003e0: 5038 87bd d42f 48bd b562 c7bd ef94 46bc
000003f0: 7da5 2fbd af5a 2dbd 5cf4 c6bb da97 64bd

memory_rnn.bias_ih f4 [256]
0.037597265 -0.11054584 -0.12635325 -0.055593826 -0.1326032 -0.103007466 -0.094154075 0.076460585
-0.10116689 -0.16333237 -0.07125254 -0.11744187 -0.13177314 -0.1114905 -0.1723057 -0.10291957
-0.16661474 -0.10857198 -0.17723995 -0.030741364 -0.03502487 -0.13554054 -0.05468532 -0.13698037
-0.14906853 -0.052718148 -0.0583971 -0.15368986 0.010726521 -0.038663354 -0.16173476 -0.12993549
-0.0027022026 -0.023905415 0.04270667 -0.075108305 -0.041436423 -0.09607518 -0.08502047 -0.15216409
-0.024134578 0.038472936 0.0036943366 -0.089230604 -0.04250759 -0.16956463 -0.09856256 0.06225636
-0.07559393 -0.024874268 0.0766398 0.027957074 -0.069194086 -0.17026483 0.061792135 0.025536725
-0.0660818 0.04428314 -0.0074748285 -0.06339799 0.058594745 -0.025673946 0.023868151 -0.034147464
0.011494802 -0.07574823 -0.014349018 -0.15344055 0.03978511 -0.006269069 0.05768474 -0.10875766
-0.04935491 -0.01725085 -0.049823087 -0.09137402 0.03664726 -0.007107641 -0.19491561 -0.02128257
0.026105605 0.0541284 0.04760211 0.03388867 -0.039984472 -0.13876145 -0.10261859 -0.022394871
-0.07319985 -0.08213293 -0.043624476 0.014716615 -0.08837118 -0.13033764 -0.015642041 0.10222239
-0.12023166 0.06615627 -0.020044899 -0.06999072 -0.14832126 -0.06777121 -0.032550897 -0.15882602
-0.016441466 -0.100368045 0.08818091 -0.08524397 -0.14091757 0.06480715 -0.06196777 -0.06564637
-0.10846709 -0.07129867 -0.018075516 -0.100857794 -0.15966518 -0.013245193 -0.07831312 0.08411072
-0.10860774 -0.0444816 0.053497847 0.0698259 -0.030337313 -0.0005709809 0.004855789 -0.04868812
0.035000384 -0.06925455 -0.042280603 0.0042589554 0.0007768944 -0.03962088 0.08864128 -0.08476004
-0.039641306 0.035752382 0.0075333775 -0.035189267 0.018366832 0.014734346 -0.019955259 -0.021196393
0.06774086 0.035551395 0.015147744 0.05788543 0.007829995 0.083721265 0.003879066 0.012968597
0.08250458 -0.084906496 0.014690569 0.022131767 -0.034334484 -0.009154851 0.065000534 0.0471813
-0.071558446 -0.04772982 -0.05105987 0.04631966 0.010652084 0.073370345 0.03106318 0.014568371
0.11001908 -0.06498192 -0.06576158 -0.03640534 -0.023149263 -0.09558627 0.0013570472 -0.0010273587
-0.027713891 -0.027458027 -0.0015285016 0.033673327 -0.025114024 0.050345108 0.06639519 -0.022807686
0.021716082 -0.042616297 0.065055095 0.012265009 0.08688482 0.028038416 0.034426175 0.045651633
-0.008840981 -0.10886994 -0.023114778 -0.103290044 0.060693175 0.051636606 -0.1378962 0.052107953
0.008223889 -0.12275133 -0.07953245 -0.055709716 -0.01135589 -0.090720356 -0.1530713 0.029898617
0.022244604 -0.118589 0.00087972125 -0.029409947 0.027828922 -0.062447917 -0.03358536 -0.03235285
0.059681866 -0.107088864 0.011289841 -0.17157109 -0.11053553 -0.18151006 0.054696515 -0.12266022
-0.10326544 -0.07450738 0.031828362 -0.21030585 0.0375822 -0.14847831 0.056398522 0.00089009467
-0.18998547 -0.037607145 -0.083391614 0.039315425 0.0031475122 -0.04748488 -0.030067923 -0.016867727
-0.1446863 -0.01677661 -0.031425692 0.02022544 -0.14809397 -0.037254293 -0.1684383 -0.08793707
-0.047754996 -0.17644064 -0.111889176 -0.16061695 -0.052984882 0.037578728 -0.060726233 -0.009740235
00000000: 97ff 193d db65 e2bd bf62 01be 5ab6 63bd
00000010: 22c9 07be 94f5 d2bd dad3 c0bd 5e97 9c3d
00000020: 9630 cfbd 9a40 27be daec 91bd 5d85 f0bd
00000030: 8aef 06be 2255 e4bd e870 30be 7fc7 d2bd
00000040: 0e9d 2abe fc5a debd 647e 35be 50d5 fbbc
00000050: 3d76 0fbd 24cb 0abe b7fd 5fbd 9544 0cbe
00000060: 6ca5 18be fcee 57bd cc31 6fbd e060 1dbe
00000070: 4abe 2f3c 775d 1ebd cc9d 25be cf0d 05be
00000080: 7017 31bb 4ad5 c3bc 30ed 2e3d 62d2 99bd
00000090: 3db9 29bd 10c3 c4bd 361f aebd e7d0 1bbe
000000a0: e1b5 c5bc cc95 1d3d af1c 723b 89be b6bd
000000b0: 701c 2ebd 5aa2 2dbe 2bdb c9bd 8600 7f3d
000000c0: fed0 9abd 1fc5 cbbc 54f5 9c3d 3c06 e53c
000000d0: a1b5 8dbd e759 2ebe c019 7d3d 6532 d13c
000000e0: e555 87bd 3d62 353d 68ef f4bb ced6 81bd
000000f0: 0b01 703d 2b52 d2bc 2487 c33c 36de 0bbd
00000100: b254 3c3c e321 9bbd 2518 6bbc 851f 1dbe
00000110: b6f5 223d c36c cdbb d546 6c3d 56bc debd
00000120: 6028 4abd a851 8dbc 4b13 4cbd 4d22 bbbd
00000130: 701b 163d 37e7 e8bb f597 47be c958 aebc
00000140: 6cdb d53c beb5 5d3d 6efa 423d d9ce 0a3d
00000150: c2c6 23bd 7b17 0ebe b229 d2bd 7375 b7bc
00000160: cee9 95bd 4f35 a8bd 94af 32bd f51d 713c
00000170: f3fb b4bd 3b77 05be bd23 80bc f959 d13d
00000180: 043c f6bd f07c 873d 3335 a4bc 4b57 8fbd
00000190: 87e1 17be a2cb 8abd 1754 05bd 4aa3 22be
000001a0: 41b0 86bc c38d cdbd 3198 b43d 6494 aebd
000001b0: b24c 10be 9cb9 843d ebd1 7dbd 9b71 86bd
000001c0: fe23 debd 0905 92bd 1b13 94bc 888e cebd
000001d0: 457f 23be 5e02 59bc a162 a0bd 3e42 ac3d
000001e0: bc6d debd 5732 36bd 8f20 5b3d e200 8f3d
000001f0: f585 f8bc e1ad 15ba 4f1d 9f3b 326d 47bd
00000200: 905c 0f3d 54d5 8dbd 6d2e 2dbd b58e 8b3b
00000210: 80a8 4b3a 8149 22bd 8f89 b53d ac96 adbd
00000220: ec5e 22bd 1771 123d 8dda f63b 9f22 10bd
00000230: 0a76 963c 5468 713c 3679 a3bc 0fa4 adbc
00000240: b8bb 8a3d 579e 113d 3e2e 783c 4619 6d3d
00000250: 6149 003c 0e76 ab3d ee37 7e3b 3d7a 543c
00000260: 29f8 a83d 75e3 adbd b6b0 703c ae4d b53c
00000270: 51a2 0cbd 3afe 15bc 001f 853d 2e41 413d
00000280: 3c8d 92bd 5880 43bd 2724 51bd afb9 3d3d
00000290: 1486 2e3c 3143 963d 3678 fe3c 2db0 6e3c
000002a0: af51 e13d 3e15 85bd 02ae 86bd c41d 15bd
000002b0: 86a3 bdbc bcc2 c3bd f3de b13a 70a8 86ba
000002c0: 3e08 e3bc a8ef e0bc 0158 c8ba 0bed 093d
000002d0: edbb cdbc ac36 4e3d 34fa 873d 2fd7 babc
000002e0: ede5 b13c 6d8e 2ebd 9b3b 853d 2df3 483c
000002f0: abf0 b13d d2b0 e53c 7602 0d3d 35fd 3a3d
00000300: c3d9 10bc 34f7 debd 345b bdbc bb89 d3bd
00000310: 6899 783d e880 533d a934 0dbe 266f 553d
00000320: 7ebd 063c 0d65 fbbd e9e1 a2bd df2f 64bd
00000330: 0e0e 3abc 98cb b9bd b9be 1cbe f2ed f43c
00000340: 513a b63c cade f2bd 189d 663a 21ed f0bc
00000350: 7bf9 e33c 63c9 7fbd cd90 09bd 6c84 04bd
00000360: f974 743d 6851 dbbd 06f9 383c 55b0 2fbe
00000370: 7460 e2bd c6dd 39be 7409 603d 4835 fbbd
00000380: d57c d3bd 5397 98bd 755e 023d 6b5a 57be
00000390: cbef 193d b30a 18be 2302 673d 3e55 693a
000003a0: 8d8b 42be f309 1abd 39c9 aabd 3609 213d
000003b0: 7e46 4e3b 817f 42bd 0151 f6bc 302e 8abc
000003c0: a528 14be 1a6f 89bc 3ab8 00bd d2af a53c
000003d0: f2a5 17be f597 18bd 177b 2cbe 5a18 b4bd
000003e0: be9a 43bd dbac 34be 2726 e5bd c578 24be
000003f0: ad06 59bd 27ec 193d 12bc 78bd 8295 1fbc

memory_rnn.bias_hh f4 [256]
-0.123511255 0.055364504 -0.045564245 0.020797806 0.067391686 -0.009808074 -0.1417119 -0.0040629175
-0.059055444 -0.10633068 -0.07617853 0.042252947 0.041851122 -0.07374951 -0.11821459 -0.092030674
-0.055199318 0.03397547 -0.07670726 -0.14994133 0.036092415 0.051790763 -0.080263734 -0.09847655
0.068351984 -0.17304125 -0.02489049 -0.03513856 -0.14862166 -0.16634381 0.026358547 -0.10462809
0.06076632 -0.16133699 -0.093060754 0.046082124 -0.09229818 -0.051388685 0.049461823 -0.17487305
-0.055066947 -0.15614395 -0.06317028 -0.08185141 -0.07535547 -0.102546945 -0.061463654 -0.055053808
0.0012295943 0.0009834722 0.026463417 -0.10064311 -0.12268075 0.07206135 -0.019678492 -0.05191855
-0.057142943 0.049229305 -0.093228936 -0.09355689 0.029031673 -0.17749213 -0.1419271 0.055622198
-0.0047368156 0.0015288525 0.016900124 0.08469625 0.048157632 -0.06401798 0.011945922 -0.07060436
-0.06978568 -0.14979798 0.04634225 0.030686157 0.062307503 -0.13531409 -0.026242888 0.035866708
-0.018383287 -0.0185476 -0.015525723 0.038724024 -0.117294036 -0.08087828 -0.1396099 -0.053267986
0.027440168 -0.12599738 0.067370065 -0.1526904 0.06673681 -0.18663102 -0.07118506 -0.029062552
-0.06885418 0.051255684 -0.14797159 -0.10087321 0.04625024 0.07139579 -0.038155075 -0.082849264
0.042595845 -0.07456558 -0.04054461 -0.059004657 -0.0016687285 -0.020226657 -0.06615545 -0.03341638
-0.07404734 -0.10812172 -0.09892818 -0.16295446 0.05579272 -0.07380346 -0.028080018 -0.012920458
-0.052599743 -0.09452749 -0.08806363 0.021480968 -0.059003234 -0.11832845 -0.09495367 0.058812357
-0.051821798 -0.05865025 -0.040971722 0.0232965 0.04548941 0.0587844 -0.10025973 0.00502438
0.06898207 -0.008188616 0.016582439 0.077983804 -0.006552574 -0.017798297 0.033626046 0.024282424
0.07055096 0.0117756 -0.033777818 -0.015147936 0.04794125 -0.10167405 0.014237944 0.030888893
-0.01827721 0.08840705 0.02629899 0.032050155 -0.009652611 -0.0068966025 -0.09685773 -0.09927221
-0.021296488 0.07618461 0.015434377 0.041925546 -0.034838714 -0.056608066 -0.04111314 0.015235702
-0.11073152 0.034004197 0.10425268 0.038345516 0.019165456 0.10697457 0.06400773 0.00039897556
0.023226578 0.042165823 -0.042310156 -0.0009309919 -0.0013953304 -0.07172981 0.05836292 -0.008019598
0.03661094 -0.000980331 -0.007413053 -0.006906132 -0.084235795 0.015943788 -0.042974494 -0.04131579
0.002683603 -0.01404128 -0.09089504 0.06423191 -0.117592186 0.064994976 -0.0032662728 -0.03828094
0.05274808 -0.17282145 -0.15853062 0.030390391 -0.14015546 -0.07175238 0.04449396 -0.072109275
-0.13108566 0.0028125187 -0.1368948 -0.11567081 0.020916006 -0.16316523 0.065341145 -0.15064783
-0.12809691 -0.08733873 -0.072914615 -0.06302757 0.056108166 -0.12134647 0.061052732 -0.11027305
-0.014091626 0.028188605 -0.1678092 -0.13943188 0.0703364 0.014120562 -0.14498077 0.06449519
-0.09854308 -0.08916211 0.08702408 -0.04493858 0.0006958219 -0.025018383 -0.035652917 -0.16500352
-0.057264153 0.09762707 0.054224573 -0.11472044 -0.07302228 -0.0880993 -0.16752245 -0.010911665
-0.07692421 0.03809769 -0.16943423 0.02521476 0.018332675 -0.14882843 0.04677148 -0.03183527
00000000: 78f3 fcbd e4c5 623d 93a1 3abd 2960 aa3c
00000010: a704 8a3d 0bb2 20bc ed1c 11be 3922 85bb
00000020: 1fe4 71bd e6c3 d9bd 7d03 9cbd 6d11 2d3d
00000030: 156c 2b3d fc09 97bd 7e1a f2bd 947a bcbd
00000040: ae18 62bd dd29 0b3d b218 9dbd 388a 19be
00000050: a4d5 133d 8d22 543d 5061 a4bd 13ae c9bd
00000060: 20fc 8b3d ba31 31be 24e7 cbbc 73ed 0fbd
00000070: 4730 18be 0856 2abe e1ed d73c 4147 d6bd
00000080: 1be6 783d 8635 25be a396 bebd 9cc0 3c3d
00000090: d406 bdbd f17c 52bd 7b98 4a3d ec11 33be
000000a0: e18d 61bd 33e4 1fbe 6b5f 81bd b6a1 a7bd
000000b0: f853 9abd 2204 d2bd 50c1 7bbd 1a80 61bd
000000c0: 572a a13a dae7 803a cfc9 d83c fa1d cebd
000000d0: 0c40 fbbd e794 933d ca34 a1bc 8ca8 54bd
000000e0: b80e 6abd aba4 493d d0ee bebd c19a bfbd
000000f0: d5d3 ed3c 7fc0 35be 5655 11be 1ad4 633d
00000100: 4a37 9bbb c763 c83a 2172 8a3c 3a75 ad3d
00000110: f040 453d dc1b 83bd d4b8 433c 0599 90bd
00000120: cbeb 8ebd a464 19be 5fd1 3d3d 8961 fb3c
00000130: 2736 7f3d c78f 0abe 53fb d6bc f8e8 123d
00000140: 8c98 96bc 23f1 97bc 9a5f 7ebc 159d 1e3d
00000150: db37 f0bd 83a3 a5bd e6f5 0ebe 882f 5abd
00000160: 34ca e03c 7505 01be 51f9 893d df5a 1cbe
00000170: 4fad 883d 341c 3fbe 79c9 91bd 9714 eebc
00000180: 6c03 8dbd 7bf1 513d dd85 17be 9d96 cebd
00000190: e470 3d3d f537 923d 7f48 1cbd e0ac a9bd
000001a0: fb78 2e3d d7b5 98bd 1b12 26bd deae 71bd
000001b0: 3db9 daba 60b2 a5bc 827c 87bd 9ddf 08bd
000001c0: 22a6 97bd ec6e ddbd dc9a cabd 89dd 26be
000001d0: e886 643d 4526 97bd 1108 e6bc 54b0 53bc
000001e0: d472 57bd a197 c1bd b45a b4bd dbf8 af3c
000001f0: 60ad 71bd 3056 f2bd 1277 c2bd 3ae5 703d
00000200: 1843 54bd 3f3b 70bd f7d1 27bd 4dd8 be3c
00000210: 1b53 3a3d e9c7 703d f954 cdbd 8ea3 a43b
00000220: 7946 8d3d 8b29 06bc e5d7 873c f9b5 9f3d
00000230: fab6 d6bb bccd 91bc 77bb 093d efeb c63c
00000240: 067d 903d 72ee 403c 9c5a 0abd 0c2f 78bc
00000250: 0b5e 443d 7c3a d0bd 4446 693c b40a fd3c
00000260: 16ba 95bc c10e b53d fb70 d73c 0647 033d
00000270: fc25 1ebc e5fc e1bb 585d c6bd 3a4f cbbd
00000280: f975 aebc ad06 9c3d 78e0 7c3c 1fba 2b3d
00000290: 0ab3 0ebd dcdd 67bd 4066 28bd 2a9f 793c
000002a0: 35c7 e2bd fc47 0b3d 6e82 d53d 3010 1d3d
000002b0: e000 9d3c 7c15 db3d 7c16 833d 982d d139
000002c0: aa45 be3c 12b6 2c3d 6a4d 2dbd cf0d 74ba
000002d0: 85e3 b6ba 14e7 92bd f50d 6f3d a264 03bc
000002e0: 5af5 153d 737e 80ba 32e9 f2bb d64c e2bb
000002f0: d183 acbd 8c9c 823c 0606 30bd bf3a 29bd
00000300: 63df 2f3b 660d 66bc 2e27 babd 058c 833d
00000310: 2cd4 f0bd 161c 853d f70e 56bb 7acc 1cbd
00000320: 5f0e 583d 1bf8 30be da55 22be 45f5 f83c
00000330: ea84 0fbe e9f2 92bd 4c3f 363d 07ae 93bd
00000340: 523b 06be 3c52 383b 272e 0cbe d1e4 ecbd
00000350: 0b58 ab3c c914 27be 94d1 853d 6d43 1abe
00000360: d62b 03be a6de b2bd 4254 95bd 9914 81bd
00000370: add1 653d 8084 f8bd 6e12 7a3d d6d6 e1bd
00000380: 90e0 66bc caeb e63c 2dd6 2bbe 3bc7 0ebe
00000390: 880c 903d ee59 673c d775 14be 0e16 843d
000003a0: f4d0 c9bd a09a b6bd ae39 b23d 8411 38bd
000003b0: d167 363a 5af3 ccbc cb08 12bd aff6 28be
000003c0: d18d 6abd b4f0 c73d 961a 5e3d 8df2 eabd
000003d0: b58c 95bd 686d b4bd 018b 2bbe d7c6 32bc
000003e0: 718a 9dbd 530c 1c3d 2b80 2dbe 2f8f ce3c
000003f0: 682e 963c 7b66 18be 7493 3f3d b365 02bd
