torch-rl/storage/LineCorridor25x25_lr03_d90/status.pt (torch, 649941 bytes, 51 tensors)

image_conv.0.weight f4 [16, 3, 2, 2]
000000 5d 22 10 3e 14 bc 21 be 90 d5 82 bd 03 29 da 3d
       0.14075609 -0.15794402 -0.0638839 0.106523536
000010 17 db 8c be b1 c1 03 3e 06 66 93 bd 29 53 ed 3d
       -0.27510902 0.12866856 -0.07197194 0.11588127
000020 23 60 24 3d 94 c7 10 bd 45 fa a3 3d 7e 52 69 3c
       0.040130746 -0.035346583 0.080067195 0.014240859
000030 01 18 c3 3d f5 4c ea bd 0b b6 1a bd 69 e6 58 bd
       0.09526063 -0.1144046 -0.037771266 -0.05295411
000040 1b 18 20 3d e2 bc 06 3c 5a c4 69 3e 09 2e 79 3d
       0.03908549 0.008223744 0.22828808 0.06083492
000050 47 2b dc bd 72 88 32 be e4 30 46 bd f1 02 ff bd
       -0.10750442 -0.17434862 -0.04838647 -0.12451733
000060 42 c0 df bd d3 2f bc bc 2a 5d 0b 3e 2d 94 ee 3d
       -0.10925342 -0.022972023 0.13609758 0.11649356
000070 6c 15 a6 be 25 f5 09 3e 72 cd 30 3d 8f 94 62 3e
       -0.3243822 0.13472421 0.043164678 0.22126983
000080 aa 1d 43 3e ec aa 86 be f4 87 8c be 38 94 0e be
       0.19054285 -0.26302278 -0.27447474 -0.13923728
000090 c5 57 3a 3e dc 4a b2 bd c1 40 f8 3d 6e 32 18 be
       0.18197544 -0.087056845 0.12121726 -0.14862987
0000a0 fe 83 79 3e 92 23 f9 bd 96 0b 45 3e 62 d5 ee 3b
       0.24366757 -0.121649876 0.19242701 0.007288621
0000b0 9f ba 1b be cb f1 17 3e 86 e9 1c be 6d e0 ad 3d
       -0.15207909 0.1483833 -0.15323457 0.084900714
0000c0 74 28 e7 bd 6b 53 09 bd dc 81 a1 be ad eb 36 be
       -0.11287013 -0.03352682 -0.31544387 -0.1786334
0000d0 64 95 0d 3e 7d 05 8f bd 5d 07 78 3e ee 2d 40 3e
       0.13826519 -0.06983469 0.24221559 0.18767521
0000e0 a1 75 5d bc 6b 4f 45 be e1 02 34 3e 35 7c b7 3d
       -0.013516814 -0.19268577 0.17579223 0.089592375
0000f0 d1 ac 55 be cd 4d 3a 3e ab b3 1b 3e 9a 8d 75 3e
       -0.20866705 0.18193741 0.15205257 0.23979798
000100 e3 db 1a be 22 e2 5b bd 48 3f 91 bc 07 e8 f6 3c
       -0.15122943 -0.053682454 -0.01773037 0.030139936
000110 ba 56 60 be 49 c4 51 be 3f cf 20 3e 19 a2 8a bd
       -0.21908084 -0.20485033 0.15704058 -0.06769199
000120 79 71 f6 3d 27 59 96 bc 08 cb c5 3d 72 56 43 3d
       0.12033362 -0.018353058 0.09657866 0.047689863
000130 00 16 81 3d b2 6d b8 3d e3 2c 88 be 0b 62 e3 3d
       0.06303024 0.09005298 -0.26596746 0.111026846
000140 77 d8 4f be 0e 09 5f be c3 d0 8f 3c e1 7d 49 bd
       -0.20297419 -0.21780798 0.0175556 -0.049192313
000150 27 be 43 3e 89 63 20 be 5f e8 82 be d4 d5 68 3e
       0.19115506 -0.1566297 -0.2556791 0.22737819
000160 a0 72 18 bd 7e df 2f 3e 74 4f b7 3d cc 28 55 be
       -0.03721869 0.17175099 0.08950701 -0.20816344
000170 79 8b 6d 3d 7e 01 8e 3d 7c ec 45 be 6e 41 0c be
       0.05799434 0.06933878 -0.19328493 -0.13696834
000180 e6 f0 83 3d e8 ef 33 3d b1 93 2a be 0d 5e 01 be
       0.06442432 0.043929964 -0.16657902 -0.12633534
000190 ed ad 63 3e bd ec 9a bd a8 fa ed 3d 25 22 e1 3d
       0.22234316 -0.075646855 0.116200745 0.10992841
0001a0 82 14 3f be ca 63 7b be 87 df 8d 3e 9b f7 76 3c
       -0.18660167 -0.24549785 0.277096 0.015073682
0001b0 07 a4 34 3e b3 27 d6 3c 7b 8b 43 3d 2b 16 47 3e
       0.17640696 0.026141977 0.04774044 0.1944205
0001c0 21 9b 6f 3e cd c6 58 be 4e e5 e1 bc c4 dc 34 3e
       0.2339902 -0.21169586 -0.027575161 0.1766234
0001d0 3b 25 56 3e e2 a3 37 3e 08 ef 55 be 7e dd 54 be
       0.2091264 0.1793361 -0.20891964 -0.20787618
0001e0 64 76 16 be df 51 4b 3d 74 f5 90 3e 96 65 18 be
       -0.146936 0.049638625 0.28312266 -0.14882502
0001f0 df 26 e9 3d cd ac 48 be 43 8e 9e be 4b 4f 7b bd
       0.11384367 -0.19597168 -0.30967912 -0.061354917
000200 6b 51 2a 3e 22 37 89 3e c5 94 37 be 69 4c 80 3d
       0.16632621 0.26799875 -0.17927845 0.06264574
000210 42 e5 7b 3e b8 4e 30 3e 45 21 43 3e be f6 54 3e
       0.24599174 0.17217529 0.1905566 0.2079725
000220 73 e8 28 3e e7 89 e2 3c 0a 61 3e be 10 29 81 be
       0.16494922 0.027653648 -0.18591705 -0.2522664
000230 98 73 07 be eb af 09 bd d3 30 35 be 8d 4b d8 3d
       -0.1322769 -0.033615034 -0.17694406 0.10561285
000240 6c 35 85 3d 95 f7 b4 bd 38 8a f7 3d 95 9e 87 3d
       0.0650433 -0.08836285 0.1208691 0.06622044
000250 3f f8 1d 3e 29 6a 27 3e 1b 4b dc bd 62 31 84 3e
       0.1542673 0.1634909 -0.10756513 0.25818926
000260 36 b2 08 bd f1 7d 22 bc ce 81 8b be 4e 41 3e be
       -0.03337308 -0.009917722 -0.2724747 -0.185796
000270 c2 f2 45 be 57 4c 11 be c4 90 28 3e 22 71 01 be
       -0.19330886 -0.14189278 0.16461474 -0.12640813
000280 89 3b 6a be 29 6c d6 3d 1c 50 09 3d 4d 15 16 3e
       -0.22874273 0.10469849 0.033523664 0.14656563
000290 6c f7 18 be b6 2e 80 3d aa 3a d7 bd 45 d4 84 bd
       -0.14938134 0.062589094 -0.10509236 -0.064858
0002a0 4a ad 69 be 70 38 09 be 6d a3 e5 bd ab 32 e2 3d
       -0.22820011 -0.13400435 -0.112128116 0.110448204
0002b0 3b 0b a2 3d 2c 71 86 3d aa 52 84 3e 7c df 84 3e
       0.07912298 0.065645546 0.25844318 0.25951755
0002c0 8b 9d 49 3e e2 9b 16 3c f0 7e 4c be 51 04 67 3e
       0.19689004 0.009192439 -0.19970298 0.2256024
0002d0 d7 91 b8 bd 6d 3e c8 bc 76 a9 7e be 21 7e 3d bd
       -0.09012192 -0.02444383 -0.24869332 -0.046262864
0002e0 eb cb 55 be 54 90 84 3e 28 8e 7f be d2 84 5d be
       -0.2087857 0.25891364 -0.24956572 -0.21632698
0002f0 fa 99 20 bc 59 d6 1f be 68 8a d3 3d 12 92 e3 bd
       -0.009802336 -0.15609111 0.10329133 -0.11111845

image_conv.0.bias f4 [16]
000000 4b dc 1e be 92 87 8d 3b 02 8a 38 3e ce 5c 67 be
       -0.15513723 0.0043191398 0.18021396 -0.22593996
000010 b5 34 de 3d cb b0 2a 3e bd 66 7f 3e 2c 6d 43 be
       0.10849897 0.16669004 0.24941535 -0.19084615
000020 3d 4f cb 3c b5 7f 79 be 4a 60 8d 3e 25 5e bd bd
       0.024818057 -0.24365123 0.27612525 -0.09246472
000030 af c7 2a 3e 20 61 82 bc 31 33 04 bd 2d eb b1 bb
       0.16677736 -0.015915453 -0.032275382 -0.0054296465

image_conv.3.weight f4 [32, 16, 2, 2]
000000 c8 b0 b8 3c 50 54 43 3d f0 03 b6 3c ed 73 0c 3d
       0.022545233 0.04768783 0.022218674 0.034290243
000010 a1 7e e0 bd 5f 27 bc 3d 78 e5 dd 3d 08 58 d0 3d
       -0.109616525 0.09187197 0.10834783 0.10173041
000020 b7 8d b7 3d 9c 6d c6 bd eb 83 5d bd 25 4a c6 3d
       0.08962577 -0.09688875 -0.054080885 0.09682111
000030 65 98 b5 bd 3a c2 e6 3d ed dd bb bd ea 0b a9 bd
       -0.088669576 0.112675145 -0.09173188 -0.082542256
000040 8b 3c 84 3d 41 d2 b2 bd b8 ca be bc 0a 69 ab 3d
       0.0645686 -0.08731509 -0.023290023 0.08369644
000050 41 60 bf 3d e3 79 e1 3d 1c a0 f2 bc 2e d4 d5 bd
       0.09344531 0.11009576 -0.029617362 -0.10440861
000060 21 9b f3 3d 9b 8b 0f bd 46 9a 6d bd f1 40 ab 3c
       0.11894823 -0.035045248 -0.058008455 0.02090499
000070 91 88 9a bd 70 98 95 3d 95 a6 5f 3d b2 6b e2 bd
       -0.07545579 0.07304466 0.054602224 -0.110556975
000080 4f 5d d0 bd eb 8f 75 bc dc 97 76 3d fd ab 75 bb
       -0.10174047 -0.014987926 0.060203418 -0.0037486546
000090 d5 f6 71 bd b2 e7 a0 bb ba b9 f3 bd 69 69 c0 bd
       -0.059073288 -0.0049104327 -0.11900659 -0.093951054
0000a0 8b 14 c8 bd ff eb a9 3d a7 93 d5 3d 0a 7b 3d bd
       -0.09769543 0.08296966 0.10428553 -0.046259917
0000b0 68 04 7c 3a d1 82 49 3d dd 65 7d 3b 1e d2 8a bd
       0.00096136937 0.049197022 0.0038665452 -0.06778358
0000c0 d8 fd 88 3d b2 49 8a 3d 8e 94 44 bc 92 14 e7 bc
       0.06689042 0.067523375 -0.011998309 -0.02820805
0000d0 09 f7 df 3d ab 83 d6 3d f1 3a 9f bd de c4 e9 3d
       0.1093579 0.104743324 -0.07774914 0.114145026
0000e0 e8 ac 09 3d 0e cb ae bd 42 5f 83 3d c2 e6 d6 bd
       0.033612162 -0.08534823 0.06414653 -0.10493232
0000f0 fb 0d f3 3d e4 ea ad bd a3 d4 1e ba 09 93 b6 3b
       0.11867901 -0.084920675 -0.0006058907 0.005571727
000100 db 8f eb 3c db 75 b8 3d cf 92 5b bd b1 14 87 bd
       0.02875512 0.09006854 -0.053606804 -0.065957434
000110 3c 7b e7 bd 0c 70 99 bc ae 14 85 bd 82 72 ee bb
       -0.11302802 -0.018730186 -0.06498085 -0.007276834
000120 8e 3f 07 bd 74 a3 dd 3c cc ce cc 3d 1d 69 ba 3c
       -0.033019595 0.02705548 0.10000381 0.0227552
000130 90 ef 24 bd f0 e3 95 bd b3 4f e6 bd 7d 75 bd 3d
       -0.040267527 -0.07318866 -0.1124567 0.09250925
000140 63 2f 05 bd f0 fe 36 3c 48 68 9c bb ba 99 ba bd
       -0.032515895 0.01116918 -0.0047731735 -0.09111352
000150 20 20 7c 3d 5e 18 6a 3d 35 06 3c bb 6d 0b ae bd
       0.061554074 0.057152145 -0.0028690223 -0.08498273
000160 45 9c 7d bd 92 d1 3d bc b7 69 a5 bd fe 47 ab bd
       -0.06191661 -0.01158561 -0.08076804 -0.08363341
000170 40 bf 98 bc b3 76 2e bd fc dc c4 3c 71 7a 50 bd
       -0.018645883 -0.04259367 0.024031155 -0.05089802
000180 a9 83 c2 bc 0a f3 74 bd e2 77 fa bd 05 52 c3 3d
       -0.023744421 -0.059802093 -0.12229897 0.09537128
000190 21 bf a7 3c 22 31 ca 3d 6d 51 c0 bc c8 36 3d bd
       0.02047688 0.098726526 -0.023476327 -0.04619482
0001a0 d5 c3 03 be c0 62 54 bd 2b 3d 91 3d 37 d5 fe bd
       -0.12867673 -0.051851988 0.07091745 -0.12443011
0001b0 bf 47 41 bd 35 04 81 3d d3 62 85 3d 9d 78 ed 3c
       -0.047187563 0.062996306 0.0651299 0.028988177
0001c0 6d 3e 02 bd d0 f2 bf bc f1 f1 00 bd 80 0a 77 bd
       -0.031797815 -0.023431212 -0.031480733 -0.060312748
0001d0 96 a3 50 3d ed 04 69 bd 73 05 95 bd 86 3a 80 3c
       0.050937258 -0.056889463 -0.0727643 0.015652906
0001e0 6b 98 bb bd 36 8d 2c bd 15 4b 7b 3d 49 d7 06 3d
       -0.09159931 -0.042126857 0.0613509 0.032920156
0001f0 38 e2 dd 3d bf 53 c2 bd 67 ef 8b bb 8d 71 4f bd
       0.108341634 -0.094886295 -0.0042704823 -0.0506454
000200 23 7c 41 bd 54 80 41 bd 45 5f 31 3d 10 e2 6e 3c
       -0.047237527 -0.047241524 0.043303747 0.014580265
000210 a7 e1 07 bd 63 5f 87 bd bd 58 d8 bd 6c 01 fb 3d
       -0.033174183 -0.066099904 -0.105638005 0.122561306
000220 c2 10 7b bb 3f b9 52 bc 4d d4 37 bd fe 75 91 bd
       -0.003830955 -0.012861549 -0.0448802 -0.07102583
000230 71 15 b4 bd 36 12 61 bd 2d ca a0 3d c1 5a 25 3d
       -0.08793152 -0.054949008 0.07851062 0.040369753
000240 79 95 87 bc 49 55 e8 bc 69 83 a1 3d 7c 0c b1 3d
       -0.016550766 -0.02836098 0.078863926 0.08644959
000250 21 8f 05 3e 2e 50 4f 3d 8d de 82 3d 13 74 59 bc
       0.1304288 0.050613575 0.063901044 -0.013272303
000260 75 0d 78 bd 56 54 e4 bd 25 a2 9d 3d bb 20 bd bc
       -0.06055971 -0.11148898 0.07696942 -0.023086896
000270 bd 7e 90 3d 60 7d e8 3c cf c2 eb bd 30 2b 95 bd
       0.070554234 0.028380096 -0.11511766 -0.07283628
000280 c2 c7 66 3d fa b1 26 bc 0d 45 f5 bd 02 93 47 3d
       0.056342848 -0.010174269 -0.11976061 0.048724182
000290 c8 9f c2 3c bd 28 8c bc 10 32 54 3d f8 6b e2 3c
       0.02375783 -0.01710927 0.051805556 0.027639374
0002a0 93 57 2c bd 36 b2 00 3e 14 4f b2 3d e1 25 1b 3d
       -0.042075705 0.12567982 0.08706489 0.03787792
0002b0 c7 15 93 bc 7d 78 bd bd 08 a5 c0 3d ad a6 0b bd
       -0.01795472 -0.09251497 0.09406477 -0.0340945
0002c0 0c 06 89 bd 16 eb c6 3d d1 99 49 3d 4a 57 de 3c
       -0.066906065 0.09712808 0.049218956 0.027141232
0002d0 7b ae 9d bb ef 04 74 bc 34 73 d5 3c c6 39 b5 3d
       -0.0048120595 -0.014893754 0.02605591 0.0884891
0002e0 17 5b 37 3d 1e c8 0b bd 99 db f4 3d c8 9b 8a bc
       0.044764604 -0.034126393 0.119559474 -0.016919985
0002f0 f2 6e ce 3d f4 09 aa 3c 5b 8d e5 3d 81 a3 87 3d
       0.10079755 0.0207567 0.11208602 0.06622983
000300 da 15 7c bd b2 02 c8 3d 47 c4 1d bb 0c da c8 bd
       -0.061544277 0.09766139 -0.002407329 -0.09807214
000310 b0 f2 0f bd ba c4 dc bd 7f c2 a6 bd 9d c5 c2 bd
       -0.035143554 -0.1077971 -0.08142566 -0.09510348
000320 d8 06 a1 3d 46 84 c5 bc 78 8e 12 bd 75 8e 50 3d
       0.078626335 -0.024110924 -0.0357804 0.050917108
000330 a2 e6 15 3d c0 38 aa bd a8 c6 ea 3c 2e 5a 4d 3d
       0.0365969 -0.083116055 0.02865918 0.05013483
000340 af 94 df bd f5 9a ea 3d 61 c6 bd bd b4 5d 5a bd
       -0.10917031 0.11455337 -0.092663534 -0.05331202
000350 e4 82 d6 bd 64 d1 ee 3d c2 21 65 3c 17 db c5 3d
       -0.10474184 0.11661032 0.013985099 0.09660929
000360 bb e3 3b 3a 89 6e 84 3d f3 eb 3e bd fd 03 d0 bd
       0.00071674184 0.064663954 -0.046611737 -0.10157011
000370 2b cc cc 3c e1 47 66 3b 70 bf 87 3b 7b 4d 5e bd
       0.024999699 0.0035138058 0.004142694 -0.05427311
000380 40 5b 0c bc e3 ce 26 3d c9 09 f6 3c 0d 54 ce bd
       -0.008566678 0.040724646 0.030033963 -0.10074625
000390 0c b7 41 3d 8d 14 af 3c ec b4 93 3d 78 9c aa 3d
       0.047293708 0.021372104 0.072122425 0.08330625
0003a0 7e 1f ab bd 93 17 00 3e 09 fd dc bd 16 74 86 3d
       -0.08355616 0.12508993 -0.1079045 0.065651104
0003b0 d9 3e 5c bb bd 41 5f 3d b0 0e 99 bd bb ad 8f 3d
       -0.0033606796 0.054506052 -0.074735045 0.07015558
0003c0 12 aa 97 bd c2 90 ed bd b8 39 ef 3c 5d 3a 7a 3d
       -0.07405485 -0.11599876 0.029202327 0.061090816
0003d0 00 f7 08 3e 31 ce 02 bc 10 c2 e6 3d f6 2f 9e 3d
       0.13375473 -0.00798373 0.11267483 0.077239916
0003e0 d0 ce 9f bd 1b 82 ac bd e2 20 66 3d ea b4 a0 bd
       -0.07803118 -0.08423253 0.056183703 -0.078470066
0003f0 60 5b 84 3d e2 45 e7 bd 3d 77 cd 3d b7 f1 2b 3d
       0.06462741 -0.11292626 0.100325085 0.041978564

image_conv.3.bias f4 [32]
000000 2e 4f ea bb 55 19 59 bd d2 15 1f 3d a4 ac a7 bd
       -0.0071505522 -0.053002674 0.03883917 -0.081872255
000010 a4 13 c9 bd b3 1c 02 bd a7 eb e5 bd ca f6 a4 bc
       -0.09818199 -0.03176565 -0.11226588 -0.02013721
000020 fe 5d 05 3c 6f 62 db 3d b8 fb 0a 3d 23 23 24 bc
       0.008140085 0.10712134 0.033931464 -0.010018143
000030 39 60 cb bd f7 f6 49 bd 45 a6 11 bd 3f 6c bf bd
       -0.099304624 -0.04930779 -0.035558958 -0.09346818
000040 81 b4 38 3b 6d ef ab 3d aa c4 83 3d 08 06 71 bd
       0.002818376 0.08395276 0.06433995 -0.058843642
000050 09 7c de bc 07 8f e3 3d ea ed 69 bc d6 ea e5 bd
       -0.027158754 0.11111265 -0.014277915 -0.11226432
000060 da 8a e2 bc 3e e7 41 bb 47 2b 48 bd d3 82 81 bc
       -0.0276541 -0.0029587294 -0.048869397 -0.015809452
000070 de 86 e4 bd 14 de 0d 3d 8a 37 c8 bd 8b 85 f9 3c
       -0.111585364 0.03463562 -0.09776218 0.030459186

image_conv.5.weight f4 [64, 32, 2, 2]
000000 d0 48 69 3d 38 e2 6c bd 2d d2 0b bd c3 82 3b 3b
       0.056954205 -0.057832927 -0.034135986 0.0028611876
000010 86 90 74 39 e1 44 54 3d 48 99 be bb 1b 9e 6b 3c
       0.00023323492 0.0518235 -0.0058166124 0.014380957
000020 0a 56 26 bd c8 87 6e 3c 96 d1 f6 3c 09 23 87 bd
       -0.040609397 0.01455874 0.030129235 -0.06598479
000030 db 19 9c 3d 2e b3 24 bd c8 c6 c7 3d 1b 18 b1 bd
       0.07622119 -0.04020994 0.097547114 -0.08647176
000040 63 c2 0f bc 69 96 23 3d c6 a6 79 3d 4a 9a 96 3a
       -0.008774373 0.039938364 0.060950063 0.0011490074
000050 1b a6 43 bd 63 ed 8b bd b4 13 89 bd 0d c0 91 3d
       -0.047765832 -0.06832387 -0.06693211 0.07116709
000060 b3 be a1 bd 4c 22 23 bd bc 16 0d 3d bc a4 0f 3d
       -0.07897701 -0.03982763 0.03444551 0.035069212
000070 4e 58 9e bd 81 8e 8f 3c 58 13 2f 3c dc 23 a6 3d
       -0.077316865 0.017524006 0.010685764 0.081123084
000080 cc 01 3a 3c 93 30 4e 3d 26 a3 d1 b9 0a c6 8d 3d
       0.0113529675 0.050339293 -0.00039985141 0.069225386
000090 27 16 30 bc ca 16 71 bd 1b d0 7d 3c a3 9d 26 bd
       -0.010747469 -0.058859624 0.015491511 -0.040677678
0000a0 45 0f b5 3c 88 a8 7b 3d 9a cb 8c bd da b2 83 bd
       0.022102008 0.06144002 -0.068747714 -0.064305976
0000b0 e2 2e ca 3a 94 a4 2f bc 0c f7 3b bc 56 d6 8e 3d
       0.0015425349 -0.010720391 -0.011472475 0.06974475
0000c0 9d a5 69 3d 2f 12 f0 bc 06 bc 8f 3a 70 e2 59 bc
       0.057042707 -0.029305546 0.001096607 -0.013298616
0000d0 a3 91 91 bd 3a bb 15 3d bd 07 8c bd 68 66 81 3c
       -0.07107856 0.036555506 -0.068374135 0.015795901
0000e0 29 c3 40 3d f7 1b ae bd 4c c4 38 bc 5c 07 99 3d
       0.04706112 -0.085014276 -0.01127727 0.07472107
0000f0 c1 4f 12 3d a0 07 1a bd 41 9d 35 3c a2 de b7 bd
       0.03572059 -0.037604928 0.0110848555 -0.08978011
000100 17 83 18 3c f7 41 53 3d 04 06 a1 3d 12 8b 7a 3b
       0.009308598 0.05157658 0.078624755 0.0038229865
000110 8f ca 57 3c d6 57 70 bc 58 05 2a bd 5d d3 de 3a
       0.013170852 -0.014669379 -0.041509002 0.0017000247
000120 b0 88 84 bd 1a 78 af 3c 98 6e 27 3d 28 73 8f bc
       -0.064713836 0.021419574 0.040876955 -0.017510965
000130 0a a5 e9 bb a3 dc 85 bd dd c6 92 3c d1 fe 56 3c
       -0.00713027 -0.06536224 0.017917091 0.013122276
000140 8d 12 84 3d b6 d6 bf bd cf 89 b2 bd f8 7b 5f ba
       0.06448851 -0.09367125 -0.08717691 -0.00085252477
000150 fd fb b5 3d 3d 06 16 3c a9 46 2c 3c bd 91 92 3c
       0.088859536 0.009156761 0.010514894 0.017891759
000160 38 96 77 bc ba dc 08 3d 5d 93 73 3d f3 ab 4b bd
       -0.015111499 0.033413626 0.05946671 -0.04972453
000170 d2 d0 58 bd b8 c1 8c bd b1 17 b0 bc 60 7e 02 bb
       -0.05293352 -0.068728864 -0.021495672 -0.001991175
000180 ba 7a 54 3d a6 58 bf bd 7b ce 49 3d c9 f4 56 bd
       0.051874854 -0.0934308 0.04926918 -0.05247954
000190 d2 ed cf 3a 6f 87 42 bc 3c ed 3e 3d 4c 09 9a bd
       0.0015863723 -0.01187311 0.046612963 -0.075213045
0001a0 89 0a 86 bd 3f da 04 3b 03 66 3c 3d 80 2d 2e bd
       -0.06544978 0.0020271686 0.045995723 -0.04252386
0001b0 dd b7 d7 3c ee ac be bc dc a4 3c bd 90 68 ad 3c
       0.02633279 -0.023275819 -0.04605566 0.021168023
0001c0 a1 bd 9d bc 26 4d 51 3d 53 4e 83 3d 8e 75 68 3d
       -0.019255461 0.051098965 0.064114235 0.056752734
0001d0 ed 05 43 3d dd 3b 89 bd 22 63 9e bd 03 d8 06 3b
       0.047613073 -0.06700871 -0.07733752 0.002057553
0001e0 80 e0 c3 3c c6 01 7b bd 57 93 4a 3d e5 a9 c8 bc
       0.02391076 -0.06128099 0.04945692 -0.024495075
0001f0 48 41 7e bd 31 e7 44 3d b9 b8 50 3d 31 1f 98 bb
       -0.062073976 0.048072044 0.050957415 -0.00464239
000200 04 90 01 bd ef 21 ca 3b a7 7d 8c bd 00 1d 51 3d
       -0.031631485 0.006168596 -0.06859904 0.051053047
000210 41 47 63 3d 0a e7 a1 bc a3 82 8f bd 9b 97 7f 3d
       0.055487875 -0.019763488 -0.07007339 0.06240044
000220 b6 27 9c bd 57 1d 3e bd 12 d3 47 3d 85 ed 33 bd
       -0.07624762 -0.0464147 0.048785277 -0.04392769
000230 63 e7 89 3c 49 cb 94 3d ef 11 37 bc 88 c9 a3 bc
       0.016833967 0.07265336 -0.011173709 -0.019993559
000240 3a cc a7 3d 1a 61 77 3c 15 8f fc 3c f9 ee ed bc
       0.0819325 0.015098834 0.030829946 -0.029044615
000250 5a 2b 9c bd d9 b4 62 3c fc 04 56 bd ad 3d 3b bd
       -0.07625456 0.013837063 -0.052250847 -0.045713115
000260 ac ba 9a bd 69 45 94 3d 02 7b 7f bd fd 3c b6 3c
       -0.07555136 0.072398014 -0.06237317 0.022245878
000270 85 65 6f 3c a0 0d 7a 3d e9 12 37 3d 02 78 7d bd
       0.0146116065 0.06104815 0.04469577 -0.061882026
000280 b1 9e 14 3d bb 36 45 bd c9 18 b6 39 46 76 10 bd
       0.036284152 -0.0481479 0.00034732211 -0.035269044
000290 6b 53 a1 bd 9d 0a ce 3c ef 43 7e bd 4f 76 ae 3d
       -0.07877239 0.025151545 -0.062076505 0.08518659
0002a0 f7 e7 11 3d b4 75 fa bc 79 01 54 bd 59 d8 a6 bd
       0.03562161 -0.030573703 -0.051759217 -0.08146734
0002b0 6f 5d 3b bd 41 4f 7b bd 9e 63 08 3c 2e 16 8f 3c
       -0.045743402 -0.06135488 0.008324532 0.01746663
0002c0 4f fb 9c 3d d2 f2 30 3c b3 15 93 bc 05 d7 25 bd
       0.07665121 0.01080008 -0.017954683 -0.04048826
0002d0 b3 b5 4b bc 03 8c 33 3d ac 8a ae bd b1 a6 ab bd
       -0.012433457 0.043834697 -0.08522543 -0.08381403
0002e0 99 43 0b 3d 21 a4 fa bc 5a 75 dd bc e8 ec 76 bd
       0.034000013 -0.03059584 -0.027033497 -0.060284525
0002f0 2c ca 7d bd cc 39 8f bd 6a 13 69 bd 43 2c ad bd
       -0.061960384 -0.06993446 -0.05690328 -0.08455708
000300 5b bc 37 bd b1 3a 91 3d 59 ec 55 bd 6b 97 89 3d
       -0.044857364 0.070912726 -0.05222735 0.06718334
000310 73 b9 9e bd 30 65 e5 3b 8c 99 2a bc e5 59 8f bd
       -0.077502154 0.007000588 -0.010412585 -0.06999568
000320 40 dd 86 ba 63 0d 90 3d 7b 97 30 bd cd 83 9f 3d
       -0.0010289326 0.07033803 -0.043113213 0.07788811
000330 03 54 18 bc 20 f4 e4 bc a3 b6 32 3d 6f 82 8d 3d
       -0.009297374 -0.02794844 0.043631207 0.06909644
000340 a3 d0 94 3d 0d 2f 47 3d 35 38 a9 bd fd ba b1 bc
       0.07266357 0.048628855 -0.08262674 -0.021695608
000350 e5 71 cc 3b b5 84 32 bd f0 58 1b 3d 0a 73 ba bc
       0.006239163 -0.04358359 0.037926614 -0.022759933
000360 6a f3 9b bd b8 3c 2e bd fe 82 69 bd 1e 12 f9 3c
       -0.07614787 -0.042538375 -0.05700969 0.030404147
000370 c6 b9 83 bd a9 85 b6 bc 8b f4 14 3c 95 1c 1c 3d
       -0.06431918 -0.022280531 0.009091507 0.038113195
000380 c8 97 91 bd 50 27 6c 3d 44 13 75 bd de 84 91 bd
       -0.07109028 0.05765468 -0.059832826 -0.071054205
000390 b9 d4 07 3d c3 f8 58 bd 73 85 7a 3d c0 82 17 3d
       0.033161853 -0.052971613 0.061162423 0.036989927
0003a0 4b b9 2f bd 70 f2 9e bc 6c 80 25 bd 47 81 09 bc
       -0.04290132 -0.019402713 -0.040405676 -0.0083926385
0003b0 a0 69 5f b9 c8 4e 12 bb d1 95 6c bd 82 22 97 bd
       -0.00021306286 -0.002232479 -0.057760064 -0.07379629
0003c0 2b 87 67 bd 65 7e 74 3c d7 7d 14 3c fd 3f 36 bd
       -0.05652539 0.014922713 0.009063206 -0.044494618
0003d0 2d b6 6a bc 3f 61 bb bb 97 87 81 3d bd d3 a9 bd
       -0.014325661 -0.0057183797 0.0632469 -0.08292339
0003e0 ca 45 21 bd 04 55 85 bc c9 d8 6d bc 2a 71 4e bd
       -0.039373197 -0.01627589 -0.014517018 -0.05040089
0003f0 df d8 26 3d ef 15 08 bd b5 ae be 3b fc f4 4d bd
       0.04073417 -0.033224043 0.0058191665 -0.050282463

image_conv.5.bias f4 [64]
000000 80 45 ef 3b 18 03 88 bc 2a 23 18 bd 4b a0 57 3c
       0.007301986 -0.016603038 -0.03714291 0.013160775
000010 78 b9 90 bc 85 05 46 bc cb 2c 52 3c 09 ae c1 bc
       -0.017666563 -0.012086277 0.012828062 -0.023642557
000020 94 93 ee 3c c9 10 d3 bc 54 4c 45 bc 51 b9 a6 3d
       0.029123105 -0.02576484 -0.012042124 0.08140815
000030 be 92 64 bd 1a da 6e bd f0 39 39 bb 17 25 39 bd
       -0.055804007 -0.058313467 -0.0028263293 -0.045201387
000040 4a 87 98 bd a6 6b 5c 3d df cd 58 3d 9f b1 1a 3d
       -0.07447679 0.0538136 0.05293071 0.03776705
000050 a1 eb 26 bc 76 8f 51 bb a2 ef b3 bd dd 42 0d bd
       -0.010188014 -0.0031976379 -0.08785941 -0.034487594
000060 7d 1c 60 bc 0c 37 fb 3b 9f 6f 85 3d c7 15 cb 3b
       -0.013678667 0.007666474 0.06515431 0.0061976644
000070 69 75 1e 3d bc c5 dc bd 40 7c d0 3c 5b bf 95 3b
       0.03868619 -0.10779902 0.025449872 0.0045699305
000080 af 03 46 bd 0c dc df bd a0 3d 1e 3d 43 86 64 bd
       -0.048343357 -0.109306425 0.03863299 -0.055792104
000090 d2 28 c6 bd a6 95 9c bd 2e 44 b0 3a 81 d1 e5 3c
       -0.096757546 -0.07645731 0.0013448054 0.028054
0000a0 80 58 e6 bb 7c ac 80 3b ff 26 c6 bc cb 81 8a bc
       -0.007029593 0.0039268117 -0.024188517 -0.016907593
0000b0 4c 8c 47 bb dd d7 54 3d db 46 ab 3c 30 30 4c bd
       -0.0030448614 0.051963676 0.02090781 -0.049850643
0000c0 97 08 4b 3c 50 57 07 bd f2 2d 8c bd e0 e9 29 bd
       0.012392185 -0.033042252 -0.06844701 -0.041482806
0000d0 fe 92 52 3d fa 73 84 3c 14 1d b2 bd f7 50 98 3d
       0.051409714 0.016168583 -0.086969525 0.07437318
0000e0 e7 e7 b7 bd ed cf 17 3d 01 05 d4 bb cb 2c 49 bd
       -0.08979779 0.037063528 -0.006470323 -0.049114984
0000f0 4e 03 a9 bc 3b 0d 86 bd c6 78 94 3d 08 f0 38 bd
       -0.020631459 -0.06545492 0.07249598 -0.045150787

memory_rnn.weight_ih f4 [256, 64]
000000 8f 02 24 bd 8a a7 ce bd 52 4c 8e 3d 05 e2 c7 3d
       -0.040041503 -0.10090549 0.06948151 0.09759907
000010 24 df a2 3c a6 c9 ab bc a8 c7 07 3d 50 79 8f bd
       0.019881792 -0.020970177 0.03314939 -0.070055604
000020 70 bc f4 3d 20 e3 1e bd 34 d8 41 3d a4 8e ca 3d
       0.11950004 -0.038790822 0.047325328 0.09890488
000030 f1 4f 0f bd 4e 3d b3 3d 40 3f 91 3d 78 f9 77 3b
       -0.034988347 0.08751927 0.07092142 0.0037837904
000040 cb 3a 3e bd e1 3a ac 3d a1 af 08 3d b6 33 0c 3c
       -0.046442788 0.08409668 0.033370618 0.008557251
000050 15 3a 40 bd c4 b8 00 be ec f3 f2 bd 4e 80 37 ba
       -0.04693039 -0.12570482 -0.11862931 -0.0007000015
000060 3e d1 e5 bd a8 b7 ef bd 7b 1b 17 bd f7 18 7e bc
       -0.112215504 -0.117049515 -0.03689144 -0.015508882
000070 00 d3 bd 3d e5 be a5 bd 90 5e 07 be 8f 02 39 39
       0.09268761 -0.08093051 -0.13219666 0.00017643928
000080 f0 e2 f0 bd 40 79 99 bc 20 6f bb 3d 44 f2 d4 bd
       -0.11762035 -0.018734574 0.09152055 -0.10397771
000090 63 22 ac 3c c0 e7 12 bd e8 15 fb 3d 75 23 4a 3b
       0.02101249 -0.035865545 0.12260038 0.0030843888
0000a0 8c 5f be bc 98 3e e7 bc d1 7d 91 bd fc c4 b9 3d
       -0.02323892 -0.02822809 -0.07104076 0.09070775
0000b0 36 61 90 bd 94 a7 ed 3d 5c 40 a1 3d 85 ce d7 bd
       -0.070497915 0.116042286 0.07873604 -0.10537437
0000c0 5d 02 c9 3d 66 a5 c4 bb e6 64 a9 3d 76 b2 76 bd
       0.09814904 -0.0060011623 0.08271198 -0.060228787
0000d0 62 7b a6 3c 75 c6 b1 3b 82 bb 47 bb cb f0 e9 bc
       0.020322505 0.0054252692 -0.0030476754 -0.028557202
0000e0 f5 55 c0 bc 98 c5 94 bd 62 3d c1 3d 82 c1 4f 3d
       -0.023478488 -0.072642505 0.09435536 0.050721653
0000f0 cd 54 78 bd e6 c6 95 bc b1 c1 d6 bd 5b 9c 26 bd
       -0.060627747 -0.018283319 -0.104861625 -0.040676456
000100 df eb 81 3b 7c dc f3 3d cc 76 0d be 5d 51 2a bd
       0.0039648856 0.119072884 -0.13814849 -0.0415815
000110 94 41 b2 bd 62 18 b1 3d b6 6a f0 bd 34 1d 03 3d
       -0.08703914 0.08647229 -0.117391035 0.032010272
000120 02 90 93 3c 6b 8c 88 3d e0 db a2 3c 4f a1 7e bb
       0.018013004 0.066674076 0.019880235 -0.0038853472
000130 25 d0 da 3d 3a 81 b3 bc 00 4f be 3d d9 d3 6f 3d
       0.10684232 -0.021912206 0.09292412 0.058551643
000140 45 2f 06 bd 3e 60 6d bd 61 8a 4b 3d ad 48 ad bd
       -0.032759923 -0.05795311 0.049692515 -0.084611274
000150 4d 04 36 bb a2 eb e0 bd 3a cf 81 3d ff 34 d3 bd
       -0.002777356 -0.109824434 0.063383535 -0.103128426
000160 3f 65 59 3c d3 99 e0 bd f1 f8 8f bb c4 9d 06 bd
       0.013268768 -0.1096684 -0.00439369 -0.0328653
000170 a8 38 7a bd 20 36 cc bc 8f 9e 78 3c a7 80 e9 bc
       -0.061089188 -0.024928153 0.015174522 -0.028503729
000180 dd a6 c5 3d d7 04 ee bd 7a f6 87 3d 90 00 cb bd
       0.09650967 -0.11622017 0.066388085 -0.09912217
000190 ae bc 7d bd 9f 2b 66 bc 68 fa 98 bd bb 95 6d 3d
       -0.061947517 -0.014048486 -0.07469636 0.058004122
0001a0 9f c6 fd 3d 57 2b 26 bd 16 14 a6 bc 96 86 b3 3c
       0.123913996 -0.040568676 -0.02027325 0.021914762
0001b0 05 b0 9e 3d 52 36 e4 3d d1 f9 00 3d 5b b2 99 3c
       0.07748417 0.11143173 0.031488243 0.018761804
0001c0 25 62 e7 3d 13 b3 a2 bd 41 22 4b 3d 24 cf 95 bd
       0.112980165 -0.07944312 0.049593214 -0.073148996
0001d0 08 89 ed 3c 2d 97 07 be 3d 33 91 bc 21 5c 9e 3d
       0.028996006 -0.13241263 -0.017724628 0.07732416
0001e0 9d 13 d3 3d fa 91 45 bd 64 42 9e bd 6f 89 c1 bc
       0.10306475 -0.048234917 -0.07727507 -0.023625104
0001f0 32 21 ab 3d 9b 76 f9 3c 3d 5b 37 bd 1d 6c 86 bd
       0.08355941 0.030452063 -0.044764746 -0.0656359
000200 3f 03 8e 3d 2c b7 a7 bd 42 f4 8b bd 4f 08 b8 bc
       0.06934213 -0.08189234 -0.06833698 -0.0224649
000210 80 2e f0 3d 02 a8 c4 3d b6 3e b6 3d 51 45 c9 bd
       0.11727619 0.096023574 0.0889868 -0.09827674
000220 84 4d 29 3d d2 6e 06 bc ee 10 58 3d 3b ff 9d 3d
       0.04133369 -0.008205133 0.05275052 0.07714697
000230 c0 07 d6 bd 59 c5 e5 bd 3b 7b 5a 3c 25 4c 02 be
       -0.10450697 -0.11219282 0.0133350445 -0.1272436
000240 6a ac bb 3d 82 c8 dd bd e0 c1 c0 bd 22 b9 7d bc
       0.09163745 -0.108292595 -0.09411979 -0.015486034
000250 99 fd 78 3d 75 b0 da 3d f5 79 59 3c f2 40 d2 3d
       0.060788725 0.10678188 0.013273706 0.102662936
000260 5f 21 16 3d ff 68 f2 3d 77 43 4a bd d6 4f 10 bd
       0.03665292 0.11836433 -0.049380746 -0.035232387
000270 f6 86 27 bd 75 e9 f9 bc d8 9e df bd 18 e5 f2 3c
       -0.040900193 -0.030506829 -0.10918969 0.029650256
000280 90 4e b5 3d 8b bc 7e 3d 65 96 b6 bd 4f f6 ed 3d
       0.08852875 0.062191527 -0.08915404 0.11619245
000290 68 1c 09 bc 39 98 9a bb 14 c0 dd bd 28 d9 5f bd
       -0.008368589 -0.0047178534 -0.108276516 -0.054650456
0002a0 19 6f 23 3d 05 32 78 3c 07 78 b6 bd 8d fd e4 3d
       0.039900873 0.015148644 -0.08909612 0.111811735
0002b0 23 03 2e 3d 47 85 87 3d d2 9b 9d bd 7f 9d 84 bd
       0.04248346 0.066172175 -0.07695736 -0.064753525
0002c0 86 7a 17 3d 57 24 fe bd 67 b0 31 3d 69 bf 15 3c
       0.03698208 -0.12409275 0.04338112 0.009139874
0002d0 53 ed 9b 3d 5b 9c ba 3d 6a 1b ca 3c fd 7f 79 3d
       0.076136254 0.09111854 0.024671275 0.060913075
0002e0 5b 3f 8c bc 51 f1 e2 3d d5 6a cc bc ca 18 ae bd
       -0.017120054 0.11081184 -0.024953285 -0.08500822
0002f0 ea 6f 99 bc 5c 83 c3 bd 5f 86 94 bd 14 88 c9 3c
       -0.018730123 -0.09546539 -0.07252192 0.02460102
000300 76 0d d5 3d 30 af ce 3d 04 fa bb 3d 1a ac cb 3d
       0.10402958 0.10092008 0.09178546 0.09944935
000310 fa dd ea 3d 1a 61 9a bd f3 8e 1c bd 0d 09 3e 3d
       0.1146812 -0.07538052 -0.038222264 0.04639535
000320 13 81 61 bd 09 c0 b6 bc e7 ea d5 3d fb c7 48 bb
       -0.055054735 -0.022308366 0.10445195 -0.0030636776
000330 b6 de d2 bc 4f ef 41 3d 71 5b 03 3e 46 e9 61 bd
       -0.025740962 0.047347363 0.12827851 -0.055154108
000340 31 ad a6 bc 85 0c e1 bd 4f ff 84 3c 5b 57 dd 3b
       -0.020346256 -0.10988716 0.016235022 0.0067547983
000350 ca 9c 89 3d 87 c8 d6 bd 5d 3a b9 bd 51 7e c7 3d
       0.06719358 -0.10487466 -0.09044335 0.0974089
000360 9a 6d 6c bd 16 56 fc 3b 9c ca c7 3d c0 52 df 3d
       -0.05772171 0.007700692 0.097554415 0.10904455
000370 46 69 6d bb cc fd e5 bd c9 64 d2 bd d8 a5 e5 bd
       -0.0036226078 -0.112300485 -0.102731295 -0.11213273
000380 dc 03 39 bc a3 19 d1 bd e8 ba d1 3d b0 1e e0 bd
       -0.011292424 -0.10209968 0.10240728 -0.10943353
000390 7e 41 35 bd 7c 97 52 3d 9e 0d 77 bd 3f 35 c0 3d
       -0.04425191 0.051413998 -0.06031572 0.09385156
0003a0 06 0b b7 3c 5c d4 f4 3d 96 66 52 3c 07 bc af 3d
       0.022344124 0.11954567 0.012841841 0.08580785
0003b0 3a b0 f1 bd 28 da 7f bd 4f 74 5c 3d 47 2b 62 bd
       -0.11801191 -0.06246391 0.053821858 -0.055217054
0003c0 e7 80 30 3d e3 21 ab bd ee 1f a6 3c cb d5 78 3c
       0.04309168 -0.08356073 0.020278897 0.015187691
0003d0 12 3d 9b bd d1 aa ac bb 82 38 b2 3d df d8 f6 bd
       -0.075800076 -0.0052693863 0.08702184 -0.12053084
0003e0 8c 89 5e 3c 3c 96 5f 3d f1 65 e3 3d c5 bd fc bd
       0.013582598 0.054586634 0.11103428 -0.12340883
0003f0 9a ca 55 3d 7e 33 fb 3d aa db a5 3d ef b1 e9 bd
       0.05219517 0.12265681 0.08098538 -0.11410891

memory_rnn.weight_hh f4 [256, 64]
000000 68 5d bf bd 93 41 37 3d 15 1a 04 3e b8 df 93 3d
       -0.09343988 0.04474027 0.12900575 0.07220405
000010 56 ac 5c 3c 86 42 01 3e c2 c2 a7 bd 24 29 02 3d
       0.013468822 0.12623033 -0.08191444 0.031777516
000020 cb 01 51 3b 72 ba e6 bd 00 03 b6 3d 2d 98 d3 3d
       0.0031891938 -0.1126603 0.08887291 0.103317596
000030 3c 56 d6 bd e5 b4 de 3d c3 a0 fd bd 89 3f 42 3d
       -0.10465667 0.10874347 -0.123841785 0.047423873
000040 f8 70 92 bc 10 5a 3c 3d b3 3a c1 3d cb 5d eb bd
       -0.017876133 0.045984328 0.09435024 -0.11492499
000050 f4 c8 99 3c c9 40 d2 bd 85 6f 00 3e 78 b3 bc 3d
       0.01877258 -0.10266263 0.12542541 0.092139184
000060 5b da 0b be 74 fe f0 bd a5 8d b9 3d 17 e7 12 bd
       -0.13657515 -0.11767283 0.0906022 -0.035864916
000070 8f c0 b9 3d 4c 3a ce 3c c7 1e 27 3d d6 c8 be 3c
       0.09069931 0.025174282 0.040800836 0.023289125
000080 a0 9d 66 3d b4 7d c1 3d 9c 91 b8 3d f6 10 d6 bd
       0.056302667 0.09447804 0.09012148 -0.10452454
000090 93 3f 16 3c 66 d2 e9 bd 8c eb 26 3c 84 e7 3a bd
       0.009170431 -0.114170834 0.010187995 -0.045630947
0000a0 26 49 d1 bd c0 8f ad bc 01 86 64 3c 70 de 08 bd
       -0.1021903 -0.02118671 0.013947965 -0.033415258
0000b0 ec bf 10 3d d4 df 39 3d d9 db eb 3d 95 ea 57 3d
       0.03533928 0.045379475 0.11516542 0.05271395
0000c0 61 e7 13 bd 18 a5 91 bd 2c 01 0c 3d b4 f8 d8 bd
       -0.036109332 -0.07111567 0.034180805 -0.10594311
0000d0 03 1f ad bd 7b c4 db 3c e2 0b 5b bd 0f c4 c2 3d
       -0.08453181 0.026827088 -0.05347813 0.095100515
0000e0 d8 f5 e3 bd 83 b9 e3 bc 46 bf c4 3d 69 8b 68 bd
       -0.11130875 -0.02779842 0.09606795 -0.056773577
0000f0 4b a1 92 bc 7e 3e 24 3d e4 75 a7 bc 74 a1 86 3d
       -0.017899176 0.04009866 -0.020441957 0.065737635
000100 8b 43 59 3d 0c 5a a3 bd 86 fa c8 3d b3 59 c6 3d
       0.05304293 -0.079761595 0.098134086 0.096850775
000110 4e e1 4a 3d 3c 0a 69 3c d5 a4 d1 3d c2 2c 61 3c
       0.049531274 0.0142236315 0.10236517 0.013743581
000120 45 a3 be 3d b2 dc a1 bc e5 7d 81 bd 30 7b 80 bd
       0.09308485 -0.019758556 -0.063228406 -0.06273496
000130 ec 4e 96 3b 47 95 ad 3b a2 df a1 bd b9 b2 6a bd
       0.004587045 0.0052973363 -0.07903983 -0.05729935
000140 12 6b d8 bd ad 06 94 3d 84 bf 02 3e e0 ad e2 bd
       -0.10567297 0.07227836 0.1276837 -0.1106832
000150 97 16 fa bc 62 b6 8d 3d f0 70 e8 bd 6f 18 ff 3d
       -0.03052835 0.069195524 -0.11349666 0.12455832
000160 10 04 b0 3d cc 31 cb 3c da 3b c4 bc 7c d2 e7 bd
       0.08594525 0.024804018 -0.02395432 -0.113194436
000170 d0 fb 80 3d 3f 0c cc 3d cf 63 c1 bd 20 aa 53 bd
       0.062980294 0.09963273 -0.09442865 -0.051675916
000180 b3 54 24 bd 74 cd 53 3b 3a ee 0b 3e f7 f4 e3 bd
       -0.040119838 0.0032318505 0.13665095 -0.11130708
000190 6f 6a ca bd e1 b1 b9 bd 76 03 fa 3d a1 18 0e bd
       -0.09883582 -0.09067131 0.12207691 -0.034691457
0001a0 4a ca aa bd 56 0c 14 3c 32 cb f5 bd 08 9b a9 bd
       -0.08339365 0.009036144 -0.12001647 -0.08281523
0001b0 9a a6 38 3d 38 e2 f0 3d 04 e8 f6 3b f0 24 a7 3c
       0.04508076 0.11761898 0.0075349826 0.020403355
0001c0 66 f0 a9 bd 3e ed 50 bb 45 12 94 3d 14 4d ae 3d
       -0.082978055 -0.0031879689 0.07230047 0.08510795
0001d0 d8 f4 02 bd 0e 7d eb 3d bc 88 c6 bd 5f e3 09 3e
       -0.031971782 0.11498462 -0.09694049 0.13465641
0001e0 db 70 ad 3d 2e 6d f9 bc 1a fd ac bd 80 6d f2 3c
       0.08468791 -0.030447569 -0.08446713 0.02959323
0001f0 70 65 a7 3d bf 1b 17 3c 0d da c9 3d 68 dc 70 3d
       0.081736445 0.009222924 0.09856043 0.058803946
000200 c8 76 b0 bc 17 83 33 bd 0e 9d 0b bd 3b 59 2a bb
       -0.021541014 -0.04382619 -0.034085326 -0.0025993127
000210 86 59 48 bb 66 5e ed bc 0f 7f 9f 3d 65 9f 16 bd
       -0.0030570938 -0.028975677 0.077879064 -0.036773104
000220 5b ee 29 3c 57 8e b7 bc 3e bc f2 bd 5d 81 a4 3d
       0.01037177 -0.02240674 -0.118523106 0.080324866
000230 0c fc 00 3e 78 4f 2d bc 37 20 ab bd 85 b9 46 bd
       0.12596148 -0.010578029 -0.08355754 -0.04851677
000240 5f 6c 00 be 48 71 cb 3d fe 7c 46 bd 4d 02 08 be
       -0.1254134 0.09933716 -0.048459046 -0.13282128
000250 08 09 d4 bc 36 e5 66 3d 1d ee 6c bd db bd 9b 3d
       -0.025883213 0.056370936 -0.05784427 0.076045714
000260 e6 2b f6 bd a0 75 b2 bd 56 76 61 bd 96 14 f6 bd
       -0.12020092 -0.087138414 -0.055044495 -0.12015645
000270 5e 40 03 3e af 1a aa 3d dc 98 33 bb b8 1a 65 3d
       0.12817523 0.08305871 -0.0027404344 0.055933684
000280 02 b1 36 bd 33 c9 a8 3d 74 cc 84 3d 07 e7 9a bd
       -0.0446024 0.08241501 0.06484309 -0.07563596
000290 41 e1 6e bd c3 d5 a1 bd d9 67 2d bd 88 e8 5d bd
       -0.058320288 -0.079021 -0.042335365 -0.054176837
0002a0 95 66 b3 bd 2b 2c 26 3d 52 a5 0a 3d 2e dc 9f bd
       -0.087598 0.040569466 0.033849068 -0.07805668
0002b0 c5 e6 99 bd a2 fd 5f 3d 8b f7 39 3d 1b b3 40 3d
       -0.07514719 0.054685242 0.04540209 0.04704581
0002c0 bc fc 2a 3d 87 b1 a8 3c c6 63 eb 3d ac 9b 9e 3d
       0.041744933 0.020592464 0.1149364 0.07744536
0002d0 91 a2 51 3d 43 3e 34 3d 31 4d 6b bd dd 46 9c 3d
       0.051180426 0.04400469 -0.057446662 0.076307036
0002e0 2e ad 00 be 74 f4 fd 3c 7b 67 5f bd 59 38 dd bd
       -0.12566063 0.031000353 -0.054542046 -0.10801763
0002f0 c7 3f de bd 77 1c 04 3e cc 65 ef bd 6d b8 1d 3c
       -0.10852008 0.12901483 -0.11689338 0.00962649
000300 86 f8 a4 3d 62 7a f4 bd 9f 32 02 3d 30 ad 23 ba
       0.080552146 -0.11937405 0.031786557 -0.00062437635
000310 43 f4 cf bd fc 44 ea 3d 68 98 e8 bc 4e 8d bb 3d
       -0.10154011 0.11438939 -0.028392985 0.09157811
000320 ed 9e d0 bd d3 bb 4b bd a3 fa 85 bc fe 13 c7 bc
       -0.10186563 -0.04973967 -0.016354864 -0.024301525
000330 26 a6 2f bc 95 7d 68 bd f1 cb 18 bc 32 f0 29 3c
       -0.010720765 -0.05676039 -0.009325967 0.010372208
000340 b2 9c a7 3d ee 4a d0 3c 9f a6 cd 3d 3c 0b a8 bc
       0.08184184 0.025426354 0.10041546 -0.02051317
000350 74 f5 c4 3c 89 2a 16 bd 02 fd 8d bd da 95 8e 3d
       0.024042822 -0.03666166 -0.06933023 0.06962176
000360 40 d3 20 bc 60 3d f7 bb a9 52 4d bd 3b a2 eb bc
       -0.009815991 -0.0075451583 -0.05012766 -0.028763881
000370 63 01 df 3d ab 80 0a 3d b1 76 db bd 70 1b 99 bd
       0.10888936 0.033814114 -0.10715998 -0.074759364
000380 75 88 7a 3c 87 a7 98 bd eb ad c7 bd 03 05 cf 3d
       0.015291323 -0.07453828 -0.09749969 0.10108378
000390 05 10 c6 bd 79 4d e5 bd 02 fe f3 3d 76 b7 a9 3d
       -0.09671024 -0.11196417 0.119136825 0.082869455
0003a0 21 0e 8d bd 0f 64 31 3d 52 9e 07 bd 13 d3 c3 3d
       -0.068874605 0.043308314 -0.03310997 0.095617436
0003b0 06 a3 22 bd 4b 8b f5 bd 5c 29 be bc 0b d4 a7 3d
       -0.039706253 -0.11989459 -0.023213081 0.08194741
0003c0 e3 39 81 bd 05 41 5e bb e2 f4 f8 3c 76 55 9f bc
       -0.06309869 -0.0033913266 0.030390207 -0.01944993
0003d0 4c dc 35 bd b6 ba f2 bd d9 d7 6d 3d 21 4f d6 3c
       -0.044399545 -0.118520185 0.058067176 0.026160778
0003e0 76 a8 31 bd c8 37 66 bd b4 1e bc bd fc 64 52 bb
       -0.043373547 -0.05620554 -0.09185544 -0.0032103648
0003f0 e5 99 1e bd 1d 2d 53 bd 29 4e 72 bb 99 68 3e bd
       -0.038720984 -0.051556695 -0.0036972857 -0.04648647

memory_rnn.bias_ih f4 [256]
000000 84 e0 a3 3d 95 87 bd bd ea 09 e9 bd 63 6d ca bc
       0.08001807 -0.09254376 -0.11378844 -0.024710363
000010 27 0a eb bd b6 29 a1 bd 80 dc 97 bd 78 10 de 3d
       -0.11476546 -0.07869284 -0.07415104 0.10842985
000020 b2 96 44 bd 51 67 fa bd 11 86 09 bd 08 c6 a7 bd
       -0.047995277 -0.12226737 -0.03357512 -0.08192068
000030 72 54 eb bd 8a a8 73 bd 77 93 01 be 42 11 85 bd
       -0.11490716 -0.059486903 -0.1265391 -0.06497432
000040 22 e9 21 be ec d7 6d bd 1e a8 0e be 1b 78 c3 3b
       -0.1581159 -0.058067247 -0.13931319 0.0059652454
000050 ab e1 c7 3b f3 fe b0 bd 0b 6d 1a bd 41 e7 cd bd
       0.0060998998 -0.08642378 -0.037701648 -0.10053874
000060 39 c1 00 be d9 fa 18 bd 6e c3 35 bd 8b 5e cf bd
       -0.12573709 -0.037348602 -0.04437583 -0.101254545
000070 d3 d7 4b 3d 90 8e cc ba 3b 59 16 be 26 f3 dc bd
       0.049766373 -0.0015606452 -0.14682476 -0.107885644
000080 db ed 3b 3d 44 07 95 bb 70 67 82 3d 4d f3 87 bc
       0.045881134 -0.0045479853 0.063673854 -0.016595507
000090 da 7a bb bc 2b ba 96 bd 05 99 a3 bd 61 80 02 be
       -0.022885729 -0.073597275 -0.079881705 -0.12744285
0000a0 03 76 93 3a 0b a8 9f 3d 9c 11 c7 3c 3d d7 40 bd
       0.001125038 0.077957235 0.024300389 -0.047080267
0000b0 c1 c9 e9 b7 62 bc 01 be fd d8 e8 bc 0e f7 b9 3d
       -2.7869713e-05 -0.12669519 -0.02842378 0.09080325
0000c0 b0 aa fa bc 63 18 b7 bc 07 a3 d1 3d 3a 49 ac 3d
       -0.030598968 -0.022350496 0.10236173 0.08412404
0000d0 02 e6 29 bd dd d5 09 be 98 02 de 3d c7 90 51 3d
       -0.04147912 -0.13460489 0.108403385 0.05116346
0000e0 b4 cc f1 bb 64 a1 a4 3d 16 bd 0d 3d dd 53 8f bc
       -0.007379139 0.08038595 0.034604155 -0.017496044
0000f0 d9 a7 aa 3d 78 66 22 3c 1c e6 51 3d 5a 36 90 bc
       0.08332796 0.009912126 0.05124484 -0.017604042
000100 c1 35 42 3d 1d 24 91 bd 28 96 90 bc 8d 52 01 be
       0.047414545 -0.07086966 -0.017649725 -0.12629147
000110 50 64 c3 3c 6e 9f 32 39 1a bc 7d 3d 32 f3 b6 bd
       0.023851544 0.00017034795 0.061946966 -0.089331046
000120 0c 9f e4 bc 06 27 49 3c e3 21 06 bd b1 cd ad bd
       -0.02790787 0.01227737 -0.03274716 -0.08486498
000130 3d b6 07 3d 26 33 9f 3c 43 cc 02 be 8d 06 ea 3b
       0.03313278 0.01943357 -0.12773232 0.007141894
000140 49 7f 19 3d 83 d8 b9 3d 9f 3b 8a 3d b6 5c 89 3d
       0.037474904 0.090744995 0.06749653 0.06707136
000150 bf 83 34 3b 51 87 ed bd f1 f1 9f bd a4 63 8a 3b
       0.0027544347 -0.11598075 -0.078098185 0.004223304
000160 3f 6a 75 bd d1 f1 1a bd 1e 4b 1b bd 97 6c 6f 3d
       -0.059915777 -0.03782827 -0.037913434 0.05845317
000170 3a dc 7b bd 32 bd 93 bd 3b 04 62 bc 54 09 e6 3d
       -0.06148932 -0.072138205 -0.013794954 0.11232248
000180 17 2b b5 bd 4b bc 99 3d d2 62 14 3d 32 e0 49 bb
       -0.08846109 0.07506617 0.036227055 -0.0030803797
000190 e8 53 09 be 62 73 72 bd 28 35 ec bc 9f 4a 12 be
       -0.13410914 -0.05919207 -0.02883394 -0.14286278
0001a0 81 89 f1 38 d7 0d 54 bd 49 53 c4 3d 3c 40 6a bd
       0.000115173876 -0.05177101 0.09586198 -0.057190165
0001b0 27 cb f6 bd 41 62 d4 3d 0a 88 ac bc bd 35 26 bd
       -0.12050467 0.10370303 -0.021060962 -0.040578593
0001c0 1b 41 61 bd d3 97 90 bd ec 76 74 3c 75 1a 8a bd
       -0.05499373 -0.07060208 0.014920931 -0.067433275
0001d0 d4 1f 10 be 3d ab b6 3b c8 48 43 bd 87 80 c2 3d
       -0.14074641 0.0055746124 -0.04767683 0.09497171
0001e0 fc c0 ac bd a2 ee a3 bc cb a4 9d 3d 3a eb ae 3d
       -0.08435246 -0.02001125 0.076974474 0.0854096
0001f0 a8 64 ea bc 2d 82 28 3d d2 7a bf 3c ad 85 57 bd
       -0.02861245 0.04113977 0.023373995 -0.052617718
000200 58 88 23 3d d2 24 8a bd 09 bb 54 bd c2 ce 60 3d
       0.03992495 -0.06745304 -0.051936183 0.05488468
000210 f9 a3 10 bb 19 36 34 bd 39 59 af 3d 9f 8c d1 bd
       -0.0022070392 -0.043996904 0.0856194 -0.102318995
000220 cb a2 eb bc bb 88 8f 3d 73 11 be bb d9 e9 e6 bc
       -0.02876415 0.07008501 -0.00580042 -0.02818768
000230 6a 34 9f 3c d6 3c 21 3d e6 28 01 bd 1c 86 80 bd
       0.019434173 0.03936466 -0.031533144 -0.06275579
000240 24 db 45 3d 3b b6 a3 3d 9f d2 4a bd 97 5a a7 3d
       0.048304692 0.07993742 -0.04951727 0.081715755
000250 af 30 a1 3c 00 2e 98 3d 96 f8 1f bc 83 66 a3 3c
       0.019676534 0.07430649 -0.009763857 0.019946342
000260 08 66 ab 3d 2d 4b 8c bd 0f 2d 22 3d 56 fd 6d 3d
       0.0836907 -0.06850276 0.039593752 0.058102928
000270 20 04 86 bd b8 70 e0 bb 4d 93 9b 3d 89 fc 54 3d
       -0.065437555 -0.0068493746 0.07596455 0.05199865
000280 33 b5 d9 bd 50 f6 0a bd c1 a4 7d bd 44 2e 27 3d
       -0.10630264 -0.03392631 -0.0619247 0.040815607
000290 3e 8c 85 bc fc 62 56 3d 67 3b 0a 3c 23 7b 0c 3d
       -0.016302224 0.052340493 0.008437014 0.03429712
0002a0 f2 34 ea 3d f1 34 8f bd f6 c0 91 bd c0 27 88 bd
       0.1143588 -0.0699252 -0.071168825 -0.06648207
0002b0 ca d6 58 bd 05 f7 c4 bd 8d 5e 34 3d d5 7e c6 bc
       -0.052939214 -0.09617428 0.044035483 -0.0242304
0002c0 2a d0 b8 bd bb 4c 15 bd ae ad 07 bd 87 9e ae 3d
       -0.09024079 -0.03645013 -0.03312462 0.085263304
0002d0 ad eb 81 bd 2b 97 a6 3c ff 6f cd 3d 28 6e 2a bd
       -0.0634378 0.020335754 0.10031127 -0.04160896
0002e0 14 5c 2d 3d d5 7c 8e bd 01 03 d6 3d e8 6b 2b 3b
       0.04232414 -0.069574036 0.10449792 0.0026156846
0002f0 80 ce b4 3d b7 4f 58 3c cb cc bc 3d 52 f9 53 3d
       0.08828449 0.013202599 0.09218749 0.051751442
000300 f8 61 0b 3d 5b e3 cc bd 8b ed 93 bc 09 5b 94 bd
       0.034028977 -0.10004302 -0.018057605 -0.07243926
000310 db f6 85 3d cb 0d 8f 3d e2 4d f7 bd 41 60 ac 3d
       0.065412246 0.06985053 -0.12075402 0.084167965
000320 b9 73 53 3d 13 1d a9 bd 5a 55 4a bd 5b ec 0d bd
       0.051624034 -0.082574986 -0.049397804 -0.034649234
000330 03 bd 69 bc 6a 50 35 bd 5d 57 d5 bd ed 8d 88 3d
       -0.014266255 -0.044266142 -0.10417054 0.06667695
000340 18 88 12 3d ce 0b 95 bd 9a 15 0e 3d 01 77 30 3b
       0.03577432 -0.07277642 0.03468857 0.00269264
000350 d9 24 95 3d b7 1c 8a bc df 5a 83 bc 6d d7 37 3b
       0.07282419 -0.016859395 -0.016034542 0.0028051988
000360 66 e9 a7 3d 20 08 af bd 01 d5 c7 3c 12 4b ed bd
       0.08198814 -0.085464716 0.02439356 -0.11586584
000370 c9 b0 94 bd 95 f4 05 be 0d 60 83 3d 7d 17 db bd
       -0.072602816 -0.13081582 0.064148046 -0.106978394
000380 05 9a 5f bd 0a 57 42 bd d7 b5 7c 3d 35 8b 0b be
       -0.054590244 -0.04744629 0.061696853 -0.13627322
000390 c9 9e 6b 3d 0a 65 04 be 1f 24 80 3d 0f 96 a6 3c
       0.057524476 -0.12929168 0.062568896 0.020335225
0003a0 94 7f 2c be ba d8 b7 3b 52 c8 8b bd bc 56 99 3d
       -0.16845542 0.0056105526 -0.068253174 0.074872464
0003b0 a8 ad 33 3d 80 f1 68 bb 43 7b 09 3d 8e 38 5f 3c
       0.043866783 -0.0035544336 0.033564817 0.0136243235
0003c0 ef 9b be bd 36 7c ba bc 51 a5 d3 ba 4f 6f a6 3d
       -0.09307086 -0.022764307 -0.0016147291 0.08126699
0003d0 ff 63 f6 bd 9c 7d 91 bb bc fd 02 be a6 ba 85 bd
       -0.120307915 -0.0044400226 -0.12792104 -0.06529741
0003e0 be aa bd 3b 2a 52 10 be a4 e6 89 bd 22 7e fc bd
       0.0057881763 -0.14093843 -0.06733444 -0.123287454
0003f0 ea 1a fa bc 47 52 9a 3d f3 0b 18 bd b0 7a 5e 3b
       -0.030530412 0.075352244 -0.03712077 0.003394764
