torch-rl/storage/LineCorridor_10M_r4/status.pt (torch, 649297 bytes, 51 tensors)

image_conv.0.weight f4 [16, 3, 2, 2]
0.5080156 -0.20211479 -0.118133456 -0.023842575 -0.11467653 0.0075000543 -0.22302517 -0.012010046
0.040130734 -0.035346568 0.08006719 0.014240861 0.07879172 -0.25151783 -0.07665135 -0.15304568
0.21206279 -0.046716586 0.23502141 -0.072454266 -0.10750443 -0.17434862 -0.04838647 -0.12451734
-0.09561717 0.017703665 0.04714899 0.029618977 -0.23393413 0.25792822 -0.3137173 0.15226205
0.19054285 -0.26302278 -0.27447474 -0.13923728 0.19516906 -0.15383686 0.0007099969 -0.31091252
0.20284206 -0.24680512 0.13177153 -0.16257326 -0.15207909 0.14838329 -0.15323457 0.08490071
-0.1374014 -0.025604779 -0.34645286 -0.23601428 0.22635116 -0.24290627 0.24883175 0.1342465
-0.0135168135 -0.19268577 0.17579225 0.08959237 -0.32623354 0.21582086 0.11796565 0.25054058
0.02309432 -0.0863435 -0.025976174 -0.18325956 -0.21908084 -0.20485033 0.1570406 -0.067692
0.18061152 -0.2763552 0.12728685 -0.13110854 0.019887181 -0.013324196 -0.27017155 0.10036136
-0.20297419 -0.21780798 0.017555594 -0.04919231 0.22749753 -0.20854366 -0.26211002 0.42813486
-0.06230281 0.12569238 0.12072833 -0.23760253 0.057994336 0.06933877 -0.19328493 -0.13696834
-0.056695435 0.107441016 -0.27267048 -0.20063116 0.21237612 -0.21668217 0.034502096 0.16108318
-0.18660167 -0.24549785 0.27709597 0.015073687 0.037716962 -0.04261761 -0.08636709 0.2738955
0.17348354 -0.1957845 -0.12795296 0.11062525 0.20912638 0.1793361 -0.20891964 -0.20787618
-0.2978945 -0.0732589 0.4537441 -0.27414152 0.16998488 -0.07554279 -0.2607312 -0.06135492
0.16632622 0.26799875 -0.17927846 0.06264573 0.12572329 0.13827795 0.24629109 0.162569
0.12674747 0.07092808 -0.18429708 -0.25094083 -0.1322769 -0.033615023 -0.17694406 0.105612844
-0.08409989 -0.2777091 -0.09121719 -0.136412 0.039116208 -0.010136696 -0.18391691 0.09470417
-0.033373088 -0.009917736 -0.2724747 -0.185796 -0.16479562 -0.26259166 0.42768002 -0.17777382
-0.052054152 0.090063706 -0.016138917 0.048538033 -0.14938134 0.06258911 -0.10509236 -0.064858004
-0.34994757 -0.121955305 -0.29749408 0.10107228 0.17111477 0.11665595 0.09830124 0.15688737
0.19689006 0.009192437 -0.19970298 0.22560239 -0.0020650548 0.1571724 0.047505617 -0.07987751
-0.3762492 0.2408033 -0.3314348 -0.32211885 -0.009802341 -0.15609111 0.10329133 -0.11111845
00000000: 4f0d 023f 2ef7 4ebe f4ef f1bd 8151 c3bc
00000010: 87db eabd 04c3 f53b b660 64be c9c5 44bc
00000020: 2060 243d 90c7 10bd 44fa a33d 8052 693c
00000030: 8e5d a13d f2c6 80be 62fb 9cbd 02b8 1cbe
00000040: fd26 593e e459 3fbd 74a9 703e e762 94bd
00000050: 482b dcbd 7288 32be e430 46bd f202 ffbd
00000060: efd2 c3bd 4707 913c 4d1f 413d 7fa3 f23c
00000070: 6e8c 6fbe 2b0f 843e 8e9f a0be 95ea 1b3e
00000080: aa1d 433e ecaa 86be f487 8cbe 3894 0ebe
00000090: 66da 473e 6987 1dbe 161f 3a3a ed2f 9fbe
000000a0: d4b5 4f3e 7bba 7cbe 1eef 063e 9b79 26be
000000b0: 9fba 1bbe caf1 173e 86e9 1cbe 6ce0 ad3d
000000c0: f4b2 0cbe 1dc1 d1bc 4562 b1be baad 71be
000000d0: 99c8 673e 6cbc 78be c0cd 7e3e ea77 093e
000000e0: a075 5dbc 6b4f 45be e202 343e 347c b73d
000000f0: 1508 a7be 2500 5d3e fa97 f13d db46 803e
00000100: 4d30 bd3c dcd4 b0bd fccb d4bc 65a8 3bbe
00000110: ba56 60be 49c4 51be 40cf 203e 1aa2 8abd
00000120: 3af2 383e 6e7e 8dbe 7c57 023e 5141 06be
00000130: 71ea a23c bb4d 5abc ed53 8abe 428a cd3d
00000140: 77d8 4fbe 0e09 5fbe c0d0 8f3c e07d 49bd
00000150: 1df5 683e 788c 55be 4933 86be 7e34 db3e
00000160: 3b31 7fbd 81b5 003e 6a40 f73d 144e 73be
00000170: 788b 6d3d 7c01 8e3d 7cec 45be 6e41 0cbe
00000180: 7939 68bd 090a dc3d 779b 8bbe 4172 4dbe
00000190: 2079 593e eee1 5dbe 1252 0d3d fdf2 243e
000001a0: 8214 3fbe ca63 7bbe 86df 8d3e a0f7 763c
000001b0: 1a7d 1a3d ce8f 2ebd 3be1 b0bd 083c 8c3e
000001c0: aba5 313e bb7b 48be 1a06 03be 7e8f e23d
000001d0: 3a25 563e e2a3 373e 08ef 55be 7edd 54be
000001e0: a185 98be c308 96bd 2651 e83e 475c 8cbe
000001f0: 8410 2e3e 2eb6 9abd 8f7e 85be 4c4f 7bbd
00000200: 6c51 2a3e 2237 893e c694 37be 684c 803d
00000210: 9bbd 003e bc98 0d3e bb33 7c3e 7d78 263e
00000220: 17ca 013e be42 913d 60b8 3cbe 517b 80be
00000230: 9873 07be e8af 09bd d330 35be 8c4b d83d
00000240: 903c acbd e32f 8ebe 14d0 babd 96af 0bbe
00000250: 5138 203d 6214 26bc b754 3cbe 43f4 c13d
00000260: 38b2 08bd 007e 22bc ce81 8bbe 4e41 3ebe
00000270: 2fc0 28be 6a72 86be e0f8 da3e 570a 36be
00000280: bc36 55bd 5273 b83d c335 84bc d1cf 463d
00000290: 6cf7 18be b82e 803d aa3a d7bd 46d4 84bd
000002a0: 542c b3be b4c3 f9bd 2551 98be fcfe ce3d
000002b0: b638 2f3e 51e9 ee3d 2952 c93d 15a7 203e
000002c0: 8c9d 493e e09b 163c f07e 4cbe 5004 673e
000002d0: df55 07bb cdf1 203e 4095 423d d296 a3bd
000002e0: bca3 c0be 2495 763e d2b1 a9be c3ec a4be
000002f0: 009a 20bc 59d6 1fbe 688a d33d 1292 e3bd

image_conv.0.bias f4 [16]
-0.20016322 -0.09585532 -0.049392432 -0.36169568 0.064855866 -0.10762173 -0.019886797 -0.2555574
-0.15415241 -0.45436358 0.045026198 -0.3515378 -0.078388326 -0.028192567 -0.21559732 -0.023434997
00000000: 96f7 4cbe cb4f c4bd b84f 4abd 2d30 b9be
00000010: 27d3 843d c868 dcbd a3e9 a2bc 6bd8 82be
00000020: 21da 1dbe 58a2 e8be 646d 383d c3fc b3be
00000030: 0f8a a0bd 19f4 e6bc 8bc5 5cbe c0fa bfbc

image_conv.3.weight f4 [32, 16, 2, 2]
-0.22598661 0.26429757 0.11833078 -0.032251745 -0.20228054 0.056101058 0.30780855 0.10249308
0.026984703 -0.059922673 -0.11845986 0.15731461 -0.1688247 0.074195124 0.054621547 -0.052788172
0.0040547554 -0.16976784 -0.05195224 0.09307667 0.036347806 0.22655383 0.014872639 -0.13720511
-0.0055362787 0.08023345 -0.118280016 -0.13401769 -0.10239737 0.17758927 -0.06378752 -0.24903771
-0.21512145 0.025234837 0.057971492 0.0018987252 -0.12930885 -0.03920858 -0.0071859 -0.033447813
-0.085376784 0.16163263 0.060523897 -0.25764945 -0.014332324 0.10459597 -0.121030554 -0.22968306
-0.042371936 0.15026565 -0.0886533 0.009016769 0.13357233 0.20171554 -0.109486215 0.028333286
0.004995058 -0.079591565 0.031831827 -0.07818468 -0.12493437 0.026686946 -0.14539686 -0.1300986
0.04180001 0.09382343 0.011312674 -0.05403887 -0.16670372 -0.11230969 -0.11101413 -0.09803321
-0.14256181 0.015467531 0.013386617 -0.043821286 -0.08327447 -0.16369441 -0.1439554 0.021746926
-0.076506 -0.04898499 -0.022461064 -0.10429197 0.040341385 0.08210891 -0.03044534 -0.10203669
-0.10439799 -0.07853463 -0.11942268 -0.074859306 -0.08348914 -0.001882422 0.0884452 -0.044067807
-0.09350386 -0.14676072 -0.14250107 0.10221537 -0.02537885 0.10302133 -0.03113265 -0.105981
-0.18068434 -0.061371576 0.006951659 -0.14671122 -0.035175137 0.06956675 0.094684534 0.021947885
-0.057368733 -0.07098806 -0.036160618 -0.04484972 0.09316264 -0.04528451 -0.06609854 0.08540853
-0.15375146 -0.12602322 0.09981139 0.005460356 0.118263155 -0.08572954 -0.06356253 -0.15061828
-0.094878785 -0.2012976 0.26977175 -0.02355989 -0.2679038 -0.045144465 -0.2734214 0.21503726
0.07424312 -0.118819885 0.084714085 -0.110119246 -0.12292508 0.013941634 0.01794493 0.13308117
-0.2336636 -0.08995306 0.1419591 0.21582295 0.06654232 -0.009324338 0.13772033 -0.0016993548
-0.032275435 -0.13301603 0.23092104 -0.021291846 0.00735501 -0.053845033 0.08081674 -0.116504036
-0.13675304 0.010444105 -0.021347338 0.12086414 -0.06776645 0.029737782 -0.025655514 -0.04787092
-0.12251493 0.026060322 0.2416904 0.06930294 -0.009123464 -0.09545569 0.17450616 0.017313376
-0.042745214 0.13679363 0.09628694 -0.00085001375 -0.17226036 -0.18225342 0.2148997 0.11578014
0.06792461 -0.24419275 0.28322044 -0.065109655 0.06625189 -0.108486466 0.14268532 -0.020478712
-0.22863069 0.15475564 -0.065065555 -0.2348224 0.109692946 -0.2470074 -0.30066434 -0.10544104
0.009402306 -0.091580644 -0.19540156 0.124086425 0.27379045 -0.17233396 0.04139047 0.13464914
0.021965483 0.17716932 -0.25002408 -0.10386739 -0.020242589 0.14326192 0.061386615 0.15455863
-0.047710728 0.06499643 0.04249399 -0.24711837 0.054421544 0.008743985 0.04724123 -0.049100216
0.31141424 -0.12281533 0.014539852 -0.05408359 0.33800015 -0.06040677 -0.0113749225 0.14150837
0.014427255 0.085687846 -0.10609622 -0.032462817 -0.03286057 0.011532287 0.004722029 0.149787
-0.13920031 0.0329732 0.057046507 0.113889836 0.21307614 0.03183772 0.03862166 -0.05832609
-0.03191021 -0.053137004 -0.12933023 -0.084315896 0.06415515 -0.03180832 -0.08759644 -0.2635578
00000000: 0969 67be 0352 873e 6857 f23d 681a 04bd
00000010: a122 4fbe 39ca 653d 1599 9d3e e4e7 d13d
00000020: 060f dd3c 7a71 75bd 159b f2bd 1517 213e
00000030: 62e0 2cbe 9df3 973d d8ba 5f3d 6938 58bd
00000040: c1dd 843b 9fd7 2dbe dfcb 54bd fb9e be3d
00000050: 70e1 143d bafd 673e 5fac 733c 7f7f 0cbe
00000060: ac69 b5bb 6f51 a43d cb3c f2bd ef3b 09be
00000070: b6b5 d1bd f6d9 353e 08a3 82bd be03 7fbe
00000080: cc48 5cbe 4ab9 ce3c 8473 6d3d a5de f83a
00000090: 8a69 04be 2d99 20bd b377 ebbb 9300 09bd
000000a0: 06da aebd 0683 253e e8e7 773d a1ea 83be
000000b0: 20d2 6abc 6936 d63d dede f7bd 0932 6bbe
000000c0: 328e 2dbd 3ddf 193e dd8f b5bd 12bb 133c
000000d0: 2fc7 083e 858e 4e3e 4f3a e0bd 351b e83c
000000e0: 95ad a33b e700 a3bd 1762 023d 4a1f a0bd
000000f0: 97dd ffbd 959e da3c eae2 14be 9138 05be
00000100: 7d36 2b3d 8026 c03d cb58 393c dd57 5dbd
00000110: 61b4 2abe 9f02 e6bd 605b e3bd a3c5 c8bd
00000120: b9fb 11be 876b 7d3c 8b53 5b3c f37d 33bd
00000130: ce8b aabd 829f 27be 0b69 13be 9c26 b23c
00000140: 2daf 9cbd 7ca4 48bd 4400 b8bc 0797 d5bd
00000150: 023d 253d b728 a83d 8168 f9bc 9df8 d0bd
00000160: 9dce d5bd c4d6 a0bd e193 f4bd d64f 99bd
00000170: 5bfc aabd 9abb f6ba c222 b53d 7280 34bd
00000180: f47e bfbd 7148 16be cdeb 11be 4b56 d13d
00000190: 4ee7 cfbc d9fc d23d e609 ffbc 910c d9bd
000001a0: 5105 39be c360 7bbd beca e33b 773b 16be
000001b0: ce13 10bd 0379 8e3d f7e9 c13d 0dcc b33c
000001c0: 7afb 6abd 3062 91bd 281d 14bd 57b4 37bd
000001d0: 0ecc be3d 407c 39bd ac5e 87bd abea ae3d
000001e0: 0671 1dbe 3b0c 01be ea69 cc3d c9ec b23b
000001f0: f433 f23d f892 afbd 122d 82bd ae3b 1abe
00000200: cf4f c2bd f520 4ebe 861f 8a3e ac00 c1bc
00000210: b02a 89be 67e9 38bd e4fd 8bbe ba32 5c3e
00000220: c70c 983d d757 f3bd 947e ad3d 3386 e1bd
00000230: 25c0 fbbd 746b 643c 3f01 933c 6e46 083e
00000240: 8345 6fbe 4f39 b8bd ba5d 113e b100 5d3e
00000250: 5747 883d 1cc5 18bc 8f06 0d3e e3bc deba
00000260: 3f33 04bd 5b35 08be 9176 6c3e 3d6c aebc
00000270: 4c02 f13b 9c8c 5cbd 3f83 a53d ab99 eebd
00000280: fd08 0cbe c01d 2b3c 9de0 aebc 9e87 f73d
00000290: 23c9 8abd a69c f33c 832b d2bc 4c14 44bd
000002a0: 1ce9 fabd 757c d53c b07d 773e b3ee 8d3d
000002b0: 957a 15bc 467e c3bd beb1 323e c8d4 8d3c
000002c0: 9b15 2fbd a113 0c3e 1632 c53d 75d3 5eba
000002d0: 0565 30be a4a0 3abe ab0e 5c3e 231e ed3d
000002e0: 0f1c 8b3d aa0d 7abe 4502 913e 3658 85bd
000002f0: 12af 873d 272e debd 1a1c 123e f9c2 a7bc
00000300: 2a1e 6abe 4378 1e3e 1741 85bd 4975 70be
00000310: b2a6 e03d 82ef 7cbe adf0 99be 79f1 d7bd
00000320: 210c 1a3c a28e bbbd 5917 48be 0621 fe3d
00000330: 432e 8c3e 5078 30be 0e89 293d 77e1 093e
00000340: f5f0 b33c e06b 353e 2803 80be 6db8 d4bd
00000350: c9d3 a5bc 41b3 123e 8870 7b3d 9e44 1e3e
00000360: 536c 43bd d91c 853d 2e0e 2e3d 990c 7dbe
00000370: 20e9 5e3d ee42 0f3c 0580 413d 4f1d 49bd
00000380: b071 9f3e 9b86 fbbd 8f38 6e3c c186 5dbd
00000390: 5b0e ad3e 176d 77bd e25d 3abc 92e7 103e
000003a0: 4b60 6c3c 1c7d af3d fa48 d9bd bbf7 04bd
000003b0: ce98 06bd ebf1 3c3c 40bb 9a3b c361 193e
000003c0: 878a 0ebe e80e 073d 99a9 693d 133f e93d
000003d0: a230 5a3e 4568 023d bf31 1e3d 57e7 6ebd
000003e0: 48b4 02bd 30a6 59bd 256f 04be d0ad acbd
000003f0: c663 833d 7149 02bd c365 b3bd 0cf1 86be

image_conv.3.bias f4 [32]
-0.094501115 -0.09209747 0.116815366 0.005827178 -0.062784545 -0.1653604 -0.12388045 -0.10283214
-0.047242645 0.040647548 -0.048594847 -0.02520422 -0.0142145 -0.12020689 -0.1137226 -0.1080914
0.10124084 0.025610633 0.052873246 -0.09047231 -0.14854604 0.08916075 -0.102502406 -0.19398245
0.005967626 -0.034033738 -0.09454981 -0.07944218 -0.11605812 -0.039197445 -0.1494609 0.16965303
00000000: cd89 c1bd 999d bcbd e53c ef3d e9f1 be3b
00000010: 2f95 80bd 3d54 29be 09b5 fdbd a899 d2bd
00000020: 8181 41bd 0b7e 263d 640b 47bd 1579 cebc
00000030: efe3 68bc 082f f6bd 65e7 e8bd 065f ddbd
00000040: 5c57 cf3d 64cd d13c 9e91 583d 8c49 b9bd
00000050: 741c 18be e999 b63d c8ec d1bd 56a3 46be
00000060: 138c c33b f666 0bbd 55a3 c1bd 95b2 a2bd
00000070: e1af edbd 808d 20bd 470c 19be 86b9 2d3e

image_conv.5.weight f4 [64, 32, 2, 2]
0.032382064 -0.34904832 0.07575397 -0.02083664 0.06917747 0.01662516 -0.042908728 -0.041032873
0.17859365 0.07707137 0.05563676 -0.05632041 0.01132248 -0.04087004 -0.21518147 -0.22013438
-0.14353384 0.060082313 -0.08541664 -0.04211293 -0.07680309 -0.0079128165 -0.043556124 0.077440515
-0.0863559 -0.02421753 0.24954091 -0.07888393 -0.1437708 0.029641824 0.23806328 0.08700754
0.029037366 0.035553265 0.02346847 0.124318354 -0.028628869 -0.09430558 0.046886805 -0.014141386
-0.12336652 -0.15230688 -0.26884717 -0.14243384 -0.39164972 -0.2663155 0.03493319 0.1352213
-0.045293707 -0.093830116 -0.05975358 -0.2011515 -0.14026608 -0.2792841 0.050120704 -0.08178888
0.08009611 -0.06378161 -0.034833554 0.09917868 0.13029346 0.039058164 -0.5024543 -0.3488018
-0.024744617 -0.08857532 0.29064175 -0.026505282 -0.05458462 -0.1621076 0.07872974 -0.02550242
-0.36666253 -0.0914638 -0.06811926 -0.20825717 -0.19161728 -0.1647917 -0.053158928 -0.041840844
0.01086985 -0.5738092 0.20583801 -0.12946305 0.27219412 -0.03972498 -0.07653463 0.028914792
-0.062631756 0.086592205 -0.03855862 -0.17336303 0.05751121 -0.24746594 0.13484323 -0.15048681
0.013576986 -0.064862005 0.10026112 -0.33517247 -0.16463616 -0.21727082 -0.08307883 -0.01793917
-0.22452474 -0.013972281 -0.032517336 -0.08529394 -0.14552283 -0.31473494 -0.06861358 -0.027825415
-0.020493269 0.055387996 0.0582637 0.057828315 0.04605859 -0.40973955 -0.09076386 -0.14258479
-0.08604834 -0.18921405 0.06280644 -0.18806009 -0.19583806 -0.061008018 -0.08277382 -0.24485537
-0.05096823 -0.0010420936 -0.07799317 -0.016996836 0.05548788 -0.053003248 -0.07007339 0.041412678
-0.085039996 -0.0703085 0.04089695 -0.06228662 0.0057361694 0.027218705 -0.014465638 -0.055931203
0.06787031 0.015098833 0.012477148 -0.029044613 -0.09301729 0.004038802 -0.06669021 -0.07219566
-0.08597809 0.040383607 -0.070394404 -0.0038094297 0.008655584 0.061048143 0.038739715 -0.061882026
0.028163377 -0.056277312 -0.0077735134 -0.04340421 -0.085709855 0.024997331 -0.069014065 0.08500856
0.035621613 -0.02948571 -0.051759217 -0.08889732 -0.043699116 -0.049518343 0.034209307 -0.018560037
0.061956596 -0.0151146455 -0.03279083 -0.056665335 0.008790816 0.035031807 -0.07157675 -0.086079516
0.014311613 -0.0364266 -0.046713173 -0.066114776 -0.09271023 -0.10702271 -0.071855925 -0.06245866
-0.05070564 0.04998426 -0.05807563 0.047841758 -0.09920735 0.026517943 -0.031832974 -0.110235795
-0.011625308 0.044681024 -0.05317123 0.051241416 -0.009297371 -0.03646468 0.043631203 0.07566003
0.06650497 0.07221781 -0.08878533 0.005483175 -0.013224897 -0.050058596 0.021256605 -0.030664016
-0.07614787 -0.044175874 -0.05700969 0.028771106 -0.06431918 -0.019192146 0.009091504 -0.0035130884
-0.080631085 0.028268637 -0.069082834 -0.09696712 0.015140405 -0.06253354 0.04530039 0.010542375
-0.061359484 -0.018970273 -0.072624736 -0.027919259 -0.007956477 -0.04671242 -0.06550344 -0.12396768
-0.05652539 0.014922716 0.009063207 -0.044494618 -0.025400238 0.036833126 0.051910356 -0.028807892
-0.039373197 -0.04198451 -0.014517017 -0.07822037 0.033700515 -0.044876605 -0.0012145163 -0.050282463
00000000: 0ea3 043d 76b6 b2be e624 9b3d 9ab1 aabc
00000010: ebac 8d3d 7d31 883c 10c1 2fbd 1612 28bd
00000020: 41e1 363e 98d7 9d3d 5fe3 633d 3bb0 66bd
00000030: ec81 393c 5867 27bd 8858 5cbe e86a 61be
00000040: 89fa 12be df18 763d ebee aebd 9c7e 2cbd
00000050: f04a 9dbd c2a4 01bc e867 32bd 2299 9e3d
00000060: 5ddb b0bd d763 c6bc a787 7f3e e68d a1bd
00000070: a738 13be 69d3 f23c dcc6 733e 0231 b23d
00000080: c5df ed3c 4da0 113d f340 c03c 9f9a fe3d
00000090: 1787 eabc 4923 c1bd 610c 403d 46b1 67bc
000000a0: 96a7 fcbd 56f6 1bbe 56a6 89be 2dda 11be
000000b0: 5086 c8be 815a 88be 1b16 0f3d 7477 0a3e
000000c0: e585 39bd 012a c0bd 2bc0 74bd a9fa 4dbe
000000d0: e9a1 0fbe 53fe 8ebe 5e4b 4d3d ee80 a7bd
000000e0: 6e09 a43d ef9f 82bd a1ad 0ebd 311e cb3d
000000f0: a66b 053e 74fb 1f3d d8a0 00bf 2696 b2be
00000100: 39b5 cabc fa66 b5bd ffce 943e 9b21 d9bc
00000110: 1f94 5fbd 89ff 25be 0f3d a13d 73ea d0bc
00000120: 31bb bbbe 5f51 bbbd 1c82 8bbd 5e41 55be
00000130: 5237 44be 28bf 28be 2dbd 59bd 4e61 2bbd
00000140: 7517 323c 29e5 12bf 33c7 523e f691 04be
00000150: 075d 8b3e a9b6 22bd 30be 9cbd b7de ec3c
00000160: 1445 80bd 4157 b13d a5ef 1dbd 1486 31be
00000170: e090 6b3d b667 7dbe 5814 0a3e 3719 1abe
00000180: 0272 5e3c 5fd6 84bd b455 cd3d ba9b abbe
00000190: 6296 28be 3e7c 5ebe 3c25 aabd 2bf5 92bc
000001a0: d0e9 65be feeb 64bc e630 05bd 97ae aebd
000001b0: f003 15be f024 a1be 4785 8cbd 20f2 e3bc
000001c0: 80e1 a7bc 86de 623d eba5 6e3d 62dd 6c3d
000001d0: efa7 3c3d 62c9 d1be 67e2 b9bd bf01 12be
000001e0: 1d3a b0bd 54c1 41be aaa0 803d d392 40be
000001f0: c689 48be 8be3 79bd 5285 a9bd 5ebb 7abe
00000200: 10c4 50bd dc96 88ba e2ba 9fbd f33c 8bbc
00000210: 4247 633d ef19 59bd a382 8fbd 57a0 293d
00000220: 7329 aebd e7fd 8fbd 8f83 273d 4120 7fbd
00000230: 7af6 bb3b c3f9 de3c 4901 6dbc 1e18 65bd
00000240: 97ff 8a3d 1861 773c f46c 4c3c f8ee edbc
00000250: d97f bebd ed57 843b e094 88bd 51db 93bd
00000260: 4815 b0bd 4869 253d f12a 90bd a0a7 79bb
00000270: 27d0 0d3c 9e0d 7a3d 89ad 1e3d 0278 7dbd
00000280: e2b6 e63c 0a83 66bd f5b8 febb 9dc8 31bd
00000290: a688 afbd 34c7 cc3c 3f57 8dbd f818 ae3d
000002a0: f8e7 113d 048c f1bc 7901 54bd cc0f b6bd
000002b0: d8fd 32bd bfd3 4abd 0f1f 0c3d 380b 98bc
000002c0: 33c6 7d3d 6ba3 77bc ad4f 06bd e919 68bd
000002d0: 5b07 103c 837d 0f3d d596 92bd 754a b0bd
000002e0: 417b 6a3c 0f34 15bd 5056 3fbd 2f67 87bd
000002f0: dcde bdbd b92e dbbd 3329 93bd a7d4 7fbd
00000300: b8b0 4fbd 4cbc 4c3d b6e0 6dbd b8f5 433d
00000310: 392d cbbd 283c d93c 4b63 02bd 4ec3 e1bd
00000320: 1378 3ebc 7303 373d 13ca 59bd 85e2 513d
00000330: 0054 18bc fd5b 15bd a2b6 323d a5f3 9a3d
00000340: c233 883d eee6 933d 15d5 b5bd 35ac b33b
00000350: 3dad 58bc 3e0a 4dbd 5522 ae3c 1a33 fbbc
00000360: 6af3 9bbd c3f1 34bd fe82 69bd 62b1 eb3c
00000370: c6b9 83bd d938 9dbc 88f4 143c d83b 66bb
00000380: e921 a5bd a193 e73c 4d7b 8dbd b396 c6bd
00000390: 760f 783c 9611 80bd e78c 393d edb9 2c3c
000003a0: 1554 7bbd 8c67 9bbc 47bc 94bd eeb6 e4bc
000003b0: e25b 02bc 8655 3fbd ab26 86bd c4e2 fdbd
000003c0: 2b87 67bd 687e 743c d87d 143c fd3f 36bd
000003d0: 2914 d0bc 55de 163d f49f 543d 87fe ebbc
000003e0: ca45 21bd f3f7 2bbd c8d8 6dbc 0032 a0bd
000003f0: 8d09 0a3d 88d0 37bd 6830 9fba fcf4 4dbd

image_conv.5.bias f4 [64]
0.012240969 -0.04927845 0.06620174 -0.040523324 -0.05588478 -0.0421338 -0.08238817 -0.18920968
0.20567478 -0.08433448 -0.004315189 0.012865964 -0.07903644 -0.10324876 0.037034 -0.053211957
0.024318773 -0.07498409 0.17880957 -0.048834182 0.13738357 -0.02283297 0.04304653 -0.007894417
-0.022001501 0.007026596 -0.009287549 -0.12760861 0.043408807 -0.2234139 -0.0065242187 0.1141412
-0.10781517 -0.13449962 0.035865948 -0.14250514 -0.10387929 -0.11324083 0.046891324 -0.069312796
-0.008349673 -0.023582386 -0.17829502 -0.13650808 -0.032296736 -0.067492016 -0.08408351 -0.047726437
0.0029251613 -0.081180766 0.05392405 -0.1676856 0.0130486 -0.056662634 -0.12911636 0.111480735
-0.13028441 0.13357133 0.03635825 -0.0966291 -0.03382856 -0.13403274 -0.055485405 -0.07963405
00000000: 588e 483c 33d8 49bd c794 873d c9fb 25bd
00000010: 70e7 64bd 7e94 2cbd 21bb a8bd 2fc0 41be
00000020: 699c 523e 8eb7 acbd 6e66 8dbb c4cb 523c
00000030: dbdd a1bd 1674 d3bd f7b0 173d c8f4 59bd
00000040: 2a38 c73c 4291 99bd db19 373e 5a06 48bd
00000050: 47ae 0c3e 350c bbbc 8f51 303d 9657 01bc
00000060: 7e3c b4bc 5c3f e63b ce2a 18bc d5ab 02be
00000070: 6fcd 313d 9dc6 64be 1dc9 d5bb ddc2 e93d
00000080: 33ce dcbd 45ba 09be 2ce8 123d deec 11be
00000090: aabe d4bd cfea e7bd 1e11 403d def3 8dbd
000000a0: 11cd 08bc d92f c1bc f892 36be c6c8 0bbe
000000b0: 9549 04bd 4139 8abd fa33 acbd cc7c 43bd
000000c0: 10b4 3f3b 1a42 a6bd 77df 5c3d c6b5 2bbe
000000d0: ccc9 553c 1417 68bd 1437 04be 0350 e43d
000000e0: 4769 05be ecc6 083e 63ec 143d 7ae5 c5bd
000000f0: d18f 0abd e13f 09be aa44 63bd 2d17 a3bd

memory_rnn.weight_ih f4 [256, 64]
-0.020132914 -0.13122939 -0.02969455 0.08707246 -0.2293787 -0.020580495 0.0916778 -0.084833756
0.2823161 -0.1659761 0.078477584 0.11130349 -0.015659766 0.09548012 -0.12281533 -0.0233539
-0.05585892 0.091024555 -0.11947677 0.023052279 0.07445868 -0.040178698 -0.10779843 -0.14987043
-0.34480965 -0.13413963 -0.05744106 -0.2411823 0.12490517 -0.1480605 -0.12469976 -0.02988887
-0.10306515 0.046111148 -0.007409762 0.12567504 0.039258502 -0.047826555 0.19638868 -0.08201701
-0.026029991 -0.029313724 0.06598901 -0.01135728 -0.054317 -0.025177691 0.18793233 -0.25898728
0.08096719 -0.033072956 0.29704478 0.009407409 -0.20255858 -0.10962713 -0.016142812 0.11549375
-0.008182728 -0.28718165 0.03478235 0.064711206 -0.4130824 0.01469924 -0.35212392 -0.055632934
-0.01941889 0.100914516 -0.3063621 -0.061429504 -0.19450328 0.08606508 -0.15230301 -0.016611995
-0.0940001 -0.13164172 -0.06697238 0.042613328 0.13868044 -0.0055748993 0.029119993 0.083385535
-0.134815 -0.030018343 -0.040418506 -0.12719436 -0.049640495 -0.1926919 -0.15354392 -0.20066299
-0.03184696 -0.1400028 0.03990923 -0.045663938 -0.104286626 0.03948271 0.02306968 0.004321817
0.11622167 -0.04797727 0.17552435 -0.1960582 -0.054100115 -0.009303126 -0.17057915 -0.106233425
0.17885546 -0.0484016 -0.11025326 -0.19714849 0.11416071 0.09906277 0.0022940615 -0.024154384
0.08220207 -0.10657518 0.08044289 -0.12755992 0.1722606 -0.3079177 -0.06566172 0.0053431513
0.03903582 -0.026039185 -0.17373861 -0.17149986 -0.12559927 -0.09927106 -0.113332525 -0.033789393
-0.039715845 -0.054765385 -0.38734645 -0.046767637 0.03290879 0.09578647 -0.050577696 -0.08738648
-0.14377178 -0.14795178 -0.031373084 0.10205229 -0.1297256 -0.11846577 0.00712713 -0.17977372
-0.12356635 -0.1071909 -0.025034359 -0.054169394 0.15691212 0.3753979 -0.21231538 0.2521504
-0.104489125 0.07758841 -0.053847514 -0.047993135 0.04095621 -0.043468658 -0.10341805 0.1648974
0.099300325 0.013127607 -0.12234042 0.39826941 -0.017961334 -0.0040338403 -0.20468797 -0.06575763
0.011156772 0.00672132 -0.10188571 0.1294177 0.04948296 0.10080487 0.03703227 -0.038372513
0.023542123 -0.13809107 0.19587816 0.22554031 0.2589301 0.22602533 0.0075085796 0.03567261
-0.07768863 0.1879476 -0.05728471 -0.014165457 -0.109821826 -0.17722297 -0.07899653 0.015590878
0.1514422 0.07617712 0.07663456 0.04747648 -0.03254239 -0.07508582 0.17562711 -0.009481843
-0.2018088 0.17074388 0.089155495 0.10428911 -0.049405698 0.057793856 0.25138354 -0.11388724
-0.019522285 -0.13498892 0.035973564 -0.11223069 -0.032631677 -0.23742458 -0.35067195 -0.09794071
-0.09781388 -0.0671498 0.10620376 0.22352597 0.110164665 -0.09456726 -0.10992365 -0.26522171
-0.012576525 -0.19392157 0.09995067 -0.30345026 -0.04218364 0.046010867 -0.17685497 0.016592383
0.023501378 0.11402442 -0.038072135 0.09026976 -0.13377723 -0.025728673 0.05549465 -0.21883392
0.0056996276 -0.0983302 0.026620492 -0.14757992 0.07203166 0.009434127 0.078741804 -0.22053032
-0.056506477 0.09835775 -0.12735271 -0.2502229 0.013704486 0.0761358 0.001977439 -0.1739343
00000000: c8ed a4bc ff60 06be fc41 f3bc 0c53 b23d
00000010: 40e2 6abe 6d98 a8bc 92c1 bb3d 52bd adbd
00000020: bc8b 903e a4f5 29be dbb8 a03d 16f3 e33d
00000030: e948 80bc 158b c33d 9b86 fbbd ae50 bfbc
00000040: 53cc 64bd 156b ba3d 3db0 f4bd 22d8 bc3c
00000050: cb7d 983d 6b92 24bd 6cc5 dcbd a277 19be
00000060: e48a b0be e65b 09be 5147 6bbd 7ef8 76be
00000070: 48ce ff3d 2c9d 17be 9662 ffbd 81d9 f4bc
00000080: d213 d3bd 0bdf 3c3d 97cd f2bb f5b0 003e
00000090: 86cd 203d c7e5 43bd 1d1a 493e 89f8 a7bd
000000a0: d93c d5bc 5623 f0bc 3f25 873d e313 3abc
000000b0: 817b 5ebd 7241 cebc 5571 403e fb99 84be
000000c0: 20d2 a53d 8277 07bd 4116 983e 8821 1a3c
000000d0: 846b 4fbe 3084 e0bd ee3d 84bc fd87 ec3d
000000e0: d910 06bc 7909 93be f077 0e3d 4f87 843d
000000f0: 897f d3be 15d5 703c 9649 b4be 5cdf 63bd
00000100: 5d14 9fbc 45ac ce3d 7edb 9cbe 819d 7bbd
00000110: de2b 47be e342 b03d 52f5 1bbe e115 88bc
00000120: 2083 c0bd 16cd 06be d128 89bd 508b 2e3d
00000130: 3f02 0e3e a5ad b6bb 0d8d ee3c 09c6 aa3d
00000140: f20c 0abe 07e9 f5bc e08d 25bd 3d3f 02be
00000150: d553 4bbd 0751 45be 9e3a 1dbe 997a 4dbe
00000160: f571 02bd e55c 0fbe dc77 233d 1c0a 3bbd
00000170: 3a94 d5bd 9fb8 213d a0fc bc3c 079e 8d3b
00000180: a005 ee3d d083 44bd a8bc 333e 7bc3 48be
00000190: 1598 5dbd 236c 18bc 4dac 2ebe e990 d9bd
000001a0: e325 373e c240 46bd 76cc e1bd 4be1 49be
000001b0: 17cd e93d 6ce1 ca3d f757 163b 6adf c5bc
000001c0: 8f59 a83d 1744 dabd 3ebf a43d 119f 02be
000001d0: 1565 303e 64a7 9dbe a779 86bd 9a15 af3b
000001e0: 06e4 1f3d 2150 d5bc 89e8 31be a99d 2fbe
000001f0: 189d 00be a04e cbbd e21a e8bd bf66 0abd
00000200: 15ad 22bd ab51 60bd 4652 c6be 6c8f 3fbd
00000210: 5ecb 063d b22b c43d 8f2a 4fbd aff7 b2bd
00000220: e938 13be ac80 17be 1081 00bd cb00 d13d
00000230: cad6 04be 2e9e f2bd b38a e93b 9a16 38be
00000240: 5b10 fdbd e786 dbbd db14 cdbc bae0 5dbd
00000250: 92ad 203e 2734 c03e 3469 59be db19 813e
00000260: 65fe d5bd ace6 9e3d 368f 5cbd 7394 44bd
00000270: b3c1 273d 310c 32bd d8cc d3bd ddda 283e
00000280: f85d cb3d 2d15 573c 9d8d fabd f8e9 cb3e
00000290: a623 93bc 4e2e 84bb b999 51be f0ab 86bd
000002a0: e5ca 363c 853e dc3b 75a9 d0bd 1386 043e
000002b0: a5ae 4a3d c972 ce3d 26af 173d 7f2c 1dbd
000002c0: 69db c03c bf67 0dbe 4994 483e 0af4 663e
000002d0: 7c92 843e 2f73 673e 880a f63b 711d 123d
000002e0: 371b 9fbd 5675 403e 5fa3 6abd 3c16 68bc
000002f0: 44ea e0bd f079 35be efc8 a1bd e270 7f3c
00000300: aa13 1b3e c002 9c3d 95f2 9c3d b376 423d
00000310: 2b4b 05bd 98c6 99bd 98d7 333e bb59 1bbc
00000320: f7a6 4ebe 7cd7 2e3e 2897 b63d 8795 d53d
00000330: a15d 4abd 40b9 6c3d 58b5 803e b73d e9bd
00000340: 33ed 9fbc 893a 0abe 0459 133d 34d9 e5bd
00000350: cba8 05bd 6e1f 73be 468b b3be 2495 c8bd
00000360: a552 c8bd d685 89bd 5b81 d93d fee3 643e
00000370: 039e e13d 7bac c1bd a71f e1bd 24cb 87be
00000380: c50d 4ebc 6093 46be f0b2 cc3d d55d 9bbe
00000390: c1c8 2cbd e475 3c3d 7819 35be c0ec 873c
000003a0: f685 c03c a385 e93d 87f1 1bbd 5adf b83d
000003b0: e6fc 08be f0c4 d2bc 5c4e 633d 0016 60be
000003c0: f1c3 ba3b 5861 c9bd 3813 da3c 311f 17be
000003d0: 5685 933d 9991 1a3c 6243 a13d b3d2 61be
000003e0: 5673 67bd ca6f c93d c068 02be 371d 80be
000003f0: c888 603c 16ed 9b3d ec97 013b d51b 32be

memory_rnn.weight_hh f4 [256, 64]
-0.12895907 -0.0073697804 0.031150883 0.015520415 0.07735711 0.18661708 0.1420163 0.22111152
0.11852592 0.08634895 0.23299515 -0.12483994 -0.23104607 0.008556009 -0.15113916 0.18124215
0.0376627 -0.18058425 0.26585832 -0.37628242 0.05025672 -0.21870671 0.26132947 0.19720958
-0.07127035 -0.2729609 -0.08574653 -0.008199699 0.25925988 0.20880173 0.02363407 -0.025959624
-0.018322017 -0.024461735 0.43398908 -0.06905632 0.17342563 -0.08267599 -0.08639773 -0.23666725
0.0053623915 0.1021748 0.04436507 -0.15667309 -0.03851432 0.0005267942 -0.01689855 0.1705353
-0.23128241 0.03729739 0.19035846 0.05751032 -0.3344699 0.09458887 0.25148183 -0.0893286
0.12975271 -0.13025796 0.043709215 0.15918504 0.16316693 0.3124908 -0.24472003 0.1603577
0.06674629 -0.36500928 -0.3213394 0.26701126 0.0035783683 -0.3026488 0.15686077 0.01718149
-0.16126432 0.10120205 0.10212422 -0.3833276 0.17500255 0.27472752 0.07227546 -0.07580633
0.14867617 0.14221114 0.23855847 0.0902904 0.066913016 -0.28428474 -0.25031617 -0.048817277
0.49389493 -0.2871897 0.032777913 0.30883858 0.43945158 -0.17198092 0.20441371 0.18971637
-0.1612758 0.09896765 0.5668254 0.35306403 0.1663478 0.056855567 0.0509077 0.29241675
0.16600375 -0.06588433 -0.41527915 0.106150635 0.031462356 0.25385937 0.29787323 -0.06816555
-0.13414475 0.18817228 0.16782175 0.4365527 -0.17982674 0.38125724 0.25800818 -0.22920246
0.3295002 -0.0419333 -0.08932543 0.25687072 0.1912936 0.39095962 0.22911109 -0.15835746
-0.47062737 0.22333048 0.012627895 -0.2364422 -0.080950566 0.055553988 -0.0021964007 -0.31593385
0.11811972 -0.02881546 -0.38761052 0.12178282 -0.039779328 -0.26689613 0.1268487 -0.23985985
-0.16018176 0.23854889 0.040877935 -0.16506638 -0.15711881 -0.120712064 -0.32560676 0.079584084
-0.36889333 0.11806756 -0.37271565 -0.33839312 0.40347642 0.43698826 -0.16479997 0.20292388
0.2718321 -0.09593244 0.13704154 -0.12027169 -0.0625777 0.18680224 -0.204991 -0.36331728
0.3063817 0.1204388 -0.062254887 -0.3303535 -0.3814276 0.017355528 -0.26152653 -0.0588817
0.07762714 -0.0009787155 0.07666351 0.008537981 -0.020742796 0.20563036 -0.17547455 0.036772132
-0.16677794 -0.18324839 0.13870507 0.14309853 -0.010933106 0.013661406 -0.26330096 0.091594
0.2711427 -0.40133232 0.08041743 0.041233014 0.06278378 0.08409966 0.029138206 0.09684008
-0.14160757 0.0070267078 -0.07178055 -0.15807234 -0.14799479 -0.14274117 0.32838795 0.36894375
0.119332336 0.057006266 -0.06422884 0.22682343 0.15963547 -0.29171902 -0.33185506 0.085355446
1.4443036e-05 -0.15266587 0.182061 -0.005946678 -0.041908875 0.006113243 -0.37512776 0.20847173
-0.13213836 -0.098453194 0.1504837 0.23150896 -0.30765015 -0.11294315 0.07564955 0.12434624
-0.33564392 -0.14232065 0.07262783 0.1587669 0.21060364 -0.40700525 0.011858649 -0.2657831
0.11451709 0.2484198 0.029189551 0.005264249 0.039446305 -0.09540685 0.27602154 0.150193
0.15412071 -0.2225628 -0.12240231 -0.0738793 -0.046117716 0.26646662 -0.19705285 -0.12343924
00000000: d90d 04be 337e f1bb 2330 ff3c 5749 7e3c
00000010: 686d 9e3d 8c18 3f3e b96c 113e 0f6b 623e
00000020: b8bd f23d b8d7 b03d 4896 6e3e 15ac ffbd
00000030: 5797 6cbe 812e 0c3c 39c4 1abe 8b97 393e
00000040: 3444 1a3d 14eb 38be 951e 883e 17a8 c0be
00000050: fed9 4d3d a7f4 5fbe facc 853e 4ff1 493e
00000060: 30f6 91bd 88c1 8bbe e09b afbd 0858 06bc
00000070: b6bd 843e 1fd0 553e 3d9c c13c 47a9 d4bc
00000080: 0e18 96bc fa63 c8bc d133 de3e 666d 8dbd
00000090: 7d96 313e 0852 a9bd 4bf1 b0bd e658 72be
000000a0: 00b7 af3b 0641 d13d 26b8 353d e96e 20be
000000b0: 31c1 1dbd 8f18 0a3a d46e 8abc cea0 2e3e
000000c0: 4cd5 6cbe 26c5 183d 54ed 423e f18f 6b3d
000000d0: a43f abbe cfb7 c13d 3ac2 803e eaf1 b6bd
000000e0: e5dd 043e 5862 05be 6f08 333d 6701 233e
000000f0: 3b15 273e cbfe 9f3e e397 7abe cf34 243e
00000100: 47b2 883d 7fe2 babe 9986 a4be b3b5 883e
00000110: 0f83 6a3b c9f4 9abe 1ca0 203e 32c0 8c3c
00000120: 7922 25be 0543 cf3d 8126 d13d 8443 c4be
00000130: de33 333e 16a9 8c3e 2805 943d 5940 9bbd
00000140: 913e 183e cc9f 113e ac48 743e 2cea b83d
00000150: b109 893d c58d 91be 7129 80be a0f4 47bd
00000160: ccdf fc3e 870a 93be 2242 063d 1720 9e3e
00000170: ccff e03e c41b 30be d451 513e 0245 423e
00000180: 7c25 25be 8daf ca3d 781b 113f cfc4 b43e
00000190: 1457 2a3e 62e1 683d 9884 503d a6b7 953e
000001a0: e3fc 293e 5dee 86bd 789f d4be 8165 d93d
000001b0: acde 003d dbf9 813e d782 983e 619a 8bbd
000001c0: 3e5d 09be 3cb0 403e 77d9 2b3e d683 df3e
000001d0: 8024 38be 2634 c33e a619 843e 0db4 6abe
000001e0: 40b4 a83e 41c2 2bbd 40f0 b6bd 8f84 833e
000001f0: 78e2 433e dc2b c83e 199c 6a3e 7528 22be
00000200: 12f6 f0be bfb0 643e 3be5 4e3c e71d 72be
00000210: 69c9 a5bd 948c 633d 7df1 0fbb 15c2 a1be
00000220: c0e8 f13d 660e ecbc e374 c6be 4569 f93d
00000230: a6ef 22bd 9ca6 88be a0e4 013e d29d 75be
00000240: b006 24be 2946 743e 9f6f 273d 2907 29be
00000250: c1e3 20be e337 f7bd eeb5 a6be fbfc a23d
00000260: 96df bcbe 68cd f13d 96d4 bebe dd41 adbe
00000270: 7694 ce3e edbc df3e 53c1 28be 47cb 4f3e
00000280: 942d 8b3e 3a78 c4bd 9e54 0c3e 0151 f6bd
00000290: bd28 80bd 1649 3f3e 29e9 51be b904 babe
000002a0: 10de 9c3e 9ea8 f63d fbfe 7ebd 1824 a9be
000002b0: 7a4a c3be 2e2d 8e3c cee6 85be f02d 71bd
000002c0: fafa 9e3d 3e48 80ba c201 9d3d e3e2 0b3c
000002d0: ccec a9bc c490 523e 9aaf 33be 609e 163d
000002e0: d6c7 2abe 77a5 3bbe b408 0e3e 6c88 123e
000002f0: c520 33bc 17d4 5f3c 62cf 86be a395 bb3d
00000300: 37d3 8a3e 6e7b cdbe e5b1 a43d f3e3 283d
00000310: c894 803d 713c ac3d 3fb3 ee3c 1854 c63d
00000320: 9301 11be 4c40 e63b ae01 93bd b7dd 21be
00000330: f28b 17be be2a 12be 7722 a83e 32e6 bc3e
00000340: 8364 f43d 677f 693d 698a 83bd 6744 683e
00000350: 7b77 233e 325c 95be e8e8 a9be d6ce ae3d
00000360: 5e50 7237 7154 1cbe 336e 3a3e 5adc c2bb
00000370: a4a8 2bbd 9951 c83b bf10 c0be 9d79 553e
00000380: 474f 07be d4a1 c9bd 6618 1a3e af10 6d3e
00000390: 5284 9dbe bd4e e7bd 27ee 9a3d 3ea9 fe3d
000003a0: 85d9 abbe 81bc 11be e6bd 943d ca93 223e
000003b0: 7ba8 573e fe62 d0be c74a 423c b914 88be
000003c0: f087 ea3d c361 7e3e ed1e ef3c b97f ac3b
000003d0: 7392 213d ab64 c3bd b252 8d3e 32cc 193e
000003e0: d2d1 1d3e 81e7 63be 10ae fabd 084e 97bd
000003f0: eee5 3cbd 506e 883e 39c8 49be b6cd fcbd

memory_rnn.bias_ih f4 [256]
0.09042825 -0.06913976 0.008469319 -0.1945461 -0.011561657 -0.06921332 -0.05356045 0.063475505
-0.17870177 -0.020217102 -0.1059994 -0.013076007 -0.30676806 -0.13215615 0.042683605 -0.35947162
-0.11132998 -0.19581412 -0.02984867 0.059457984 -0.14194049 -0.19218181 -0.19152062 0.035396397
-0.23294921 -0.04064705 -0.13666481 -0.052479234 0.040323943 -0.063452095 -0.2296826 -0.03026164
-0.06560784 0.042582557 -0.2218457 -0.033412363 -0.25467533 -0.14968178 -0.026639475 0.0047681294
0.15036945 -0.19734444 -0.18217269 -0.079309754 -0.10691637 -0.09094504 -0.2187366 0.06933108
-0.07069292 0.013428781 0.12940545 0.20276769 -0.102627784 -0.4943732 0.0148428455 -0.03488492
-0.19907354 -0.0034193285 -0.10026171 -0.14201318 -0.0059354785 -0.3658663 0.074215256 -0.08188882
0.037030276 -0.18686268 0.1382674 -0.17578419 -0.045071423 -0.029822396 0.1266738 -0.04665522
-0.25093493 -0.21428995 -0.03602975 -0.3097799 -0.079614766 0.0607737 -0.13193531 0.1956328
-0.0433316 0.18431908 -0.021270242 -0.14039265 -0.077161804 -0.13678142 -0.21567762 0.06025221
-0.18552847 -0.14283858 -0.17524405 0.04666403 0.24379106 -0.21088809 -0.08909047 0.014796594
-0.15273707 -0.06616864 0.25713986 0.010315761 -0.21341054 0.09763372 -0.07277642 -0.121514276
0.025390793 -0.26840624 -0.061683506 -0.19648555 -0.03230997 0.06377008 0.08870334 -0.012728182
-0.007996072 -0.2352544 -0.094343714 -0.01874453 -0.2911919 0.019930812 -0.00013910493 0.09345731
-0.15056917 -0.04800702 -0.092618994 -0.0030995747 -0.18966034 0.18701401 -0.10124129 -0.2700172
-0.0067468714 -0.024565691 -0.181416 -0.050745457 -0.059061058 0.037016485 0.09583055 -0.08920865
-0.094393745 0.12647484 0.09058576 -0.09809351 -0.05321414 -0.014844044 -0.09917154 -0.08271788
0.12449969 0.059024584 -0.0047821486 0.06023965 0.02094243 0.029951889 0.086506374 0.14785929
0.06654131 -0.04553885 0.037051603 0.07358082 -0.036942944 0.08412812 0.050893385 0.055557027
-0.055489693 0.019019878 -0.035408694 0.1119145 0.028064603 0.119850315 -0.035461847 0.15815835
0.17000704 0.019299261 -0.016779676 -0.06510248 -0.13151607 -0.03422715 0.06381777 -0.02455152
-0.025138713 -0.16096614 0.031824566 0.1847828 -0.07007442 0.07158222 0.11543127 -0.10462695
0.10927792 0.05715957 0.12978297 0.10980934 0.1588889 0.024900464 0.069695055 0.008486424
0.078431614 -0.096493825 0.0105512915 -0.24190183 0.20586349 -0.03316028 0.024621757 0.17056045
-0.20386255 -0.029358825 -0.016395016 -0.014867789 -0.13102238 -0.13357143 -0.0909575 0.0542328
0.043460768 -0.18164709 -0.034589075 -0.00026605627 -0.0076203216 -0.09994138 -0.16225024 0.10349124
-0.002703154 -0.16059668 -0.051670283 -0.16417482 0.0069634393 -0.20697048 -0.04138799 -0.063075945
-0.08293428 -0.06705418 0.15622847 -0.21308485 -0.118122846 -0.17022087 0.09839725 -0.007895059
-0.1266174 -0.226441 -0.2942722 0.06863757 0.071506076 0.0042716316 0.01176697 0.05643777
0.005948092 0.010959127 -0.0064326413 0.18934242 -0.20000267 -0.24136852 -0.1757297 -0.15814282
-0.055564966 -0.21938168 -0.1738264 -0.27052718 -0.20917776 0.033107243 -0.085172236 -0.12410106
00000000: 7232 b93d 2699 8dbd e6c2 0a3c 1837 47be
00000010: 1b6d 3dbc b7bf 8dbd 3462 5bbd 72ff 813d
00000020: 99fd 36be 569e a5bc 3716 d9bd c03c 56bc
00000030: b410 9dbe f153 07be 01d5 2e3d aa0c b8be
00000040: f900 e4bd 7f83 48be 3385 f4bc 378a 733d
00000050: d958 11be 4fcb 44be fb1d 44be d0fb 103d
00000060: 3d8a 6ebe 857d 26bd dcf1 0bbe 77f4 56bd
00000070: b82a 253d 2cf3 81bd ea31 6bbe 42e7 f7bc
00000080: 675d 86bd 0c6b 2e3d 852b 63be 67db 08bd
00000090: ce64 82be 2e46 19be 073b dabc f83d 9c3b
000000a0: 73fa 193e a914 4abe 7a8b 3abe 276d a2bd
000000b0: f8f6 dabd 6541 babd 7dfc 5fbe 74fd 8d3d
000000c0: 73c7 90bd 6404 5c3c dd82 043e 55a2 4f3e
000000d0: 842e d2bd 7c1e fdbe 682f 733c 7de3 0ebd
000000e0: efd9 4bbe d016 60bb 0356 cdbd e76b 11be
000000f0: 677e c2bb d452 bbbe 2bfe 973d 53b5 a7bd
00000100: 0fad 173d ee58 3fbe f895 0d3e c500 34be
00000110: d09c 38bd 194e f4bc c7b6 013e 8b19 3fbd
00000120: 8b7a 80be d36e 5bbe ee93 13bd 799b 9ebe
00000130: 110d a3bd d8ed 783d 0d1a 07be f753 483e
00000140: 7a7c 31bd 24be 3c3e ee3e aebc 17c3 0fbe
00000150: 0207 9ebd 6e10 0cbe 98da 5cbe 05cb 763d
00000160: 2dfb 3dbe 4744 12be 2d73 33be c822 3f3d
00000170: 5da4 793e 0cf3 57be 1075 b6bd 6a6d 723c
00000180: 1b67 1cbe 6d83 87bd d6a7 833e 7003 293c
00000190: 4b88 5abe 30f4 c73d ce0b 95bd 7adc f8bd
000001a0: 5a00 d03c 8b6c 89be d8a7 7cbd 8233 49be
000001b0: 7657 04bd e399 823d 19aa b53d dd89 50bc
000001c0: f501 03bc 88e6 70be 4737 c1bd 218e 99bc
000001d0: 1b17 95be f145 a33c b2dc 11b9 8c66 bf3d
000001e0: ce2e 1abe 02a3 44bd 07af bdbd 3c22 4bbb
000001f0: 5236 42be 9a80 3f3e 9857 cfbd b23f 8abe
00000200: dc14 ddbb fd3d c9bc 1ec5 39be 78da 4fbd
00000210: 02ea 71bd 999e 173d cf42 c43d 06b3 b6bd
00000220: 8251 c1bd 9f82 013e 0785 b93d 40e5 c8bd
00000230: 12f7 59bd 6f34 73bc 731a cbbd fe67 a9bd
00000240: b2f9 fe3d c3c3 713d 92b3 9cbb dabd 763d
00000250: 758f ab3c aa5d f53c 412a b13d 6d68 173e
00000260: cf46 883d f286 3abd 6cc3 173d 8ab1 963d
00000270: 7c51 17bd 5d4b ac3d 9575 503d c48f 633d
00000280: 2949 63bd 93cf 9b3c b508 11bd 6e33 e53d
00000290: bde7 e53c 1574 f53d 7140 11bd 43f4 213e
000002a0: 5316 2e3e 7c19 9e3c 8875 89bc 7354 85bd
000002b0: 26ac 06be c531 0cbd e4b2 823d 4520 c9bc
000002c0: b4ef cdbc 4fd4 24be 7a5a 023d b437 3d3e
000002d0: 2d83 8fbd b399 923d 3b67 ec3d a846 d6bd
000002e0: 1acd df3d 2720 6a3d d4e5 043e b8e3 e03d
000002f0: c6b3 223e 0ffc cb3c 48bc 8e3d a40a 0b3c
00000300: c1a0 a03d 8e9e c5bd 53df 2c3c 1db5 77be
00000310: e1cd 523e 13d3 07bd 91b3 c93c 66a7 2e3e
00000320: 58c1 50be eb81 f0bc d74e 86bc 0798 73bc
00000330: bb2a 06be f3c6 08be ed47 babd 3623 5e3d
00000340: eb03 323d b201 3abe 46ad 0dbd 787d 8bb9
00000350: e4b3 f9bb 11ae ccbd ed24 26be 37f3 d33d
00000360: 6627 31bb 7573 24be 38a4 53bd 721d 28be
00000370: 902d e43b 12f0 53be 7486 29bd f62d 81bd
00000380: 73d9 a9bd b453 89bd 5bfa 1f3e ea32 5abe
00000390: 64ea f1bd 614e 2ebe 7f84 c93d 475a 01bc
000003a0: fea7 01be 26e0 67be d9aa 96be db91 8c3d
000003b0: c771 923d 0bf9 8b3b 40ca 403c 4b2b 673d
000003c0: 36e8 c23b e98d 333c e8c8 d2bb fbe2 413e
000003d0: 80cd 4cbe 4f29 77be 7df2 33be 31f0 21be
000003e0: 1798 63bd 97a5 60be 8cff 31be 8a82 8abe
000003f0: b232 56be 769b 073d c86e aebd b228 febd

memory_rnn.bias_hh f4 [256]
-0.07068752 0.09676956 0.089260325 -0.118152104 0.1884318 0.023991497 -0.1011242 -0.017047774
-0.13659044 0.036787722 -0.11092564 0.14662677 -0.13314208 -0.094413236 0.09677117 -0.34858203
8.174253e-05 -0.053267553 0.07068583 -0.059746485 -0.070824124 -0.004834947 -0.2171006 0.07390319
-0.0155232595 -0.16099116 -0.103158124 0.066077106 -0.11902418 -0.19113766 -0.041584305 -0.0049509606
-0.00214003 -0.09485767 -0.35761857 0.087780766 -0.30553582 -0.10499314 0.107846834 -0.017940953
0.11943329 -0.3919612 -0.24903838 -0.07193082 -0.13977145 -0.023911625 -0.18163614 -0.047974378
0.0061365226 0.039287273 0.07923104 0.07416473 -0.15611313 -0.25203046 -0.06662818 -0.11233948
-0.19013421 0.0015258677 -0.18601759 -0.17217551 -0.03549772 -0.5176898 -0.09158871 0.007880638
0.02079825 -0.10958792 0.16951436 0.062358674 -0.03669908 -0.08757403 0.08093447 -0.008501653
-0.2713692 -0.34684616 0.060135186 -0.18771432 -0.05395505 -0.06744611 0.036742445 0.25278357
-0.08782049 0.11164091 -0.08439705 -0.13555679 -0.15447323 -0.07889096 -0.2526856 0.02937898
-0.084887885 -0.18670796 -0.064250074 -0.12075207 0.39890137 -0.26718128 -0.14463799 -0.11648897
-0.10136028 -0.08106721 0.12920052 -0.020567076 -0.018835077 0.23680116 -0.07838042 -0.04553013
0.08442499 -0.24260236 -0.19040734 -0.17024192 0.10695663 -0.021257624 0.08451379 0.019506391
0.026424324 -0.2720796 -0.17519635 -0.08084641 -0.075725205 -0.040636633 0.050094154 -0.0035739439
-0.09456201 -0.09805355 -0.23418203 -0.05143474 -0.2183255 0.06925614 -0.20104861 -0.16252273
-0.09356879 -0.01396197 -0.180107 -0.031707548 -0.014348982 0.1354217 -0.09307032 0.00057554897
0.01422893 0.08253406 0.099634565 0.015078884 -0.078133106 -0.047376093 -0.045590416 -0.037239417
0.1273098 0.035249 -0.053708166 -0.012794045 0.061052494 -0.1554442 0.09686563 0.16578178
-0.034241848 0.127774 0.04866001 0.08349937 -0.012261054 0.08638627 -0.11096571 -0.09089785
-0.005227581 0.14293547 0.031085365 0.107520565 -0.017426109 -0.010126783 -0.107639365 0.15882556
-0.05074407 0.1182856 0.15323432 0.009648589 -0.08920115 0.168334 0.12646714 -0.02312514
0.025801029 -0.091343306 -0.008956175 0.15018079 -0.046355873 -0.050492186 0.10739996 -0.089838475
0.12417393 0.09879473 0.05731242 0.090638205 -0.012230672 0.012805587 -0.007704138 -0.07847991
0.089956224 -0.0016640666 -0.057229977 -0.07437977 0.027576445 -0.019804675 0.1592682 0.08017039
-0.1593377 -0.0794312 -0.09539829 0.07123202 -0.2598278 -0.11460149 0.10660822 -0.04777538
-0.109868236 -0.060244463 -0.1723694 -0.08652721 -0.014533653 -0.20067702 -0.06332564 -0.014807322
-0.19048141 -0.1408469 -0.13587463 -0.05563033 0.17360714 -0.146804 -0.03503188 -0.050688963
0.006238746 0.035644665 -0.043426108 -0.1422103 -0.08537038 -0.007616945 -0.10300035 0.055706393
-0.035168123 -0.27799842 -0.123859145 -0.015618701 0.06905488 0.0267404 0.0061823446 -0.09171114
0.09338222 0.1253597 0.07921729 0.05439311 -0.124916956 -0.29222086 -0.17481376 -0.08111725
-0.084734544 -0.0048325025 -0.23137406 -0.084669076 -0.13786064 -0.1533035 0.022325477 -0.14619778
00000000: 9ec4 90bd 1e2f c63d 1ece b63d bbf9 f1bd
00000010: 44f4 403e d189 c43c 341a cfbd c6a7 8bbc
00000020: 5dde 0bbe b9ae 163d fb2c e3bd 5425 163e
00000030: 6656 08be ba5b c1bd f72f c63d 5879 b2be
00000040: 306d ab38 142f 5abd bcc3 903d bbb8 74bd
00000050: 3d0c 91bd 7a6e 9ebb 9f4f 5ebe 8e5a 973d
00000060: 4555 7ebc deda 24be 9144 d3bd 6f53 873d
00000070: f3c2 f3bd 97b9 43be 4e54 2abd ab3b a2bb
00000080: bf3f 0cbb bd44 c2bd c819 b7be 67c6 b33d
00000090: 316f 9cbe a506 d7bd cdde dc3d e8f8 92bc
000000a0: 7199 f43d 23af c8be eb03 7fbe 7750 93bd
000000b0: 3f20 0fbe 50e2 c3bc d3fe 39be c880 44bd
000000c0: e214 c93b b1eb 203d e243 a23d aee3 973d
000000d0: 1fdc 1fbe 230a 81be 5b74 88bd 3e12 e6bd
000000e0: 8bb2 42be a0ff c73a 657b 3ebe c74e 30be
000000f0: 0f66 11bd 5287 04bf dd92 bbbd cb1d 013c
00000100: 1761 aa3c a26f e0bd 2c95 2d3e cf6b 7f3d
00000110: c651 16bd 035a b3bd f9c0 a53d 844a 0bbc
00000120: e7f0 8abe d295 b1be 5050 763d 2f38 40be
00000130: f8ff 5cbd 3021 8abd 3f7f 163d d96c 813e
00000140: 3bdb b3bd fda3 e43d 5cd8 acbd 66cf 0abe
00000150: 3b2e 1ebe 9591 a1bd 0260 81be 30ac f03c
00000160: b3d9 adbd 5f30 3fbe 8b95 83bd dc4c f7bd
00000170: cd3c cc3e fccb 88be fb1b 14be c591 eebd
00000180: fa95 cfbd 9106 a6bd 244d 043e 497c a8bc
00000190: 054c 9abc 017c 723e ea85 a0bd cd7d 3abd
000001a0: 02e7 ac3d c16c 78be 24fa 42be e653 2ebe
000001b0: 140c db3d 7824 aebc 9115 ad3d decb 9f3c
000001c0: d377 d83c 044e 8bbe ac66 33be cd92 a5bd
000001d0: d115 9bbd 9972 26bd 872f 4d3d d438 6abb
000001e0: baa9 c1bd 4dd0 c8bd 6acd 6fbe 3cad 52bd
000001f0: b890 5fbe 2ad6 8d3d b0df 4dbe 5c6c 26be
00000200: fea0 bfbd bfc0 64bc f86d 38be c6df 01bd
00000210: fe17 6bbc fcab 0a3e a79b bebd 70e0 163a
00000220: 7520 693c 9e07 a93d 350d cc3d 6c0d 773c
00000230: 4004 a0bd 6f0d 42bd 04bd 3abd 5c88 18bd
00000240: 805d 023e 4161 103d 18fd 5bbd 1d9e 51bc
00000250: 2e12 7a3d c42c 1fbe 7d61 c63d b3c2 293e
00000260: 2e41 0cbd 30d7 023e b84f 473d b801 ab3d
00000270: 96e2 48bc 49eb b03d fd41 e3bd a728 babd
00000280: 214c abbb ad5d 123e bca6 fe3c be33 dc3d
00000290: 33c1 8ebc ceea 25bc 0772 dcbd 2ba3 223e
000002a0: 04d9 4fbd b83f f23d 75e9 1c3e 1e15 1e3c
000002b0: 18af b6bd c05f 2c3e 9a80 013e ef70 bdbc
000002c0: ae5c d33c 3312 bbbd ecbc 12bc fec8 193e
000002d0: a8df 3dbd e5d0 4ebd 83f4 db3d 3cfd b7bd
000002e0: e74e fe3d e454 ca3d 6ec0 6a3d 86a0 b93d
000002f0: 2863 48bc 86ce 513c fe72 fcbb 13ba a0bd
00000300: f83a b83d cf1c daba fb69 6abd 6c54 98bd
00000310: ffe7 e13c 6a3d a2bc 3417 233e 6030 a43d
00000320: 6c29 23be d3ac a2bd 2e60 c3bd 18e2 913d
00000330: 2608 85be 30b4 eabd 6955 da3d 1eb0 43bd
00000340: 9902 e1bd e6c2 76bd 9b81 30be 2e35 b1bd
00000350: 8f1e 6ebc 477e 4dbe e0b0 81bd 699a 72bc
00000360: 8f0d 43be 2b3a 10be b822 0bbe a1dc 63bd
00000370: 12c6 313e ca53 16be 977d 0fbd 3b9f 4fbd
00000380: 656e cc3b 2400 123d 93df 31bd 949f 11be
00000390: aad6 aebd 9197 f9bb d9f1 d2bd 632c 643d
000003a0: 730c 10bd cf55 8ebe dda9 fdbd 95e5 7fbc
000003b0: a56c 8d3d af0e db3c 4495 ca3b 0dd3 bbbd
000003c0: 2d3f bf3d 4b5e 003e ad3c a23d 4fcb 5e3d
000003d0: 76d4 ffbd f99d 95be 6102 33be cd20 a6bd
000003e0: 4e89 adbd f859 9ebb 52ed 6cbe fb66 adbd
000003f0: 572b 0dbe 98fb 1cbe ebe3 b63c dfb4 15be
