torch-rl/storage/Lstm-Customs-FourRoomsLava-11x11/status.pt (torch, 649173 bytes, 51 tensors)

image_conv.0.weight f4 [16, 3, 2, 2]
0.3886629 -0.22834739 -0.0032648605 -0.057530284 -0.03594297 0.09677835 -0.0067570307 0.1364989
0.040130746 -0.035346583 0.080067195 0.014240859 0.18216884 -0.07388575 0.060242433 -0.072804324
-0.14951505 -0.071917616 0.25606418 0.118803926 -0.10750442 -0.17434862 -0.04838647 -0.12451733
-0.12320095 -0.11861695 0.30807492 0.10131693 -0.5792649 -0.12677301 0.12907936 0.085736535
0.19054285 -0.26302278 -0.27447474 -0.13923728 0.1417509 -0.28000742 0.16079177 -0.13475783
0.3770287 -0.30697918 0.279989 -0.06848534 -0.15207909 0.1483833 -0.15323457 0.084900714
-0.1739597 -0.30514959 -0.2288773 -0.22650205 0.24182475 -0.044263028 0.3052326 0.18038483
-0.013516814 -0.19268577 0.17579223 0.089592375 -0.1433378 0.37897843 0.12288125 0.20748007
-0.20894013 -0.4848679 -0.09648897 -0.07217569 -0.21908084 -0.20485033 0.15704058 -0.06769199
0.41706452 -0.14058939 0.06651126 -0.056506876 0.093291916 -0.18959327 -0.12119737 0.20127185
-0.20297419 -0.21780798 0.0175556 -0.049192313 0.22106975 -0.24506707 -0.3043611 0.38532326
-0.03537953 0.10527444 0.088538155 -0.007931888 0.05799434 0.06933878 -0.19328493 -0.13696834
0.13611087 -0.19343795 -0.055634238 -0.11736558 0.394772 -0.1138896 0.1700882 0.013366967
-0.18660167 -0.24549785 0.277096 0.015073682 0.19844936 -0.0435067 0.04221803 0.16375096
0.14698756 -0.22347884 -0.12521608 0.18986462 0.2091264 0.1793361 -0.20891964 -0.20787618
-0.20230456 0.060194474 0.4960678 -0.26497442 0.07277389 0.058662217 -0.16080603 -0.38376895
0.16632621 0.26799875 -0.17927845 0.06264574 0.18815948 0.22795002 0.34774375 0.20628186
0.060736615 0.07510367 -0.23257248 -0.018052576 -0.1322769 -0.033615034 -0.17694406 0.10561285
-0.07307689 -0.29791808 0.07538791 -0.07564583 0.28581807 -0.14652966 -0.21763107 0.26305407
-0.03337308 -0.009917722 -0.2724747 -0.185796 -0.110731035 -0.1585722 0.33386055 -0.11578708
0.02082872 0.1643005 0.11398637 -0.07207936 -0.14938134 0.062589094 -0.10509236 -0.064858
-0.25829375 -0.15762237 -0.080916435 0.038390506 -0.051185824 0.047054563 0.26605964 0.16453813
0.19689004 0.009192439 -0.19970298 0.2256024 0.060055967 -0.010299813 0.0789386 0.19541349
-0.332749 0.29216915 -0.6552277 -0.24928428 -0.009802336 -0.15609111 0.10329133 -0.11111845
00000000: d3fe c63e e6d3 69be 45f7 55bb e0a4 6bbd
00000010: f038 13bd ba33 c63d 156a ddbb 5ec6 0b3e
00000020: 2360 243d 94c7 10bd 45fa a33d 7e52 693c
00000030: 788a 3a3e 6951 97bd c5c0 763d 6f1a 95bd
00000040: 791a 19be 8b49 93bd d81a 833e 794f f33d
00000050: 472b dcbd 7288 32be e430 46bd f102 ffbd
00000060: c850 fcbd 72ed f2bd ffbb 9d3e 407f cf3d
00000070: b44a 14bf c9d0 01be 612d 043e a396 af3d
00000080: aa1d 433e ecaa 86be f487 8cbe 3894 0ebe
00000090: 2627 113e 225d 8fbe 99a6 243e f5fd 09be
000000a0: e809 c13e 602c 9dbe b85a 8f3e 0b42 8cbd
000000b0: 9fba 1bbe cbf1 173e 86e9 1cbe 6de0 ad3d
000000c0: 7e22 32be 913c 9cbe d05e 6abe 27f0 67be
000000d0: e8a0 773e 264d 35bd 7347 9c3e cdb6 383e
000000e0: a175 5dbc 6b4f 45be e102 343e 357c b73d
000000f0: 25c7 12be 7609 c23e 2aa9 fb3d a875 543e
00000100: 67f4 55be 9b40 f8be 029c c5bd d9d0 93bd
00000110: ba56 60be 49c4 51be 3fcf 203e 19a2 8abd
00000120: 7b89 d53e aaf6 0fbe 0e37 883d c173 67bd
00000130: d50f bf3d bd24 42be 5436 f8bd 351a 4e3e
00000140: 77d8 4fbe 0e09 5fbe c3d0 8f3c e17d 49bd
00000150: 1c60 623e ddf2 7abe 38d5 9bbe 1749 c53e
00000160: 20ea 10bd 209a d73d 7e53 b53d c0f4 01bc
00000170: 798b 6d3d 7e01 8e3d 7cec 45be 6e41 0cbe
00000180: a660 0b3e 9914 46be bae0 63bd 5d5d f0bd
00000190: 8e1f ca3e f33e e9bd 9a2b 2e3e 2001 5b3c
000001a0: 8214 3fbe ca63 7bbe 87df 8d3e 9bf7 763c
000001b0: 4f36 4b3e 1534 32bd d0ec 2c3d 55ae 273e
000001c0: e883 163e a3d7 64be a538 00be df6b 423e
000001d0: 3b25 563e e2a3 373e 08ef 55be 7edd 54be
000001e0: ed28 4fbe 7b8e 763d 99fc fd3e baaa 87be
000001f0: 7a0a 953d cb47 703d 56aa 24be 5d7d c4be
00000200: 6b51 2a3e 2237 893e c594 37be 694c 803d
00000210: e1ac 403e bb6b 693e 780b b23e 8d3b 533e
00000220: f5c6 783d f4cf 993d 7b27 6ebe ffe2 93bc
00000230: 9873 07be ebaf 09bd d330 35be 8d4b d83d
00000240: 56a9 95bd b888 98be fa64 9a3d 33ec 9abd
00000250: bf56 923e df0b 16be aeda 5ebe 06af 863e
00000260: 36b2 08bd f17d 22bc ce81 8bbe 4e41 3ebe
00000270: f4c6 e2bd c060 22be c5ef aa3e c721 edbd
00000280: fea0 aa3c 643e 283e b071 e93d 589e 93bd
00000290: 6cf7 18be b62e 803d aa3a d7bd 45d4 84bd
000002a0: 143f 84be c267 21be 84b7 a5bd 5d3f 1d3d
000002b0: 3aa8 51bd 49bc 403d f838 883e af7c 283e
000002c0: 8b9d 493e e29b 163c f07e 4cbe 5104 673e
000002d0: 3ffd 753d 8cc0 28bc 90aa a13d 791a 483e
000002e0: 145e aabe 3297 953e 01bd 27bf 6144 7fbe
000002f0: fa99 20bc 59d6 1fbe 688a d33d 1292 e3bd

image_conv.0.bias f4 [16]
-0.28304157 -0.042183332 -0.014794332 -0.14010194 0.03044085 0.07022424 0.024973052 -0.35211822
-0.010018976 -0.44836032 -0.034722444 -0.34491423 0.023041828 -0.12167207 -0.18295412 -0.026179379
00000000: d3ea 90be 6ec8 2cbd ed63 72bc e276 0fbe
00000010: 175f f93c bad1 8f3d 4994 cc3c d748 b4be
00000020: a226 24bc 7c8f e5be 1f39 0ebd 9998 b0be
00000030: 37c2 bc3c 352f f9bd 5358 3bbe 2376 d6bc

image_conv.3.weight f4 [32, 16, 2, 2]
-0.08902404 0.14474845 -0.31006595 -0.15208583 -0.22081815 0.1480486 -0.21398738 -0.10832102
0.0906285 -0.13591932 -0.17295817 -0.052524723 -0.25682738 0.07009923 -0.3157947 -0.21079189
-0.03901753 -0.13552734 -0.10503747 -0.07732998 0.029491557 0.14149068 -0.080404595 -0.22285175
0.11788962 -0.022122726 -0.104173854 -0.08286103 -0.36645263 0.13161798 -0.28687873 -0.4404129
-0.25079277 -0.031512864 -0.12956515 -0.056190334 -0.2902545 0.03213175 -0.45452157 -0.29561666
-0.22563234 0.14357737 0.08831417 -0.13177703 -0.13227305 0.05283944 -0.17680083 -0.12686618
0.06165496 -0.018521281 -0.13352388 -0.04772271 0.07439356 0.116088495 -0.061565872 -0.020935433
-0.0010382009 -0.08600342 -0.1434743 -0.32382104 0.07570222 -0.29603773 0.17619848 -0.07460385
-0.07616185 0.2262643 -0.18328793 -0.25599548 -0.14391413 -0.08389028 -0.18459238 -0.01902418
-0.029091304 -0.10619187 0.05814457 -0.004182741 -0.10806597 -0.1338242 -0.20075765 0.038741156
-0.10099898 -0.07276048 -0.09247105 -0.055569373 -0.085662745 -0.3221403 -0.04943093 -0.08398488
-0.20752537 0.15249643 -0.19464904 -0.20628738 -0.06888193 0.06493643 -0.0050860113 -0.18779545
-0.09358984 -0.10982354 -0.22226161 0.06720656 -0.012226849 0.09475077 -0.08612123 -0.10051652
-0.13945447 -0.0344689 -0.012183253 -0.2516676 -0.13594143 0.104336984 -0.05859954 -0.07666286
-0.053012192 -0.08910737 -0.046026953 -0.011863246 -0.08541361 -0.05704273 -0.16443978 -0.12459161
-0.13264512 -0.09945664 -0.027575213 0.008158036 -0.12947938 -0.4383705 0.023914734 -0.028723188
-0.047812793 -0.11717682 0.048290137 0.044107303 -0.068859994 -0.1418254 -0.16575496 0.0893597
-0.01662541 -0.04996423 -0.06863012 -0.009576499 -0.14116701 -0.12300293 0.040262185 0.017980652
-0.13546678 -0.07408169 -0.06570725 -0.07685615 -0.036579758 -0.08591347 -0.05896238 -0.1116606
-0.19455907 -0.20754108 -0.052953742 -0.0032273892 -0.030613787 0.064230084 -0.16384058 -0.04904553
-0.0117187025 -0.07154545 -0.17737079 0.05083367 -0.036242492 -0.03662107 0.019529348 0.028408818
-0.1913547 0.040102098 -0.06302156 -0.02161012 -0.17975374 -0.167283 0.022781026 0.014066323
-0.14411825 0.07345313 0.014690588 0.070021234 -0.06864184 0.0011570536 -0.050515313 0.056202002
0.025598329 -0.07603163 0.10910936 0.05450566 0.109597154 0.013046172 0.037267067 0.13647044
-0.15688315 0.07908998 -0.08610073 -0.12634923 -0.10128878 -0.21415107 -0.124791816 -0.18320736
-0.0075777993 -0.03291154 -0.10336758 -0.015590114 0.0055474676 -0.1291058 0.0111055095 -0.05830981
-0.19027303 0.06338622 -0.11962538 -0.14148937 -0.15883638 0.10558994 -0.03805583 0.06540259
-0.052989744 0.01070012 -0.12506448 -0.19295073 0.03721038 -0.005963565 0.0031440686 -0.15530968
-0.03163423 -0.034928698 0.014019169 -0.21461245 0.02367427 -0.03555058 0.03239949 0.025713656
-0.10578176 0.09721356 -0.110762894 0.006209896 -0.012441298 0.02616995 -0.11515087 0.0034625444
-0.15655005 -0.1408076 -0.039124735 0.05615746 0.061281122 -0.03289022 0.05425866 0.012689991
-0.159665 -0.18620607 -0.02057224 -0.12091439 -0.07627394 -0.1085969 -0.038547207 -0.010462101
00000000: 3c52 b6bd f038 143e f7c0 9ebe 63bc 1bbe
00000010: 271e 62be 0d9a 173e 821f 5bbe 69d7 ddbd
00000020: 6f9b b93d 6f2e 0bbe f21b 31be 2a24 57bd
00000030: e17e 83be 2f90 8f3d d8af a1be d4d9 57be
00000040: d8d0 1fbd aec7 0abe e31d d7bd 2e5f 9ebd
00000050: 4798 f13c efe2 103e 2aab a4bd 4033 64be
00000060: 1d70 f13d b83a b5bc 1a59 d5bd 0bb3 a9bd
00000070: ae9f bbbe ddc6 063e c5e1 92be cd7d e1be
00000080: e967 80be a213 01bd baac 04be d627 66bd
00000090: 3d9c 94be 959c 033d 0db7 e8be 115b 97be
000000a0: 2a0c 67be f205 133e 0fde b43d 8ff0 06be
000000b0: 9672 07be 2b6e 583d 470b 35be 35e9 01be
000000c0: e989 7c3d f1b9 97bc 7cba 08be e378 43bd
000000d0: a75b 983d cebf ed3d 7f2c 7cbd c980 abbc
000000e0: 3e14 88ba 9022 b0bd edea 12be dfcb a5be
000000f0: c409 9b3d 4292 97be 606d 343e e7c9 98bd
00000100: befa 9bbd d4b1 673e d5af 3bbe d711 83be
00000110: 3a5e 13be abce abbd c905 3dbe 99d8 9bbc
00000120: e350 eebc 207b d9bd 0029 6e3d 600f 89bb
00000130: b151 ddbd 3609 09be 6a93 4dbe 0caf 1e3d
00000140: 8ed8 cebd 7203 95bd 7661 bdbd b69c 63bd
00000150: f36f afbd 93ef a4be 1678 4abd 4400 acbd
00000160: 8881 54be 0628 1c3e 1452 47be 003d 53be
00000170: f811 8dbd 64fd 843d 8ea8 a6bb 734d 40be
00000180: 08ac bfbd 2aeb e0bd 8c98 63be 98a3 893d
00000190: 1f53 48bc b10c c23d 5460 b0bd 9bdb cdbd
000001a0: 27cd 0ebe 432f 0dbd 449c 47bc 93da 80be
000001b0: 3b34 0bbe a1ae d53d 1206 70bd 6b01 9dbd
000001c0: 5023 59bd ed7d b6bd c286 3cbd 0f5e 42bc
000001d0: 55ed aebd a3a5 69bd e762 28be e329 ffbd
000001e0: 1fd4 07be ecaf cbbd 6ae5 e1bc 48a9 053c
000001f0: 3e96 04be 1972 e0be d5e8 c33c e44c ebbc
00000200: 59d7 43bd 67fa efbd e1cb 453d dca9 343d
00000210: 7806 8dbd ad3a 11be abbb 29be 3802 b73d
00000220: 0332 88bc 4ba7 4cbd f38d 8cbd c0e6 1cbc
00000230: 168e 10be f6e8 fbbd f6e9 243d 294c 933c
00000240: ceb7 0abe 24b8 97bd 8691 86bd c266 9dbd
00000250: a8d4 15bd 67f3 afbd 8982 71bd 50ae e4bd
00000260: 7e3a 47be a685 54be 06e6 58bd 9b82 53bb
00000270: c4c9 fabc 108b 833d d3c5 27be f7e3 48bd
00000280: cdff 3fbc 6c86 92bd b0a0 35be f736 503d
00000290: 0273 14bd faff 15bd 03fc 9f3c 9cb9 e83c
000002a0: 7df2 43be 1942 243d 7311 81bd b507 b1bc
000002b0: 5d11 38be 3c4c 2bbe 469f ba3c 6f76 663c
000002c0: bc93 13be 986e 963d cbb0 703c 4b67 8f3d
000002d0: 1894 8cbd 47a8 973a 25e9 4ebd 1234 663d
000002e0: 96b3 d13c 79b6 9bbd ba74 df3d 5441 5f3d
000002f0: 7974 e03d 9dbf 553c 5aa5 183d e8be 0b3e
00000300: faa5 20be edf9 a13d 9455 b0bd b161 01be
00000310: 7e70 cfbd 6b4a 5bbe da92 ffbd b69a 3bbe
00000320: 304f f8bb 40ce 06bd 62b2 d3bd ad6d 7fbc
00000330: 88c7 b53b 5034 04be e2f3 353c 44d6 6ebd
00000340: efd6 42be a2d0 813d 27fe f4bd 97e2 10be
00000350: 01a6 22be 8a3f d83d 6ee0 1bbd cbf1 853d
00000360: c60b 59bd 8e4f 2f3c e710 00be e094 45be
00000370: e969 183d 026a c3bb b80c 4e3b 8009 1fbe
00000380: e592 01bd 6511 0fbd a8b0 653c 5ec3 5bbe
00000390: 8bf0 c13c 7c9d 11bd 54b5 043d 72a5 d23c
000003a0: 1ba4 d8bd e717 c73d a8d7 e2bd 627c cb3b
000003b0: 96d6 4bbc 5d62 d63c 38d4 ebbd dbeb 623b
000003c0: a84e 20be de2f 10be 4241 20bd 5d05 663d
000003d0: ea01 7b3d e5b7 06bd 543e 5e3d aee9 4f3c
000003e0: 397f 23be ceac 3ebe 1d87 a8bc f7a1 f7bd
000003f0: 8335 9cbd 0d68 debd ade3 1dbd 3b69 2bbc

image_conv.3.bias f4 [32]
-0.048158363 -0.12194526 -0.08096282 -0.15520291 -0.123774864 -0.07229728 -0.1696551 -0.057683855
-0.09766911 0.00962788 -0.057798244 0.09029882 -0.14226459 -0.13082108 -0.003351965 -0.020860549
0.05208803 0.012949354 0.1376408 -0.18900204 -0.07137084 -0.010505026 0.032386266 -0.066364504
-0.054440316 0.023442293 -0.090950005 -0.036043495 -0.21658714 -0.037927438 -0.040531915 0.009141129
00000000: b441 45bd 70be f9bd d6cf a5bd 83ed 1ebe
00000010: ad7d fdbd 9910 94bd 11ba 2dbe e845 6cbd
00000020: be06 c8bd 41be 1d3c dabd 6cbd 96ee b83d
00000030: cfad 11be f6f5 05be a4ac 5bbb bee3 aabc
00000040: 425a 553d 8729 543c b6f1 0c3e c089 41be
00000050: e02a 92bd 461d 2cbc 76a7 043d 1dea 87bd
00000060: cffc 5ebd 0d0a c03c ff43 babd 58a2 13bd
00000070: 05c9 5dbe cd59 1bbd cb04 26bd adc4 153c

image_conv.5.weight f4 [64, 32, 2, 2]
0.06739057 -0.06024659 -0.037321966 -0.013192142 0.0023109026 0.05730945 -0.010236991 0.012351475
-0.03271124 0.01836207 -0.010234957 -0.09815791 0.04587157 -0.019357374 0.068845585 -0.08920179
-0.008774373 0.039938364 0.055713683 0.0011490074 -0.038972143 -0.07022392 -0.0510419 0.07116709
-0.08108418 -0.039860733 0.03825202 0.042104106 -0.077316865 0.017524006 0.010685764 0.081123084
-0.008575089 0.026493698 -0.0139728915 0.06327147 -0.012520517 -0.054796137 0.010474326 -0.048593365
0.011687008 0.034491137 -0.07759762 -0.080461174 -0.003729944 -0.0078903595 -0.031167218 0.06915753
0.037132293 -0.03216523 0.008885778 -0.018571733 -0.06684865 0.030611064 -0.06526487 0.0042236983
0.051305797 -0.08760338 -0.0072009894 0.06749482 0.02872526 -0.05414046 0.0046890727 -0.08980024
9.156278e-05 0.05347919 0.048737306 -0.029534537 0.031713933 -0.014669379 -0.024412727 -0.010466837
-0.068554394 0.0014853289 0.030933235 -0.04846161 -0.035753783 -0.074148886 -0.0071555316 0.021644464
0.071371816 -0.107611366 -0.07916059 -0.016363729 0.07315975 -0.0013141389 0.012210332 0.0019910273
-0.011587588 0.06417115 0.06369468 -0.05208577 -0.0982525 -0.14917324 -0.08931083 -0.12726277
0.0683706 -0.09309153 0.058474157 -0.052840926 0.001471084 -0.0018489398 0.011200533 -0.0816279
-0.06836969 0.0020271686 0.04808079 -0.04252386 0.02029706 -0.06509429 -0.104487844 -0.027460115
-0.030782608 0.0060556084 0.016274974 -0.003250181 0.05007848 -0.07092044 -0.09277015 0.0013370013
0.01458669 -0.12745647 0.050409794 -0.05906067 -0.08003544 0.042162105 0.05902361 0.00036046832
-0.03814187 0.005687115 -0.075109325 0.04546688 0.055487875 -0.021760494 -0.07007339 0.059803408
-0.088822 -0.0464147 0.036210954 -0.04392769 0.016833967 0.07265336 -0.011173709 -0.019993559
0.0819325 0.015098834 0.030829946 -0.029044615 -0.0982067 0.013837063 -0.07420298 -0.045713115
-0.07888679 0.06678915 -0.06570856 0.0152040785 0.011692887 0.06104815 0.04177704 -0.061882026
0.031155271 -0.055085573 -0.004781583 -0.039620373 -0.087496825 0.02141703 -0.07080098 0.084662996
0.03562161 -0.030573703 -0.051759217 -0.08146734 -0.044563442 -0.06545466 0.009504535 0.01304041
0.07665121 0.005814388 -0.017954683 -0.0420715 -0.012433457 0.04559425 -0.08522543 -0.08641986
0.041179966 -0.037482392 -0.01985356 -0.06457605 -0.0836162 -0.08484982 -0.07855916 -0.1056479
-0.06697949 -0.004013369 -0.07434948 -0.0047804695 -0.079472855 0.00829096 -0.012383317 -0.07161409
-0.026598267 0.055230495 -0.06868255 0.057545282 -0.009297374 -0.02794844 0.043631207 0.06909644
0.069337614 0.045179587 -0.08595269 -0.02387948 -0.0029185917 -0.05222097 0.02876886 -0.029119309
-0.07614787 -0.042548254 -0.05700969 0.027215391 -0.12355161 -0.07196196 -0.050141014 -0.014208098
-0.07274565 0.0529305 -0.06148819 -0.07722241 0.030080706 -0.07337285 0.05808124 0.0066642063
-0.04290132 -0.027336884 -0.040405676 -0.0078089386 -0.00021306286 -0.02976461 -0.057760064 -0.10139693
-0.05652539 -0.028000407 0.009063206 -0.06284364 -0.014325661 -0.008581729 0.0632469 -0.089246534
-0.039373197 -0.017346105 -0.014517018 -0.058451727 0.03190451 -0.033224043 -0.0030105452 -0.050282463
00000000: 1104 8a3d 21c5 76bd ebde 18bd db23 58bc
00000010: 8372 173b 50bd 6a3d 0db9 27bc d75d 4a3c
00000020: 39fc 05bd 0d6c 963c 85b0 27bc 0407 c9bd
00000030: d4e3 3b3d 5b93 9ebc eafe 8c3d 6eaf b6bd
00000040: 63c2 0fbc 6996 233d 0834 643d 4a9a 963a
00000050: 41a1 1fbd 8fd1 8fbd 5011 51bd 0dc0 913d
00000060: 760f a6bd 0245 23bd 26ae 1c3d 5b75 2c3d
00000070: 4e58 9ebd 818e 8f3c 5813 2f3c dc23 a63d
00000080: 887e 0cbc 5009 d93c 8eee 64bc 7994 813d
00000090: db22 4dbc ea71 60bd 829c 2b3c d609 47bd
000000a0: dd7a 3f3c 9446 0d3d 80eb 9ebd d4c8 a4bd
000000b0: 1372 74bb 9146 01bc 6552 ffbc 77a2 8d3d
000000c0: 0818 183d b0bf 03bd a795 113c bf23 98bc
000000d0: f2e7 88bd 0ec4 fa3c 97a9 85bd f366 8a3b
000000e0: 0726 523d 6769 b3bd 47f6 ebbb b93a 8a3d
000000f0: 3d51 eb3c 63c2 5dbd cba6 993b 30e9 b7bd
00000100: 6505 c038 ff0c 5b3d c5a0 473d 6af2 f1bc
00000110: 78e6 013d d657 70bc 33fd c7bc 197d 2bbc
00000120: 3f66 8cbd 5eaf c23a b267 fd3c ae7f 46bd
00000130: 8f72 12bd 5fdb 97bd f378 eabb bb4f b13c
00000140: 632b 923d 5963 dcbd f31e a2bd 3a0d 86bc
00000150: c7d4 953d 2f3f acba d80d 483c e57b 023b
00000160: ded9 3dbc 2a6c 833d 5b72 823d e357 55bd
00000170: 9b38 c9bd dfc0 18be 99e8 b6bd 2c51 02be
00000180: e305 8c3d c6a6 bebd 9982 6f3d ba6f 58bd
00000190: 63d1 c03a 2058 f2ba 7182 373c 872c a7bd
000001a0: 6805 8cbd 3fda 043b 5df0 443d 802d 2ebd
000001b0: 0546 a63c 2850 85bd b9fd d5bd 09f4 e0bc
000001c0: cf2b fcbc 206e c63b 1853 853c fd00 55bb
000001d0: 181f 4d3d bc3e 91bd 47fe bdbd 523e af3a
000001e0: 03fd 6e3c f383 02be 807a 4e3d 9ae9 71bd
000001f0: 9fe9 a3bd 2cb2 2c3d bec2 713d 3dfd bc39
00000200: a63a 1cbd fa5a ba3b ebd2 99bd 7b3b 3a3d
00000210: 4147 633d 1043 b2bc a382 8fbd 6bf4 743d
00000220: 4fe8 b5bd 571d 3ebd f051 143d 85ed 33bd
00000230: 63e7 893c 49cb 943d ef11 37bc 88c9 a3bc
00000240: 3acc a73d 1a61 773c 158f fc3c f9ee edbc
00000250: 9820 c9bd d9b4 623c bbf7 97bd ad3d 3bbd
00000260: 668f a1bd c0c8 883d 3692 86bd 871a 793c
00000270: 8693 3f3c a00d 7a3d 671e 2b3d 0278 7dbd
00000280: 5739 ff3c 69a1 61bd d3ae 9cbb f948 22bd
00000290: 8931 b3bd c472 af3c 1b00 91bd cb63 ad3d
000002a0: f7e7 113d b475 fabc 7901 54bd 59d8 a6bd
000002b0: 2888 36bd 180d 86bd e9b8 1b3c 72a7 553c
000002c0: 4ffb 9c3d 9f86 be3b b315 93bc 2a53 2cbd
000002d0: b3b5 4bbc 09c1 3a3d ac8a aebd e5fc b0bd
000002e0: 53ac 283d 2387 19bd efa3 a2bc 7340 84bd
000002f0: f83e abbd bec5 adbd a0e3 a0bd ed5d d8bd
00000300: 8b2c 89bd 9482 83bb 8a44 98bd 7ca5 9cbb
00000310: aac2 a2bd cfd6 073c 65e3 4abc 68aa 92bd
00000320: 9ce4 d9bc 5f39 623d 70a9 8cbd 9ab4 6b3d
00000330: 0354 18bc 20f4 e4bc a3b6 323d 6f82 8d3d
00000340: e100 8e3d 3b0e 393d f707 b0bd e69e c3bc
00000350: d845 3fbb a8e5 55bd acac eb3c 9e8b eebc
00000360: 6af3 9bbd 1447 2ebd fe82 69bd d0f2 de3c
00000370: a008 fdbd cb60 93bd aa60 4dbd 15c9 68bc
00000380: acfb 94bd a7cd 583d 0adb 7bbd c826 9ebd
00000390: d06b f63c 8144 96bd 98e6 6d3d 6a5f da3b
000003a0: 4bb9 2fbd 9af1 dfbc 6c80 25bd 20e2 ffbb
000003b0: a069 5fb9 e9d4 f3bc d195 6cbd 32a9 cfbd
000003c0: 2b87 67bd 1c61 e5bc d77d 143c 2bb4 80bd
000003d0: 2db6 6abc 619a 0cbc 9787 813d e3c6 b6bd
000003e0: ca45 21bd 6b19 8ebc c9d8 6dbc 146b 6fbd
000003f0: 4eae 023d ef15 08bd 914c 45bb fcf4 4dbd

image_conv.5.bias f4 [64]
0.0031461706 -0.02745333 -0.009610356 -0.018480968 0.09539075 -0.033728674 -0.03564994 -0.07970695
-0.005225501 -0.06548881 0.044670343 0.15684211 -0.064038515 -0.052651484 -0.004026068 -0.043941222
-0.038756393 0.087455735 -0.027441118 0.053218894 -0.120664574 0.0028301901 -0.14961554 -0.098341934
0.020494461 -0.011542197 -0.020897148 -0.047433455 0.045626458 -0.14272109 0.007855215 -0.064088635
0.0130539825 -0.106449716 0.03795399 -0.047802225 -0.120916486 -0.07564963 -0.013600593 -0.0042016604
-0.032636136 -0.024014346 -0.06813708 -0.0439647 -0.015713511 0.022641096 -0.024425287 0.027395602
-0.037183825 -0.052603055 -0.0825453 -0.06359814 0.035875663 0.010040355 -0.095424764 0.06066196
-0.1496269 0.005480059 -0.03372945 -0.036807273 -0.08071607 -0.0901928 0.019563448 -0.07990026
00000000: fc2f 4e3b cee5 e0bc c174 1dbc 6665 97bc
00000010: 3a5c c33d 1427 0abd ac05 12bd 663d a3bd
00000020: ae3a abbb ff1e 86bd 40f8 363d 389b 203e
00000030: a026 83bd 15a9 57bd 1bed 83bb b6fb 33bd
00000040: 06bf 1ebd fe1b b33d 32cc e0bc 0efc 593d
00000050: fd1e f7bd b67a 393b d134 19be 7f67 c9bd
00000060: 00e4 a73c 7c1b 3dbc 7f30 abbc 9549 42bd
00000070: cfe2 3a3d 7a25 12be 29b3 003c e740 83bd
00000080: 5fe0 553c 4f02 dabd a575 1b3d 44cc 43bd
00000090: 10a3 f7bd 31ee 9abd 06d5 5ebc 15ae 89bb
000000a0: 78ad 05bd bcb9 c4bc 748b 8bbd 5414 34bd
000000b0: 9fb9 80bc d279 b93c 8a17 c8bc be6c e03c
000000c0: 114e 18bd 4d76 57bd 830d a9bd be3f 82bd
000000d0: 5cf2 123d 4d80 243c 0f6e c3bd ad78 783d
000000e0: cb37 19be 1192 b33b e427 0abd 39c3 16bd
000000f0: 784e a5bd 01b7 b8bd 8643 a03c bfa2 a3bd

memory_rnn.weight_ih f4 [256, 64]
-0.049179014 -0.10184071 -0.21292965 -0.14441262 -0.17221412 -0.02097169 -0.159643 -0.06006823
0.119905844 -0.036659293 -0.13679136 0.3559085 -0.063527614 -0.02952634 0.04608763 -0.0014126184
-0.19826807 0.06506505 0.012427441 -0.20346534 -0.10364139 -0.091966294 -0.1575955 -0.03901377
-0.18004201 -0.19615367 -0.027316108 -0.037999325 0.0021675432 -0.075660266 -0.16067804 -0.108288094
0.017490327 -0.024831355 0.06888551 -0.11554699 -0.095793076 -0.20091963 0.12035628 -0.001084737
0.05435258 -0.027429057 -0.18075426 0.03719903 -0.066174656 0.10891195 0.15239795 -0.23378295
0.096501246 -0.05081016 0.06499696 -0.094277784 0.049739283 -0.0053691193 -0.06430594 -0.0061739623
-8.3547864e-05 -0.12268381 0.06663559 -0.22395892 -0.111682 -0.013253204 -0.12103828 -0.05455281
0.021777678 0.11324667 -0.21178478 0.0387193 -0.17425315 0.08609161 -0.13859509 -0.042781524
0.03507038 0.10182038 -0.23207998 -0.16943124 0.12965225 -0.04222372 0.09388197 0.07268922
-0.13883702 -0.13077305 0.050171155 -0.13185515 -0.060864627 -0.16250445 0.0747764 -0.095714375
0.026290223 -0.21731383 0.023081614 -0.12000487 -0.15012947 -0.103652276 0.012206342 -0.17608447
0.12732711 -0.10276968 0.086282484 -0.100296855 -0.13854232 -0.07786766 -0.082665175 0.045622855
0.21587402 -0.05808084 -0.06551533 0.00029222693 0.09540487 0.100425385 0.0019497864 -0.035419308
0.081911385 -0.07145369 0.08643756 -0.07257893 0.001110236 -0.11758386 -0.12349139 0.054776788
0.10490394 -0.06888263 -0.07087381 -0.10339147 0.048527956 0.0051701646 -0.04582966 -0.014694579
0.08986243 -0.090073764 -0.035983667 -0.019569306 0.079375006 0.09534408 0.20375855 -0.123212405
0.042243436 0.014772189 0.044144955 0.08937792 -0.08895626 -0.17405406 0.02390432 -0.11988182
0.11893597 -0.062116686 -0.07761383 -0.17670399 -0.081637986 -0.0005477153 0.020529198 -0.022412162
0.062300637 0.06297145 -0.03593477 -0.13305989 -0.15733333 0.0241196 -0.115333885 0.06755129
-0.054107483 0.06581827 -0.07870771 0.11431826 -0.000336669 -0.012092843 -0.12135462 -0.06368986
0.12787591 0.007148398 -0.11316083 0.089119874 0.038399667 0.07085269 0.012239706 -0.22783826
-0.0007094822 -0.12715957 0.07190542 -0.052569285 0.06867294 0.10195009 0.042223796 0.05010978
-0.08224227 0.055364035 -0.02821257 -0.2070467 -0.043824237 -0.10129789 -0.09211564 0.085628
0.08933674 0.107980885 0.1149072 0.20153767 -0.13635436 -0.07469327 -0.006518699 0.049871463
-0.04855843 -0.036954768 -0.02712216 0.21194431 -0.038365047 0.16842848 0.104641065 -0.060708366
0.21960197 -0.17821474 0.034162838 -0.092364244 -0.028905844 0.04685494 -0.07254439 0.110768765
-0.2558452 0.06188499 0.099446006 0.017713305 -0.083687074 -0.13683023 -0.015583041 -0.092860125
-0.18973166 -0.10490633 0.09833098 -0.11290724 0.031196631 -0.025836477 -0.00046498823 0.08713026
-0.025716295 0.12084914 -0.028164731 0.10215344 -0.12132776 -0.04829956 0.048344288 -0.07066298
0.124291606 -0.07684843 0.029025102 -0.0035918746 -0.07382242 -0.008520849 0.18131629 -0.07802211
0.11614269 0.08722739 0.074827105 -0.36878726 0.08704522 0.122746214 0.067861035 -0.1672258
00000000: ef6f 49bd dd91 d0bd 3b0a 5abe e7e0 13be
00000010: e658 30be d2cc abbc 7479 23be 1b0a 76bd
00000020: 3291 f53d 0e28 16bd 0913 0cbe a439 b63e
00000030: c41a 82bd 39e1 f1bc 62c6 3c3d 9c27 b9ba
00000040: c906 4bbe d340 853d 779c 4b3c 3859 50be
00000050: f041 d4bd d358 bcbd b760 21be e7cc 1fbd
00000060: ef5c 38be 82dc 48be 08c6 dfbc 2ea5 1bbd
00000070: 570d 0e3b c5f3 9abd c988 24be 26c6 ddbd
00000080: e047 8f3c 206b cbbc d913 8d3d e6a3 ecbd
00000090: 292f c4bd e0bd 4dbe 5a7d f63d bc2d 8eba
000000a0: d0a0 5e3d e7b2 e0bc a517 39be 035e 183d
000000b0: 9486 87bd 3a0d df3d 350e 1c3e cc64 6fbe
000000c0: 72a2 c53d 501e 50bd 201d 853d b614 c1bd
000000d0: 6bbb 4b3d 70ef afbb d5b2 83bd f34e cabb
000000e0: 6b36 afb8 a641 fbbd 3d78 883d 7d55 65be
000000f0: 88b9 e4bd f723 59bc ebe2 f7bd c472 5fbd
00000100: 1a67 b23c dfed e73d 1cde 58be 2198 1e3d
00000110: 6b6f 32be cc50 b03d dfeb 0dbe ae3b 2fbd
00000120: f5a5 0f3d 3487 d03d 60a6 6dbe 627f 2dbe
00000130: 8fc3 043e c8f2 2cbd 3145 c03d 16de 943d
00000140: 4b2b 0ebe 5fe9 05be 4580 4d3d 0905 07be
00000150: 304d 79bd 9167 26be 5f24 993d e605 c4bd
00000160: 985e d73c 8487 5ebe a715 bd3c 1dc5 f5bd
00000170: 8abb 19be a547 d4bd 1cfd 473c 7d4f 34be
00000180: 0a62 023e e978 d2bd dfb4 b03d 7068 cdbd
00000190: 0ade 0dbe 1479 9fbd 5c4c a9bd 08df 3a3d
000001a0: 140e 5d3e 2de6 6dbd e72c 86bd 0936 9939
000001b0: a163 c33d d3ab cd3d fa8f ff3a d613 11bd
000001c0: 28c1 a73d 5056 92bd 2d06 b13d 43a4 94bd
000001d0: 5785 913a cfcf f0bd 0ee9 fcbd a05d 603d
000001e0: e0d7 d63d 5612 8dbd 4a26 91bd e8be d3bd
000001f0: 40c5 463d 7c6a a93b e2b7 3bbd 88c1 70bc
00000200: cb09 b83d 9878 b8bd 9c63 13bd cf4f a0bc
00000210: 5d8f a23d c243 c33d 15a6 503e c956 fcbd
00000220: 7407 2d3d 0d07 723c 57d1 343d c50b b73d
00000230: b32e b6bd 3a3b 32be fed2 c33c 9a84 f5bd
00000240: b494 f33d 116e 7ebd 00f4 9ebd e4f1 34be
00000250: d131 a7bd 8d94 0fba d92c a83c b699 b7bc
00000260: f42e 7f3d 2df7 803d 5630 13bd da40 08be
00000270: fd1b 21be 7896 c53c 2c34 ecbd 5558 8a3d
00000280: cf9f 5dbd bbcb 863d 8231 a1bd b11f ea3d
00000290: f382 b0b9 0f21 46bc c588 f8bd d46f 82bd
000002a0: e7f1 023e 1c3d ea3b dec0 e7bd 7b84 b63d
000002b0: f848 1d3d 371b 913d 0c89 483c 6f4e 69be
000002c0: 8bfc 39ba 1e36 02be 2643 933d e452 57bd
000002d0: 66a4 8c3d 35cb d03d dcf2 2c3d ea3f 4d3d
000002e0: a36e a8bd 66c5 623d 0c1e e7bc 0d04 54be
000002f0: 0b81 33bd 4575 cfbd 20a7 bcbd bc5d af3d
00000300: 2ef6 b63d 1525 dd3d 7754 eb3d e45f 4e3e
00000310: 7aa0 0bbe c9f8 98bd d09a d5bb 0546 4c3d
00000320: 34e5 46bd e25d 17bd 4b2f debc ee07 593e
00000330: ab24 1dbd 8478 2c3e 0e4e d63d 56a9 78bd
00000340: 57df 603e ed7d 36be 55ee 0b3d 7729 bdbd
00000350: f3cb ecbc f7ea 3f3d 2792 94bd bcda e23d
00000360: 24fe 82be 1e7b 7d3d 59aa cb3d 7e1b 913c
00000370: 2164 abbd 391d 0cbe 0350 7fbc 732d bebd
00000380: 0449 42be 21d9 d6bd c161 c93d e93b e7bd
00000390: 1490 ff3c 05a7 d3bc aac9 f3b9 5a71 b23d
000003a0: fbaa d2bc c17f f73d b9b9 e6bc d335 d13d
000003b0: b07a f8bd c2d5 45bd a904 463d c1b7 90bd
000003c0: 998c fe3d b662 9dbd 0dc6 ed3c a865 6bbb
000003d0: 3530 97bd 089b 0bbc faaa 393e 0eca 9fbd
000003e0: 38dc ed3d 46a4 b23d f43e 993d afd1 bcbe
000003f0: c444 b23d 5e62 fb3d bafa 8a3d 3d3d 2bbe

memory_rnn.weight_hh f4 [256, 64]
-0.2415186 0.32092115 0.48334485 -0.009718103 -0.07341848 0.13821734 -0.18730704 0.012805955
-0.110070996 -0.11163912 0.14843966 0.12608829 -0.065074705 0.13092194 0.016634727 0.049911853
-0.121617295 -0.043362282 0.031155664 -0.29142588 -0.03220143 -0.13103473 0.07676819 0.009409515
-0.27992558 -0.24668922 0.026329773 -0.20283563 0.19745259 0.024818756 -0.007202881 0.059130736
0.16308889 0.014522641 0.17919259 -0.21090087 0.06037135 -0.1724594 -0.15996405 -0.08307832
0.0031445052 -0.029202424 0.06858853 0.062658206 0.17602104 0.054948803 0.05841206 0.17838708
-0.084405534 -0.029827112 0.14273971 -0.00383102 0.01161153 0.14054468 -0.17668743 0.119861506
-0.21459012 0.035698377 0.029880553 0.13444611 -0.1228561 0.120127186 0.09642152 0.10522339
0.029393699 -0.19117804 0.12810159 -0.13810986 0.08580221 0.10066296 0.42619106 -0.118556246
0.17506917 -0.20160052 -0.12579632 -0.05923172 0.24126661 0.19118622 -0.18899694 -0.06644753
-0.3628026 0.10994768 0.0997114 0.026048966 0.055322967 0.16735317 0.012056644 0.33759978
0.2154038 0.08316286 0.015464568 -0.1604965 -0.07353571 0.21917799 0.08087818 0.03393427
0.25636694 -0.11833175 0.22159989 -0.004655893 -0.06109428 -0.2812173 0.17887062 0.107013464
-0.22153604 0.08351278 -0.3242507 -0.13596526 0.22916643 0.27190062 -0.1561699 -0.024681795
-0.006711936 -0.105241485 -0.06441282 -0.07883132 -0.0871608 -0.014674396 -0.28495023 0.18049729
-0.12108585 -0.021012543 -0.11294307 -0.054615032 -0.013255572 0.07680563 0.1855901 0.109562285
-0.11526262 0.098569386 0.15313354 -0.10691835 -0.13747342 0.048120867 0.16750383 -0.10928639
0.06982039 -0.06872104 -0.06211437 -0.06623539 0.24927954 0.08674754 0.07798603 -0.027428465
-0.19510832 -0.11787429 -0.13881572 -0.14977615 -0.07204604 0.027040562 -0.07842578 -0.044503935
-0.14868683 -0.099030085 -0.09805511 -0.19740082 0.19798972 -0.09493722 -0.1382906 0.06579357
0.060693484 0.09102649 0.31675988 -0.26705632 0.07711213 -0.21620153 -0.17476529 -0.23222739
0.086580604 0.058746237 -0.020991975 -0.2001671 -0.0928682 0.2459734 0.09802332 0.18807425
0.11338352 0.008656599 0.1432295 0.03612078 0.08554319 0.15284945 -0.044803638 0.10142674
-0.25441977 0.21714622 -0.23643696 0.029784659 -0.21623541 0.3298625 -0.10713781 -0.021560067
0.16881073 -0.09637279 -0.1990476 -0.080686696 -0.22217639 -0.058876935 0.26220813 -0.041205343
-0.24388619 -0.16996068 -0.12215136 0.1357882 -0.021210859 -0.08025498 -0.16821674 -0.009854752
-0.028022803 -0.09101848 0.14872494 0.056969687 0.18775688 0.025528474 0.10103489 0.24012189
0.036996696 0.10664104 -0.18103866 -0.1542621 0.1544541 0.22609715 -0.086584024 -0.10896136
0.09708217 -0.2817406 -0.0932416 0.11816915 -0.3038522 -0.07127324 0.16972989 0.255793
-0.20112512 0.1841239 0.08688314 0.23779477 0.1003987 0.16852981 -0.20286429 0.06685491
-0.0958118 -0.13274363 0.12859765 -0.3528765 0.16925535 -0.15786725 0.021717811 0.1728961
-0.09290844 0.053383227 -0.12831306 0.07471912 0.03118524 0.002470166 -0.033314604 0.15317994
00000000: a750 77be c74f a43e fa78 f73e ae38 1fbc
00000010: 6e5c 96bd d988 0d3e 6bcd 3fbe 11d0 513c
00000020: e76c e1bd 0da3 e4bd 9100 183e 4a1d 013e
00000030: e345 85bd 6710 063e 8d45 883c 5f70 4c3d
00000040: 7d12 f9bd a69c 31bd 2a3a ff3c c635 95be
00000050: a6e5 03bd f82d 06be a438 9d3d 5e2a 1a3c
00000060: 6852 8fbe 199c 7cbe 89b1 d73c 25b4 4fbe
00000070: 0331 4a3e b450 cb3c 2506 ecbb 1233 723d
00000080: c600 273e 5ff0 6d3c 437e 373e 66f6 57be
00000090: f347 773d 3299 30be 9ecd 23be f724 aabd
000000a0: 0b14 4e3b ec39 efbc 2578 8c3d f252 803d
000000b0: dc3e 343e ff11 613d 7c41 6f3d 1aab 363e
000000c0: cfdc acbd fd57 f4bc 5c2a 123e da11 7bbb
000000d0: 493e 3e3c f2ea 0f3e 8ded 34be f379 f53d
000000e0: 83bd 5bbe 7638 123d 10c8 f43c 3eac 093e
000000f0: fb9b fbbd 3e05 f63d a578 c53d 5c7f d73d
00000100: 0ecb f03c 2dc4 43be 102d 033e ac6c 0dbe
00000110: 12b9 af3d 6228 ce3d b735 da3e 9ecd f2bd
00000120: 5545 333e 5e70 4ebe c0d0 00be f69c 72bd
00000130: 980e 773e 52c6 433e 6a88 41be a515 88bd
00000140: 43c1 b9be 402c e13d 7e35 cc3d a464 d53c
00000150: 569a 623d a15e 2b3e 3b89 453c e1d9 ac3e
00000160: d092 5c3e 4a51 aa3d 195f 7d3c 3259 24be
00000170: e499 96bd 3270 603e 76a3 a53d a9fe 0a3d
00000180: 8742 833e eb57 f2bd 15eb 623e 7690 98bb
00000190: ff3d 7abd b7fb 8fbe dc29 373e e029 db3d
000001a0: 58da 62be c008 ab3d 3004 a6be 7a3a 0bbe
000001b0: 9baa 6a3e 8f36 8b3e 01eb 1fbe 7a31 cabc
000001c0: cdef dbbb d988 d7bd deea 83bd 5172 a1bd
000001d0: 5d81 b2bd e16c 70bc ffe4 91be 48d4 383e
000001e0: dcfb f7bd 7f22 acbc b24e e7bd 03b4 5fbd
000001f0: e62d 59bc 454c 9d3d 550b 3e3e 3162 e03d
00000200: cf0e ecbd bfde c93d 0acf 1c3e 02f8 dabd
00000210: d5c5 0cbe 631a 453d 2086 2b3e 8bd1 dfbd
00000220: fefd 8e3d 9ebd 8cbd a36b 7ebd 6ca6 87bd
00000230: 2343 7f3e b2a8 b13d 24b7 9f3d a9b1 e0bc
00000240: 7aca 47be 1368 f1bd b525 0ebe eb5e 19be
00000250: e08c 93bd 2b84 dd3c b29d a0bd c249 36bd
00000260: 5c41 18be 49d0 cabd 1ed1 c8bd 7123 4abe
00000270: d1bd 4a3e 726e c2bd 0d9c 0dbe c7be 863d
00000280: bb99 783d 196c ba3d 5a2e a23e 9bbb 88be
00000290: f7ec 9d3d ef63 5dbe acf5 32be 04cd 6dbe
000002a0: 2c51 b13d e59f 703d 5df7 abbc 9bf8 4cbe
000002b0: af31 bebd 73e0 7b3e 73c0 c83d 8996 403e
000002c0: 9e35 e83d 68d4 0d3c c1aa 123e 62f3 133d
000002d0: 4531 af3d 9184 1c3e 0584 37bd d3b8 cf3d
000002e0: 4f43 82be 945b 5e3e 881c 72be f5fe f33c
000002f0: d16c 5dbe bde3 a83e 116b dbbd bd9e b0bc
00000300: b8dc 2c3e 195f c5bd 22d3 4bbe 113f a5bd
00000310: 3582 63be f128 71bd 2540 863e efc6 28bd
00000320: 4dbd 79be 2c0a 2ebe 7e2a fabd 100c 0b3e
00000330: 65c2 adbc b95c a4bd 0241 2cbe d375 21bc
00000340: 1490 e5bc e667 babd 5a4b 183e 0c59 693d
00000350: 5743 403e 1721 d13c 61eb ce3d 83e2 753e
00000360: d989 173d 9e66 da3d 3362 39be e2f6 1dbe
00000370: 3729 1e3e 0386 673e f752 b1bd 2227 dfbd
00000380: 04d3 c63d 4e40 90be 74f5 bebd ab02 f23d
00000390: 8492 9bbe b4f7 91bd accd 2d3e 4df7 823e
000003a0: bef3 4dbe fa8a 3c3e caef b13d 7980 733e
000003b0: d59d cd3d 1493 2c3e a8bb 4fbe 3aeb 883d
000003c0: fa38 c4bd f2ed 07be 1aaf 033e 3bac b4be
000003d0: 4651 2d3e f4a7 21be 8de9 b13c ad0b 313e
000003e0: c846 bebd 5fa8 5a3d 8064 03be 5706 993d
000003f0: 3078 ff3c 82e2 213b e574 08bd 34db 1c3e

memory_rnn.bias_ih f4 [256]
-0.16143744 -0.26511487 -0.38443208 -0.2171633 -0.37763914 -0.27230194 -0.34356427 -0.10062925
-0.3067768 -0.35652593 -0.22114292 -0.3208004 -0.2513056 -0.14213601 -0.2904054 -0.26975796
-0.23646262 -0.29574046 -0.5149787 -0.30115432 -0.120132565 -0.41338727 -0.47653055 -0.22258893
-0.22233772 -0.1488156 -0.46328518 -0.53040123 -0.19047618 -0.038142446 -0.4446906 -0.48696566
0.08687193 -0.21936935 -0.3921948 -0.35615787 -0.21635257 -0.34740487 -0.30016673 -0.14117025
-0.19246188 -0.18351692 -0.2781119 -0.19127405 -0.164832 -0.2843534 -0.3496394 -0.12388379
-0.28314433 0.024006665 0.052174892 -0.18954024 -0.35743144 -0.35639846 -0.15980761 -0.24057989
-0.23753685 -0.2073617 -0.29692134 -0.3389229 -0.21615046 -0.46975657 -0.15942518 -0.34292445
-0.2934054 -0.23877056 -0.14468445 -0.2585265 -0.17183578 -0.012117946 -0.22169068 -0.24730343
-0.28071734 -0.24441142 -0.2907589 -0.4359529 0.050890595 0.108489774 -0.2616089 -0.2643981
0.07646851 -0.0029575108 -0.25396037 -0.18588394 -0.23438174 -0.31455675 -0.4267228 -0.2702473
-0.3562918 -0.28956565 -0.51289636 -0.29100996 -0.33791262 -0.33116594 -0.4362253 -0.1803634
0.22851628 -0.21061778 -0.22131953 -0.43730256 -0.50590956 -0.28231972 -0.4003777 -0.60998845
-0.20653792 -0.20686327 -0.16018955 -0.42242008 -0.33561718 -0.2796366 -0.2810211 -0.2677811
-0.47181988 -0.29556426 0.054704454 -0.53942305 -0.28259793 -0.08500526 -0.17255114 -0.023789393
-0.147517 -0.155408 -0.08643686 -0.15237491 -0.35437056 -0.5102035 -0.12055662 -0.45159695
0.07161115 -0.039898306 -0.01710259 -0.018940955 -0.019048557 -0.030503744 0.104559705 -0.06536345
-0.032477267 -0.0032958554 -0.013861627 -0.020476066 0.029999945 0.030637449 -0.058323216 -0.009931474
0.0051029343 0.03036738 0.038033903 0.06325375 0.009366863 0.13108608 -0.0077797147 0.027134577
0.06253077 -0.058304675 0.0032095904 -0.032518454 -0.037526403 0.023491891 0.09349119 0.07632765
-0.041340046 -0.08060673 -0.04703881 0.019935863 -0.003906981 0.03225771 0.050666906 0.04083644
0.08119966 -0.0033431314 -0.104871795 -0.038447373 -0.0071809404 -0.08872734 -0.042200476 -0.037882622
-0.027996667 -0.072188884 -0.0045754155 -0.0018053624 -0.020413158 0.04839523 -0.0006180797 0.009200081
-0.0004839071 -0.031735327 0.060857207 -0.009735252 0.08536414 0.011168875 0.04991453 0.05855557
-0.21864493 -0.23903434 -0.20530014 -0.2312505 -0.16494647 -0.11506716 -0.39101943 -0.10960038
-0.19364338 -0.30157867 -0.22721416 -0.25641644 -0.094345875 -0.19763142 -0.24023083 -0.12472503
0.014375689 -0.28593338 -0.30926633 -0.26793864 -0.025622498 -0.30895114 -0.4288893 -0.15556866
-0.019625911 -0.18546708 -0.4074442 -0.5305493 -0.2918382 -0.16610555 -0.20712376 -0.452111
-0.08406868 -0.28427756 -0.3559687 -0.47798622 -0.12494798 -0.36164892 -0.16236687 -0.012343864
-0.29022807 -0.2616802 -0.36916146 -0.05880879 -0.1407316 -0.2011692 -0.36319992 -0.17611258
-0.3968213 0.030843569 -0.10723326 -0.23781435 -0.4176898 -0.25132877 -0.37026837 -0.32716835
-0.21850435 -0.39989707 -0.40661135 -0.42471695 -0.33152908 -0.40823215 -0.26076758 -0.32863405
00000000: db4f 25be 23bd 87be 48d4 c4be 0e60 5ebe
00000010: eb59 c1be 296b 8bbe a8e7 afbe b516 cebd
00000020: d911 9dbe 918a b6be 4a73 62be f33f a4be
00000030: 21ab 80be 1a8c 11be 04b0 94be b71d 8abe
00000040: 4223 72be 4b6b 97be a5d5 03bf e630 9abe
00000050: 1008 f6bd 7fa7 d3be d0fb f3be 5aee 63be
00000060: 80ac 63be 1e63 18be b733 edbe 60c8 07bf
00000070: 300c 43be 413b 1cbd 7cae e3be 9053 f9be
00000080: e9e9 b13d 5ca2 60be c2cd c8be 535a b6be
00000090: 878b 5dbe 0ddf b1be 74af 99be ef8e 10be
000000a0: ba14 45be dceb 3bbe af64 8ebe 58dd 43be
000000b0: b8c9 28be c596 91be ef03 b3be c9b6 fdbd
000000c0: 4bf8 90be a0a9 c43c 57b5 553d d616 42be
000000d0: 4101 b7be dc79 b6be 9ba4 23be 935a 76be
000000e0: dc3c 73be a056 54be 1306 98be 4d87 adbe
000000f0: 8c56 5dbe ef83 f0be 5b40 23be cb93 afbe
00000100: 3c39 96be 4580 74be 2928 14be 965d 84be
00000110: b8f5 2fbe 598a 46bc e202 63be 1c3d 7dbe
00000120: 2fba 8fbe fd46 7abe 5ade 94be 3835 dfbe
00000130: a872 503d e32f de3d 9af1 85be 305f 87be
00000140: 869b 9c3d ccd2 41bb 1807 82be 5c58 3ebe
00000150: c401 70be 950d a1be 697b dabe db5d 8abe
00000160: e16b b6be f341 94be 2d4d 03bf 42ff 94be
00000170: e202 adbe 958e a9be ec58 dfbe 2fb1 38be
00000180: 2c00 6a3e 30ac 57be 96a1 62be 1fe6 dfbe
00000190: 4a83 01bf 368c 90be 4efe ccbe 3428 1cbf
000001a0: ad7e 53be f7d3 53be bb08 24be 7247 d8be
000001b0: 04d6 abbe 872c 8fbe ffe1 8fbe 9b1a 89be
000001c0: 6092 f1be 3354 97be c711 603d a117 0abf
000001d0: adb0 90be 3d17 aebd 3fb1 30be f9e1 c2bc
000001e0: b20e 17be 4623 1fbe cf05 b1bd 2b08 1cbe
000001f0: 0f70 b5be b29c 02bf 64e6 f6bd b737 e7be
00000200: dea8 923d 686c 23bd bb1a 8cbc 102a 9bbc
00000210: b80b 9cbc fde2 f9bc 6623 d63d 46dd 85bd
00000220: e206 05bd 47ff 57bb e11b 63bc 6cbd a7bc
00000230: 72c2 f53c 63fb fa3c 53e4 6ebd 9fb7 22bc
00000240: 8436 a73b 03c5 f83c 70c9 1b3d 2f8b 813d
00000250: 7977 193c 6e3b 063e faec febb 5549 de3c
00000260: 2210 803d e2d0 6ebd fe57 523b 1232 05bd
00000270: 49b5 19bd 1172 c03c 4f78 bf3d ac51 9c3d
00000280: 2e54 29bd 2415 a5bd c4ab 40bd 8950 a33c
00000290: 2206 80bb a920 043d 1a88 4f3d 1c44 273d
000002a0: 024c a63d 7018 5bbb 06c7 d6bd fe7a 1dbd
000002b0: 184e ebbb aeb6 b5bd 68da 2cbd cf2a 1bbd
000002c0: 4459 e5bc c4d7 93bd 5eed 95bb e9a1 ecba
000002d0: 7f39 a7bc 143a 463d a006 22ba f0bb 163c
000002e0: e9b4 fdb9 e7fc 01bd 6845 793d 9b80 1fbc
000002f0: 65d3 ae3d a8fd 363c 2e73 4c3d f7d7 6f3d
00000300: 75e4 5fbe 6bc5 74be 333a 52be eecc 6cbe
00000310: bae7 28be 55a8 ebbd b333 c8be 2a76 e0bd
00000320: 734a 46be 8568 9abe d4aa 68be 0449 83be
00000330: 6938 c1bd e45f 4abe 12ff 75be d66f ffbd
00000340: 0388 6b3c dc65 92be 2858 9ebe 412f 89be
00000350: 46e6 d1bc d82e 9ebe 6197 dbbe 644d 1fbe
00000360: 85c6 a0bc 15eb 3dbe 879c d0be 14d2 07bf
00000370: d16b 95be 9317 2abe 4018 54be 187b e7be
00000380: 332c acbd d48c 91be 8841 b6be 9cba f4be
00000390: bae4 ffbd 0c2a b9be 8043 26be eb3d 4abc
000003a0: c698 94be f2fa 85be bb02 bdbe 7ce1 70bd
000003b0: f21b 10be 4cff 4dbe 57f5 b9be db56 34be
000003c0: 292c cbbe a7ab fc3c 1d9d dbbd 9b85 73be
000003d0: 70db d5be 2aae 80be d193 bdbe 9c82 a7be
000003e0: 9bbf 5fbe 4fbf ccbe 5d2f d0be 8074 d9be
000003f0: 2ebe a9be ce03 d1be 5483 85be b942 a8be

memory_rnn.bias_hh f4 [256]
-0.32255462 -0.09920525 -0.3036396 -0.1407686 -0.17764354 -0.17909575 -0.39112872 -0.18115227
-0.26466554 -0.29951945 -0.2260688 -0.16109988 -0.07768041 -0.10439456 -0.23631893 -0.25886977
-0.12504907 -0.15319097 -0.41444597 -0.42035952 -0.04901561 -0.22603737 -0.5021101 -0.18408185
-0.004909976 -0.26915902 -0.42977813 -0.4118454 -0.3498227 -0.16582635 -0.25659376 -0.46165478
0.15033871 -0.35680825 -0.5279675 -0.23496579 -0.26721606 -0.30271563 -0.16567972 -0.16387947
-0.22339728 -0.37813288 -0.3449771 -0.18389481 -0.19768655 -0.2173192 -0.31253996 -0.24119025
-0.20631507 0.04986481 0.0019991414 -0.31814486 -0.41091785 -0.11405141 -0.2412783 -0.31803432
-0.22859767 -0.20241618 -0.3826742 -0.36908326 -0.24571252 -0.62158185 -0.32522961 -0.253156
-0.309637 -0.1614932 -0.113435484 -0.020386169 -0.16346335 -0.06987082 -0.26742715 -0.20915048
-0.30114982 -0.3769641 -0.194594 -0.31388795 0.0765504 -0.01972944 -0.09293144 -0.20724846
0.031979375 -0.07563339 -0.3170863 -0.18104866 -0.3116939 -0.25666562 -0.46373037 -0.3011206
-0.2556498 -0.33343175 -0.4019023 -0.4584241 -0.18280528 -0.38745758 -0.49176937 -0.31164885
0.27989453 -0.2255159 -0.3492571 -0.46818575 -0.31133583 -0.14315397 -0.4059822 -0.5340086
-0.1475029 -0.18106057 -0.2889133 -0.39617574 -0.19634818 -0.36466208 -0.28521016 -0.23554794
-0.43739986 -0.332387 -0.026146289 -0.6015273 -0.06712924 -0.14557193 -0.12231844 -0.1208192
-0.09150809 -0.20545682 -0.22799936 -0.20071094 -0.38303593 -0.62795776 -0.22036621 -0.34409708
-0.015210912 -0.029294148 -0.01579356 9.67884e-05 0.02566329 0.067900434 -0.0843413 0.024421338
0.07614564 -0.047237363 -0.004812859 0.092696846 0.005080871 -0.0018954128 -0.0047414578 0.035547588
0.007913048 0.0065916553 -0.010891081 -0.009779286 0.04947842 -0.05430943 0.0025789451 0.04505508
-0.038251236 0.115008906 0.014817559 -0.022600152 -0.01284483 0.025750218 -0.06836767 -0.070126295
0.008922559 0.043307524 0.019454896 0.015541911 -0.04939789 -0.09772067 -0.021509321 0.041503757
-0.13955104 0.095641874 0.065142184 0.036302976 0.035133857 0.11383301 0.020450829 -0.03645626
0.022943556 -0.002564933 -0.04535761 -0.03640887 0.0033052084 -0.07368004 -0.008649475 0.023988232
0.014410559 0.009900789 -0.011611658 -0.028906511 -0.08575649 -0.0009258917 -0.027486073 -0.028412037
-0.20712025 -0.14420612 -0.27307984 -0.06372782 -0.34323242 -0.10171201 -0.2563742 -0.19998874
-0.14912009 -0.35165033 -0.30621725 -0.17031571 -0.22315106 -0.17866275 -0.042664688 -0.22673422
-0.13895305 -0.1645309 -0.44704783 -0.35419992 -0.032536395 -0.4096902 -0.3299648 -0.27386647
-0.20740366 -0.16571687 -0.49165046 -0.4220039 -0.12519473 -0.105939955 -0.20076782 -0.43972397
0.005105024 -0.18157864 -0.555623 -0.40711287 -0.09219576 -0.19904624 -0.36376086 0.051257752
-0.19877897 -0.31323504 -0.19874448 -0.14306302 -0.14318325 -0.17870134 -0.36878422 -0.32426235
-0.30938753 0.14524283 -0.021583341 -0.37276495 -0.34260172 -0.30217797 -0.3693523 -0.2501441
-0.24767359 -0.18534748 -0.46415958 -0.23885876 -0.26021016 -0.59463894 -0.15326957 -0.35073015
00000000: e125 a5be 1f2c cbbd a676 9bbe a525 10be
00000010: 30e8 35be e064 37be 0642 c8be fb7f 39be
00000020: 3e82 87be 9d5a 99be 947e 67be 5ef7 24be
00000030: e816 9fbd d1cc d5bd 97fd 71be 948a 84be
00000040: dd0c 00be 18de 1cbe 4332 d4be 5d39 d7be
00000050: 98c4 48bd 5776 67be 4a8a 00bf f47f 3cbe
00000060: dde3 a0bb 36cf 89be e10b dcbe 66dd d2be
00000070: f61b b3be 62ce 29be 4260 83be 045e ecbe
00000080: 64f2 193e 92af b6be e128 07bf df9a 70be
00000090: 8bd0 88be 8bfd 9abe f2a7 29be 05d0 27be
000000a0: 42c2 64be a29a c1be d7a0 b0be ec4e 3cbe
000000b0: 586e 4abe ed88 5ebe 3d05 a0be 94fa 76be
000000c0: 4244 53be 0b3f 4c3d 0704 033b e2e3 a2be
000000d0: d363 d2be c993 e9bd a911 77be 65d5 a2be
000000e0: 8215 6abe 3046 4fbe dfed c3be 7bf8 bcbe
000000f0: 109c 7bbe fd1f 1fbf 7f84 a6be aa9d 81be
00000100: be88 9ebe 795e 25be dd50 e8bd e500 a7bc
00000110: f062 27be 6f18 8fbd 36ec 88be 8b2b 56be
00000120: 4f30 9abe 7001 c1be a643 47be ecb5 a0be
00000130: 75c6 9c3d a29f a1bc d752 bebd f138 54be
00000140: cefc 023d aee5 9abd 2359 a2be d264 39be
00000150: 5896 9fbe ad69 83be 116e edbe 7b2c 9abe
00000160: 88e4 82be 91b7 aabe 23c6 cdbe 90b6 eabe
00000170: 4f31 3bbe d760 c6be 32c9 fbbe 7090 9fbe
00000180: 564e 8f3e a4ed 66be d4d1 b2be 0bb6 efbe
00000190: 6967 9fbe f496 12be e6dc cfbe cab4 08bf
000001a0: 000b 17be f167 39be 72ec 93be 8cd7 cabe
000001b0: 7f0f 49be fdb4 babe 1107 92be 7b33 71be
000001c0: e0f2 dfbe a12e aabe be30 d6bc b1fd 19bf
000001d0: 0e7b 89bd cf10 15be 1782 fabd 0f70 f7bd
000001e0: 9868 bbbd 4663 52be aa78 69be 2b87 4dbe
000001f0: 491d c4be d7c1 20bf aea7 61be 7e2d b0be
00000200: 3037 79bc 48fa efbc 7f61 81bc e0fa ca38
00000210: d23b d23c 620f 8b3d 22bb acbd 420f c83c
00000220: 3ff2 9b3d f77b 41bd 30b5 9dbb d8d7 bd3d
00000230: 6f7d a63b 806f f8ba 3b5e 9bbb 599a 113d
00000240: bba5 013c d0fe d73b 8170 32bc 4c39 20bc
00000250: e2a9 4a3d 9173 5ebd 8503 293b ad8b 383d
00000260: 54ad 1cbd ca89 eb3d 59c5 723c f423 b9bc
00000270: 1f73 52bc 1ff2 d23c 5904 8cbd 609e 8fbd
00000280: ed2f 123c 3b63 313d e05f 9f3c 80a3 7e3c
00000290: 7155 4abd c621 c8bd 5134 b0bc d8ff 293d
000002a0: 78e6 0ebe e3df c33d 4469 853d 6eb2 143d
000002b0: 85e8 0f3d 4821 e93d 7f88 a73c 2953 15bd
000002c0: 20f4 bb3c 6f18 28bb e7c8 39bd 7821 15bd
000002d0: 329c 583b 90e5 96bd 87b6 0dbc f882 c43c
000002e0: 441a 6c3c eb36 223c d33e 3ebc 59cd ecbc
000002f0: 19a1 afbd 8ab7 72ba 792a e1bc 5cc0 e8bc
00000300: 5517 54be c5aa 13be 1fd1 8bbe bb83 82bd
00000310: 29bc afbe 634e d0bd 7b43 83be d9c9 4cbe
00000320: f0b2 18be 830b b4be 82c8 9cbe 3e67 2ebe
00000330: b681 64be 5ef3 36be 2bc1 2ebd 042d 68be
00000340: b549 0ebe ca7a 28be 74e3 e4be b159 b5be
00000350: e244 05bd eac2 d1be 25f1 a8be 3a38 8cbe
00000360: a061 54be afb1 29be 9cb9 fbbe e510 d8be
00000370: 0c33 00be 0cf7 d8bd 1496 4dbe 8023 e1be
00000380: 0c48 a73b c0ef 39be 4f3d 0ebf 1971 d0be
00000390: 21d1 bcbd c7d2 4bbe dd3e babe a6f3 513d
000003a0: b78c 4bbe 5860 a0be ac83 4bbe 1d7f 12be
000003b0: a19e 12be 7cfd 36be 49d1 bcbe b705 a6be
000003c0: 0b68 9ebe 89ba 143e 8ccf b0bc 0cdb bebe
000003d0: 7e69 afbe 12b7 9abe bf1b bdbe e312 80be
000003e0: 259e 7dbe bbcb 3dbe 53a6 edbe 6497 74be
000003f0: 443a 85be 423a 18bf b3f2 1cbe e792 b3be
