torch-rl/storage/bak/Lstm-Customs-SimpleCorridor16x16-v0_10M/status.pt (torch, 649941 bytes, 51 tensors)

image_conv.0.weight f4 [16, 3, 2, 2]
0	0x3f03e324	0.51518464
1	0xbefd9662	-0.49528795
2	0xbec6e5a4	-0.38847077
3	0xbe23381e	-0.15939376
4	0xbe28c28c	-0.16480464
5	0xbe3ee18e	-0.1864073
6	0xbe0d0b88	-0.1377393
7	0x3d76d347	0.060260084
8	0x3d246023	0.040130746
9	0xbd10c794	-0.035346583
10	0x3da3fa45	0.080067195
11	0x3c69527e	0.014240859
12	0xbe064027	-0.1311041
13	0xbe7cc001	-0.24682619
14	0xbd863caa	-0.065545395
15	0xbe897499	-0.2684677
16	0x3d1bd9b9	0.038049433
17	0xbedf1737	-0.435724
18	0x3e9c9496	0.30582112
19	0xbec89ed6	-0.39183682
20	0xbddc2b47	-0.10750442
21	0xbe328872	-0.17434862
22	0xbd4630e4	-0.04838647
23	0xbdff02f1	-0.12451733
24	0xbe05148a	-0.12996116
25	0xbde1df8a	-0.11028965
26	0xbe2d0110	-0.16894937
27	0xbd94a646	-0.07258277
28	0xbecae187	-0.3962519
29	0x3e3cb587	0.18428622
30	0xbeb5d7e8	-0.35516286
31	0x3d41eecd	0.04734688
32	0x3e431daa	0.19054285
33	0xbe86aaec	-0.26302278
34	0xbe8c87f4	-0.27447474
35	0xbe0e9438	-0.13923728
36	0x3e462499	0.19349898
37	0xbe844f98	-0.25841975
38	0xbe5c2986	-0.21500215
39	0xbf08cd3e	-0.53438175
40	0xbd69ed6f	-0.0571112
41	0xbf034494	-0.51276517
42	0xbd341257	-0.043962803
43	0xbef362ed	-0.47536412
44	0xbe1bba9f	-0.15207909
45	0x3e17f1cb	0.1483833
46	0xbe1ce986	-0.15323457
47	0x3dade06d	0.084900714
48	0xbe5b76b8	-0.21432006
49	0xbeb518f8	-0.35370612
50	0xbeee7704	-0.46575177
51	0xbece7050	-0.40320063
52	0x3e3375a0	0.17525339
53	0xbe785aa8	-0.24253333
54	0x3e19361a	0.14962044
55	0x3d346f1e	0.044051282
56	0xbc5d75a1	-0.013516814
57	0xbe454f6b	-0.19268577
58	0x3e3402e1	0.17579223
59	0x3db77c35	0.089592375
60	0xbebb16ad	-0.36540738
61	0x3ed5f4b8	0.41788268
62	0xbdab1673	-0.08353891
63	0x3ea8a849	0.3294089
64	0xbcc85a6a	-0.024457175
65	0xbeb35dd4	-0.35032523
66	0xbd8ddc63	-0.06926801
67	0xbda5c277	-0.08093732
68	0xbe6056ba	-0.21908084
69	0xbe51c449	-0.20485033
70	0x3e20cf3f	0.15704058
71	0xbd8aa219	-0.06769199
72	0xbd48fc89	-0.04906896
73	0xbef907c1	-0.48638728
74	0x3eb4e657	0.35331985
75	0xbed2dced	-0.41184178
76	0xbb3b7e90	-0.0028609373
77	0x3da69de2	0.081355825
78	0xbcee8cfc	-0.029119961
79	0xbe61e3b1	-0.22059514
80	0xbe4fd877	-0.20297419
81	0xbe5f090e	-0.21780798
82	0x3c8fd0c3	0.0175556
83	0xbd497de1	-0.049192313
84	0xbda41e01	-0.08013535
85	0xbf2e9709	-0.6819921
86	0xbf478877	-0.77942604
87	0x3eacf966	0.33784026
88	0xbe8c98a5	-0.2746021
89	0xbdabf48e	-0.083962545
90	0xbe631391	-0.22175433
91	0xbed3c3ad	-0.41360226
92	0x3d6d8b79	0.05799434
93	0x3d8e017e	0.06933878
94	0xbe45ec7c	-0.19328493
95	0xbe0c416e	-0.13696834
96	0xbd85042a	-0.06494935
97	0x3d49fee0	0.049315333
98	0xbe9aec9a	-0.30258638
99	0xbea1f45e	-0.3163175
100	0x3e17b970	0.14816833
101	0xbe48732b	-0.19575183
102	0x3d3ab270	0.045580328
103	0x3b84f1e8	0.004057158
104	0xbe3f1482	-0.18660167
105	0xbe7b63ca	-0.24549785
106	0x3e8ddf87	0.277096
107	0x3c76f79b	0.015073682
108	0xbd8a500c	-0.06753549
109	0xbeb07458	-0.34463763
110	0xbe994181	-0.29932788
111	0x3ef868ff	0.48517606
112	0x3cb8005d	0.02246111
113	0x3d4b3045	0.04960658
114	0xbee13c16	-0.43991154
115	0xbe5711b0	-0.21002841
116	0x3e56253b	0.2091264
117	0x3e37a3e2	0.1793361
118	0xbe55ef08	-0.20891964
119	0xbe54dd7e	-0.20787618
120	0xbf49c0a9	-0.788096
121	0xbee1392e	-0.43988937
122	0x3e9d5814	0.3073126
123	0xbf185c26	-0.5951561
124	0xbe460841	-0.19339086
125	0xbe74ebb6	-0.23918042
126	0xbe663403	-0.22480778
127	0xbe49ab74	-0.1969431
128	0x3e2a516b	0.16632621
129	0x3e893722	0.26799875
130	0xbe3794c5	-0.17927845
131	0x3d804c69	0.06264574
132	0xbe400563	-0.18752055
133	0xbe2eb2f7	-0.17060457
134	0x3e14a28f	0.14515136
135	0xbde43787	-0.111434035
136	0xbe437650	-0.19088101
137	0xbe5522d8	-0.20814073
138	0xbea3e5cb	-0.32011256
139	0xbea07a7e	-0.31343454
140	0xbe077398	-0.1322769
141	0xbd09afeb	-0.033615034
142	0xbe3530d3	-0.17694406
143	0x3dd84b8d	0.10561285
144	0x3e54d70a	0.20785156
145	0xbeb9dc0a	-0.3630069
146	0xbef349a0	-0.4751711
147	0xbce51de1	-0.027968349
148	0x3e1dd208	0.15412152
149	0xbdcadf1a	-0.099058345
150	0xbed24049	-0.4106467
151	0x3e97258a	0.29520828
152	0xbd08b236	-0.03337308
153	0xbc227df1	-0.009917722
154	0xbe8b81ce	-0.2724747
155	0xbe3e414e	-0.185796
156	0xbe8e9706	-0.27849597
157	0xbeb209f0	-0.34773207
158	0x3e522f7a	0.20525923
159	0xbf0c1aad	-0.54728204
160	0xbdc7784c	-0.09739742
161	0xbb81c160	-0.0039598197
162	0xbe57c48b	-0.21071069
163	0xbe3b96a3	-0.18319182
164	0xbe18f76c	-0.14938134
165	0x3d802eb6	0.062589094
166	0xbdd73aaa	-0.10509236
167	0xbd84d445	-0.064858
168	0xbf3d4fc1	-0.7394982
169	0xbf2499d1	-0.64297205
170	0xbe8f12ef	-0.27944133
171	0xbd3a4f71	-0.045485917
172	0xbe1148da	-0.14187947
173	0xbe1bc692	-0.15212467
174	0x3e0199f4	0.12656385
175	0x3d47ec7a	0.048809506
176	0x3e499d8b	0.19689004
177	0x3c169be2	0.009192439
178	0xbe4c7ef0	-0.19970298
179	0x3e670451	0.2256024
180	0xbea5ffd0	-0.32421732
181	0xbe402fd8	-0.18768251
182	0xbeb8909e	-0.36047834
183	0xbc9978db	-0.018734386
184	0xbeaa39bc	-0.33247173
185	0x3de53df5	0.11193458
186	0xbeadc0bc	-0.33936107
187	0xbf20f1a2	-0.628687
188	0xbc2099fa	-0.009802336
189	0xbe1fd659	-0.15609111
190	0x3dd38a68	0.10329133
191	0xbde39212	-0.11111845

image_conv.0.bias f4 [16]
0	0xbf218183	-0.63088244
1	0xbd9fd48d	-0.07804213
2	0xbdc1f759	-0.09471006
3	0xbf0f0296	-0.5586332
4	0xbbe24243	-0.0069048717
5	0xbeccaef2	-0.39977223
6	0xbd46251c	-0.048375234
7	0xbf4cde5d	-0.800268
8	0xbe0be332	-0.13660887
9	0xbf2c2edb	-0.67258996
10	0x3ea40c5f	0.32040688
11	0xbeef3bc3	-0.46725282
12	0xbecd5fc2	-0.4011212
13	0xbe9f4b50	-0.31112146
14	0xbe97e0cb	-0.2966369
15	0xbe584b27	-0.21122418

image_conv.3.weight f4 [32, 16, 2, 2]
0	0xbdfd08bd	-0.12355182
1	0x3dca4091	0.09875596
2	0xbe23d6d5	-0.1599992
3	0xbe66727a	-0.22504607
4	0xbe86f821	-0.26361182
5	0x3e4db4ce	0.20088503
6	0xbd163577	-0.03667208
7	0x3bb757ec	0.005595198
8	0xbef2e628	-0.4744122
9	0xbf1a95e1	-0.6038495
10	0xbec4be06	-0.38426226
11	0x3e1b1326	0.15144023
12	0xbe881c36	-0.26584023
13	0x3e31b9c5	0.17356022
14	0xbbf282a5	-0.007400828
15	0xbeae6f4a	-0.34069282
16	0xbdba787d	-0.091050126
17	0xbe733a56	-0.23752722
18	0xbe0c61b9	-0.13709153
19	0xbddbf162	-0.107393995
20	0xbf3f15c2	-0.74642575
21	0xbe6b4ccf	-0.22978519
22	0x3b365249	0.0027820042
23	0xbf2f4ea4	-0.6847937
24	0xbe3ceae8	-0.18448985
25	0xbc8dcd37	-0.017309768
26	0xbf0780b4	-0.5293076
27	0x3e63ce21	0.222466
28	0xbf260a76	-0.6485971
29	0x3d433f3c	0.047667727
30	0x3d9fdde9	0.07805998
31	0xbcc2927b	-0.023751488
32	0xbf0027b2	-0.5006057
33	0x3dcaa51f	0.098947756
34	0xbe0945a1	-0.13405468
35	0xbe438a60	-0.19095755
36	0xbf87d914	-1.0613122
37	0x3ef9733c	0.4872073
38	0xbf1cdfea	-0.61279166
39	0xbf359b8f	-0.7094049
40	0xbf3aaefe	-0.72923267
41	0xbdb8b3ed	-0.09018693
42	0xbed4628d	-0.41481438
43	0x3c4281fe	0.011871813
44	0xbe93ab78	-0.28841758
45	0xbe3de815	-0.18545564
46	0xbe13b810	-0.14425683
47	0xbe67211e	-0.22571227
48	0xbf0766ce	-0.5289124
49	0x3edffae8	0.43746114
50	0xbe599b58	-0.21250665
51	0xbe959bb4	-0.29220355
52	0x3e9aa6b6	0.30205315
53	0x3dc21d32	0.09478225
54	0xbecd3653	-0.4008051
55	0x3e913ea6	0.2836811
56	0x3ead971a	0.33904344
57	0xbe96f538	-0.29483962
58	0x3ee0f86b	0.43939528
59	0x3f2bb638	0.6707492
60	0x3678eccd	3.7092716e-06
61	0xbf33900f	-0.7014169
62	0xbe9300e4	-0.28711617
63	0xbdc86888	-0.09785563
64	0xbb0bec01	-0.0021350386
65	0x3cbef9ce	0.023312476
66	0xbd40653c	-0.046971545
67	0xbd99ade9	-0.07503874
68	0xbd490730	-0.04907912
69	0xbd412917	-0.047158327
70	0xbd9ff099	-0.07809562
71	0xbd8df708	-0.06931883
72	0xbe7ce2b5	-0.24695857
73	0xbd97bcbb	-0.07409044
74	0x3d5b2282	0.053499706
75	0xbd89f94b	-0.06737002
76	0x3c457b6e	0.012053354
77	0xbdeb0cc9	-0.11477048
78	0xbe510c33	-0.2041481
79	0x3c62a042	0.013832154
80	0xbe84fe8b	-0.2597545
81	0xbdb5e764	-0.08882025
82	0xbda58e6e	-0.08083807
83	0xbe93fc0a	-0.28903228
84	0x3d601f15	0.054717142
85	0xbd30c07c	-0.043152317
86	0x3bf158cf	0.007365323
87	0xbda6b99a	-0.081408694
88	0xbe587060	-0.21136618
89	0xbdc7236e	-0.097235546
90	0xbd8f83a4	-0.0700753
91	0xbe6ba0a8	-0.23010504
92	0xbe370a0f	-0.17874931
93	0xbbf64022	-0.0075149694
94	0xbdb4288b	-0.087967955
95	0xbdd63690	-0.10459626
96	0xbd40ebfd	-0.047100056
97	0xbdfae654	-0.12250963
98	0xbe094219	-0.1340412
99	0x3d8100e1	0.06298996
100	0xbe30fc49	-0.17283739
101	0x3dc0a832	0.09407081
102	0xbd7b2b4d	-0.06132059
103	0xbdc34f64	-0.09536627
104	0xbed123be	-0.40847582
105	0xbd47b25d	-0.048754085
106	0xbdc1480d	-0.09437571
107	0xbe80251c	-0.25028312
108	0xbd117c7e	-0.035519116
109	0x3c5a47d1	0.013322786
110	0x3d96f83c	0.07371566
111	0xbd716376	-0.058932744
112	0xbe189df7	-0.14904009
113	0xbe0765d8	-0.13222444
114	0xbe09952a	-0.13435808
115	0xbd4e284e	-0.050331406
116	0x3c39dcc8	0.011344142
117	0xbdb6129f	-0.088902704
118	0xbdcf666a	-0.10126956
119	0x3d5617f6	0.052268945
120	0xbd80d54f	-0.062906854
121	0xbe1b8142	-0.15186027
122	0x3d02eb8f	0.031962927
123	0x3ba97854	0.005171815
124	0x3dfb110c	0.12259111
125	0xbd9a4272	-0.07532205
126	0x3d219a3b	0.039453726
127	0xbcf11a46	-0.029431473
128	0xbe3bb3d8	-0.18330324
129	0xbec575f2	-0.38566548
130	0xbe2f20af	-0.17102312
131	0x3ed4b1d7	0.4154193
132	0x3de03432	0.109474555
133	0xbd101544	-0.03517653
134	0xbde33903	-0.110948585
135	0x3d62b76a	0.0553507
136	0xbe9bcd30	-0.30429983
137	0x3d94a6fe	0.07258414
138	0xbe6a3e10	-0.22875237
139	0x3df93354	0.12167993
140	0x3db99751	0.090620644
141	0xbed95caf	-0.42453524
142	0xbdb39180	-0.08767986
143	0x3ea0747d	0.31338874
144	0x3d9b525f	0.075840704
145	0xbcbb7c0d	-0.0228863
146	0x3d1a2b3b	0.037638884
147	0x3da1ddb8	0.079036176
148	0xbe113f16	-0.14184222
149	0x3e114635	0.14186938
150	0xbe467861	-0.19381858
151	0x3f888f0b	1.0668653
152	0x3e6a2fa1	0.22869731
153	0x3e0eca4c	0.13944358
154	0xbc4a897c	-0.01236188
155	0xbdcf71f1	-0.101291545
156	0xbef9681d	-0.48712245
157	0x3f6b8362	0.9199735
158	0xbe607e2c	-0.21923131
159	0x3e072b45	0.132001
160	0x3e8a32d6	0.2699191
161	0xbeb95c86	-0.36203402
162	0xbde0e1c0	-0.109805584
163	0x3e421644	0.18953806
164	0x3e50b6ee	0.20382282
165	0x3f2db1c5	0.6784938
166	0xbf8b03be	-1.0860517
167	0x3d23da31	0.040003005
168	0x3e94e6af	0.29082248
169	0x3e86af55	0.26305643
170	0xbd051469	-0.032490168
171	0x3c94dd53	0.018171942
172	0xbd27be4a	-0.04095296
173	0xbca02b1d	-0.019551808
174	0xbe8b9e93	-0.2726942
175	0xbded4b72	-0.11586656
176	0x3e24d3fd	0.16096492
177	0x3e8c7d7d	0.2743949
178	0xbda34931	-0.079729445
179	0xbe0b8c05	-0.13627632
180	0xbde4b06f	-0.111664645
181	0x3e15ca1c	0.1462788
182	0xbef55a1f	-0.4792032
183	0x3d46ed67	0.04856625
184	0xbdcea23a	-0.10089536
185	0x3e38917e	0.18024251
186	0xbe86ba64	-0.2631408
187	0xbe5cd335	-0.21564944
188	0x3d82f1b6	0.06393759
189	0xbe811685	-0.25212494
190	0xbea63263	-0.32460317
191	0x3e32c906	0.17459497
192	0xbc63f57d	-0.013913509
193	0x3e036110	0.12829995
194	0xbef843c1	-0.48489192
195	0x3e2ab858	0.16671884
196	0x3f4cdd90	0.8002558
197	0x3efb9a27	0.49141046
198	0xbf47f972	-0.78115
199	0xbfbf71f2	-1.4956648
200	0x3e9bbb39	0.30416277
201	0xbefc3c65	-0.49264827
202	0xbe96010e	-0.2929768
203	0xbf1f7632	-0.62289727
204	0x3e522555	0.20522054
205	0x3c472d12	0.012156742
206	0xbed01bcb	-0.40646204
207	0x3d11f917	0.03563794
208	0x3e852b7a	0.26009732
209	0x3ea8df50	0.32982874
210	0xbd45ad53	-0.048260998
211	0xbdf5d927	-0.12004309
212	0xbe998d85	-0.29990783
213	0x3e963068	0.29333806
214	0x3c6ccff1	0.014453874
215	0x3e36ead5	0.17863019
216	0x3e9680b1	0.2939506
217	0x3e8c3ac4	0.27388585
218	0xbe02ec1e	-0.12785384
219	0xbe55542b	-0.20832889
220	0xbf05e0b3	-0.5229599
221	0x3c6f82d0	0.0146185905
222	0xbec2cfc0	-0.38049126
223	0xbec4b0d5	-0.38416162
224	0x3ea8b9c3	0.32954225
225	0x3ddbfd80	0.10741711
226	0x3dd55ea2	0.104184404
227	0xbd94d297	-0.07266729
228	0x3d6f6708	0.058447868
229	0x3e81cb85	0.25350586
230	0x3e078f1a	0.13238183
231	0xbf23d7db	-0.64001244
232	0x3f0035b5	0.5008195
233	0x3ec2ebaa	0.38070422
234	0x3d1a3403	0.03764726
235	0xbd857d35	-0.06518022
236	0x3c283942	0.010267558
237	0xbda484fb	-0.080331765
238	0xbe784038	-0.24243248
239	0xbe4a860c	-0.19777697
240	0x3dec45b0	0.11536729
241	0xbf0e4833	-0.5557892
242	0xbe95e949	-0.29279545
243	0x3ddcbfcc	0.1077877
244	0x3ea58268	0.32326055
245	0xbc9cdda5	-0.019148657
246	0xbd021f11	-0.03176791
247	0xbe7ff1e5	-0.24994619
248	0x3e9918d1	0.29901746
249	0xbde95a26	-0.113941476
250	0xbe976cae	-0.29575104
251	0xbf333957	-0.7000937
252	0xbe7e881f	-0.24856614
253	0x3dbe7de4	0.093013555
254	0x3ea579af	0.323194
255	0xbe5c6d6f	-0.2152612

image_conv.3.bias f4 [32]
0	0xbd4414fb	-0.04787157
1	0xbe87616d	-0.26441517
2	0xbe8a8807	-0.27056906
3	0xbd91af6d	-0.07113538
4	0xbe2817a8	-0.16415274
5	0xbd60863b	-0.054815512
6	0x3b91f1f4	0.004453892
7	0xbe33c738	-0.17556465
8	0xbf04d108	-0.51881456
9	0xbe1fe43b	-0.15614407
10	0xbd97ce6c	-0.07412419
11	0xbeeafb0b	-0.45894656
12	0x3e28482e	0.16433784
13	0xbe1f3629	-0.15548004
14	0xbd9e893a	-0.07741018
15	0xbe5e3bf3	-0.21702556
16	0x3ccea1c5	0.025223622
17	0xbd9cd16c	-0.076571316
18	0xbdd69dbb	-0.104793034
19	0xbedcf4f7	-0.43155643
20	0xbbce087e	-0.0062876334
21	0xbd6ff636	-0.058584414
22	0xbe8d5a3b	-0.27607903
23	0xbdf9ac54	-0.12191072
24	0xbe47be08	-0.19506085
25	0xbe485ca6	-0.19566593
26	0xbd310d64	-0.04322566
27	0xbe2b1cb8	-0.16710174
28	0xbe14b606	-0.14522561
29	0xbde6e5f3	-0.11274328
30	0xbee7eb3d	-0.4529666
31	0x3db1b139	0.08676381

image_conv.5.weight f4 [64, 32, 2, 2]
0	0xbea44a7d	-0.3208808
1	0xbe30ac37	-0.17253195
2	0x3eaf366c	0.34221208
3	0xbda9cbbe	-0.08290814
4	0x3da1f282	0.07907583
5	0x3d3f6ef0	0.046736658
6	0xbce28449	-0.02765097
7	0x3c43bbf7	0.01194667
8	0xbf2862fd	-0.65776044
9	0xbe81d2b1	-0.25356057
10	0x3e64acba	0.22331515
11	0x3e71d347	0.23615752
12	0xbc7d6c88	-0.01546777
13	0x3e439009	0.19097914
14	0xbf2e3e31	-0.68063647
15	0xbed0c079	-0.40771845
16	0xbc2d00cd	-0.010559273
17	0x3c3e6fcc	0.011623334
18	0x3d12f5cb	0.035878938
19	0xbce4efd3	-0.027946388
20	0xbe37dde0	-0.17955732
21	0x3e1fc1e0	0.15601301
22	0x3e88968d	0.2667736
23	0xbede87eb	-0.43463072
24	0x3e837df3	0.2568203
25	0x3db5922e	0.08865772
26	0xbd8a0544	-0.067392856
27	0x3f00421f	0.5010089
28	0xbdadd3c8	-0.0848766
29	0x3c756fe2	0.014980288
30	0x3c5baf4e	0.013408495
31	0x3da6b386	0.0813971
32	0xbe8af780	-0.27141953
33	0xbe76e478	-0.24110591
34	0x3cfc82b2	0.03082404
35	0x3d48c394	0.049014643
36	0xbeae1130	-0.33997488
37	0xbe2010e6	-0.15631446
38	0xbe5c1970	-0.21494079
39	0xbdf0b1f4	-0.11752692
40	0xbdacd9c8	-0.08439976
41	0xbd41d16b	-0.047318857
42	0x3d0d0ed8	0.034437984
43	0xbe33ce6c	-0.17559212
44	0xbd6436af	-0.055716213
45	0xbdd6e323	-0.10492542
46	0x3d00063f	0.031255957
47	0xbe03b734	-0.12862855
48	0xbe93ba49	-0.28853062
49	0x3f7ef7ce	0.9959687
50	0xbf116cf3	-0.5680687
51	0x3eb7f70a	0.35930663
52	0xbd3da145	-0.046296377
53	0x3d0e5c05	0.034755725
54	0xbd5a1b15	-0.053248484
55	0x3c919b3d	0.017774219
56	0xbdf64c3e	-0.12026261
57	0x3dbd9565	0.0925701
58	0xbf6b4df0	-0.919158
59	0x3ec9afd2	0.39391953
60	0xbf3336cf	-0.70005506
61	0x3e31f994	0.17380363
62	0x3f1d32cf	0.6140565
63	0x3ead5304	0.33852398
64	0x3f65e387	0.89800304
65	0x3f3b9c89	0.7328573
66	0x3d1959d2	0.037439175
67	0x3c5772f0	0.013149962
68	0xbda12ee9	-0.078702755
69	0xbe5f0e27	-0.21782742
70	0xbec56fef	-0.3856196
71	0x3d7208a4	0.05909027
72	0xbe8b51ee	-0.27210945
73	0xbe987036	-0.2977311
74	0xbe78692d	-0.24258871
75	0x3e0e50b1	0.13897969
76	0x3f2a95c4	0.66634774
77	0x3d6bcc6d	0.057568002
78	0xbce8523d	-0.028359527
79	0x3dd00157	0.101565056
80	0x3f893585	1.0719458
81	0x3f32018a	0.695336
82	0x3f1a1dcb	0.6020171
83	0xbe8de8d5	-0.277167
84	0x3eb23d48	0.3481238
85	0xbe0cd25d	-0.13752122
86	0x3d5fba56	0.054621063
87	0xbdee011f	-0.116213076
88	0xbf02cf79	-0.5109783
89	0xbd0cd282	-0.034380443
90	0x3f188524	0.59578156
91	0xbf674cc3	-0.90351504
92	0xbd96008b	-0.07324322
93	0xbf174957	-0.5909628
94	0x3e3f2c9a	0.18669358
95	0xbed5a616	-0.41728276
96	0xbe9b52e3	-0.30336675
97	0x3d8ca3b3	0.06867161
98	0xbde60751	-0.11231864
99	0xbda82163	-0.08209493
100	0x3d15c36b	0.03656332
101	0xbdf1eff7	-0.11813348
102	0x3dd64728	0.10462791
103	0xbdc04bb6	-0.09389441
104	0x3e42e6db	0.19033377
105	0xbed7666d	-0.42070332
106	0xbdb910dc	-0.09036419
107	0x3dfba70c	0.12287721
108	0xbf32727e	-0.6970595
109	0xbc175f39	-0.009239011
110	0xbf78135a	-0.9690453
111	0xbc5aaf4e	-0.01334746
112	0x3e61011a	0.21973076
113	0xbe90b546	-0.282633
114	0x3ea98714	0.3311087
115	0x3f0385ef	0.5137624
116	0x3d57a64a	0.05264882
117	0xbd65ebcf	-0.056133088
118	0xbdb2e867	-0.087357335
119	0xbbd9ddfd	-0.0066487775
120	0xbd83ab37	-0.06429141
121	0xbdefa345	-0.11701063
122	0x3ed19e71	0.40941194
123	0x3e4bfaca	0.19919887
124	0x3f634958	0.8878379
125	0x3e9d8c5c	0.30771148
126	0x3effb1e2	0.499404
127	0x3dad0344	0.084478885
128	0xbd7dd28c	-0.06196837
129	0xbd2c6233	-0.042085838
130	0xbdca9ee4	-0.09893587
131	0x3b3b0e8d	0.0028542608
132	0x3d634741	0.055487875
133	0xbcd091c7	-0.025460137
134	0xbd8f82a3	-0.07007339
135	0x3d6850e1	0.056717757
136	0xbdbd2cda	-0.092370704
137	0xbd3e1d57	-0.0464147
138	0x3d05c8bd	0.032662142
139	0xbd33ed85	-0.04392769
140	0x3c89e763	0.016833967
141	0x3d5a6124	0.053315297
142	0xbd148af1	-0.036265317
143	0xbd25f4f0	-0.040516794
144	0x3d5966a3	0.053076398
145	0x3c77611a	0.015098834
146	0x3b015b89	0.0019738397
147	0xbcedeef9	-0.029044615
148	0xbd9657b2	-0.07340945
149	0x3d01132c	0.031512424
150	0xbd4a5db7	-0.04940578
151	0xbce8dede	-0.028426584
152	0xbda32609	-0.07966239
153	0x3d144b12	0.036204405
154	0xbd8828d3	-0.066484116
155	0xbc64cfe7	-0.013965583
156	0x3c763b66	0.01502881
157	0x3d7a0da0	0.06104815
158	0x3d38c869	0.045113
159	0xbd7d7802	-0.061882026
160	0x3ca3ee3b	0.020011058
161	0xbd8567f0	-0.06513965
162	0xbc8276ec	-0.015925847
163	0xbd560559	-0.052251194
164	0xbdb4e185	-0.08832077
165	0x3ce1f6e5	0.027583549
166	0xbd92b019	-0.07162494
167	0x3db37065	0.08761672
168	0x3d11e7f7	0.03562161
169	0xbcfa75b4	-0.030573703
170	0xbd540179	-0.051759217
171	0xbda6d859	-0.08146734
172	0xbd368828	-0.044563442
173	0xbd67de26	-0.05660834
174	0x3c1bb8e9	0.009504535
175	0x3cb4d9b4	0.022076465
176	0x3d439cd9	0.047757003
177	0xbcb1a070	-0.021682948
178	0xbc9315b3	-0.017954683
179	0xbd8362b4	-0.064153105
180	0xbc4bb5b3	-0.012433457
181	0x3d144c71	0.036205713
182	0xbdae8aac	-0.08522543
183	0xbdbb3736	-0.0914139
184	0x3d25254a	0.040318765
185	0xbd8821d5	-0.06647078
186	0xbca9b206	-0.020714771
187	0xbdba2988	-0.09089953
188	0xbdeb7a4f	-0.11497938
189	0xbda94cc3	-0.08266594
190	0xbde11eed	-0.10992227
191	0xbdd7666c	-0.10517582
192	0xbdae11c9	-0.08499486
193	0x3d913ab1	0.070912726
194	0xbdbd29c7	-0.09236484
195	0x3d89976b	0.06718334
196	0xbdba8b34	-0.09108582
197	0xbbb83641	-0.005621702
198	0xbcc493ef	-0.023996321
199	0xbda9256d	-0.082590915
200	0xbc5ce822	-0.013483079
201	0x3ccf491e	0.02530342
202	0xbd639a86	-0.055567287
203	0x3d067fc4	0.03283669
204	0xbc185403	-0.009297374
205	0xbce4f420	-0.02794844
206	0x3d32b6a3	0.043631207
207	0x3d8d826f	0.06909644
208	0x3d1bf1a3	0.03807224
209	0x3b9e49ac	0.0048305597
210	0xbdf0100f	-0.11721813
211	0xbd9cedb2	-0.07662524
212	0xbbaf3f12	-0.0053480947
213	0xbd4b852f	-0.04968756
214	0x3cd7c597	0.026339335
215	0xbcec5de7	-0.02885337
216	0xbd9bf36a	-0.07614787
217	0xbd2edfe3	-0.042693984
218	0xbd6982fe	-0.05700969
219	0x3cf7a1e3	0.03022856
220	0xbdb2172d	-0.08695827
221	0xbd1061d1	-0.035249535
222	0x3c14f48b	0.009091507
223	0x3d1c1c95	0.038113195
224	0xbd9d7354	-0.07688013
225	0x3ca33977	0.019924862
226	0xbd866533	-0.06562271
227	0xbddec649	-0.10877664
228	0x3d18be25	0.03729071
229	0xbd479c34	-0.04873295
230	0x3d85b76f	0.06529128
231	0x3d281434	0.041034892
232	0xbd2fb94b	-0.04290132
233	0xbc9ef270	-0.019402713
234	0xbd25806c	-0.040405676
235	0xbc098147	-0.0083926385
236	0xbd495086	-0.04914906
237	0xbcc204f9	-0.023684012
238	0xbdda8376	-0.106696054
239	0xbdbfdd10	-0.09368336
240	0xbd67872b	-0.05652539
241	0xbb31088b	-0.0027013149
242	0x3c147dd7	0.009063206
243	0xbd363ffd	-0.044494618
244	0xbc6ab62d	-0.014325661
245	0xbc048d21	-0.008090288
246	0x3d818797	0.0632469
247	0xbdaeb127	-0.08529883
248	0xbd2145ca	-0.039373197
249	0xbc1b54da	-0.009480679
250	0xbc6dd8c9	-0.014517018
251	0xbd329817	-0.043602075
252	0xbd0951f2	-0.033525415
253	0xbd0815ef	-0.033224043
254	0xbd8bee27	-0.06832533
255	0xbd4df4fc	-0.050282463

image_conv.5.bias f4 [64]
0	0x3ca2d096	0.019874852
1	0xbdbd2f9b	-0.09237596
2	0xbdecae2c	-0.11556658
3	0x3c85fc70	0.016355723
4	0xbe6d592e	-0.2317855
5	0xbdade837	-0.08491557
6	0xbd9238e9	-0.07139761
7	0xbf1581ea	-0.5840136
8	0xbebbc4de	-0.36673635
9	0xbe13e5cd	-0.14443131
10	0x3e92e6d5	0.28691736
11	0x3d188f53	0.03724606
12	0xbdd69e8c	-0.10479459
13	0xbe0b7b61	-0.13621284
14	0xbdc36361	-0.095404394
15	0xbe0b0e26	-0.13579616
16	0x3df54353	0.11975732
17	0xbe913ad0	-0.28365183
18	0x3e00d922	0.1258283
19	0xbc466be3	-0.012110683
20	0x3d907a56	0.07054584
21	0xbe874703	-0.26421365
22	0x3d91028b	0.07080563
23	0xbe0d041f	-0.13771103
24	0xbce67220	-0.02813059
25	0xbdcaf239	-0.099094816
26	0x3e9bbb04	0.3041612
27	0x3e0e9d15	0.1392711
28	0xbe2d67fd	-0.169342
29	0xbe3cb5b4	-0.18428689
30	0xbe2da921	-0.16959049
31	0xbd9341fb	-0.07190319
32	0xbe3f684f	-0.18692134
33	0xbe8599ca	-0.26093894
34	0xbf3d6d91	-0.7399531
35	0xbd6fd85a	-0.05855594
36	0xbe577f90	-0.21044755
37	0xbed914d4	-0.42398703
38	0x3de84c0d	0.113426305
39	0xbe3b2623	-0.18276267
40	0xbe4ae87e	-0.19815251
41	0x3de9093e	0.11378716
42	0x3d01e718	0.03171453
43	0x3cae2d52	0.021261845
44	0xbe4b0c41	-0.19828893
45	0xbdfece2e	-0.124416694
46	0xbe3250c5	-0.17413624
47	0xbe91566d	-0.2838625
48	0xbeb12c22	-0.34603983
49	0x3e77800f	0.24169944
50	0xbdc0b50c	-0.09409532
51	0x3ccac001	0.024749758
52	0xbd1fd647	-0.03902271
53	0x3d8957a2	0.06706168
54	0x3ecdf2b0	0.40224218
55	0x3e926150	0.2858987
56	0xbe7fb56e	-0.24971554
57	0xbebca5bf	-0.36845204
58	0x3e572d8d	0.2101347
59	0x3e8ba8f9	0.27277353
60	0xbe71d170	-0.2361505
61	0xbf0a859d	-0.5411013
62	0xbd6c0dc6	-0.057630323
63	0xbe2acf76	-0.16680703

memory_rnn.weight_ih f4 [256, 64]
0	0x3e51cf3b	0.20489208
1	0xbddd3369	-0.10800821
2	0x3d260c0c	0.040538833
3	0x3eec90fa	0.46204358
4	0xbe636076	-0.22204766
5	0xbceac683	-0.02865911
6	0xbf011cdb	-0.50434655
7	0xbd96c8cf	-0.0736252
8	0x3f55a3e2	0.8345319
9	0x3c168c22	0.009188684
10	0xbc59578f	-0.0132655045
11	0x3f71d2b7	0.9446215
12	0xbcf9b8e2	-0.030483667
13	0x3ce81a6c	0.028332911
14	0xbead4503	-0.33841714
15	0x3bda54c8	0.0066629387
16	0x3e58686a	0.21133581
17	0x3e6c95a3	0.23103957
18	0x3f08792a	0.5330988
19	0xbd49e889	-0.04929403
20	0xbe8346b1	-0.2563987
21	0x3efb6c8a	0.49106246
22	0xbeb0e7ba	-0.34551793
23	0x3e893951	0.2680154
24	0xbf19c807	-0.6007084
25	0xbdee9696	-0.11649816
26	0x3dc7f459	0.097634025
27	0x3e61bff9	0.22045888
28	0x3d917b4e	0.07103597
29	0xbdc65a7b	-0.096852265
30	0x3f2340b0	0.6377058
31	0xbd0c82fb	-0.0343046
32	0xbecbd815	-0.39813295
33	0x3eced761	0.40398696
34	0x3ef17808	0.4716189
35	0xbde28022	-0.11059596
36	0xbd505cdf	-0.05086982
37	0x3dc74497	0.09729879
38	0xbe2d31c1	-0.16913511
39	0xbf91bd87	-1.1385964
40	0xbe14311f	-0.14471863
41	0xbd5b0826	-0.053474568
42	0xbe1563f6	-0.14588913
43	0xbf68ca18	-0.9093337
44	0xbd1dd46f	-0.03853267
45	0x3d988ccb	0.07448729
46	0xbf3c7ba1	-0.7362614
47	0xbf2528db	-0.64515465
48	0x3d9bc900	0.07606697
49	0xbe6ef453	-0.2333539
50	0xbe0d278e	-0.1378462
51	0xbeaebb9b	-0.34127507
52	0xbd111bea	-0.03542701
53	0x3c6b390b	0.014356862
54	0xbf4aadba	-0.79171336
55	0xbe90d912	-0.28290612
56	0xbd00bab9	-0.031428073
57	0xbf8edf5c	-1.1161914
58	0xbf0b15ae	-0.54329956
59	0xbecc8756	-0.39947003
60	0x3e82501c	0.25451744
61	0xbd5bc406	-0.05365374
62	0x3e254d63	0.16142802
63	0xbdb4a018	-0.08819598
64	0xbf0d1c8e	-0.55121696
65	0x3de3e284	0.11127189
66	0xbe56c90e	-0.20975134
67	0xbf5faabb	-0.8736989
68	0xbee38c53	-0.44442996
69	0x3dc86017	0.09783953
70	0xbf211190	-0.62917423
71	0x3e6018d8	0.21884477
72	0x3d8a12b7	0.06741851
73	0x3e0b52cf	0.13605808
74	0xbce7fa3b	-0.028317561
75	0x3f6adfeb	0.9174792
76	0x3dd0fea7	0.10204821
77	0xbd17bd16	-0.03704556
78	0xbe39283a	-0.18081751
79	0x3d4cd54c	0.050008103
80	0xbee07427	-0.43838617
81	0xbe932b5e	-0.28744024
82	0xbf19a76f	-0.6002111
83	0xbf45d20d	-0.7727364
84	0xbd956a71	-0.07295693
85	0x3e7687ce	0.24075243
86	0xbf36eb99	-0.71453243
87	0xbeb8850a	-0.36039
88	0xbe947853	-0.2899805
89	0xbdf4e827	-0.11958342
90	0xbf11397c	-0.5672834
91	0xbf339355	-0.70146686
92	0xbdef4afd	-0.11684225
93	0xbd8010cd	-0.062532045
94	0x3f866394	1.0499139
95	0xbdd2cc41	-0.102928646
96	0xbd9adbd9	-0.07561464
97	0xbf9b1486	-1.2115638
98	0x3d8b8fc6	0.06814532
99	0xbf0abdf9	-0.54196125
100	0xbe368606	-0.17824563
101	0x3f39cd42	0.72578824
102	0xbe8db112	-0.27674156
103	0x3b03dcd6	0.0020120642
104	0xbe8b98b5	-0.27264944
105	0xbf3c548b	-0.735665
106	0xbf07febf	-0.53123087
107	0x3f026046	0.5092815
108	0x3f0923f1	0.5357047
109	0x3e4bde21	0.19908954
110	0x3f0ad3a6	0.542292
111	0xbf375cf7	-0.7162623
112	0x3e902677	0.28154346
113	0xbf3b009a	-0.7304779
114	0x3e3d1d95	0.18468316
115	0xbebe5fde	-0.37182516
116	0x3d702b1c	0.058634862
117	0xbea720fc	-0.32642353
118	0x3e44cbf0	0.19218421
119	0xbf05d01c	-0.52270675
120	0xbe1e46ba	-0.15456668
121	0xbc8d7d52	-0.017271671
122	0xbf09c03b	-0.53808945
123	0xbe51514f	-0.20441173
124	0xbe740962	-0.23831704
125	0xbe60fb5a	-0.21970883
126	0x3dcb84a5	0.09937409
127	0xbde8e0c8	-0.113709986
128	0x3fddf84f	1.7341403
129	0xbdabd807	-0.08390813
130	0xbddf71f3	-0.10910406
131	0x3f3507fb	0.707153
132	0x3e338229	0.17530121
133	0x3dcbb256	0.09946124
134	0x3f69a287	0.9126362
135	0x3d6a0e3b	0.057142477
136	0x3eb905cd	0.36137238
137	0xbc2ae6b0	-0.010430977
138	0x3caceb3c	0.021108262
139	0x3ee62cc2	0.44956023
140	0xbdd891b7	-0.10574668
141	0xbe1c2ff4	-0.15252668
142	0x3f3deb36	0.7418703
143	0xbdc0d583	-0.09415724
144	0x3f18058e	0.59383476
145	0xbe0d40d9	-0.13794269
146	0xbf143cf9	-0.57905537
147	0x3f0017a9	0.500361
148	0x3e8506d0	0.2598176
149	0x3f161181	0.5862046
150	0xbf11590b	-0.56776494
151	0xbe388e42	-0.18023017
152	0x3d795785	0.06087448
153	0x3de69951	0.112597115
154	0xbf733798	-0.95006704
155	0x3f0d801a	0.5527359
156	0xbddcf2a5	-0.10788468
157	0xbd7d9c55	-0.061916668
158	0xbf4b9727	-0.79527515
159	0xbb7a6a04	-0.0038210163
160	0x3ec4fde4	0.38474953
161	0x3f150ab5	0.5821946
162	0xbef7f27f	-0.48427197
163	0xbf0cce08	-0.5500188
164	0xbe0299c9	-0.12753977
165	0x3f62ad93	0.88546103
166	0x3f692f34	0.9108765
167	0xbf1f873b	-0.6231572
168	0x3ed2c001	0.41162112
169	0xbe613ada	-0.21995106
170	0xbe395cf2	-0.18101862
171	0xbdaab0be	-0.08334492
172	0xbef03b04	-0.46920025
173	0x3e30fb96	0.17283472
174	0x3f3642cb	0.7119567
175	0x3e82ec98	0.25571132
176	0x3ec8e9d3	0.39240894
177	0xbf14d3c3	-0.5813562
178	0xbe7c49e5	-0.24637564
179	0x3f8246db	1.0177873
180	0x3cf08d84	0.029364355
181	0xbea71ae7	-0.32637712
182	0x3dc58639	0.096447416
183	0xbf81bdc8	-1.0136042
184	0x3e9dc9ca	0.30818015
185	0x3f5a32aa	0.8523356
186	0xbe15b1b5	-0.14618571
187	0x3f50d7b6	0.8157915
188	0xbd97875a	-0.07398863
189	0xbd24f5cc	-0.040273473
190	0xbd1a788e	-0.037712626
191	0xbc868b15	-0.016423741
192	0xbee8b3c1	-0.4544964
193	0x3da82bef	0.08211505
194	0x3ddb940b	0.10721596
195	0xbf34447e	-0.7041701
196	0x3ca0b485	0.019617328
197	0xbdabfa0c	-0.08397302
198	0xbf3ed330	-0.74540997
199	0xbbd414ab	-0.0064721904
200	0xbd65a538	-0.056065768
201	0xbc5ef5ac	-0.013608377
202	0xbf22ecc5	-0.6364253
203	0xbf4d676d	-0.8023594
204	0xbce93b8e	-0.02847078
205	0x3ab7fb1e	0.0014036631
206	0xbea85ad4	-0.32881796
207	0xbd2dc033	-0.042419624
208	0xbef2f06c	-0.47449052
209	0xbeb48a2b	-0.35261664
210	0xbecdcb13	-0.40193996
211	0xbf4a14d0	-0.7893801
212	0xbf730c7a	-0.9494091
213	0x3e2feae5	0.17179449
214	0xbf71a6d8	-0.9439521
215	0xbf3e5c2d	-0.743594
216	0xbe1e497a	-0.15457717
217	0xbc50cb0a	-0.012743721
218	0xbe6220e9	-0.22082867
219	0xbf0673b6	-0.5252031
220	0xbe5b533a	-0.21418467
221	0xbda818cc	-0.08207855
222	0xbee6009a	-0.44922334
223	0xbe1f4540	-0.1555376
224	0xbf113699	-0.56723934
225	0xbeb73d84	-0.3578912
226	0xbe3e0595	-0.18556817
227	0xbf5ab9a9	-0.85439545
228	0xbe3734ac	-0.17891186
229	0x3ddc241b	0.10749074
230	0xbf668857	-0.9005179
231	0x3e93ef8c	0.28893697
232	0xbdd988e1	-0.10621811
233	0xbf34a621	-0.7056599
234	0xbf71268f	-0.9419946
235	0xbc8ceb2f	-0.017201988
236	0xbf7c0f89	-0.98461205
237	0xbf866807	-1.0500497
238	0xbe83fb02	-0.2577744
239	0x3db25398	0.087073505
240	0x3ed56d13	0.4168478
241	0xbf70e263	-0.9409544
242	0xbf650c3d	-0.894718
243	0xbf6cde8a	-0.9252707
244	0xbdf52bfc	-0.1197128
245	0xbe3ca8d0	-0.18423772
246	0xbef494aa	-0.47769672
247	0xbfc30965	-1.5237242
248	0xbf4cda9b	-0.80021065
249	0xbe0bc555	-0.13649495
250	0xbedb993e	-0.42890352
251	0xbfdb6c36	-1.7142398
252	0x3e9d3b58	0.30709338
253	0xbd496763	-0.049170863
254	0xbee567a8	-0.44805646
255	0xbe2cc9b2	-0.16873816

memory_rnn.weight_hh f4 [256, 64]
0	0xbedf23e3	-0.43582067
1	0xbf8767c0	-1.0578537
2	0xbc83c9cf	-0.01608744
3	0xbf9371ce	-1.1519105
4	0x3f862568	1.0480165
5	0x3ee7ee31	0.45298913
6	0x3ecbf30d	0.3983387
7	0x3f4e69db	0.8063027
8	0x3eb23311	0.34804586
9	0xbeab1f30	-0.33422232
10	0xbe1c9c41	-0.15293981
11	0xbf9a45c7	-1.2052544
12	0x3e360c4d	0.1777813
13	0xbfd66526	-1.6749618
14	0xbfbd5685	-1.4792029
15	0x3f205b30	0.6263914
16	0x3e81d106	0.25354785
17	0x3f89bbec	1.0760474
18	0x3fa84664	1.3146482
19	0xbe48b7a7	-0.19601308
20	0x3e8c0ee5	0.27355114
21	0xbef1a5ad	-0.47196713
22	0x3f69c955	0.91322833
23	0x3d2bff03	0.041991245
24	0xbd93c77e	-0.072157845
25	0x3ec39467	0.3819916
26	0x4003768d	2.0541108
27	0x3ded4665	0.11585692
28	0xbe988889	-0.29791668
29	0xbf3a5443	-0.72784823
30	0x3ea6f33e	0.32607454
31	0xbee0bcd6	-0.4389407
32	0x3d6a0f01	0.057143215
33	0xbf13af9d	-0.5768984
34	0x3dc21f0b	0.09478577
35	0xbe827272	-0.2547794
36	0x3f6c2f0a	0.92259276
37	0x3fd7f6ad	1.6872154
38	0x3eb36e3e	0.35045046
39	0xbe0b9b64	-0.13633496
40	0x3ecc04ee	0.3984751
41	0xbf7e7e3a	-0.99411356
42	0xbdf148e2	-0.117814794
43	0x3f003353	0.50078315
44	0xbdabb320	-0.08383775
45	0xbf88382b	-1.0642141
46	0xbf4c9f2d	-0.7993038
47	0xbeb075da	-0.34464914
48	0xbe584f3d	-0.21123977
49	0xbea80622	-0.3281718
50	0xbf193be9	-0.5985704
51	0xbeb6d067	-0.35705873
52	0xbf9a7616	-1.2067287
53	0xbfae61db	-1.3623613
54	0xbf4d7823	-0.8026144
55	0xbf4ba18d	-0.7954338
56	0x3e8fb9e0	0.280715
57	0xbdbc5a70	-0.09196937
58	0xbec2f1c0	-0.38075066
59	0x3f679d8d	0.9047478
60	0x3f8659af	1.0496119
61	0xbea367d9	-0.31915167
62	0x3e3494ba	0.1763486
63	0xbf1e715e	-0.61891735
64	0xbeb6cfb6	-0.35705346
65	0xbf1ea34c	-0.6196792
66	0xbf61116e	-0.8791722
67	0x3f675c14	0.90374875
68	0x3e197536	0.14986119
69	0x3f0e41b4	0.55569005
70	0x3ec50ffe	0.38488764
71	0x3f873fc0	1.056633
72	0xbf60cc77	-0.8781199
73	0xbe652a6d	-0.22379465
74	0xbf170174	-0.5898659
75	0xbdef7779	-0.116927095
76	0x3f14ef43	0.58177584
77	0xbfddd4a0	-1.7330513
78	0xbfe2d3bc	-1.7720866
79	0x3ecb8c2e	0.39755386
80	0x3e4f59ac	0.20249051
81	0x3dcb9f08	0.09942442
82	0x3f9cdc43	1.2254719
83	0xbf61ed93	-0.88253134
84	0x3f8e13f6	1.1099842
85	0x3e64347f	0.2228565
86	0x3f395da8	0.72408533
87	0x3f82df88	1.0224466
88	0xbf866e55	-1.0502421
89	0x3e5421b9	0.20715989
90	0x3f9572ed	1.1675698
91	0xbe4fc0e6	-0.20288429
92	0x3f3037fa	0.68835413
93	0xbe8c8ad6	-0.27449673
94	0xbda0b8e6	-0.078477666
95	0x3d86c6b1	0.06580866
96	0xbe79a08f	-0.24377654
97	0xbf809e30	-1.0048275
98	0xbf0cb483	-0.5496294
99	0x3e404bb8	0.18778884
100	0x3e0646b2	0.13112906
101	0x3edc7ea2	0.43065363
102	0x3edd315f	0.4320173
103	0xbeb33905	-0.3500444
104	0x3f24fc5b	0.64447564
105	0xbf01af12	-0.5065776
106	0x3f5cba2e	0.8622159
107	0xbdc386cc	-0.09547195
108	0x3da2b693	0.079449795
109	0xbf1b945c	-0.60773253
110	0xbe07ae9b	-0.132502
111	0xbeeb38af	-0.45941684
112	0xbfc7ab0d	-1.5599076
113	0x3f15e345	0.5854991
114	0xbef6cef7	-0.48204777
115	0x3e93adbb	0.28843483
116	0xbf0f4359	-0.5596214
117	0xbf4790c8	-0.77955294
118	0xbef0cd12	-0.47031456
119	0xbfa8c511	-1.318514
120	0xbf17c3f2	-0.59283364
121	0xbecbd237	-0.3980882
122	0x3e84f217	0.2596595
123	0xbcbd0cf8	-0.023077473
124	0x3f054e55	0.5207265
125	0xbec60f6b	-0.38683638
126	0xbf1771c4	-0.5915797
127	0x3e844c39	0.25839403
128	0x3f0c1bc5	0.5472987
129	0xbf32720c	-0.6970527
130	0x3f20b223	0.62771815
131	0x3e81a698	0.25322413
132	0xbd775592	-0.06038434
133	0xbdaffea7	-0.08593493
134	0x3e84d291	0.259419
135	0x3d867cda	0.06566782
136	0x3edf4ea4	0.43614686
137	0x3f87cf1b	1.0610079
138	0xbe979b80	-0.29610825
139	0xbe5c820a	-0.21533981
140	0x3f87745a	1.0582383
141	0xbf45d574	-0.7727883
142	0xbf957e25	-1.1679121
143	0xbf8a131c	-1.0787082
144	0x3f3bb39f	0.73320955
145	0x3fa55955	1.2917887
146	0x3ff4c531	1.9122678
147	0x3e95a7be	0.2922954
148	0x3ed959b9	0.42451265
149	0x3ec2dde1	0.38059905
150	0x3e5ce843	0.21572976
151	0x3eb7ea2d	0.3592085
152	0xbf757bd9	-0.958921
153	0x3f89d0ac	1.0766807
154	0x3f15b75d	0.58482915
155	0xbf41a722	-0.7564565
156	0x3f4a8abc	0.7911794
157	0xbe8458ae	-0.25848907
158	0x3ef38c92	0.47568184
159	0x3e9a1bc7	0.30099317
160	0x3ddf84f3	0.1091403
161	0xbecc8272	-0.39943272
162	0xbf6c9a6f	-0.92423147
163	0x3e08a600	0.13344574
164	0x3eb11eb4	0.34593737
165	0x3f26d377	0.6516642
166	0x3edccedd	0.43126574
167	0x3e6338c5	0.22189625
168	0xbea7126c	-0.32631242
169	0xbf68ac90	-0.9088831
170	0xbeaee26b	-0.34157118
171	0xbe9fc997	-0.31208488
172	0xbe109efe	-0.1412315
173	0x3f8cc8f3	1.0998825
174	0x3d3321e5	0.043733496
175	0xbf1dc017	-0.6162123
176	0x3e8fb5fd	0.28068534
177	0xbf2418c0	-0.64100266
178	0xbfa5d3a5	-1.2955214
179	0x3ea75edc	0.3268956
180	0xbeef8428	-0.46780515
181	0xbfb4ee2e	-1.4135187
182	0xbe81b5f1	-0.25334123
183	0xbf45d70a	-0.7728125
184	0xbec629f8	-0.38703895
185	0xbea6d3cb	-0.3258346
186	0x3e342306	0.17591485
187	0xbe61f47b	-0.22065918
188	0x3f2b5da0	0.66939735
189	0x3f19cc08	0.6007695
190	0xbe8a42f1	-0.27004197
191	0x3f573cfd	0.84077436
192	0xbf864252	-1.0488989
193	0xbfab898a	-1.3401349
194	0x3f2ef615	0.6834424
195	0x3f19d382	0.6008836
196	0x3dc1ec72	0.094689265
197	0xbf2b8505	-0.66999847
198	0x3e8284a9	0.25491837
199	0xbe66576f	-0.22494291
200	0xbd4a0b02	-0.049326904
201	0xbd70848b	-0.058720153
202	0xbf8e8204	-1.1133428
203	0xbed0d354	-0.4078623
204	0xbf29ae37	-0.66281456
205	0xbf3b6a64	-0.73209214
206	0x3ebd758e	0.3700375
207	0xbc339dd6	-0.010962924
208	0x3cff877b	0.031192532
209	0x3eb568ec	0.35431612
210	0x3bc9d9ec	0.0061600115
211	0x3d8ceb89	0.06880862
212	0xbd0275de	-0.03185069
213	0xbf87d6f0	-1.0612469
214	0x3fd0e8ac	1.6321006
215	0x3f1c427c	0.6103895
216	0x3e0803db	0.1328272
217	0x3e342d21	0.1759534
218	0x3f9add6e	1.2098825
219	0xbd40db00	-0.047083855
220	0x3e9248e6	0.28571242
221	0xbdfcdfaf	-0.12347352
222	0xbf5e3205	-0.86795074
223	0x3f86a122	1.0517924
224	0xbf996da3	-1.1986583
225	0xbf75e425	-0.96051246
226	0xbfa4be47	-1.2870568
227	0xbd25b987	-0.040460136
228	0x3d98e8cf	0.0746628
229	0xbe08c361	-0.13355781
230	0x3f62582d	0.88415796
231	0x3e8bbda4	0.27293122
232	0xbe8a0837	-0.26959392
233	0x3fb282f6	1.3946216
234	0x3f370d68	0.7150483
235	0x3ec87937	0.3915498
236	0x3f00abaf	0.5026197
237	0x3f84981e	1.0358922
238	0x3ff22b39	1.891944
239	0xbf5b2f46	-0.8561901
240	0x3f31848a	0.69342864
241	0x3f4d420c	0.80178905
242	0x3f44ed36	0.76924455
243	0xbf4a7f3a	-0.7910038
244	0xbef540d8	-0.47901034
245	0xbec871b5	-0.39149252
246	0x3dd3ecc1	0.103478916
247	0xbf40d21e	-0.75320613
248	0xbe877927	-0.2645962
249	0xbe3dccc0	-0.18535137
250	0x3e824b2a	0.2544797
251	0xbf2c59d5	-0.6732457
252	0xbe8c478d	-0.2739834
253	0x3f84e093	1.0381035
254	0xbf3646c1	-0.7120171
255	0x3ec36a0b	0.38166842

memory_rnn.bias_ih f4 [256]
0	0xbdee8eb8	-0.11648315
1	0xbf4aa5a8	-0.7915902
2	0xbe941675	-0.28923383
3	0xbfe2f0ef	-1.7729777
4	0xbe4c9d39	-0.1998185
5	0xbf0d7069	-0.5524965
6	0xbee3f239	-0.4452074
7	0xbe2497d8	-0.16073549
8	0xbe860f22	-0.2618342
9	0xbf1e45eb	-0.61825436
10	0xbebea195	-0.37232652
11	0xbee106eb	-0.4395059
12	0xbe83a43c	-0.25711238
13	0xbfaa0494	-1.3282647
14	0xbfe0e912	-1.7571127
15	0xbf1e489a	-0.6182953
16	0xbef38d69	-0.47568825
17	0xbee0cab1	-0.4390464
18	0xbf492bd0	-0.7858248
19	0xbefa2cb1	-0.48862222
20	0xbf016095	-0.50538
21	0xbeaeee14	-0.34166014
22	0xbfb0223f	-1.3760451
23	0xbe21142c	-0.15730351
24	0xbf524a2d	-0.82144433
25	0xbe5ceafc	-0.21574014
26	0xbf0e527d	-0.5559462
27	0xbe75a0d8	-0.23987138
28	0xbf0441ae	-0.5166272
29	0x3d3e5800	0.046470642
30	0xbf3530e0	-0.707777
31	0xbee33954	-0.44379675
32	0xbfe3492c	-1.7756705
33	0xbe0897b7	-0.13339125
34	0xbc028a87	-0.007967598
35	0xbdf5f231	-0.12009085
36	0xbecb1025	-0.39660755
37	0xbf9bfe3b	-1.218696
38	0xbf1e8246	-0.6191753
39	0xbeb3a9bc	-0.35090435
40	0xbf8a7c5e	-1.0819204
41	0xbf6248c5	-0.8839229
42	0x3e0c002d	0.13671942
43	0xbecd3370	-0.40078306
44	0xbe888212	-0.26661736
45	0xbfd017b0	-1.6257229
46	0xbff2f995	-1.8982416
47	0xbe647dc4	-0.22313601
48	0xbf8cd2e2	-1.1001856
49	0x3e3eb169	0.18622364
50	0xbe655aa5	-0.2239786
51	0xbeb5f7dd	-0.35540667
52	0xbf23b84d	-0.63953096
53	0x3c3a749d	0.011380342
54	0x3f1c7ea5	0.61130744
55	0x3e786721	0.2425809
56	0xbea1baef	-0.31587932
57	0xbec34828	-0.38140988
58	0xbe116ce9	-0.14201702
59	0xbec04baa	-0.37557727
60	0xbebc33e2	-0.36758333
61	0xbfdcba1b	-1.7244295
62	0xbfb290f9	-1.3950492
63	0xbe5bce0a	-0.21465316
64	0x3e8f6885	0.2800943
65	0x3eae9642	0.34099013
66	0xbd04575e	-0.032309882
67	0x3f4800bb	0.78126115
68	0x3e7d3d02	0.24730304
69	0xbdf2c1b3	-0.118533514
70	0x3e80882f	0.251039
71	0xbea26ecc	-0.31725156
72	0xbee7303d	-0.4515399
73	0x3de36654	0.11103502
74	0xbeb45aff	-0.35225675
75	0x3e03236e	0.12806484
76	0xbf4dfc1c	-0.80462813
77	0x3efbd9e0	0.49189663
78	0xbee13b39	-0.43990496
79	0x3c5f38df	0.013624399
80	0xbef4b9fa	-0.4779814
81	0xbe563cdc	-0.20921654
82	0xbeab3b01	-0.33443454
83	0xbca3e68e	-0.020007398
84	0x3d6640c7	0.05621412
85	0xbde255a0	-0.11051488
86	0x3e58c1ce	0.2116768
87	0x3e8dce16	0.27696294
88	0xbea7ac0d	-0.32748452
89	0xbebfef65	-0.3748733
90	0xbf7b339c	-0.98125625
91	0xbf53ec26	-0.8278221
92	0xbdf76ee6	-0.12081699
93	0xbeada2bc	-0.3391322
94	0x3bf59c45	0.0074954354
95	0xbd55ee72	-0.052229352
96	0x3e47531e	0.194653
97	0xbec7ec28	-0.3904736
98	0xbe81a72c	-0.25322855
99	0xbe905798	-0.2819183
100	0x3ea39257	0.31947586
101	0xbee4335a	-0.44570428
102	0xbcba0a81	-0.022710087
103	0xbf1ad52f	-0.6048154
104	0x3e09a885	0.13443191
105	0x3e2d6320	0.16932344
106	0xbf422f41	-0.75853354
107	0xbed1325e	-0.4085874
108	0xbe18b76c	-0.1491372
109	0x3f08476b	0.53233975
110	0x3f0726ea	0.52793753
111	0xbde21aa3	-0.11040237
112	0x3ecec43d	0.40384093
113	0xbe9ac1b1	-0.302259
114	0xbe66b00a	-0.22528091
115	0x3ba78b7f	0.005113065
116	0xbea9971e	-0.33123106
117	0xbf33a2a7	-0.7017006
118	0xbe7cc652	-0.24685028
119	0x3dfb288d	0.12263594
120	0xbf017e8e	-0.5058373
121	0xbdc4dbf3	-0.096122645
122	0xbdafb5a7	-0.08579569
123	0x3dae3d7c	0.08507821
124	0xbeddfde3	-0.43357763
125	0x3f1b2ad2	0.60612214
126	0x3d2257ea	0.039634623
127	0xbed889f3	-0.42292747
128	0x3d0667c4	0.032813802
129	0xbd845c14	-0.06462875
130	0x3df1ede9	0.11812956
131	0xbdcb6c8e	-0.099328145
132	0x3e3adeb1	0.18249013
133	0xbd4544fd	-0.048161495
134	0x3df01477	0.11722653
135	0xbde10aaa	-0.10988362
136	0xbe69753e	-0.2279863
137	0x3e6f3a11	0.23361994
138	0xbe4214ca	-0.18953243
139	0xbd33e557	-0.043919887
140	0xbe78ab30	-0.24284053
141	0x3d43f0e2	0.047837146
142	0x3e096143	0.13416009
143	0x3df225e8	0.11823636
144	0xbe0d6996	-0.13809809
145	0xbdeca1b1	-0.11554278
146	0xbb8159e2	-0.0039474824
147	0x3d5691a2	0.05238498
148	0xbd733d0d	-0.059384394
149	0x3e6b0b56	0.22953543
150	0x3c68b4c7	0.014203257
151	0x3ccacb1e	0.024755057
152	0x3db979ff	0.09056472
153	0xbe802952	-0.25031525
154	0xbdea801c	-0.11450216
155	0xbe87ebef	-0.2654719
156	0xbd8638fa	-0.06553836
157	0x3e7f90f1	0.24957635
158	0xbe32d6cb	-0.1746475
159	0x3e3483d8	0.1762842
160	0xbeb3ee89	-0.35142925
161	0x3965de4b	0.00021921952
162	0xbc806000	-0.015670776
163	0xbe04bc66	-0.12962493
164	0xbdbe48a3	-0.09291198
165	0xbd1af5d7	-0.037832107
166	0x3da15c4b	0.078789316
167	0x3e988c42	0.29794508
168	0x3eb5173d	0.35369292
169	0xbd4e31af	-0.05034035
170	0xbe0b83c2	-0.1362448
171	0xbe977c78	-0.2958715
172	0xbd569c1e	-0.05239498
173	0xbebf6f5a	-0.37389642
174	0xbe3c0042	-0.18359473
175	0xbd8662d2	-0.06561817
176	0xbe54861d	-0.20754285
177	0xbe01e49f	-0.12684868
178	0xbda25f54	-0.07928339
179	0xbdd7115e	-0.105013594
180	0xbea6c517	-0.32572243
181	0x3e967686	0.293873
182	0xbe3980fc	-0.1811561
183	0x3db1f0f9	0.0868854
184	0xbc9b2d5a	-0.018942524
185	0xbe31711f	-0.17328309
186	0xbdc28cdb	-0.09499522
187	0xbdfcfde1	-0.12353111
188	0x3e5f8a1b	0.21830027
189	0xbdae7578	-0.08518499
190	0x3de801e8	0.113284886
191	0xbdfba801	-0.122879036
192	0xbe8771a7	-0.26453897
193	0x3da890f9	0.08230776
194	0xbd7f5e17	-0.06234559
195	0x3e978f4f	0.29601523
196	0x3deb71d5	0.11496321
197	0xbe6164f3	-0.22011165
198	0xbe46971f	-0.19393586
199	0xbe9091b1	-0.28236154
200	0xbe87d669	-0.2653077
201	0xbe1304e6	-0.14357337
202	0xbecec6ae	-0.40385956
203	0xbf46003e	-0.7734412
204	0xbe71010c	-0.23535556
205	0x3f4c3721	0.7977162
206	0xbf2cd20f	-0.67508024
207	0x3cbaccea	0.022802789
208	0xbdd1c325	-0.10242299
209	0xbe886f7f	-0.26647565
210	0xbf100e4c	-0.56271815
211	0x3ed5d5bd	0.41764632
212	0xbe1b7195	-0.15180047
213	0xbde6db2f	-0.11272275
214	0x3da617c1	0.081099994
215	0xbdad41ed	-0.0845984
216	0xbeaf963a	-0.342943
217	0xbece8680	-0.4033699
218	0xbdda64c2	-0.10663749
219	0xbf05a4fd	-0.5220488
220	0xbf3e99b0	-0.7445326
221	0xbf0b2e14	-0.54367185
222	0xbe45ffa9	-0.19335808
223	0xbe85927c	-0.2608832
224	0xbdd0be3f	-0.101925366
225	0xbe6f41c3	-0.2336493
226	0x3e17a7a2	0.1481004
227	0xbe393706	-0.18087396
228	0x3d9b62f7	0.075872354
229	0xbdf90ff2	-0.121612445
230	0xbede219e	-0.43385023
231	0xbe7bd7a6	-0.24593982
232	0xbe10f451	-0.141557
233	0x3e49d2c5	0.19709308
234	0xbe88dcd4	-0.26730978
235	0xbebb5e10	-0.36595201
236	0xbe8e5e8c	-0.2780651
237	0x3e0e68a3	0.13907103
238	0x3f23d882	0.6400224
239	0x3dcffc76	0.10155575
240	0xbe2e06c7	-0.16994773
241	0xbe5aa549	-0.21352114
242	0xbdd87d2b	-0.10570749
243	0x3e538cb1	0.20659138
244	0xbe50a997	-0.20377193
245	0x3b9c6c8b	0.0047736815
246	0xbf11825e	-0.5683955
247	0xbea32eb4	-0.3187157
248	0xbf41a69d	-0.75644857
249	0xbf13dec1	-0.5776177
250	0xbea9a4f4	-0.33133662
251	0xbf0b877a	-0.54503596
252	0xbef0ce8c	-0.47032583
253	0x3e50b06f	0.20379804
254	0x3d8e0aa9	0.06935627
255	0xbea6715c	-0.3250836

memory_rnn.bias_hh f4 [256]
0	0xbe8e219f	-0.27760026
1	0xbf202c54	-0.6256764
2	0xbe557299	-0.20844497
3	0xbfd929a3	-1.6965832
4	0x393c3608	0.00017949205
5	0xbeeb285a	-0.45929223
6	0xbefc4c87	-0.49277136
7	0xbe770c66	-0.24125823
8	0xbe60ff4c	-0.21972388
9	0xbf0fae3b	-0.5612523
10	0xbec1274f	-0.37725303
11	0xbe8f4339	-0.27980974
12	0xbdaafcab	-0.08348974
13	0xbfa52fe2	-1.2905238
14	0xbfd9fca0	-1.703022
15	0xbf1b7ee2	-0.6074048
16	0xbeba82e9	-0.36428002
17	0xbe97ce3c	-0.29649532
18	0xbf2f6f4c	-0.685292
19	0xbf1b9a36	-0.6078218
20	0xbede5820	-0.4342661
21	0xbe1e03d9	-0.15431155
22	0xbfb36885	-1.4016272
23	0xbdf34aa2	-0.118794695
24	0xbf1aa107	-0.6040196
25	0xbeac124c	-0.3360771
26	0xbf05be95	-0.5224393
27	0xbdf873f9	-0.12131495
28	0xbf2d0c37	-0.67596763
29	0xbda652f1	-0.081212886
30	0xbf0509f2	-0.519683
31	0xbed643a4	-0.4184848
32	0xbfdb2980	-1.712204
33	0xbe8aaa3a	-0.27082998
34	0xbe133037	-0.14373861
35	0x3a9069ff	0.0011017917
36	0xbee51a7d	-0.4474677
37	0xbf9645cd	-1.1740052
38	0xbef8290b	-0.48468813
39	0xbebf49ee	-0.3736109
40	0xbf8e7244	-1.1128621
41	0xbf8a0db6	-1.0785434
42	0x3d8f104d	0.06985531
43	0xbec96c66	-0.39340514
44	0xbe995454	-0.2994715
45	0xbfc782e6	-1.5586822
46	0xbfee399d	-1.8611332
47	0xbeae4e77	-0.3404424
48	0xbf82fd50	-1.0233555
49	0x3e592c19	0.21208228
50	0xbe8c5dc9	-0.27415302
51	0xbef7d041	-0.48401073
52	0xbf31699f	-0.6930179
53	0x3e81e96e	0.25373405
54	0x3f07a385	0.52983886
55	0x3e291754	0.16512805
56	0xbe9d274b	-0.3069404
57	0xbec0c00a	-0.37646514
58	0xbe693c13	-0.22776823
59	0xbecfbca8	-0.4057362
60	0xbecb567a	-0.39714414
61	0xbff028c9	-1.8762447
62	0xbfc7ca1d	-1.5608555
63	0xbdffc31a	-0.124883845
64	0x3e87190c	0.26386297
65	0x3ed62706	0.41826648
66	0xba8af339	-0.001060105
67	0x3f827b94	1.0193963
68	0x3e82e808	0.2556765
69	0xbe3483d5	-0.17628415
70	0x3e523ac6	0.20530233
71	0xbe8ee5d4	-0.2790972
72	0xbef1a67c	-0.4719733
73	0xbcb04a10	-0.02151969
74	0xbe831dd2	-0.2560869
75	0x3e8010ae	0.25012726
76	0xbf476a56	-0.7789663
77	0x3eba333e	0.3636722
78	0xbe8ade0b	-0.2712253
79	0x3d90f1f2	0.070773974
80	0xbf05c0ad	-0.52247125
81	0xbe905459	-0.28189352
82	0xbecb8ce7	-0.39755937
83	0xbc78933d	-0.015171823
84	0xbcacd6bd	-0.021098489
85	0xbd578e34	-0.05262585
86	0x3e32dc08	0.17466748
87	0x3e7bfe02	0.24608615
88	0xbe684877	-0.22683893
89	0xbed6647f	-0.41873547
90	0xbf5ec92c	-0.87025714
91	0xbf7ec87d	-0.9952467
92	0x3d0c737d	0.034289826
93	0xbeca753a	-0.39542562
94	0xbd44d10f	-0.048050936
95	0xbe3bed13	-0.18352155
96	0x3e7befdb	0.24603216
97	0xbecf8cf8	-0.40537238
98	0xbec327fa	-0.38116437
99	0xbea02799	-0.3128021
100	0x3f039934	0.51405644
101	0xbe9cf319	-0.3065422
102	0xbce7f54f	-0.028315214
103	0xbf0761f3	-0.52883834
104	0x3e461c1c	0.1934666
105	0x3e47cea6	0.19512424
106	0xbf63232f	-0.8872556
107	0xbec3c264	-0.38234246
108	0xbc21a81b	-0.00986674
109	0x3ee505c6	0.44730967
110	0x3f061462	0.5237485
111	0xbda0173b	-0.07816931
112	0x3ee062f0	0.43825483
113	0xbead9c51	-0.33908322
114	0xbe9cbd44	-0.30613148
115	0xbd696e92	-0.056990214
116	0xbded14ee	-0.11576258
117	0xbf4323c3	-0.76226443
118	0xbe495688	-0.19661915
119	0x3cd1c75d	0.02560776
120	0xbee64f71	-0.44982484
121	0xbe15ada9	-0.14617027
122	0xbe68d109	-0.2273599
123	0x3d167f37	0.036742415
124	0xbeecab1d	-0.462243
125	0x3efa0bb9	0.4883707
126	0xbd7676e3	-0.060171973
127	0xbea17f6d	-0.3154253
128	0xbd5d37b6	-0.05400821
129	0xbd5d49b6	-0.054025374
130	0x3df49c2e	0.119438514
131	0xbda46f28	-0.08029014
132	0x3e68a793	0.22720174
133	0x3d4dcc19	0.05024347
134	0xbd92cac7	-0.07167583
135	0xbca4a2ff	-0.020097254
136	0xbdf473a3	-0.119361185
137	0x3e423aab	0.18967693
138	0xbe38d0dd	-0.18048425
139	0x3d8dd453	0.06925263
140	0xbe8917ca	-0.26775962
141	0x3c7ab885	0.015302782
142	0x3e403f9f	0.1877427
143	0x3e27a497	0.1637138
144	0xbe0a8912	-0.1352885
145	0xbe0ea95c	-0.13931793
146	0xbd589099	-0.052872274
147	0xbca9281d	-0.02064901
148	0xbc9de507	-0.019274248
149	0x3d34cdf3	0.04414172
150	0x3cc9361b	0.024561932
151	0x3d2ecbb0	0.04267472
152	0xbc276bd5	-0.01021858
153	0xbd9db29c	-0.07700083
154	0xbdd2ba8e	-0.10289489
155	0xbe82d7f6	-0.2555539
156	0xbd275939	-0.040856574
157	0x3e80f077	0.2518346
158	0xbeac4a9d	-0.33650675
159	0x3cf45ae6	0.0298285
160	0xbe9a3293	-0.3011671
161	0x3dfe391f	0.12413239
162	0x3d502cad	0.050823856
163	0xbe093c22	-0.13401845
164	0xbe0db9df	-0.13840435
165	0xbe2bd6eb	-0.16781203
166	0x3bd8ac8d	0.0066123665
167	0x3e98e3bc	0.29861248
168	0x3e082208	0.13294232
169	0x3d4740cf	0.04864579
170	0x3d0a503c	0.033767924
171	0xbe626d5b	-0.22112028
172	0xbc2524ca	-0.010079572
173	0xbe2f737e	-0.171339
174	0xbdf7b1b3	-0.1209444
175	0xbd8376da	-0.064191535
176	0xbe205c5b	-0.15660231
177	0xbd6a642c	-0.057224438
178	0xbdf5e4be	-0.1200652
179	0xbe0ef84f	-0.1396191
180	0xbe9aa007	-0.30200216
181	0x3e2feacb	0.1717941
182	0xbe41ba66	-0.18918762
183	0x3dd03a72	0.101673976
184	0xbb84a74e	-0.0040482646
185	0xbe06ce40	-0.13164616
186	0xbe2b7bc9	-0.16746439
187	0xbe12208b	-0.14270227
188	0x3d413d28	0.047177464
189	0xbdc739d2	-0.09727825
190	0x3d12fb9e	0.035884492
191	0xbe56e21f	-0.20984696
192	0xbe818b18	-0.25301433
193	0x3e3562ea	0.17713514
194	0xbe05400d	-0.13012715
195	0x3eed5454	0.463534
196	0xbd81af86	-0.063323066
197	0xbe53b7fb	-0.20675652
198	0xbd72d8ec	-0.059288904
199	0xbebed8ef	-0.37274882
200	0xbe62155a	-0.22078457
201	0xbe4649e8	-0.1936413
202	0xbef739b0	-0.482862
203	0xbf2ff5ee	-0.68734634
204	0xbeba7377	-0.36416218
205	0x3f511233	0.81668395
206	0xbef47c6b	-0.47751173
207	0xbda2369a	-0.07920571
208	0xbe82f20b	-0.2557529
209	0xbe148e73	-0.14507465
210	0xbf335464	-0.70050645
211	0x3ea9ab97	0.33138725
212	0xbe2285ef	-0.15871404
213	0xbe5a95a8	-0.21346152
214	0x3e385867	0.18002473
215	0xbe4fc4a9	-0.20289864
216	0xbf07dd5a	-0.5307213
217	0xbec469c0	-0.3836193
218	0xbe436cbc	-0.19084448
219	0xbed3b5b5	-0.4134957
220	0xbf13f0d6	-0.5778936
221	0xbef78dd1	-0.48350385
222	0xbe3f7dd5	-0.18700345
223	0xbe7e7621	-0.2484975
224	0xbc50e19f	-0.012749105
225	0xbe0617ef	-0.13095067
226	0xbd5328b3	-0.051552486
227	0xbde1476c	-0.10999951
228	0x3dde772a	0.108625725
229	0x3d27e819	0.04099283
230	0xbf229f8e	-0.6352471
231	0xbe3ab67e	-0.18233678
232	0xbd4d3d1a	-0.0501071
233	0x3e1507e8	0.14553797
234	0xbdc66c4f	-0.09688627
235	0xbee681a4	-0.45020783
236	0xbe8f9fee	-0.28051704
237	0x3e256a02	0.1615372
238	0x3f226a7a	0.6344372
239	0xbd3ed964	-0.04659404
240	0xbda8fd0e	-0.08251391
241	0xbdcaffa5	-0.099120416
242	0xbca45010	-0.020057708
243	0x3d92b7e4	0.071639806
244	0xbe03c5d3	-0.12868433
245	0xbd3cb8e1	-0.04607475
246	0xbf114652	-0.56747925
247	0xbe777d84	-0.24168974
248	0xbf491e29	-0.78561646
249	0xbeb9e3b8	-0.36306548
250	0xbec71bc8	-0.38888383
251	0xbeb7e605	-0.35917678
252	0xbecc4ada	-0.39900857
253	0x3c8e6d86	0.01738621
254	0x3e351935	0.17685397
255	0xbeb1c15d	-0.34717837
