torch-rl/storage/bak/Lstm-Customs-SimpleCorridor-v0_1M/status.pt (torch, 650709 bytes, 51 tensors)

image_conv.0.weight f4 [16, 3, 2, 2]
0	0x3f071779	0.5277019
1	0xbec46f6a	-0.38366252
2	0xbe6c3598	-0.2306732
3	0xbde7a76e	-0.113112316
4	0xbe61ecfb	-0.22063057
5	0xbe48fdbb	-0.1962804
6	0xbeee0125	-0.46485248
7	0xbecd85d4	-0.40141165
8	0x3d246023	0.040130746
9	0xbd10c794	-0.035346583
10	0x3da3fa45	0.080067195
11	0x3c69527e	0.014240859
12	0xbdb85354	-0.090002686
13	0xbe4ddad6	-0.2010301
14	0xbdea3f4e	-0.11437856
15	0xbe41471d	-0.18874784
16	0xbcae7eb1	-0.021300646
17	0xbcc8c801	-0.024509432
18	0x3e21b9ea	0.15793577
19	0xbd580827	-0.05274215
20	0xbddc2b47	-0.10750442
21	0xbe328872	-0.17434862
22	0xbd4630e4	-0.04838647
23	0xbdff02f1	-0.12451733
24	0x3d6aa9c0	0.057290792
25	0xbf2367f4	-0.63830495
26	0xbda35af3	-0.079763316
27	0xbf109498	-0.56476736
28	0xbeab36a3	-0.33440122
29	0xbe0e3c89	-0.1389028
30	0xbece2659	-0.40263632
31	0xbe065c8f	-0.13121246
32	0x3e431daa	0.19054285
33	0xbe86aaec	-0.26302278
34	0xbe8c87f4	-0.27447474
35	0xbe0e9438	-0.13923728
36	0x3e11620d	0.1419756
37	0xbe80d777	-0.25164387
38	0xbdc51642	-0.09623386
39	0xbed26bc2	-0.41097838
40	0x3cf7dbe8	0.030256227
41	0xbea8db39	-0.32979754
42	0xbd0340a1	-0.032044057
43	0xbea175cf	-0.31535193
44	0xbe1bba9f	-0.15207909
45	0x3e17f1cb	0.1483833
46	0xbe1ce986	-0.15323457
47	0x3dade06d	0.084900714
48	0xbe389bf8	-0.18028247
49	0xbe263367	-0.16230546
50	0xbee67cb1	-0.45017007
51	0xbe93fea2	-0.28905207
52	0x3d9f74a1	0.07785917
53	0xbdc3505c	-0.09536812
54	0x3ddf93b0	0.10916841
55	0x3ddeea67	0.108845524
56	0xbc5d75a1	-0.013516814
57	0xbe454f6b	-0.19268577
58	0x3e3402e1	0.17579223
59	0x3db77c35	0.089592375
60	0xbeaea9ed	-0.34114018
61	0x3f185f92	0.5952083
62	0xbe104c27	-0.1409155
63	0x3e4402fa	0.1914176
64	0x3dd977b0	0.10618532
65	0xbe42ad93	-0.19011526
66	0xbc219036	-0.009861043
67	0xbd078662	-0.03308714
68	0xbe6056ba	-0.21908084
69	0xbe51c449	-0.20485033
70	0x3e20cf3f	0.15704058
71	0xbd8aa219	-0.06769199
72	0x3d7a196d	0.061059404
73	0xbebabfb1	-0.36474374
74	0xbea7172a	-0.3263486
75	0xbe392988	-0.18082249
76	0x3dbcf497	0.09226339
77	0xbe7daf57	-0.24773918
78	0xbef3cb12	-0.47615868
79	0xbe1d563c	-0.15364927
80	0xbe4fd877	-0.20297419
81	0xbe5f090e	-0.21780798
82	0x3c8fd0c3	0.0175556
83	0xbd497de1	-0.049192313
84	0x3d9d74c9	0.076882906
85	0xbed954e8	-0.4244759
86	0xbed1056b	-0.40824446
87	0x3f1ac0c0	0.60450363
88	0xbe19aeae	-0.15008041
89	0x3d20391b	0.03911696
90	0x3def23ff	0.116767876
91	0xbe1c8c6b	-0.1528794
92	0x3d6d8b79	0.05799434
93	0x3d8e017e	0.06933878
94	0xbe45ec7c	-0.19328493
95	0xbe0c416e	-0.13696834
96	0xbdd86b36	-0.10567324
97	0xbe3d1074	-0.18463308
98	0xbe6ca507	-0.23109828
99	0xbdce950f	-0.100870244
100	0x3e2b03e1	0.16700698
101	0xbeac20c3	-0.33618745
102	0xbea9a61b	-0.3313454
103	0xbcc7a54d	-0.024370814
104	0xbe3f1482	-0.18660167
105	0xbe7b63ca	-0.24549785
106	0x3e8ddf87	0.277096
107	0x3c76f79b	0.015073682
108	0xbe26f2f3	-0.16303615
109	0xbe8a7e21	-0.27049354
110	0xbf134e80	-0.57541656
111	0x3efd71ac	0.49500787
112	0x3df5016c	0.11963162
113	0xbdbacb36	-0.09120791
114	0xbf0a627b	-0.5405652
115	0x3e14e7b9	0.1454152
116	0x3e56253b	0.2091264
117	0x3e37a3e2	0.1793361
118	0xbe55ef08	-0.20891964
119	0xbe54dd7e	-0.20787618
120	0xbefa3282	-0.4886666
121	0x3e391bba	0.18076983
122	0x3ebc3db3	0.36765823
123	0xbed0103e	-0.40637392
124	0xbe80c035	-0.25146642
125	0xbde74a5f	-0.11293482
126	0xbe94eb93	-0.2908598
127	0xbe4e935c	-0.201734
128	0x3e2a516b	0.16632621
129	0x3e893722	0.26799875
130	0xbe3794c5	-0.17927845
131	0x3d804c69	0.06264574
132	0xbd85e0f8	-0.0653705
133	0xbd8f4681	-0.069958694
134	0x3d6db38f	0.05803257
135	0x3e4c2d90	0.19939256
136	0xbf09ecfd	-0.5387724
137	0xbed14192	-0.4087034
138	0xbe85f544	-0.26163685
139	0x3bc66c8d	0.0060554207
140	0xbe077398	-0.1322769
141	0xbd09afeb	-0.033615034
142	0xbe3530d3	-0.17694406
143	0x3dd84b8d	0.10561285
144	0x3d98c836	0.07460062
145	0xbf01cd3f	-0.50703806
146	0xbd0ddc98	-0.034634203
147	0xbe35cadd	-0.17753167
148	0x3ec60f72	0.3868366
149	0xbee78657	-0.4521968
150	0xbe6f8f41	-0.23394491
151	0x3e3b7270	0.18305373
152	0xbd08b236	-0.03337308
153	0xbc227df1	-0.009917722
154	0xbe8b81ce	-0.2724747
155	0xbe3e414e	-0.185796
156	0xbdabadea	-0.08382781
157	0xbe773132	-0.2413986
158	0x3ea64e62	0.32481676
159	0xbef9b91d	-0.48774043
160	0xbe9f83c4	-0.31155217
161	0xbc0aba8f	-0.008467331
162	0xbde12bc0	-0.10994673
163	0xbe95428f	-0.29152343
164	0xbe18f76c	-0.14938134
165	0x3d802eb6	0.062589094
166	0xbdd73aaa	-0.10509236
167	0xbd84d445	-0.064858
168	0xbf001c9c	-0.50043654
169	0xbf3033db	-0.68829125
170	0xbeeef04a	-0.466677
171	0xbd9f8eae	-0.07790886
172	0x3eae640a	0.340607
173	0xbe9c6cb8	-0.30551696
174	0xbd888c3c	-0.066673726
175	0x3de8210b	0.113344274
176	0x3e499d8b	0.19689004
177	0x3c169be2	0.009192439
178	0xbe4c7ef0	-0.19970298
179	0x3e670451	0.2256024
180	0xbe2231d3	-0.15839319
181	0x3c3f590f	0.011678948
182	0xbe951928	-0.29120755
183	0xbda2b468	-0.07944566
184	0xbec94331	-0.39309075
185	0x3eb9de50	0.36302423
186	0xbe7f8e28	-0.24956572
187	0xbebd50ea	-0.36975795
188	0xbc2099fa	-0.009802336
189	0xbe1fd659	-0.15609111
190	0x3dd38a68	0.10329133
191	0xbde39212	-0.11111845

image_conv.0.bias f4 [16]
0	0xbee7f709	-0.4530566
1	0xbdafc020	-0.08581567
2	0x3e17946a	0.14802709
3	0xbee9b5e1	-0.45646575
4	0xbcb00485	-0.02148653
5	0xbf07b1fb	-0.5300595
6	0x3e22f83d	0.15915008
7	0xbf2370d5	-0.63844043
8	0xbe2c5020	-0.1682744
9	0xbec81f6d	-0.39086476
10	0xbe666b0b	-0.22501771
11	0xbf042ae1	-0.5162793
12	0xbed5f63e	-0.4178943
13	0xbc6c1033	-0.014408159
14	0xbee140ac	-0.43994653
15	0x3c74aaf7	0.014933339

image_conv.3.weight f4 [32, 16, 2, 2]
0	0x3f86358e	1.0485094
1	0x3e6eb7b2	0.23312262
2	0xbe96f756	-0.29485577
3	0xbed72d56	-0.42026776
4	0xbe2095f6	-0.15682206
5	0x3dca2777	0.098708086
6	0x3d39c8f3	0.045357656
7	0x3dae0bff	0.08498382
8	0x3ebd666f	0.36992213
9	0x3de00b97	0.109397106
10	0x3df29bab	0.118460976
11	0x3ef71a85	0.4826242
12	0xbe8abe8a	-0.27098495
13	0x3d6c8404	0.057743087
14	0xbd728757	-0.0592111
15	0xbe31c2d1	-0.17359473
16	0x3dad3819	0.084579654
17	0xbdf89611	-0.12137998
18	0xbc054c89	-0.008135923
19	0x3da40c5f	0.08010172
20	0xbeb958b8	-0.362005
21	0x3f33b6d3	0.7020084
22	0xbf1fc97d	-0.6241682
23	0xbf30b944	-0.6903269
24	0x3f07349f	0.5281467
25	0x3e2e407c	0.17016786
26	0xbddb8e5b	-0.107205115
27	0x3e2de317	0.16981159
28	0xbeb256c0	-0.3483181
29	0x3cb7a42a	0.022417147
30	0xbe2bd1d2	-0.16779259
31	0xbecbe22d	-0.39820996
32	0x3e189707	0.14901362
33	0x3e840bb7	0.25790188
34	0x3c1e11c9	0.009647795
35	0x3d74e5dd	0.059789527
36	0xbe1747d5	-0.14773495
37	0x3d8bc6d9	0.068250366
38	0xbf0a34db	-0.539869
39	0xbe337035	-0.17523272
40	0xbf2e1c99	-0.68012387
41	0x3f3496fb	0.7054288
42	0xbdf470ca	-0.11935575
43	0xbf27359f	-0.65316194
44	0xbdcc3402	-0.09970857
45	0xbe88aafa	-0.26692945
46	0xbed2c4f9	-0.41165903
47	0xbf2f9bbe	-0.6859702
48	0x3e35b20c	0.177437
49	0xbddfdc7d	-0.10930727
50	0xbea97512	-0.3309713
51	0xbf43fc30	-0.7655668
52	0x3e69717e	0.227972
53	0x3ed0210a	0.40650207
54	0xbed48a22	-0.41511637
55	0xbf286105	-0.6577304
56	0xbe20ed73	-0.1571558
57	0xbe1ce6cf	-0.15322421
58	0xbeaa956d	-0.33317128
59	0xbf5f1c70	-0.8715277
60	0x3ddfc1f3	0.10925665
61	0xbecd57b5	-0.40105978
62	0xbd21e820	-0.039528012
63	0x3e903a85	0.28169647
64	0xbc8d0bba	-0.017217506
65	0x3c4db250	0.01255472
66	0xbe407cb7	-0.18797575
67	0xbdb77aa8	-0.08958942
68	0xbe648024	-0.22314507
69	0xbce436b4	-0.027858116
70	0xbe9f6853	-0.3113428
71	0xbc097ad0	-0.008391097
72	0xbc6e6ed2	-0.014552789
73	0xb89254e9	-6.977638e-05
74	0x3e059502	0.13045123
75	0x3d17bdb0	0.037046134
76	0xbdd846d7	-0.10560387
77	0xbd8c881b	-0.068618976
78	0xbe3a2d14	-0.18181258
79	0x3d895bf3	0.06706991
80	0xbcf78b46	-0.030217778
81	0xbccd878d	-0.02508905
82	0xbc8d3542	-0.01723731
83	0xbe0ec5a3	-0.1394258
84	0xbc97a6c8	-0.018512145
85	0xbbb81739	-0.0056180027
86	0xbe03eabb	-0.12882511
87	0xbd5ff428	-0.054676205
88	0xbe195a50	-0.14975858
89	0xbd854979	-0.065081544
90	0xbe110723	-0.14162879
91	0xbd8ca922	-0.06868197
92	0xbd822509	-0.0635472
93	0xbe75a4c6	-0.23988637
94	0x3941bf4b	0.00018477176
95	0x3bdaf664	0.006682204
96	0xbda445d7	-0.080211334
97	0xbc5ebe86	-0.013595229
98	0xbe463d77	-0.19359384
99	0x3d88ad0b	0.0667363
100	0x3b7e3ae9	0.0038792437
101	0x3d5b7c02	0.05358506
102	0xbdd9f545	-0.106424846
103	0xbd11ba5a	-0.03557811
104	0xbe81b19c	-0.25330818
105	0xbdf788e4	-0.12086657
106	0x3c75ffd2	0.015014606
107	0xbde1afde	-0.11019872
108	0xbe078a31	-0.1323631
109	0x3c61eb58	0.0137890205
110	0xbd4e1dd0	-0.0503214
111	0xbb798112	-0.0038071317
112	0xbc5c56f7	-0.013448468
113	0xbdcdce8e	-0.10049163
114	0xbdcc73ed	-0.099830486
115	0xbde1d216	-0.11026399
116	0xbc1b8c33	-0.009493875
117	0xbe0ea047	-0.13928328
118	0xbe8a2f18	-0.26989055
119	0xbb9f3e14	-0.004859695
120	0xbd129dd6	-0.035795055
121	0xbd15f879	-0.036613915
122	0x3c071e31	0.008246944
123	0x3ca94713	0.020663774
124	0x3d1acf60	0.037795424
125	0xbe400110	-0.18750405
126	0x3d36359b	0.044484716
127	0xbd1d0eb2	-0.038344093
128	0xbe649b0d	-0.22324772
129	0x3e74af7a	0.23895064
130	0xbe50aa68	-0.20377505
131	0xbe30fb85	-0.17283447
132	0xbdd5bc1a	-0.10436268
133	0xbe69677d	-0.22793384
134	0xbbe47c23	-0.006972806
135	0x3e15f130	0.14642787
136	0xbe65577a	-0.22396651
137	0x3e813755	0.25237527
138	0xbf417065	-0.75562125
139	0xbf12fc7a	-0.574165
140	0xbe980548	-0.2969153
141	0x3da907ae	0.08253418
142	0x3e85ea66	0.26155394
143	0x3c91a23c	0.017777555
144	0xbdad9cf8	-0.08477205
145	0xbe5550aa	-0.20831552
146	0x3e0251e8	0.12726557
147	0x3dbeb642	0.09312107
148	0xbef85833	-0.4850479
149	0xbd2df619	-0.042471025
150	0xbc24d564	-0.010060642
151	0xbd8b7f1b	-0.06811353
152	0xbe0c182c	-0.13681096
153	0xbe0afd36	-0.13573155
154	0xbf057a4c	-0.52139735
155	0xbf194c2d	-0.5988186
156	0xbe8c7a9e	-0.274373
157	0x3e2a6eb3	0.16643791
158	0xbed913bc	-0.4239787
159	0xbf019bad	-0.5062817
160	0x3dd7ddb4	0.105403334
161	0xbe1559d4	-0.14585048
162	0xbe0a8f42	-0.13531211
163	0x3eea6787	0.4578211
164	0xbf13a296	-0.5766996
165	0xbedf3d53	-0.43601474
166	0x3d87371a	0.06602307
167	0x3ec541ed	0.3852686
168	0xbeb8f8af	-0.3612723
169	0x3a54d100	0.00081183016
170	0x3debd312	0.11514868
171	0xbe3966f4	-0.1810568
172	0xbed839dd	-0.42231646
173	0xbefcf56a	-0.49405986
174	0x3eefd327	0.46840784
175	0xbecc2f4f	-0.39879844
176	0xbed6f5b4	-0.41984332
177	0xbe89429e	-0.26808637
178	0xbe8cd735	-0.2750794
179	0xbdc228c2	-0.0948043
180	0x3e6a4ad7	0.22880112
181	0x3e853c35	0.26022497
182	0x3edb4dab	0.42832693
183	0x3eb0d8e6	0.3454048
184	0xbf428147	-0.7597851
185	0xbf1a40bb	-0.6025502
186	0xbdd82d44	-0.10555509
187	0xbe1aef10	-0.15130258
188	0x3eb67f9a	0.35644227
189	0xbd5afb93	-0.053462576
190	0xbeb88411	-0.3603826
191	0xbe864833	-0.2622696
192	0x3e00ce05	0.1257859
193	0x3e8f25b3	0.2795845
194	0xbd66e247	-0.05636814
195	0xbf21cffd	-0.6320799
196	0xbbfbddb3	-0.0076863407
197	0xbdb2574e	-0.08708058
198	0xbe3b5620	-0.18294573
199	0xbda04ef9	-0.07827563
200	0xbe47618e	-0.19470808
201	0xbe194b4a	-0.14970127
202	0xbd9c11ee	-0.07620607
203	0x3ce112ab	0.027474722
204	0xbd89b3dc	-0.067237586
205	0xbdd5e45f	-0.10443949
206	0x3d1b37d0	0.037895024
207	0x3ea0dea1	0.31419852
208	0xbd8a7681	-0.06760884
209	0x3d794f11	0.06086642
210	0xbe00a8c8	-0.12564385
211	0xbdd6cc9c	-0.10488245
212	0xbf24afa4	-0.64330506
213	0x3daa2bc6	0.0830913
214	0x3e46e30e	0.19422552
215	0xbf0cb25a	-0.5495964
216	0xbe33b2ac	-0.17548627
217	0xbd84e378	-0.06488699
218	0xbdd2f6d3	-0.10300984
219	0xbe3a2294	-0.18177253
220	0xbf09ff43	-0.53905123
221	0x3da0fd96	0.07860868
222	0x3f3aaef3	0.729232
223	0xbf1afc68	-0.6054139
224	0x3c1c7f5c	0.009551849
225	0xbeeb6d9d	-0.45982066
226	0xbdb4bcf9	-0.08825106
227	0x3dbcea0d	0.09224329
228	0xbf8fbad4	-1.122889
229	0xbef181bc	-0.47169292
230	0xbe5f99c0	-0.21835995
231	0xbf05a9a7	-0.52211994
232	0xbdc7a62a	-0.0974849
233	0x3e33b96f	0.17551206
234	0xbdf228a2	-0.11824156
235	0x3c8b5203	0.01700688
236	0xbda6aaf3	-0.08138075
237	0x3ae434ce	0.0017410757
238	0x3efcd5ef	0.49381968
239	0x3ea9b56c	0.33146226
240	0xbd04e741	-0.032447103
241	0x3e803656	0.25041455
242	0x3f5615dc	0.83627105
243	0xbe89c4ed	-0.26908055
244	0xbf219043	-0.6311075
245	0x3e548e8c	0.20757502
246	0x3ec3ad24	0.38218033
247	0xbf0d29d5	-0.55141956
248	0x3e6fa6e4	0.23403507
249	0xbe427640	-0.18990421
250	0x3ea9fd56	0.33201092
251	0xbd91b425	-0.07114438
252	0x3e0ffd7d	0.14061542
253	0x3d5df2b1	0.054186527
254	0xbdfe1c35	-0.12407724
255	0xbe15db55	-0.1463445

image_conv.3.bias f4 [32]
0	0xbe3d8daf	-0.18511079
1	0xbe112f87	-0.14178286
2	0xbdbf2c0d	-0.09334574
3	0xbd959ce8	-0.07305318
4	0x3b76d6f4	0.0037664743
5	0xbea5f7f9	-0.3241575
6	0xbe5236b5	-0.20528682
7	0xbdc2ba24	-0.0950816
8	0x3d1a3f84	0.03765823
9	0xbc94a155	-0.018143335
10	0x3e0cb5d7	0.13741241
11	0xbe6f6a2b	-0.23380344
12	0xbe430d3f	-0.19048022
13	0xbec8214f	-0.39087912
14	0xbdbc04f0	-0.09180629
15	0xbf0cc50b	-0.54988164
16	0x3d2cb0e5	0.042160887
17	0xbe85e4e3	-0.2615119
18	0xbd086746	-0.033301614
19	0xbe397814	-0.18112212
20	0xbe9942b1	-0.29933694
21	0x3dc130e6	0.09433155
22	0xbc577fa0	-0.013152987
23	0xbeb72fa2	-0.35778528
24	0xbec3198b	-0.38105425
25	0xbb995250	-0.004679002
26	0x3d8ef8d3	0.06981053
27	0xbe86d378	-0.26333213
28	0xbedca2d4	-0.43092978
29	0x3d4806a8	0.048834473
30	0xbebf2fbc	-0.37341106
31	0xbee96176	-0.4558217

image_conv.5.weight f4 [64, 32, 2, 2]
0	0xbe408597	-0.1880096
1	0xbeac75df	-0.33683679
2	0xbea35eef	-0.31908366
3	0x3e30399c	0.17209476
4	0x3ba1ec1d	0.004941477
5	0x3d70095e	0.058602683
6	0x3d5ddc31	0.05416507
7	0x3d758c9e	0.059948556
8	0xbe91189b	-0.28339085
9	0xbea07d52	-0.31345612
10	0xbf14dba9	-0.58147675
11	0xbf0db2c4	-0.553509
12	0xbebde313	-0.37087306
13	0xbeeb7289	-0.4598582
14	0xbf9f6e01	-1.2455446
15	0xbe435488	-0.19075215
16	0xbdaf6710	-0.085645795
17	0x3f00c2f0	0.5029745
18	0x3f154bf3	0.58319014
19	0x3e7af9eb	0.24509399
20	0xbee9d401	-0.4566956
21	0x3f86ba0b	1.0525526
22	0xbe883087	-0.26599523
23	0x3f7cbae8	0.98722696
24	0xbee0179e	-0.43768018
25	0x3c5f0bff	0.0136137
26	0x3eb52142	0.35376936
27	0x3e0b072a	0.13576952
28	0x3d47862e	0.048711948
29	0x3ea7f0b2	0.32800823
30	0xbd4949ca	-0.049142636
31	0x3de9694a	0.113970354
32	0xbee474e2	-0.44620425
33	0xbece2f96	-0.4027068
34	0x3eefeadd	0.46858874
35	0xbf8baaf1	-1.0911542
36	0xbd8a6e5f	-0.06759333
37	0xbecb300b	-0.3968509
38	0xbf0eb2cb	-0.55741566
39	0x3e6377b7	0.22213636
40	0xbd669a4e	-0.0562995
41	0xbee80e0f	-0.45323226
42	0x3f0398c4	0.51404977
43	0xbf2f02fb	-0.6836392
44	0x3e014c8e	0.1262686
45	0x3e0ae0f7	0.1356238
46	0xbf7f67b8	-0.9976764
47	0xbf691f50	-0.91063404
48	0x3d430f7a	0.04762218
49	0xbcff503f	-0.031166194
50	0x3d2d0127	0.042237427
51	0x3c2f6ce2	0.010707112
52	0xbf2f10e2	-0.68385136
53	0xbe8abf86	-0.27099246
54	0x3eb3efd2	0.35143906
55	0xbdf66dae	-0.120326385
56	0xbecc71a5	-0.39930454
57	0xbf8b46da	-1.0880997
58	0x3d226593	0.03964765
59	0x3e5d3400	0.21601868
60	0x3e111d07	0.1417123
61	0x3e14f06f	0.14544843
62	0xbdd456a6	-0.103680894
63	0x3c30c633	0.010789442
64	0xbe51f9e8	-0.20505488
65	0xbe137b7a	-0.14402571
66	0xbd4c88de	-0.049935214
67	0x3da49976	0.08037083
68	0xbf3ac9da	-0.7296425
69	0xbf103607	-0.5633244
70	0x3e704d48	0.2346698
71	0xbe279428	-0.16365111
72	0xbf3c4746	-0.73546255
73	0xbe0b030b	-0.1357538
74	0xbea26294	-0.31715834
75	0xbe0d1143	-0.13776116
76	0xbf147128	-0.5798516
77	0xbede87b8	-0.4346292
78	0x3e3381bc	0.17529958
79	0x3ed3c310	0.41359758
80	0xbe7a896f	-0.2446649
81	0x3d5dfdf8	0.05419728
82	0xbe8f4ca2	-0.27988154
83	0xbe2a6d6d	-0.16643305
84	0xbd7ca9e3	-0.061685454
85	0xbe1203f1	-0.14259316
86	0xbf3f41d5	-0.74709827
87	0xbdb12695	-0.08649937
88	0x3d8a26fb	0.06745716
89	0xbe174fd7	-0.1477655
90	0xbc6a19ab	-0.014288346
91	0xbee9b3d3	-0.45645007
92	0x3c8b922b	0.017037472
93	0xbe24d31e	-0.1609616
94	0x3da07178	0.078341424
95	0xbdb0ef2f	-0.08639371
96	0xbd069709	-0.032858882
97	0xbdc8defb	-0.09808155
98	0x3ead9596	0.33903188
99	0xbf385151	-0.7199908
100	0xbf167bbb	-0.5878255
101	0xbace996a	-0.0015762274
102	0x3f021e13	0.5082714
103	0xbe981594	-0.29703963
104	0xbf10a539	-0.5650211
105	0xbeb261ab	-0.3484014
106	0x3dfe6e12	0.12423338
107	0xbdcd3cf9	-0.10021395
108	0xbe987960	-0.29780102
109	0xbeb7a5e6	-0.35868758
110	0xbe29b85b	-0.16574232
111	0xbd641321	-0.055682305
112	0xbf90919d	-1.1294438
113	0xbdca1594	-0.09867397
114	0x3ea95ff7	0.33081028
115	0xbf2af649	-0.6678205
116	0xbe1e058b	-0.15431802
117	0xbedf4271	-0.43605378
118	0xbf2c14bd	-0.67219144
119	0x3ef744ec	0.4829477
120	0x3e11a2a2	0.14222196
121	0xbb6fbf41	-0.0036582502
122	0xbd459a25	-0.048242707
123	0xbf27161c	-0.6526811
124	0xbe83b78d	-0.25725976
125	0xbf61181a	-0.879274
126	0x3f84302c	1.0327201
127	0x3eb64cf8	0.35605597
128	0xbc2b0096	-0.010437151
129	0xbe1614b7	-0.1465634
130	0xbe1bb8d3	-0.15207224
131	0x3d09582f	0.033531364
132	0x3d154b4d	0.036448766
133	0x3dfedce4	0.12444475
134	0xbe005b70	-0.1253488
135	0x3e30fcba	0.17283908
136	0x3dc09361	0.0940311
137	0xbd76e91e	-0.06028091
138	0xbd1dd0ea	-0.038529314
139	0xbe0b4093	-0.13598852
140	0x3c89e763	0.016833967
141	0x3c74a099	0.014930868
142	0x3d77ad8b	0.060468238
143	0xbe35020a	-0.17676559
144	0x3d3ac02f	0.045593437
145	0x3de2518d	0.11050711
146	0xbdb67080	-0.089081764
147	0xbe1b6e00	-0.1517868
148	0xbbd86dda	-0.006604892
149	0xbd2ebca6	-0.042660378
150	0xbdd961d7	-0.106143646
151	0xbe6fe777	-0.2342814
152	0xbe3b1103	-0.18268208
153	0x3d8e872f	0.06959378
154	0xbdd331b6	-0.10312216
155	0x3d7132aa	0.058886208
156	0xbcadd41d	-0.021219308
157	0xbb7f091c	-0.0038915342
158	0xbd474fed	-0.048660208
159	0xbbe0328e	-0.006841964
160	0x3a735d48	0.00092836143
161	0xbe309264	-0.17243344
162	0xbcc74ef0	-0.024329633
163	0xbd9a51fd	-0.07535169
164	0xbd56d35e	-0.05244767
165	0x3beae6f7	0.0071686464
166	0xbd31f4ea	-0.04344646
167	0x3e4fc745	0.20290859
168	0xbe065a52	-0.13120392
169	0xbe145269	-0.14484562
170	0xbe040fa6	-0.12896594
171	0xbd5b0602	-0.053472526
172	0xbe54e6fc	-0.20791239
173	0xbd94d380	-0.07266903
174	0xbd69d802	-0.057090767
175	0x3dd97b5c	0.10619232
176	0x3d9cfb4f	0.07665121
177	0x3b6ff4f4	0.003661451
178	0xbc9315b3	-0.017954683
179	0xbd3ce480	-0.046116352
180	0xbd827a37	-0.06370967
181	0x3d2fa52d	0.042882133
182	0xbdbb0eb0	-0.09133661
183	0xbe1d9a1b	-0.15390818
184	0x3d0b75a2	0.03404773
185	0xbd98f56b	-0.07468685
186	0xbcdcc171	-0.026947709
187	0xbcf09ac6	-0.029370677
188	0xbe06fccd	-0.13182373
189	0xbddfb349	-0.10922868
190	0xbdc9c2a4	-0.09851578
191	0xbda2c497	-0.07947653
192	0xbe1e8559	-0.15480556
193	0xbdcd6298	-0.10028571
194	0xbe039524	-0.12849861
195	0xbd8dac87	-0.069176726
196	0xbca33cfa	-0.019926537
197	0xbd0caec2	-0.03434635
198	0x3d22af77	0.039718118
199	0xbdea886e	-0.11451803
200	0x3b563c90	0.0032689907
201	0x3d0636aa	0.032766975
202	0xbe5c3993	-0.21506338
203	0xbdb3e1e8	-0.087833226
204	0xbe100751	-0.14065291
205	0xbd7cac2a	-0.061687626
206	0xbd8b1fbb	-0.067931615
207	0xbdf54f9a	-0.119780734
208	0xbd3102e5	-0.04321565
209	0x3da52d39	0.08065266
210	0xbe0c1256	-0.1367887
211	0xbd4ec2d1	-0.05047876
212	0xbe1445b7	-0.14479719
213	0xbe0639f4	-0.13108045
214	0xbd8a3056	-0.067475006
215	0xbce781b6	-0.028260093
216	0xbe38604f	-0.18005489
217	0xbdac8a9b	-0.084248744
218	0xbe1ef5fe	-0.15523526
219	0xbd14b133	-0.036301803
220	0xbe31a154	-0.17346698
221	0xbc977e97	-0.01849298
222	0x3d42e7fb	0.047584515
223	0x3b4dfc4b	0.0031430896
224	0xbe140e95	-0.14458688
225	0x3d48508e	0.048904948
226	0xbe0ed88b	-0.13949792
227	0xbdbf0d8b	-0.09328755
228	0xbe357aaf	-0.17722581
229	0xbd7a67bd	-0.06113409
230	0x3a47689d	0.0007606836
231	0xbc23aa68	-0.0099893585
232	0xbd78f6d9	-0.060782287
233	0xbcaa2b15	-0.020772496
234	0xbd2578d8	-0.04039845
235	0xbca2b414	-0.019861259
236	0xbda231ee	-0.079196796
237	0x3c027d62	0.007964464
238	0xbe91f2eb	-0.28505644
239	0xbd856726	-0.06513815
240	0xbe01c8c6	-0.12674245
241	0xbd560934	-0.05225487
242	0xbd0626f6	-0.032752
243	0xbe13ee79	-0.14446439
244	0xbd28225d	-0.041048396
245	0xbd68e06e	-0.056854658
246	0xbde0ffaa	-0.10986264
247	0x3c8abaee	0.016934838
248	0xbd96ef6e	-0.07369886
249	0xbd81ac46	-0.06331687
250	0xbdb7e0b0	-0.089784026
251	0xbe8dd762	-0.27703387
252	0x3bbac7dc	0.0057000946
253	0xbd157668	-0.036489874
254	0xbde349f6	-0.11098091
255	0xbdcdc2ad	-0.10046897

image_conv.5.bias f4 [64]
0	0x3de4a237	0.111637525
1	0xbe07106f	-0.13189863
2	0xbf2e73b2	-0.6814529
3	0x3e796552	0.24355057
4	0xbe1ab8d8	-0.15109575
5	0xbd80430b	-0.062627874
6	0x3d35a637	0.044347968
7	0xbedc86dc	-0.4307164
8	0xbf2485fc	-0.64266944
9	0xbe124980	-0.1428585
10	0xbe16a300	-0.14710617
11	0x3e3f000c	0.18652362
12	0xbdffd5ed	-0.12491975
13	0x3e818f48	0.25304627
14	0xbe9fc36c	-0.31203783
15	0xbca8b3f6	-0.020593625
16	0xbde8fcea	-0.113763645
17	0x3b7365f3	0.0037139624
18	0xbe91a05c	-0.28442657
19	0xbe9d487b	-0.3071936
20	0xbd4aabcc	-0.049480245
21	0xbe65ab4d	-0.22428627
22	0x3e086649	0.13320269
23	0xbdeae507	-0.11469465
24	0x3e2d9bc0	0.16953945
25	0xbe464167	-0.19360887
26	0xbe95635b	-0.29177365
27	0x3e8779cd	0.26460114
28	0xbe666437	-0.22499166
29	0xbddfdbdb	-0.10930606
30	0xbe0b3d18	-0.13597524
31	0xbd514856	-0.051094376
32	0xbe2306fb	-0.15920632
33	0xbe55bb6e	-0.2087228
34	0xbcb5c751	-0.022189768
35	0xbe362866	-0.17788848
36	0xbd99699a	-0.07490845
37	0xbe413c2e	-0.18870613
38	0x3daf5355	0.08560816
39	0xbe2aec89	-0.16691794
40	0x3db066d7	0.08613365
41	0x3d1a1a26	0.037622593
42	0x3cd96b92	0.026540551
43	0x3d01823a	0.031618334
44	0xbf07afc1	-0.53002554
45	0xbdb765a2	-0.08954932
46	0xbd79dfad	-0.06100433
47	0xbe610155	-0.21973164
48	0xbe4e5f0f	-0.2015345
49	0xbeb9bc00	-0.36276245
50	0xbd1cfa1a	-0.038324453
51	0xbdfaa957	-0.1223933
52	0xbe709915	-0.23495896
53	0xbf113eae	-0.56736267
54	0xbea3240b	-0.31863436
55	0xbda05dc8	-0.07830387
56	0xbd711b7a	-0.058864094
57	0xbc96e8d5	-0.01842157
58	0x3f42685c	0.7594049
59	0xbdf897ee	-0.12138353
60	0xbef55006	-0.47912616
61	0xbd4651be	-0.0484178
62	0x3ecabb46	0.39596003
63	0xbe43dd3e	-0.19127366

memory_rnn.weight_ih f4 [256, 64]
0	0xbee1d935	-0.44111028
1	0xbe373363	-0.17890696
2	0x3ee58f75	0.44836012
3	0xbe99d040	-0.30041695
4	0x3c93b15c	0.018028907
5	0xbd539b14	-0.051661566
6	0xbebd602d	-0.3698744
7	0x3f089b85	0.53362304
8	0xbe0003c8	-0.12501442
9	0xbe0062d5	-0.12537701
10	0x3e185871	0.14877488
11	0x3e9b4a9f	0.3033037
12	0x3dbdbe7c	0.09264848
13	0xbe4194eb	-0.18904464
14	0x3f443118	0.7663741
15	0xbd077382	-0.03306914
16	0xbcfaab2d	-0.030599201
17	0x3e13ae26	0.14421901
18	0xbe2bd0ee	-0.16778919
19	0xbe8a4b3c	-0.27010524
20	0xbe13d1fd	-0.14435573
21	0xbdd6ecb0	-0.10494363
22	0xbf9f286c	-1.2434211
23	0xbdad73d5	-0.08469359
24	0xbe9c0ccf	-0.30478522
25	0xbe39485a	-0.18094006
26	0xbf283427	-0.6570458
27	0xbf31daea	-0.6947466
28	0xbf188cf1	-0.5959006
29	0xbe857090	-0.2606244
30	0xbe95d75f	-0.29265878
31	0xbdfc4a89	-0.12318904
32	0xbe0719de	-0.13193461
33	0x3e70b754	0.23507434
34	0xbe0a74c8	-0.13521111
35	0x3cf96ec3	0.030448323
36	0xbd71a944	-0.058999315
37	0x3da4060d	0.080089666
38	0xbc94138c	-0.018075727
39	0x3f01d26d	0.5071171
40	0xbf76e11b	-0.96437234
41	0xbf645b1f	-0.8920154
42	0xbd96748a	-0.07346447
43	0xbda4fa53	-0.08055558
44	0xbe4a36c1	-0.1974745
45	0x3e2f56fb	0.17123024
46	0xbf5e043f	-0.8672523
47	0xbecfc25d	-0.40577975
48	0x3e772c07	0.24137889
49	0xbd672dff	-0.05644035
50	0xbf2615b0	-0.6487684
51	0x3ce5570e	0.027995612
52	0x3f29680a	0.66174376
53	0x3cdcb5e9	0.02694221
54	0x3db2e7c8	0.08735615
55	0x3ed3bc20	0.41354465
56	0xbe47f5b6	-0.19527325
57	0x3e1678b7	0.14694487
58	0xbecf7008	-0.4051516
59	0x3ddb903f	0.10720872
60	0xbe9b27d1	-0.30303815
61	0x3e94db25	0.29073444
62	0xbe7d1977	-0.24716745
63	0xbe8c10c0	-0.2735653
64	0x3e798bf6	0.24369797
65	0x3dd4c99d	0.10390017
66	0xbec88f16	-0.39171666
67	0xbd034faf	-0.032058414
68	0xbdad9d91	-0.08477319
69	0x3e403304	0.18769461
70	0xbea619bd	-0.32441512
71	0xbe1f2da4	-0.15544754
72	0x3cd132eb	0.025536975
73	0xbedb858e	-0.42875332
74	0xbce86e70	-0.028372973
75	0xbf511857	-0.81677765
76	0xbe8f1461	-0.27945235
77	0x3ed86a4c	0.42268598
78	0xbe694a00	-0.22782135
79	0xbc56a524	-0.013100896
80	0xbdffef62	-0.124968305
81	0x3d34241d	0.043979753
82	0xbd9894c2	-0.07450248
83	0x3e3cfeb1	0.18456532
84	0x3eb9d712	0.36296898
85	0x3de12168	0.109927
86	0x3e9a4329	0.30129364
87	0xbd8838fb	-0.06651493
88	0xbe5a1def	-0.21300481
89	0xbe3f7dac	-0.18700284
90	0xbf294c24	-0.66131806
91	0xbe13af3f	-0.1442232
92	0x3e73ce4c	0.23809165
93	0x3e1dfd1a	0.15428582
94	0xbdbc21e8	-0.091861546
95	0x3ce66d37	0.02812825
96	0x3dba5b46	0.0909944
97	0xbe894773	-0.26812324
98	0x3e4cd244	0.20002085
99	0xbed4c264	-0.41554558
100	0x3ec91fdd	0.39282122
101	0xbef15f12	-0.47142845
102	0xbe9fcc34	-0.31210482
103	0xbe388254	-0.18018466
104	0x3d368473	0.044559907
105	0xbeaaa25f	-0.33327004
106	0xbf2258d5	-0.63416797
107	0xbe42c9e9	-0.19022335
108	0xbf0c0eab	-0.5470988
109	0x3db7e487	0.08979135
110	0xbe235a0e	-0.15952322
111	0x3e2366c8	0.15957177
112	0xbf02fdb3	-0.51168364
113	0x3e77802f	0.24169992
114	0x3f02e69b	0.51133126
115	0xbdbec8c8	-0.0931564
116	0x3e65834f	0.22413372
117	0xbf8a4ded	-1.0805031
118	0xbdfd5091	-0.123688824
119	0xbed63a13	-0.41841182
120	0x3f3dd641	0.7415505
121	0xbf02c44b	-0.5108077
122	0xbd70e37c	-0.058810696
123	0xbf0710b2	-0.5275985
124	0x3e8a3b84	0.26998532
125	0x3eb1dd21	0.3473902
126	0xbf61748b	-0.88068455
127	0xbdf7ad74	-0.120936304
128	0xbec147cf	-0.37750098
129	0xbd984663	-0.074353
130	0x3e4199c4	0.18906313
131	0xbe842c11	-0.2581487
132	0x3dc26d3a	0.094934896
133	0x3d583205	0.052782077
134	0xbf0ce816	-0.55041635
135	0xbefff7ff	-0.49993894
136	0xbd115477	-0.035480943
137	0x3df80bf8	0.12111658
138	0x3d665fa4	0.056243554
139	0x3d7239f9	0.05913732
140	0xbe4db3f4	-0.20088178
141	0xbecebd9c	-0.40379035
142	0x3f2e70af	0.6814069
143	0x3d98f3e7	0.07468396
144	0x3e2901ab	0.16504543
145	0x3e926258	0.28590655
146	0xbf29b2ee	-0.6628865
147	0xbd820a5e	-0.06349634
148	0xbdfe9719	-0.12431163
149	0x3ec28dcf	0.37998816
150	0x3bd9852b	0.0066381893
151	0x3dafb0c4	0.08578637
152	0xbd66afa6	-0.056319855
153	0x3d2718c4	0.040795103
154	0x3da3d14a	0.07998903
155	0x3db3536a	0.08756144
156	0xbdc51c45	-0.096245326
157	0x3e4c6ce7	0.19963418
158	0xbe480dff	-0.19536589
159	0xbf84523f	-1.03376
160	0x3d763cfc	0.060116753
161	0x3e0041d4	0.12525111
162	0xbe9478d7	-0.28998443
163	0xbe85f0b1	-0.26160195
164	0xbed7157e	-0.42008585
165	0x3ee166eb	0.44023833
166	0xbe6caa55	-0.23111852
167	0xbe34e04f	-0.17663692
168	0x3f1f8985	0.62319213
169	0xbe7d124c	-0.24714011
170	0x3e56d909	0.2098123
171	0x3e9990f7	0.29993412
172	0xbe8234ce	-0.25430912
173	0xbbcd9fde	-0.006275161
174	0x3f372a54	0.7154896
175	0xbedf16b1	-0.43572
176	0x3f2b4d1a	0.6691452
177	0xbf66fd17	-0.90229934
178	0x3d04e20f	0.03244215
179	0xbdedbc15	-0.116081394
180	0x3e46e70d	0.19424076
181	0xbc6a58bc	-0.0143033825
182	0xbe5159f2	-0.20444468
183	0x3d8b3b6c	0.06798443
184	0x3c97ca36	0.018529039
185	0x3f17649d	0.591379
186	0xbf770f7d	-0.9650801
187	0x3dc32a88	0.095295966
188	0xbe778b0e	-0.24174139
189	0xbf25bce5	-0.64741355
190	0xbd83e649	-0.06440408
191	0xbd9a3819	-0.07530231
192	0xbefb3c46	-0.49069422
193	0x3d8f0eb6	0.06985228
194	0xbe0d0326	-0.13770732
195	0x3ec54f1e	0.38536924
196	0x3e03a0f1	0.12854363
197	0xbe39bd89	-0.18138708
198	0xbf19b0fa	-0.6003567
199	0x3d93075a	0.071791366
200	0x3e67a4c8	0.22621453
201	0x3e03cea5	0.12871797
202	0x3d51fa60	0.051264167
203	0xbf92642e	-1.1436822
204	0xbf96dde6	-1.1786468
205	0x3e0c897f	0.13724326
206	0xbd6f4c19	-0.05842218
207	0xbea94919	-0.33063582
208	0xbe3e7fb8	-0.18603408
209	0x3cb35e19	0.021895455
210	0xbe351790	-0.1768477
211	0xbbdf4bf3	-0.006814474
212	0x3ea528f5	0.3225781
213	0xbe2f4d52	-0.17119339
214	0xbf26d2dd	-0.651655
215	0x3ded2a01	0.11580277
216	0x3db40085	0.087891616
217	0xbdb9d189	-0.09073169
218	0x3ec84bfe	0.39120477
219	0x3f46af64	0.77611375
220	0xbe56c6ec	-0.2097432
221	0xbd34dd78	-0.04415652
222	0xbe8f0171	-0.27930787
223	0xbf3b8e95	-0.7326444
224	0xbd259ef0	-0.040434778
225	0xbf54deaf	-0.8315229
226	0xbe4a0810	-0.19729638
227	0x3c033bbf	0.00800985
228	0xbe0eb81d	-0.13937421
229	0x3f94bec1	1.1620713
230	0xbddc7767	-0.10764962
231	0x3e64cc6c	0.22343606
232	0xbef230f1	-0.47302964
233	0x3d9a575c	0.07536194
234	0x3ebe3ed9	0.37157324
235	0x3bab769f	0.0052326466
236	0xbe799aac	-0.24375409
237	0xbd346a5d	-0.04404675
238	0x3d44149f	0.04787123
239	0x3e932f01	0.287468
240	0x3bd0d8ba	0.006373492
241	0xbf172723	-0.5904409
242	0x3eef546f	0.46744105
243	0xbe9e3102	-0.30896765
244	0xbf393a6d	-0.72354776
245	0xbe9ac87a	-0.30231076
246	0x3e5a39f6	0.21311173
247	0xbf1ad3f3	-0.6047966
248	0xbf241d11	-0.6410685
249	0x3f6a6e3f	0.9157447
250	0xbdf79011	-0.12088025
251	0xbcbc0e83	-0.022956138
252	0x3dd59b08	0.104299605
253	0xbe6887d8	-0.2270807
254	0xbea5bc3d	-0.32370177
255	0xbef91bcd	-0.48654023

memory_rnn.weight_hh f4 [256, 64]
0	0x3f0a8868	0.5411439
1	0x3dac794d	0.08421574
2	0x3e75338e	0.23945448
3	0x3e6745a8	0.22585166
4	0x3e6ac344	0.2292605
5	0x3f6f890f	0.9356851
6	0x3e496e2e	0.19670936
7	0xbe82d07d	-0.2554969
8	0xbe72dd2a	-0.2371718
9	0x3eaa5600	0.33268738
10	0x3f98c6f2	1.1935713
11	0xbeda2126	-0.42603415
12	0x3f63e202	0.89016736
13	0xbefcece7	-0.49399492
14	0xbeba6709	-0.36406735
15	0x3cc65808	0.024211898
16	0x3dda401a	0.10656758
17	0xbfa873ab	-1.3160299
18	0x3eecf2c9	0.4627898
19	0x3dd5094c	0.10402164
20	0xbd865801	-0.06559754
21	0x3e051a56	0.12998328
22	0x3f498399	0.7871643
23	0xbda36bfa	-0.07979579
24	0x3eb6af36	0.3568055
25	0xbf42baa6	-0.7606605
26	0xbe951787	-0.29119512
27	0xbe9e92ab	-0.30971274
28	0xbd9c712f	-0.076387756
29	0x3d9b19e8	0.075733006
30	0x3ce03946	0.02737106
31	0xbd99ce68	-0.07510072
32	0x3e4cd7c4	0.20004183
33	0x3e961250	0.29310846
34	0x3f51512b	0.8176448
35	0x3e984c2c	0.29745615
36	0xbf281f08	-0.6567235
37	0xbf27e652	-0.65585816
38	0xbe97362f	-0.29533526
39	0xbf31e9b0	-0.69497204
40	0x3f2a0e1f	0.664278
41	0xbd9b7ded	-0.07592378
42	0x3e296136	0.1654099
43	0xbf3d6f1f	-0.7399768
44	0xbc881cb2	-0.016615245
45	0xbf5e2083	-0.8676836
46	0xbe20624a	-0.15662494
47	0xbeb1e0c6	-0.347418
48	0x3de86fb0	0.11349428
49	0xbedaf6f7	-0.42766544
50	0x3f36cf84	0.71410394
51	0xbe491ef3	-0.19640712
52	0xbe6fca82	-0.23417094
53	0xbd190efa	-0.0373678
54	0x3d6ca394	0.057773188
55	0xbd11d810	-0.035606444
56	0x3f1dd0cd	0.6164673
57	0xbefa5fd8	-0.48901248
58	0x3ed96643	0.42460832
59	0x3ed31d3f	0.4123325
60	0x3d31c81c	0.04340373
61	0x3d049eea	0.032378115
62	0xbe669dfe	-0.22521207
63	0xbdc45df2	-0.09588231
64	0x3e4fdf38	0.20299995
65	0xbf0a9116	-0.54127634
66	0x3e592a59	0.2120756
67	0x3f2ccf2b	0.67503613
68	0xbf1d92ce	-0.6155213
69	0x3d90161f	0.07035469
70	0x3ded480f	0.1158601
71	0xbe63350f	-0.22188209
72	0x3eda9f32	0.4269958
73	0x3e505131	0.20343472
74	0x3e9cddaf	0.3063788
75	0xbddff65e	-0.10935663
76	0x3f9835f1	1.1891462
77	0xbf11c5e8	-0.56942606
78	0xbe111b2b	-0.1417052
79	0xbe5e641a	-0.21717873
80	0x3cab5863	0.02091617
81	0xbff5f38f	-1.9214953
82	0xbe708cc7	-0.23491202
83	0xbea8e6a6	-0.3298847
84	0xbf156459	-0.58356243
85	0xbf6e39e9	-0.93057114
86	0xbf5908a3	-0.84778804
87	0x3f11d01d	0.5695818
88	0x3f5b4c6d	0.8566349
89	0xbec2bb3a	-0.38033468
90	0xbdcb48a8	-0.099259675
91	0x3f5d3660	0.86411095
92	0xbf01eeb2	-0.50754845
93	0x3eaf24f0	0.3420787
94	0xbf65af00	-0.89720154
95	0xbd993b50	-0.07482016
96	0xbef8c0cb	-0.4858459
97	0x3e9ddb62	0.30831438
98	0x3ddef0f7	0.10885804
99	0xbf8aa2a5	-1.0830885
100	0xbe3e4b98	-0.18583524
101	0x3da27186	0.07931809
102	0x3f74756c	0.9549167
103	0xbe6cba73	-0.23118
104	0xbf4d4c3e	-0.8019446
105	0x3df91a80	0.121632576
106	0x3f47dce8	0.7807145
107	0x3eff068c	0.49809682
108	0x3c595f05	0.013267283
109	0xbe917491	-0.28409246
110	0x3e9464c1	0.2898312
111	0x3e4ebe02	0.2018967
112	0x3d3bad54	0.045819595
113	0xbe8fa19b	-0.28052983
114	0x3e4fdf84	0.20300108
115	0xbe8a5208	-0.2701571
116	0x3c7fb88e	0.015607966
117	0x3e76f219	0.2411579
118	0xbf8f5df8	-1.1200552
119	0xbd92dd2f	-0.07171094
120	0x3f202689	0.625588
121	0xbf3a7d54	-0.72847486
122	0x3f251f74	0.6450112
123	0x3de64076	0.11242764
124	0x3f51455b	0.81746453
125	0xbf0af5d3	-0.5428135
126	0x3ec0ab3d	0.37630644
127	0x3dc26c9f	0.09493374
128	0xbe875559	-0.26432303
129	0xbc84f6b8	-0.016230926
130	0x3d0a176c	0.033713743
131	0xbe9b18e6	-0.30292434
132	0x3f023f47	0.50877804
133	0xbe8eb62c	-0.2787336
134	0xbf3136fe	-0.69224536
135	0x3dc7569e	0.09733318
136	0x3f8c8854	1.0979104
137	0x3f387412	0.7205211
138	0xbf1b2ecc	-0.6061828
139	0x3ef84094	0.4848677
140	0x3f3f6063	0.7475645
141	0xbf01d55d	-0.5071619
142	0xbf0571cc	-0.52126765
143	0xbdaa3a44	-0.083118945
144	0x3db043c5	0.08606676
145	0xbfdc5709	-1.7214061
146	0x3e20103d	0.15631194
147	0xbf0f03d8	-0.5586524
148	0x3ed54f55	0.41662088
149	0xbe28f23e	-0.16498658
150	0x3eccc28c	0.39992177
151	0x3e086086	0.13318071
152	0xbf9319be	-1.1492231
153	0xbe7bc1b4	-0.2458561
154	0xbaf46c19	-0.0018647938
155	0xbea06f61	-0.31334975
156	0x3e9621d7	0.29322693
157	0xbfae0a65	-1.3596922
158	0x3d99472a	0.074842766
159	0x3f41e4f1	0.7573996
160	0xbd0ad028	-0.03388992
161	0xbf0f0994	-0.5587399
162	0x3f55fdd2	0.83590424
163	0xbf07e627	-0.5308556
164	0x3f03cb08	0.51481676
165	0x3f9218b4	1.1413789
166	0x3eaf7953	0.3427225
167	0xbdf1a189	-0.117983885
168	0xbe59749f	-0.21235894
169	0x3d1845f4	0.037176087
170	0x3ec6ec39	0.388521
171	0xbf1d08cd	-0.61341554
172	0x3dc1ea7b	0.09468552
173	0xbf492809	-0.78576714
174	0xbf469442	-0.77569973
175	0x3e81dd85	0.25364318
176	0xbf4ab10a	-0.7917639
177	0xbe26e529	-0.16298355
178	0xbed1cc20	-0.40976048
179	0x3f56bbdd	0.83880407
180	0x3f50e05c	0.81592345
181	0x3fa7e8e7	1.3117951
182	0xbf6a522e	-0.91531646
183	0xbecba5bd	-0.39774886
184	0xbe8e6847	-0.27813932
185	0xbeff4466	-0.4985687
186	0x3e74c692	0.23903874
187	0x3e8015f9	0.25016764
188	0xbebbf648	-0.36711335
189	0x3f5789cc	0.84194636
190	0xbe306a8e	-0.17228147
191	0xbe8403b4	-0.25784075
192	0xbe221f0f	-0.1583216
193	0xbf18b500	-0.59651184
194	0xbe4af30c	-0.19819278
195	0x3f4f5486	0.8098835
196	0xbe59f0fd	-0.21283336
197	0x3f054d91	0.5207148
198	0xbe0e648e	-0.13905546
199	0xbfb0b64a	-1.380563
200	0xbf03eb3c	-0.51530814
201	0x3f482385	0.781792
202	0x3ed975fe	0.42472833
203	0xbf845007	-1.0336922
204	0x3fa8fdf4	1.32025
205	0xbf52c19b	-0.8232667
206	0x3f01819c	0.50588393
207	0xbf44f03a	-0.76929057
208	0xbfdb8896	-1.7151058
209	0xbfde1bc2	-1.7352221
210	0xbf3ae003	-0.72998065
211	0x3df7a624	0.12092236
212	0x3df34cc7	0.118798785
213	0x3edbc200	0.42921448
214	0x3e264663	0.16237788
215	0x3f2064e3	0.6265394
216	0x3df2dc51	0.11858428
217	0xbf0bf9b9	-0.5467792
218	0x3c447d2a	0.011992732
219	0xbe37ad0a	-0.17937103
220	0x3ed4138b	0.4142116
221	0xbefc6867	-0.49298403
222	0xbe3babe4	-0.1832729
223	0x3eb3b790	0.35100985
224	0x3e9960ff	0.29956815
225	0x3e7573ba	0.23969927
226	0x3f901d5c	1.125896
227	0x3e7d3ea6	0.2473093
228	0xbfada749	-1.3566676
229	0xbeb8301e	-0.3597421
230	0x3e484411	0.19557215
231	0x3f16e047	0.5893597
232	0x3ecff2eb	0.4061502
233	0xbe6e5689	-0.23275198
234	0xbe76bb04	-0.24094778
235	0x3edaceae	0.4273581
236	0x3ed2bb4a	0.41158515
237	0xbe686630	-0.22695231
238	0x3dbfab9a	0.09358902
239	0x3f09f031	0.5388213
240	0xbe87e450	-0.26541376
241	0xbc4043b1	-0.011734889
242	0xbd0024ac	-0.031284973
243	0x3ee69c37	0.45041057
244	0xbf4b756c	-0.79476047
245	0x3ef23f10	0.47313738
246	0xbd2751c5	-0.040849466
247	0x3e71e618	0.2362293
248	0xbc3e25ee	-0.011605723
249	0x3dcd090f	0.100114934
250	0x3ef9f0cd	0.4881653
251	0xbe8418cc	-0.2580017
252	0x3ec4aa2f	0.3841109
253	0xbede05c5	-0.43363777
254	0x3ec53248	0.38514924
255	0x3f0a66b3	0.54062957

memory_rnn.bias_ih f4 [256]
0	0xbee7d3ad	-0.45278683
1	0xbdf7a7c8	-0.120925486
2	0xbed78e0d	-0.42100564
3	0xbe60e21a	-0.21961251
4	0xbf064856	-0.52454126
5	0x3ca7289b	0.020405104
6	0x3bb90dd3	0.0056474
7	0x3e0c5af8	0.13706577
8	0xbe2257c0	-0.15853786
9	0xbe477994	-0.19479972
10	0x3f986be6	1.1907928
11	0xbf1637bb	-0.5867879
12	0xbf14edca	-0.5817534
13	0x3d0a0f43	0.03370596
14	0xbee56c80	-0.4480934
15	0xbf1335ca	-0.5750395
16	0xbeb754d0	-0.35806894
17	0xbf6ff75c	-0.93736815
18	0xbe382bc6	-0.17985448
19	0x3d700009	0.058593784
20	0xbeb7c9c5	-0.35896125
21	0x3db68270	0.08911598
22	0xbec947ea	-0.3931268
23	0xbacf6a72	-0.001582457
24	0xbd462c08	-0.048381835
25	0x3e9adb4c	0.30245435
26	0xbe108453	-0.14112978
27	0xbdb7c7f3	-0.08973684
28	0xbf0db3a8	-0.5535226
29	0xbf2a2ae2	-0.66471684
30	0xbf14df6f	-0.5815343
31	0x3de5be73	0.11217966
32	0xbd903049	-0.0704046
33	0x3a9aae49	0.0011801209
34	0xbdc27835	-0.09495584
35	0x3cbc53f4	0.02298925
36	0xbece15a2	-0.4025088
37	0x3e011ae5	0.12607916
38	0xbeaccc42	-0.33749586
39	0xbe7849ee	-0.24246952
40	0xbf086b4d	-0.5328873
41	0x3d991556	0.07474773
42	0x3e31dfac	0.1737048
43	0x3e2a8e25	0.16655786
44	0xbeb195d4	-0.34684622
45	0x3db0737e	0.086157784
46	0x3d70652e	0.058690242
47	0x3e05184b	0.12997548
48	0xbe4f10a2	-0.20221189
49	0x3d687b78	0.056758374
50	0x3e889802	0.26678473
51	0xbf6be78c	-0.9215019
52	0xbdf3ed43	-0.119104885
53	0xbeac2a5f	-0.33626077
54	0x3d98eb21	0.07466722
55	0xbf2d71b5	-0.6775163
56	0xbe9eeeb5	-0.31041494
57	0x3e4e4840	0.20144749
58	0x3dd72185	0.1050444
59	0xbcf7c519	-0.03024535
60	0xbedf4434	-0.43606722
61	0x3c9e6f56	0.019340198
62	0x3c932090	0.017959863
63	0x3e521252	0.20514801
64	0xbe9384c7	-0.2881224
65	0xbe9f8664	-0.3115722
66	0xbe2df47e	-0.16987798
67	0xbe8c5f52	-0.27416474
68	0xbec59d31	-0.3859649
69	0xbefba42d	-0.49148694
70	0xbf87adbf	-1.0599898
71	0xbf51dd35	-0.8197816
72	0xbd4309f8	-0.04761693
73	0xbead72f2	-0.3387676
74	0x3cd7ae07	0.0263281
75	0xbf13dfd6	-0.5776342
76	0x3eb6b78b	0.35686907
77	0xbf1a2791	-0.60216624
78	0x3efeb7a5	0.49749485
79	0xbd3df0e4	-0.04637231
80	0xbedf9989	-0.43671826
81	0x3f5ae946	0.85512197
82	0xbee1085d	-0.43951693
83	0xbe6327b8	-0.2218312
84	0xbeb510c2	-0.35364348
85	0xbf43c8f0	-0.7647848
86	0xbe6e5c99	-0.2327751
87	0xbdd65159	-0.104647346
88	0xbf164e65	-0.5871337
89	0xbf56ec00	-0.8395386
90	0xbefa00f4	-0.48828852
91	0xbe33400d	-0.17504902
92	0xbed3256e	-0.41239494
93	0xbecd447f	-0.4009132
94	0xbf223dfd	-0.63375837
95	0xbeeb0b1b	-0.4590691
96	0xbf735985	-0.9505847
97	0x3f2df842	0.67956936
98	0x3e052c34	0.13005143
99	0xbf60a09d	-0.87745076
100	0xbedad7ff	-0.42742917
101	0xbefbaf43	-0.49157152
102	0xbf561485	-0.8362506
103	0xbf338543	-0.70125216
104	0x3e8c28ba	0.27374822
105	0xbeaf8e0b	-0.34288058
106	0xbf2a458e	-0.6651238
107	0xbf5ace6c	-0.85471225
108	0xbf7acbfc	-0.97967505
109	0xbf167628	-0.5877404
110	0x3ead9ee0	0.33910275
111	0xbf57877b	-0.841911
112	0xbf1a8d51	-0.6037188
113	0xbf7e8fa2	-0.99437916
114	0x3e0a767d	0.13521762
115	0x3f36edf4	0.7145684
116	0x3e20956b	0.15681998
117	0xbe6de89c	-0.23233265
118	0x3ebc3ed9	0.367667
119	0xbc8c1377	-0.017099125
120	0xbe67eec9	-0.22649683
121	0x3ede3867	0.43402407
122	0xbe797d3c	-0.2436418
123	0xbf431d8d	-0.76216966
124	0x3f0645fa	0.52450526
125	0x3df8a837	0.121414594
126	0xbf339d49	-0.70161873
127	0xbe2c4bb1	-0.16825749
128	0x3c504b2e	0.012713237
129	0x3d82593b	0.063646756
130	0xbe9c0c5b	-0.30478176
131	0xbf04a413	-0.5181286
132	0xbe829f7f	-0.2551231
133	0xbe4c368e	-0.19942686
134	0x3f07eed8	0.5309882
135	0xbd26ccd3	-0.04072268
136	0x3caa9809	0.02082445
137	0xbe420e70	-0.1895082
138	0x3ec6d002	0.38830572
139	0xbe8926dd	-0.26787463
140	0xbeeaeb0c	-0.45882452
141	0xbe86bfb6	-0.2631814
142	0xbf003f83	-0.5009691
143	0x3e21f782	0.15817073
144	0xbe419d07	-0.18907557
145	0x3e3392c0	0.1753645
146	0xbd33c440	-0.04388833
147	0x3e68f0b5	0.22748072
148	0x3e83ac49	0.2571738
149	0x3f128923	0.57240504
150	0x3e07bfda	0.1325678
151	0xbddd0bee	-0.10793291
152	0x3ea060f9	0.31323984
153	0xbd1e19d8	-0.038598865
154	0x3e1b425e	0.15162036
155	0xbdf9e322	-0.12201525
156	0x3e9c977f	0.30584332
157	0xbe6b3e55	-0.22972997
158	0x3cd86ee1	0.026420059
159	0x3e258610	0.16164422
160	0xbde50fe6	-0.11184673
161	0xbe0ac583	-0.13551907
162	0xbeecd5ef	-0.46256968
163	0x3eae0a86	0.33992404
164	0xbdfbb8dd	-0.12291119
165	0x3e359b47	0.17735015
166	0x3e9286e4	0.28618538
167	0x3eb435af	0.35197207
168	0x399803b6	0.00028994464
169	0xbe6c6898	-0.23086774
170	0xbea51653	-0.32243595
171	0xbdd1c4e9	-0.10242636
172	0x3e3d4cc7	0.1848632
173	0x3e682cef	0.22673391
174	0xbd927871	-0.071518786
175	0xbc121770	-0.008916721
176	0xbe226f9a	-0.15862885
177	0x3df3923c	0.11893126
178	0x3ec19118	0.3780601
179	0xbdff6dc5	-0.12472109
180	0x3e88c224	0.26710618
181	0x3e797d2d	0.24364157
182	0xbe78fd03	-0.24315266
183	0xbe845a15	-0.25849977
184	0xbe9f4621	-0.31108192
185	0xbed06eb8	-0.40709472
186	0xbdf671cb	-0.12033423
187	0x3e821c7c	0.25412357
188	0x3e0ed396	0.13947901
189	0xbd5932b5	-0.053026874
190	0xbe4d9ec5	-0.20080097
191	0x3f36c259	0.713903
192	0xbeff1ba6	-0.49825782
193	0xbdc73b2c	-0.09728083
194	0xbeb46b01	-0.35237888
195	0xbe415899	-0.18881454
196	0xbdf65c86	-0.12029366
197	0xbc2954b8	-0.01033514
198	0xbd55063c	-0.0520079
199	0x3da4102e	0.080108985
200	0xbd136379	-0.035983536
201	0xbe87b7d1	-0.26507428
202	0x3d4ca1a2	0.049958833
203	0xbede9877	-0.43475696
204	0x3f2277f3	0.6346428
205	0xbe30a469	-0.17250217
206	0x3d0e90d3	0.034806084
207	0xbe525927	-0.20541821
208	0xbe8c6e95	-0.27428117
209	0x3f21f6dd	0.6326731
210	0xbe0ea66d	-0.13930674
211	0x3dc5dafd	0.09660909
212	0xbe5c7701	-0.21529771
213	0x3e3ae4ad	0.18251295
214	0xbe1c5963	-0.15268473
215	0x3e6edaf2	0.23325709
216	0xbe06a861	-0.13150169
217	0x3ce7bfe8	0.02828975
218	0x3c9ed8a2	0.019390408
219	0xbdf6d24d	-0.120518304
220	0xbf152332	-0.5825683
221	0xbeafc82b	-0.34332404
222	0xbd97449a	-0.073861316
223	0xbe61d32f	-0.22053216
224	0xbef6bdfe	-0.48191828
225	0x3d241723	0.040061127
226	0xbd584bb4	-0.05280657
227	0xbe031d9b	-0.12804262
228	0xbda2d275	-0.07950298
229	0x3b443775	0.0029940282
230	0x3e9d2749	0.30694035
231	0x3c2fdc23	0.010733637
232	0xbf0d1eb5	-0.5512498
233	0x3d11190f	0.03542429
234	0xbebb07ff	-0.36529538
235	0x3eae8031	0.34082177
236	0xbeb6a50e	-0.35672802
237	0x3e23d1f2	0.15998057
238	0xbd4b1177	-0.049577203
239	0xbdb0a402	-0.08625032
240	0xbe8f62c8	-0.28005052
241	0xbe6197f2	-0.22030619
242	0xbdc8a4d7	-0.09797066
243	0x3f3e2a3a	0.7428318
244	0xbe8e2fdd	-0.27770892
245	0xbd6f60b7	-0.058441844
246	0xbededb62	-0.4352675
247	0xbe791250	-0.24323392
248	0xbd61a3e3	-0.055087935
249	0xbfaf59c8	-1.3699274
250	0x3dee5915	0.11638085
251	0xbe2480ac	-0.1606471
252	0x3ecff4d9	0.4061649
253	0x3e39118e	0.18073103
254	0xbdb02288	-0.08600336
255	0xbf196ded	-0.5993336

memory_rnn.bias_hh f4 [256]
0	0xbf1d2895	-0.6139005
1	0x3d3841f7	0.044984784
2	0xbeae306c	-0.34021318
3	0xbe12a80a	-0.14321914
4	0xbea62ac5	-0.32454506
5	0x3de8ab56	0.11360805
6	0xbd2bb32b	-0.041918915
7	0x3d679a1b	0.05654345
8	0xbdee705e	-0.11642526
9	0xbe0d1947	-0.13779174
10	0x3f97ca83	1.1858677
11	0xbedaab7d	-0.4270896
12	0xbed0f643	-0.40812883
13	0x3d9252ee	0.07144724
14	0xbec9badc	-0.39400375
15	0xbf106c28	-0.56415033
16	0xbe7c9180	-0.24664879
17	0xbf4b798b	-0.79482335
18	0xbda2736f	-0.079321735
19	0xbd784259	-0.06061015
20	0xbe93604d	-0.2878441
21	0x3e8d8cfb	0.27646622
22	0xbed660a9	-0.4187062
23	0x3d173ed4	0.036925152
24	0x3e2d19fa	0.1690444
25	0x3e3a7b03	0.18210988
26	0xbddc6b82	-0.10762693
27	0x3cec187c	0.028820269
28	0xbf367e9b	-0.71286935
29	0xbf4adaaf	-0.79239935
30	0xbec9704f	-0.39343497
31	0x3e0ccaa8	0.13749182
32	0xbbe34a33	-0.0069363355
33	0xbe0b875d	-0.13625856
34	0xbe6c440a	-0.2307283
35	0x3e13a463	0.14418177
36	0xbee82018	-0.45336986
37	0x3e2eddfe	0.17076871
38	0xbe4fe1a6	-0.20300922
39	0xbe87c578	-0.26517844
40	0xbf105687	-0.5638203
41	0xbdf57e89	-0.11987025
42	0x3ddace0d	0.10683832
43	0x3e321c7a	0.17393675
44	0xbec267fd	-0.37969962
45	0x3e1cddd3	0.15318994
46	0x3dc42cc0	0.09578848
47	0x3c4f8479	0.012665861
48	0xbe0063bd	-0.12538047
49	0x3da932d4	0.08261648
50	0x3e5dceee	0.21660969
51	0xbf8669ea	-1.0501072
52	0xbe30bb56	-0.17258963
53	0xbdc05360	-0.093909025
54	0xbbdeda8f	-0.0068009566
55	0xbf4145f9	-0.75497395
56	0xbe9a5af3	-0.30147514
57	0x3e5358bc	0.20639318
58	0x3c9e086b	0.019291123
59	0xbd776d7b	-0.060407143
60	0xbeee66ac	-0.46562707
61	0xbe07a8fc	-0.13248056
62	0xbe17650a	-0.14784637
63	0x3e96ffbd	0.29491988
64	0xbe9bd448	-0.30435395
65	0xbe6fead6	-0.23429427
66	0xbe0df5ce	-0.13863298
67	0xbd1399f0	-0.036035478
68	0xbec153bd	-0.377592
69	0xbf0c9af9	-0.5492397
70	0xbf8d8855	-1.105723
71	0xbf481889	-0.7816244
72	0xbd8b5e21	-0.06805063
73	0xbef14fd5	-0.4713122
74	0x3dfadce8	0.12249166
75	0xbee93ff2	-0.455566
76	0x3ec3daed	0.38252965
77	0xbf3afabc	-0.7303884
78	0x3f2a8a04	0.66616845
79	0x3c308916	0.010774871
80	0xbef660e4	-0.48120797
81	0x3f484e9b	0.7824494
82	0xbf00ad11	-0.5026408
83	0xbe5e3419	-0.21699561
84	0xbedca64c	-0.43095624
85	0xbf34f714	-0.7068951
86	0xbe8a2136	-0.26978463
87	0xbe0ac5ce	-0.13552019
88	0xbef91598	-0.48649287
89	0xbf6226dd	-0.8834055
90	0xbec12ce0	-0.3772955
91	0xbeaf5756	-0.3424632
92	0xbe83bb52	-0.25728852
93	0xbeea1724	-0.4572078
94	0xbf3075f6	-0.68929994
95	0xbf172183	-0.5903551
96	0xbf6632a5	-0.8992103
97	0x3f2a27e0	0.66467094
98	0x3b0a8eda	0.0021142275
99	0xbf6888b0	-0.9083357
100	0xbe6e7271	-0.23285843
101	0xbeb46e0e	-0.35240215
102	0xbf5783d5	-0.84185535
103	0xbf201150	-0.62526417
104	0x3eaa629f	0.33278367
105	0xbea2586a	-0.3170808
106	0xbf4b38f4	-0.7938378
107	0xbf54168d	-0.8284691
108	0xbf57246e	-0.8403996
109	0xbf2c3ad3	-0.6727726
110	0x3eab79c5	0.3349134
111	0xbf4f4740	-0.80968094
112	0xbf11bda3	-0.5692999
113	0xbf83fe68	-1.0312014
114	0x3d5eadc7	0.054364946
115	0x3f270825	0.652468
116	0x3ebe9c96	0.3722884
117	0xbe95f703	-0.29290017
118	0x3ed5f6ef	0.41789958
119	0xbde9bb3c	-0.11412665
120	0xbe2e94a1	-0.17048885
121	0x3ec49889	0.38397625
122	0xbec53b1d	-0.38521662
123	0xbf4f7d76	-0.81050813
124	0x3efddebc	0.49583995
125	0x3b6fcb3e	0.0036589648
126	0xbf4d2a96	-0.80143106
127	0xbd78da91	-0.060755316
128	0xbd97c5bc	-0.07410762
129	0x3d981041	0.07424975
130	0xbe9b60bc	-0.3034724
131	0xbeff8910	-0.49909258
132	0xbe5775f8	-0.21041095
133	0xbdcee434	-0.1010212
134	0x3eaf25a1	0.34208396
135	0x3d48f2e0	0.04905975
136	0x3e048d75	0.12944587
137	0xbe6f0d0a	-0.23344818
138	0x3ecb7214	0.39735472
139	0xbe1e6a18	-0.15470159
140	0xbef7ad0f	-0.4837422
141	0xbe9767e6	-0.29571456
142	0xbee50f74	-0.44738352
143	0x3e508a03	0.20365147
144	0xbe3ebc6a	-0.18626562
145	0x3e1b3a44	0.15158945
146	0xbdbe151c	-0.0928137
147	0x3e1e2780	0.15444756
148	0x3e9835ac	0.29728448
149	0x3ec62619	0.3870094
150	0x3e125b46	0.1429263
151	0xbdb85886	-0.090012595
152	0x3e598e26	0.21245632
153	0x3e09f326	0.1347166
154	0x3e27257b	0.16322891
155	0xbde5932f	-0.11209714
156	0x3ea93a5f	0.33052346
157	0xbe68ee49	-0.22747149
158	0xbe0ab006	-0.1354371
159	0x3c78dcb7	0.015189341
160	0xbd7c3f04	-0.061583534
161	0xbc3e1da5	-0.0116037475
162	0xbecaca63	-0.39607534
163	0x3eabca7f	0.3355293
164	0xbe2c71d3	-0.16840295
165	0x3d4209d6	0.04737266
166	0x3e5b2534	0.2140091
167	0x3eb48d24	0.35263932
168	0xbe61c08b	-0.22046106
169	0xbe070c6a	-0.1318833
170	0xbe1c13da	-0.15241948
171	0xbce2b95f	-0.027676282
172	0x3e68a1e0	0.22718
173	0x3edbccdf	0.42929742
174	0xbc114bfd	-0.008868215
175	0xbbf57024	-0.007490175
176	0xbddc8ada	-0.10768671
177	0x3e411539	0.18855752
178	0x3eacafd5	0.337279
179	0xbe23260a	-0.1593248
180	0x3e94e739	0.2908266
181	0x3df8f71c	0.121565074
182	0xbe809b47	-0.25118467
183	0xbe798f47	-0.24371062
184	0xbe97a5dd	-0.2961873
185	0xbebb1d56	-0.3654582
186	0xbe456e84	-0.1928044
187	0x3e70974b	0.23495214
188	0xbd019cd1	-0.031643692
189	0xbd855e57	-0.065121345
190	0xbe8e7088	-0.2782023
191	0x3f207ed4	0.62693524
192	0xbef93541	-0.48673442
193	0xbb20913c	-0.002450063
194	0xbed7200c	-0.42016637
195	0xbcae73bc	-0.02129542
196	0xbe98deb4	-0.2985741
197	0x3b45e3a5	0.0030195501
198	0x3da93bbc	0.082633466
199	0xbc286f5a	-0.0102804545
200	0x3c0bebb0	0.008540079
201	0xbea15aa2	-0.3151446
202	0xbcedf1f4	-0.029046036
203	0xbeb282ae	-0.34865326
204	0x3f017eba	0.50583994
205	0xbe1d372d	-0.15353079
206	0x3e6df141	0.23236562
207	0xbe9d6691	-0.30742314
208	0xbedaeff6	-0.427612
209	0x3f410b0d	0.7540749
210	0xbe8dde8a	-0.27708846
211	0x3c298e6d	0.010348898
212	0xbe638b60	-0.22221136
213	0x3da77ad9	0.08177728
214	0xbd5c2d81	-0.053754333
215	0x3deb6ecb	0.114957415
216	0xbea37859	-0.31927755
217	0x3d44c66b	0.04804079
218	0xbd84bdf2	-0.06481542
219	0xbc44338d	-0.011975181
220	0xbed4f379	-0.41592005
221	0xbe90fa06	-0.28315753
222	0xbd8a4005	-0.06750492
223	0xbe5523ec	-0.20814484
224	0xbec915b1	-0.39274362
225	0x3e122f7a	0.14275923
226	0xbe814209	-0.25245693
227	0xbd6a28f8	-0.057167977
228	0xbd3f7c55	-0.04674943
229	0x3e299349	0.16560091
230	0x3dd8242b	0.105537735
231	0x3d983c71	0.07433403
232	0xbeeb6a32	-0.45979458
233	0xbc842acc	-0.016133688
234	0xbe478d7a	-0.19487563
235	0x3e835c9a	0.25656587
236	0xbeb7e647	-0.35917875
237	0x3e3ad3ed	0.18244906
238	0xbd61f20e	-0.055162482
239	0xbe70075a	-0.23440304
240	0xbe453cda	-0.19261494
241	0xbdd8e59e	-0.10590671
242	0xbc49daf1	-0.012320266
243	0x3f1b9d5e	0.60787
244	0xbe4f7d73	-0.20262699
245	0xbddfd433	-0.10929146
246	0xbede6349	-0.43435124
247	0xbe2a3305	-0.16621025
248	0xbdac8dc7	-0.084254794
249	0xbf93e39d	-1.1553837
250	0x3d70faa3	0.058832776
251	0x3cce7e68	0.02520676
252	0x3ef47906	0.47748584
253	0xbbba136d	-0.0056785853
254	0x3cb01baa	0.021497566
255	0xbf1f15bc	-0.6214254
