torch-rl/storage/bak/Lstm-Customs-Maze-13x13-v0/status.pt (torch, 649173 bytes, 51 tensors)

image_conv.0.weight f4 [16, 3, 2, 2]
000000 57 de 0f 3e 9f 69 0d be cd c0 79 bd fd ca 01 3e
       0.1404966 -0.13809822 -0.060974885 0.1267509
000010 b5 31 94 be 31 73 23 3e 86 04 81 bd ba 21 0e 3e
       -0.28944173 0.15961911 -0.06299691 0.13880053
000020 23 60 24 3d 94 c7 10 bd 45 fa a3 3d 7e 52 69 3c
       0.040130746 -0.035346583 0.080067195 0.014240859
000030 dd c8 cb 3d 75 bf f4 bd 8c b4 24 bd cc 57 41 bd
       0.09950421 -0.1195058 -0.040211245 -0.04720287
000040 0c 14 23 3d 8d 45 8c 3b d3 b6 6d 3e 20 95 89 3d
       0.03981404 0.004280752 0.23214273 0.067178965
000050 47 2b dc bd 72 88 32 be e4 30 46 bd f1 02 ff bd
       -0.10750442 -0.17434862 -0.04838647 -0.12451733
000060 2c 4d be bd 00 16 33 bc 6b 73 22 3e b7 ed 0a 3e
       -0.09292063 -0.010930538 0.15864341 0.13567244
000070 55 ed 51 be 59 9c 19 3e a3 0e 80 3d cc dc 80 3e
       -0.20500691 0.15001048 0.06252792 0.25168455
000080 aa 1d 43 3e ec aa 86 be f4 87 8c be 38 94 0e be
       0.19054285 -0.26302278 -0.27447474 -0.13923728
000090 ea 5d 69 3e f8 fc 8c bd b1 30 ee 3d 87 01 f7 bd
       0.22789732 -0.068841875 0.11630381 -0.12060838
0000a0 01 07 7f 3e ef 54 0a be 84 c1 50 3e 98 a3 b1 3d
       0.24905016 -0.13508962 0.2038632 0.08673781
0000b0 9f ba 1b be cb f1 17 3e 86 e9 1c be 6d e0 ad 3d
       -0.15207909 0.1483833 -0.15323457 0.084900714
0000c0 76 5a d1 bd 7a 7b 58 bd 81 bc 9c be 2e 55 2f be
       -0.10222332 -0.05285213 -0.30612567 -0.17122337
0000d0 9e cb 0d 3e 59 9c 94 bd d7 b0 84 3e 6a 2d 44 3e
       0.13847205 -0.072563834 0.25916168 0.19157949
0000e0 a1 75 5d bc 6b 4f 45 be e1 02 34 3e 35 7c b7 3d
       -0.013516814 -0.19268577 0.17579223 0.089592375
0000f0 97 4a 43 be b3 32 3b 3e df 46 2f 3e fa 05 82 3e
       -0.19071423 0.18281059 0.17116879 0.25395185
000100 d3 0d 22 be b2 3b 58 bd 52 c8 12 bc ef f0 23 3d
       -0.15825586 -0.052791305 -0.008958893 0.040024694
000110 ba 56 60 be 49 c4 51 be 3f cf 20 3e 19 a2 8a bd
       -0.21908084 -0.20485033 0.15704058 -0.06769199
000120 a2 9f ef 3d 49 ed 81 bb b7 40 9a 3d 08 30 4e 3d
       0.117003694 -0.003965054 0.075318746 0.050338775
000130 5a 1c ac 3d 68 99 fe 3d dd 96 94 be 03 c1 05 3e
       0.08403845 0.12431604 -0.2902135 0.1306191
000140 77 d8 4f be 0e 09 5f be c3 d0 8f 3c e1 7d 49 bd
       -0.20297419 -0.21780798 0.0175556 -0.049192313
000150 07 80 1c 3e 26 78 39 be b7 cc 93 be 88 22 33 3e
       0.15283214 -0.18112239 -0.28867123 0.17493641
000160 a1 75 5d bd a3 23 17 3e e5 91 90 3d db 04 44 be
       -0.054067258 0.14759688 0.07059077 -0.19142477
000170 79 8b 6d 3d 7e 01 8e 3d 7c ec 45 be 6e 41 0c be
       0.05799434 0.06933878 -0.19328493 -0.13696834
000180 57 05 aa 3d e1 c4 28 3d 63 fd 0c be 39 97 cf bd
       0.083018 0.041203383 -0.13768534 -0.10136265
000190 62 98 7c 3e e7 0a 6e bd a9 a4 18 3e 80 bd f4 3d
       0.24667504 -0.058115866 0.14906563 0.11950207
0001a0 82 14 3f be ca 63 7b be 87 df 8d 3e 9b f7 76 3c
       -0.18660167 -0.24549785 0.277096 0.015073682
0001b0 cf d6 3a 3e 92 e1 50 3d 2d d1 90 3d ac 71 4d 3e
       0.18246005 0.05099637 0.07071147 0.20062894
0001c0 bf 2a 83 3e 65 54 43 be 78 00 68 3c 03 18 4e 3e
       0.2561855 -0.19075163 0.014160268 0.20126347
0001d0 3b 25 56 3e e2 a3 37 3e 08 ef 55 be 7e dd 54 be
       0.2091264 0.1793361 -0.20891964 -0.20787618
0001e0 3b f3 11 be c0 96 86 3d 9f 32 a6 3e c9 50 2a be
       -0.14252941 0.06571722 0.32460496 -0.1663238
0001f0 84 cc 3d 3e c2 e1 06 be 63 6d 20 be bf 4c 84 3d
       0.18535048 -0.13172057 -0.15666728 0.06459951
000200 6b 51 2a 3e 22 37 89 3e c5 94 37 be 69 4c 80 3d
       0.16632621 0.26799875 -0.17927845 0.06264574
000210 56 22 76 3e 5e c7 2c 3e d3 b4 3f 3e 29 3d 56 3e
       0.24036536 0.16872928 0.18721323 0.20921768
000220 e5 5b 2a 3e 0a 0a 06 3d 24 93 48 be cb 8a 6b be
       0.16636617 0.032724418 -0.1958738 -0.23002164
000230 98 73 07 be eb af 09 bd d3 30 35 be 8d 4b d8 3d
       -0.1322769 -0.033615034 -0.17694406 0.10561285
000240 33 fb b3 3d 86 41 88 bd 4b 18 c3 3d 90 d6 92 3d
       0.08788147 -0.066531226 0.09526118 0.07169831
000250 7a 41 34 3e 14 97 47 3e 5f 73 03 be b6 31 80 3e
       0.17603102 0.19491225 -0.1283698 0.25037926
000260 36 b2 08 bd f1 7d 22 bc ce 81 8b be 4e 41 3e be
       -0.03337308 -0.009917722 -0.2724747 -0.185796
000270 bb 9a 35 be 66 7e 03 be 63 d7 4a 3e 8a 7f d1 bd
       -0.17734806 -0.12841186 0.19808726 -0.10229404
000280 92 fb 19 be c8 b4 e0 3d aa bb ab 3d 15 52 37 3e
       -0.15037373 0.10971981 0.083854035 0.17902406
000290 6c f7 18 be b6 2e 80 3d aa 3a d7 bd 45 d4 84 bd
       -0.14938134 0.062589094 -0.10509236 -0.064858
0002a0 61 53 6d be 82 21 06 be 2a 77 b9 bd c6 6d f8 3d
       -0.23176338 -0.1309872 -0.09055932 0.121303126
0002b0 a2 e7 40 3d 62 85 93 3d d6 fb 91 3e 40 e2 8e 3e
       0.047095902 0.07203175 0.28512448 0.2790699
0002c0 8b 9d 49 3e e2 9b 16 3c f0 7e 4c be 51 04 67 3e
       0.19689004 0.009192439 -0.19970298 0.2256024
0002d0 e7 00 4b bd 20 28 4b bc b5 61 7c be 22 3b 5e bd
       -0.049561407 -0.012399703 -0.24646647 -0.054255612
0002e0 bf a5 0b be f2 76 8d 3e 28 8e 7f be 15 18 60 be
       -0.13637446 0.2762981 -0.24956572 -0.21884187
0002f0 fa 99 20 bc 59 d6 1f be 68 8a d3 3d 12 92 e3 bd
       -0.009802336 -0.15609111 0.10329133 -0.11111845

image_conv.0.bias f4 [16]
000000 61 c1 13 be ff 36 f3 ba 65 e1 48 3e f4 36 55 be
       -0.14429237 -0.0018555819 0.19617231 -0.20821744
000010 84 7c fc 3d 42 e9 3e 3e 09 ee 82 3e b4 37 5c be
       0.12328437 0.18643668 0.2557223 -0.21505624
000020 8d df 76 3d 71 1c 6a be 6e 60 8a 3e dc 3e f0 bd
       0.06027179 -0.22862412 0.27026695 -0.117307395
000030 e1 68 3b 3e 34 f7 ae ba e7 40 c0 bc 81 ab 3d ba
       0.18301727 -0.0013348819 -0.023468448 -0.0007235334

image_conv.3.weight f4 [32, 16, 2, 2]
000000 6b 3c a9 3c 65 32 6d 3d da 37 e3 3c c7 f8 1c 3d
       0.020658692 0.057909388 0.027736593 0.03832319
000010 b3 b5 e3 bd 63 a5 c0 3d fc 59 e3 3d 5d c6 d5 3d
       -0.11118641 0.09406545 0.111011475 0.104382254
000020 29 c5 b9 3d bf 1b b6 bd 39 b8 30 bd 62 39 e3 3d
       0.090708084 -0.08892011 -0.04314444 0.11094929
000030 af cd b5 bd f1 46 df 3d 90 5c bd bd ab 04 b0 bd
       -0.08877122 0.10902203 -0.092461705 -0.0859464
000040 88 7d 80 3d 0b f4 b1 bd 64 06 d1 bc 13 47 bb 3d
       0.06273943 -0.086891256 -0.025515743 0.09144416
000050 5a 2f c8 3d c7 be f5 3d e3 ec c4 bc d6 72 c6 bd
       0.097746566 0.119992785 -0.024038738 -0.09689872
000060 24 9f f9 3d 65 74 e9 bc 1e cc 46 bd 81 6c 02 3d
       0.12188557 -0.028497884 -0.048534505 0.03184176
000070 10 50 b4 bd 72 d2 a5 3d 8b 3a a3 3d dd 0b bd bd
       -0.08804333 0.0809678 0.079701506 -0.09230778
000080 3b 91 c8 bd 30 06 6f bc 72 da 6c 3d af 62 8e ba
       -0.097933255 -0.014588878 0.057825513 -0.001086315
000090 a1 a6 71 bd 19 1f 05 3b 94 a1 e5 bd f1 47 b1 bd
       -0.0589968 0.0020312725 -0.11212459 -0.086563
0000a0 65 f8 a0 bd c2 dc c2 3d 5a b7 ee 3d 33 db 4b bd
       -0.078598775 0.095147625 0.11656065 -0.04976959
0000b0 4f 2e 9e 3b 48 4b 60 3d b8 40 87 3c f0 44 6c bd
       0.0048272978 0.054759294 0.016510352 -0.05768293
0000c0 7a 68 92 3d 62 1f 9b 3d da 4c 52 bb d9 5c 6b bc
       0.071488336 0.07574345 -0.0032089264 -0.014365398
0000d0 f3 a0 e3 3d 0c 2b e5 3d 8e 02 8c bd 0b 7f fc 3d
       0.11114683 0.11189851 -0.06836425 0.12328919
0000e0 18 1a f8 3c 2c 09 a3 bd b7 33 93 3d 23 9f bc bd
       0.03028588 -0.07960734 0.07187598 -0.092100404
0000f0 c2 24 de 3d 33 71 3d bd e1 4b 34 3d 2f 8b 31 3d
       0.10846855 -0.046250533 0.044017676 0.043345626
000100 26 2e 54 3c 48 a0 c7 3d 73 94 a6 bd 9f c2 80 bd
       0.012950456 0.09747368 -0.08133783 -0.06287121
000110 be 1e 04 be 53 3a 47 bc 15 5f 2d bd 9c 4a 39 bc
       -0.12902352 -0.012159902 -0.042327005 -0.011309292
000120 96 44 37 bd 3c dc ef 3c 61 02 cc 3d 61 e6 b7 3c
       -0.044743143 0.02927982 0.09961391 0.02244872
000130 ba af 40 bd 14 8f 76 bd 40 50 cf bd 74 11 b8 3d
       -0.047042586 -0.060195044 -0.10122728 0.08987704
000140 0d 0d 24 bd d8 4f a2 3c a2 00 85 3c 16 31 ba bd
       -0.04005151 0.019813463 0.016235653 -0.09091394
000150 11 82 5b 3d f9 6a 67 3d a9 f2 e2 3a f4 d5 b2 bd
       0.053590838 0.0564985 0.001731475 -0.087322146
000160 2c 45 88 bd 82 67 cc bb 7e 08 bd bd 40 cb 9e bd
       -0.066538185 -0.006237925 -0.092301354 -0.077536106
000170 28 00 16 bd cd 1c fb bc 36 2e 06 3d 89 d4 19 bd
       -0.036621243 -0.030653382 0.032758914 -0.037556205
000180 01 1a c8 bc 37 dd 48 bd 4d 2a e3 bd cb 8f ca 3d
       -0.024426462 -0.049039092 -0.110920526 0.098907076
000190 f8 c8 25 3c 47 3f e6 3d d4 42 29 bc 1c 73 30 bd
       0.010118715 0.11242538 -0.0103308745 -0.043078527
0001a0 68 7d fb bd 85 93 43 bd 20 38 97 3d 16 6a cf bd
       -0.12279779 -0.047748107 0.07383752 -0.10127656
0001b0 e4 60 5a bd 99 82 a9 3d c2 06 bb 3d 59 e8 27 3d
       -0.05331506 0.08276863 0.09132148 0.04099307
0001c0 c2 a3 26 bd 69 e8 9f bc 9c b6 38 bd 28 51 61 bd
       -0.040683515 -0.019520001 -0.045096025 -0.055009037
0001d0 83 ac 00 3d 71 86 78 bd 56 da 83 bd a4 e1 8a 3c
       0.03141452 -0.06067509 -0.06438129 0.016953297
0001e0 f5 07 e7 bd 54 b3 28 bd 7f 0f 8d 3d 75 07 15 3d
       -0.112808146 -0.041186646 0.06887721 0.036384065
0001f0 48 85 92 3d b8 5f c6 bd 9e d5 10 bc a9 0e c9 bb
       0.07154328 -0.09686226 -0.008839993 -0.006135781
000200 ca 02 ad bd 23 d6 83 bd f3 08 dc 3c 44 5f 8a 3b
       -0.084477976 -0.06437328 0.026859736 0.0042227823
000210 6e 61 73 bd ba af b7 bd 8d 89 d3 bd 9e c9 f9 3d
       -0.059419088 -0.08969064 -0.1032897 0.121966586
000220 1a cc d5 bc ca b4 d7 bc cd 1a 42 bd 9a 6b 76 bd
       -0.0260983 -0.026331324 -0.04738884 -0.06016121
000230 c3 74 ea bd a8 69 90 bd bc ac 8d 3d 58 d1 a4 3c
       -0.11448052 -0.07051402 0.06917712 0.020119354
000240 57 d3 3b bd 1b d5 47 bd d2 02 a1 3d 75 68 c0 3d
       -0.045855846 -0.048787218 0.07861866 0.093949236
000250 5a be f0 3d 59 fd 13 3d 74 0e 79 3d 8d 9b 01 bc
       0.11755057 0.036130283 0.0608048 -0.007910621
000260 49 3f a9 bd ce f0 f4 bd 49 b1 9e 3d 85 7b 93 bc
       -0.08264024 -0.11959992 0.07748658 -0.018003235
000270 1b a8 79 3d 2e 8a 0f 3b 1d 0e e1 bd e0 c0 84 bd
       0.060951333 0.002190243 -0.1098902 -0.064821005
000280 ec c7 00 3d 9d fa c4 bc a5 81 01 be 98 79 1c 3d
       0.03144066 -0.024045283 -0.12647112 0.0382019
000290 e7 c6 a1 ba 9a 0c 27 bd 30 80 3f 3d af e6 d5 3c
       -0.0012342603 -0.040783502 0.04675311 0.026110975
0002a0 5e 43 42 bd 10 69 e1 3d cd c8 82 3d 0d fe e7 3c
       -0.047427528 0.11006367 0.06385956 0.028319383
0002b0 f1 c9 a8 bc 1c e0 da bd c9 db d6 3d db d8 02 bd
       -0.020604106 -0.10687277 0.104911394 -0.03194509
0002c0 fa b5 bb bd d2 7d a6 3d 65 34 2c 3d 5b e4 f6 3c
       -0.09165569 0.08129467 0.042042155 0.030138185
0002d0 63 a9 d6 bc 45 38 1b bd 09 d3 a7 3c 9b 62 d3 3d
       -0.026203817 -0.03789546 0.020486372 0.10321542
0002e0 40 3a 78 3c 6e bd 74 bd 8d 20 ff 3d 13 13 62 3c
       0.015150607 -0.059750967 0.124573804 0.013798493
0002f0 86 48 ea 3d ea 5e 89 3c 22 c7 02 3e 74 2a 6e 3d
       0.11439614 0.016768891 0.12771276 0.058145955
000300 66 42 8a bd fc 2e aa 3d 0c bb cf bb 97 97 d6 bd
       -0.06750946 0.08309743 -0.0063394364 -0.10478132
000310 eb 7c ea bc 9a 51 ed bd 61 be 8d bd ab 1d bd bd
       -0.028624019 -0.1158783 -0.069210775 -0.09234174
000320 68 8d aa 3d 98 29 ff bc fe 6d de bc 68 63 63 3d
       0.08327752 -0.031147763 -0.027152058 0.055514723
000330 1c 87 50 3d 69 63 ae bd 3e 46 27 3d ea 30 47 3d
       0.0509101 -0.08515055 0.040838473 0.048630632
000340 45 82 cf bd d9 7e d7 3d da 8f a5 bd 06 e0 57 bd
       -0.10132269 0.10522241 -0.08084078 -0.05270388
000350 7b 4a da bd fa f1 e0 3d 75 3d 9c 3c 05 9f cd 3d
       -0.10658737 0.10983653 0.019072274 0.10040096
000360 70 f7 a6 3b cd fb 7f 3d 49 53 3a bd 3c f5 d6 bd
       0.005095415 0.062495995 -0.045489583 -0.104959935
000370 b6 ff 63 3c 50 a1 5b bc fc 82 87 bc 78 88 87 bd
       0.013915947 -0.013405159 -0.01654195 -0.06617826
000380 68 8e 15 3b 8a c7 07 3d bf 4d 24 3d fb 71 d7 bd
       0.0022820476 0.03314928 0.040113207 -0.10519787
000390 70 7e 72 3d bb 9e 2a 3c dc 42 a6 3d 4f 7f ab 3d
       0.05920261 0.010413821 0.08118221 0.083738916
0003a0 2d 1b bc bd b0 04 ed 3d 27 7b 0a be 5b 82 7b 3d
       -0.09184871 0.1157316 -0.13523541 0.061403614
0003b0 95 e3 ef 3b c0 7e 62 3d 5e af 98 bd 2f ae 8c 3d
       0.007320831 0.05529666 -0.07455324 0.068691604
0003c0 0c 0b 84 bd cb 19 ec bd e5 72 12 3d 98 4b 80 3d
       -0.064474195 -0.11528357 0.035754103 0.06264418
0003d0 4f fc fa 3d 98 a9 97 bc 86 d1 ea 3d ac 78 9c 3d
       0.12255155 -0.018513486 0.11465745 0.07640204
0003e0 14 a1 82 bd 90 a8 d0 bd 8d f9 82 3d 19 ba 94 bd
       -0.063783795 -0.10188401 0.06395254 -0.07262058
0003f0 07 a5 be 3c 50 8e a7 bd 39 71 be 3d ee 8e e3 3c
       0.02327205 -0.08181441 0.09298939 0.027778115

image_conv.3.bias f4 [32]
000000 5e 35 cd ba 73 0b 40 bd f5 41 ee 3c 66 2a 9c bd
       -0.0015656163 -0.04688592 0.029084185 -0.07625274
000010 25 d9 ce bd 43 c8 0f bd 91 6f ce bd e0 c2 08 3d
       -0.10100011 -0.035103094 -0.10079873 0.033388972
000020 0d 1c 9a 3c 2c aa f1 3d 41 04 61 3c 53 c6 b9 bc
       0.018812204 0.11800036 0.013733924 -0.022677576
000030 9f 5f ba bd 30 36 7c bd a5 9a cd bc 3b 8e b5 bd
       -0.091002695 -0.061575115 -0.025098154 -0.08865019
000040 a7 68 4e 3c ed d4 ae 3d 0b c4 82 3d a3 da 7b bd
       0.012598193 0.08536706 0.063850485 -0.061487805
000050 2f bf 28 3c 4d e0 d6 3d a6 bb 01 bd c7 86 ec bd
       0.010299488 0.10492001 -0.031673096 -0.11549144
000060 f8 79 19 bc 4b 8b 90 3c ca 6f 64 bd 7e 7a 86 bc
       -0.0093674585 0.017644545 -0.055770673 -0.01641583
000070 b4 8b bc bd 84 38 0f 3d 2c bc c3 bd 18 c7 db 3c
       -0.09206334 0.034966007 -0.09557375 0.026828334

image_conv.5.weight f4 [64, 32, 2, 2]
000000 7d 84 7c 3d 68 cf 70 bd 2f 51 2b bd 84 c2 f5 3b
       0.06164979 -0.058791548 -0.04182547 0.0074999947
000010 fd b1 74 bb f8 54 4f 3d 08 6f 12 bc 34 33 48 3c
       -0.0037337535 0.050618142 -0.008937605 0.012219239
000020 a7 10 0e bd 91 07 b5 3c f3 c2 bd 3c 04 b3 98 bd
       -0.03468385 0.022098335 0.023164248 -0.074560195
000030 f2 18 3c 3d 54 45 9b bc 54 40 a4 3d fe 70 b8 bd
       0.045922227 -0.018953957 0.08020082 -0.090059265
000040 1a 6c 43 bc 69 96 23 3d c6 a6 79 3d 4a 9a 96 3a
       -0.011927629 0.039938364 0.060950063 0.0011490074
000050 a2 81 5c bd 63 ed 8b bd b4 13 89 bd 0d c0 91 3d
       -0.053834565 -0.06832387 -0.06693211 0.07116709
000060 5f e4 a4 bd b7 d7 1b bd 5c b8 2d 3d cd 45 3c 3d
       -0.08051371 -0.03804752 0.042412147 0.045965005
000070 4e 58 9e bd 81 8e 8f 3c 58 13 2f 3c dc 23 a6 3d
       -0.077316865 0.017524006 0.010685764 0.081123084
000080 63 24 98 bb 0a 82 11 3d 37 46 1e bc 00 da 97 3d
       -0.0046430095 0.035524406 -0.009660295 0.07414627
000090 8b 7b 31 bc 31 3c 61 bd d8 8f 70 3c c6 45 4c bd
       -0.010832678 -0.054989044 0.0146827325 -0.04987123
0000a0 b4 2d 88 3c e0 2c 87 3d 9a cb 8c bd da b2 83 bd
       0.016623355 0.06600356 -0.068747714 -0.064305976
0000b0 13 1d 1f bb eb 3d 1d bc c2 df fc bc 81 b1 8e 3d
       -0.0024278804 -0.009597282 -0.030868415 0.0696745
0000c0 23 7b fd 3c 3a 55 01 bd 6d 5f 82 39 ee ea 9f bc
       0.030942505 -0.03157542 0.0002486663 -0.019521203
0000d0 c7 a1 83 bd 75 f9 f1 3c fe 15 8e bd 3a e3 4f 3c
       -0.06427341 0.029537896 -0.069377884 0.012688452
0000e0 41 46 61 3d 44 4a ae bd 41 2e b0 bb c0 74 a3 3d
       0.05499864 -0.08510259 -0.0053766076 0.07981253
0000f0 42 c8 16 3d 45 e2 20 bd 88 09 35 3c 2e a6 b3 bd
       0.036812074 -0.039278287 0.011049636 -0.08771931
000100 f1 0a 57 3c b5 59 97 3d 18 55 9c 3d 60 45 ec bb
       0.013125167 0.07390157 0.07633418 -0.0072104186
000110 6e 4a f6 3c 96 02 91 bc 28 b7 f4 bc e4 22 a5 ba
       0.030064788 -0.017701428 -0.029872492 -0.0012598899
000120 a3 d3 60 bd d7 6b 10 3d f1 db 1b 3d ff a6 c6 bc
       -0.054889333 0.035259094 0.03805155 -0.024249552
000130 ac 44 b0 bc 2e b6 93 bd eb af 16 3c 45 74 d4 3c
       -0.02151712 -0.072124824 0.009197216 0.025934348
000140 d3 2e 74 3d fc c9 cb bd 8f 6a d2 bd 84 ae a0 bc
       0.059614968 -0.09950635 -0.10274231 -0.019614466
000150 51 c6 a0 3d 0f 7c 02 3b 77 10 b0 3c d8 e3 32 3c
       0.07850326 0.001991037 0.021492226 0.01091858
000160 95 39 47 bc b7 7b 77 3d f5 8b 7f 3d 38 cd 55 bd
       -0.012159725 0.060420718 0.062389333 -0.052197665
000170 30 8e 45 bd b8 c1 8c bd b1 17 b0 bc 60 7e 02 bb
       -0.048231304 -0.068728864 -0.021495672 -0.001991175
000180 0b 56 8c 3d ad fd b4 bd c7 1e 6a 3d 75 88 5a bd
       0.06852349 -0.08837447 0.057158258 -0.05335279
000190 21 9e b2 3b f8 2f 8d bb cb ca 41 3d 4d 88 9c bd
       0.0054509793 -0.004308697 0.04731254 -0.07643185
0001a0 da d2 7c bd 3f da 04 3b bb df 69 3c 80 2d 2e bd
       -0.06172452 0.0020271686 0.014274533 -0.04252386
0001b0 65 ae a3 3c d1 32 f2 bc 13 63 af bd b8 be 30 3b
       0.019980619 -0.029565247 -0.08563819 0.0026969146
0001c0 96 4c 07 bd 11 a4 f0 3c 3e b9 70 3d 1e f9 91 3c
       -0.033032022 0.029375108 0.05877041 0.017818984
0001d0 92 59 4a 3d 44 cc 97 bd f2 ee b8 bd b9 ab df 3b
       0.049401827 -0.074120075 -0.0902995 0.006825891
0001e0 69 60 c6 3c 87 91 89 bd 4e bb 90 3d c0 aa 06 bc
       0.024215894 -0.0671721 0.070669755 -0.008219421
0001f0 9f 73 59 bd a0 37 6d 3d 86 44 9f 3d 1a b3 03 3c
       -0.05308878 0.057914376 0.07776742 0.008038307
000200 f0 c7 37 bd 9f 4e b9 3b 4b 17 94 bd c5 23 33 3d
       -0.04486841 0.0056551243 -0.07231005 0.043735284
000210 54 50 47 3d 80 75 33 bc a3 82 8f bd 06 38 81 3d
       0.04866059 -0.010953307 -0.07007339 0.06309514
000220 49 1f 87 bd 5c 65 21 bd 45 a1 9d 3d 71 2c f8 bc
       -0.06597764 -0.039403304 0.07696775 -0.030294629
000230 9f 13 19 3c 49 cb 94 3d 62 d5 f5 3b 88 9b 2f bd
       0.009343057 0.07265336 0.007502244 -0.042872936
000240 49 ef a0 3d 1a 61 77 3c 15 8f fc 3c f9 ee ed bc
       0.0785814 0.015098834 0.030829946 -0.029044615
000250 2c fa 75 bd d9 b4 62 3c 32 c7 98 bd ad 3d 3b bd
       -0.060053036 0.013837063 -0.074598685 -0.045713115
000260 92 10 ae bd 6c 63 92 3d 2a ba 4f bd 77 d7 b9 3c
       -0.08499254 0.071478695 -0.05071465 0.02268575
000270 ad 6c 1c 3c a0 0d 7a 3d b4 51 18 3d 02 78 7d bd
       0.009547395 0.06104815 0.037187293 -0.061882026
000280 11 42 d5 3c f7 91 4c bd c5 94 3c bc 6c 8a 12 bd
       0.02603248 -0.04994389 -0.011510079 -0.03577654
000290 a6 3c 8d bd e3 ee c0 3c 8b 06 40 bd 2b 19 d4 3d
       -0.068963334 0.02355141 -0.04688124 0.10356363
0002a0 3a 50 72 3d 48 61 da bc aa 22 89 bd 97 5a 9c bd
       0.05915854 -0.026657715 -0.06696065 -0.07634466
0002b0 c0 7d 41 bd 5b 45 79 bd 83 79 52 3b 29 de ea 3c
       -0.047239065 -0.06085716 0.0032115884 0.028670387
0002c0 4f fb 9c 3d 85 cf 05 3c 97 54 25 bd b7 2b 8c bc
       0.07665121 0.008167152 -0.040363874 -0.017110689
0002d0 69 82 51 bc 99 25 5c 3d 31 1b d3 bd 54 c0 b6 bd
       -0.01278744 0.053746793 -0.10307921 -0.089234024
0002e0 11 a3 d0 3c 96 b4 e3 bc 2b 8e 21 bd b1 d9 62 bd
       0.025468381 -0.027796071 -0.039442223 -0.055383388
0002f0 4a c6 92 bd 92 73 a3 bd 58 c5 15 bd 64 16 9c bd
       -0.07166727 -0.07981028 -0.036565155 -0.07621458
000300 52 d9 1c bd a2 b4 83 3d f6 9c 07 bd 96 0d 78 3d
       -0.03829319 0.06430937 -0.033108674 0.06055983
000310 c3 7d 94 bd f4 ab 4e 3c 49 e7 ac bc bb 26 8d bd
       -0.0725055 0.012614239 -0.02110638 -0.06892153
000320 42 4c aa bb 14 ce 96 3d 39 b7 4e bd 96 9f a4 3d
       -0.005197079 0.07363525 -0.050467703 0.08038251
000330 2f fb 13 bc 20 f4 e4 bc 84 f3 fd 3c 6f 82 8d 3d
       -0.009032055 -0.02794844 0.030999906 0.06909644
000340 fd 00 7a 3d 26 29 25 3d 2d 53 ca bd 14 53 f7 bc
       0.0610361 0.040322445 -0.09879146 -0.030190982
000350 23 09 05 3c 81 d1 2f bd 4e e6 69 3d 58 ec 4b bc
       0.008119854 -0.042924408 0.0571044 -0.012446485
000360 53 7b 94 bd 75 78 0c bd ad 9f 91 bd 82 b7 18 3d
       -0.07250085 -0.034294564 -0.07110534 0.03728438
000370 c6 b9 83 bd a9 85 b6 bc 8b f4 14 3c 95 1c 1c 3d
       -0.06431918 -0.022280531 0.009091507 0.038113195
000380 53 d1 9e bd a5 c5 65 3d ae ff 96 bd 3f a1 8f bd
       -0.07754769 0.05609669 -0.07372986 -0.07013177
000390 c7 f7 c7 3c fb 77 37 bd c6 68 52 3d 95 1d 98 3c
       0.024410142 -0.044792157 0.05136945 0.018568793
0003a0 84 5f 77 bd 84 41 9d bc 6c 80 25 bd 37 c6 af bc
       -0.060393825 -0.01919628 -0.040405676 -0.02145682
0003b0 48 f1 1f 3c 73 ee ce 39 2e e6 79 bd d2 02 89 bd
       0.009762116 0.0003946904 -0.061010532 -0.06689991
0003c0 2e 47 92 bd 65 7e 74 3c 01 04 e8 ba c8 59 92 bd
       -0.07142483 0.014922713 -0.0017701389 -0.07146031
0003d0 b0 8f 49 bc b3 31 a6 bb c6 fa 8a 3d 46 3b a2 bd
       -0.012302324 -0.0050718426 0.067861125 -0.07921462
0003e0 ca 45 21 bd 63 1e ac bc 2c 96 a1 3b fd d7 4c bd
       -0.039373197 -0.021010583 0.004931232 -0.05001067
0003f0 02 82 4d 3d ef 15 08 bd d0 ab c0 3b fc f4 4d bd
       0.050172813 -0.033224043 0.0058798566 -0.050282463

image_conv.5.bias f4 [64]
000000 1f d9 15 3c 3f 70 96 bc b4 8b c4 bc 33 b1 39 3c
       0.009146004 -0.01836407 -0.023992397 0.0113337515
000010 91 dd ab bc 40 3f b3 bb 60 e9 cd 3c 2d 0b c7 bc
       -0.020979675 -0.0054701865 0.025135696 -0.024297321
000020 de c1 a3 3c 8b 71 b3 bc 07 d2 9a 3b 5b e0 95 3d
       0.019989904 -0.021904727 0.0047247442 0.07318183
000030 13 4a 16 bd 0f 58 5f bd b4 55 2d 3c 72 c7 ec bc
       -0.036691736 -0.05452734 0.010579515 -0.028903697
000040 a1 8a 91 bd 19 81 4b 3d 13 7b 44 3d ab 2b b9 3c
       -0.071065195 0.049683664 0.047968935 0.02260383
000050 ed 4b 6f bc 79 7b f2 bb 66 9a b4 bd 58 ad 03 bd
       -0.014605504 -0.007399973 -0.08818512 -0.032147735
000060 60 ce 09 bb 2d 10 d1 3c b0 ab 54 3d 45 b8 df 3c
       -0.002102755 0.025520409 0.051921546 0.027309546
000070 d6 6c 2c 3d 55 cc ba bd d3 d0 0f 3d 24 35 ba 3b
       0.04209598 -0.091210045 0.03511126 0.0056826044
000080 41 5b 58 bd 18 d4 c3 bd e1 da 88 3d 9e ee 2d bd
       -0.0528214 -0.09561938 0.06682373 -0.04246389
000090 cf 08 aa bd 2a 73 97 bd df 34 0a 3c ae 2b 13 3d
       -0.08302461 -0.07395013 0.008435457 0.035930328
0000a0 db 51 32 bb 75 11 b7 3b bb 0b d8 bc 59 52 1a 3c
       -0.0027209434 0.005586798 -0.026372781 0.009419047
0000b0 70 2f 6c bc f6 2d 41 3d a9 4f ac 3c 25 11 35 bd
       -0.014415607 0.047162972 0.021034079 -0.044205803
0000c0 09 35 cd 3c dc ac 29 bd 83 b0 7f bd 2b ee 33 bd
       0.025049703 -0.041424617 -0.062424194 -0.043928307
0000d0 90 f2 83 3d 01 d8 0a 3d d8 0a ad bd 85 d5 7e 3d
       0.064427495 0.033897404 -0.08449334 0.062215347
0000e0 6e f6 9f bd 92 65 62 3d 30 9c 59 3b 16 39 01 bd
       -0.078106746 0.055272646 0.0033204667 -0.031548582
0000f0 ef d1 31 3b 36 56 64 bd d4 f1 84 3d eb b1 4c bd
       0.0027133187 -0.05574628 0.064914376 -0.049974363

memory_rnn.weight_ih f4 [256, 64]
000000 da 3b 18 bd 6d da e1 bd a8 4d 20 3d 4b b8 9c 3d
       -0.037166454 -0.110279895 0.03913656 0.076523386
000010 d1 89 51 3c 38 c7 ab bc b0 c9 ee 3c a8 38 a1 bd
       0.012789206 -0.020969018 0.029148906 -0.078721344
000020 d6 18 06 3e b0 6f 1d bd eb 16 43 3d bb 22 1e 3d
       0.13095412 -0.03843659 0.04762928 0.03860734
000030 fb af 29 bd 6e c1 e6 3d 94 d2 29 3d 80 09 d6 3a
       -0.041427594 0.112673625 0.04146059 0.0016329736
000040 99 66 6f bd 55 53 94 3d ef 23 ec 3c f7 10 19 bd
       -0.058447454 0.07242457 0.028825728 -0.037369695
000050 1e fe 89 bd c4 61 14 be 6b 35 de bd ef 1d 44 bc
       -0.06737922 -0.1449042 -0.108500324 -0.011970027
000060 d8 2c 01 be f8 3e e0 bd 97 5c 8c bd 66 4c a2 bc
       -0.12614763 -0.1094951 -0.068535976 -0.01981182
000070 db c6 bb 3d 69 85 ba bd fe 4d 35 be 72 a1 e7 bb
       0.09168788 -0.09107477 -0.17705533 -0.0070688063
000080 cb e8 ec bd af b5 86 bc b4 4d 54 3d e4 84 e9 bd
       -0.11567839 -0.016444055 0.051831916 -0.114023
000090 af 69 f3 3c ce d5 cd bc 88 28 59 3d 98 1e 39 3a
       0.02971348 -0.025126364 0.05301717 0.0007061749
0000a0 23 ba 5f bc a8 75 e5 bc 4f d2 84 bd dc 24 b8 3d
       -0.013655218 -0.028010204 -0.06485426 0.08991405
0000b0 a8 9e b7 bd da 41 d4 3d dc 9e 97 3d cb ba f2 bd
       -0.08965808 0.10364123 0.07403347 -0.11852034
0000c0 10 e9 c2 3d 5a 6b 24 bd 9e 20 38 3d 09 2f 7d bd
       0.095171094 -0.04014144 0.04495298 -0.061812434
0000d0 0d 72 05 3c f0 e6 cd bb da 04 dd 3b 66 4d 1c bc
       0.008144868 -0.0062836334 0.006744963 -0.009539938
0000e0 e5 a9 77 bc 36 90 97 bd 7e b1 b5 3d 73 cd 38 3d
       -0.01511619 -0.07400553 0.088717446 0.045117807
0000f0 51 95 b1 bd 42 ed 90 bc 05 14 17 be 01 13 57 bd
       -0.08671058 -0.017691258 -0.1475373 -0.052508358
000100 fc 19 bd 3c cd c4 ee 3d d7 42 0e be 6b 61 b7 bc
       0.02308368 0.116586305 -0.13892685 -0.02238532
000110 14 35 e9 bd ae 0d b1 3d c6 46 d7 bd e0 d4 04 3d
       -0.11387077 0.08645187 -0.10511546 0.032429576
000120 9c 4c 24 3d ca 83 8c 3d 09 9f 5b 3d 6b c9 02 39
       0.040112123 0.06861074 0.053618465 0.000124728
000130 9b 45 02 3e 41 58 11 bd 8c 16 c3 3d 73 c5 7e 3d
       0.12721865 -0.035484556 0.09525785 0.06220002
000140 df ab c2 bc 71 7c 1e bd 52 15 7b 3d a5 50 89 bd
       -0.023763595 -0.038692895 0.06129963 -0.06704835
000150 54 9c 6a 3c 22 0a c8 bd 44 ec 96 3d ca e4 ce bd
       0.014319498 -0.09767558 0.07369283 -0.10102232
000160 69 b0 04 3d 1b 97 d9 bd c2 68 b9 3c b6 9f a8 bc
       0.0323948 -0.10624524 0.02263296 -0.020583969
000170 a5 18 74 bd c6 34 d8 bc 68 67 a1 3c 8e 42 56 bc
       -0.059593815 -0.026392352 0.019702628 -0.013077391
000180 05 7b b4 3d cc e6 d4 bd 67 51 b3 3d f3 e5 ed bd
       0.088125266 -0.103955835 0.08755761 -0.11616125
000190 80 3f 68 bd 86 7b 1a bc 43 fc ac bd 7b fa 73 3d
       -0.056701183 -0.009428864 -0.084465526 0.05956505
0001a0 ad 36 03 3e de 34 2d bd ca c1 f2 bc 56 b3 a8 3c
       0.12813826 -0.042286746 -0.029633421 0.020593327
0001b0 01 d4 c8 3d ff 55 f8 3d 91 db 0d 3d 5a 08 fd 3c
       0.098060615 0.121257775 0.034633223 0.030887771
0001c0 40 f5 f7 3d b0 73 98 bd eb 9c 9c 3d de 8f 82 bd
       0.121073246 -0.07443941 0.07647117 -0.06375097
0001d0 de e0 2e 3d ac 64 f4 bd 50 2c 93 bc c5 67 d5 3d
       0.04269492 -0.11933264 -0.017965466 0.10420183
0001e0 5e 6f e9 3d 88 24 23 bd 86 55 5a bd 2f 2d f4 bb
       0.11398195 -0.03982976 -0.053304218 -0.0074516754
0001f0 a6 70 9a 3d 85 34 23 3d 58 ae 69 bd 5a 84 63 bd
       0.07541017 0.03984501 -0.057051033 -0.055546142
000200 14 d2 ab 3d 50 55 aa bd 6e d8 8f bd 6f ea 8c bc
       0.083896786 -0.08317053 -0.070237026 -0.01720163
000210 c1 1d f2 3d 4c a7 c4 3d bf 2b ce 3d ce 1b ad bd
       0.11822081 0.09602222 0.10066938 -0.08452569
000220 fc 15 0c 3d c0 c7 0c bc 0c 32 7e 3d ff 65 ba 3d
       0.034200653 -0.008592546 0.062059447 0.091014855
000230 0e e7 c1 bd cd 0b ec bd a4 b4 50 3c 5c 86 02 be
       -0.09467898 -0.11525688 0.012738381 -0.12746567
000240 ab 0f c6 3d 96 9a da bd 5d 3e 9b bd df 63 7d bc
       0.09670957 -0.10674016 -0.07580254 -0.015465706
000250 e5 db 7f 3d 82 84 d5 3d 9c 89 4b 3c 31 f2 bc 3d
       0.062465567 0.104256645 0.012422945 0.09225882
000260 ec e6 58 3d 3b c4 f9 3d b0 f7 19 bd e2 7e 07 bd
       0.0529546 0.12195631 -0.03758973 -0.03307999
000270 7d 05 2f bd 29 55 c9 bc 8d a5 e2 bd 44 8b 16 3d
       -0.042729843 -0.02457674 -0.110667326 0.036753908
000280 ed b3 b2 3d ba 07 85 3d 33 34 9e bd 53 f1 d6 3d
       0.08725724 0.06495614 -0.077248 0.10495248
000290 e1 5f 88 bb 15 6b 0f bc 55 a2 01 be a5 59 56 bd
       -0.0041618203 -0.008753558 -0.12659581 -0.052331585
0002a0 02 15 45 3d 8d 4a 67 3c 6b b2 b1 bd 15 73 ed 3d
       0.048115738 0.014116895 -0.08676609 0.11594216
0002b0 52 b8 71 3d 18 1b 8c 3d 80 68 9a bd e6 87 55 bd
       0.059013672 0.06841105 -0.07539463 -0.052131556
0002c0 e1 bb 1f 3d 24 21 04 be c6 46 6f 3d 49 41 5e 3c
       0.038997535 -0.12903267 0.058417104 0.01356537
0002d0 c6 40 ae 3d 3b 00 d9 3d 52 8a ae 3c 5a 33 8b 3d
       0.08508448 0.10595747 0.02130619 0.06796904
0002e0 5a bd 5a 3a c3 14 df 3d 18 26 49 bc de 6e 97 bd
       0.00083442556 0.10892632 -0.012277149 -0.07394193
0002f0 4c 4b 0b bd a8 5a a4 bd 28 a0 9f bd af 71 b1 3c
       -0.034007356 -0.08025104 -0.07794219 0.021660654
000300 6a 08 be 3d ba a7 c5 3d 6c a4 a0 3d 84 00 c7 3d
       0.092789486 0.09651132 0.07843861 0.09716895
000310 7a cb 10 3e 7a fb 99 bd 93 8b 46 bd dc dc 4d 3d
       0.1414012 -0.075186685 -0.048472952 0.050259456
000320 53 c9 95 bd 88 b1 ae bc b0 af b2 3d ee a3 9e b9
       -0.0731379 -0.021324888 0.08724916 -0.00030258246
000330 d2 d5 09 bd 3a 9e 7f 3d f3 fc f4 3d 74 3a 54 bd
       -0.03365118 0.062406756 0.11962309 -0.051813558
000340 08 bd ce bc 8d c6 08 be 7c 3d 76 3c f6 a5 b1 3c
       -0.025236621 -0.13356991 0.015029307 0.021685582
000350 42 ad a0 3d 77 f5 db bd a2 2f a3 bd 82 a9 aa 3d
       0.07845546 -0.10740178 -0.079680696 0.08333112
000360 2a 3a 72 bd 03 04 83 3a cc 9a cd 3d 72 f5 dc 3d
       -0.0591375 0.0009995702 0.10039291 0.107890025
000370 e6 ba c5 bb 7b bb f1 bd c9 f0 cc bd f2 ae f8 bd
       -0.006034243 -0.11803337 -0.100068636 -0.12142743
000380 c4 e6 13 bb a0 b0 cb bd 71 7e c6 3d e0 c9 ad bd
       -0.0022567967 -0.09945798 0.096920855 -0.0848577
000390 ae a8 0f bd d6 a6 69 3d fd 64 58 bd 9a 5c c1 3d
       -0.035072975 0.057043873 -0.052830685 0.094414905
0003a0 78 73 95 3c fa 68 f6 3d 15 fd b8 3c 0d 5f 9c 3d
       0.018243536 0.120317414 0.022581616 0.07635317
0003b0 f4 50 e7 bd 3a da 5c bd a9 4e 6b 3d ed 57 4a bd
       -0.112947375 -0.053919055 0.057448063 -0.04940026
0003c0 3f 38 22 3d 06 65 9b bd 19 1b 96 3c 0c 2c 06 3c
       0.03960442 -0.07587628 0.018323468 0.0081892125
0003d0 00 5d 9e bd 68 bb f2 bb a8 36 ad 3d b4 b1 ae bd
       -0.07732582 -0.0074075945 0.084576905 -0.08529988
0003e0 9a eb c5 3c 42 e2 99 3d 02 ad d7 3d fe 2e f7 bd
       0.024160195 0.075138584 0.105310455 -0.1206951
0003f0 e6 40 93 3d af 8b de 3d a6 41 c0 3d 29 17 de bd
       0.07190113 0.10866486 0.093875214 -0.10844261

memory_rnn.weight_hh f4 [256, 64]
000000 93 53 ca bd e8 f5 6b 3d d0 55 15 3e b5 e9 73 3d
       -0.09879222 0.05760756 0.14583516 0.059549052
000010 5b 42 e1 bc e9 bf 00 3e b4 93 8c bd 0f 55 52 3d
       -0.027497461 0.12573208 -0.0686411 0.05135065
000020 ae 05 84 bc 99 a9 03 be 51 04 b4 3d 9a c1 b6 3d
       -0.01611599 -0.12857665 0.08789886 0.08923645
000030 ec 31 c4 bd a7 6f de 3d 71 68 ea bd e6 9a 39 3d
       -0.09579834 0.1086114 -0.11445702 0.04531374
000040 4a 19 27 bd 11 ae 0e 3d 8d 2a d1 3d 5a 43 e3 bd
       -0.040795602 0.03483397 0.10213194 -0.11096831
000050 4d 0d a8 3c 1e 7f dd bd b5 84 16 3e 7d ed b6 3d
       0.020514155 -0.10815261 0.14699061 0.08932016
000060 4f a3 10 be 24 f1 00 be 37 50 b8 3d f1 f7 28 bd
       -0.14124797 -0.12591988 0.08999675 -0.04125208
000070 71 76 c4 3d 91 5b bb 3c ec f1 06 3d 2e b2 1d 3d
       0.095929034 0.02287081 0.03294556 0.038500004
000080 9b 9a 8d 3d 14 12 a4 3d 52 ad 99 3d a9 9a f4 bd
       0.06914254 0.08011261 0.07503761 -0.119435616
000090 30 02 10 3d 80 a4 d7 bd 38 b9 c5 3c 28 bb 4f bd
       0.035158336 -0.10529423 0.02413617 -0.050715595
0000a0 09 9e b1 bd f2 72 55 bc 6f da c4 bb b1 9e da bc
       -0.08672721 -0.013027893 -0.0060074846 -0.026686998
0000b0 c4 99 66 3d bb 2e 43 3d e5 a6 df 3d c9 68 8a 3d
       0.056298986 0.047651988 0.109205045 0.067582674
0000c0 f8 7e ff bc 75 24 66 bd 83 1c 15 3d 12 24 df bd
       -0.031188473 -0.056187112 0.036404144 -0.10895552
0000d0 71 90 81 bd dd 62 4a 3d 1f ea 8e bd 94 3f d0 3d
       -0.06326378 0.04941069 -0.06978249 0.101683766
0000e0 29 cb ff bd 7c af a5 bc d3 df b4 3d 01 ea 64 bd
       -0.124899216 -0.020225279 0.088317536 -0.055887226
0000f0 c3 27 46 bc 2a 78 1e 3d 39 6a f2 bc 36 a4 78 3d
       -0.012094441 0.038688816 -0.029591667 0.06070348
000100 8b 3a 56 3d 6c f3 9c bd d4 ab cd 3d 6a 31 cc 3d
       0.052301925 -0.076636165 0.10042539 0.099703625
000110 0a d2 2a 3d 43 c5 b3 3b 3d c6 bd 3d 21 dc 13 3c
       0.041704215 0.005486162 0.092663266 0.009024651
000120 d7 b6 cb 3d b1 6f 92 bc fe 43 44 bd 6b 5e 8e bd
       0.09946983 -0.017875524 -0.047916405 -0.069516025
000130 43 68 bb bc c1 3e a4 ba 70 c2 b1 bd b0 1e 99 bd
       -0.022876864 -0.0012530909 -0.08679664 -0.07476556
000140 f8 c3 d5 bd 6f 9a 91 3d df 18 f1 3d 82 fd e9 bd
       -0.10437769 0.07109534 0.11772322 -0.11425306
000150 ff a6 44 bd 1a 9e 91 3d 7d 99 cc bd 2e 23 f4 3d
       -0.048010822 0.071102336 -0.09990213 0.119207725
000160 a6 e5 c3 3d ee e0 10 3d 2b b4 1c bd f0 48 d3 bd
       0.09565286 0.03537076 -0.03825776 -0.10316646
000170 2a a9 87 3d 3b 42 b2 3d 13 38 a8 bd 03 b1 6e bd
       0.06624062 0.08704039 -0.0821382 -0.05827428
000180 4a 79 42 bd 99 1f 13 3c 07 64 0c 3e 8a 5d d4 bd
       -0.04747895 0.008979701 0.13710032 -0.10369404
000190 66 45 9e bd 79 74 c1 bd 0a ff f7 3d 91 93 1a bd
       -0.077280805 -0.094460435 0.12109192 -0.037738387
0001a0 e9 3b c2 bd 80 8c 03 3d 34 26 ef bd fa 79 ac bd
       -0.09484083 0.032116413 -0.116772085 -0.08421703
0001b0 31 6c 38 3d df cc 04 3e f7 9e 9c 3c 7b bc df 3c
       0.045025054 0.12968777 0.01911877 0.027311554
0001c0 93 e6 cd bd 30 59 36 bc eb b5 a8 3d f1 b3 c9 3d
       -0.10053744 -0.011129662 0.08237823 0.09848774
0001d0 1d 61 41 bd e5 f9 07 3e c6 3f d3 bd f7 9e 00 3e
       -0.047211755 0.13278921 -0.10314898 0.1256064
0001e0 9f f4 a7 3d 16 68 1e bd 0c a7 9e bd d1 f4 4b 3d
       0.08200955 -0.038673483 -0.077467054 0.049794022
0001f0 14 6b b0 3d 5e a7 b2 3b d0 c7 e4 3d 53 4c 2c 3d
       0.086141735 0.0054520806 0.11170924 0.042064976
000200 d0 18 ff bc bc 78 15 bd 78 bd 04 bd 11 d1 03 3a
       -0.031139761 -0.036492094 -0.032407254 0.0005028407
000210 06 07 a2 bc 7b 1b 24 bd b9 d1 96 3d b3 12 19 bd
       -0.01977874 -0.04006527 0.0736422 -0.03737135
000220 c5 8b 77 3a d5 e7 1b bd 32 5a f1 bd 35 74 8d 3d
       0.00094431295 -0.03806289 -0.117847815 0.0690693
000230 70 c7 f3 3d 12 26 9d bc e9 d2 af bd 6d 92 80 bd
       0.11903274 -0.019183192 -0.0858515 -0.062779285
000240 d2 7c 07 be d3 c2 c0 3d 86 3a 6e bd b1 fc 10 be
       -0.13231209 0.0941216 -0.05816128 -0.14158894
000250 37 ca 39 bd 49 84 86 3d fb 68 28 bd 25 e2 a5 3d
       -0.045358863 0.065682 -0.041115742 0.08099774
000260 58 49 e2 bd ad 85 a8 bd 7d e8 8a bd d0 94 e3 bd
       -0.110491455 -0.08228622 -0.06782625 -0.11112368
000270 4a 70 0e 3e a3 88 9c 3d 31 57 ea 3b 00 72 5b 3d
       0.13910022 0.07643249 0.0071515073 0.053575516
000280 af 96 3d bd 1b 0b a2 3d ec 83 8c 3d 7a 50 85 bd
       -0.04628628 0.079122745 0.068610996 -0.0650949
000290 f9 f0 fd bc 28 29 a1 bd 05 86 18 bd 47 36 4c bd
       -0.030998694 -0.07869178 -0.037237186 -0.04985645
0002a0 99 60 b5 bd 63 f4 72 3d 0c 97 28 3d 5b 3f 96 bd
       -0.08856315 0.059315097 0.041159675 -0.07336303
0002b0 f1 16 90 bd eb 47 80 3d 0f 59 57 3d f2 3b 60 3d
       -0.07035626 0.06263717 0.052575167 0.05474467
0002c0 0b e9 d4 3c d3 78 c9 3c 87 a4 06 3e 0a b8 bf 3d
       0.02599003 0.024593746 0.131487 0.093612745
0002d0 d5 8c 44 3d 6e 66 80 3d 33 94 87 bd 7c 0f 88 3d
       0.04798587 0.06269537 -0.06620064 0.066435784
0002e0 a4 58 0a be 27 e4 cb 3c 0e bd 46 bd f2 11 a8 bd
       -0.13510376 0.024889065 -0.04852014 -0.08206548
0002f0 14 4c cb bd 4b 38 01 3e c3 82 cf bd 38 93 92 ba
       -0.0992662 0.1261913 -0.10132363 -0.0011182791
000300 a3 8f 99 3d 49 31 e5 bd 5e 1e 23 3d 97 6e 37 bc
       0.074981 -0.11191041 0.039823882 -0.0111958
000310 be b1 fa bd 70 e6 f5 3d 64 6a 90 bc 7a 7d d2 3d
       -0.12240933 0.12006843 -0.017628856 0.10277839
000320 b7 6e f5 bd 26 d5 8c bd cd 7f c1 bc c6 2f 11 bd
       -0.11984008 -0.06876592 -0.02362051 -0.03544595
000330 7e 00 76 bb c1 19 53 bd 0c 73 30 3c fa 83 b7 3b
       -0.0037536914 -0.051538233 0.010769617 0.0056004496
000340 21 ea 8b 3d c5 9b 9b 3c 68 7b d7 3d 15 a8 c5 bc
       0.06831766 0.018995175 0.10521585 -0.024128
000350 31 7f 2b 3d d9 df 33 bd ae a1 85 bd d7 d5 84 3d
       0.041869346 -0.04391465 -0.065249786 0.06486099
000360 0e 3a 19 bc ee 22 6d bc 15 85 81 bd bc db 49 bd
       -0.00935222 -0.01447366 -0.063242115 -0.04928182
000370 25 4c eb 3d 56 77 04 3d 49 85 e9 bd de 51 88 bd
       0.11489133 0.03234037 -0.11402375 -0.0665624
000380 aa ce e8 3c 51 06 af bd 99 6f bd bd 6d 26 d1 3d
       0.028418858 -0.08546127 -0.09249801 0.10212407
000390 b4 3e da bd 8b 2a d0 bd 73 3c f2 3d 1e 8a 8d 3d
       -0.10656491 -0.101643644 0.11827936 0.069111094
0003a0 9e 9f 89 bd be c6 74 3d 88 eb 19 bd 67 b6 d6 3d
       -0.06719898 0.059759848 -0.037578136 0.10484009
0003b0 18 43 d6 bc 66 41 f5 bd 32 b9 31 bd d1 56 b0 3d
       -0.02615504 -0.119753644 -0.043389507 0.08610309
0003c0 dc 8f 84 bd ee 52 49 39 8b 50 50 3d 3f 8b a5 bc
       -0.064727515 0.00019199747 0.05085806 -0.020208
0003d0 09 e0 26 bd 8d f1 e3 bd 30 b0 48 3d 7b 8b e1 3c
       -0.040741 -0.111300565 0.04899615 0.02753233
0003e0 44 9b 65 bd 0a b8 3f bd 72 3c c7 bd 43 81 fe bb
       -0.056056276 -0.046806373 -0.09728326 -0.007766874
0003f0 93 55 12 bd cc 4e 40 bd 9f e9 c2 bb f6 8c 63 bd
       -0.03572614 -0.046950147 -0.00594826 -0.055554353

memory_rnn.bias_ih f4 [256]
000000 88 86 30 3d 96 c3 92 bd 00 f4 cf bd 21 35 22 bd
       0.04309705 -0.07166211 -0.10153961 -0.03960145
000010 cb 78 ef bd 4c 55 a1 bd 91 d4 a1 bd 05 36 cb 3d
       -0.11692961 -0.07877597 -0.07901872 0.09922413
000020 36 0c 87 bd d3 17 17 be dc fe 8a bd 44 e2 d2 bd
       -0.06594126 -0.14755182 -0.06786892 -0.10297063
000030 6f ed e7 bd ce 5d 95 bd 1d e4 1a be 29 ba b4 bd
       -0.11324584 -0.072932824 -0.15126081 -0.0882457
000040 bc d2 06 be f4 4d 8e bd 78 67 25 be f4 48 61 bb
       -0.13166326 -0.06948462 -0.16152751 -0.003437576
000050 ed 8f 91 bc d8 60 10 be b9 3f d5 bc 8a f1 f6 bd
       -0.017768824 -0.14099443 -0.026031362 -0.12057789
000060 d5 97 01 be 84 a2 ca bc 15 24 40 bd ab b4 0c be
       -0.12655576 -0.024735697 -0.04690941 -0.13740794
000070 48 f3 ce 3c 4b a6 01 bd ce d5 0d be af e3 e7 bd
       0.02526249 -0.03165273 -0.13851091 -0.11322724
000080 b4 00 15 3d d3 6c f9 3b 11 5e 58 3d 83 22 22 bd
       0.036377624 0.00761185 0.052824084 -0.039583694
000090 fc f3 e9 bc 39 6d aa bd 01 fd 8f bd eb 1f 13 be
       -0.028558724 -0.08321614 -0.070306785 -0.14367644
0000a0 7b ff b6 3b 60 d2 a9 3d 61 d3 b7 3c 97 37 a6 bd
       0.005584655 0.08292079 0.02243966 -0.08116072
0000b0 7c 53 59 bc 8e cc 21 be 87 24 a9 bd bb 29 be 3d
       -0.013264533 -0.15800688 -0.0825892 0.09285303
0000c0 10 69 68 bd 69 ee 01 bc 19 b1 a9 3d 5d 72 43 3d
       -0.05674082 -0.007930377 0.08285732 0.047716487
0000d0 ae 09 55 bd 28 8a 14 be 79 0d cc 3d 5c 11 20 3d
       -0.052011184 -0.14505827 0.09963507 0.039079055
0000e0 52 2e 1e bd 73 6b 79 3d b5 56 ff 3b f8 49 21 bd
       -0.038618393 0.060893487 0.0077923187 -0.039377183
0000f0 a0 9d b6 3d 27 1a 5d bc c2 1c 13 3d 1a 9a 9f bc
       0.08916783 -0.013495005 0.035916097 -0.019482661
000100 3f 3e 3c 3d 03 b8 5c bd 6e f9 0c 3b c6 37 12 be
       0.0459578 -0.053886425 0.0021510976 -0.14279088
000110 34 85 37 3d 19 34 ec 3b 9a 54 7e 3d d6 b3 c8 bd
       0.044804767 0.007208359 0.0620924 -0.09799926
000120 26 7e 0b bd bf 99 2f bc 17 88 68 bd e4 8f aa bd
       -0.03405585 -0.010717808 -0.05677041 -0.08328226
000130 bf c8 26 3d 88 0d 42 3c 1a b7 2e be 2c d4 34 bc
       0.04071879 0.011844046 -0.17062035 -0.011036914
000140 7d be 88 3d 0e 59 a7 3d 1e 17 5d 3d 71 68 6f 3d
       0.06676958 0.08171283 0.053977124 0.058449212
000150 1f 2f 36 bd be 42 17 be a1 95 af bd 54 ee 07 bc
       -0.044478532 -0.14771554 -0.08573461 -0.008296568
000160 05 5f 80 bd 1b b5 88 bd 10 37 0d bd f4 55 cd 3c
       -0.062681235 -0.06675168 -0.03447634 0.0250654
000170 ec db ad bd fa 99 e1 bd 0a c4 98 bb 52 64 dd 3d
       -0.084892124 -0.11015697 -0.0046620416 0.1081015
000180 72 2e bd bd b0 67 c0 3d 62 9d 14 3b 6c 41 f4 bc
       -0.09237374 0.09394777 0.0022676815 -0.029816352
000190 e5 95 16 be c1 85 7f bd 8c 47 c3 bc 13 15 28 be
       -0.14705618 -0.062383417 -0.023837827 -0.16414289
0001a0 70 cf a5 bc 1d 6a 8f bd 3e 23 ca 3d c6 a8 a0 bd
       -0.020240515 -0.070026614 0.09870003 -0.07844691
0001b0 5e 1d f8 bd 35 2d ad 3d 72 12 a9 bd 5c 7d 24 bd
       -0.12114976 0.08455888 -0.08255471 -0.040158615
0001c0 5e 9b e1 bd 1a e8 8f bd 62 b0 94 bc f0 63 c2 bd
       -0.11015962 -0.07026692 -0.018150512 -0.09491718
0001d0 84 7f 16 be d8 1a ba 3a 1f 9f 67 bd a6 0f bc 3d
       -0.14697081 0.0014198674 -0.056548234 0.09182672
0001e0 cb 64 b6 bd d0 79 fb bc 92 9d 5e 3d 2a c4 b1 3d
       -0.089059435 -0.030697733 0.05434949 0.086799935
0001f0 75 57 94 bc db 14 45 bd d6 27 3f 3c c4 cd 25 bd
       -0.018108109 -0.048115592 0.0116672125 -0.040479437
000200 f8 76 13 3d fa 6e bd bd 73 c6 82 bd 1e 1f 12 3d
       0.03600213 -0.09249683 -0.063855074 0.035674207
000210 5a 99 49 bc 63 42 2d bd f2 23 9d 3d a1 ea bb bd
       -0.012304628 -0.04229964 0.07672872 -0.09175611
000220 5a b9 ab bc dd 84 67 3d 09 ed 1a ba d5 b0 eb bc
       -0.020962406 0.056523193 -0.0005909955 -0.028770844
000230 ff a2 42 3c d6 eb 10 3d 88 a9 aa bc cf 60 25 bd
       0.011879682 0.03538116 -0.020832792 -0.040375527
000240 a6 b5 ce 3d ed 59 92 3d e5 9e 35 3c 0a ae 94 3d
       0.100932404 0.07146058 0.011085247 0.07259758
000250 49 c8 48 bb 5b fa a7 3d f3 11 a1 3a 0d ed 3f bb
       -0.0030636957 0.082020484 0.0012288674 -0.002928558
000260 c6 65 8d 3d 11 23 a3 bd d0 a5 bf 3c 1a 0f 92 3c
       0.06904177 -0.07965673 0.023394495 0.017829467
000270 18 5e 32 bd b5 f9 a9 bb 30 16 98 3d d7 bf 44 3d
       -0.043546766 -0.005187238 0.07426107 0.048034515
000280 e9 8b d4 bd dc 7e 9c bc 32 3f 36 bd 25 8d ad 3c
       -0.10378248 -0.01910346 -0.04449386 0.021185467
000290 4b db 48 3a 28 fb 7f 3d 37 87 d8 3c ba a6 b3 3c
       0.0007662072 0.06249538 0.026431663 0.021930087
0002a0 82 c5 f9 3d 9c db a0 bd 63 6e af bd 6b 27 33 bd
       0.12195875 -0.07854387 -0.085659765 -0.043738764
0002b0 90 d7 2e bd 77 b8 c0 bd e0 c1 ba bb 6c 34 fa bc
       -0.042686045 -0.09410184 -0.005699381 -0.030542575
0002c0 e0 d4 16 bd 46 78 0b bd bf da 3a bc 14 ed bd 3c
       -0.036824107 -0.03405025 -0.011404692 0.023184337
0002d0 fe 37 f6 bc 70 09 c6 3c 26 b6 c1 3d 8b 4e 95 bc
       -0.030055996 0.024174422 0.0945857 -0.018225929
0002e0 0f 8a 28 3d 64 a6 47 bd d5 a7 55 3d 02 75 31 3a
       0.041147288 -0.048742667 0.05216201 0.00067694497
0002f0 de dd a2 3d 26 e0 8a 3b 93 98 5e 3d 33 cc 4b 3d
       0.07952474 0.0042381464 0.054344725 0.049755286
000300 34 00 4a 3c af 23 9a bd a5 49 81 b9 99 55 b3 bd
       0.01232915 -0.07526337 -0.00024659667 -0.08756561
000310 0c c3 9b 3d 42 f0 96 3d 7a d8 fe bd 8c da 98 3d
       0.076055616 0.07370044 -0.124436334 0.074635595
000320 e8 3f 1a 3d 13 f2 d9 bd 49 18 9b bd 36 21 36 bd
       0.037658602 -0.10641875 -0.075729914 -0.044465266
000330 0f d2 99 3b e0 19 65 bd 41 7b 07 be 71 97 3e 3d
       0.0046942304 -0.05593288 -0.13230611 0.046531145
000340 10 f5 7b 3d 07 94 a7 bd ea 8d 80 3c 79 61 35 bb
       0.061513007 -0.08182531 0.01569267 -0.0027676506
000350 a2 cd 20 3d 0b d1 87 bd ab 41 c8 bb 81 1d 75 bc
       0.039258607 -0.06631669 -0.006111344 -0.014960648
000360 c6 76 a7 3d ae fd 9c bd 32 0e c4 3c b6 6e 1c be
       0.08176951 -0.07665573 0.02393255 -0.15276608
000370 ec 61 c4 bd 24 82 2c be bc d5 99 3d 34 49 da bd
       -0.095889896 -0.1684652 0.0751147 -0.10658494
000380 cc 41 7d bd 89 d8 26 bd c8 39 3a 3d 98 6c 2a be
       -0.061830327 -0.040733848 0.04546526 -0.16642988
000390 ca fd 4d 3d 01 ef 0c be 59 a3 92 3d 56 0f 1f 3b
       0.05029086 -0.13763048 0.07160062 0.0024270616
0003a0 38 0d 2b be 0a ca 04 3c 85 0c 86 bd cd bf 39 3d
       -0.16704261 0.0081048105 -0.06545357 0.04534893
0003b0 77 7b 06 3d 52 c5 13 bd a3 2f bf bc c4 1d 78 3c
       0.03283259 -0.03607685 -0.023338145 0.015143815
0003c0 66 00 07 be 87 2b 7a bb 01 a2 cd bc 2c 0e 1d 3d
       -0.13183746 -0.0038172917 -0.025101664 0.038343593
0003d0 f5 0f 03 be e2 63 4c bc 0b 8c 0a be 6e af 96 bd
       -0.12799056 -0.012474986 -0.13529985 -0.07357679
0003e0 49 3b a2 bc 85 ed 20 be 5e 05 c8 bd c7 93 0a be
       -0.01980366 -0.15715607 -0.09766649 -0.13532935
0003f0 cd 64 b9 bc 3d 36 0b 3d 98 4e 42 bd 18 b4 c1 3b
       -0.022631073 0.033987273 -0.047438234 0.0059113614
