torch-rl/storage/Lstm_Customs_FourRooms_9x9/status.pt (torch, 649109 bytes, 51 tensors)

image_conv.0.weight f4 [16, 3, 2, 2]
00000000: 358f f43e 8b73 49be 9aaa b9bd 4613 a7bd
00000010: c7a7 84be de80 143e 0922 6cbe ba11 9f3d
00000020: 2360 243d 94c7 10bd 45fa a33d 7e52 693c
00000030: 1926 35bd 3312 21be b5c2 2abe c83e a3be
00000040: b507 133e 8dc2 623e 3e81 543e 51ac 28be
00000050: 472b dcbd 7288 32be e430 46bd f102 ffbd
00000060: f4b1 23be 9870 d9bd 6aa9 0c3e d274 74bd
00000070: 5a2a 9abe caec 713e 83be 11be eb4e df3d
00000080: aa1d 433e ecaa 86be f487 8cbe 3894 0ebe
00000090: f038 3b3e 48d4 31be 07ba adbd 411a 87be
000000a0: 64d2 ad3e 0ce2 30be a5a9 593e 095a a63d
000000b0: 9fba 1bbe cbf1 173e 86e9 1cbe 6de0 ad3d
000000c0: 84d3 d4bd 35bc ddbd f6aa bfbe aac8 66be
000000d0: d2a3 823e a7a2 163c 46da 623e c80c 893e
000000e0: a175 5dbc 6b4f 45be e102 343e 357c b73d
000000f0: 817b 35be d90e 203f 84b8 383e 69ce 793e
00000100: 7db1 83bd 0d4e 7dbe 36ef 7a3d 28cd 4bbe
00000110: ba56 60be 49c4 51be 3fcf 203e 19a2 8abd
00000120: 32e6 05bd 5521 10be 35bc f9bc 2535 5cbd
00000130: c516 e5bb c1bd 0b3d d55c c9be 6b93 1c3e
00000140: 77d8 4fbe 0e09 5fbe c3d0 8f3c e17d 49bd
00000150: b8b1 7f3e 2c55 73be f1e6 86be ef5c 083f
00000160: 3eac f1bd 817a 823c ef82 cf3d 0d22 29be
00000170: 798b 6d3d 7e01 8e3d 7cec 45be 6e41 0cbe
00000180: 18b5 65bd 838a bbbd 779b 3cbe 9da3 8cbe
00000190: 8a69 6c3e 523b 43bd f986 583e b8cb 67bd
000001a0: 8214 3fbe ca63 7bbe 87df 8d3e 9bf7 763c
000001b0: 4605 5a3e 44ee ac3d ab15 a6bd f090 7f3e
000001c0: 2a73 333e fc5c a8be 0569 0dbe c18e 88bb
000001d0: 3b25 563e e2a3 373e 08ef 55be 7edd 54be
000001e0: 309e 85be 8a4b 1e3e 5b69 ec3e 168c 8abe
000001f0: b2dd 623d 3257 2c3c 7623 30be a6f3 3fbe
00000200: 6b51 2a3e 2237 893e c594 37be 694c 803d
00000210: a963 4d3e 170b 0d3e 5c1d 0a3e f380 9a3e
00000220: 22ae 0c3e e321 09be 0602 7ebe 9dfe 02bf
00000230: 9873 07be ebaf 09bd d330 35be 8d4b d83d
00000240: 616e d0bc 8316 92be 5ee9 853d e929 d8bd
00000250: 41a1 79ba 68a3 b13d 888d 8abe 0555 8e3e
00000260: 36b2 08bd f17d 22bc ce81 8bbe 4e41 3ebe
00000270: 8728 3abe b2bd 5fbe 0d7a b93e 3d22 59be
00000280: ded4 8dbe 19fb 6f3d e496 92bc ca1d db3c
00000290: 6cf7 18be b62e 803d aa3a d7bd 45d4 84bd
000002a0: d715 99be 038c 83be cd0e 19be 0d00 66bd
000002b0: 381e 1b3d 2db7 303e 00b1 7b3e b1aa 7e3e
000002c0: 8b9d 493e e29b 163c f07e 4cbe 5104 673e
000002d0: b1b4 913d 5045 8ebc 1a5a 15be dc14 2dbd
000002e0: 4a90 89be 8acc b53e fc94 59be 42e1 bdbe
000002f0: fa99 20bc 59d6 1fbe 688a d33d 1292 e3bd
0.47765508 -0.19672982 -0.09065743 -0.08157973 -0.25909254 0.14502284 -0.23059858 0.07767053
0.040130746 -0.035346583 0.080067195 0.014240859 -0.044225786 -0.15729599 -0.16675837 -0.31883836
0.14358409 0.22144528 0.20752427 -0.16471983 -0.10750442 -0.17434862 -0.04838647 -0.12451733
-0.15985852 -0.10617179 0.13736501 -0.05968172 -0.30110437 0.23625484 -0.1423283 0.10903724
0.19054285 -0.26302278 -0.27447474 -0.13923728 0.18283439 -0.17366135 -0.084827475 -0.26387218
0.33949578 -0.1727373 0.2125612 0.081226416 -0.15207909 0.1483833 -0.15323457 0.084900714
-0.10391906 -0.10826913 -0.3743512 -0.22537485 0.2551561 0.009194053 0.22153577 0.26767564
-0.013516814 -0.19268577 0.17579223 0.089592375 -0.17722894 0.62522656 0.18039137 0.24395145
-0.064303376 -0.24736805 0.061263286 -0.1990248 -0.21908084 -0.20485033 0.15704058 -0.06769199
-0.032690234 -0.14075215 -0.030485252 -0.05376162 -0.0069912397 0.03411651 -0.39328638 0.1529061
-0.20297419 -0.21780798 0.0175556 -0.049192313 0.24970138 -0.23762959 -0.2634807 0.53266805
-0.11800431 0.015927555 0.101323955 -0.16516896 0.05799434 0.06933878 -0.19328493 -0.13696834
-0.056080908 -0.091572784 -0.1841868 -0.27468577 0.23087135 -0.047663994 0.21145238 -0.056590766
-0.18660167 -0.24549785 0.277096 0.015073682 0.21291074 0.08443883 -0.081096016 0.24957633
0.175244 -0.3288344 -0.13809593 -0.004167408 0.2091264 0.1793361 -0.20891964 -0.20787618
-0.2609725 0.15458503 0.4617413 -0.27060002 0.055387206 0.010518836 -0.17201027 -0.18745288
0.16632621 0.26799875 -0.17927845 0.06264574 0.20057549 0.13773762 0.13487762 0.30176505
0.13738301 -0.13391833 -0.2480546 -0.5116976 -0.1322769 -0.033615034 -0.17694406 0.10561285
-0.025443258 -0.285328 0.06538652 -0.10554869 -0.0009522625 0.086737454 -0.27061105 0.2779924
-0.03337308 -0.009917722 -0.2724747 -0.185796 -0.18179522 -0.21849707 0.3622593 -0.21204467
-0.27701467 0.058589075 -0.017894216 0.026747603 -0.14938134 0.062589094 -0.10509236 -0.064858
-0.29899475 -0.25692758 -0.14947052 -0.056152392 0.037870616 0.17257376 0.24579239 0.24869801
0.19689004 0.009192439 -0.19970298 0.2256024 0.07114542 -0.017367035 -0.14585152 -0.04225622
-0.26867896 0.35507613 -0.2124824 -0.3708592 -0.009802336 -0.15609111 0.10329133 -0.11111845

image_conv.0.bias f4 [16]
00000000: babb 66be c7b0 51be d099 b03d 57e7 f1be
00000010: 819f cb3c ec5e 2fbd e5f6 2a3e d1da 69be
00000020: 0f5b 94bd fae3 c3be be28 3c3e 3d9c 76be
00000030: 6dce b03d a5ed 88bd 4f94 62be 89b3 923c
-0.2253255 -0.20477591 0.086230874 -0.4724681 0.02485633 -0.042815134 0.16695745 -0.22837378
-0.072439305 -0.3825987 0.18374917 -0.24083038 0.086331226 -0.06685952 -0.22126888 0.017907875

image_conv.3.weight f4 [32, 16, 2, 2]
00000000: e7e8 b93d 3031 893e 5450 9e3c d107 d43d
00000010: 1648 25be 1a0c 37be 89f4 983d 293a 003e
00000020: 9fd5 f33d 5e9e 35bd 5298 d6bc 85f1 8a3d
00000030: 2f41 833b 96ae f33d 4486 fabd c100 ccbd
00000040: 0dc6 a13d a952 d9bd 7324 12bd 94e7 0d3e
00000050: a970 073e d2be 3a3e b9d3 84bd 41f0 70be
00000060: 884d 023e 9cb4 e1bc c0b8 5dbd 5c0e cd3b
00000070: ee39 4dbe 8637 ad3d aecc b53d f243 b5be
00000080: 9098 bfbd c1dc 77bc f6cc 7f3d f041 513d
00000090: c1b9 c53c 54ee 203d 4756 9dbd dfb7 bcbd
000000a0: 8fb1 933d f460 0c3e dc29 793d 1e4a 0ebe
000000b0: c889 623d 6d7b ac3d ea91 853d 30c3 c1bd
000000c0: 44d9 f73d 8420 9b3d 9305 a33a 3e8c 41bd
000000d0: ae3f e53d 4658 053e b29f 873c d85d 7a3d
000000e0: 3d67 c13d 6ce3 c0bd f97a 633d 499e 81be
000000f0: 37ed 1f3e 8c39 ba3e 46ae 6e3d a3a1 783d
00000100: 35a1 0abd dfda 433d b5d2 b0bd 5d62 78bd
00000110: 8c24 88bd b44a ebbd 3892 1dbe 1a27 a2bd
00000120: 8336 40bd 7507 003e a6ec 2cbd 620e 3f3d
00000130: 0e40 253d f533 9b3d 3da9 97be e24a 043e
00000140: d64d 673c c2f4 be3d 6330 16be 9549 bebd
00000150: a8fe 923d 9e49 3a3e 61a2 02bd 8ce8 4d3d
00000160: 4697 ffbd b0b6 373d 900e 40be b7f3 87bd
00000170: 2725 90be 5a65 f23d 803f a4bc cd26 553d
00000180: 1a87 f3bb ec4a dd3d 3a2d 8abe 6010 063e
00000190: 3229 c43d 84e6 273e d735 7bbd 068d f2bc
000001a0: d0e2 acbd e651 9abe 6f4b 163e ac10 0ebd
000001b0: 2e80 b0bc efd1 aa3d 56f0 2b3e ca06 a53d
000001c0: a8ee babd 0d6e 3b3d 4183 57be 87ff 04bd
000001d0: 5734 1b3e 8777 12be ea17 01be 0c7d ea3c
000001e0: 1bdc 8cbd fdc2 a73c 2cac c2bd 2cc1 0c3d
000001f0: 7f8d 0f3e befc 90bc 1046 f8bc d346 cd3b
00000200: 82d0 48bd 63e1 74bd 3c8e 403d 78fb 4a3d
00000210: ea21 7abe f393 61be c463 6b3c 5aac a43e
00000220: eaa3 d3bd 505f edbc f3fd 563d 87c7 f1bd
00000230: 7f85 ebbd 200b 13be 0175 0c3e 10a9 163d
00000240: d540 90be 28f0 81be 98f4 183e 4b87 5e3e
00000250: 1161 063e e2b2 dc3d 5a33 2cbd 0b58 4abe
00000260: f22a 11be dd6f 27be 8472 a03d 8f01 20bd
00000270: 59a2 77bd 3274 1b3e 1a5b b33c 29cf 06be
00000280: 00c0 3ebc 1a75 23be 963c 11bd d976 da3d
00000290: 4a01 15bd 90a9 d3b5 653f b53d 6f1d 7b3d
000002a0: 4547 16bd e85e ee3d 9a04 433d f2c9 933d
000002b0: d973 b53d 4fe8 933d 56dd 3a3e ad76 f93c
000002c0: 5f62 f0bd 01cd 073d c2b5 c43d 6f00 7e3c
000002d0: 2f70 5abd c900 0dbc dfed f53d ce23 da3d
000002e0: ea31 47be 57c5 9bbe f702 183e b44c cc3c
000002f0: de7d ad3d ae07 913d bf3d 1b3e 3e3a a1bd
00000300: c764 17bd 5950 f13c 14cc 19ba 7bc9 8bbd
00000310: ad42 bcbd 7e09 aebe 21d2 d03c 8e36 70bd
00000320: 6729 863d 41a3 4abc ba11 92bd c625 833d
00000330: b307 323b 8b8e 20bd 2b44 e03c ca71 253e
00000340: cd5b b3bd 588d 243d bd55 35be efe5 15be
00000350: 0c8d 01be 7dcc 893e 7ed2 b73d 8240 923e
00000360: a4ea 9fbc a817 1e3d 15ed d5bd 1711 f3bd
00000370: 6aef aa3d 57fb 213e b6f0 b83c a0ed 333e
00000380: 68f1 6bbd 795d 893d 90fe f73b 81fb 06bd
00000390: d579 ec3d b4ff c83d abb2 2d3d 93bb 393e
000003a0: b23a b5bc 8212 9d3d 1818 30bc 6559 a43d
000003b0: 5694 da3c 3576 463e 377c 03bd 8c4a ab3d
000003c0: b222 93bd 5f7b 12be bcb2 2abd 542c 8d3d
000003d0: 5f33 7d3d 7161 25be 31de 9a3d 19f3 df3d
000003e0: 26f3 03bc 33c1 18be 2b31 c6bc 1e18 13be
000003f0: ffcf d63d 7818 08be 3ebc 4b3e 76e9 c6bd
0.09077626 0.2679534 0.019325413 0.10353053 -0.1614078 -0.1787571 0.074685164 0.12522186
0.11905979 -0.044340484 -0.026195679 0.067843474 0.004005573 0.11898534 -0.122326404 -0.09961081
0.07899103 -0.10611469 -0.035679292 0.13857871 0.1322657 0.18236855 -0.064856954 -0.2352915
0.12724888 -0.027551942 -0.05413127 0.0062578153 -0.2004163 0.08457856 0.0887693 -0.354034
-0.09355271 -0.015128315 0.062451325 0.051088274 0.024136426 0.039289787 -0.07682472 -0.09214758
0.07211601 0.1370886 0.060830936 -0.13895461 0.05530718 0.08421979 0.065219715 -0.09461057
0.12101987 0.07574561 0.0012437574 -0.047252886 0.111937866 0.13021955 0.01655564 0.061124653
0.09443519 -0.09418377 0.055537198 -0.25316074 0.15617834 0.3637203 0.05827167 0.060701024
-0.033845145 0.047816154 -0.08633939 -0.06064068 -0.06647596 -0.11488858 -0.1538781 -0.07917614
-0.046926986 0.12502845 -0.042217873 0.046644576 0.04034429 0.075782694 -0.29621306 0.1291919
0.014117679 0.093240276 -0.14666896 -0.092913784 0.07177478 0.18192145 -0.031893138 0.050270602
-0.12480025 0.04485196 -0.18755555 -0.06638282 -0.28153345 0.118357375 -0.02004981 0.052038956
-0.007431877 0.10805306 -0.2698763 0.13092184 0.0957817 0.16396528 -0.061330643 -0.02960826
-0.084416986 -0.3014061 0.14677213 -0.03468387 -0.021545496 0.08340823 0.167909 0.080579355
-0.09127551 0.04575925 -0.21046163 -0.032470252 0.15156685 -0.14303409 -0.12606779 0.02862408
-0.06877919 0.02047872 -0.095054954 0.03436391 0.1401882 -0.017698642 -0.030306846 0.0062645464
-0.049026974 -0.059785258 0.047010645 0.049556226 -0.24427 -0.22029094 0.014367048 0.32162744
-0.103339985 -0.028976113 0.05248828 -0.11805635 -0.11500072 -0.14359713 0.13716508 0.036782324
-0.28174463 -0.25378537 0.14937055 0.21731298 0.13122965 0.10776307 -0.04204116 -0.19760148
-0.14176539 -0.16351266 0.07834342 -0.039063986 -0.06045756 0.15181044 0.021894027 -0.13164963
-0.011642456 -0.1596264 -0.03545817 0.106672 -0.036378182 -1.5770074e-06 0.08849982 0.061307367
-0.03668906 0.11639196 0.04761181 0.072162524 0.08859987 0.07222044 0.18248495 0.030452097
-0.11737513 0.03315449 0.0960498 0.015503033 -0.053329643 -0.008606144 0.12008261 0.106513605
-0.19452634 -0.30423996 0.14844881 0.024938919 0.08471273 0.07081543 0.15160273 -0.07872437
-0.036961343 0.029457258 -0.0005866897 -0.06825539 -0.09192405 -0.33991617 0.025490822 -0.058645777
0.065508656 -0.012368024 -0.07132287 0.06403689 0.0027165234 -0.03919844 0.027376255 0.16156688
-0.08757744 0.04017386 -0.17708488 -0.14638494 -0.12651461 0.26913825 0.08975695 0.2856484
-0.019521065 0.03859678 -0.104456104 -0.11868494 0.08346446 0.15818535 0.022575717 0.17571115
-0.05760327 0.067072816 0.007568188 -0.032954697 0.11546675 0.098143965 0.04240672 0.1813796
-0.022122715 0.07669546 -0.010747932 0.08024863 0.02668206 0.1938103 -0.032100882 0.08363828
-0.07184352 -0.14304875 -0.04167436 0.068932205 0.06181657 -0.16150452 0.07561911 0.10935039
-0.008053577 -0.1491745 -0.024193367 -0.14364669 0.10488891 -0.13290584 0.19896027 -0.09712498

image_conv.3.bias f4 [32]
00000000: 3f6d 4cbd a7db 82bd 8ae3 cabc 3339 11be
00000010: 44eb cdbd f0d9 3abd f3c6 04be 3594 34bd
00000020: f000 493d 5c76 9c3d 3086 25bb 0ac6 62bd
00000030: 3e76 f9bd 6ffc e7bd 5f00 a7bd 322b a5bd
00000040: 1c0b be3d 1b75 413d 28b1 27bc ba78 17bc
00000050: 6fc0 aebd 98d2 cf3d c698 d0bc 83e5 0fbe
00000060: 179e aabd f81b 3dbd 5977 cbbc 49b2 efbd
00000070: 6ac2 26be 446a febb 5887 c9bd 80c8 153d
-0.049908873 -0.063895516 -0.024766702 -0.14181976 -0.10054639 -0.045617998 -0.12966518 -0.044086654
0.04907316 0.07639763 -0.0025256984 -0.055364646 -0.12180756 -0.11327445 -0.08154368 -0.080648795
0.09279463 0.04723082 -0.010235108 -0.009245092 -0.085327975 0.101475894 -0.025463473 -0.14052396
-0.083309345 -0.04616925 -0.024837183 -0.11703927 -0.162851 -0.0077641327 -0.09840268 0.036568165

image_conv.5.weight f4 [64, 32, 2, 2]
00000000: 6a30 fe3d ca70 f7bd 088a 393d c8dc 0abb
00000010: 9ea0 90bd 812a c73d 0f38 23bc 1fc6 383e
00000020: 5b6d 66bd a6fb b83d 0c96 613d 2cec 29bd
00000030: 0802 383d 810c 8b3d 256c 843a 6261 2fbd
00000040: cb54 0f38 c1f6 dc3b 55a1 353d 33e4 523c
00000050: 50f5 2abe 179d 303e 47d6 86bd e25c 49bd
00000060: 11e5 94bd 61d4 633d 4409 623d c883 013d
00000070: 276e 793c 31d3 c43d 31c6 cd3d 559f c63c
00000080: 7b44 b63d 96d0 35be f5e6 c43d 05ff 683d
00000090: e121 a53d 1386 10bd d522 87bc ebf0 84bc
000000a0: 2d21 cb3c 88a8 7b3d 8eef 9ebd fd78 2dbd
000000b0: 55bb b93d ca9e 5d3d 4b9c 31bd efbe 2c3e
000000c0: 804b a0bd 64e1 3d3d 3964 173e 8541 dfbc
000000d0: a5d3 fcbd 17d9 f33d eac7 85bd 0463 873d
000000e0: 129b b63d aabc 4dbc d702 ecbc fc3e 383e
000000f0: 8030 373e 2104 95bd 7160 6c3d fee8 54be
00000100: f88a 1f3e 5261 bfbd 377d 1f3e 7fe5 dbbd
00000110: 24fb 0f3c ba5e 8ebd 2b02 80bb ccb9 03bd
00000120: 7c04 b2bd f20a 463e 4408 8e3d 6b93 3bbd
00000130: 77fa 963d 2288 4abc 6335 ac3c ee32 34be
00000140: 5911 733d 5757 2abd 9f75 04be ad34 2fbd
00000150: 06e0 8b3c 3287 0bbd 022e e33d 09d1 0fbc
00000160: 6551 c73c 4ab8 1a3e 134b ac3d a48a fdbd
00000170: 7f16 69bd 22f3 82bd 6db2 b3bc a242 f5bc
00000180: 5680 b7bb f51f 7a3d 497a 08bd a458 60bd
00000190: d2b6 8d3d cd9c 293e 9976 0d3e 56e9 133e
000001a0: c181 ffbb ab05 d4bc 423c a6bd 788a 52bd
000001b0: 16e9 1d3d d192 ce3b bede adbd 2349 673d
000001c0: f197 9dbc a9b5 a0bd 71a0 423d 4da8 383e
000001d0: 5e5d 2a3e d4bc 16be 06d7 11be 8477 86bc
000001e0: 418a 383e c474 6a3e f197 bf3d b1d5 063e
000001f0: 3872 a3bd e5a5 9bbd e618 623d 9927 1a3d
00000200: baef da3d 3a10 9cbc 9031 a2bc 9064 913a
00000210: a52f b4bb b7f9 cfbc 7b35 79be 177b 023e
00000220: 7ed4 393e 3a74 153e 255f 5d3d ea58 cfbe
00000230: 80f1 923d 2cb6 1d3d 8f70 1b3e b879 f3bd
00000240: 98f8 b53d 4780 063d 8d6d 213d 0a3b d7bc
00000250: 6354 20bd 1824 5f3e ae1b 9abd 3219 dbbd
00000260: ea6a 68bd b356 f63d 19bb ab3d b993 38bd
00000270: 80c2 c2bc ec20 793d 7709 8e3d 3554 99bd
00000280: 9976 b23d 87c0 e9bc 7e16 30bc 103f eb3b
00000290: e259 19bb 7430 ebbd c473 c83d 7008 ff3d
000002a0: f7e7 113d b475 fabc 7901 54bd 59d8 a6bd
000002b0: 31a6 c33d d53f b9bd c869 f23d 7aef dc3d
000002c0: 5f2c fb3d 69a8 ac3e 292a 4ebd 9f84 48be
000002d0: 58f8 173c 32dc 263e 1810 d73d 5b5b c4bb
000002e0: 8e18 4b3c 55e2 b1bd f6f8 c53c 47dc 5f3d
000002f0: 2640 483c 719d 98bd 3235 e0bd 0adf a1bd
00000300: 551c 733d 56a5 693e 8a7f 9b3c e72b 19be
00000310: 79f6 b03d cd7d 5b3a fa71 a1bd 1679 8abb
00000320: c95e b73e 44a4 893e 8ce2 173e 6e2c 2c3e
00000330: 1080 953d 5422 7cbe 3c77 803e 722c 873b
00000340: cd64 5c3e 11c4 89bd ede7 623e 0e7c 02bb
00000350: 36b0 4e3e bc79 c4bd 4dd4 393e 87e1 df3d
00000360: c936 073e 4c20 2dbe 0a7a 0bbe 9afe 003e
00000370: b767 57bd b079 d9bc 23f6 8f3c 951c 1c3d
00000380: 71cc 37bd 1338 213e 8fce febb 5766 19bd
00000390: 76d7 183e c0df 72bb f587 1e3e bcd9 fa3d
000003a0: 128a c9bc 6b20 a5be 6250 11be 4731 81bd
000003b0: 4293 273e 271c a03d 49f1 db3d d47f 4dbd
000003c0: 1ccb 5a3a 4c91 01be 47a3 2d3c 9e88 fcbd
000003d0: b849 efbc 93a2 a23c 4c9b 1fbd 2b8c d73d
000003e0: 0e5e 9c3d 726e acbc 9ea5 0f3d 204f 393e
000003f0: e3c6 10be 5234 0abe cecf 813c b6af 943c
0.12411578 -0.1208206 0.045297652 -0.0021188725 -0.07061885 0.09724904 -0.009962096 0.18044327
-0.056256633 0.09032373 0.055074736 -0.041484997 0.044923812 0.06789494 0.001010303 -0.04281748
3.4172826e-05 0.0067432825 0.04434331 0.01287179 -0.16695142 0.17247425 -0.06583839 -0.049160846
-0.072702534 0.055622462 0.055184618 0.031619817 0.015224016 0.09610594 0.10047568 0.024245897
0.0889978 -0.1775535 0.09614364 0.05688383 0.080631025 -0.035284113 -0.016496101 -0.01622816
0.024796093 0.06144002 -0.07760535 -0.04235171 0.09068934 0.05410651 -0.043361943 0.1686971
-0.078269005 0.046357527 0.14784326 -0.027252922 -0.123450555 0.11906641 -0.06532271 0.066106826
0.08916296 -0.012557188 -0.028809948 0.17992777 0.17889595 -0.07276178 0.05770916 -0.20792004
0.15580356 -0.09344734 0.1557511 -0.10737132 0.008787904 -0.069516614 -0.0039065084 -0.03215961
-0.086922616 0.19340113 0.0693517 -0.045794886 0.07371991 -0.012361558 0.02102155 -0.17597553
0.059342716 -0.0415872 -0.12935494 -0.042774845 0.017074596 -0.03406448 0.1109276 -0.008777865
0.024330804 0.15109363 0.08412757 -0.12379959 -0.05690622 -0.0639403 -0.021935666 -0.029939
-0.0056000156 0.061065633 -0.033319745 -0.054772034 0.06919636 0.16563721 0.13814773 0.1444448
-0.0077974503 -0.025881609 -0.08116962 -0.051401585 0.038552366 0.006304123 -0.0848975 0.056466233
-0.01923749 -0.07847149 0.04751629 0.18032952 0.1663718 -0.1472047 -0.14242181 -0.016414411
0.1802149 0.22896105 0.093551524 0.13167454 -0.0798077 -0.07600001 0.055199526 0.03763542
0.106902555 -0.019050706 -0.019799024 0.0011092592 -0.0054988437 -0.025387628 -0.24336807 0.12742268
0.18147466 0.14595118 0.054045815 -0.40497524 0.07174969 0.03850381 0.15179656 -0.118884504
0.08885306 0.03283718 0.039411116 -0.02627327 -0.039142977 0.21791112 -0.07524811 -0.10698165
-0.056742586 0.12028255 0.083852954 -0.045062754 -0.023774385 0.060822412 0.06935399 -0.07486764
0.08714027 -0.028534187 -0.01074755 0.0071791485 -0.0023399522 -0.11483851 0.097877055 0.12452781
0.03562161 -0.030573703 -0.051759217 -0.08146734 0.09553183 -0.09045378 0.118365824 0.10787864
0.122643225 0.33722237 -0.050333176 -0.19581841 0.009275518 0.16294935 0.105011165 -0.0059923357
0.012395991 -0.086857475 0.024166565 0.054653432 0.012222325 -0.074519046 -0.10947646 -0.079038695
0.05935319 0.22816977 0.018981714 -0.14958154 0.08640761 0.0008372933 -0.078830674 -0.0042258603
0.35814503 0.26883137 0.14832515 0.16813824 0.072998166 -0.2462247 0.2509097 0.0041251713
0.21522827 -0.0672685 0.22158785 -0.0019910368 0.20184407 -0.095935315 0.18147393 0.10931688
0.13204493 -0.16906852 -0.13620773 0.12597123 -0.052589145 -0.026547283 0.017573422 0.038113195
-0.044872705 0.15744047 -0.0077760885 -0.037451115 0.14925942 -0.0037059635 0.15481551 0.12248561
-0.02460197 -0.32251295 -0.1419082 -0.06308227 0.16364768 0.0781787 0.10739381 -0.050170735
0.00083463057 -0.12653083 0.01059801 -0.12330745 -0.029209957 0.019852912 -0.038966462 0.10524782
0.07635127 -0.021048758 0.035070054 0.1809659 -0.1413837 -0.13496521 0.01584616 0.018150192

image_conv.5.bias f4 [64]
00000000: 89ea 753d ad7a 56bd c8c5 15bd aaf8 2ebd
00000010: 3c5f f9bc 7229 393b eac9 373d 7282 81bc
00000020: e6a2 993c 6a5f b43c a44a 143d 2d92 a63d
00000030: c85a 76bd e7ab aabd aeb8 003c d374 4cbd
00000040: 7cdf c6bd 7390 49bc ff7f 533d af10 14bb
00000050: c1cb 5ebd 9d17 e73b 2cdb 57bc 9b79 49bd
00000060: 7024 5139 28d6 83bc 4b71 103d 82f7 f63c
00000070: b430 0a3d 6ad2 23bd 5f37 a639 491c 9cbb
00000080: 2635 f23c 4d84 d2bd c586 a23d 13d7 c1bd
00000090: b348 c4bd e049 63bd 7d3e 2ebc 9984 833c
000000a0: da9d 11bd 9df0 91bc f511 073c b1cc 8a3d
000000b0: 4c1f 3bbd a12b da3d 9261 2a3d a660 82bd
000000c0: 756e ef3c 3b42 cfbd 2eb3 c9bd 5f55 cdbd
000000d0: 4b80 e13c ed97 493d 4ef8 20be aa92 bf3d
000000e0: 4ed4 03be 355c 343d 850a 1a3b 4391 23bd
000000f0: 9e32 6bbd 48b7 84bd 049e 44bc 5df4 bfbd
0.060038123 -0.052363086 -0.036565572 -0.042717613 -0.03044092 0.0028253463 0.044870295 -0.015809271
0.018754434 0.022018153 0.036203995 0.081333496 -0.06014517 -0.08333569 0.007856531 -0.0499161
-0.09710595 -0.012302506 0.05163574 -0.0022592952 -0.054393534 0.0070523755 -0.013174813 -0.049188238
0.00019945367 -0.016093329 0.035264295 0.030147318 0.033737853 -0.03999559 0.00031703242 -0.004764114
0.029566359 -0.102791406 0.079358615 -0.0946485 -0.09584179 -0.055490375 -0.010635016 0.016054438
-0.03555093 -0.017814929 0.008244027 0.06777323 -0.045684144 0.10652853 0.041596957 -0.063660905
0.029227475 -0.10120054 -0.09848629 -0.10026049 0.027526995 0.049217153 -0.1571972 0.09354146
-0.12873957 0.044033248 0.0023504805 -0.039933454 -0.05742132 -0.064802706 -0.0120005645 -0.093727805

memory_rnn.weight_ih f4 [256, 64]
00000000: 6dd1 4abe 6bb5 85be 2428 55bd 3b60 893b
00000010: 0fba b03c 3462 9fbe 491a 24be fbd9 4ebe
00000020: 96f9 4f3e 05f5 74bd 0588 8ebd 999b c33d
00000030: 4395 6dbc d016 763e 59b3 58be 2be1 15bd
00000040: 81e9 ae3c 8ea1 e3bc a82b 18bc b56d b83a
00000050: fed7 a3bd 093a a0be 5f3e 30be ee29 abbb
00000060: 3344 71be cfaf e2be b858 2fbe 933f 08be
00000070: 19a1 94be 4cb8 87be d110 e7bd e19d 28bd
00000080: 35ca d2be f4c5 bebe 9535 17bc c068 c6bd
00000090: d576 c6bd 2648 bdbd e690 083e 5d8f 513c
000000a0: a3da 16be e513 80bc d4d4 c4be 873b db3d
000000b0: 0497 eebd e9d1 3c3e 268c 12bd e897 0cbe
000000c0: 0cd1 583c 1ee5 73bd 28d8 4ebd 217d c33d
000000d0: 2153 7cbe 9eb7 d6bd a561 14be 58f8 92be
000000e0: eca3 2fbd 3567 ecbd 947e d83d 61e1 06be
000000f0: 7c52 85bd 3660 21be e1a2 00be 3014 3abd
00000100: befe 8cbe 6429 0739 aa3a b0be 7316 f73b
00000110: ed2e 06be 630d 173e 65c5 eebd 214d 5abd
00000120: 3851 babe 69e7 a3be 1d5f eebc 29ce 143e
00000130: 5fc0 063e 5cf4 dc3c 9035 33bd 2fcd 853d
00000140: c519 19be 7614 d2bc ba32 083e 982e 5abe
00000150: 679e 4fbd 1018 56be dff8 333e 3dd2 dcbd
00000160: 6ec6 723d bb54 d1be 105f 313d 39c8 a9bd
00000170: 5760 bcbc 4a82 d3bd 5380 413c 7533 abbe
00000180: 5ff3 dc3c 4ac6 01be ada4 6abb 9ae3 c4bd
00000190: 8fd8 8fbd ed61 43bd 6273 abbe 2260 a53d
000001a0: a3d6 903e ad76 36bd 2e00 c8bd c72e a5be
000001b0: 1015 3e3e d947 273e 9eb0 3dbe f23c 6abd
000001c0: f7b2 d8bc 312c 80bd 5ccd 38bd 6ece 763c
000001d0: 46a7 c6bd 5c77 9dbd 2337 013d a74e d53d
000001e0: 3c56 023c 5ba6 233e 1d20 81be 16e6 00be
000001f0: 389f ae3d 1fcf db3d 24b0 e53d 74d9 49bd
00000200: 6aa8 68bd c922 98be 4dad 61be 66a4 2abe
00000210: 5f6b 4d3d d495 02bd e4d0 d0bc 9e09 88bd
00000220: a39b 303e 3ff2 bcbd ad53 7dbe 1eb9 c73c
00000230: 4fcd 91bd edae eebd 6694 a23d 7215 e9bd
00000240: 9036 153c 1276 b4bd 75c8 a3be 810f 25be
00000250: e43e 5cbd 3736 9b3c 49a7 7fbd f1b1 c33d
00000260: 01b7 e4bd b592 91bd 1377 8cbe b3e9 05be
00000270: 3fd6 b4bd f984 15be 129c e7bd f468 bc3b
00000280: f90f 89bc 7d3f 02be d230 cfbd b8f6 b53d
00000290: 5c80 46be a87b edbc a042 853b d8d2 87bd
000002a0: e804 0d3d 7f6f bd3a d645 8fbe caa5 d03c
000002b0: df59 29be 0d98 6cbd 5037 0abe ea85 c9be
000002c0: 138c 24be d76a 4f3d 7815 a73d 8e2c 2dbd
000002d0: a54b 57ba 8830 70bd f612 66bd 89c8 5dbd
000002e0: 3b3a 14be 6c8e 9dbd 13a5 98bc 315b cebe
000002f0: caaf c4bc 349b 73be aa1d 8bbd 212f c43c
00000300: b02c a3be 2263 37be 4749 5d3d 991d ce3c
00000310: 6cc8 aa3d ce27 93be 44d5 93bd 9517 3d3d
00000320: abf7 c93d b978 d23d e8dd 0abd d9cb 3cbe
00000330: aade 0dbd 43bc f13d ce61 36be dfaa 91bd
00000340: 6cf3 b8be 9549 3dbe 2388 41bd 9e51 b2bd
00000350: 2e0d 36bd ebef babe be8d cdbe 9269 e53d
00000360: 4ab1 26be 0473 e63c 8a9d 64bb 444f ec3c
00000370: d41e fcbd 5ec8 80be 47a3 a7bd c051 32be
00000380: 5aba 3fbd 2bef 4fbe d887 823d 1902 ebbd
00000390: f16f 12be 6966 f3bd b8a5 47be e43a 8b3d
000003a0: 8f15 c1bd aab9 cb3d c798 d03d b015 90bc
000003b0: c91e 87be b3e2 70be 44e4 9ebc 741c 13be
000003c0: 3154 57bd 2c1f 113e a4e6 3ebd 1641 bcbc
000003d0: d50d 14be 8cbe 1fbd 2342 a93d f67b 4bbe
000003e0: 77b6 72bc 38d1 163d bb27 4dbd daef 98be
000003f0: 2b67 753d 7105 633d a5c9 d33d 4294 e1bd
-0.19806452 -0.26114973 -0.052040234 0.00419238 0.021573095 -0.3112961 -0.16025652 -0.2020034
0.20310053 -0.05980398 -0.069595374 0.09551162 -0.014500919 0.2403214 -0.21162166 -0.03659169
0.021351578 -0.027786996 -0.009287752 0.0014070781 -0.080001816 -0.31294277 -0.17211293 -0.0052235043
-0.23561172 -0.44274756 -0.17123687 -0.13305502 -0.29029158 -0.26507795 -0.11282504 -0.04116619
-0.41169897 -0.372604 -0.009229084 -0.09687948 -0.09690634 -0.09242277 0.13336524 0.012790528
-0.14731841 -0.015634486 -0.38443625 0.10704713 -0.11649898 0.1843945 -0.035778187 -0.13729823
0.013233434 -0.059544675 -0.05049911 0.09545351 -0.24641086 -0.10484241 -0.14490373 -0.28705096
-0.042880937 -0.11543123 0.10571018 -0.13171913 -0.06509873 -0.15759358 -0.12562133 -0.04542941
-0.27538103 0.00012890022 -0.34419757 0.007540518 -0.13103838 0.147512 -0.11658744 -0.053296212
-0.3639009 -0.3201249 -0.029098088 0.14531769 0.13159321 0.026971988 -0.043752253 0.06533276
-0.14951237 -0.025644522 0.133006 -0.21306837 -0.050688174 -0.20907617 0.17575406 -0.10782287
0.05927127 -0.40884957 0.04330355 -0.082901426 -0.022995157 -0.10327585 0.01181038 -0.33437696
0.026971517 -0.12673298 -0.003580372 -0.09613724 -0.07023727 -0.04770081 -0.33486468 0.080749765
0.28288755 -0.04454677 -0.09765659 -0.3226225 0.18562722 0.16336001 -0.18524405 -0.05718703
-0.026452525 -0.06258429 -0.04511772 0.015063865 -0.096998736 -0.076887816 0.031546723 0.10415392
0.00795513 0.15981428 -0.25219813 -0.12587771 0.08526462 0.107328646 0.11215237 -0.049279645
-0.056801237 -0.2971404 -0.22038765 -0.16664276 0.050151225 -0.03188117 -0.025490232 -0.06642459
0.1724687 -0.09225892 -0.24738951 0.024380263 -0.07119238 -0.11654458 0.07938461 -0.113810435
0.009107247 -0.088115826 -0.31988874 -0.16119196 -0.053770915 0.01894675 -0.062415395 0.09555424
-0.11167718 -0.0710806 -0.27434596 -0.1307743 -0.08829927 -0.14601506 -0.11309065 0.005749816
-0.01673125 -0.12719531 -0.101167336 0.088849485 -0.19384903 -0.028989628 0.00406678 -0.06632012
0.034428507 0.0014452784 -0.27982968 0.02546968 -0.1653819 -0.057762194 -0.13497663 -0.3935998
-0.16069059 0.050639 0.08158392 -0.04227882 -0.0008212871 -0.058640033 -0.056170426 -0.054146323
-0.14475338 -0.076931804 -0.018633401 -0.4030395 -0.024009604 -0.23789674 -0.06792767 0.023948254
-0.3187003 -0.1790891 0.05402496 0.025160598 0.08339009 -0.28741306 -0.072184116 0.046165068
0.09861692 0.10276932 -0.033903033 -0.18437137 -0.034636177 0.11803486 -0.17810747 -0.07112669
-0.36123216 -0.184851 -0.04724897 -0.087069735 -0.044446163 -0.36511168 -0.40147203 0.112017766
-0.16278568 0.028131016 -0.003488394 0.02884639 -0.123105675 -0.25152868 -0.081854396 -0.17413998
-0.046808578 -0.20306079 0.063735664 -0.114750095 -0.14300515 -0.118847676 -0.1949681 0.06798342
-0.0942794 0.09947522 0.1018539 -0.017588466 -0.26390675 -0.23523979 -0.019395955 -0.14366323
-0.052570526 0.14172047 -0.046606675 -0.022980254 -0.14458402 -0.03900008 0.08264568 -0.19871506
-0.014814011 0.03682062 -0.050086718 -0.29870492 0.05991284 0.05542511 0.10341195 -0.11014606

memory_rnn.weight_hh f4 [256, 64]
00000000: 65bf fc3b 1478 353e 43da e93d 5eed 203d
00000010: d618 863e fa1d 0f3e cc89 d4bc 3367 7f3d
00000020: 5269 71bd 5a6a 37bd f6a7 d3bd 98bb 343e
00000030: 6a91 fc3d a5f2 c7bc 5aad b93d 4eb0 483d
00000040: 9573 88bd f9ac 1dbd d359 ac3e afef 8f3c
00000050: 9e7c ab3d 29ee 3d3e ec73 933e 3213 ca3c
00000060: 476e 15be 4737 86bd 518c 073e 5257 22bd
00000070: bb04 973e ea00 733d b8dc d83d eec4 9b3d
00000080: 89f6 ef3d 4408 653e 4d04 303e 903a 38be
00000090: b277 27be a172 5e3d bef6 5dbb ffeb 27be
000000a0: 5bdd 56be 55ae ba3c 487c c33d c70b 07be
000000b0: f3e0 783d 42c3 83bc a203 be3d b715 b33c
000000c0: 4e96 363e 9271 c6bc 6b90 923d 9b94 59be
000000d0: e8b1 d2bd 96d0 9b3c 6c14 7abe c1b9 023f
000000e0: f1cb 5dbe 5750 2fbe 9ec4 0a3d a980 26bd
000000f0: a078 983b b833 56be b982 bbbd 79a7 103d
00000100: 1e4f b23d 9793 14be 5bc9 803e 19bb 143e
00000110: 7c4a b43e 906e 563e dd48 313e e5e8 73bd
00000120: 3356 9a3d 5f55 993e af90 41be a5aa d0be
00000130: deee 9e3e 0538 adbe 02a5 633c 2647 edbd
00000140: b2d8 aabd f6c9 cfbd be82 583e 82ae 0b3d
00000150: 0d70 56bb 0cd8 6a3e b862 7d3d 92eb c73e
00000160: 99d7 7a3e 4a09 963d c551 22be 4b71 fabd
00000170: 5f71 32bd 9251 62be 785a acbe 468e 48be
00000180: 7494 dabc 9fec 41be 97fe 0f3f 7f78 c1be
00000190: 5d8c cfbe ae25 2abc dd35 b83d c67f 903e
000001a0: 3e74 87be 5ba1 4b3d 3169 eabc 5caa f73d
000001b0: 0124 de3e 3325 a4bd f756 4ebe 6c38 54bd
000001c0: 6c5d 9ebd 2a0d ba3e 69d6 063f 9be5 c03e
000001d0: 015a 03bf e3eb 413e 8d2f 5ebc 535e 513e
000001e0: 536d 003e 603b d63d 5869 623b 47f6 983e
000001f0: 60ea d13b 13d1 9c3d 177a 2b3e 08ec f4bd
00000200: 678d 83be ad6a 6bbe dfca 103d b391 fc3b
00000210: f6a3 9b3e 2708 cc3d 6b75 803e b94f 27be
00000220: bc74 dabd 8e31 af3d a3d0 febd e7cf f43d
00000230: 8615 b23e 4af5 a43c a133 a9bd 7a7e 983d
00000240: 1b2c 84be 8a70 133e 186d e0bc 13a4 42be
00000250: 369c cebd 00d6 d5bd 4f91 c3bd 374a a63e
00000260: 855d 3abd 1778 ad3c c0cd 9cbd cc15 aebe
00000270: 4fd0 1a3d 1ef5 84bd 1e72 b4be cb6b fd3d
00000280: 396e 463e c369 d6bc a181 e93c 8dbf bcbd
00000290: 36c5 22be 318b 65bc 7028 8cbe edeb 8b3e
000002a0: feb9 27bd 62a2 1e3e d6db 06bc 44c0 27be
000002b0: a554 ac3d 9f80 63be 3cc6 b2bb 88f6 953d
000002c0: 1f1c 883d e4f7 9b3d 31ec 20bd 7e4a 993e
000002d0: 5d67 643e 6280 9abc d58e 023e 2594 a5bd
000002e0: 517f b6be 7e03 7e3d a3ef d23d 4507 6bbe
000002f0: 357d 093e 0d71 bb3e 979a 16be ba35 fc3c
00000300: a410 683c 20f6 9abe 0716 f6bc c810 1d3d
00000310: ddb9 d3bd 3619 923e 1f0b 6c3e 8065 e63c
00000320: e08e c4be 1d46 0b3e 7ba0 5bbc 51d9 163e
00000330: 81df 463d 99d4 bb3d 5b4e 573d 0c6f 483e
00000340: 1dff 9fbd ae0b 6d3c 278b 443c e9f3 17be
00000350: dcf3 bb3d 55c0 33be 582c 8dbe 036e 4a3e
00000360: 5e5f 52be c728 393d ac7f 9cbd 5793 7fbe
00000370: 5bad a9bd 2eb3 f5bc 7bbf e5bd a3bc 00bd
00000380: eb91 ec3d 9c9f 84bd 58c3 d7bd e4eb 9c3c
00000390: e540 0abe a29c 593d a8d4 33be dfaf 933e
000003a0: fa40 12be 7f7e 763e b118 51be 7ee7 443e
000003b0: 52dc e2bd 5e44 8bbe 7ab8 cb3d 8a0d 5f3d
000003c0: dd41 843d 624c eabd a118 ac3c f6de c1bc
000003d0: 90c3 c03d 38ae 91bd 5a76 613e 22d4 30be
000003e0: e637 37be d842 c43c a30a bebd f179 1cbe
000003f0: ee94 8b3e 1bc3 953e 0b79 d5bc 384d a1bd
0.0077132457 0.17721587 0.11418583 0.03928887 0.26190823 0.13976279 -0.025944613 0.062354278
-0.058938332 -0.04477916 -0.103347704 0.17649686 0.12332423 -0.024407694 0.09066267 0.048996262
-0.066626705 -0.038495038 0.3366228 0.017570345 0.08373378 0.18547882 0.2879938 0.024667356
-0.14592849 -0.06553512 0.1323712 -0.039634056 0.29495797 0.059327044 0.10588974 0.07605921
0.11716945 0.22366434 0.1718914 -0.1799109 -0.16354254 0.054308537 -0.0033868994 -0.16398619
-0.20982878 0.022788206 0.09545189 -0.13188086 0.060761403 -0.016084317 0.09278037 0.02186094
0.17830774 -0.024224076 0.07156452 -0.21248095 -0.10287839 0.01902036 -0.24421853 0.5106469
-0.21659829 -0.17120491 0.033878915 -0.040650044 0.0046530515 -0.20918167 -0.09155793 0.035315964
0.08706497 -0.14509426 0.25153622 0.14524497 0.35213077 0.20940614 0.17312951 -0.059548277
0.075359724 0.29947945 -0.18902849 -0.4075519 0.31041616 -0.33831802 0.013894321 -0.11585836
-0.083421126 -0.10145943 0.21143624 0.03410197 -0.0032720596 0.22933978 0.061861724 0.39046913
0.24496306 0.073259905 -0.15851505 -0.1222864 -0.04356515 -0.22101429 -0.33662772 -0.19585523
-0.026682116 -0.1893792 0.5624785 -0.37787244 -0.40536776 -0.01038496 0.089946486 0.28222483
-0.26455873 0.049714427 -0.028614612 0.1209304 0.43386844 -0.08014908 -0.20150362 -0.05181162
-0.077326626 0.36338168 0.52670914 0.37675175 -0.5130921 0.1893764 -0.013561142 0.20446138
0.12541704 0.10460544 0.0034547653 0.29875395 0.0064061135 0.07657065 0.16745792 -0.11959082
-0.2569382 -0.22989912 0.035349723 0.0077077984 0.3039853 0.099624924 0.25089583 -0.16339006
-0.106667966 0.08554374 -0.12442138 0.11953717 0.34782046 0.020136494 -0.082618006 0.074459985
-0.258149 0.14398399 -0.02739577 -0.19007902 -0.100883886 -0.10441208 -0.095492 0.32478496
-0.045499343 0.021175427 -0.07656431 -0.34001005 0.037796315 -0.06492065 -0.35243315 0.123740755
0.19377984 -0.026173478 0.028504195 -0.09216223 -0.15895543 -0.014010237 -0.273746 0.27328435
-0.04094886 0.15491632 -0.008231124 -0.16381937 0.08414582 -0.22217034 -0.0054557603 0.07322413
0.06645989 0.07615641 -0.03928775 0.29939646 0.22305055 -0.018860046 0.12749799 -0.08084897
-0.3564401 0.06201505 0.10299613 -0.22951992 0.13426669 0.36609688 -0.14707409 0.030787338
0.014164124 -0.30265903 -0.0300398 0.038346082 -0.10338185 0.2853486 0.23051117 0.02812457
-0.38390255 0.13600965 -0.013404961 0.14731337 0.048552994 0.09171409 0.05256496 0.19573611
-0.07812331 0.014468117 0.011996067 -0.14839138 0.09177372 -0.17553838 -0.27572894 0.19768529
-0.20544192 0.045204904 -0.07641539 -0.2495855 -0.08285018 -0.029992666 -0.112181626 -0.031429898
0.11551269 -0.064757556 -0.10535306 0.01915545 -0.13501318 0.053127892 -0.1756159 0.28845116
-0.14282599 0.24071692 -0.20419575 0.19228932 -0.11077179 -0.27200598 0.099472955 0.05445627
0.06457875 -0.1144035 0.021007838 -0.023665886 0.094123006 -0.07113308 0.22017804 -0.17268422
-0.17892417 0.023957655 -0.092793725 -0.15280892 0.27262062 0.29250416 -0.026058694 -0.078760564

memory_rnn.bias_ih f4 [256]
00000000: fdb8 053d 3f11 84bd bb34 50be df78 c7bd
00000010: e00e 35be e9ea 16bd fd15 f6bd 5581 a23d
00000020: 1084 913c c2bc d33d e9fc 49bd ab92 f0bc
00000030: 3e38 39bd f918 b8bd edaa 62be acc6 89bd
00000040: fd2d 37be 03d0 9abd 31f0 0abe 08d6 5dbd
00000050: 6b2e 083d e3d0 e7bd 5420 24bd 2837 89bd
00000060: def0 41be 7781 6ebd 25da 71bd cabb 22bd
00000070: 11fc 5cbd b4ac 063e a8fc cebd bf72 2ebe
00000080: eeb9 763d 052f 27bd 00af ec3d c2e2 933d
00000090: 3e7d 3ebc 5e40 8fbd dddf dfbc 2b94 aabd
000000a0: bc09 4c3e 5f64 da3d 192d d43d c28e 8ebc
000000b0: 63b6 e93c de3a 8d3d a6c4 f0bc 4402 863d
000000c0: dec5 f43d c936 033e 9ca5 183e 3bd9 753e
000000d0: b24a e83c 06ba 80be f317 703c 045b af3c
000000e0: bca7 ecbc bbf4 f03c 967d 8a3d f731 883d
000000f0: 63a7 253e b1c8 483d 7787 73ba 2e65 25bd
00000100: ecdb 743a a0e6 553d b073 4b3d e374 17be
00000110: 4c26 6d3e 4be3 8b3c 3ae6 873e c50f 7abe
00000120: 9de9 03be 9400 15be b80a 9d3d 3690 f4bd
00000130: e8ef a13d 3a9b a2bd aef4 47be a9aa 58bd
00000140: bbd2 a33d db78 d03d 32f0 973d fa12 32bd
00000150: 095f e0bd 83c5 f4bd af55 c13c 3c0f 0cbe
00000160: 975b 133e 23a1 debd 2505 edbd 1823 133d
00000170: 638d e7bd af75 c4bd b7af d53d bfc7 ad3c
00000180: e2d8 48be 8ce8 b53d d02d 9a3d c652 0f3b
00000190: fbf3 2bbe 7a2f a83a 3400 c3bd b914 21be
000001a0: 1954 b3be 38b2 36be 7b9e 1dbe 4fea 0d3d
000001b0: 6064 eabd f825 00be cbfd 10be 4e53 26be
000001c0: a325 07be 8b6a 74bd 5edd 95bd bc7e 383d
000001d0: e0ac 42be 9e1b 763d 83f6 8cbd 60ca ab3e
000001e0: 0fba 13be 337b 12be 57a4 2bbb e407 5d3e
000001f0: 7fb2 6abe 895a 4f3e 4189 f8bc 5a16 c4bd
00000200: f2d7 c23d e90c d3bd ae29 c0bd b7b5 873d
00000210: d4e9 8c3d a9ce 14bd 2cae b93d e61f 1fbd
00000220: eaeb 983d ae00 043e dab5 94ba fdf7 97bc
00000230: 4532 8d3c 4024 753d 8ad2 0fbe 9d1c 85bd
00000240: 2a05 a83d c0b2 343d 578b b4bd 0eff b33d
00000250: 5bd8 8c3d a227 cb3d 36d8 ad3c b22a 733d
00000260: 36d9 6d3d a577 b3bd 80f0 233e 0c73 873d
00000270: 440a 9ebd f3a7 8abd b3bf b93d 2cc3 ab3c
00000280: 1cca 3dbe 032d 553c 903a 8fbd 4f12 9b3d
00000290: b1ee 5d3d 1855 0cbd 6b60 343d eebc 963c
000002a0: f897 2a3c 9038 3fbe dd7e b6bd de21 ddbd
000002b0: 85b0 cbbd 6f47 3f3a b707 12bc f2e1 3bbd
000002c0: 5bca 29bd 0afa e1bd 72a2 42bd 7a01 013d
000002d0: 7589 99bd db60 413d 7ceb 9b3d d327 40bc
000002e0: fb69 b73d 836b fabd 5484 873d ee18 933a
000002f0: 1860 e3ba c313 213d 54a2 263e 6dc2 cb3d
00000300: 65a0 bebc e3f9 78bd 7dd5 90bd 175a 21be
00000310: 31e2 163e a4e3 ba3d c2cd 89bd d574 123d
00000320: 1378 de3d 79a5 ba3d 50f6 8bbc 0318 4abc
00000330: b02b eb3d c1b3 bfbd c62b 3bbe 6d49 203d
00000340: c456 113d 3351 d9bd 2ed1 9b3d f1fc a6bd
00000350: 13b3 333d 16ce 53bc 3b2d c1bb fb66 dc3c
00000360: 6657 143e f61e fbbd 3851 e53c 3c87 e6bd
00000370: 4be1 02be 244c 02bd c94f 123e 0d3f 26be
00000380: 3029 8dbd 2461 76bc c5c6 053e a46c b2bd
00000390: e26f 453d e3d2 9dbd 3952 f23d b43f 4e3d
000003a0: 2a94 4dbd b5cb be3c 8099 16bd 2a0d d33d
000003b0: 840e 3f3d 9c9c 023e 2118 fcbc 9f2a dabc
000003c0: 97e0 103d d251 7d3d 6d65 bbbc 411c 233e
000003d0: 3a81 c9bd b118 e4bd 8dc4 6dbe 6a38 6a3b
000003e0: 1a67 053c bc4d 56be 6c30 e1bd 9553 09be
000003f0: ad49 4f3d 31eb 4f3e b914 d2bd 0486 b0bc
0.03264712 -0.06448602 -0.20332615 -0.09739851 -0.17681456 -0.03684512 -0.12015913 0.079348244
0.017763168 0.10338737 -0.04931346 -0.029366812 -0.045219652 -0.08989138 -0.22135516 -0.06727347
-0.17888637 -0.07559206 -0.13568188 -0.054159194 0.033247393 -0.11319139 -0.040069893 -0.06699973
-0.1893954 -0.058228936 -0.05904593 -0.03972987 -0.053951327 0.13151819 -0.10106784 -0.1703596
0.06023591 -0.040816326 0.11556816 0.07220985 -0.01162654 -0.06994699 -0.027328426 -0.08329042
0.19925588 0.106636755 0.10360164 -0.017402057 0.028529352 0.06895994 -0.029390644 0.06543401
0.11951803 0.12813868 0.14906925 0.24008648 0.02835593 -0.25141925 0.014654147 0.021405704
-0.028888576 0.029413572 0.06762235 0.06650155 0.16177134 0.04901952 -0.00092899 -0.040379696
0.0009340632 0.052221894 0.049670875 -0.14790682 0.2315914 0.017076155 0.26542836 -0.24420078
-0.12882085 -0.14551002 0.0766806 -0.119415686 0.079070866 -0.07939763 -0.19526932 -0.05289713
0.07999178 0.10179301 0.074188605 -0.04347513 -0.109556265 -0.11951735 0.023600427 -0.13677686
0.14390408 -0.10870578 -0.11573247 0.03592214 -0.11306264 -0.09592759 0.104339056 0.02121341
-0.19613984 0.088822454 0.07528269 0.0021869405 -0.1679229 0.0012831532 -0.09521523 -0.15730561
-0.350251 -0.17841423 -0.15392487 0.034647282 -0.11444926 -0.12514484 -0.14159314 -0.16242716
-0.13197951 -0.05967192 -0.07317613 0.04504274 -0.19011259 0.06008493 -0.06882956 0.33552837
-0.14426444 -0.1430481 -0.0026190483 0.21585041 -0.22919653 0.2024938 -0.030338885 -0.09574576
0.095138445 -0.10305197 -0.0938295 0.06626456 0.06880537 -0.0363299 0.09066424 -0.03884878
0.07466872 0.12890884 -0.00113457 -0.018550867 0.017235884 0.059849024 -0.14045158 -0.06499598
0.0820411 0.04411578 -0.088156395 0.08788882 0.06877204 0.09919669 0.021221261 0.05936689
0.058068477 -0.08763055 0.16009712 0.0661374 -0.07716802 -0.06770315 0.09069767 0.020967089
-0.1853413 0.01301122 -0.06993592 0.075718515 0.054182712 -0.03426084 0.044037264 0.018400636
0.010412209 -0.1867392 -0.08910916 -0.10797475 -0.09945778 0.0007296716 -0.008912972 -0.045869775
-0.041452747 -0.11034019 -0.0475182 0.03149555 -0.07496921 0.04721151 0.076132745 -0.011728245
0.08955761 -0.122275375 0.066170365 0.001122264 -0.0017347364 0.039325487 0.16272861 0.09949193
-0.023269841 -0.060785186 -0.0707197 -0.15757023 0.14734723 0.0912545 -0.06728698 0.03575595
0.10862746 0.09113593 -0.017085224 -0.012334826 0.11482942 -0.09360457 -0.18278417 0.039132524
0.035483137 -0.10611191 0.07608257 -0.081537135 0.04387195 -0.012927553 -0.0058952845 0.026904574
0.14486465 -0.12261765 0.02799283 -0.11256263 -0.12781255 -0.031810895 0.14288248 -0.1623499
-0.068926215 -0.015037809 0.13064106 -0.08712128 0.048202403 -0.07706239 0.11832089 0.05035372
-0.05019013 0.023290494 -0.036767483 0.10305245 0.046644703 0.12755054 -0.030773224 -0.026631651
0.035370436 0.061845608 -0.022875512 0.15928747 -0.09839101 -0.11137522 -0.2321951 0.0035739192
0.008142257 -0.20928091 -0.10995564 -0.1341079 0.050607372 0.20304562 -0.10257859 -0.021548279

memory_rnn.bias_hh f4 [256]
00000000: ca8d 03be 64b7 cf3d 60f3 fabd b410 acbc
00000010: dae5 bd3c ebd9 663d d3bf 2bbe 2206 9aba
00000020: 6f3f 753d ad3d 243e 4a2a 5ebd fa75 053e
00000030: 987c 033e 899b 55bd 0948 2bbe 59f3 66bd
00000040: 382f 8abd 1821 893d cdf6 0fbd 4686 31be
00000050: 1abd d53d dddf 973d 1273 86bd 886a e9bc
00000060: 50a1 e53c acdb 36be 1f35 d1bc 8270 a13d
00000070: f46a 5abe 2343 7b3b 223c b23d 8a87 14be
00000080: 8658 fd3d a188 36be b884 a5bc ca0a 463e
00000090: cdf5 7fbd c7e9 cebc c375 db3d 0f16 d9bd
000000a0: 345c 2c3e 602e b4bd fc78 163d a836 24bc
000000b0: 27bd 8dbb 1f42 0b3e 1a9e fc3b 9e78 54bd
000000c0: ef0e 493e 49b1 1d3e da88 ca3d 0250 e43d
000000d0: 8bde cdbc eaa4 14bc f7d6 88bd df93 65bd
000000e0: e66c a3bc efbb 0c3d 1589 94bc b1d9 143d
000000f0: e961 073e 718a d2bd babb 2abe 274c 4a3d
00000100: 15a3 7abc 579b 043e 58b9 a53d c6cc b83d
00000110: 08b9 753e 649c 26bd b8f6 603e 07fe 52be
00000120: dad5 18be 305e 8ebe 7cfe 303e 959e 2d3b
00000130: 207d d63d 9a99 54be b8d3 d9bc 1b52 8b3b
00000140: 656b 113d 7b87 ee3c 653b 353c c444 1ebd
00000150: 495a 3fbe a56a 7cbd 7ba9 5bbc 76ac 2bbe
00000160: e469 7a3e ec3b 1cbe e44c 9bbb eba5 06be
00000170: 9237 2c3d bddf 1bbe 80dd 473d c36d e1bd
00000180: 7d3c 14be a065 973d eaab 57bd 7914 ebbc
00000190: 2456 da3c 1dd2 0f3e a07a cebd 3f8d a6bd
000001a0: 4c1a 95be 3e46 1cbe 44b7 90be 9469 793d
000001b0: de53 cb3c 5537 57be ee47 15be 2251 05be
000001c0: 67cd c7bd e29e c5bd 7db9 1dbe 4fc1 8bbc
000001d0: f1b4 cf3c a329 fcb9 1b58 98bc 1139 743e
000001e0: 99bf b4bd fbba 45be 62a4 13be c488 2b3e
000001f0: 9406 84be 918a ad3d c645 05be 2396 403c
00000200: 4b3e 083c 5355 bdbd 627b bdbd f7b2 ae3d
00000210: d67b e83d 7841 7e3d 8830 c9bd 03a2 503d
00000220: 26b1 3b3e 4b03 ae3d beaa 013c 7cc9 c13d
00000230: 72c4 fbbb e9c5 df3c 8be8 b1bd d0e1 9fbc
00000240: 48c6 ad3d c39f a63c 1a5f 0cbe f064 733c
00000250: 29fe de3d e288 b0bd 155a 013d f548 9e3d
00000260: 10f5 2ebd a97a af3d 78d3 2f3e 28c3 9b3d
00000270: ecfb 56bd ff07 86bd 13bd 91bd c07f 00be
00000280: fc51 0abe 6036 0c3e 7e98 61bb 9c12 923d
00000290: d867 0e3c 7f2e 28be ee82 e6bc 4734 9c3c
000002a0: fe62 57be f9b7 b3bd 81b1 a53d 5c15 08bd
000002b0: e30e 6abd 3d2b 503e ac1c 5c3d 4a0a 36bd
000002c0: 1873 1b3c bfc5 26bd 9ed6 b4bd 4cb0 4bbb
000002d0: 4eec 51bd 3c52 99bd a878 8b3d 0387 483b
000002e0: 1beb d53d 3f26 a5bd 6a61 cebb 92db 93bc
000002f0: fd00 31be 0e13 df3c 09c0 ae3d 1433 4d3c
00000300: a76f 40bc 7f70 0b3d 14d3 0dbe a60c 233c
00000310: 8374 fdbc 903d d63d 6cf2 893d f7c6 5fbd
00000320: 9cd3 1c3e 5a33 283d a4ca c4bd 6512 973d
00000330: 68ff 64bc 8dda 98bd 082b 723c 25c5 80bd
00000340: 3b59 f1bd b681 7a3c fcb8 7cbd 7cd3 2bbe
00000350: a761 173d 2fc9 e8bd 0686 be3d 3e2d bbbd
00000360: 6dc6 2fbd faab d2bd 0840 66bd 9da0 83bb
00000370: b30d 1f3d 6048 e83c f9d1 183e cf8f 19be
00000380: eedd a53c 9c87 b33d e356 8dbd a319 85bc
00000390: 9dcb a53d 2f30 af3d 6023 aabd 6b61 e93d
000003a0: 9500 293d 058c e7bc 1edb 083e 89fe 993c
000003b0: ac03 353d 8e9e 193e ceeb 14bd c1f9 32be
000003c0: 7280 fb3d 6c79 343e 1e90 803d 0d5e c73c
000003d0: 7ee7 bebc 661e 26be 69d4 6cbe d710 a53d
000003e0: 3b41 acbc 96a9 ac3b 2586 2bbe 44f7 533d
000003f0: 54b4 f93d fb4a 883c 052d a13b a1c4 32bd
-0.12847057 0.10142401 -0.12253451 -0.021004058 0.02318089 0.056360167 -0.16772394 -0.0011751095
0.059874948 0.16039152 -0.05423955 0.13033286 0.12840497 -0.052150283 -0.16726698 -0.05638442
-0.067472875 0.06695765 -0.035147477 -0.17336378 0.10436459 0.074157454 -0.06564917 -0.02849318
0.028031021 -0.17857236 -0.025538025 0.07882787 -0.21329862 0.0038339577 0.08702876 -0.14504829
0.123704 -0.17825557 -0.020204887 0.19340053 -0.062490273 -0.025257958 0.10715821 -0.105999105
0.16832048 -0.08797908 0.036736473 -0.010022797 -0.004325527 0.13599442 0.007709277 -0.051872842
0.19634603 0.1539966 0.098893836 0.11148073 -0.02513053 -0.009072522 -0.06681626 -0.056049224
-0.019949388 0.034358915 -0.018131772 0.03634042 0.13220944 -0.10280312 -0.16673175 0.04938903
-0.015297671 0.12949882 0.08091992 0.090234324 0.23996365 -0.04067649 0.21969116 -0.20604716
-0.14925328 -0.27806234 0.17284578 0.0026492227 0.104730844 -0.2076172 -0.026590213 0.004251731
0.03550281 0.029117336 0.011061524 -0.0386398 -0.18686785 -0.06162514 -0.0134071065 -0.16765007
0.24454457 -0.15257233 -0.0047393907 -0.1314923 0.042045183 -0.15222068 0.048795223 -0.110072635
-0.144762 0.0739243 -0.052654184 -0.028696286 0.026652403 0.14044996 -0.100819826 -0.08132409
-0.29121625 -0.1526117 -0.2826482 0.060891703 0.024820264 -0.21017201 -0.1457822 -0.13019231
-0.09755974 -0.09649445 -0.1540279 -0.01705995 0.025354834 -0.00048096207 -0.0185967 0.23849894
-0.08825607 -0.19309609 -0.14418176 0.1675139 -0.2578627 0.08473695 -0.13014898 0.011754545
0.008315633 -0.0924479 -0.09252049 0.085302286 0.11351745 0.062074155 -0.0982371 0.050935756
0.18329296 0.08496722 0.007914243 0.09462258 -0.00768333 0.02731605 -0.08686932 -0.019516855
0.08485085 0.020339852 -0.13708153 0.014855608 0.10888321 -0.08619858 0.03158005 0.07728759
-0.04271418 0.085683174 0.17170513 0.076055825 -0.052486345 -0.06544494 -0.07116141 -0.12548733
-0.13507837 0.13692617 -0.0034423168 0.07132456 0.0086917505 -0.16423987 -0.028138604 0.019067897
-0.21033856 -0.087753244 0.08090497 -0.033223495 -0.057143103 0.20328994 0.05373828 -0.044443406
0.00948789 -0.04071593 -0.088299975 -0.0031080423 -0.05125075 -0.07486388 0.06810123 0.0030598051
0.104452334 -0.080639355 -0.0062982338 -0.018049035 -0.17285533 0.027230766 0.085327215 0.012524385
-0.01174537 0.03404283 -0.13850051 0.009951746 -0.030939346 0.10460961 0.067356914 -0.054633107
0.15315098 0.041064598 -0.09608963 0.07376555 -0.013976909 -0.0746356 0.014780767 -0.06287602
-0.117845975 0.015289715 -0.061699852 -0.16779894 0.036958363 -0.11366498 0.09302907 -0.09139489
-0.042913843 -0.10286708 -0.05621341 -0.0040169493 0.038831424 0.028354824 0.14923848 -0.14996265
0.020247426 0.087661 -0.06901338 -0.016247576 0.08095477 0.08554112 -0.083075285 0.11395534
0.04126032 -0.028265009 0.13364837 0.01879813 0.044192955 0.1500189 -0.036357693 -0.17478086
0.122803584 0.17624444 0.06277488 0.02433684 -0.023303743 -0.16222534 -0.23127903 0.080598526
-0.021027198 0.0052692397 -0.16750391 0.051749483 0.12192598 0.016637316 0.004918697 -0.04364455
