torch-rl/storage/Lstm-Customs-SimpleCorridor16x16-v0/status.pt (torch, 649877 bytes, 51 tensors)

image_conv.0.weight f4 [16, 3, 2, 2]
00000000: fcc1 bb3e 880e 21be 47b0 12be d066 ea3d
00000010: 48e8 20be 8f6e da3d 342c 31be 6b4c 063e
00000020: 2360 243d 94c7 10bd 45fa a33d 7e52 693c
00000030: 99e1 fdbd 10b3 94be 6f0e 1abe 85f4 20be
00000040: 9c20 a43c 8b60 093c 3e1e f03d b111 453c
00000050: 472b dcbd 7288 32be e430 46bd f102 ffbd
00000060: e472 40be 26d0 473d 4784 433c 51cf 55bd
00000070: f1d7 e1be 0f03 773e 8ec7 a9bd 4a07 fa3d
00000080: aa1d 433e ecaa 86be f487 8cbe 3894 0ebe
00000090: 9263 c43e f080 79be 75c6 9d3c 5330 70be
000000a0: 1317 8c3e f383 99be 2648 273e f2a7 f4bd
000000b0: 9fba 1bbe cbf1 173e 86e9 1cbe 6de0 ad3d
000000c0: 11df 31be 40f2 78be e407 b8be 3b34 44be
000000d0: 122e e63d 2d5e 14be 76b4 583e 4e8e 533e
000000e0: a175 5dbc 6b4f 45be e102 343e 357c b73d
000000f0: 7f13 86be 9697 7b3e 6eed c33d aa77 a43e
00000100: edff b63c ac30 f6bd de2a 08be eae7 e2bd
00000110: ba56 60be 49c4 51be 3fcf 203e 19a2 8abd
00000120: 8fb8 343e 05d9 58be ca56 cd3d a1b6 53be
00000130: 4da4 423d 127a 09bd 97bc 55be b5b3 29bd
00000140: 77d8 4fbe 0e09 5fbe c3d0 8f3c e17d 49bd
00000150: 48e7 883e 110e 91be 3e69 b2be f138 ff3e
00000160: 91f4 e5bd a761 a43d 346e 353d 665b 7abe
00000170: 798b 6d3d 7e01 8e3d 7cec 45be 6e41 0cbe
00000180: 273d 793d 10fc 903b 977e 34be d598 42be
00000190: c435 4d3e 73af 8cbe 7659 083e bd7e 0bbd
000001a0: 8214 3fbe ca63 7bbe 87df 8d3e 9bf7 763c
000001b0: faa2 113e 825a ad3d f8ff 06be 4b02 8b3e
000001c0: 1cfb 163e 33f8 7ebe c3fc 75be f151 ed3d
000001d0: 3b25 563e e2a3 373e 08ef 55be 7edd 54be
000001e0: dc70 56be e57c 7b3e 9403 e83e c1d8 57be
000001f0: 3dfe 453e 10d2 3bbe fd4c 7cbe 7986 16bd
00000200: 6b51 2a3e 2237 893e c594 37be 694c 803d
00000210: c0a7 413e f6d7 2d3e e816 653d 0484 8a3d
00000220: 4a91 c53d 9987 fabd e1d8 7dbe 2246 9bbe
00000230: 9873 07be ebaf 09bd d330 35be 8d4b d83d
00000240: 5f57 c8bd e8ea 35be b30e cebc 8635 2d3b
00000250: 0e99 123e 6df9 be3d f9e6 2ebe 2789 593e
00000260: 36b2 08bd f17d 22bc ce81 8bbe 4e41 3ebe
00000270: 45ca 28be bb16 74be b070 bc3e b2b5 6fbe
00000280: c447 24bd 647b 873d 86fa 1dbd feda d8bc
00000290: 6cf7 18be b62e 803d aa3a d7bd 45d4 84bd
000002a0: 5c27 95be a02b 7cbe 5912 4ebe 231a 4d3c
000002b0: 2359 2c3e 9ecb 123b e77f 3c3e bdec 033e
000002c0: 8b9d 493e e29b 163c f07e 4cbe 5104 673e
000002d0: f53a b2bd 4020 0e3d e700 833d 48e0 87bd
000002e0: 39ef bebe 98ce a13e 265f 9bbe 99ed a8be
000002f0: fa99 20bc 59d6 1fbe 688a d33d 1292 e3bd
0.36671436 -0.157282 -0.14325057 0.11445391 -0.15713608 0.10665619 -0.17302018 0.13115089
0.040130746 -0.035346583 0.080067195 0.014240859 -0.12396545 -0.29042864 -0.15044568 -0.15718277
0.02003508 0.008384834 0.11724518 0.012028144 -0.10750442 -0.17434862 -0.04838647 -0.12451733
-0.18793827 0.04878249 0.011933393 -0.052199665 -0.44110063 0.2412226 -0.08290015 0.122084215
0.19054285 -0.26302278 -0.27447474 -0.13923728 0.38357216 -0.24365592 0.01925967 -0.23455934
0.27361354 -0.29983482 0.16336116 -0.119460955 -0.15207909 0.1483833 -0.15323457 0.084900714
-0.1737025 -0.24311161 -0.3594352 -0.1916055 0.11239256 -0.1448905 0.2116259 0.20659754
-0.013516814 -0.19268577 0.17579223 0.089592375 -0.2618675 0.24569544 0.095667705 0.32122546
0.022338832 -0.12021002 -0.13297603 -0.1107939 -0.21908084 -0.20485033 0.15704058 -0.06769199
0.17648529 -0.21176536 0.10026319 -0.20675136 0.04751997 -0.03356368 -0.20872723 -0.041431148
-0.20297419 -0.21780798 0.0175556 -0.049192313 0.26738954 -0.28331044 -0.34845918 0.4984813
-0.11228288 0.08026438 0.04429455 -0.24448928 0.05799434 0.06933878 -0.19328493 -0.13696834
0.060849335 0.0044245794 -0.17626415 -0.19003613 0.20040041 -0.27477607 0.13315377 -0.034056414
-0.18660167 -0.24549785 0.277096 0.015073682 0.14222327 0.084645286 -0.13183582 0.27150187
0.14744228 -0.24899368 -0.24022202 0.11587895 0.2091264 0.1793361 -0.20891964 -0.20787618
-0.2094149 0.24559362 0.4531523 -0.21078779 0.19335265 -0.18341851 -0.24638744 -0.036749337
0.16632621 0.26799875 -0.17927845 0.06264574 0.18911648 0.16976914 0.05593005 0.06763461
0.09646852 -0.122328945 -0.24789764 -0.30326945 -0.1322769 -0.033615034 -0.17694406 0.10561285
-0.0978229 -0.17765391 -0.025153494 0.0026429608 0.14316198 0.09324918 -0.17080297 0.21243726
-0.03337308 -0.009917722 -0.2724747 -0.185796 -0.1648341 -0.23836796 0.36804724 -0.23409155
-0.040107504 0.06615332 -0.038568996 -0.026471611 -0.14938134 0.062589094 -0.10509236 -0.064858
-0.2913159 -0.24626017 -0.20124187 0.0125184385 0.16830878 0.0022399197 0.18408166 0.12883277
0.19689004 0.009192439 -0.19970298 0.2256024 -0.087026514 0.034698725 0.063966565 -0.06634575
-0.37291887 0.3160293 -0.3034603 -0.32993773 -0.009802336 -0.15609111 0.10329133 -0.11111845

image_conv.0.bias f4 [16]
00000000: ae5c 33be 9f80 84bd 5337 9bbc 04ae 73be
00000010: 5a92 b93d 9524 c4bc 568f fbbc 96a4 9abe
00000020: 3ec5 c9bc 5a24 c5be 69c2 953d 6bb7 a6be
00000030: 9da5 bfbc f89a 2bbd d17a 0fbe cdfb 793c
-0.17515823 -0.06469845 -0.01894728 -0.2379685 0.090611175 -0.023943225 -0.030707996 -0.30203694
-0.024630185 -0.38504297 0.073124714 -0.32561812 -0.0233944 -0.041895837 -0.14011694 0.015257788

image_conv.3.weight f4 [32, 16, 2, 2]
00000000: 7be5 123e 420f 853e a939 28be f8ac b4bd
00000010: 5c4d 83bd a7ea 763d 0cdc 1a3c 5bd7 953a
00000020: 366a 053e ba78 3cbe 5b65 f7bd 2f2e 063e
00000030: 57d6 493d c14f 8a3e b653 09be 90db 4ebe
00000040: ae96 393d a4b4 a8bd e556 aebd 17b9 8d3d
00000050: ca4e 073d 25aa e83d f3a1 03be 5199 a2be
00000060: c0db b53d c5eb cd3b 55b7 13be b0f2 d6bb
00000070: 1212 b73d d0ce e03d fe34 d3bb e628 a2be
00000080: 3af1 ba3c dac0 313e 074c 84ba 79ce 81bd
00000090: 8522 793d c474 503e c642 5cbe aa3e 47be
000000a0: fbf7 dfbc 4148 9c3e e3da ed3a 8eab 84be
000000b0: ee2c a43b c37e 093e 7a70 54bd c32e bfbd
000000c0: 6292 223d 2d97 703d 2fe1 b9bd 0ba6 2dbd
000000d0: 9aa3 083e 17b9 243e 62e9 58be 5869 323e
000000e0: a74d 023c f5dc 41bd bb2d f03b f7a3 dabd
000000f0: 87a2 b43e d1c8 20be 6c62 01be c3ab 793e
00000100: 340c bebc 5141 d33d 73de 8bbd b843 4fbd
00000110: f032 16be 1859 e1bc d7ed e0bd 5e2b 5bbb
00000120: 80b4 9cbd 962a 423c 86e5 9e3d bbe8 683a
00000130: 58e3 bc3c c957 d9bd 2be6 48be 0467 053e
00000140: cf73 c6bd a084 453d 89ae a0bd a03a 03be
00000150: 3b49 913c c9c6 cb3d ae14 1bbd caa6 bbbd
00000160: 54b4 bdbd 13a4 163d a874 28be a4cb 3cbe
00000170: f10a 1ebd 76c9 293d e159 64bc 1850 43be
00000180: 0441 603c 8502 bebd 9f4c 25be 3d7b 0d3e
00000190: f6c8 40bd 0cab 723e fed9 53bd 3146 16be
000001a0: 6c56 20be aaa1 83bd ce24 813d adad 03be
000001b0: cc0d 6dbd 2f5e 043e 8928 abbd 3507 1dbd
000001c0: 5f78 81bd d805 2bbd 93f5 68bd 188c 9cbd
000001d0: 3949 833c 935a 36be 94e7 51bd d60c cc3b
000001e0: 18a8 3bbe 077f e9bc f6c8 debc fba7 133d
000001f0: 9525 833d 3ce3 6fbe c452 9ebd 40e8 38be
00000200: b1b8 433d 3e52 c6bd 0e45 313e 4420 54be
00000210: b230 bfbd c83d d8bd d4f6 683d 68f2 673e
00000220: f0be c83d 9b31 04be 314d da3d f6b0 04be
00000230: b023 febd 7040 20bd a3f5 7f3d 86f6 c93d
00000240: 1859 1dbe adcc 0bbe ade8 263e 9379 163e
00000250: 99d9 833d 4e0f 343d 2528 153e 0835 5d3d
00000260: 3a71 eebd e982 dbbd 0aba e43d 14a9 0e3c
00000270: 0eca 8d3d d901 03be 9928 1dbe b57b 4fbe
00000280: c00b 903c 4ec3 1f3c 11d4 b7bd 08ec 9d3d
00000290: 9e37 c73d a440 b4bd 0745 773e dd77 bcbc
000002a0: e937 12bd a9a2 323d 7ace f43d b7bb f63d
000002b0: 654b 993b c240 d7bd efcb 443e 7f38 063b
000002c0: b41a 29bd bf55 c43c 88af 223e d75d 9abd
000002d0: 4e4d 46be fb12 46be 30d6 9b3d 81de 583e
000002e0: 136f a8bd 22e1 3fbe 9acd 5d3e ec0e 1f3d
000002f0: 5003 b33e 5724 1a3d 7403 a43e b59a fe3d
00000300: 0e9e 40bd d182 323d a50e a53d 8c59 eebd
00000310: 3634 a2bd bd92 79be 07a6 9cbd 5b12 54be
00000320: 4281 d33d 3c59 abbd 0df6 b13d 156a a5ba
00000330: bb62 133d f47f 65be 261f 283d abf4 0b3d
00000340: 5856 6dbd f30a 583d a290 55bd e7e8 24be
00000350: b091 02be b3e1 de3d 365f febc 49b4 633d
00000360: fca3 aabd ddf2 1dbd 2c72 ecbd edf3 cd3d
00000370: 1505 563d 16a2 acbd c305 db3c b215 b7bc
00000380: b663 e3bc d203 f6bd c937 343d d95a 21be
00000390: ec84 043e b483 093c 23da 5f3d 4695 bb3c
000003a0: aa90 34be 868c c23d 6398 6bbe 65a3 8abb
000003b0: 3886 79bd edd1 e83b cf3b 2cbe 905c c63c
000003c0: eac2 79bd 4f68 8ebd dce0 cb3d 525e c43c
000003d0: cf79 263d 2ebd 843d b847 0d3e f9e3 dd3d
000003e0: 7fcc 22ba d6fd 23be 0940 b83d 18b0 3abe
000003f0: e997 abba b70a 7fbe 54af 7a3e 3ba3 573c
0.14345352 0.25988203 -0.16428246 -0.08822054 -0.064112395 0.060282376 0.009451877 0.0011431979
0.13028798 -0.18405429 -0.12079879 0.13103555 0.049276676 0.27013972 -0.1341084 -0.20200944
0.045309715 -0.082375795 -0.085126676 0.06920069 0.033034123 0.113605775 -0.12854747 -0.31757596
0.088798046 0.0062842094 -0.14425404 -0.0065596923 0.089389935 0.10976946 -0.006445526 -0.31671828
0.022820104 0.17358723 -0.0010093459 -0.0633821 0.060823936 0.20357043 -0.21509847 -0.19457498
-0.027339926 0.30523875 0.0018146898 -0.25912136 0.005010239 0.13427262 -0.05186508 -0.09335091
0.039690383 0.058737922 -0.090761535 -0.04239468 0.13343659 0.16086231 -0.21182778 0.17422998
0.007953084 -0.04732986 0.0073296702 -0.10675805 0.3528025 -0.15701605 -0.12635201 0.24381928
-0.023199178 0.103151925 -0.06829538 -0.05060169 -0.14667869 -0.027508304 -0.10982864 -0.0033442597
-0.07651615 0.011850974 0.07758622 0.0008884777 0.023057625 -0.10612447 -0.19619052 0.13027579
-0.096900575 0.048222184 -0.0784579 -0.12815332 0.017735114 0.09950025 -0.03786152 -0.09162672
-0.092629105 0.036777567 -0.16450751 -0.18437058 -0.038584653 0.041451894 -0.013937444 -0.19073522
0.013687376 -0.09277824 -0.1614251 0.13816543 -0.04706665 0.23698062 -0.051721565 -0.14675213
-0.15657967 -0.06427319 0.06305848 -0.12859221 -0.057874486 0.12926553 -0.08357341 -0.03833695
-0.06321787 -0.04175362 -0.056874823 -0.07643908 0.016026126 -0.17807989 -0.05124624 0.006227116
-0.18325841 -0.028502954 -0.027195435 0.03604887 0.064036526 -0.23426527 -0.0773063 -0.18057346
0.047783557 -0.09683655 0.17311499 -0.20715433 -0.0933546 -0.10558659 0.05687602 0.22651064
0.098020434 -0.12909548 0.10659254 -0.1295813 -0.124091506 -0.039123952 0.062490117 0.09861474
-0.15366018 -0.13652296 0.16299696 0.14694814 0.06437988 0.04395991 0.14566095 0.054005653
-0.1164269 -0.107183285 0.11168297 0.008707304 0.069233045 -0.12793674 -0.15347518 -0.20262034
0.017583728 0.009751154 -0.08975995 0.07711035 0.09727405 -0.08801392 0.24147426 -0.023006374
-0.03569785 0.043612156 0.11953445 0.120475225 0.004678177 -0.105103984 0.1921842 0.0020480452
-0.04128523 0.023966668 0.15887272 -0.0753743 -0.19365427 -0.19343178 0.076092124 0.21178629
-0.08224311 -0.18738225 0.21660462 0.03883259 0.34963465 0.037632313 0.32033885 0.12431852
-0.047025733 0.043581787 0.08059434 -0.116381735 -0.07920115 -0.24372382 -0.07648855 -0.20710127
0.10327388 -0.083666295 0.086895086 -0.0012620116 0.03598283 -0.22412091 0.04104533 0.03416888
-0.057943672 0.052744817 -0.052139886 -0.1610447 -0.12750888 0.108828925 -0.03105126 0.055591855
-0.08332059 -0.03856169 -0.11545214 0.10056291 0.05225094 -0.08429353 0.026736146 -0.022349212
-0.027757507 -0.120124474 0.043998513 -0.15757312 0.1294133 0.008393217 0.05465139 0.022898328
-0.1763331 0.09499459 -0.2300735 -0.004230904 -0.060919017 0.007105103 -0.1681969 0.02421406
-0.0609769 -0.06953489 0.09954998 0.023970757 0.04064351 0.06481396 0.1379689 0.10834498
-0.0006210282 -0.160148 0.08996589 -0.18231237 -0.0013091537 -0.24906431 0.24480945 0.013161476

image_conv.3.bias f4 [32]
00000000: 7321 9dbd bb15 93bd 5bf3 983d 44ce dfbd
00000010: 073f 06bd 090d 80bd 2ca1 19be f229 7dbc
00000020: a17e 6fbd 446c 9e3d 3411 353d ce8a 943c
00000030: b190 0bbe 70da dbbd bd6d b9bc 24f5 14be
00000040: 60fa dd3c 3eeb af3c 82bb c73d 3044 8f3c
00000050: f180 0abe ba02 4a3d 3d01 92bd 768c 22be
00000060: cd3e 49bd 38fa ecbc d488 bcbd 94a2 0bbe
00000070: 1bce f4bd 0732 2fbd 20eb b2bd 06b8 283d
-0.076723956 -0.07181879 0.07468291 -0.10928014 -0.03277495 -0.06252486 -0.15002888 -0.015451895
-0.058470372 0.07735494 0.04420586 0.018132593 -0.13629414 -0.10735023 -0.022635335 -0.14546639
0.027096927 0.021474477 0.09752561 0.017488569 -0.1352575 0.049319007 -0.071291424 -0.15873894
-0.049132157 -0.028927907 -0.092057854 -0.13636237 -0.11953374 -0.04277232 -0.08736253 0.041191123

image_conv.5.weight f4 [64, 32, 2, 2]
00000000: 93df 5e3d 5b91 32bd e4bb 40bd a408 15bb
00000010: e5ee d5bc 914a a83d 5b5e 2ebd a4d9 b53c
00000020: f591 5fbd c38f dc3b 8368 2cbd dad2 03be
00000030: 4d14 c03c 3bd3 06bd 32e4 5e3d 0cf2 cebd
00000040: 3706 0f3d 6996 233d 6417 dd3d 5dce c33b
00000050: 0f8c 1cbd eeb5 d5bd 8aa8 abbd 0dc0 913d
00000060: edf9 a3bd f613 26bd 935c 1e3d 8c12 3b3d
00000070: a326 9cbd 818e 8f3c 5813 2f3c dc23 a63d
00000080: 705e e5bc b50a 013c 3222 f8bc 0e28 5d3d
00000090: 6568 19bd d802 9abd 3792 063c ba03 3dbd
000000a0: ba3e 813c 05e7 383d e268 02be 5036 95bd
000000b0: bc15 7bbb 498f bcbc e9d0 f3bc 80fc 4e3d
000000c0: 241a 103d 930d 0bbd f027 9d3c cded 2dbc
000000d0: 3ada 8ebd f57a 163d e5ad 8fbd 5725 0d3c
000000e0: 91ea 473d 63b5 afbd a459 5e3c 9a04 c23d
000000f0: 25c0 973b d2aa 8bbd 0c89 b2bc 489d c5bd
00000100: a983 6ebc 86e9 743d 6fac 513d 1134 14bd
00000110: 4f5c 073d 521a 6c3c 3998 fdbc 1e75 b73b
00000120: 6825 bcbd 0a6a 0b3b 93ab 1abc a943 0bbd
00000130: 6dfd 7abd 2ce5 babd 9879 ddbc 8568 693c
00000140: 56ef 813d d816 b8bd 4922 a7bd a9ef f6bc
00000150: c502 853d dd3d ebbb 34ef 6b3c 4f35 973a
00000160: ed34 79bc 03aa 743d 5d88 623d 4517 52bd
00000170: d2d0 58bd b8c1 8cbd b117 b0bc 607e 02bb
00000180: c9f8 593d 4dec c1bd 6c0a 393d 854f 46bd
00000190: a18b 853b 2e9b efbb a5cd 3d3d c1e7 96bd
000001a0: 9759 8dbd 0332 86bd ed67 ab3d cb7c b0bd
000001b0: 45f6 13bd 413a abbd a41a f5bd 983a b53c
000001c0: 4f93 a8bc 38a4 3d3d 72c1 843d de24 f03c
000001d0: f918 483d 5eed 8abd a570 b8bd 5e57 14bc
000001e0: 5211 b53c aeba 90bd e255 903d cadf 7cbc
000001f0: dd88 8cbd 80de 6d3d 43bf 473d 5a5e 78bb
00000200: 1ae0 26bd 3535 12be 34f9 e6bd cb23 953e
00000210: 2238 1b3d c000 8ebd 6a56 57bc 96d7 d4bd
00000220: dbe1 043d 9db9 f53d dca9 653c 75c7 d7bd
00000230: 2c6e 833c a5e2 8fbd b606 9cbb 57ed 633c
00000240: 9e82 9a3d e623 773d c7d4 08be ebcb c13c
00000250: 646b 39be d9b4 623c 8959 0fbe ad3d 3bbd
00000260: 3596 b8bb adfc 7d3d 3ac5 78be 6bbb 88bd
00000270: 50d4 80bd 1fa4 86bb 300b 95bc 5b56 ad3c
00000280: 499b 70bb 24c6 c4bd dba4 2cbd 4f0a 94bd
00000290: 3700 a4bd 5743 2fbd f4f0 acbd 501d 59bc
000002a0: 6ccd e63c 023b f5b8 3cc0 05bd 05e8 51bd
000002b0: 6774 08bd 4b81 87bd 705a c23c 4297 633c
000002c0: 4ffb 9c3d 75a8 e43a b315 93bc 4179 41bd
000002d0: b3b5 4bbc d0ad f43c ac8a aebd 7794 c8bd
000002e0: 592d c1bd 3948 afbd 6226 41be b902 b13d
000002f0: 0430 fbbd 53f7 a9bd d0cb 2b3d a5f1 30bd
00000300: b786 cabd 9d7c 323e 9b03 b9bd d898 adbc
00000310: df30 c8bd 1bb1 78bc fdd6 2ebd 4d54 e3bc
00000320: 1196 81bd 0394 d63d c8a0 aebc a458 023e
00000330: 5d63 adbd c65a dcbd 1a8c a33d 4155 75bb
00000340: aaa4 af3d 3413 8c3d 57f6 fabd 3b31 c33d
00000350: d8ff 64be 96e8 82bd 0c93 b8bd 4b11 b83c
00000360: 1038 aabd 6ab2 44bd 5d80 ebbc 5a74 c73c
00000370: c6b9 83bd a985 b6bc 8bf4 143c 951c 1c3d
00000380: 601a 17be 999b 2b3e 230a 2abe d3ac fbbc
00000390: 6e0a 133d 1e54 7cbd 6d72 823d 5fc6 2e3d
000003a0: bfd8 91bd b4bd b1bd 75a8 c3bd 6d11 353d
000003b0: 6da2 d9bd 80a1 5abd 9ae8 b4bd 05df 06be
000003c0: 8f63 a5bd f312 ed3d afcf d1bb 9fec abbd
000003d0: d3a6 36be 85e7 0cbc f621 783c 363f a7bd
000003e0: 4764 433d 71f4 033d 2593 61bd f47d 3ebd
000003f0: 8a7e 97bc ef15 08bd 242a bf3d fcf4 4dbd
0.054412436 -0.043595653 -0.047054186 -0.0022740746 -0.02611489 0.082173474 -0.042570453 0.022198506
-0.054582555 0.006731005 -0.042091858 -0.12873402 0.02344718 -0.03291629 0.054416843 -0.101047605
0.034918036 0.039938364 0.10795477 0.005975528 -0.038219508 -0.10435091 -0.08381756 0.07116709
-0.08006654 -0.04054638 0.038662504 0.045671985 -0.07624557 0.017524006 0.010685764 0.081123084
-0.027999133 0.007876088 -0.030289743 0.053993277 -0.037453074 -0.07520074 0.008213571 -0.046146132
0.01577698 0.045142192 -0.12735322 -0.0728575 -0.0038312515 -0.023017542 -0.029762702 0.05053377
0.03518118 -0.033948492 0.019184083 -0.010615778 -0.06975217 0.036738355 -0.070155896 0.00861486
0.048807684 -0.08579519 0.013571177 0.09473534 0.0046310597 -0.06819691 -0.021793865 -0.0964914
-0.014557757 0.059793018 0.051189836 -0.036182467 0.033047017 0.014410572 -0.030956374 0.0055986783
-0.09186822 0.002127292 -0.009440321 -0.034000073 -0.061276842 -0.09125742 -0.02703552 0.014246111
0.06344478 -0.08988732 -0.08160836 -0.030143576 0.06494669 -0.0071790055 0.014400292 0.0011536273
-0.015210372 0.05973245 0.055305827 -0.051291723 -0.05293352 -0.068728864 -0.021495672 -0.001991175
0.053215776 -0.09468899 0.045175955 -0.04841568 0.004075483 -0.0073122 0.046338696 -0.07368422
-0.069018535 -0.06552508 0.08369432 -0.08617552 -0.036123533 -0.083607204 -0.11967972 0.022122666
-0.020578055 0.04629919 0.06482209 0.029314455 0.04885194 -0.067835554 -0.0900586 -0.009054033
0.022102986 -0.07066856 0.07047631 -0.015434215 -0.06862042 0.05807352 0.048766386 -0.0037898035
-0.040741064 -0.1427811 -0.112780005 0.2912887 0.03789533 -0.06933737 -0.013143161 -0.10392682
0.032441955 0.119982935 0.014017548 -0.1053609 0.016043745 -0.07025651 -0.004761542 0.013911567
0.075444445 0.06033697 -0.13362418 0.023656806 -0.18107373 0.013837063 -0.13998999 -0.045713115
-0.0056331404 0.06200855 -0.24293986 -0.06676372 -0.062904954 -0.00410892 -0.018193811 0.021159342
-0.003671365 -0.09608105 -0.042149406 -0.07228529 -0.080078535 -0.04278883 -0.08444396 -0.013251618
0.028174125 -0.000116935014 -0.032654032 -0.05124666 -0.033314135 -0.066164576 0.023724765 0.013891043
0.07665121 0.0017445224 -0.017954683 -0.047234777 -0.012433457 0.029868037 -0.08522543 -0.097939424
-0.094324775 -0.08558697 -0.18862298 0.086430974 -0.12265018 -0.082991265 0.041942418 -0.0431992
-0.09888976 0.17430349 -0.09033891 -0.021191046 -0.097749464 -0.015178944 -0.042685498 -0.027750159
-0.06327451 0.1047745 -0.0213169 0.12729126 -0.08466218 -0.10759501 0.079857066 -0.0037434848
0.08576329 0.068396 -0.12254017 0.09530874 -0.22363222 -0.063920185 -0.09012422 0.022469183
-0.08311474 -0.04802171 -0.028747732 0.024347473 -0.06431918 -0.022280531 0.009091507 0.038113195
-0.14756155 0.16758575 -0.1660543 -0.030722057 0.03589862 -0.061603658 0.06369481 0.04266965
-0.07121419 -0.08678761 -0.09553615 0.04420607 -0.106266834 -0.053376675 -0.08833428 -0.13171013
-0.0807563 0.1157588 -0.0064029316 -0.08394741 -0.17837076 -0.00860012 0.015144816 -0.081663534
0.047703054 0.03221554 -0.05507197 -0.046506837 -0.018492956 -0.033224043 0.093342096 -0.050282463

image_conv.5.bias f4 [64]
00000000: 52ca c5bc 3f49 45bb e873 21bd 5170 98bc
00000010: ca15 e6bc e79c d53d 412c 9bbc 2f11 65bd
00000020: 2c2d 733c 3f66 8abd 798b a6bd 0f15 863d
00000030: 1605 9a3c 4e28 d9bd 0a5c b6bb 4af8 e4bc
00000040: b79b b8bd ad69 303e 3752 b73c b801 5abb
00000050: 7a17 ae3d c196 12bd 9918 e6bd 2d06 78bd
00000060: b458 8abd ba39 aa3d 2e01 5abc d310 8fbd
00000070: 0174 b93b 9aec 51be b5d2 02bd fd3d 91bd
00000080: f4e4 b7bd 9a0b 10be 0304 063e 0ca6 e4bd
00000090: 465e 49be dd5d 8fbd b849 8a3d 69fa 13bd
000000a0: 4ac0 adbd 1064 99bd 545a f5bd 9b16 6bbd
000000b0: 6fd0 00ba 15ae 1dbc afeb e7bc 828e 98bd
000000c0: 2cfb c93c 00e6 3abd 4af3 8fbd 1814 aabd
000000d0: 5ebd 82bb 3c84 dabc cfaf ccbd 9dad 153e
000000e0: 201b 27be b28e 973d a384 0c3e d1e6 8fbd
000000f0: 13bd 2fbd 03ea e0bd 7427 dd3b df26 0bbe
-0.024144325 -0.0030103473 -0.039417177 -0.018608244 -0.028086562 0.10430317 -0.018942 -0.05592459
0.014842313 -0.06757783 -0.08132071 0.06546985 0.018801253 -0.10603391 -0.005565171 -0.027950425
-0.09014075 0.17227812 0.02237807 -0.0033265185 0.085005715 -0.0357883 -0.112351604 -0.060552765
-0.067552 0.08311792 -0.013305945 -0.06985631 0.0056595807 -0.20500413 -0.031939227 -0.070919015
-0.08979216 -0.14066926 0.13087468 -0.111644834 -0.19664869 -0.07000325 0.06752342 -0.03612748
-0.08483942 -0.074897885 -0.11980119 -0.057394605 -0.00049138715 -0.009624024 -0.028310625 -0.07449056
0.0246559 -0.0456295 -0.070288256 -0.08304614 -0.0039898595 -0.026674382 -0.0999447 0.1461701
-0.16318941 0.07400264 0.13722472 -0.070264466 -0.042904925 -0.10982134 0.006749088 -0.13589047

memory_rnn.weight_ih f4 [256, 64]
00000000: 5c1b 35ba 3280 9bbd 9d16 6bbd 0885 bd3d
00000010: ca8e 18bd 1ee7 963d 1343 b03d f7c2 ff3b
00000020: 2b2a 3a3e 8e1e a8be c2ae 8b3d 67b2 fe3d
00000030: e9dd 5a3d 9b9d 163d 59d4 0f3e 484b 0fbe
00000040: dd94 263d 01f6 543e c69a 64be f7e0 e1bd
00000050: 0104 71be c4cf aebe db25 86be ee74 73be
00000060: 70ee 3cbd 9708 98be 3292 33bd 6b0c b53d
00000070: acb4 663e ab37 0b3e 33a8 bbbe d659 d03a
00000080: 00e7 eabd b162 9bbe b496 073d 5036 75be
00000090: 621f 023e b2cc 69be 26ae 41be efb6 c2be
000000a0: baed 133d 68d5 7bbe d2f0 efbd f360 463e
000000b0: 4daf 3abd 9a48 1c3e efd9 d53d 13af 32be
000000c0: 9431 a2bd 3ff3 e43c 969c a33d 28df c0bd
000000d0: 0e0a 15bd 4cee 0f3e b6ef c3bd efe1 1e3e
000000e0: 093f 95be 39f1 013d d2bb 193e 696f 233d
000000f0: 6354 7d3d eae0 51be 9c1c f7be c1fe 39bd
00000100: 67f8 f0bc 820d d63d c13f 76bd 22aa 733c
00000110: c94a 66bd 51ad 5dbe ebd4 d8bd a04d a4bc
00000120: 6763 353d aca8 583d 1f22 9bbd 1d9f d1bd
00000130: 7e52 3fbd 3cdc 183d 595d 923e 803f df3d
00000140: d25b 25be fe8d b5be 7b37 933d e763 24be
00000150: 08c8 a1bc b384 50be 39ac 073e f28d dc3d
00000160: 71af c43b c718 56be 7fbb efbd 999a b4bd
00000170: c243 63bd 36f4 abbd 2fce d6bd 596b 49bc
00000180: a120 c23d f2ce f3bd 4b9d 77bd 28bb d0bd
00000190: a548 21be a317 80bd 4d11 f9bc 3956 213e
000001a0: 2804 bb3d e1ce 8ebd 8a8c 763d 9f5c bc3d
000001b0: 162a cf3d ec45 f33d 037b 55bb 11af 5dbe
000001c0: 8bd7 77bd 732b 56be faef be3d c4f5 99bd
000001d0: 46ca 583d f32f 9e3c aeb9 26bd 9718 ae3d
000001e0: 9a0f d43d bdac 193e e8fd b0be 61b2 913c
000001f0: 2664 cf3d 2d35 a23c 2080 5dbe dad2 333b
00000200: ae38 bb3d 272f f1bc 7547 62be b1ec 03be
00000210: 1082 4c3d 9d26 033c 12a2 25be 5fdf 96be
00000220: 898c 5ebe afaa 6cbe 8c92 23be a82d 95be
00000230: 8957 9dbe 4f63 8dbe 1f48 813c 3ada dcbe
00000240: ecc5 94bc 167e 9bbe bd28 6cbe 79bf 23be
00000250: 7b94 963d a6ae 1c3e 5d28 2a3d 1564 78bd
00000260: 6e95 5fbd 6b42 893e 0b65 ae3b e339 b0be
00000270: d41c 07bd 085c 69bd e901 45be 1888 f83b
00000280: bb75 bb3d 4cbf 64bd 9e6e e4bd 26ba 60be
00000290: 4a1c cfbd ad57 d53c a582 aebd f1b2 97be
000002a0: f496 f5bd eda3 1cbe dd99 63be 6647 953d
000002b0: a1b7 a0be a205 413d baed f6bd b7fc a1be
000002c0: ddb9 f13d 4e9d 48be 29ba 4d3e c6e5 2dbe
000002d0: 9ded 9abd aca6 c23d 989a 003e e273 ba3b
000002e0: fd2f 50bd de52 e43d 28f5 9fbe c594 54bd
000002f0: d7c3 2bbe 4e4b b1be 447c 8abe 317e a9bc
00000300: bb03 b53d 2f28 e93c 08ea 87bd b6e3 0dbc
00000310: 1ef7 6f3b f152 6fbe ed3f 5ebe 5378 353d
00000320: 5f67 09be 039a 5abe abc0 c03c fe9b 9ebd
00000330: fc25 22bd 5d10 24bd acaf 273c 1346 c43c
00000340: 14fd ddbd 5390 57be ab62 28be ca5f 59be
00000350: e443 d2bd ecdb eabc cc8c d6bd af34 1abe
00000360: 0293 85bd 42cb 88bd ea25 00bd d6ac aabd
00000370: 6068 05be 0b3a eabd e932 86be 7809 c9be
00000380: 6541 c9bb ba70 99be 9275 05bc d48c 83be
00000390: 5647 14be 9c55 cebc dcd0 02be 9ba9 59be
000003a0: 398a 52be ec16 c83d dd1f 00be 56ba ce3c
000003b0: 825d 4cbd 8d70 acbd 65be 7dbc 9033 d2bd
000003c0: e78e 163d e755 77be e159 9abd e1cc ffbd
000003d0: ce39 14be 7c1b aebc a221 e53d a1f0 74be
000003e0: f8f8 39bd 82a4 a9bc eaea 1cbe c0d4 02be
000003f0: b278 073d b229 98bd 06e3 42be ce01 1cbe
-0.0006908679 -0.07592811 -0.057394613 0.09253889 -0.03724555 0.07368301 0.086065434 0.007805224
0.18180148 -0.3283581 0.06820442 0.12436371 0.053434286 0.036771398 0.14045848 -0.13993561
0.04066931 0.20796968 -0.22324666 -0.11029237 -0.23536684 -0.34142888 -0.26200756 -0.23775074
-0.04612583 -0.29694054 -0.043840595 0.08840259 0.22529858 0.13595454 -0.36651763 0.0015895914
-0.11469841 -0.30348733 0.033102706 -0.239465 0.12707284 -0.22831991 -0.18914089 -0.38030192
0.036115386 -0.24593127 -0.11715855 0.1937292 -0.045577336 0.1526207 0.10441958 -0.17449598
-0.079196125 0.02794802 0.07988851 -0.09417564 -0.036386542 0.14055747 -0.095672056 0.15515874
-0.29149655 0.03172419 0.15013054 0.03990117 0.061848056 -0.20495954 -0.48264015 -0.045408968
-0.029415322 0.10451795 -0.060119394 0.014872106 -0.056223664 -0.21648146 -0.10587486 -0.020056546
0.04428425 0.052895233 -0.075748675 -0.102354266 -0.04670953 0.037319407 0.28586844 0.109007835
-0.16148308 -0.35459894 0.071883164 -0.16053735 -0.019748703 -0.2036312 0.13249291 0.107692614
0.0060023596 -0.2090789 -0.11705684 -0.0881855 -0.05548454 -0.08396189 -0.10488545 -0.01229366
0.0947888 -0.11904706 -0.06045274 -0.10191947 -0.15750368 -0.06254508 -0.030403757 0.15755548
0.09131652 -0.06973053 0.060192622 0.091973536 0.10115449 0.11878571 -0.0032574541 -0.21648814
-0.060508292 -0.20915012 0.09323116 -0.07517579 0.052927278 0.019309973 -0.04070442 0.08500784
0.10354538 0.150073 -0.34568715 0.017785253 0.10126524 0.019800747 -0.21630907 0.002743891
0.0914167 -0.02944143 -0.22097571 -0.1288326 0.049928725 0.008004812 -0.16175106 -0.29467294
-0.21733297 -0.23111986 -0.15973872 -0.29136395 -0.30730847 -0.2761483 0.01578146 -0.43135244
-0.018160783 -0.30369633 -0.23062415 -0.1599101 0.07352539 0.15300998 0.0415424 -0.06064232
-0.054585867 0.26808485 0.005322104 -0.34419164 -0.032986477 -0.056972533 -0.1923901 0.007584583
0.09153315 -0.055846497 -0.11153911 -0.2194601 -0.101128176 0.026042784 -0.08521012 -0.2962871
-0.11991683 -0.15296908 -0.22226663 0.07289009 -0.31390098 0.047124512 -0.120570615 -0.3163812
0.11803029 -0.19591257 0.20090546 -0.16982183 -0.075648524 0.095044464 0.12558973 0.005690084
-0.050827015 0.11148618 -0.31241727 -0.05189969 -0.16773926 -0.34627765 -0.27047932 -0.020690056
0.08838602 0.028461544 -0.06636435 -0.008660248 0.00366158 -0.23371483 -0.21704073 0.044304203
-0.13418339 -0.21347813 0.023529371 -0.07744597 -0.039587006 -0.040054668 0.0102347545 0.023959195
-0.108392864 -0.21051149 -0.16443889 -0.21227947 -0.10266855 -0.02866932 -0.104760736 -0.1505916
-0.0652218 -0.06679393 -0.031286158 -0.08333747 -0.13028097 -0.11436852 -0.26210716 -0.39265037
-0.006141829 -0.29968816 -0.008145707 -0.2569338 -0.14480338 -0.025187306 -0.12774986 -0.21256106
-0.2056054 0.09769997 -0.12512155 0.025235336 -0.049893863 -0.08419905 -0.015487288 -0.10263741
0.036757376 -0.24153863 -0.07536674 -0.124902494 -0.14475176 -0.02125334 0.111880556 -0.23919918
-0.04540345 -0.020708326 -0.15323988 -0.1277647 0.03307409 -0.07429828 -0.19031915 -0.15235063

memory_rnn.weight_hh f4 [256, 64]
00000000: 7b78 06be 9ee0 bd3d 78b0 633e 79a3 3f3e
00000010: c2ad 833e bde2 643e 3d88 0abe 1755 9c3c
00000020: 7423 9ebd 2ae5 bdbd e3b7 773e eb9c 8f3d
00000030: d0c5 26bc 035c 1e3e dc8f 53bc 7f46 8c3d
00000040: 9f77 cebd ac73 2f3e 7657 dd3d 7208 4ebe
00000050: 711f 18be be3f 81be 0ba8 af3d c998 c63c
00000060: 5216 8fbd dff8 c0bd d3fe 853e 5375 323e
00000070: 6c3b 6c3d f26d be3d 6887 9f3d bcec 373c
00000080: 0a25 843d d330 873e c3b9 0a3e 460c 17be
00000090: d943 253d 0a45 f7bb c14d b93d 2e85 aabd
000000a0: 3d7b 10be 5ff1 6c3b 05f2 c3bc ff18 cd3b
000000b0: 3af2 f13c e39b ec3d dcb3 803d 8d37 babd
000000c0: 93a3 83be 13bb be3c 5340 e3bd 4041 13be
000000d0: 6b4f 9abe b4ae cb3d a98e 88bd 8368 313e
000000e0: 169d 47be 5bc0 4c3d c0c6 6a3d 87c3 e5bd
000000f0: 1340 37be a8ff 8b3d 1896 0abd 9f0e 513e
00000100: c6fd 74be 6787 9f3c 78ea a0bd b9dc 0a3e
00000110: 0869 1f3f 3cf9 f7bc 97c9 a13d 334e 5ebd
00000120: af38 d83d a2e7 063e 5a4b 473c 8ad9 1e3e
00000130: d940 033e f109 b03d 9186 82be 6f5a 973e
00000140: d597 dfbc b50a 613d f723 563e f6da 28be
00000150: ba72 593d 0d3f 80be dd45 7d3c d5f3 a73e
00000160: 8b60 8c3d 30d0 323e 7d83 3e3d e7b3 8b3e
00000170: 896b adbc af83 6e3e cd25 6bbe f477 35bc
00000180: 4086 19be bd77 b63d 9db0 5e3b c810 93bd
00000190: 23c3 7ebc a44d 89be 1097 563e cf39 ca3d
000001a0: acb0 91bd abba b2bd e1d7 f8bd 59d7 80be
000001b0: aa2b 953d 1b94 cd3d e310 913d bc19 073e
000001c0: 00dc 14be bd4f 343d 8be5 103d f057 64bd
000001d0: 492b b03c 29d4 943e 3288 f2bd a266 053e
000001e0: a7d7 643e cd12 7bbd b5c0 a5bd 99a4 093e
000001f0: fb06 d43d 8d0e 1dbd b796 47bc ce05 233e
00000200: 3b95 6cbe ac93 64be 51f3 e2bd 2949 1abe
00000210: 8fdb 2c3e cd67 46be bb8d 68be cedc 51bc
00000220: dde6 b2bd d6cc 0b3d 2eab 9cbd b252 523d
00000230: b22c 8d3e 52b3 203e 49bc abbe 3f5e 243e
00000240: a570 76be 387d a9bd 6a70 133b 44e4 d4bd
00000250: 07db 20be de7f d8be ad7f efbe 6a0b f33e
00000260: 9a53 c0be fe11 503d aa9f cf3d 7bef 533e
00000270: 03a4 a0bd 8753 063f ca83 b4bd 4c53 6ebc
00000280: c494 4d3c 807f 6c3e 2717 f9bd 789d 863c
00000290: 6a86 78bd 2240 d6be 0a4f 82bd d3a1 603e
000002a0: 5ac6 013e 9378 a63c 0a93 303e 04c8 92be
000002b0: 669c 6b3e 0ba3 c8bd 7f2b 1a3e a2fb 923e
000002c0: 3dd3 6f3e 4637 033e df3b a43e c5bc 42be
000002d0: 0419 a13e 82b6 623e 4d82 ccbe 77af 843e
000002e0: 6881 383d 3e43 0abe d17c 8ebd 65dd ddbb
000002f0: deae 99bd 10e9 b8bd 8e6e 73be b067 ab3d
00000300: 830c 893d f877 87be cc51 f5bd 8f9b 3ebe
00000310: cd8f 333e 8c9a 663e ea5b 693d 73f7 213e
00000320: 8e38 7fbc 1779 f7bc d368 2bbe b6aa 463c
00000330: fbc6 223e 98a6 b8bb 34dc 78be a121 4c3e
00000340: 287c c53d 306e 96bd b068 4d3e 9e5a 9fbd
00000350: 50a6 313e b1bc 6abd 72ba 56bd c6bc 373e
00000360: 015e 4bbe 7db7 8a3e 34c2 25be 32b2 9dbc
00000370: ed04 9f3d 439d a03d bac9 1ebe 2483 51be
00000380: 728a 1e3e de6d 46ba 04ab 48be 6218 2e3e
00000390: 29bc 2cbe 2dce 5ebe 4a3d d63d 2d52 663e
000003a0: e902 80bd 0438 a1bd 84c9 b23c 8715 5dbd
000003b0: bd66 123e 5e72 38be d9b7 20be f897 013e
000003c0: 3f28 7d3d a7bf d8bd 5e3d c33b 1a9c 49be
000003d0: d7f8 3abc 4425 cfbc 391d 4dbe 5338 923e
000003e0: 0292 3c3d 7e3b 1cbe 9c75 043d 79d3 9ebd
000003f0: 396f 003e 2dd5 4dba 2298 0cbe 01a6 f5bc
-0.13131897 0.09271358 0.22235286 0.18714704 0.25718504 0.22352119 -0.13528533 0.019083543
-0.07721606 -0.09272225 0.24191241 0.070123516 -0.010178998 0.15464787 -0.012912717 0.068493836
-0.1008141 0.17133969 0.108076975 -0.20120409 -0.14855744 -0.25243944 0.085769735 0.024242776
-0.06986679 -0.094224684 0.26170978 0.17427568 0.057673857 0.09298314 0.077894986 0.0112258755
0.06452377 0.26404437 0.13547425 -0.14750776 0.040347908 -0.007546072 0.090480335 -0.08326183
-0.14109512 0.003615461 -0.023919115 0.0062590833 0.029534448 0.115531705 0.062843055 -0.09092627
-0.25710735 0.023282563 -0.11096253 -0.1438036 -0.30138716 0.09945431 -0.06667835 0.17325024
-0.19493517 0.049988132 0.05731845 -0.112189345 -0.17895536 0.06835872 -0.033834547 0.20415734
-0.23924932 0.019473745 -0.07857221 0.13560762 0.6226964 -0.030270211 0.07899778 -0.054273795
0.105576865 0.13174298 0.012163961 0.15512672 0.12817706 0.08595646 -0.2549329 0.29561183
-0.027294079 0.05494185 0.20912157 -0.16489777 0.053087927 -0.25048104 0.015458551 0.32803217
0.068543516 0.1746223 0.046512116 0.27285692 -0.02116944 0.23292421 -0.22963639 -0.011075962
-0.14992619 0.08909557 0.0033979781 -0.07180935 -0.015549454 -0.26817048 0.20956063 0.09874307
-0.071137756 -0.0872701 -0.12150551 -0.25164297 0.07283719 0.100380145 0.07083299 0.1319341
-0.14537048 0.044021357 0.03537516 -0.055747926 0.021505015 0.29068115 -0.118423834 0.13027433
0.2234789 -0.061297227 -0.080933966 0.13441695 0.10352894 -0.038343955 -0.012181929 0.15920183
-0.23103802 -0.22321957 -0.11081565 -0.15066971 0.1688063 -0.19375534 -0.22710316 -0.012808992
-0.0873544 0.034130894 -0.076498374 0.051348396 0.27573162 0.15693405 -0.33542088 0.16051577
-0.24066408 -0.08275837 0.0022497424 -0.10395101 -0.15708552 -0.42285055 -0.46777096 0.47469646
-0.37563783 0.05079841 0.101378754 0.20696823 -0.07843783 0.524712 -0.08814199 -0.014546227
0.0125476755 0.23095512 -0.12162619 0.016432509 -0.060675062 -0.41845804 -0.06362732 0.21936731
0.12673321 0.020321166 0.17243591 -0.28668225 0.2300888 -0.09796723 0.15055655 0.28707606
0.23420425 0.12814054 0.32076928 -0.19017322 0.31464398 0.22139934 -0.39943162 0.2591512
0.045045286 -0.13502213 -0.069574006 -0.006770777 -0.075040564 -0.09028828 -0.23772642 0.08369386
0.066918395 -0.26458716 -0.11978492 -0.18614028 0.17535324 0.22519892 0.05697242 0.1581705
-0.0155774485 -0.030209107 -0.16739206 0.012125662 0.15896218 -0.005635094 -0.24302751 0.19934703
0.096428216 -0.07345235 0.20059466 -0.07780956 0.173486 -0.057308856 -0.0524239 0.17943105
-0.19860078 0.27093115 -0.16187364 -0.01925001 0.077646114 0.07842495 -0.1550664 -0.20460182
0.154825 -0.0007569472 -0.19596487 0.17001489 -0.16868652 -0.21758337 0.10460909 0.22492285
-0.06250555 -0.07872012 0.021824606 -0.05397561 0.14297004 -0.18012378 -0.15695132 0.12655628
0.06180596 -0.1058343 0.0059582433 -0.19688454 -0.011411867 -0.025286324 -0.20030679 0.28558597
0.04603768 -0.1525707 0.032338724 -0.07755179 0.12542428 -0.0007851895 -0.13729909 -0.029986383

memory_rnn.bias_ih f4 [256]
00000000: ca8a c33d 1d03 a7bd 42f6 40be 901d 14be
00000010: 6bf4 14be 40b4 0fbe 25fa b13c 20cb 243e
00000020: 0f5a 0bbd 6b13 07be ace4 313d b035 3f3d
00000030: 8d4b 56be c70e fabd d9cf 12bc b1fe 36be
00000040: 3e2a 08be 919d 1cbe 0958 953b e825 22bc
00000050: e480 7c3d 1146 f7bd 3bad d0bd f8f4 33be
00000060: a51f 5fbe fcdc a33d 0172 edbc 26d7 74bd
00000070: 1593 c93d 8173 97bd eb81 8cbe db1f 69be
00000080: bf0a 64bd 9cfe e3bc 7cd1 b33d 1046 9c3d
00000090: d43c f63a b204 97bd 0e9f 7abd 8027 9c3c
000000a0: 31bc 9fbc 05c9 223d e507 b63d 671e c73c
000000b0: 5612 89bd 374c 8abe 242b 343d 881b af3c
000000c0: 3e2c 2dbe 75e2 003c 7528 2abd 0902 0e3e
000000d0: 692b 3bbd c5f7 28be e877 c73d a64a ef3c
000000e0: 1a8d 72bc 1b8a a43d 90d2 c93d 913f 86bc
000000f0: 3ed8 7cbc d35d 313d 6711 2f3c f636 00bd
00000100: 0cef 05be f9d6 9dbd ddb6 b8bd 48d5 f9bd
00000110: 798b e13e a494 963d 3424 26be 5071 00be
00000120: 33f8 adbe ac29 81bd 3d20 53be e8f1 66be
00000130: 3182 86be a00b 69be 283e 1dbe f7df 9c3e
00000140: 1904 01be 3317 4d3e 1249 2a3c d0a2 a83d
00000150: 468f 2cbe 2e30 91bd b0f8 acbe f6a1 22bd
00000160: 8195 943c d321 90bc 89e0 b2be cae2 40bd
00000170: b55d babe e7b6 26be 5809 3abe 9239 3fbd
00000180: b3ad 3fbe 1b7a a63d 97ee fcbd 61e9 10bc
00000190: 3a0e bdbd a1ee 03bd 2c19 4dbe eb1d f8bd
000001a0: d889 0fbe 689e 8fbd f955 15bd a559 04be
000001b0: 016c 86be 7556 093d 63e6 35be a542 8ebd
000001c0: d7a8 4bbd 46c1 d8be b0e8 78bd d25b 3abe
000001d0: 96ca 9dbe 608c 923d 4ed6 ebbd 08b5 923e
000001e0: 2402 6fbe 072e 39bd a7ea 11be 103b b63e
000001f0: 6164 5cbe 33da f3bc b30e 033d 806c 083d
00000200: 6362 953d fae5 333d d8ff a8bd 5e63 2f3d
00000210: 938f d83d 9e7e 6cbd d7e3 583d 842d 42be
00000220: 6c9d 2e3d c241 e73d 0b22 9dbc 3ce1 bb3c
00000230: 34de 4a3d c907 843d 9f48 96bd 8e2e b03c
00000240: 22d3 b83d 4a0b a53d e573 d0bd a41d 143e
00000250: 119c 663d 2856 a53d 4c2a 86bb 062f aa3d
00000260: 0ff7 b73d 8480 3ebd 503f 583d dbd7 b73d
00000270: c431 44bc 909f 9bbc 97e0 573d 939b 5e3d
00000280: 46cf 53bd 6625 e83b 20ab fbbd c028 0a3e
00000290: 7b72 f5bb 795f 413b a7b7 4abc 1515 f23d
000002a0: e9a0 4a3d 3aaf d9bd ec8b 24ba 201c edbd
000002b0: c92e a5bd d6a2 10be 5991 963d b0e0 4fbc
000002c0: 4736 a8bd 4e44 93bc 21e7 1abd 45b7 003e
000002d0: 0834 22bd 897a 423d 36f1 d33d ca32 89bc
000002e0: 1861 c13d 6bb1 19be b9d6 293e def2 85bc
000002f0: 5610 873d 09d6 39bb 410d c63d 1047 ab3d
00000300: 4d29 b53d 4a72 2abd da2a 6fbd a31d 2cbe
00000310: 39d6 9a3e 3d32 843c 81c4 c4bd 92cd e43d
00000320: 7219 2f3d b0b4 2cbe 3cf0 0e3c 898b 8a3d
00000330: 2363 19be d4d3 c8bd d716 893d 407b 2d3e
00000340: dfa6 57bd 7d95 a9bd 95fb fc3d e76f 873a
00000350: bad5 fc3d 67dd f0ba d089 d7bd 42b5 94bd
00000360: 7790 ac3d 4354 37bc d14c 543d 1a06 aebd
00000370: a73d 55bd 8605 43be 6ee3 6fbd c2b9 49be
00000380: c238 0abe f3bf 0abc 3c82 843d ab3c f8bc
00000390: 3c2f c83d 2484 08be 6aa1 343d 4b84 fa3d
000003a0: e404 6bbe 7995 383c 264b 51bd 7242 173e
000003b0: 8eeb 41bd c81e f3bd 351c 293d 5ddb 2dbd
000003c0: 7e15 28be 1d76 09bd 1abe eebd 0c2f ee3d
000003d0: 3d23 f0bd a1c2 ba3c aca2 25be 8512 1b3d
000003e0: c30a d0bc 636a 28be ba06 d6bc c669 6fbd
000003f0: 6c00 26be 7cf6 fe3d f96b 54bd 20a3 f0bc
0.09547956 -0.08154891 -0.1884394 -0.14464402 -0.14546363 -0.14033604 0.021725724 0.16093111
-0.034021433 -0.13191001 0.04343097 0.04668206 -0.20927258 -0.1220985 -0.008960688 -0.17870595
-0.13297364 -0.15294482 0.0045576137 -0.009896733 0.061646357 -0.12073911 -0.10189291 -0.17573917
-0.21789415 0.08001134 -0.028985025 -0.059775494 0.09842507 -0.073950775 -0.2744287 -0.22766058
-0.05567431 -0.027831368 0.0878019 0.07630551 0.0018786439 -0.073739424 -0.061186843 0.019061804
-0.019498916 0.03974249 0.088882245 0.02430649 -0.066929504 -0.27011272 0.043986455 0.021375433
-0.16911408 0.007866492 -0.04154249 0.13867964 -0.045695696 -0.16500767 0.09739667 0.0292104
-0.014804149 0.08034154 0.09854615 -0.016387733 -0.0154324155 0.04330237 0.010685301 -0.031302415
-0.1307947 -0.077070184 -0.090192534 -0.12198883 0.44051722 0.0735257 -0.16224748 -0.12543225
-0.33978423 -0.063067764 -0.20617767 -0.22553217 -0.26271203 -0.22758341 -0.15355742 0.30639622
-0.1259922 0.20028381 0.010393398 0.08234179 -0.1685153 -0.07089268 -0.33783484 -0.03970524
0.018137695 -0.017594254 -0.34936932 -0.047091283 -0.36399618 -0.16280709 -0.18167627 -0.046685763
-0.18718605 0.081287585 -0.12350195 -0.008844704 -0.09231229 -0.032209996 -0.20029134 -0.121150814
-0.14017427 -0.070126355 -0.036458943 -0.12924822 -0.26254275 0.033529717 -0.17763667 -0.06946305
-0.049721565 -0.42334956 -0.060768783 -0.18199089 -0.30818623 0.07155681 -0.11515485 0.2865374
-0.2334066 -0.04520991 -0.14249669 0.35591936 -0.21522667 -0.029767131 0.03199644 0.0333066
0.072941564 0.043920495 -0.08251923 0.042819373 0.105742596 -0.05773794 0.05295166 -0.18962675
0.042630598 0.11291839 -0.019181272 0.022934549 0.049528316 0.064467974 -0.0733807 0.021506574
0.090246454 0.08058794 -0.10178355 0.14464432 0.05630118 0.080730736 -0.0040943976 0.0830975
0.089826696 -0.04650928 0.052794755 0.08976718 -0.011974756 -0.018996984 0.05270442 0.054347586
-0.051711343 0.0070845364 -0.12288499 0.13492107 -0.007490454 0.002950637 -0.012372888 0.11820427
0.049469862 -0.10629125 -0.00062769535 -0.1157763 -0.08065564 -0.14124617 0.073519416 -0.012687847
-0.082134776 -0.017976906 -0.037818078 0.12569912 -0.039600402 0.04748014 0.10348742 -0.01674785
0.09442347 -0.15009086 0.16585816 -0.01635116 0.06594913 -0.0028356335 0.09670497 0.083631635
0.08845768 -0.0416129 -0.058390476 -0.1680818 0.30241564 0.016137237 -0.09607793 0.11172022
0.042748876 -0.16865802 0.0087242685 0.067648955 -0.14979224 -0.09806028 0.066938095 0.16941547
-0.052649375 -0.08280466 0.12352673 0.0010333032 0.123454526 -0.001837653 -0.105243325 -0.07261135
0.08425992 -0.011189523 0.05183107 -0.084972575 -0.05206075 -0.19045076 -0.058566503 -0.19699767
-0.13498214 -0.008468616 0.06470153 -0.030302366 0.09774634 -0.13331658 0.04409925 0.12232264
-0.22951084 0.011266106 -0.051097058 0.1477144 -0.047343783 -0.118711054 0.041286666 -0.04244553
-0.16414449 -0.033559907 -0.11657353 0.11630067 -0.11725471 0.022797884 -0.16175336 0.03785946
-0.025395757 -0.16446833 -0.026126254 -0.058450483 -0.16211098 0.12449357 -0.051860783 -0.029374659

memory_rnn.bias_hh f4 [256]
00000000: 396d 86bd 89c5 ac3d 5176 dcbd 74c6 8bbd
00000010: 415d 5f3d 580c 41bd 45ad d3bc fbac a43d
00000020: 518c 043c d167 99bd 62b7 1d3d 1656 533e
00000030: 5802 12bd 82c3 acbd ead6 383d 31d8 2bbe
00000040: 879e b0bc 8e51 2abc 5a3a d73d d432 04be
00000050: 1ef3 073e e46a 883d 1388 02be a786 0cbe
00000060: f304 f5b9 e732 25bd aa33 943b fec4 703d
00000070: aa89 79bd 6f79 4ebe 97ce b0bd aa34 4fbe
00000080: f362 ff3b a13c 29be 2e7d 44bd be3c 4a3e
00000090: 58a4 48bd a9fa edbc 621e 963d 9303 6fbb
000000a0: 3294 4ebd 1897 1ebe 865d b43c ddc8 013d
000000b0: d65b ccbd fdf3 4fbe a110 a63d c577 c4bd
000000c0: 0700 bdbd ab22 0a3d add6 bbbd 1010 253c
000000d0: 3d20 cbbd 2b64 9e3d 2778 823c 6a9c 45bd
000000e0: e52e c0bb f7aa ae3d ae95 513c 09aa 3ebd
000000f0: 124c 38bd e23f debd 1cd7 1ebe 2a7a 6f3d
00000100: 3b8e 16be b6a5 5939 b36e 71bd 74e0 ed3d
00000110: d5d4 e53e ca35 813c 0afa 54be 12bf b2bd
00000120: 636e b8be 9e50 48be 604e e1bd 74e6 d3bd
00000130: f8bd 72be d92b b6be d6bc 773c aa22 ba3e
00000140: 9592 2ebe 98ab 023e 4fff 57bd e889 b23d
00000150: 2cba 7bbe 8fff 54bc 50eb bfbe 778b 90bd
00000160: 5442 f33d 75be 7bbd cf18 74be 94a7 5bbe
00000170: c2e6 55be 975b 60be dfe9 72be 373e 36be
00000180: 7d11 0bbe 3bf7 873d 6ebc 80be 43ba 22bd
00000190: 0e6f d13d 230c db3d 58d6 52be f102 39bd
000001a0: a62c a6bd dd8c 35bd 8425 29be 91f3 d2bd
000001b0: e676 fcbd b7ee 52bd 8f30 3abe 1a7d 18bd
000001c0: 25b4 7abc b09b ebbe de04 11be 86f3 79be
000001d0: 62e3 bdbd c712 343c adf5 84bd 420e 423e
000001e0: c1a7 35be b616 c3bd 3d70 91be 9a7b 9d3e
000001f0: f1be 79be 9b10 17be 46e1 8abd a62f 103e
00000200: f16b 63bc 2c55 5f3d 8851 a6bd df5d 7d3d
00000210: cb10 1a3e 3091 263d 3e36 0bbe 237a ccbd
00000220: 4fe2 1a3e c543 8d3d d702 26bc fe5f 0b3e
00000230: 3f99 c93c 0cce 023d 4e31 a2bc d02f 893d
00000240: 6894 be3d aeb3 683d 6953 1abe c9a8 923d
00000250: 1774 c53d 6e5a d6bd b444 cd3b b2e2 ce3d
00000260: 3a80 33bc f8d8 013e aae5 833d fb27 cc3d
00000270: 2f31 503c 951f 89bc 698c dfbd 71a2 bcbd
00000280: c7e0 bdba 8c24 063e 81fa 66bd e1a8 053e
00000290: 1603 59bd ab13 02be fc27 adbd f072 f33d
000002a0: 4864 2fbe 0266 efbb 8873 2d3e 4c0a 28bd
000002b0: 740b 1dbd 1d25 7b3d 3e70 0b3e 2082 38bc
000002c0: 0e8b ffbc 048c 533d f7f8 a0bd 2990 ba3d
000002d0: fe1a 82bc 12c5 98bd 5e7e c33d 6e70 00bb
000002e0: 38e2 df3d 7d1d debd ed42 bf3d 1280 11bd
000002f0: 1364 d7bd 699e 74bc f923 9e3c c39d 5abb
00000300: 72c3 cc3d e8f7 593d 1633 01be 2bc3 12ba
00000310: 7a37 fe3d 6599 f13c 15f7 1d3d 30bf ae3c
00000320: 08bc b23d b0fa 5fbe 6fee 8fbd 6770 1d3e
00000330: 72a4 8ebe b7fa a1bd 026d 873e d20c 8a3d
00000340: 29ec 52be 6f18 1e3d b88e 69bc 2f8c aebd
00000350: f4ac ee3d fb12 d2bd df0e cfbb 1a7e 43be
00000360: 9901 d4bd 3743 0c3c ab9b 04bd 6f1c c13c
00000370: a5aa ea3d 8769 05be ceda 55bd 8c0a 3dbe
00000380: 79a1 3bbd b9fb c03d 5631 0abe 492e 263d
00000390: 66a1 053e eaeb ef3c 7912 21be e262 3e3e
000003a0: a55f 0dbe 7606 25bd 695d f43d 3af7 813d
000003b0: 43f6 4bbd e41a c5bd bb3c 123d 592b 43be
000003c0: 8b1a 9dbd 1c8f a53d 3853 fdbc 63c7 98bc
000003d0: 72b7 2cbd 7dcc e5bc 82b2 24be 6e48 eb3d
000003e0: 677f 5fbd f221 4d3d 8e5d abbd eb76 023e
000003f0: 4cf1 b9bd 9a9a 7dbd 5de3 633d 32d3 52bd
-0.06563801 0.08436114 -0.107647546 -0.06824961 0.054532293 -0.047130913 -0.025839457 0.08040806
0.008090095 -0.074905045 0.038504966 0.20638308 -0.035646766 -0.08435728 0.045126833 -0.16781689
-0.021559967 -0.010395421 0.105091766 -0.12910014 0.13276336 0.06661013 -0.1274722 -0.13723241
-0.0004673373 -0.040331747 0.0045227604 0.058781616 -0.060922302 -0.2016351 -0.08633154 -0.20234933
0.007793778 -0.16527034 -0.047970943 0.19749734 -0.048984855 -0.029050188 0.07330014 -0.0036470636
-0.0504343 -0.15487325 0.022017252 0.0316857 -0.09978454 -0.20307918 0.081086405 -0.09593157
-0.09228521 0.03372447 -0.091718055 0.01007463 -0.09918258 0.07733949 0.015926434 -0.04824487
-0.0058649653 0.08528703 0.012792034 -0.046548877 -0.04499442 -0.108520284 -0.15511745 0.058466114
-0.14702694 0.00020756465 -0.05894346 0.11615077 0.4488894 0.015772719 -0.20798507 -0.0872785
-0.36021718 -0.19562003 -0.11001277 -0.1034669 -0.2370528 -0.35580328 0.015120706 0.36354572
-0.17048104 0.1276077 -0.052733716 0.0871771 -0.24582738 -0.013000383 -0.37484217 -0.07057851
0.118778855 -0.06146093 -0.23837589 -0.21450645 -0.20888808 -0.21909939 -0.23722027 -0.1779717
-0.1358089 0.06638952 -0.2514376 -0.039728414 0.1022626 0.10695674 -0.20589578 -0.04516882
-0.08113985 -0.04432379 -0.16518217 -0.10300363 -0.123273656 -0.051497187 -0.18182586 -0.03722868
-0.015301739 -0.46017218 -0.14162013 -0.24409303 -0.092718855 0.010990805 -0.064921714 0.18950751
-0.17739774 -0.09525816 -0.28405944 0.30758363 -0.24389245 -0.14752428 -0.06781249 0.14080676
-0.013880716 0.054524586 -0.081210196 0.0618571 0.15045469 0.040665805 -0.1359491 -0.09984233
0.15125392 0.06897692 -0.010132513 0.13610837 0.024609206 0.031934783 -0.019798901 0.06698573
0.0930565 0.05681198 -0.15070881 0.071610995 0.09641283 -0.10466467 0.0062642936 0.101018324
-0.010955865 0.12680423 0.06440289 0.09968563 0.012707039 -0.016738692 -0.10915453 -0.09210671
-0.0014486545 0.13099879 -0.056391243 0.13052703 -0.05298146 -0.12702815 -0.08454892 0.11887157
-0.17128098 -0.0073058615 0.16938603 -0.041025445 -0.038341 0.06131469 0.13617036 -0.011261493
-0.031194236 0.0516472 -0.07859986 0.091095276 -0.015882012 -0.07459463 0.09545587 -0.0019598263
0.1093182 -0.10845468 0.09338937 -0.035522528 -0.105171345 -0.014930346 0.019304262 -0.0033358193
0.09998216 0.053214937 -0.12617144 -0.00055985403 0.12412925 0.02949209 0.038565714 0.0213314
0.0872727 -0.21872973 -0.070278995 0.1537491 -0.27859837 -0.07909148 0.26450354 0.067407265
-0.205979 0.03859752 -0.014255218 -0.08522832 0.11654082 -0.102575265 -0.0063189114 -0.19091073
-0.10351867 0.008560947 -0.03237502 0.023573129 0.11458329 -0.13028537 -0.05221062 -0.18461055
-0.04580829 0.09423012 -0.13495383 0.040571485 0.1304985 0.029287297 -0.15729703 0.18592408
-0.13806017 -0.040289365 0.11931879 0.06345983 -0.0497954 -0.096242696 0.03570245 -0.19059505
-0.07671078 0.080839366 -0.03092347 -0.018649762 -0.042167135 -0.02805161 -0.1608372 0.11488424
-0.05456486 0.0500812 -0.083674535 0.12740676 -0.09079227 -0.061915018 0.055636752 -0.051470943
