torch-rl/storage/SimpleCorridor_20M_r8/status.pt (torch, 650065 bytes, 51 tensors)

image_conv.0.weight f4 [16, 3, 2, 2]
0.51624835 -0.29427144 -0.15578422 -0.008742344 -0.07036826 0.071810946 -0.09573647 0.09185
0.040130734 -0.035346568 0.08006719 0.014240861 -0.15618339 -0.31606343 -0.11132703 -0.20543413
0.037711006 0.09220878 0.16245972 -0.054678187 -0.10750443 -0.17434862 -0.04838647 -0.12451734
-0.46137792 -0.2671787 0.036548603 -0.090524085 -0.2497742 0.014792081 -0.03522966 0.05726241
0.19054285 -0.26302278 -0.27447474 -0.13923728 0.1880479 -0.2870665 0.12570173 -0.35752264
0.22105701 -0.43144792 0.24536058 -0.58880067 -0.15207909 0.14838329 -0.15323457 0.08490071
-0.23350987 -0.10634184 -0.3444206 -0.20623188 0.06603939 -0.19640864 0.22172362 0.19778274
-0.0135168135 -0.19268577 0.17579225 0.08959237 -0.36800104 0.32565868 0.14321187 0.0475055
0.03296709 -0.076522455 -0.038340278 -0.08584877 -0.21908084 -0.20485033 0.1570406 -0.067692
-0.042934325 -0.35707158 -0.26885507 -0.075507455 0.08622387 -0.089012586 -0.37892383 0.12003896
-0.20297419 -0.21780798 0.017555594 -0.04919231 0.16508101 -0.27905458 -0.28601635 0.44841227
-0.117606424 0.082204625 0.124652475 -0.13786139 0.057994336 0.06933877 -0.19328493 -0.13696834
0.10590774 -0.09401611 -0.16514413 -0.30518535 0.1598955 -0.41824585 0.11454116 -0.3340761
-0.18660167 -0.24549785 0.27709597 0.015073687 0.12518185 -0.04318647 -0.27385288 0.19399597
0.20901583 -0.1610989 -0.4105573 0.2348627 0.20912638 0.1793361 -0.20891964 -0.20787618
-0.17453618 0.06721399 0.47939277 -0.28947952 0.1554871 -0.23772459 -0.21550487 0.11568944
0.16632622 0.26799875 -0.17927846 0.06264573 0.21252826 0.036343165 0.081190996 0.1337067
0.042598423 -0.007436774 -0.24712801 -0.18256192 -0.1322769 -0.033615023 -0.17694406 0.105612844
-0.15076849 -0.12611623 0.09980278 0.0030872151 -0.22676829 0.12648405 -0.24950315 0.2074658
-0.033373088 -0.009917736 -0.2724747 -0.185796 -0.21123014 -0.12748322 0.48006472 -0.2818439
-0.34721932 0.21320906 0.0110579245 -0.071994826 -0.14938134 0.06258911 -0.10509236 -0.064858004
-0.7123555 -0.6877719 -0.18291195 0.053187914 -0.033649836 -0.14451599 0.1879317 0.16440307
0.19689006 0.009192437 -0.19970298 0.22560239 -0.046546604 0.045994643 -0.40179622 -0.21896745
-0.1715533 0.34355903 -0.24956572 -0.3238853 -0.009802341 -0.15609111 0.10329133 -0.11111845
00000000: da28 043f bfaa 96be e685 1fbe 0c3c 0fbc
00000010: 3c1d 90bd 9e11 933d 7b11 c4bd da1b bc3d
00000020: 2060 243d 90c7 10bd 44fa a33d 8052 693c
00000030: 8aee 1fbe 11d3 a1be 6dff e3bd 535d 52be
00000040: db76 1a3d f5d7 bc3d d75b 263e 3cf6 5fbd
00000050: 482b dcbd 7288 32be e430 46bd f202 ffbd
00000060: ba39 ecbe a6cb 88be fdb3 153d b164 b9bd
00000070: cfc4 7fbe 7c5a 723c fa4c 10bd fd8b 6a3d
00000080: aa1d 433e ecaa 86be f487 8cbe 3894 0ebe
00000090: a18f 403e 61fa 92be f4b7 003e 350d b7be
000000a0: c55c 623e bee6 dcbe ce3f 7b3e a4bb 16bf
000000b0: 9fba 1bbe caf1 173e 86e9 1cbe 6ce0 ad3d
000000c0: 361d 6fbe c0c9 d9bd e657 b0be 732e 53be
000000d0: a93f 873d 591f 49be 840b 633e 8f87 4a3e
000000e0: a075 5dbc 6b4f 45be e202 343e 347c b73d
000000f0: a26a bcbe bcbc a63e 22a6 123e 2195 423d
00000100: 8008 073d ceb7 9cbd b20a 1dbd 7bd1 afbd
00000110: ba56 60be 49c4 51be 40cf 203e 1aa2 8abd
00000120: e7db 2fbd 16d2 b6be 5fa7 89be a7a3 9abd
00000130: 2496 b03d 3b4c b6bd 4e02 c2be fcd6 f53d
00000140: 77d8 4fbe 0e09 5fbe c0d0 8f3c e07d 49bd
00000150: ff0a 293e 3ee0 8ebe bc70 92be 4b96 e53e
00000160: a3db f0bd e65a a83d cc49 ff3d 892b 0dbe
00000170: 788b 6d3d 7c01 8e3d 7cec 45be 6e41 0cbe
00000180: 28e6 d83d 858b c0bd 8b1b 29be 4141 9cbe
00000190: a5bb 233e 5224 d6be 8e94 ea3d 060c abbe
000001a0: 8214 3fbe ca63 7bbe 86df 8d3e a0f7 763c
000001b0: ac2f 003e 4ce4 30bd 7236 8cbe e1a6 463e
000001c0: 3f08 563e 1cf7 24be 9134 d2be d97f 703e
000001d0: 3a25 563e e2a3 373e 08ef 55be 7edd 54be
000001e0: 9db9 32be 7da7 893d f872 f53e a936 94be
000001f0: 0338 1f3e 136e 73be 4fad 5cbe 96ee ec3d
00000200: 6c51 2a3e 2237 893e c694 37be 684c 803d
00000210: 02a1 593e 92dc 143d 7747 a63d 69ea 083e
00000220: af7b 2e3d 2fb0 f3bb 200f 7dbe 83f1 3abe
00000230: 9873 07be e8af 09bd d330 35be 8c4b d83d
00000240: 0e63 1abe 9d24 01be 6665 cc3d e052 4a3b
00000250: f235 68be 0985 013e c17d 7fbe ea71 543e
00000260: 38b2 08bd 007e 22bc ce81 8bbe 4e41 3ebe
00000270: b74c 58be f68a 02be 0bcb f53e d84d 90be
00000280: bbc6 b1be 7a53 5a3e 4c2c 353c 0672 93bd
00000290: 6cf7 18be b82e 803d aa3a d7bd 46d4 84bd
000002a0: ee5c 36bf d211 30bf 454d 3bbe 92db 593d
000002b0: 69d4 09bd 00fc 13be 2b71 403e 4759 283e
000002c0: 8c9d 493e e09b 163c f07e 4cbe 5004 673e
000002d0: a7a7 3ebd e164 3c3d 3cb8 cdbe 0139 60be
000002e0: abab 2fbe f8e6 af3e 288e 7fbe 4bd4 a5be
000002f0: 009a 20bc 59d6 1fbe 688a d33d 1292 e3bd

image_conv.0.bias f4 [16]
-0.23427707 -0.100576065 -0.1060183 -0.19270955 0.02022969 -0.2631826 -0.19227302 -0.31014717
-0.07893352 -0.37536457 0.022123322 -0.17425126 -0.035490353 -0.07380836 -0.17261562 0.018679677
00000000: 54e6 6fbe d3fa cdbd 1f20 d9bd a755 45be
00000010: bcb8 a53c dfbf 86be 38e3 44be 9ccb 9ebe
00000020: e6a7 a1bd c92f c0be f83b b53c ec6e 32be
00000030: 555e 11bd d628 97bd 26c2 30be 1f06 993c

image_conv.3.weight f4 [32, 16, 2, 2]
0.2070095 0.39161792 -0.23971868 -0.06214185 -0.070245214 0.06726079 0.09140643 -0.043886684
0.19777574 -0.045512926 -0.1234552 0.038279366 0.20722574 0.22570497 -0.014967127 -0.17561866
0.16160738 -0.25326484 -0.13915913 0.0576233 -0.0006797829 0.17189333 -0.17644481 -0.18350594
-0.27537626 0.03421696 -0.13932727 0.1543988 0.015653634 0.30201072 0.061016053 -0.09323768
0.21477549 0.06170523 0.19000158 -0.14575493 -0.04646137 0.32069248 -0.21906538 0.12454433
-0.046523552 0.46182024 -0.005357262 -0.20867449 -0.18836041 0.09658611 0.09844391 -0.09031125
0.18824558 0.10068258 -0.03291467 -0.28051692 0.1836229 0.5863917 -0.26006827 -0.05703139
0.22007887 -0.14965986 -0.13140711 -0.14411339 -0.20989007 -0.013227888 0.064368054 -0.004117322
0.0060099713 0.079294935 -0.0872684 -0.091343924 -0.12157213 -0.029235182 -0.09325757 -0.068562
-0.057927545 0.02242598 0.053636566 -0.0064216107 -0.03754023 -0.11325029 -0.11864725 0.03081786
-0.039301883 -0.0051525775 -0.05475186 -0.10667749 0.014073112 0.013672146 -0.041016594 -0.1443625
-0.091878355 -0.046506327 -0.13031337 -0.11063048 -0.03616964 -0.083344035 0.026376273 -0.07684837
-0.03030751 -0.092705585 -0.14856549 0.035099685 0.011359412 0.0772577 -0.054067817 -0.06894746
-0.16473982 -0.10320093 0.05431977 -0.12516938 -0.07790414 0.016820991 0.038542483 -0.010273528
-0.07768858 -0.046543725 -0.07700179 -0.08797151 0.022170432 -0.05510367 -0.09547245 -0.013885456
-0.10789883 -0.059470534 0.020982612 0.018128317 0.06686085 -0.11459402 -0.037254725 -0.05313401
-0.29501635 0.10493698 -0.19213635 -0.0743775 -0.03370282 -0.15067904 0.00091226085 0.116130486
-0.0050532236 -0.07599563 -0.1217612 -0.042610906 -0.12104101 0.28138292 -0.00279114 0.15901682
0.05257401 -0.15454936 -0.01596753 -0.0486571 -0.050392564 -0.06784279 -0.31022844 -0.21359803
-0.011643649 -0.13179745 -0.022287466 0.21210006 -0.2519361 0.1434039 -0.11833335 -0.21502982
0.085926615 0.2742638 -0.1746832 0.116541356 0.09399318 -0.023175526 -0.039016146 0.21743289
-0.028601937 0.3222028 -0.18882601 -0.009859379 0.043378998 -0.17260732 0.08664976 -0.32973623
-0.22950688 0.18633182 -0.19420467 0.15648882 -0.2644625 0.27924156 0.003030317 -0.16814199
0.08601021 -0.2286642 -0.08730271 -0.09150472 0.042240854 0.1339905 0.3675834 -0.33346203
0.055881828 0.07349537 0.057065625 -0.17463198 0.09429979 -0.1667539 0.0661953 -0.21889096
0.0795637 -0.021645026 -0.024308426 -0.05780595 0.002994595 -0.06301339 -0.13860041 0.08942051
-0.103797756 0.08342576 -0.0059731267 -0.11177776 -0.32769296 0.1181781 0.39781696 0.052214246
0.065756336 0.1151662 0.12353299 -0.21304937 0.2626526 -0.16978008 0.26664212 0.025326397
0.12144436 0.0048965197 -0.04182932 -0.14003626 0.28334045 -0.26832458 0.039908312 -0.0015493646
-0.013382472 0.26911533 -0.16502228 0.17641847 0.08756433 -0.16671424 -0.21459231 -0.05335552
-0.2872299 -0.12167724 -0.058568317 -0.13242066 -0.033831503 0.0035936444 0.0376139 0.056943726
0.0069960877 -0.102618895 0.29593027 -0.0319807 0.17127837 -0.4294412 0.08113206 -0.1679009
00000000: 4cfa 533e 2582 c83e d078 75be 7488 7ebd
00000010: b9dc 8fbd 06c0 893d 4b33 bb3d 86c2 33bd
00000020: b985 4a3e c36b 3abd 14d6 fcbd d3ca 1c3d
00000030: fc32 543e 341f 673e ae38 75bc 61d5 33be
00000040: 687c 253e eeab 81be bb7f 0ebe 6906 6c3d
00000050: 7533 32ba ce04 303e f3ad 34be fbe8 3bbe
00000060: 1efe 8cbe 1527 0c3d cfab 0ebe b81a 1e3e
00000070: 0d3c 803c 26a1 9a3e f8eb 793d 66f3 bebd
00000080: 1bee 5b3e a0be 7c3d c68f 423e c840 15be
00000090: 474e 3ebd ce31 a43e ad52 60be 1911 ff3d
000000a0: 7b8f 3ebd b473 ec3e f98b afbb c4ae 55be
000000b0: 8de1 40be f0ce c53d f69c c93d 1bf5 b8bd
000000c0: 73c3 403e ab32 ce3d 88d1 06bd ea9f 8fbe
000000d0: a407 3c3e c41d 163f ab27 85be bf99 69bd
000000e0: 5b5c 613e 6f40 19be 968f 06be 7692 13be
000000f0: 6ced 56be c9b9 58bc 66d3 833d 9aea 86bb
00000100: 4bef c43b 6265 a23d c6b9 b2bd 8612 bbbd
00000110: cffa f8bd 9f7e efbc d3fd bebd 3c6a 8cbd
00000120: 6f45 6dbd b0b6 b73c 04b2 5b3d 606c d2bb
00000130: c9c3 19bd c5ef e7bd 54fd f2bd bd75 fc3c
00000140: 03fb 20bd f4d6 a8bb 7d43 60bd ba79 dabd
00000150: e992 663c 2301 603c 0401 28bd c3d3 13be
00000160: b82a bcbd 6b7d 3ebd de70 05be 3c92 e2bd
00000170: 9e26 14bd 47b0 aabd 0e13 d83c ae62 9dbd
00000180: 7547 f8bc 6ddc bdbd 8d21 18be b0c4 0f3d
00000190: d41c 3a3c 4939 9e3d 3776 5dbd 5334 8dbd
000001a0: 8eb1 28be 025b d3bd 687e 5e3d 672c 00be
000001b0: 358c 9fbd 2dcc 893c b9de 1d3d 4d52 28bc
000001c0: 311b 9fbd a2a4 3ebd 1db3 9dbd 682a b4bd
000001d0: c49e b53c 63b4 61bd 0f87 c3bd d37f 63bc
000001e0: 10fa dcbd 6097 73bd bae3 ab3c d681 943c
000001f0: 57ee 883d 45b0 eabd 6998 18bd 0ca3 59bd
00000200: 620c 97be 33e9 d63d 64bf 44be 3b53 98bd
00000210: f80b 0abd 9b4b 1abe ca24 6f3a d2d5 ed3d
00000220: 8395 a5bb 99a3 9bbd f05d f9bd c688 2ebd
00000230: 59e4 f7bd 6c11 903e 8feb 36bb 4ed5 223e
00000240: d857 573d 3042 1ebe 56ce 82bc ab4c 47bd
00000250: 6f68 4ebd 29f1 8abd 43d6 9ebe 71b9 5abe
00000260: 01c5 3ebc e9f5 06be 3494 b6bc c230 593e
00000270: c5fd 80be 79d8 123e c158 f2bd c730 5cbe
00000280: 4bfa af3d 4e6c 8c3e 27e0 32be 3cad ee3d
00000290: 7f7f c03d 9ada bdbc 65cf 1fbd baa6 5e3e
000002a0: 9c4e eabc c4f7 a43e 9b5b 41be 3c89 21bc
000002b0: 2dae 313d f9bf 30be 6e75 b13d 30d3 a8be
000002c0: da03 6bbe c5cd 3e3e 97dd 46be 9b3e 203e
000002d0: a167 87be c0f8 8e3e 4898 463b 6a2d 2cbe
000002e0: 1f26 b03d f326 6abe c3cb b2bd d466 bbbd
000002f0: bf04 2d3d ce34 093e e433 bc3e 89bb aabe
00000300: 58e4 643d be84 963d a5bd 693d bad2 32be
00000310: 4020 c13d 89c1 2abe 6791 873d f424 60be
00000320: 4bf2 a23d e950 b1bc 7722 c7bc efc5 6cbd
00000330: f840 443b 2a0d 81bd 44ed 0dbe 1a22 b73d
00000340: eb93 d4bd 20db aa3d 38ba c3bb bdeb e4bd
00000350: 5fc7 a7be 5c07 f23d aaae cb3e 9bde 553d
00000360: 42ab 863d 42dc eb3d ddfe fc3d 9d29 5abe
00000370: 677a 863e d4da 2dbe 5185 883e 4e79 cf3c
00000380: d2b7 f83d fc72 a03b 3955 2bbd aa65 0fbe
00000390: 0012 913e d761 89be e676 233d 0d14 cbba
000003a0: 2842 5bbc 7cc9 893e 9afb 28be 0ba7 343e
000003b0: ed54 b33d 23b7 2abe 16be 5bbe 518b 5abd
000003c0: cc0f 93be eb31 f9bd 55e5 6fbd 4899 07be
000003d0: e792 0abd 5983 6b3b 0811 1a3d d33d 693d
000003e0: 703f e53b db29 d2bd 2c84 973e 32fe 02bd
000003f0: 9963 2f3e b8df dbbe 9128 a63d 37ee 2bbe

image_conv.3.bias f4 [32]
-0.19015512 -0.11687619 -0.06325696 -0.3310113 -0.02117796 -0.17657171 -0.16270699 -0.075813845
-0.08326858 0.154119 -0.040737797 -0.09735864 -0.10221019 -0.16537201 -0.07602835 0.015105284
0.01567873 0.02240394 -0.16057827 0.14010815 -0.005370109 -0.047605883 -0.17053391 -0.26926434
-0.17345528 -0.11399692 -0.1381902 -0.23866491 0.0038012657 -0.16750775 -0.04774101 0.09482197
00000000: 06b8 42be c95c efbd dd8c 81bd 507a a9be
00000010: 677d adbc 37cf 34be a99c 26be 4a44 9bbd
00000020: b888 aabd 5fd1 1d3e addc 26bd f763 c7bd
00000030: 9353 d1bd 4857 29be c0b4 9bbd 277c 773c
00000040: ae70 803c 7888 b73c a16e 24be 8378 0f3e
00000050: bdf7 afbb 63fe 42bd 71a0 2ebe 04dd 89be
00000060: 439e 31be 3877 e9bd bb81 0dbe 9364 74be
00000070: a81e 793b 2787 2bbe 148c 43bd 0532 c23d

image_conv.5.weight f4 [64, 32, 2, 2]
-0.16043478 -0.27954337 -0.07534721 -0.027685564 0.061004974 0.035423573 -0.009678391 0.008306405
0.12731023 -0.14048797 0.024758952 -0.12097615 -0.051522132 0.07195985 0.29805073 -0.22321644
0.08268132 -0.21105936 0.5611393 0.19176833 -0.036933016 -0.06910756 0.20847404 0.036850348
0.10772309 0.094452314 0.350775 0.27771875 -0.080169775 0.017524004 0.010685516 0.08112308
0.054826204 0.20794441 0.19628006 0.046525057 -0.2268381 0.17456988 -0.08675333 0.17628343
0.45653343 0.1789998 0.26081264 -0.33642906 0.13825071 -0.08423125 -0.42120427 -0.21252637
0.044013463 -0.15787172 -0.05921755 -0.17588884 0.18624254 -0.18927206 0.309792 -0.056138325
0.14399871 -0.3645456 0.33213785 0.41510862 -0.3137586 -0.08929804 0.06604349 -0.1055935
0.032405116 0.068157226 -0.018603882 -0.059800144 -0.12315937 0.027107203 -0.025441004 -0.3760612
-0.021634415 -0.01871229 -0.068310164 -0.06458749 0.08010007 0.21112877 0.048304066 0.24298523
0.20352803 -0.056778833 -0.02832413 0.05799231 0.33526754 0.034881085 -0.30541927 0.19693492
0.24974535 0.19685732 0.27528977 -0.21000628 -0.2017205 -0.082944565 0.056657895 0.3533892
0.3224738 -0.2634657 0.6377058 0.07909459 -0.008417959 -0.15168077 0.12267092 -0.19126783
-0.021383293 -0.12300288 0.32510796 0.09125547 0.08828189 -0.2829493 -0.30189472 -0.19457588
-0.20273435 0.271954 0.118729 0.17219362 0.07226559 -0.146856 0.012251818 0.020253142
0.13207428 0.0750025 0.43496376 0.23821066 0.050468028 -0.1045428 0.27742302 0.15283574
0.22925305 0.001092088 -0.003675555 -0.026628237 0.055260096 0.0008325846 -0.07007339 0.06159648
0.0524584 -0.037373688 0.052812427 0.06794596 -0.121718585 0.08384669 0.20835002 0.093954474
0.14919747 0.18046542 0.14784572 -0.23794675 -0.28751308 -0.3277552 0.17408279 0.012571064
-0.057257745 0.005493311 -0.18710354 0.029743653 0.013015978 0.061048143 0.043069195 -0.061882026
0.37459198 -0.09823234 -0.1610612 -0.3331178 0.003574157 0.10572814 -0.1245358 0.05838088
-0.047766782 -0.18276595 0.10425678 -0.37075225 0.14790109 -0.10865591 -0.14817646 -0.016181314
0.09979753 0.008031537 -0.30314025 -0.032279626 -0.22440921 0.11875762 0.051880658 0.018893966
0.116490535 -0.06688235 -0.17422923 0.043554816 0.08178894 -0.07487683 0.24952188 -0.20237759
-0.09557219 0.0048928093 -0.22706719 0.08072888 0.15840825 0.22490175 0.24375722 0.02169912
0.31429952 -0.07460601 0.089168414 0.08674453 0.13623522 0.27469128 0.3559148 0.57531935
0.27028662 -0.06697358 -0.15139636 -0.44720945 0.03329317 -0.03613221 0.09492644 0.068899356
0.110487595 0.2499365 0.0961506 0.11782268 -0.16116701 0.104048535 0.0034983042 0.07641895
-0.3133272 0.29410365 0.06696872 -0.0535877 -0.0056314887 -0.15024161 0.08846581 0.18669389
0.022950212 -0.12780102 0.19812101 0.345336 0.1193851 0.19340429 -0.013354793 -0.06666968
-0.037265453 -0.031575903 -0.19578838 -0.16294016 0.0011215279 0.09910872 -0.14494798 -0.2166168
0.10186307 0.024863157 0.05693275 -0.06515069 0.06721987 0.11034136 0.16905159 0.14605582
00000000: 0449 24be 4f20 8fbe a34f 9abd d6cc e2bc
00000010: 5ae0 793d 4f18 113d 1d92 1ebc 9617 083c
00000020: 9d5d 023e 14dc 0fbe 49d3 ca3c 58c2 f7bd
00000030: df08 53bd b05f 933d 1b9a 983e da92 64be
00000040: d354 a93d f21f 58be d3a6 0f3f eb5e 443e
00000050: 1347 17bd 4488 8dbd 387a 553e 64f0 163d
00000060: ec9d dc3d 3770 c13d c898 b33e 2731 8e3e
00000070: 0d30 a4bd 808e 8f3c 4d12 2f3c db23 a63d
00000080: 7191 603d 61ef 543e a4fd 483e 0f91 3e3d
00000090: 3f48 68be 72c2 323e bbab b1bd a583 343e
000000a0: c0be e93e b94b 373e 3c89 853e 6e40 acbe
000000b0: 9891 0d3e 6f81 acbd 16a8 d7be 83a0 59be
000000c0: 7647 343d 20a9 21be 1a8e 72bd 341c 34be
000000d0: 5db6 3e3e 89d0 41be 0f9d 9e3e 4df1 65bd
000000e0: 6674 133e b9a5 babe f90d aa3e 1e89 d43e
000000f0: f8a4 a0be e4e1 b6bd cf41 873d 6841 d8bd
00000100: 3abb 043d 0496 8b3d 2b67 98bc fff0 74bd
00000110: fb3a fcbd ed0f de3c a769 d0bc 188b c0be
00000120: a83a b1bc 844a 99bc 33e6 8bbd 7246 84bd
00000130: 810b a43d 2432 583e 7cda 453d 1fd1 783e
00000140: a769 503e ec90 68bd 0208 e8bc 5889 6d3d
00000150: 30a8 ab3e 78df 0e3d ea5f 9cbe 4fa9 493e
00000160: 3fbd 7f3e f794 493e c8f2 8c3e e30b 57be
00000170: d28f 4ebe d7de a9bd 1c12 683d 6eef b43e
00000180: 491b a53e fae4 86be b040 233f 58fc a13d
00000190: 7beb 09bc 3452 1bbe e43a fb3d b7db 43be
000001a0: 042c afbc efe8 fbbd 8d74 a63e 26e4 ba3d
000001b0: 23cd b43d bbde 90be f291 9abe e63e 47be
000001c0: 9899 4fbe 8e3d 8b3e 3128 f33d 8653 303e
000001d0: fbff 933d 6b61 16be d9bb 483c ebe9 a53c
000001e0: 7b3e 073e e99a 993d 92b3 de3e 7fed 733e
000001f0: 90b7 4e3d 891a d6bd 640a 8e3e f980 1c3e
00000200: 50c1 6a3e 6424 8f3a 95e1 70bb 7623 dabc
00000210: 6958 623d cf41 5a3a a382 8fbd 974c 7c3d
00000220: 9fde 563d 2715 19bd d851 583d 4027 8b3d
00000230: 9847 f9bd d0b7 ab3d b559 553e 346b c03d
00000240: 39c7 183e edcb 383e de64 173e 50a8 73be
00000250: ea34 93be 88cf a7be c242 323e ddf6 4d3c
00000260: 1987 6abd 3c01 b43b 1298 3fbe f6a8 f33c
00000270: f840 553c 9e0d 7a3d 5369 303d 0278 7dbd
00000280: 85ca bf3e 092e c9bd 3aed 24be 6b8e aabe
00000290: 673c 6a3b ff87 d83d a00c ffbd ca20 6f3d
000002a0: 1aa7 43bd ff26 3bbe 9484 d53d 3dd3 bdbe
000002b0: 6273 173e fd86 debd 92bb 17be ad8e 84bc
000002c0: a662 cc3d b596 033c 3335 9bbe a437 04bd
000002d0: 87cb 65be 3237 f33d d080 543d 85c7 9a3c
000002e0: 9792 ee3d 9df9 88bd 2669 32be 8966 323d
000002f0: f680 a73d 0659 99bd aa82 7f3e 123c 4fbe
00000300: 5abb c3bd dc53 a03b 4d84 68be 2f55 a53d
00000310: c635 223e a54c 663e 7e9b 793e 5ac2 b13c
00000320: deeb a03e 09cb 98bd ee9d b63d 1ea7 b13d
00000330: 3f81 0b3e 56a4 8c3e 773a b63e 2148 133f
00000340: 0263 8a3e 7229 89bd a607 1bbe a3f8 e4be
00000350: 6b5e 083d 5eff 13bd cb68 c23d 1b1b 8d3d
00000360: 5247 e23d 5bef 7f3e 9bea c43d 044d f13d
00000370: f708 25be 6617 d53d ce43 653b 8a81 9c3d
00000380: 6c6c a0be c194 963e e526 893d c77e 5bbd
00000390: 5a88 b8bb f0d8 19be 902d b53d af2c 3f3e
000003a0: 1502 bc3c 45de 02be 3ce0 4a3e e1cf b03e
000003b0: 2d80 f43d c60b 463e 10ce 5abc 1d8a 88bd
000003c0: a9a3 18bd bc55 01bd c07c 48be c9d9 26be
000003d0: 3b00 933a 83f9 ca3d 3e6d 14be cbd0 5dbe
000003e0: 969d d03d d2ad cb3c 5132 693d ba6d 85bd
000003f0: 92aa 893d a7fa e13d dc1b 2d3e a88f 153e

image_conv.5.bias f4 [64]
-0.13203977 -0.10899779 -0.08998328 -0.17381772 -0.04736923 -0.06967828 0.0180826 0.15379643
0.020926254 -0.06854295 -0.11263125 0.19832529 -0.058064155 -0.030488186 -0.07259899 -0.050224412
-0.10497087 0.17157635 0.10986943 0.048320487 -0.07522948 -0.027276471 -0.29383674 -0.0750617
-0.040676497 0.1371315 0.19021559 -0.10998113 0.15168726 -0.14112285 0.088931166 0.030385178
-0.08322289 -0.14407444 0.04045629 -0.060499318 -0.13461441 -0.13304445 -0.09363833 -0.072764724
-0.029720534 -0.026215214 -0.114406615 -0.062054746 -0.02911159 0.04235908 -0.0111179575 -0.07133713
0.03269894 -0.01869621 -0.13950443 0.020239387 0.11007076 0.06863383 -0.070558235 0.020075193
-0.1719823 0.26581848 0.006553465 -0.11880374 0.26879272 -0.1304964 0.04222097 -0.1971548
00000000: 6f35 07be 3c3a dfbd 2749 b8bd 46fd 31be
00000010: 3d06 42bd 7cb3 8ebd f621 943c d07c 1d3e
00000020: 896d ab3c 3f60 8cbd 36ab e6bd c915 4b3e
00000030: aed4 6dbd 5cc2 f9bc c7ae 94bd 1db8 4dbd
00000040: f8fa d6bd b6b1 2f3e 3903 e13d b4eb 453d
00000050: ea11 9abd e872 dfbc c571 96be f3b9 99bd
00000060: 669c 26bd 336c 0c3e e0c7 423e c93d e1bd
00000070: e853 1b3e 8282 10be 8b21 b63d 56ea f83c
00000080: c370 aabd 4088 13be 7fb5 253d 22ce 77bd
00000090: 5cd8 09be ce3c 08be 74c5 bfbd ac05 95bd
000000a0: 7a78 f3bc 4ac1 d6bc 044e eabd 1e2d 7ebd
000000b0: 6e7b eebc b780 2d3d 1828 36bc 3419 92bd
000000c0: 53ef 053d cb28 99bc 40da 0ebe 12cd a53c
000000d0: c76c e13d e58f 8c3d d680 90bd bb74 a43c
000000e0: 211c 30be 5c19 883e 73be d63b 604f f3bd
000000f0: 339f 893e d9a0 05be e5ef 2c3d f3e2 49be

memory_rnn.weight_ih f4 [256, 64]
-0.010244967 0.07622671 0.068756126 0.12516136 0.020308644 -0.013367631 -0.023935642 -0.2829162
0.22572064 0.018673917 0.00037181817 0.22397935 -0.056091625 0.20671843 -0.06644827 -0.017731503
-0.17719577 0.005096148 -0.063262336 0.103112064 -0.053187013 -0.31263623 0.10630302 -0.011046211
-0.104493044 -0.0060730465 -0.37244698 -0.027833614 0.06324956 -0.08564091 0.0872333 -0.002823226
-0.111766145 -0.022019666 0.096702725 -0.13573715 -0.07925468 -0.0068787034 0.18398501 0.12968072
-0.025217447 -0.054552134 0.0032327683 0.055939127 -0.041979186 0.03442967 0.0946611 -0.1092733
0.34051633 0.12905216 0.07392108 -0.3080034 0.072039574 0.01369595 -0.16946499 -0.015860578
-0.024878388 0.050155617 0.0662945 -0.034112465 -0.35118052 0.0067488467 -0.114537604 0.04024394
0.0488867 -0.06953249 -0.1599899 -0.10885566 -0.09016648 -0.029169261 0.02805949 0.42534673
-0.054717712 -0.046616826 0.044788178 -0.15554886 -0.015275736 0.21289243 -0.05574668 0.045219883
-0.056887086 -0.029556066 0.3968809 -0.16090716 0.022877883 -0.19716695 0.029040473 -0.08590233
0.026295355 -0.19142 -0.111900344 -0.259288 -0.010832219 -0.018157046 -0.0118284095 -0.01472121
0.08986213 -0.1276231 0.01594897 -0.078117356 -0.119460374 -0.027592402 -0.33357787 0.14141598
0.06960423 -0.021051643 -0.19320421 -0.014574305 0.08908614 -0.09108695 0.04150363 0.03708512
0.0857489 -0.17116024 0.07203974 -0.2050703 -0.011664128 -0.32455003 -0.105099835 0.1250842
-0.007296717 0.09391804 -0.20082621 0.007035781 -0.2170466 0.017612308 -0.044060607 -0.14532076
-0.105149545 -0.06936723 -0.09982906 -0.036355596 0.10775487 0.25702113 0.17842129 -0.28688926
0.14806084 0.47561252 0.11591623 0.029122196 -0.03274681 -0.09957225 0.17042403 -0.12125008
0.0130114425 -0.18713593 -0.11142122 -0.13013013 0.09598752 0.29420337 0.05740126 0.099117845
0.035384055 0.36210436 -0.0047477228 0.008243393 0.45032033 -0.03103372 0.48862758 -0.043992605
0.08324258 0.05529127 -0.045188595 0.10582371 0.17440915 -0.0809552 0.0016738235 -0.13177757
0.056550033 -0.0009380613 0.1668275 0.23134133 0.04560196 -0.038054615 -0.1264766 -0.052863237
0.4767487 -0.16041325 0.04304717 -0.13857026 -0.08670293 0.396594 -0.32221955 0.094693564
-0.17437087 -0.06654776 0.22931115 -0.0886835 -0.0868141 -0.091881745 -0.065835804 0.027056288
-0.37750423 0.16132112 0.15409072 0.10270064 0.13375425 0.03648573 0.15187113 0.2551784
0.14692168 -0.11456129 0.02430904 -0.35414866 0.17893945 -0.016333401 -0.030670322 -0.061925057
-0.057654414 -0.04780923 -0.23680809 0.041384216 0.056258053 -0.13820028 0.03095804 0.10234351
-0.046720847 -0.28636563 -0.062097043 0.25474334 -0.13962808 -0.11701393 -0.41661534 0.08081183
-0.0011106669 -0.10789722 0.12243325 -0.10310862 -0.0057509653 0.062280826 -0.04762135 0.016227016
0.038423724 0.07435195 -0.036059644 0.013043786 -0.08592482 -0.13723877 0.0512754 -0.04455453
-0.5197656 -0.19080071 -0.1555864 0.19589828 0.0015264929 -0.026709946 0.22510488 -0.06403474
0.10497904 0.25229204 0.21491964 -0.12572703 -0.009370737 0.15313078 0.07866369 -0.12400632
00000000: 82da 27bc c01c 9c3d 03d0 8c3d 4d2a 003e
00000010: 505e a63c e803 5bbc ae14 c4bc 64da 90be
00000020: 5023 673e 0bfa 983c 97f0 c239 d85a 653e
00000030: 55c0 65bd ffad 533e 0816 88bd a841 91bc
00000040: cf72 35be 96fd a63b af8f 81bd 6b2c d33d
00000050: a0da 59bd db11 a0be 66b5 d93d 2bfb 34bc
00000060: 7300 d6bd 6800 c7bb 5fb1 bebe 5203 e4bc
00000070: fc88 813d 8064 afbd 5fa7 b23d df05 39bb
00000080: a6e5 e4bd 9662 b4bc 140c c63d aefe 0abe
00000090: 4750 a2bd bf66 e1bb 9166 3c3e 06cb 043e
000000a0: d294 cebc 0f72 5fbd dadc 533b 6d20 653d
000000b0: 5ef2 2bbd 2006 0d3d aedd c13d aeca dfbd
000000c0: 2858 ae3e 4026 043e ef63 973d 9fb2 9dbe
000000d0: 7c89 933d fa64 603c 3b88 2dbe 0bee 81bc
000000e0: c3cd cbbc fa6f 4d3d 69c5 873d 83b9 0bbd
000000f0: efcd b3be 6e25 dd3b b192 eabd d4d6 243d
00000100: 6c3d 483d 0d67 8ebd 64d4 23be b7ef debd
00000110: 34a9 b8bd 60f4 eebc 04dd e53c 0cc7 d93e
00000120: ae1f 60bd 49f1 3ebd cf73 373d 3348 1fbe
00000130: 1547 7abc 7900 5a3e a156 64bd 7c38 393d
00000140: 6f02 69bd 901f f2bc f933 cb3e d9c4 24be
00000150: 666a bb3c 22e6 49be 49e6 ed3c 90ed afbd
00000160: 5b69 d73c 9b03 44be 022c e5bd 66c1 84be
00000170: 9f79 31bc 16be 94bc f2cb 41bc 3b31 71bc
00000180: a309 b83d a1af 02be 6aa7 823c fefb 9fbd
00000190: a4a7 f4bd 7609 e2bc b8ca aabe 5acf 103e
000001a0: aa8c 8e3d 7f74 acbc 53d7 45be 11c9 6ebc
000001b0: cb72 b63d cb8b babd b6ff 293d 91e6 173d
000001c0: 1f9d af3d a144 2fbe 9289 933d f3fd 51be
000001d0: e61a 3fbc 6c2b a6be 953e d7bd 1316 003e
000001e0: 4c19 efbb 1a58 c03d 63a5 4dbe 698c e63b
000001f0: 7741 5ebe b047 903c e578 34bd f7ce 14be
00000200: a558 d7bd 6810 8ebd 2e73 ccbd 9be9 14bd
00000210: 96ae dc3d 4698 833e 12b4 363e 26e3 92be
00000220: 439d 173e 7c83 f33e 7d65 ed3d ac91 ee3c
00000230: 8521 06bd 89ec cbbd a383 2e3e f651 f8bd
00000240: f22d 553c 90a0 3fbe cf30 e4bd d540 05be
00000250: 1b95 c43d d3a1 963e 951d 6b3d 4cfe ca3d
00000260: dfee 103d be65 b93e c992 9bbb 4c0f 073c
00000270: 6390 e63e 6e3a febc 652d fa3e 9731 34bd
00000280: 167b aa3d 1979 623d ad17 39bd 1aba d83d
00000290: 5098 323e d7cb a5bd 3264 db3a b3f0 06be
000002a0: 02a1 673d 3ae8 75ba d4d4 2a3e bee4 6c3e
000002b0: 1fc9 3a3d 28df 1bbd 1583 01be 1f87 58bd
000002c0: 6818 f43e 5f43 24be 3b52 303d 5de5 0dbe
000002d0: 4e91 b1bd 5e0e cb3e f6f9 a4be b3ee c13d
000002e0: 478e 32be 314a 88bd 8bd0 6a3e b29f b5bd
000002f0: 97cb b1bd 7f2c bcbd ecd4 86bd 26a5 dd3c
00000300: 3c48 c1be 5d31 253e f5c9 1d3e b754 d23d
00000310: e0f6 083e 1072 153d 1b84 1b3e bea6 823e
00000320: a372 163e 1c9f eabd c023 c73c f952 b5be
00000330: e73b 373e a0cd 85bc 5440 fbbc 21a5 7dbd
00000340: 0927 6cbd 9cd3 43bd d27d 72be 7f82 293d
00000350: d86e 663d 6084 0dbe b79b fd3c 7999 d13d
00000360: 5c5e 3fbd 849e 92be 7859 7ebd b86d 823e
00000370: aafa 0ebe 00a5 efbd 9b4e d5be ac80 a53d
00000380: cc93 91ba 38f9 dcbd 49be fa3d 9d2a d3bd
00000390: 9872 bcbb 2e1a 7f3d 9b0e 43bd 85ee 843c
000003a0: 3262 1d3d d645 983d 47b3 13bd 9bb5 553c
000003b0: 5af9 afbd 5288 0cbe 2706 523d d07e 36bd
000003c0: 5c0f 05bf 4361 43be 0b52 1fbe 8f99 483e
000003d0: 9a14 c83a d1ce dabc e581 663e a524 83bd
000003e0: 40ff d63d 6c2c 813e e513 5c3e 96be 00be
000003f0: b887 19bc 51ce 1c3e 6e1a a13d 07f7 fdbd

memory_rnn.weight_hh f4 [256, 64]
0.13812985 0.233225 0.17326562 -0.25330067 -0.09744482 0.39359874 -0.2710209 -0.00085227925
-0.40679437 -0.42227954 0.2845416 0.09124101 -0.08894963 0.22372866 -0.5430997 0.047616705
0.3662357 0.09198819 -0.44848704 -1.4336607 0.42720357 -0.00674797 0.08627797 -0.011366427
-0.38410783 -0.2923363 0.1446873 0.06952667 0.41944128 0.26989517 0.20045345 -0.37316474
-0.22254683 0.15711348 0.2158671 -0.53405315 -0.010836653 -0.2844994 0.4356 -0.37242702
-0.15683782 0.60212284 -0.08274295 0.10841741 0.1704814 0.007667668 -0.13279755 0.108703405
0.32684734 -0.35166416 0.31816974 0.091571495 0.2945173 -0.31927457 -0.45437783 -0.3974661
0.13274072 0.3741824 0.41784957 1.7409084 -0.4652491 0.17134057 0.40565044 0.066747345
-0.5912146 -0.023180066 0.36425152 -0.0512294 0.08932229 0.2538806 0.116602235 -0.3598198
-0.9284332 0.26001427 0.23253834 0.3673102 -0.14256631 -0.3799357 -0.41961858 0.43897966
0.11276403 0.08087658 0.3859926 -0.89950496 -0.36720696 -0.48311242 0.018455433 -0.35646698
0.08994389 -0.10717996 0.26956448 -0.09703342 0.06511511 -0.34594432 0.19749019 -0.23799153
0.17469333 0.3981162 0.5822092 -0.079842836 -0.12499183 0.14135924 0.09053534 -0.3481622
0.036481846 0.24896199 -0.16207539 -0.009731378 0.2939592 -0.017924475 -0.295927 0.024879575
-0.13788722 -0.60976726 -0.05806618 0.28257087 -0.005468515 0.11223531 0.15510263 0.15044485
0.31848687 0.14761494 -0.25331038 0.4994799 -0.0901589 -0.47750145 -0.12746204 0.11038049
-0.051990647 0.4680205 -0.10840497 0.3205575 -0.020345455 -0.24289083 -0.026971933 -0.7008964
-0.31465435 -0.2710739 -0.6594898 0.42460287 0.5310866 -0.53968644 0.203666 -0.26650608
0.16493161 -0.03589705 -1.0598055 -0.6703619 -0.6391504 -0.027722426 -0.08540793 0.012533507
0.20166121 0.23000512 0.4294486 -0.65158737 0.21018791 0.028528221 0.32114 0.44558334
-0.414762 -0.1119646 0.2010825 -0.3727381 -0.10005642 -0.0017657526 -0.6686949 -0.046449933
-0.086503915 -0.29927784 0.61006826 0.065865315 -0.03254862 0.36417556 -0.3867367 -0.029863672
0.1015126 0.5723337 -0.2421445 -0.23396726 -0.27734876 -0.80773276 0.5844192 8.460977e-07
-0.36305684 0.025962155 0.74389505 0.63092655 -0.1828531 0.77000844 0.545487 0.10521504
-0.07591727 -0.30503052 -0.20392847 0.021910857 0.056923117 0.09740367 -0.050156325 -0.505745
-0.094160475 -0.09024066 -0.022105604 -0.3115315 -0.13907982 -0.5845572 -0.41728625 0.21821466
0.112101525 0.042376354 0.019998753 0.1593046 0.0078469 -0.18454857 -0.25998735 0.32021704
-0.17426471 -0.41100243 0.34404948 -0.36887464 0.23963101 -0.19304332 -0.16891107 -0.30741593
-0.45153838 -0.12359512 -0.19350998 -0.30694482 -0.041902933 -0.07232362 0.28438127 0.1241933
-0.34194586 0.23386407 -0.31609088 0.09210636 -0.051989075 -0.30779386 -0.6384243 -0.3432477
0.04300514 -0.3982533 0.15482141 -0.3173002 -0.032483213 -0.77616256 -0.14816807 -0.11941544
-0.055711605 0.05933673 0.41830465 0.70038676 -0.3149399 -0.21682537 0.42269185 0.11037434
00000000: e971 0d3e 89d2 6e3e 8b6c 313e a0b0 81be
00000010: 2691 c7bd c685 c93e 40c3 8abe 7e6b 5fba
00000020: 5a47 d0be 0635 d8be 70af 913e 91dc ba3d
00000030: 392b b6bd 2019 653e 9508 0bbf bc09 433d
00000040: 3f83 bb3e 4e64 bc3d 18a0 e5be 3282 b7bf
00000050: 6dba da3e 131e ddbb 81b2 b03d 403a 3abc
00000060: c8a9 c4be 1aad 95be e828 143e 0064 8e3d
00000070: 02c1 d63e b32f 8a3e ab43 4d3e 730f bfbe
00000080: 51e3 63be 5be2 203e 440c 5d3e b5b7 08bf
00000090: 388c 31bc e8a9 91be f706 df3e c1ae bebe
000000a0: 189a 20be b924 1a3f 2375 a9bd f209 de3d
000000b0: ad92 2e3e 1041 fb3b 15fc 07be e49f de3d
000000c0: 8958 a73e 530d b4be 25e7 a23e d689 bb3d
000000d0: f9ca 963e f577 a3be 36a4 e8be ad80 cbbe
000000e0: 2fed 073e d694 bf3e 61f0 d53e 16d6 de3f
000000f0: 2135 eebe e773 2f3e 6ab1 cf3e d5b2 883d
00000100: d759 17bf 1fe4 bdbc 2d7f ba3e ebd5 51bd
00000110: 9bee b63d a3fc 813e 27cd ee3d 4d3a b8be
00000120: ccad 6dbf 9720 853e 881e 6e3e 1510 bc3e
00000130: e7fc 11be ef86 c2be 3fd8 d6be f1c1 e03e
00000140: d4f0 e63d 9fa2 a53d d2a0 c53e f545 66bf
00000150: 8d02 bcbe 835a f7be d92f 973c d782 b6be
00000160: 8134 b83d 2b81 dbbd 5b04 8a3e 75b9 c6bd
00000170: 125b 853d 9d1f b1be de3a 4a3e 0db4 73be
00000180: cfe2 323e e3d5 cb3e aa0b 153f a484 a3bd
00000190: b7fb ffbd 7ac0 103e 986a b93d 5142 b2be
000001a0: fd6d 153d e4ef 7e3e 17f7 25be 5c70 1fbc
000001b0: d281 963e 59d6 92bc be83 97be 40d0 cb3c
000001c0: 4f32 0dbe b519 1cbf ced6 6dbd 21ad 903e
000001d0: 3b31 b3bb a0db e53d 39d3 1e3e 370e 1a3e
000001e0: b610 a33e 5f28 173e e6b1 81be d4bb ff3e
000001f0: 3ba5 b8bd 127b f4be 6985 02be 2b0f e23d
00000200: 25f4 54bd 62a0 ef3e 6d03 debd 1d20 a43e
00000210: 83ab a6bc 60b8 78be 3ef4 dcbc f26d 33bf
00000220: 601a a1be 33ca 8abe 53d4 28bf 8c65 d93e
00000230: 4bf5 073f e428 0abf d28d 503e 7c73 88be
00000240: d5e3 283e c908 13bd b5a7 87bf d69c 2bbf
00000250: 5c9f 23bf 241a e3bc 5aea aebd 5759 4d3c
00000260: 4780 4e3e 7686 6b3e b0e0 db3e 6ece 26bf
00000270: 803b 573e 04b4 e93c 766c a43e 8023 e43e
00000280: af5b d4be b24d e5bd 92e8 4d3e 87d7 bebe
00000290: 61ea ccbd d370 e7ba 972f 2bbf 4942 3ebd
000002a0: f728 b1bd f23a 99be 6f2d 1c3f 65e4 863d
000002b0: b451 05bd 3875 ba3e 5a02 c6be a9a4 f4bc
000002c0: d7e5 cf3d 7684 123f baf4 77be 1d95 6fbe
000002d0: a800 8ebe 93c7 4ebf 7f9c 153f 641f 6335
000002e0: 96e2 b9be 96ae d43c e86f 3e3f 6784 213f
000002f0: d83d 3bbe 461f 453f 09a5 0b3f fc7a d73d
00000300: 837a 9bbd f62c 9cbe a0d2 50be 667e b33c
00000310: 3728 693d 937b c73d b870 4dbd 8178 01bf
00000320: 35d7 c0bd 18d0 b8bd d016 b5bc 0f81 9fbe
00000330: f16a 0ebe 8aa5 15bf 8ba6 d5be aa73 5f3e
00000340: 7c95 e53d d492 2d3d 6dd4 a33c bf20 233e
00000350: 4990 003c 4dfa 3cbe 101d 85be 7df3 a33e
00000360: 7372 32be e96e d2be 4127 b03e 23dd bcbe
00000370: d561 753e 26ad 45be 06f7 2cbe 9f65 9dbe
00000380: 0a30 e7be 701f fdbd 7b27 46be df27 9dbe
00000390: 69a2 2bbd 681e 94bd 6c9a 913e 0f59 fe3d
000003a0: 8713 afbe 107a 6f3e aad6 a1be 42a2 bc3d
000003b0: 7ff2 54bd 2897 9dbe c66f 23bf 2abe afbe
000003c0: 2826 303d dbe7 cbbe 8189 1e3e 2c75 a2be
000003d0: 1e0d 05bd 97b2 46bf 5fb9 17be 1590 f4bd
000003e0: da31 64bd 120b 733d 072c d63e 8c4c 333f
000003f0: cd3f a1be 7807 5ebe 116b d83e f10b e23d

memory_rnn.bias_ih f4 [256]
0.17698455 -0.0832068 0.026937865 -0.21087447 -0.20151506 0.03179049 -0.060753282 0.43680552
-0.13013542 -0.21905239 0.05345766 0.14578709 -0.06766456 -0.04808258 -0.1290543 -0.076424085
-0.22426514 -0.108018324 -0.37358567 -0.18679318 0.094397075 0.13054636 -0.023574568 0.044708904
0.09425038 -0.097087 0.026907694 -0.070849404 0.10185153 -0.06864029 -0.23422891 -0.38082498
-0.06310199 -0.07412331 -0.009020171 -0.12096016 0.084700905 -0.17528659 -0.10326743 0.13886195
0.0006114454 -0.05418174 0.073302634 -0.13941453 0.08452513 -0.112590976 -0.2323267 0.08108368
-0.03564823 -0.09951516 0.20154935 -0.03325149 -0.08052936 -0.27764127 -0.10444546 -0.095272824
-0.12494635 -0.2352927 0.07778301 -0.517079 0.1902714 0.1505232 -0.014706132 -0.037548106
0.035573192 -0.5568047 0.0797648 -0.49730748 -0.16939008 -0.5291856 -0.0026403528 0.13332276
0.2646783 0.12226853 -0.15882942 0.07537759 -0.05210962 -0.026853051 -0.26890057 0.08420391
0.115869544 0.0352483 0.27455086 0.1871272 0.019302655 0.096429184 -0.40275156 0.123076886
-0.18385974 -0.27729678 -0.2216836 0.21519195 -0.20476274 -0.23206913 -0.36840898 0.24904172
-0.04760661 -0.06587398 -0.1518034 -0.015330834 -0.30510128 -0.27413446 0.024586612 -0.058131356
0.029256336 -0.42180324 0.27539676 -0.08987968 0.07056089 -0.11389106 0.1680429 -0.10369831
-0.1123571 0.15816504 0.12607308 -0.18089738 -0.25032103 0.1816839 -0.034434844 -0.20966333
-0.21333459 -0.30565596 0.15523699 0.19039929 -0.18456471 0.12177702 0.26218238 -0.06827072
0.054445896 -0.0025363243 -0.1764783 -0.17469582 0.11212848 -0.14000094 0.14961049 0.023389371
-0.041326363 0.08613765 -0.16981006 0.018025931 0.09031022 0.10435132 -0.23478372 0.016675914
0.075619146 0.10683184 -0.058844812 0.08996303 -0.005186141 -0.072508186 -0.20941937 0.06520179
0.040854707 0.036205236 0.08817538 -0.073114656 -0.23400645 -0.051403917 0.055315 -0.074124485
0.0016692025 0.14913322 0.15717168 0.04141821 0.07004982 0.053298656 0.05869923 0.15297288
0.14376985 0.1734716 -0.13544588 -0.1341488 -0.0453188 -0.08650385 0.03167089 0.0007884338
-0.19091108 -0.17684454 -0.14683072 0.19860919 -0.052335758 0.061377604 0.07550459 -0.04223903
-0.13618307 -0.014431318 -0.100560494 0.104726575 0.11529093 0.1239062 0.08533811 -0.10088769
0.11314695 -0.10443097 0.07996961 -0.19617204 -0.057847302 0.17610748 -0.0033249266 0.2592426
0.3319097 0.0011507221 0.11632671 0.17012419 0.0910238 -0.22022137 -0.14877367 0.22752868
-0.11781007 -0.18201964 0.13441321 0.10368616 0.19331856 0.27173162 -0.06344383 0.16289711
0.25353304 -0.15593265 -0.047428936 -0.15963484 -0.0815954 -0.045030393 -0.09935608 0.15572728
-0.16540453 -0.068762206 -0.05030665 -0.23277296 0.1248015 -0.06252967 0.057522573 0.23694986
-0.14676291 0.019055456 0.024271738 0.0692268 0.16524632 0.091962 0.10387828 0.0013451972
-0.039715443 -0.10374016 0.030399568 -0.11682407 -0.052211545 0.054063916 -0.02767939 -0.14149468
-0.14945555 -0.5326631 -0.081021965 0.05337885 0.116696686 0.09620898 0.041924655 -0.032212865
00000000: 703b 353e 5468 aabd ccac dc3c 7aef 57be
00000010: f759 4ebe bf36 023d 6fd8 78bd f9a4 df3e
00000020: 3842 05be 454f 60be 6bf6 5a3d 3649 153e
00000030: b893 8abd 3df2 44bd cf26 04be 3b84 9cbd
00000040: c3a5 65be b638 ddbd 9f46 bfbe b646 3fbe
00000050: 4153 c13d f2ad 053e 741f c1bc af20 373d
00000060: 5806 c13d 8dd5 c6bd 866d dc3c 7e19 91bd
00000070: 8997 d03d 4893 8cbd b4d9 6fbe 7efb c2be
00000080: 9e3b 81bd f6cd 97bd 57c9 13bc f6b9 f7bd
00000090: ab77 ad3d 547e 33be e07d d3bd d431 0e3e
000000a0: 6849 203a aced 5dbd b11f 963d afc2 0ebe
000000b0: 831b ad3d 1996 e6bd 0de7 6dbe 330f a63d
000000c0: e103 12bd 9bce cbbd f462 4e3e b732 08bd
000000d0: 94ec a4bd ff26 8ebe 80e7 d5bd 661e c3bd
000000e0: dfe3 ffbd 92f0 70be b34c 9f3d 4a5f 04bf
000000f0: 82d6 423e c122 1a3e fdf1 70bc 0bcc 19bd
00000100: 32b5 113d c18a 0ebf ba5b a33d 169f febe
00000110: 9874 2dbe b578 07bf c509 2dbb c385 083e
00000120: ea83 873e ec67 fa3d 2ea4 22be 915f 9a3d
00000130: e670 55bd eefa dbbc 56ad 89be 1973 ac3d
00000140: 034d ed3d 8560 103d ee91 8c3e 469e 3f3e
00000150: 9a20 9e3c aa7c c53d 7435 cebe bc0f fc3d
00000160: ba45 3cbe d8f9 8dbe 0701 63be 475b 5c3e
00000170: 53ad 51be 88a3 6dbe 1aa0 bcbe cb04 7f3e
00000180: 26ff 42bd f0e8 86bd 5a72 1bbe 2e2e 7bbc
00000190: 3c36 9cbe 5a5b 8cbe dd69 c93c 251b 6ebd
000001a0: fcaa ef3c 98f6 d7be ce00 8d3e d612 b8bd
000001b0: 3a82 903d b73f e9bd 7013 2c3e c85f d4bd
000001c0: 7b1b e6bd 04f6 213e 4d19 013e 2a3d 39be
000001d0: 142a 80be 580b 3a3e 8d0b 0dbd fcb1 56be
000001e0: 6274 5abe f07e 9cbe 72f6 1e3e 08f8 423e
000001f0: 88fe 3cbe 3b66 f93d c53c 863e 85d1 8bbd
00000200: a902 5f3d 7638 26bb bab6 34be 76e3 32be
00000210: 9ea3 e53d 685c 0fbe 7e33 193e 119b bf3c
00000220: d545 29bd f068 b03d b0e2 2dbe 1eab 933c
00000230: 91f4 b83d 25b6 d53d 256b 70be ed9b 883c
00000240: 36de 9a3d a7ca da3d 4207 71bd 893e b83d
00000250: 81f0 a9bb 2c7f 94bd 0872 56be 8488 853d
00000260: 4457 273d f14b 143d 4b95 b43d 23bd 95bd
00000270: 639f 6fbe ea8c 52bd fb91 623d 94ce 97bd
00000280: 24c9 da3a 61b6 183e 9df1 203e 24a6 293d
00000290: 4876 8f3d b14f 5a3d 9b6e 703d eca4 1c3e
000002a0: 6738 133e 8aa2 313e 53b2 0abe 4e5e 09be
000002b0: 35a0 39bd ee28 b1bd 56b9 013d e6ae 4e3a
000002c0: 327e 43be bc16 35be cb5a 16be 3560 4b3e
000002d0: 055e 56bd 1567 7b3d 27a2 9a3d d502 2dbd
000002e0: 9373 0bbe 5671 6cbc a9f2 cdbd e37a d63d
000002f0: a71d ec3d 89c2 fd3d bfc5 ae3d 359e cebd
00000300: 97b9 e73d e8df d5bd 1bc7 a33d 53e1 48be
00000310: 4bf1 6cbd 8555 343e 03e7 59bb 72bb 843e
00000320: 11f0 a93e d4d3 963a b33c ee3d 0935 2e3e
00000330: b06a ba3d b681 61be 2058 18be 47fd 683e
00000340: 6846 f1bd 5b63 3abe 9ea3 093e 6959 d43d
00000350: 4df5 453e 6820 8b3e d7ee 81bd 80ce 263e
00000360: 15cf 813e cfac 1fbe d844 42bd 5177 23be
00000370: 7d1b a7bd ca71 38bd 337b cbbd f976 1f3e
00000380: ce5f 29be 33d3 8cbd 590e 4ebd 095c 6ebe
00000390: ee97 ff3d 8e0f 80bd ca9c 6b3d fca2 723e
000003a0: 0449 16be 301a 9c3c 86d5 c63c c8c6 8d3d
000003b0: 5536 293e 9356 bc3d 23be d43d 5451 b03a
000003c0: a9ac 22bd b975 d4bd 8408 f93c 7541 efbd
000003d0: c6db 55bd 2072 5d3d e3bf e2bc fbe3 10be
000003e0: e00a 19be 9c5c 08bf d8ee a5bd c8a3 5a3d
000003f0: acfe ee3d 3709 c53d 30b9 2b3d a3f1 03bd

memory_rnn.bias_hh f4 [256]
0.015864737 0.08270258 0.10772678 -0.13447982 -0.0015184417 0.12499555 -0.10831894 0.35628536
-0.08802427 -0.16204603 0.0485325 0.3054853 0.10596325 -0.010341555 -0.07496635 -0.06553487
-0.11285556 0.034531936 -0.27304748 -0.30600122 0.16551736 0.31789193 -0.049155578 0.08321581
0.31167582 -0.21743129 0.060414877 0.047706943 -0.057496823 -0.19632334 -0.046130076 -0.35551506
0.00036808598 -0.21156818 -0.14479417 0.0002346624 0.03383765 -0.1305974 0.031218136 0.11615203
-0.030322757 -0.24879658 0.0064396206 -0.13203596 0.051670685 -0.04555823 -0.19522868 -0.03622229
0.041180797 -0.07365719 0.15137304 -0.16185659 -0.13401568 -0.03529762 -0.18591832 -0.17272969
-0.11600816 -0.23034698 -0.007969246 -0.5472398 0.16070965 -0.0013022145 -0.18050678 0.052222732
0.019341815 -0.4795259 0.11101395 -0.25916925 -0.16101709 -0.5869419 -0.048377465 0.17147599
0.24424711 -0.010280138 -0.062667914 0.19743952 -0.02645071 -0.15507033 -0.100217246 0.14135303
0.07138041 -0.037429404 0.21142943 0.19196248 -0.058011714 0.1543212 -0.43975693 0.0922056
-0.08322081 -0.3211614 -0.11069569 0.04777425 -0.049653564 -0.28836465 -0.42395198 0.1177526
0.0037738946 -0.080772966 -0.279739 -0.046213463 -0.11052563 -0.13496949 0.018982355 0.01784905
0.08828964 -0.39600104 0.14667514 -0.06363715 0.20983437 -0.19891457 0.16385373 -0.07146102
-0.07793417 0.121338435 0.045219764 -0.24299902 -0.034858122 0.121115446 0.015798314 -0.3066831
-0.15732646 -0.3557052 0.013677067 0.1420621 -0.21322724 0.0040183323 0.16237344 0.039228775
-0.032376703 0.008068792 -0.17516914 -0.1556587 0.15683925 -0.041597635 -0.039290294 0.11317588
0.06729739 0.042194102 -0.16076058 0.13120003 0.065389074 0.07181833 -0.18120177 0.062154934
0.078429654 0.08305616 -0.107771635 0.016929874 0.0349243 -0.25790086 -0.19906092 0.0831241
-0.05992638 0.20951974 0.09978183 -0.06319611 -0.20932527 -0.049145594 -0.106542505 -0.22058259
0.051929377 0.2730468 0.22366457 0.037023894 0.024559455 -0.076679334 -0.013477228 0.15364021
-0.07697724 0.27245247 0.034568597 -0.059397094 -0.0030046904 0.11605609 0.09432225 0.0022149421
-0.13997066 -0.10722229 -0.18761398 0.16400449 -0.02861897 -0.060697272 0.06747405 -0.027450018
-0.12128902 0.027203707 -0.17302999 0.08555599 -0.055830497 0.11181243 0.007939721 -0.18785454
0.12467134 -0.009602369 0.012190525 -0.028648216 -0.23613402 0.1894644 0.13131835 0.16885269
0.3764368 -0.048920754 0.037320245 0.25622508 -0.037782807 -0.20125219 0.048792373 0.12552227
-0.2711365 -0.060618084 -0.0033689712 0.01742557 0.18640487 0.1709949 0.03548148 0.044601366
0.065755896 -0.1361828 -0.13163324 -0.05109115 0.08504868 0.015137709 -0.093000524 0.1681145
-0.076227516 0.033937432 -0.24996519 -0.1618992 0.15755135 0.10007217 -0.14387648 0.3005517
-0.05531004 -0.032501154 0.19468811 -0.015026829 0.16279481 0.11442945 0.09829422 -0.14680468
0.04772095 0.010656182 0.11605454 -0.25177604 0.022875177 0.0032138529 -0.026763322 -0.06447081
-0.17862609 -0.3181171 -0.13857204 0.23923093 0.18801774 -0.09019678 0.14942266 -0.054309655
00000000: c4f6 813c f85f a93d dc9f dc3d 14b5 09be
00000010: 7306 c7ba abfd ff3d 52d6 ddbd 096b b63e
00000020: 1246 b4bd 65ef 25be 04ca 463d 9268 9c3e
00000030: 4303 d93d a06f 29bc f587 99bd 2537 86bd
00000040: d120 e7bd 5c71 0d3d e1cc 8bbe 31ac 9cbe
00000050: 627d 293e bbc2 a23e 5c57 49bd 0d6d aa3d
00000060: f993 9f3e 4fa6 5ebe 9775 773d 5b68 433d
00000070: ca81 6bbd fc08 49be e4f2 3cbd 1206 b6be
00000080: aafb c039 54a5 58be ec44 14be b50f 7639
00000090: 5999 0a3d 53bb 05be 2dbd ff3c 1ee1 ed3d
000000a0: 6e67 f8bc 88c4 7ebe 7403 d33b 6f34 07be
000000b0: a4a4 533d 449b 3abd 07ea 47be d35d 14bd
000000c0: 32ad 283d 95d9 96bd 8901 1b3e bcbd 25be
000000d0: 683b 09be 3d94 10bd 5f61 3ebe 0de0 30be
000000e0: b095 edbd 14e0 6bbe 7191 02bc e817 0cbf
000000f0: 1291 243e 11af aaba c5d6 38be 81e7 553d
00000100: ba72 9e3c 6b84 f5be 485b e33d d5b1 84be
00000110: aae1 24be d341 16bf 7327 46bd 6797 2f3e
00000120: ea1b 7a3e 066e 28bc 0958 80bd 962d 4a3e
00000130: 29af d8bc c2ca 1ebe b33e cdbd d9be 103e
00000140: e42f 923d 934f 19bd f580 583e d091 443e
00000150: b19d 6dbd 6006 1e3e d227 e1be 4ad6 bc3d
00000160: ac6f aabd 446f a4be 6cb4 e2bd efae 433d
00000170: 8961 4bbd 88a4 93be 3c10 d9be 4628 f13d
00000180: 7253 773b 4c6c a5bd f339 8fbe 544a 3dbd
00000190: 435b e2bd 7135 0abe e280 9b3c 2c38 923c
000001a0: 33d1 b43d a6c0 cabe 0232 163e 3254 82bd
000001b0: d2de 563e 43b0 4bbe 46c9 273e 285a 92bd
000001c0: f39b 9fbd 4980 f83d 5c38 393d bcd4 78be
000001d0: 64c7 0ebd 600b f83d 776b 813c 9105 9dbe
000001e0: 301a 21be fe1e b6be c715 603c ba78 113e
000001f0: 3e58 5abe 37ac 833b 3945 263e 5aae 203d
00000200: 6f9d 04bd f732 043c 8a5f 33be ff64 1fbe
00000210: 789a 203e 4862 2abd dcee 20bd c1c8 e73d
00000220: 37d3 893d b9d3 2c3d 6c9e 24be 4d59 063e
00000230: b5ea 853d 7d15 933d f58c 39be 2c96 7e3d
00000240: ba9f a03d 5919 aa3d 60b7 dcbd 85b0 8a3c
00000250: c80c 0f3d 950b 84be a0d6 4bbe f83c aa3d
00000260: 5d75 75bd 588c 563e 6b5a cc3d f66c 81bd
00000270: 5d59 56be e44c 49bd f532 dabd 67e0 61be
00000280: e6b3 543d cacc 8b3e 5308 653e 5ea6 173d
00000290: e930 c93c 0e0a 9dbd 97cf 5cbc dc53 1d3e
000002a0: 3ea6 9dbd e47e 8b3e cd97 0d3d 5e4a 73bd
000002b0: 57ea 44bb d1ae ed3d 062c c13d 9028 113b
000002c0: 7854 0fbe 5c97 dbbd e11d 40be cbf0 273e
000002d0: 5572 eabc b49d 78bd d62f 8a3d dcde e0bc
000002e0: 6166 f8bd 4fda de3c c62e 31be fb37 af3d
000002f0: 85ae 64bd eafd e43d 9b15 023c f15c 40be
00000300: b053 ff3d 4153 1dbc c5ba 473c aaaf eabc
00000310: 1ecd 71be f502 423e 5178 063e b8e7 2c3e
00000320: 53bc c03e 2161 48bd 1ddd 183d ef2f 833e
00000330: 25c2 1abd 0e15 4ebe 83da 473d e988 003e
00000340: 67d2 8abe ab4a 78bd f5c9 5cbb 12c0 8e3c
00000350: ebe0 3e3e 4919 2f3e 0755 113d ecaf 363d
00000360: 07ab 863d 8173 0bbe ddca 06be f444 51bd
00000370: 012e ae3d 2704 783c 0f77 bebd 3526 2c3e
00000380: 2c1d 9cbd fa01 0b3d e0f6 7fbe e7c8 25be
00000390: 2455 213e a3f2 cc3d 5b54 13be eae1 993e
000003a0: c88c 62bd ee1f 05bd 525c 473e 1733 76bc
000003b0: afb3 263e fd59 ea3d 7b4e c93d f753 16be
000003c0: 0b77 433d 4497 2e3c 01ae ed3d cae8 80be
000003d0: b964 bb3c 819f 523b c13e dbbc 4609 84bd
000003e0: c2e9 36be 3fe0 a2be d4e5 0dbe f4f8 743e
000003f0: b987 403e 17b9 b8bd 4102 193e cd73 5ebd
