torch-rl/storage/MiniGrid-Customs-FourRoomsLava-13x13-v0/status.pt (torch, 649173 bytes, 51 tensors)

image_conv.0.weight f4 [16, 3, 2, 2]
0	0x3e9f94d4	0.31168234
1	0xbe9e1579	-0.30875757
2	0xbe3c2e41	-0.1837702
3	0xbd15d039	-0.03657553
4	0xbfdfa53c	-1.74723
5	0xbd8eb4e1	-0.06968094
6	0xbcd90d41	-0.026495578
7	0x3d5eed63	0.05442561
8	0x3d246023	0.040130746
9	0xbd10c794	-0.035346583
10	0x3da3fa45	0.080067195
11	0x3c69527e	0.014240859
12	0xbd81b7a4	-0.06333855
13	0xbea3ece6	-0.32016677
14	0xbe421428	-0.18953001
15	0xbe86d244	-0.26332295
16	0xbe16d808	-0.14730847
17	0xbcbe5dd8	-0.023238108
18	0x3de6cc11	0.11269391
19	0xbd094dc2	-0.03352142
20	0xbddc2b47	-0.10750442
21	0xbe328872	-0.17434862
22	0xbd4630e4	-0.04838647
23	0xbdff02f1	-0.12451733
24	0xbe825b7e	-0.25460428
25	0xbe42fabf	-0.19040965
26	0x3e457fbb	0.19287007
27	0xbd968ea2	-0.07351424
28	0xbeb30dca	-0.34971458
29	0x3e1ea0ba	0.15491
30	0xbf83197c	-1.0242152
31	0x3dbc5d6f	0.091975085
32	0x3e431daa	0.19054285
33	0xbe86aaec	-0.26302278
34	0xbe8c87f4	-0.27447474
35	0xbe0e9438	-0.13923728
36	0x3e5dc3c1	0.21656705
37	0xbea668ad	-0.32501736
38	0xbda4bf66	-0.08044319
39	0xbeb5006c	-0.35351884
40	0x3e033295	0.12812264
41	0xbebcd1ab	-0.36878714
42	0xbc9764c0	-0.018480659
43	0x3d2424ec	0.040074274
44	0xbe1bba9f	-0.15207909
45	0x3e17f1cb	0.1483833
46	0xbe1ce986	-0.15323457
47	0x3dade06d	0.084900714
48	0xbe2bd001	-0.16778566
49	0xbea0cd49	-0.3140662
50	0xbe992fae	-0.2991919
51	0xbe7af5e1	-0.24507858
52	0x3e894b52	0.26815277
53	0x3d4d92ee	0.05018895
54	0x3e921b9d	0.28536692
55	0x3c2de085	0.010612612
56	0xbc5d75a1	-0.013516814
57	0xbe454f6b	-0.19268577
58	0x3e3402e1	0.17579223
59	0x3db77c35	0.089592375
60	0xbeb70851	-0.35748532
61	0x3e1ab5c1	0.15108396
62	0xbba4169b	-0.0050075776
63	0x3e8f9fd6	0.28051633
64	0x3d1762b3	0.03695936
65	0xbd48fbd7	-0.0490683
66	0x3ce6d903	0.028179651
67	0xbdfa1c09	-0.122123785
68	0xbe6056ba	-0.21908084
69	0xbe51c449	-0.20485033
70	0x3e20cf3f	0.15704058
71	0xbd8aa219	-0.06769199
72	0x3ec3a3c1	0.38210872
73	0xbed80739	-0.4219301
74	0xbddb2d73	-0.10702028
75	0xbe0150af	-0.12628435
76	0xbce6de42	-0.028182153
77	0xbd63a143	-0.055573713
78	0xbd39e033	-0.04537983
79	0xbd83f7e3	-0.06443765
80	0xbe4fd877	-0.20297419
81	0xbe5f090e	-0.21780798
82	0x3c8fd0c3	0.0175556
83	0xbd497de1	-0.049192313
84	0xbd10d0e3	-0.03535546
85	0xbe9c2da2	-0.30503565
86	0xbeebc027	-0.46045038
87	0x3e9d68d5	0.30744043
88	0x3c837d36	0.016050916
89	0x3e068b3c	0.13139051
90	0x3c34a31d	0.011025217
91	0xbf8437a9	-1.0329486
92	0x3d6d8b79	0.05799434
93	0x3d8e017e	0.06933878
94	0xbe45ec7c	-0.19328493
95	0xbe0c416e	-0.13696834
96	0xbe456690	-0.19277406
97	0xbe06cff1	-0.13165261
98	0xbe7b5a59	-0.24546184
99	0xbe50037c	-0.20313829
100	0x3e6734d3	0.22578745
101	0xbe3c9796	-0.184172
102	0x3e13d617	0.14437138
103	0x3d9d85a2	0.07691504
104	0xbe3f1482	-0.18660167
105	0xbe7b63ca	-0.24549785
106	0x3e8ddf87	0.277096
107	0x3c76f79b	0.015073682
108	0xbc80e9ab	-0.015736422
109	0xbe392927	-0.18082105
110	0xbe7324d4	-0.23744518
111	0x3e12fab2	0.14353445
112	0x3e4b33aa	0.19843927
113	0xbdedd624	-0.1161311
114	0xbdbdc702	-0.09266473
115	0x3d464a01	0.04841042
116	0x3e56253b	0.2091264
117	0x3e37a3e2	0.1793361
118	0xbe55ef08	-0.20891964
119	0xbe54dd7e	-0.20787618
120	0xbec632dc	-0.38710678
121	0xbdae8c9e	-0.08522914
122	0x3ec65028	0.3873303
123	0xbeadfb12	-0.33980614
124	0xbc53902a	-0.012912789
125	0xbdd80dc0	-0.105494976
126	0xbccb98b2	-0.024853084
127	0xbe54bfe0	-0.2077632
128	0x3e2a516b	0.16632621
129	0x3e893722	0.26799875
130	0xbe3794c5	-0.17927845
131	0x3d804c69	0.06264574
132	0x3ea5e693	0.32402477
133	0xbe905188	-0.28187203
134	0xbcf86e54	-0.030326046
135	0x3e089dd9	0.13341464
136	0x3d306610	0.043066084
137	0xbded6d1e	-0.11593078
138	0xbdfaa092	-0.122376576
139	0x3cc19695	0.023631373
140	0xbe077398	-0.1322769
141	0xbd09afeb	-0.033615034
142	0xbe3530d3	-0.17694406
143	0x3dd84b8d	0.10561285
144	0x3b8ce608	0.004299883
145	0xbe7de9f3	-0.24796276
146	0x3db02b81	0.08602048
147	0xbd3aee3f	-0.045637365
148	0xbd412381	-0.047153
149	0xbcec5e2a	-0.028853495
150	0xbd5760c1	-0.052582506
151	0x3e0d1052	0.13775757
152	0xbd08b236	-0.03337308
153	0xbc227df1	-0.009917722
154	0xbe8b81ce	-0.2724747
155	0xbe3e414e	-0.185796
156	0xbeccf1b1	-0.40028146
157	0xbeebaa9d	-0.46028605
158	0x3e12efc5	0.14349277
159	0xbea8c41a	-0.32962114
160	0xbdfe3439	-0.124123044
161	0x3da63352	0.08115257
162	0xbcb2b9de	-0.021817144
163	0xbd3ff08a	-0.046860255
164	0xbe18f76c	-0.14938134
165	0x3d802eb6	0.062589094
166	0xbdd73aaa	-0.10509236
167	0xbd84d445	-0.064858
168	0xbe8f42e2	-0.27980715
169	0xbe8e19c0	-0.2775402
170	0xbe1621e2	-0.14661363
171	0xbe3240df	-0.17407559
172	0x3d1f7075	0.038925607
173	0xbd79da47	-0.06099918
174	0x3e94c4e0	0.29056454
175	0x3de76b66	0.112997815
176	0x3e499d8b	0.19689004
177	0x3c169be2	0.009192439
178	0xbe4c7ef0	-0.19970298
179	0x3e670451	0.2256024
180	0xbe103533	-0.14082794
181	0xbd69ce92	-0.057081766
182	0xbe57f496	-0.21089396
183	0xbd96aafb	-0.07356831
184	0xbe6bc963	-0.23026042
185	0x3e9c89c7	0.30573866
186	0xbe89a4fe	-0.26883692
187	0xbea00b8a	-0.31258804
188	0xbc2099fa	-0.009802336
189	0xbe1fd659	-0.15609111
190	0x3dd38a68	0.10329133
191	0xbde39212	-0.11111845

image_conv.0.bias f4 [16]
0	0xbe9718da	-0.29511148
1	0xbe451779	-0.19247235
2	0xbdac0dd8	-0.08401078
3	0xbec8bec0	-0.3920803
4	0x3ccef98c	0.025265478
5	0xbeb3f51e	-0.35147947
6	0x3e2acab4	0.16678888
7	0xbf0468e2	-0.5172254
8	0xbd6810b6	-0.05665656
9	0xbf237646	-0.63852346
10	0x3df73a4f	0.12071668
11	0xbeeabc55	-0.4584681
12	0x3dc3e459	0.09565038
13	0xbe7870e7	-0.24261819
14	0xbe0fc127	-0.14038526
15	0x3d80e053	0.062927864

image_conv.3.weight f4 [32, 16, 2, 2]
0	0xbe0317ba	-0.1280202
1	0xbf5039d3	-0.8133823
2	0x3c03cdb0	0.008044645
3	0xbe37b0ae	-0.17938492
4	0xbe16a66a	-0.1471192
5	0x3b3d6649	0.0028900078
6	0x3dbf0f38	0.093290746
7	0x3cf23140	0.0295645
8	0x3e5099c4	0.20371157
9	0xbf3427df	-0.7037334
10	0xbcb2cf48	-0.021827355
11	0x3df3e44d	0.11908779
12	0x3b74b8c7	0.0037341581
13	0x3e9655b8	0.29362273
14	0xbe1233a4	-0.14277512
15	0xbd8e4b24	-0.06947926
16	0x3c1623a0	0.009163767
17	0xbe50d963	-0.20395426
18	0xbd4d95c8	-0.05019167
19	0x3e236e34	0.15960008
20	0x3daee79d	0.085402705
21	0x3e04f68a	0.12984672
22	0x3d6145b2	0.054998107
23	0xbd8f570f	-0.06999027
24	0x3dd6a35c	0.10480377
25	0x3e3ab65d	0.18233629
26	0x3c74274a	0.014901945
27	0x3df09027	0.11746245
28	0xbe6b481e	-0.2297673
29	0xbd0b8a35	-0.03406735
30	0x3d9098ea	0.07060416
31	0x3c5b3b8c	0.013380896
32	0xbe009006	-0.1255494
33	0x3aa1bbc6	0.0012339286
34	0x3cf4f203	0.029900556
35	0x3d961201	0.07327653
36	0xbd8d9f47	-0.06915145
37	0xbcaacdcc	-0.020850085
38	0xbe26ac54	-0.16276675
39	0xbe0499c2	-0.12949279
40	0xbe6f5808	-0.23373425
41	0x3e8f8d0b	0.28037295
42	0x3c04aa4d	0.0080972435
43	0xbd8493d1	-0.06473506
44	0x3d081664	0.03322448
45	0x3e2b6ab1	0.16739918
46	0x3dd826fc	0.10554311
47	0xbd05df02	-0.03268338
48	0x3db14df6	0.08657448
49	0x3d54d94c	0.051965043
50	0xbd78af27	-0.060713913
51	0xbdc585dc	-0.09644672
52	0x3d97a01f	0.074035875
53	0x3e2dd667	0.16976319
54	0xbe481956	-0.19540915
55	0x3be4922b	0.0069754324
56	0x3df06c26	0.11739378
57	0xbe800600	-0.25004578
58	0x3d15ac45	0.036541242
59	0xbe2f3776	-0.17111
60	0x3ed21b24	0.41036332
61	0xbe6a26b6	-0.2286633
62	0x3df8d096	0.121491596
63	0x3e2f579a	0.17123261
64	0x3e9c2945	0.30500236
65	0x3e7b66a0	0.24550867
66	0xbc889e64	-0.016677089
67	0xbd953cd8	-0.07286996
68	0xbde4a7b1	-0.11164797
69	0xbdb0e14e	-0.086367235
70	0xbe0bbeac	-0.13646954
71	0xbe001d63	-0.1251121
72	0x3defcbca	0.117087916
73	0x3da58fa1	0.08084036
74	0x3d81fe77	0.063473634
75	0xbce7c0ab	-0.028290113
76	0xbc3f9aec	-0.011694651
77	0xbdf00d5f	-0.117213
78	0xbdc6b65c	-0.09702751
79	0x3e1c2040	0.15246677
80	0x3d800aee	0.06252085
81	0x3dfea5c1	0.12433959
82	0xbd02b8ae	-0.031914406
83	0xbe070d10	-0.13188577
84	0x3e672f0b	0.22576539
85	0x3e57698a	0.21036354
86	0x3e36f569	0.17867054
87	0xbd821379	-0.0635137
88	0x3c5373ac	0.012905996
89	0x3ac409d5	0.0014956543
90	0xbdb80609	-0.08985526
91	0xbeaa8359	-0.33303335
92	0x3de061f3	0.10956182
93	0x3e760308	0.24024594
94	0x3e61a9d5	0.22037442
95	0xbe051154	-0.12994891
96	0xbdb78126	-0.0896018
97	0x3d58260a	0.052770652
98	0xbe315645	-0.17318065
99	0x3b3a26fe	0.0028404589
100	0x3df2ebc2	0.118613735
101	0x3e0a2930	0.13492274
102	0xbd01730b	-0.031603854
103	0xbdb6419a	-0.08899231
104	0xbd12201f	-0.035675164
105	0x3d3c7b3f	0.046015974
106	0x3dcf31b7	0.10116904
107	0x3df940cb	0.121705614
108	0x3db5ec67	0.08882981
109	0x3e0f1e3e	0.1397638
110	0x3d342313	0.043978762
111	0xbdd755ff	-0.10514449
112	0xbdbf64a9	-0.09345371
113	0xbd9784b6	-0.073983595
114	0xbd706514	-0.058690146
115	0xbdf09967	-0.11748009
116	0x3df07189	0.11740405
117	0xbdac7136	-0.08420031
118	0xbc28c762	-0.010301443
119	0xbcca3a25	-0.024685929
120	0x3d637870	0.05553478
121	0xbdf76738	-0.12080234
122	0x3cfc090a	0.030766029
123	0x3ca1f4b9	0.019770013
124	0x3d9c3686	0.07627587
125	0xbe5316dc	-0.20614189
126	0xbd444ab5	-0.04792281
127	0xbe9c6b8d	-0.30550805
128	0xbe0fafed	-0.14031954
129	0x3e2c9131	0.16852261
130	0x3cd05b44	0.025434144
131	0xbdbafe95	-0.09130589
132	0x3d60cc5c	0.054882392
133	0x3d52159d	0.051290143
134	0xbd6f81ec	-0.058473513
135	0x3e312ee2	0.1730304
136	0x3cb0f8cc	0.02160301
137	0xbe03c7a6	-0.12869129
138	0xbe0f6afe	-0.14005658
139	0xbe522f59	-0.20525874
140	0xbdbea103	-0.09308054
141	0x3b8122f2	0.0039409334
142	0x3d2a8a63	0.041635882
143	0xbcfce65d	-0.030871565
144	0x3e31d2f7	0.17365633
145	0xbd05c6c2	-0.032660253
146	0x3dbcab91	0.09212411
147	0x3dc68810	0.096939206
148	0x3ddee2e8	0.10883123
149	0x3c863ae8	0.01638551
150	0xbe50ac8d	-0.20378323
151	0xbe594531	-0.212178
152	0xbec3476f	-0.38140437
153	0xbd250bfc	-0.040294632
154	0x3d5ac0b9	0.05340645
155	0x3c615f3c	0.013755616
156	0xbd82cbc4	-0.063865215
157	0xbd485cc9	-0.04891661
158	0xbe439214	-0.19098693
159	0xbe3bc5d8	-0.1833719
160	0x3e69e589	0.22841467
161	0xbd04c52c	-0.0324146
162	0xbde264fd	-0.11054418
163	0xbc6fc600	-0.014634609
164	0x3caff8bc	0.02148091
165	0xbbe935b5	-0.007116998
166	0xbdd4382a	-0.10362275
167	0xbd4696ba	-0.048483588
168	0xbe20e163	-0.15710978
169	0x3e8ef730	0.27922964
170	0xbd1aa599	-0.037755582
171	0xbe8e49e1	-0.2779074
172	0xbe6db5ed	-0.2321393
173	0xbdbef809	-0.09324653
174	0xbd5e1303	-0.05421735
175	0xbdafe49b	-0.08588525
176	0x3d5f4d81	0.054517273
177	0x3e47850d	0.19484349
178	0x3d70bd03	0.058774006
179	0xbd0feff4	-0.035140947
180	0x3d0a66dc	0.0337895
181	0x3dd45ce2	0.103692785
182	0xbc76ba95	-0.015059133
183	0xbcff6875	-0.031177739
184	0x3ebe75b0	0.37199163
185	0x3e13a081	0.14416696
186	0x3e2d3fbb	0.16918842
187	0x3d82eee3	0.0639322
188	0xbe952d13	-0.2913595
189	0x3debea08	0.11519247
190	0x3e491ca0	0.19639826
191	0x3e26e11b	0.16296808
192	0xbdc07756	-0.093977615
193	0xbe47e64f	-0.1952145
194	0x3d24558b	0.040120643
195	0xbedec7ad	-0.43511716
196	0xbdf15ead	-0.11785636
197	0xbe03915e	-0.12848422
198	0xbe3a6088	-0.18200886
199	0xbdfe164e	-0.12406598
200	0x3db4795a	0.088122085
201	0xbe4bea31	-0.19913556
202	0xbd3a70b3	-0.045517635
203	0x3cbd3d5a	0.023100544
204	0xbdacfaac	-0.08446249
205	0xbde6b195	-0.1126434
206	0xbdcc6478	-0.099801004
207	0x3ba2761d	0.004957928
208	0xbe8907b5	-0.26763692
209	0x3cb06e14	0.021536864
210	0xbe8c3ef7	-0.27391788
211	0x3c153244	0.009106223
212	0xbbff5b26	-0.007792848
213	0x3e28822b	0.16455905
214	0xbde5bcee	-0.11217676
215	0x3d85937b	0.0652227
216	0xbe034dea	-0.1282269
217	0x3dc0a945	0.094072856
218	0x3c34b948	0.011030503
219	0xbe3d1f3e	-0.18468949
220	0x3cbd09b7	0.023075921
221	0x3c55fbe2	0.013060542
222	0xbe98af06	-0.29821032
223	0xbdb832db	-0.08994075
224	0xbe721481	-0.23640634
225	0xbcf7f7fc	-0.030269615
226	0xbe1e5757	-0.15463005
227	0xbd93bc2b	-0.072136246
228	0xbdcaf70c	-0.09910402
229	0x3d2baa01	0.041910175
230	0xbdc9ba4d	-0.09849987
231	0x3d96258b	0.073313795
232	0xbe5e88a2	-0.21731809
233	0x3da48ff2	0.08035268
234	0xbdce9788	-0.10087496
235	0x3dba1f6d	0.09088025
236	0xbe33232c	-0.17493886
237	0x3dd4cec0	0.10390997
238	0xbe85ea53	-0.26155338
239	0xbc5765d2	-0.013146834
240	0xbe200b53	-0.1562932
241	0xbe0ddf47	-0.13854705
242	0xbd22185d	-0.039574016
243	0x3d133c77	0.035946336
244	0x3d2bee3c	0.041975245
245	0x3dbe15f5	0.09281532
246	0xbcc4b4a6	-0.024011921
247	0x3d4c0e5f	0.049818393
248	0xbe24dd1c	-0.16099972
249	0xbe238445	-0.15968426
250	0x3cc1f985	0.02367855
251	0xbd1d9613	-0.0384732
252	0x3d92e0ef	0.07171809
253	0xbec4b367	-0.38418123
254	0xbdbde3fa	-0.09271999
255	0x3c99c1d6	0.018769186

image_conv.3.bias f4 [32]
0	0xbce5f475	-0.028070668
1	0xbe11b3cb	-0.14228742
2	0xbd35096d	-0.044198442
3	0xbe43a38b	-0.19105355
4	0xbe7cd1aa	-0.24689355
5	0xbdb8585f	-0.090012304
6	0xbe7c22a2	-0.24622586
7	0x3e1a7b0f	0.15086006
8	0xbe57385e	-0.21017596
9	0x3e2180f3	0.15771846
10	0xbd0cb1c8	-0.034349233
11	0xbe432d18	-0.1906017
12	0xbe00e293	-0.12586431
13	0xbe1ed2da	-0.15510121
14	0xbe1b2636	-0.15151295
15	0x3c171893	0.009222168
16	0x3da82a19	0.082111545
17	0x3c0c0500	0.008546114
18	0x3e841e0d	0.25804177
19	0x3ce44fdb	0.02787011
20	0xbe5f033c	-0.21778578
21	0x3df3e07b	0.119080506
22	0xbdd7f4ad	-0.10544715
23	0xbd5c0320	-0.053713918
24	0xbda1cc45	-0.079002894
25	0xbcf657fa	-0.030071247
26	0xbdbf420b	-0.093387686
27	0xbd878fc4	-0.06619218
28	0x3e3a0a7f	0.18168066
29	0xbd68641d	-0.0567361
30	0xbbf9c53e	-0.00762239
31	0x3d8ccb96	0.068747684

image_conv.5.weight f4 [64, 32, 2, 2]
0	0xbd8d45e9	-0.068981
1	0xbdfdd580	-0.123942375
2	0xbde8ef3a	-0.11373754
3	0xbdbe6df8	-0.092983186
4	0x3e21d19b	0.15802614
5	0x3e4fad5f	0.2028098
6	0x3e2944ee	0.16530201
7	0x3e2b127f	0.16706274
8	0xbd0a3405	-0.033741016
9	0x3dc2c5c7	0.09510379
10	0x3e564843	0.20926003
11	0x3dc9bac0	0.09850073
12	0xbd5d739e	-0.05406534
13	0x3d833498	0.06406516
14	0xbd1a6998	-0.03769836
15	0xbe3abf75	-0.18237098
16	0xbcc73106	-0.024315368
17	0x3d488d04	0.048962608
18	0xbcb8d44c	-0.022562169
19	0x3d13fb8c	0.036128566
20	0xbde6de83	-0.112729095
21	0x3d55354d	0.052052785
22	0xbceaf6b6	-0.028682094
23	0x3c40cc0f	0.011767401
24	0xbc656941	-0.014002145
25	0x3b6fd677	0.0036596337
26	0x3dfcd8b2	0.12346019
27	0x3c8c32b1	0.017114015
28	0xbc891c3d	-0.016737098
29	0x3d85d54f	0.06534826
30	0x3da5870a	0.08082397
31	0x3ea9b1ae	0.3314337
32	0x3c182c5e	0.009287922
33	0x3dfb1c7a	0.12261291
34	0x3dcd4a43	0.1002393
35	0x3df2fb22	0.11864306
36	0x3e11b7d6	0.14230284
37	0x3e18861b	0.14894907
38	0x3dc60179	0.0966825
39	0x3d89cfc8	0.06729084
40	0xbda3f35b	-0.08005401
41	0x3d386e21	0.045026902
42	0xbe3d7753	-0.1850255
43	0xbe537118	-0.2064861
44	0x3e03713c	0.12836164
45	0x3e9d9592	0.30778176
46	0x3b12135a	0.0022289366
47	0x3e1c75d1	0.15279318
48	0xbd98ba1e	-0.07457374
49	0x3c414f85	0.011798744
50	0xbdd69ac8	-0.10478741
51	0xbdeb8492	-0.11499895
52	0xbe21c521	-0.15797855
53	0x3e368470	0.17823958
54	0xbe34a38a	-0.1764051
55	0xbe10f3bb	-0.14155476
56	0x3df4d7cb	0.11955222
57	0x3d7adf7b	0.061248284
58	0x3e707f61	0.23486091
59	0x3eaa976e	0.33318657
60	0x3e054d36	0.13017735
61	0xbe861d78	-0.26194358
62	0x3d3a25e4	0.04544629
63	0x3dba5881	0.09098912
64	0x3ba83875	0.0051336833
65	0x3d10ce4f	0.035353
66	0x3d623a80	0.05523157
67	0xbe244110	-0.16040444
68	0x3c997d8c	0.018736623
69	0x3da33cef	0.079706065
70	0xbe2e9309	-0.17048277
71	0xbcc4e521	-0.024035038
72	0x3d86f985	0.06590561
73	0x3e0bf9c0	0.13669491
74	0x3e845dc0	0.25852776
75	0x3ecde053	0.40210208
76	0x3d8b3984	0.067980796
77	0x3e4abbf3	0.1979826
78	0x3e57bb80	0.2106762
79	0x3ed9c7f8	0.42535377
80	0x3dde0eff	0.10842704
81	0x3e1380f5	0.14404662
82	0xbd899fa8	-0.06719905
83	0x3dd26ebf	0.102750294
84	0xbd9791cb	-0.07400855
85	0x3d0f6527	0.035008576
86	0x3d470476	0.04858824
87	0x3e847031	0.25866845
88	0xbd8bc523	-0.0682471
89	0x3e968484	0.29397976
90	0x3d99ae20	0.07503915
91	0x3dcb4646	0.09925513
92	0xbe45d9ee	-0.19321415
93	0x3c763057	0.015026174
94	0xbe17af89	-0.14813055
95	0xbc2e46c4	-0.010636989
96	0x3d21ad09	0.03947166
97	0xbd8314fc	-0.06400487
98	0xbdaf77b7	-0.08567756
99	0xbd84d66b	-0.064862095
100	0xbe867eb6	-0.26268548
101	0xbe6feb35	-0.23429568
102	0x3d82b048	0.06381279
103	0xbe0f6021	-0.14001514
104	0xbe76a7df	-0.24087475
105	0x3e0dceee	0.13848469
106	0x3d966e54	0.07345262
107	0xbd4d215a	-0.050080635
108	0xbd03ea28	-0.03220573
109	0x3d1bf407	0.03807452
110	0xbe6eb6a6	-0.23311862
111	0x3da68b72	0.08132066
112	0x3e98446c	0.29739702
113	0x3e999738	0.29998183
114	0x3e8dc090	0.27685976
115	0x3ea35dbc	0.3190745
116	0x3dc35b12	0.09538855
117	0x3ee45b49	0.44600895
118	0xbd2286dc	-0.039679393
119	0x3e28ba77	0.1647738
120	0xbe13a0fd	-0.14416881
121	0xbe1f15d2	-0.15535668
122	0xbd113d06	-0.035458587
123	0xbe8c1b4c	-0.27364576
124	0xbe0101db	-0.12598364
125	0x3c81dc1a	0.015852023
126	0xbd022009	-0.031768832
127	0xbe045ab3	-0.12925224
128	0xbe474d21	-0.19463016
129	0xbe0ab62f	-0.1354606
130	0x3d574339	0.052554343
131	0x3d878ed1	0.06619037
132	0x3d0f14b0	0.03493184
133	0xbe4646fb	-0.19363014
134	0xbdd253ab	-0.10269865
135	0x3ea1e85e	0.31622595
136	0xbd77d7c8	-0.06050852
137	0xbd881565	-0.06644706
138	0xbd4f7518	-0.05064878
139	0xbdb2601e	-0.08709739
140	0xbe1a89bb	-0.15091603
141	0x3d7c794a	0.061639108
142	0x3c690a41	0.014223636
143	0x3d1df385	0.038562316
144	0x3db5122e	0.08841358
145	0x3dd02671	0.10163582
146	0x3da02533	0.07819595
147	0x3d35642c	0.044284984
148	0xbd5fcf2d	-0.054640938
149	0x3ed4e712	0.41582543
150	0xbdfe47cb	-0.12416037
151	0xbd93573f	-0.07194375
152	0xbe5be9b3	-0.21475868
153	0x3e6ee846	0.23330793
154	0xbd6dca13	-0.05805404
155	0xbce1d784	-0.027568586
156	0x3d43cb2d	0.047801185
157	0x3e57f61d	0.21089979
158	0x3bbbc020	0.00572969
159	0xbe03f6e3	-0.12887149
160	0xbdbadda0	-0.09124303
161	0xbdd0a9fc	-0.10188672
162	0x3e5323d5	0.20619138
163	0x3e385b3a	0.1800355
164	0xbddca4fe	-0.10773657
165	0x3b85103f	0.0040607746
166	0xbd7c81d9	-0.06164727
167	0x3d3d383a	0.0461962
168	0xbd886c0b	-0.066612326
169	0xbdf7e096	-0.12103383
170	0xbcfe535d	-0.03104561
171	0x3ca8cfb0	0.020606846
172	0xbe7d1d2a	-0.24718156
173	0xbe04404b	-0.12915151
174	0xbd31ee62	-0.04344023
175	0x3ec44529	0.38334015
176	0x3e4470f7	0.19183718
177	0x3de5735e	0.11203645
178	0x3dde2ebf	0.1084876
179	0x3ce99131	0.028511615
180	0xbe382761	-0.17983772
181	0x3e8d863a	0.2764147
182	0xbdacead0	-0.084432244
183	0x3d76fe6c	0.06030123
184	0xbe06b3f5	-0.13154586
185	0xbd394d26	-0.04523959
186	0x3c8f2e4a	0.017478127
187	0x3e899dce	0.26878208
188	0xbde833ec	-0.11338028
189	0xbde10f51	-0.109892495
190	0xbe201c50	-0.156358
191	0xbea963e2	-0.33084017
192	0xbd520cfd	-0.051281918
193	0xbd922e61	-0.07137752
194	0x3e45c399	0.19312896
195	0x3e2dd30a	0.16975036
196	0xbe33fe11	-0.17577387
197	0xbdd41a37	-0.103565626
198	0x3b7f14db	0.0038922343
199	0xbc0d5611	-0.008626477
200	0xbdd5a8db	-0.10432597
201	0xbe5be4fe	-0.21474072
202	0xbe073bcf	-0.13206409
203	0x3da48dc5	0.08034853
204	0xbe18aaa0	-0.14908838
205	0x3e202443	0.15638833
206	0xbce05a39	-0.027386772
207	0x3dcad71e	0.099043116
208	0xbe3d69f3	-0.18497448
209	0xbd229937	-0.0396969
210	0xbe452982	-0.19254115
211	0x3dea99c1	0.114551075
212	0xbe187470	-0.14888167
213	0xbd03301f	-0.032028314
214	0x3d8b42a4	0.0679982
215	0x3c0448a1	0.008073957
216	0xbe0f2c75	-0.13981803
217	0xbd3b1623	-0.045675408
218	0x3d8febde	0.0702741
219	0x3d674c0d	0.056469012
220	0xbd3227a4	-0.043494835
221	0xbd990930	-0.074724555
222	0xbdc80118	-0.097658336
223	0x3e557da1	0.20848705
224	0xbdbf3f8a	-0.09338291
225	0x3e7445c9	0.23854746
226	0xbe34567d	-0.17611118
227	0xbdbcd099	-0.09219474
228	0xbd616d01	-0.055035595
229	0xbdbc658f	-0.09199058
230	0x3cec87e2	0.028873388
231	0x3d625c29	0.055263672
232	0x3dec72fe	0.115453705
233	0x3e067315	0.13129838
234	0x3e2f3fd1	0.17114188
235	0xbd367f5e	-0.04455506
236	0xbd8da301	-0.06915856
237	0x3e420166	0.18945846
238	0xbd1dee63	-0.03855742
239	0x3cd02ae6	0.02541108
240	0xbdc27179	-0.094942994
241	0x3d83cd6e	0.06435667
242	0xbe5b7d0a	-0.21434417
243	0xbe8dc878	-0.27692008
244	0xbda75c4d	-0.08171902
245	0xbe2bae25	-0.1676565
246	0x3c829c2e	0.015943613
247	0x3dc5dff4	0.09661856
248	0xbc79afe0	-0.015239686
249	0xbdce3501	-0.100687034
250	0xbdc6d3bb	-0.09708353
251	0x3c8a02a4	0.016846962
252	0x3cab16a0	0.020884812
253	0xbeabbf6c	-0.3354448
254	0x3d143ef2	0.03619284
255	0xbe1c7b78	-0.15281475

image_conv.5.bias f4 [64]
0	0x3e1797c0	0.14803982
1	0xbdebe4c8	-0.11518246
2	0xbd841ead	-0.064511634
3	0xbce31b60	-0.027723014
4	0xbd8dae16	-0.0691797
5	0xba8fa38e	-0.0010958777
6	0x3d618dfb	0.055067044
7	0xbdb3cbb6	-0.08779089
8	0x3ca5f202	0.020257
9	0xbcc528ac	-0.024067245
10	0xbd3301d3	-0.04370291
11	0x3d93f941	0.07225276
12	0xbe1c2b24	-0.15250832
13	0xbdb021d8	-0.08600205
14	0xbc605e81	-0.0136944065
15	0xbd16ad01	-0.036786083
16	0xbdfb8d2d	-0.122827865
17	0x3c927ad6	0.017880838
18	0x3d6c09a5	0.057626385
19	0xbce99490	-0.028513223
20	0xbdb68a66	-0.08913116
21	0xbd6b34e3	-0.057423484
22	0xbdb21ad3	-0.086965226
23	0xbd905708	-0.0704785
24	0xbd5717af	-0.05251282
25	0xbe1adde7	-0.15123712
26	0xbdc3dbcf	-0.095634095
27	0xbd5d3193	-0.054002356
28	0xbd54823b	-0.05188201
29	0xbde7524e	-0.11294995
30	0xbc128738	-0.0089433715
31	0x3d1a6b7a	0.037700154
32	0xbd17d2f6	-0.037066422
33	0xbe06fcf9	-0.13182439
34	0x3e2205aa	0.15822473
35	0x3d2b71a2	0.041856416
36	0xbe2b3978	-0.16721141
37	0xbe09289a	-0.13394395
38	0xbdab7fc1	-0.083739765
39	0x3dc23e3c	0.094845265
40	0xbd00c32d	-0.031436134
41	0xbcce9892	-0.025219236
42	0xbd89cc76	-0.06728451
43	0x3dd40e36	0.10354273
44	0x3d83647f	0.064156525
45	0x3cbe782b	0.02325066
46	0xbe478c88	-0.19487202
47	0xbdb28901	-0.08717538
48	0xbce75d6d	-0.028242791
49	0xbd8cb45b	-0.068703376
50	0xbd9fb67f	-0.0779848
51	0xbd722657	-0.059118595
52	0x3db272ef	0.08713328
53	0x3cddea07	0.027089132
54	0xbe025d34	-0.12730867
55	0x3d19ddb5	0.037564952
56	0xbdd1f3e9	-0.102516
57	0x3d85bc2b	0.06530031
58	0xbdd59103	-0.104280494
59	0xbd8f26bb	-0.06989809
60	0xbd7aa189	-0.06118921
61	0xbc78b051	-0.015178756
62	0x3cb82491	0.022478374
63	0x3d2627c2	0.04056526

memory_rnn.weight_ih f4 [256, 64]
0	0xbe84b44e	-0.25918812
1	0xbdef2cb3	-0.116784476
2	0xbe69ea60	-0.22843313
3	0x3dbac2b0	0.09119165
4	0xbdc9f982	-0.09862043
5	0x3e4cf6d1	0.20016028
6	0x3e40f61c	0.18843883
7	0xbd01c660	-0.031683326
8	0x3d72c3b3	0.059268665
9	0xbe1f1da5	-0.15538652
10	0xbba2eb73	-0.0049719154
11	0xbe372be4	-0.17887837
12	0xbce662c7	-0.028123273
13	0x3c02b484	0.007977609
14	0x3d5564aa	0.052097954
15	0x3d084a34	0.03327389
16	0x3ccbb599	0.024866866
17	0x3db3b67f	0.08775043
18	0x3e52e5d9	0.20595492
19	0x3ded0b68	0.11574441
20	0x3ccbe22f	0.024888126
21	0xbdd862b8	-0.10565704
22	0xbea225da	-0.31669503
23	0xbda074d4	-0.07834783
24	0xbe981b47	-0.2970831
25	0xbe4c1ba5	-0.1993242
26	0xbe26d57a	-0.16292372
27	0xbe99fb77	-0.30074665
28	0x3ea3183f	0.31854436
29	0xbdf4e08b	-0.11956891
30	0xbe065e1d	-0.13121839
31	0x3e517051	0.20453002
32	0xbe557014	-0.20843536
33	0x3e06d62a	0.13167635
34	0xbe05af45	-0.13055141
35	0xbec1b82c	-0.37835824
36	0xbe0ceaaf	-0.137614
37	0x3bd86593	0.0066039055
38	0xbe0d13ce	-0.13777086
39	0x3d9b663c	0.07587859
40	0xbd824eb1	-0.063626654
41	0x3bc85946	0.006114158
42	0xbdc9bb5e	-0.098501906
43	0xbd3ffa39	-0.04686949
44	0xbe94e382	-0.29079825
45	0x3c6f205f	0.01459512
46	0x3ddd03e0	0.10791755
47	0xbd9e6bee	-0.0773543
48	0x3dfce21a	0.12347813
49	0x3e38118e	0.17975447
50	0x3e1da348	0.15394318
51	0xbd789e3f	-0.06069779
52	0xbe5bb02a	-0.2145392
53	0x3dc4df07	0.096128516
54	0xbe2d5ba2	-0.16929486
55	0x3da87446	0.082253024
56	0x3d876ba2	0.06612326
57	0xbeb29889	-0.34882
58	0x3e7dfdf9	0.24803914
59	0x3db2eda9	0.08736736
60	0xbd86aca6	-0.06575899
61	0x3d1276f0	0.03575796
62	0xbee40e56	-0.44542187
63	0xbe3de5f1	-0.18544747
64	0x3cbe1113	0.023201501
65	0x3d27e976	0.04099413
66	0xbe9fa4b1	-0.31180337
67	0xbd9d0982	-0.07667829
68	0xbe92cdc3	-0.2867261
69	0x3e1f7973	0.15573673
70	0x3d92f191	0.071749814
71	0xbda3ede5	-0.08004359
72	0x3e297bdf	0.1655116
73	0x3ebab133	0.36463317
74	0x3ccfa0ad	0.02534517
75	0xbe1e1d91	-0.15440966
76	0xbec5545f	-0.38540933
77	0x3da00338	0.07813114
78	0x3d7210ab	0.059097927
79	0xbe3ab3eb	-0.18232696
80	0xbd3ed986	-0.046594165
81	0x3c99d903	0.018780237
82	0x3d5d421b	0.05401812
83	0xbdded462	-0.108803526
84	0xbcd45a06	-0.025921833
85	0xbe244492	-0.16041782
86	0x3dd23ebe	0.102658734
87	0xbdaea790	-0.08528054
88	0xbcdd48c4	-0.027012236
89	0xbe026cac	-0.12736768
90	0xbd7692cc	-0.06019859
91	0xbe4252c6	-0.18976888
92	0x3b436083	0.0029812164
93	0xbe710d21	-0.23540165
94	0x3c81b667	0.015834047
95	0xbe723320	-0.23652315
96	0x3e8083e9	0.2510064
97	0xbe141692	-0.14461735
98	0xbcb003aa	-0.021486122
99	0xbe184749	-0.14870943
100	0xbe162b06	-0.1466485
101	0xbe32e521	-0.17470218
102	0xbe49e337	-0.19715582
103	0xbcc8997a	-0.024487246
104	0x3df73520	0.1207068
105	0xbe008b06	-0.12553033
106	0xbd7b880d	-0.061409045
107	0x3ca5dc02	0.02024651
108	0xbce57a6c	-0.028012477
109	0xbc9ebbcd	-0.01937666
110	0x3e040614	0.12892944
111	0xbdecc9b3	-0.115619086
112	0x3dee7ac7	0.11644512
113	0xbc02b536	-0.007977774
114	0x3ddbe2ba	0.10736604
115	0xbda659fd	-0.08122633
116	0xbc40ea01	-0.011774541
117	0xbec827f1	-0.39092973
118	0xbe3f565f	-0.18685292
119	0x3d82edd2	0.06393017
120	0xbe0226e5	-0.1271015
121	0x3b2467a9	0.00250862
122	0x3e3e883f	0.18606661
123	0xbc61f2eb	-0.013790826
124	0x3b847720	0.004042521
125	0x3c22fe07	0.00994826
126	0x3db27e1f	0.08715462
127	0xbe743f9e	-0.23852393
128	0xbe1496e6	-0.14510688
129	0xbdee566e	-0.11637579
130	0xbd85c9fb	-0.06532665
131	0xbcf31e95	-0.029677669
132	0x3dd302ce	0.10303269
133	0xbddef4c5	-0.1088653
134	0xbcd9252c	-0.026506983
135	0xbb1756e6	-0.0023092567
136	0x3e81c62e	0.25346512
137	0x3dc4e0e8	0.0961321
138	0xbbfa73d8	-0.007643204
139	0x3dc166f2	0.094434634
140	0xbe3f0b89	-0.18656744
141	0x3e6425bf	0.22280024
142	0x3ca08e8b	0.01959922
143	0xbe754c02	-0.23954776
144	0x3cb184da	0.021669794
145	0xbdfb88d1	-0.12281955
146	0xbda74de1	-0.08169151
147	0xbd301414	-0.042987898
148	0x3d2c9f04	0.042143837
149	0x3da0984d	0.07841549
150	0x3e9d502b	0.30725226
151	0xbc79f89c	-0.015257027
152	0x3e874476	0.2641942
153	0x3e4df48e	0.20112821
154	0x3eb62be4	0.3558036
155	0xbe21f99d	-0.15817876
156	0x3a39158d	0.0007060401
157	0x3d1c1ba4	0.038112298
158	0xbde56f87	-0.11202913
159	0x3baf74d9	0.0053545055
160	0x3e1cc774	0.1531046
161	0x3d8840ca	0.066529825
162	0xbe737c9e	-0.23778006
163	0x3dc72928	0.09724647
164	0xbd87d5f5	-0.06632606
165	0x3db51d65	0.08843497
166	0xbe73f547	-0.23824035
167	0xbe76d310	-0.24103951
168	0x3e45f6eb	0.19332473
169	0xbe278935	-0.16360934
170	0xbe1e200b	-0.15441911
171	0xbdddc11f	-0.108278506
172	0xbe80b895	-0.25140825
173	0xbe58ca40	-0.21170902
174	0xbeb72191	-0.35767797
175	0x3cba7c33	0.0227643
176	0x3d240a7e	0.04004907
177	0xbec420f2	-0.38306385
178	0x3d8f74b4	0.07004681
179	0x3bbd39ff	0.005774736
180	0x3d0953ce	0.033527188
181	0xbdbfdad0	-0.09367907
182	0x3c9aa54c	0.018877648
183	0x3dc0da6a	0.09416659
184	0xbdb63cc5	-0.088983096
185	0x3f099738	0.53746367
186	0xbd1a67f6	-0.0376968
187	0xbdb689af	-0.0891298
188	0x3cdd6096	0.027023595
189	0xbe45cd99	-0.1931671
190	0x3e2570a7	0.16156255
191	0xbd8b6a2a	-0.068073586
192	0xbe287d83	-0.16454129
193	0xbc9cc92a	-0.019138891
194	0x3de830ba	0.11337419
195	0x3d8c055a	0.06836958
196	0x3e95c8b6	0.29254693
197	0xbd2f1ec7	-0.04275396
198	0xbd3263b8	-0.04355213
199	0x3d1ceffd	0.03831481
200	0xbd9aa02b	-0.07550081
201	0xbe87872d	-0.26470318
202	0x3d590cba	0.052990653
203	0xbe0c2d4b	-0.13689153
204	0xbcde96c3	-0.027171498
205	0xbe4a21c0	-0.19739437
206	0x3e120fd5	0.14263852
207	0xbd2e0382	-0.042483814
208	0xbce09962	-0.027416889
209	0xbeb86117	-0.36011574
210	0x3ce9b3c0	0.028528094
211	0x3d792089	0.060822044
212	0x3db7d35d	0.08975861
213	0xbdbf5f2e	-0.09344326
214	0xbe860e68	-0.26182866
215	0x3d9fefc4	0.078094035
216	0xbe78651b	-0.24257319
217	0xbcd94d67	-0.026526166
218	0xbc824ae5	-0.015904853
219	0xbbf3e1ce	-0.0074426895
220	0xbdc3751d	-0.09543822
221	0xbe68457e	-0.22682759
222	0xbdc6751e	-0.09690307
223	0xbeba1336	-0.36342782
224	0xbeb6f2bc	-0.35732067
225	0xbe05875f	-0.13039921
226	0x3e07cfc8	0.13262856
227	0xbe879e4b	-0.26487955
228	0xbdc8b213	-0.0979959
229	0x3d98fb9e	0.07469867
230	0xbe4310b8	-0.19049346
231	0x3da9c764	0.08289984
232	0xbdb0e479	-0.08637328
233	0x3d5fe09b	0.05465756
234	0xbbd60c3d	-0.0065322206
235	0xbd5f8ef7	-0.0545797
236	0xbf11dc0f	-0.5697641
237	0xbe90e7bb	-0.28301796
238	0xbe28601d	-0.16442914
239	0xbd553197	-0.052049246
240	0x3d7b8718	0.061408132
241	0xbe32a857	-0.17447029
242	0xbd42d2ee	-0.04756444
243	0x3c632ab8	0.013865165
244	0xbdc7b0d0	-0.09750521
245	0xbe16b4a7	-0.14717351
246	0x3d9df720	0.07713151
247	0xbb7c1c35	-0.003846896
248	0xbc5ef687	-0.013608581
249	0xbdeb039a	-0.11475296
250	0xbd38496d	-0.0449919
251	0xbde535e4	-0.111919194
252	0x3e60274a	0.21889988
253	0x3dd64994	0.10463253
254	0xbe4794e2	-0.19490388
255	0xbe31356a	-0.17305532

memory_rnn.weight_hh f4 [256, 64]
0	0xbe3bd7bf	-0.1834402
1	0xbd6f4b1e	-0.058421247
2	0x3e843880	0.25824356
3	0x3e3e81b7	0.1860417
4	0x3cba73e9	0.022760348
5	0x3edac18e	0.42725796
6	0xbdd60bfd	-0.10451505
7	0xbe1e1cfe	-0.15440747
8	0xbe1d3896	-0.15353617
9	0x3ca41009	0.020027177
10	0x3e091df5	0.13390334
11	0xbbcc899f	-0.0062419917
12	0xbcc7ca0a	-0.024388332
13	0xbe94a651	-0.2903314
14	0xbd1a7ff1	-0.03771967
15	0xbdcbc6f7	-0.09950059
16	0x3ddf37be	0.10899304
17	0xbd548e05	-0.051893253
18	0x3e55cf5c	0.20879883
19	0xbe3512e3	-0.17682986
20	0xbe77a546	-0.2418414
21	0xbea576bd	-0.32317153
22	0x3ecdcf35	0.4019715
23	0xbe28fbc0	-0.16502285
24	0x3d02239d	0.031772245
25	0xbda63dac	-0.08117232
26	0x3e97a417	0.29617378
27	0xbe0cc254	-0.13746005
28	0x3e74f8b7	0.23923002
29	0xbd989035	-0.0744938
30	0xbdf6a400	-0.12042999
31	0xbda1c8ab	-0.078996025
32	0xbe66d6ab	-0.22542827
33	0x3e453ddb	0.19261877
34	0x3eee9a2d	0.46602002
35	0xbdb06c9c	-0.086144656
36	0x3d818a56	0.063252136
37	0xbec4e0f5	-0.3845288
38	0xbd8be82d	-0.068313934
39	0x3cceb53d	0.025232906
40	0x3e546ae9	0.20743908
41	0x3d7ca4bb	0.061680537
42	0x3d459b1a	0.04824362
43	0xbe05c016	-0.13061556
44	0x3c4680ce	0.01211567
45	0xbe987e99	-0.29784086
46	0x3d4d6d11	0.050152842
47	0x3d1c3b6d	0.03814261
48	0x3dab46a1	0.08363081
49	0x3dd0587a	0.101731256
50	0x3e333436	0.17500386
51	0xbc1f90be	-0.009739099
52	0x3cf4220a	0.029801387
53	0x3d5f4067	0.05450478
54	0x3da67ece	0.08129655
55	0xbd4fb5f3	-0.05071063
56	0x3e698013	0.22802763
57	0x3d5ec4a6	0.054386757
58	0x3e088b5f	0.13334416
59	0x3e934fe5	0.28771892
60	0xbd4e0586	-0.050298236
61	0xbe44122a	-0.19147554
62	0x3dd8598a	0.10563953
63	0xbe4a8930	-0.19778895
64	0x3c169d8a	0.009192834
65	0x3ce100dd	0.027466232
66	0x3cf40ead	0.029792154
67	0x3e302933	0.17203216
68	0xbded7734	-0.11595002
69	0xbe7c0500	-0.24611282
70	0xbdbc7077	-0.092011385
71	0xbe08fc66	-0.13377532
72	0xbde9f29e	-0.11423229
73	0x3dcfc058	0.101441085
74	0xbd72608a	-0.059174098
75	0x3d8c18ea	0.068406895
76	0xbcab16a8	-0.020884827
77	0x3e1ce9ce	0.15323564
78	0xbb70bae1	-0.0036732482
79	0x3c5101f6	0.012756815
80	0xbd21f598	-0.039540857
81	0x3e880dbc	0.26572978
82	0xbda57f41	-0.080809124
83	0xbe235efb	-0.15954201
84	0xbdc25a60	-0.09489894
85	0x3e1094cd	0.14119263
86	0xbeb340ee	-0.35010475
87	0xbcaf4f85	-0.021400223
88	0x3e589ffd	0.2115478
89	0xbe10fed8	-0.14159715
90	0xbe703346	-0.2345706
91	0x3d1a4ab5	0.037668902
92	0x3d83f004	0.06442264
93	0x3e256814	0.16152984
94	0x3e53e25a	0.20691815
95	0xbca4f4fe	-0.020136353
96	0x3ddcc5d2	0.10779919
97	0x3d680aa8	0.056650788
98	0xbe26b491	-0.16279818
99	0xbd44821e	-0.047975652
100	0xba77636f	-0.0009437119
101	0xbe07ad64	-0.13249737
102	0xbc7ba38a	-0.015358815
103	0xbe843ef7	-0.25829288
104	0xbdcf463f	-0.1012082
105	0xbc8d19cd	-0.017224217
106	0x3bce26da	0.0062912526
107	0x3e83310e	0.25623363
108	0x3d2823a8	0.04104963
109	0x3e6dfd96	0.23241267
110	0x3da56ea5	0.080777444
111	0x3e5746ad	0.21023054
112	0xbd15865e	-0.036505096
113	0x3d4a94fa	0.04945848
114	0x3d9f8dc4	0.077907115
115	0x3e20d4a1	0.15706111
116	0xbdf3c2fc	-0.11902425
117	0x3e415da0	0.18883371
118	0xbe097db0	-0.13426852
119	0x3de37ace	0.111074075
120	0x3db6c250	0.08923781
121	0x3d8a9543	0.06766751
122	0x3d26e49d	0.040745366
123	0x3d497943	0.04918791
124	0x3e49b45f	0.19697712
125	0x3ca2130f	0.019784478
126	0x3e6bb81f	0.23019455
127	0x3e551d10	0.20811868
128	0xbe4604f9	-0.19337834
129	0xbe3a586e	-0.18197796
130	0x3e89f74a	0.2694648
131	0x3e3f402f	0.18676828
132	0xbeaa17bf	-0.33221242
133	0x3e545a16	0.2073749
134	0x3c6329b7	0.013864926
135	0xbdf31aa0	-0.11870313
136	0xbe08a744	-0.13345057
137	0x3e7e861a	0.24855843
138	0x3d0ea175	0.034821946
139	0x3e02ba9e	0.12766501
140	0xbe383b9c	-0.17991489
141	0xbe57ff6e	-0.21093532
142	0xbef8b94f	-0.4857888
143	0xbdcce42b	-0.10004457
144	0xbe838e6b	-0.25694594
145	0x3e0a1b4e	0.13486978
146	0xbe205aef	-0.15659688
147	0xbee172fb	-0.44033036
148	0xbed8d613	-0.42350826
149	0x3d57ccec	0.052685663
150	0x3e41c13f	0.18921374
151	0xbc937458	-0.017999813
152	0x3dbe8034	0.093017966
153	0xbe047f43	-0.12939171
154	0x3ded6721	0.11591936
155	0xbf134fb1	-0.57543474
156	0x3e928674	0.28618205
157	0x3c36487f	0.011125683
158	0xbe58b6c1	-0.21163465
159	0x3e35e7b1	0.17764165
160	0xbe991dca	-0.2990554
161	0x3e49f0b1	0.19720723
162	0x3e90e6d6	0.28301114
163	0xbae58c89	-0.0017513196
164	0x3dad2a0b	0.08455285
165	0xbed93fd0	-0.42431498
166	0xbe8783e1	-0.26467803
167	0xbe1628c0	-0.14663982
168	0x3cfb53df	0.030679641
169	0xbebc8a54	-0.36824286
170	0x3d68792e	0.05675619
171	0x3ec08ca4	0.376073
172	0xbdc5f04b	-0.09664973
173	0xbd25c421	-0.040470246
174	0x3bca0f60	0.0061663836
175	0x3e3be979	0.18350782
176	0xbd7d5390	-0.06184727
177	0x3e806d2f	0.250833
178	0x3e2fa38b	0.1715223
179	0x3ec86e56	0.3914668
180	0x3f04cbc5	0.5187343
181	0x3ef58b6d	0.47957936
182	0xbe14b585	-0.14522369
183	0xbcc291c0	-0.02375114
184	0x3e10763a	0.141076
185	0x3c4fc00e	0.012680067
186	0x3e8c0633	0.2734848
187	0x3dc56d45	0.09639982
188	0x3d975abf	0.07390355
189	0xbe337b28	-0.17527449
190	0x3dbf7b8d	0.09349737
191	0xbee81388	-0.453274
192	0xbdae4ab0	-0.08510339
193	0xbd9044e8	-0.07044393
194	0xbda5c7f6	-0.0809478
195	0xbca3d81d	-0.020000512
196	0x3d8fe0f9	0.07025332
197	0x3de28247	0.11060005
198	0xbc8950b7	-0.01676212
199	0x3cf5e486	0.030016195
200	0xbe702d4c	-0.2345478
201	0xbcad68f9	-0.021168219
202	0xbc1d8c39	-0.009615951
203	0x3cb18013	0.021667516
204	0x3e5942f4	0.21216947
205	0xbdc61233	-0.0967144
206	0x3c9a63fa	0.0188465
207	0x3d260519	0.040532205
208	0x3e5a4266	0.21314391
209	0xbde069a2	-0.10957648
210	0x3d997242	0.07492496
211	0xba8c14d2	-0.0010687357
212	0xbe7f0c05	-0.24906929
213	0xbe739aed	-0.23789568
214	0xbddd904c	-0.10818538
215	0x3b6f3628	0.0036500785
216	0x3eae11d3	0.33997974
217	0x3c9b98dc	0.018993787
218	0x3d4903b6	0.049075805
219	0x3d87c062	0.06628491
220	0x3e7dae69	0.24773563
221	0xbe38e802	-0.18057254
222	0xbeb716c6	-0.35759562
223	0xbdd30417	-0.103035145
224	0x3e4d1459	0.20027293
225	0xbda490f0	-0.08035457
226	0xbe7fca11	-0.24979426
227	0x3a88a9db	0.0010426597
228	0xbe7546e3	-0.23952822
229	0xbdd0d81c	-0.101974696
230	0x3d4e7ec6	0.05041387
231	0xbd47e951	-0.048806492
232	0xbe39e945	-0.18155392
233	0x3d816492	0.063180104
234	0xbc079626	-0.008275544
235	0x3d2eeb03	0.042704593
236	0xbdb625ea	-0.0889395
237	0xbf041ab9	-0.51603276
238	0x3c103d38	0.008803658
239	0x3e57a3fc	0.21058649
240	0x3d3bfd37	0.04589578
241	0x3e6f8896	0.23391947
242	0x3d3fbd97	0.046811666
243	0x3d8f51b1	0.06998003
244	0xbe5d94c9	-0.21638788
245	0xbe5787b5	-0.21047862
246	0x3e2166f6	0.15761933
247	0x3e8dc0a2	0.2768603
248	0x3cc46833	0.023975467
249	0x3c93287a	0.017963637
250	0xbdbc9dc9	-0.09209783
251	0x3e292a83	0.16520123
252	0x3e01a6b5	0.1266125
253	0x3c0e29d8	0.0086769685
254	0x3c8c5f3b	0.017135253
255	0xbd5cb5a1	-0.053884152

memory_rnn.bias_ih f4 [256]
0	0x3cc80d37	0.024420364
1	0xbde2554b	-0.110514246
2	0xbe1d13ee	-0.15339634
3	0xbe571c8a	-0.2100698
4	0xbe26b1be	-0.16278741
5	0xbe102bbf	-0.14079188
6	0xbd205a0c	-0.039148375
7	0x3c8dab93	0.017293727
8	0x3ce62e8b	0.028098365
9	0xbe7e3a9b	-0.24827044
10	0xbe32148c	-0.1739065
11	0xbe8ae10a	-0.27124816
12	0xbe8488a7	-0.25885507
13	0xbdaaf499	-0.083474346
14	0xbea082fd	-0.31349936
15	0xbe368fb9	-0.17828263
16	0xbe3b117e	-0.18268391
17	0xbd232371	-0.03982872
18	0xbe8d83a7	-0.27639505
19	0xbbc559d5	-0.0060226717
20	0xbdeaf4d6	-0.1147248
21	0xbe4e3fd0	-0.2014153
22	0xbe226c0e	-0.15861532
23	0xbe489454	-0.19587833
24	0xbe2677bf	-0.16256617
25	0xbd96fa14	-0.07371917
26	0xbe211236	-0.15729603
27	0xbea62ec7	-0.32457563
28	0x3d004d47	0.031323697
29	0x3dc3f2cf	0.095677964
30	0xbe908bb8	-0.28231597
31	0xbe5af51d	-0.21382566
32	0x3d4f9c1f	0.050685998
33	0x3caa7629	0.020808296
34	0xbd4d9db9	-0.050199244
35	0xbe27a5a5	-0.16371782
36	0xbd6b71b1	-0.05748147
37	0xbe2a12e3	-0.16608767
38	0xbcd37ae0	-0.025815427
39	0xbda9054e	-0.08252965
40	0xbd9e9303	-0.07742884
41	0xbdac5963	-0.08415487
42	0x3c8b1412	0.016977344
43	0xbdfd7f8b	-0.123778425
44	0x3c78a063	0.015174958
45	0xbe8702e9	-0.26369408
46	0xbdafc723	-0.08582904
47	0x3dd53c00	0.10411835
48	0xbda336fa	-0.0796947
49	0xbd1da7e4	-0.03849019
50	0x3c0546be	0.008134542
51	0x3e3bec2b	0.1835181
52	0x3ca82d6d	0.020529473
53	0xbe44e34d	-0.19227333
54	0x3c885048	0.016639844
55	0xbc2c283a	-0.010507638
56	0xbdeaeab1	-0.11470545
57	0xbdec912b	-0.11551126
58	0x3df3a324	0.11896351
59	0xbd8696c2	-0.065717235
60	0x3dbfaf02	0.09359552
61	0x3d5ba12d	0.053620506
62	0x3de58b35	0.11208192
63	0xbd2bef51	-0.041976277
64	0xbe7c6fb9	-0.24651994
65	0x3d4d94f4	0.05019088
66	0x3ce5fd24	0.028074808
67	0xbe85e41c	-0.26150596
68	0xbdfb661e	-0.12275337
69	0xbdf23723	-0.11826923
70	0xbe1994f7	-0.14998232
71	0xbe9fa9f5	-0.31184354
72	0xbe937ac6	-0.28804606
73	0x3d55deff	0.05221462
74	0xbe34485b	-0.17605726
75	0xbe9b17ff	-0.30291745
76	0x3e170630	0.14748454
77	0xbe90939c	-0.28237617
78	0x3db095e6	0.08622341
79	0xbe9dab3a	-0.30794698
80	0xbe06e833	-0.13174514
81	0x3db0349a	0.08603783
82	0xbe6a2b9d	-0.228682
83	0xbd3504fe	-0.044194214
84	0xbe17bf97	-0.1481918
85	0xbe9072c3	-0.28212556
86	0xbeb3028e	-0.34962887
87	0xbe2365f0	-0.15956855
88	0xbe333aa6	-0.17502841
89	0xbdd284e0	-0.1027925
90	0xbe43ab30	-0.19108272
91	0xbe4d93b9	-0.20075883
92	0xbe52e241	-0.20594122
93	0xbeb14dce	-0.34629673
94	0xbe6b0a8a	-0.22953239
95	0xbd8a1bd5	-0.0674359
96	0x3e4e327f	0.2013645
97	0xbdd23e5c	-0.102658
98	0x3e992af6	0.2991559
99	0xbe237fc5	-0.15966709
100	0xbeac05cb	-0.3359817
101	0xbe65fb20	-0.22459078
102	0xbe8af6ad	-0.27141324
103	0xbde07e5d	-0.10961602
104	0xbd60a896	-0.054848276
105	0xbe84ee31	-0.25962976
106	0x3e034385	0.12818725
107	0xbe54786c	-0.20749062
108	0xbe335026	-0.17511043
109	0xbe83a356	-0.25710553
110	0xbedf76c1	-0.4364529
111	0xbcec750c	-0.028864406
112	0xbdaba077	-0.083802156
113	0xbe9d5a0c	-0.30732763
114	0xbe5d567b	-0.21615021
115	0xbe7cfe4c	-0.24706382
116	0xbdf7791b	-0.12083646
117	0xbb683be6	-0.0035436093
118	0xbe32324d	-0.17402
119	0x3d25f7cf	0.04051953
120	0xbe9a08bd	-0.30084792
121	0xbe67db9b	-0.22642367
122	0xbec866c0	-0.39140892
123	0x3e27f03a	0.16400233
124	0xbdf52467	-0.11969834
125	0xbe150dc3	-0.14556031
126	0xbe7e6e0a	-0.24846664
127	0xbe2fb402	-0.17158511
128	0x3e048130	0.12939906
129	0xbd47cc72	-0.04877896
130	0xbdffeba6	-0.12496118
131	0x3cf57f44	0.029967912
132	0x3df36a0a	0.1188546
133	0xbd268b21	-0.040660027
134	0x3d1d059f	0.03833544
135	0xbde78adc	-0.11305782
136	0xbb983c9e	-0.004645898
137	0x3ddbc86a	0.10731585
138	0xbc3d165c	-0.011540975
139	0x3c9ae49a	0.018907834
140	0xbc5f22d8	-0.013619147
141	0x3c7d7a59	0.0154710645
142	0xbd905134	-0.07046738
143	0xbe093e9d	-0.13402791
144	0x3da06cfd	0.07833288
145	0x3d505d18	0.05087003
146	0x3c8e8df7	0.017401678
147	0x3d70c38c	0.058780238
148	0x3cfda890	0.030964166
149	0x3cc7bc4e	0.024381783
150	0xbdb71d34	-0.08941117
151	0x3dcb0700	0.099134445
152	0x3e4c4a0e	0.19950125
153	0x3ca4ba48	0.020108357
154	0x3e0193c0	0.12654018
155	0x3dacbbfc	0.08434293
156	0xbcafe8a6	-0.02147324
157	0x3dc75c6d	0.09734426
158	0x3d563a07	0.052301433
159	0xbbf36782	-0.0074281106
160	0xbdb1b2ff	-0.08676719
161	0xbd77b5a5	-0.060475964
162	0x3d4992f0	0.049212396
163	0x3d7fcdf4	0.06245227
164	0xbcc685f5	-0.024233798
165	0x3daffd83	0.085932754
166	0xbcf15715	-0.02946047
167	0x3d098561	0.033574466
168	0x3d778811	0.060432497
169	0xbdb9254c	-0.09040317
170	0xbce33382	-0.027734522
171	0xbdba16d0	-0.090863824
172	0xbd9fc8f9	-0.07802004
173	0xbe005692	-0.12533024
174	0x3db13929	0.086534806
175	0x3de34d92	0.1109878
176	0xbe057832	-0.13034132
177	0xbbf9d239	-0.0076239374
178	0xbd1bc32a	-0.03802792
179	0x3de07603	0.10960009
180	0xbd2406ad	-0.04004543
181	0x3d75d9b0	0.060022056
182	0x3d43a541	0.04776502
183	0x3bde8973	0.0067912876
184	0x3d5b3869	0.053520594
185	0xbd7ed94e	-0.062218957
186	0x3d89e248	0.06732613
187	0x3d010fa8	0.03150907
188	0x3e49ef35	0.19720156
189	0x3d6c4238	0.05768034
190	0x3c4fa5c1	0.012673796
191	0x3da24913	0.07924094
192	0xbd8c2269	-0.06842501
193	0xbe1eadbe	-0.15495965
194	0xbd950e48	-0.072781146
195	0xbe7033cc	-0.23457259
196	0x3d0161d7	0.031587448
197	0xbc9b1f76	-0.0189359
198	0xbda39770	-0.07987869
199	0xbb60fcec	-0.003433044
200	0x3dd28660	0.10279536
201	0xbe6c7221	-0.23090412
202	0xbe421ff1	-0.18957497
203	0xbe7e82f0	-0.24854636
204	0x3d026110	0.031830847
205	0xbd744237	-0.05963346
206	0xbe3ce0e8	-0.1844517
207	0xbda7e193	-0.08197322
208	0xbbcb91e1	-0.0062124585
209	0xbd5f33f4	-0.054492906
210	0xbe278bec	-0.1636197
211	0xbd6888d5	-0.05677112
212	0xbd901b95	-0.07036511
213	0xbe2771fa	-0.16352072
214	0xbe372809	-0.17886366
215	0xbe01aa74	-0.12662679
216	0x3d17f340	0.037097216
217	0xbdbc69a8	-0.0919984
218	0xbdc6d1b4	-0.097079664
219	0xbeabf224	-0.33583176
220	0xbe3e6e21	-0.18596698
221	0xbdf2fc01	-0.11864472
222	0x3c8c60db	0.017136028
223	0xbe6600c0	-0.22461224
224	0x3e1e8962	0.15482095
225	0xbd77bf63	-0.060485255
226	0x3e59d2c8	0.21271813
227	0xbe95157b	-0.2911795
228	0x3ba21400	0.004946232
229	0xbe806bcc	-0.25082242
230	0x3d70212c	0.058625385
231	0x3d41ca06	0.047311805
232	0xbe8d620c	-0.27613866
233	0xbe2c856b	-0.1684777
234	0xbe37979a	-0.17928925
235	0x3d46d381	0.04854155
236	0x3d55e1ef	0.05221742
237	0xbe416cd9	-0.18889178
238	0xbd9cfb95	-0.07665173
239	0xbe1cccb9	-0.1531247
240	0xbe180648	-0.14846146
241	0xbd960155	-0.07324473
242	0xbd8eccbb	-0.06972643
243	0x3e1a497a	0.15067092
244	0x3c351f8e	0.0110548865
245	0xbdb4c246	-0.08826117
246	0xbe4fa50e	-0.20277807
247	0xbdec0893	-0.11525073
248	0xbd88f130	-0.06686628
249	0xbeb543a7	-0.35403177
250	0x3c859703	0.01630736
251	0xbe2063a1	-0.15663005
252	0xbdc17ca9	-0.09447605
253	0x3d5b7e14	0.053587034
254	0x3d32821f	0.043581124
255	0x3c8268d2	0.015919123

memory_rnn.bias_hh f4 [256]
0	0xbe0bfa8b	-0.13669793
1	0x3d62e69e	0.055395715
2	0xbd94b1b2	-0.07260455
3	0xbe08e23a	-0.13367549
4	0x3d18685e	0.037208907
5	0xbd42e9c0	-0.047586203
6	0xbdb19774	-0.086714655
7	0xbd817e79	-0.06322951
8	0x3d8fca5b	0.07021018
9	0xbe43dac2	-0.19126418
10	0xbe371fdc	-0.17883247
11	0xbde472c9	-0.11154706
12	0xbdae8cd7	-0.08522957
13	0xbd3b539b	-0.04573403
14	0xbe84d1b1	-0.25941232
15	0xbe2b6946	-0.16739377
16	0xbd91f60e	-0.07127009
17	0x3dd25f46	0.10272078
18	0xbe341482	-0.17585948
19	0xbe003b50	-0.12522626
20	0xbd329d82	-0.043607242
21	0xbc667411	-0.014065758
22	0xbe3c9dac	-0.18419522
23	0xbe212600	-0.15737152
24	0x3d60b655	0.054861385
25	0xbe46b838	-0.19406211
26	0xbdfd84da	-0.12378855
27	0xbe52f670	-0.20601821
28	0xbe0318a0	-0.12802362
29	0xbd031870	-0.032005727
30	0xbdc0f623	-0.09421947
31	0xbe410a0b	-0.18851487
32	0x3de9c962	0.11415364
33	0xbdeedc03	-0.11663058
34	0xbe3e6f89	-0.18597235
35	0xbd2e3010	-0.042526305
36	0xbddde3c9	-0.10834462
37	0xbdf89f3a	-0.12139745
38	0x3dde8f0d	0.108671285
39	0xbdd7870a	-0.105238035
40	0xbdddedf1	-0.10836399
41	0xbe8ebb06	-0.27877063
42	0xbd4c573f	-0.04988789
43	0xbdee62c6	-0.11639933
44	0xbc90d530	-0.01767978
45	0xbe496130	-0.1966598
46	0xbd479879	-0.048729394
47	0xbc581382	-0.013188245
48	0xbb3bcdcf	-0.0028656607
49	0xbc4ef664	-0.012631986
50	0xbd2c32cd	-0.042040635
51	0x3d60ed61	0.054913882
52	0xbd06fe25	-0.032957215
53	0x3d4d1a12	0.05007369
54	0xbd84c5d4	-0.06483045
55	0xbdb425bc	-0.0879626
56	0xbdd89bef	-0.10576617
57	0xbde27059	-0.11056585
58	0x3d0806bb	0.033209544
59	0xbdc45be6	-0.09587841
60	0x3d832418	0.06403369
61	0xbdc91e55	-0.098202385
62	0xbd5c09c7	-0.053720262
63	0x3d43c20f	0.04779249
64	0xbe868766	-0.26275176
65	0x3e0286ec	0.12746781
66	0x3d72fddb	0.059324127
67	0xbcbf6a5a	-0.023366142
68	0xbdea408a	-0.11438091
69	0xbe343f10	-0.17602181
70	0xbe486aad	-0.19571944
71	0xbe8c2101	-0.2736893
72	0xbe9df0ef	-0.3084788
73	0xbda48819	-0.08033771
74	0xbda39e4d	-0.07989178
75	0xbe39313e	-0.1808519
76	0x3e314ccb	0.1731445
77	0xbed239b8	-0.4105966
78	0x3e828276	0.2549016
79	0xbe8068aa	-0.25079852
80	0xbe3476aa	-0.17623392
81	0x3c5aec15	0.01336195
82	0xbe956818	-0.2918098
83	0xbd2136d6	-0.039358936
84	0xbe66ea2d	-0.22550268
85	0xbe659d27	-0.2242323
86	0xbec5f526	-0.38663596
87	0xbe430353	-0.19044237
88	0xbd9857ee	-0.07438646
89	0xbe162dc6	-0.14665899
90	0xbda405b8	-0.08008903
91	0xbebc80ed	-0.36817113
92	0xbd5036ff	-0.0508337
93	0xbece2022	-0.4025889
94	0xbe91f5a2	-0.28507715
95	0xbe4b7de4	-0.19872242
96	0x3e816750	0.25274134
97	0xbdf0c11b	-0.11755582
98	0x3e2f5433	0.17121963
99	0xbe431f99	-0.19055022
100	0xbe10ccaf	-0.1414058
101	0xbdaef2cc	-0.085424036
102	0xbe8dd550	-0.27701807
103	0xbd09c332	-0.03363342
104	0x3b892c7b	0.0041862107
105	0xbe6f703e	-0.23382661
106	0xba0c2da4	-0.0005347377
107	0xbe399888	-0.18124592
108	0xbd12ce9c	-0.03584157
109	0xbeaf2c10	-0.34213305
110	0xbee19bcf	-0.44064185
111	0x3b5cdd8d	0.003370139
112	0xbd4a4595	-0.049382765
113	0xbeb03488	-0.34415078
114	0xbe981087	-0.2970011
115	0xbe9e4b11	-0.30916646
116	0x3dc1ce89	0.094632216
117	0xbd834c13	-0.064109944
118	0xbdfd83a4	-0.12378624
119	0xbd6776ec	-0.056509897
120	0xbe7ab6df	-0.24483822
121	0xbe8d8ddd	-0.27647296
122	0xbf0870cd	-0.5329712
123	0x3dece202	0.11566545
124	0xbe17ecc5	-0.14836414
125	0xbe86d1a5	-0.2633182
126	0xbeb25111	-0.34827474
127	0xbd833ef3	-0.06408491
128	0x3d2e64df	0.042576667
129	0xbd1c5d8d	-0.038175154
130	0xbdfd3d52	-0.123652115
131	0x3d48b9e6	0.04900541
132	0x3e277e20	0.16356707
133	0x3d6c8500	0.057744026
134	0xbe1a2da5	-0.15056475
135	0xbcbea669	-0.02327271
136	0x3dd4f1cc	0.103976816
137	0x3d81caa1	0.063374765
138	0xbb235289	-0.002492102
139	0x3e074049	0.13208117
140	0xbd1dda56	-0.0385383
141	0xbc8bc52e	-0.017061796
142	0xbc8a539f	-0.016885577
143	0xbdb5592e	-0.088549
144	0x3da62e4b	0.081142984
145	0x3cddf490	0.027094156
146	0xbd011e65	-0.031523127
147	0xbc69855d	-0.014252988
148	0x3d919002	0.071075454
149	0xbe24e0bb	-0.16101353
150	0xbda1e644	-0.07905248
151	0x3defba96	0.1170551
152	0x3dca2d1f	0.098718874
153	0x3e461031	0.19342114
154	0x3e0d76bb	0.13814823
155	0x3dc10bf1	0.09426106
156	0x3b524223	0.0032082878
157	0x3dcbfc73	0.0996026
158	0xbde05f85	-0.10955719
159	0xbe1d935b	-0.15388243
160	0xbd15862e	-0.036504917
161	0x3d81ebb8	0.06343788
162	0x3decf748	0.11570603
163	0x3d6dce4e	0.058058076
164	0xbd8ecbdd	-0.069724776
165	0xbd346966	-0.04404583
166	0xbdd026b8	-0.10163635
167	0x3d0c410c	0.03424172
168	0xbe242a79	-0.16031827
169	0x3c0c9e6e	0.008582694
170	0x3e11b1f6	0.14228043
171	0xbc83ff92	-0.016113076
172	0xbd123f8b	-0.03570513
173	0x3d9e2b92	0.07723154
174	0x3e18c42d	0.14918585
175	0x3de63966	0.11241417
176	0xbda29cfa	-0.07940097
177	0x3d7df3fc	0.06200026
178	0xbda166fa	-0.07880969
179	0x3d9997c4	0.0749965
180	0xbc85bf0e	-0.016326454
181	0xbd7e2ab8	-0.06205246
182	0x3d22bf56	0.039733253
183	0x3cb0c6c5	0.021579156
184	0x3d8c1d59	0.06841535
185	0xbca89cb1	-0.020582529
186	0xbba88230	-0.0051424727
187	0x3c4a24fb	0.012337918
188	0x3cd5a767	0.0260808
189	0x3d3ab7c2	0.0455854
190	0xbd848f95	-0.064726986
191	0xbbfd2f77	-0.0077266055
192	0xbd691075	-0.05690046
193	0xbd764c83	-0.06013156
194	0xbe0fef65	-0.14056166
195	0xbd89520a	-0.06705101
196	0xbe163833	-0.14669876
197	0xbbb6e07d	-0.0055809603
198	0x3d60524d	0.05476599
199	0xbdc0258a	-0.0938216
200	0x3e16dab0	0.1473186
201	0xbe8fdc18	-0.28097606
202	0xbe898317	-0.26857826
203	0xbe265845	-0.1624461
204	0xbdc69ab3	-0.09697475
205	0xbd268fc7	-0.04066446
206	0x3c56db8c	0.0131138675
207	0xbe3c65cc	-0.18398207
208	0xbe235f1c	-0.1595425
209	0x3d89078b	0.06690892
210	0xbe9a512c	-0.30140054
211	0xbe12771b	-0.14303248
212	0xbd9e443c	-0.077278584
213	0xbe874cd2	-0.26425797
214	0xbda3b70e	-0.07993899
215	0xbe7acddc	-0.24492592
216	0xbe1a4c4b	-0.15068166
217	0xbd93f68c	-0.072247595
218	0xbe39a2fb	-0.18128578
219	0xbe68bd30	-0.2272842
220	0xbc9e4b4f	-0.01932302
221	0xbd6f87be	-0.058479063
222	0x3cc0728a	0.023492116
223	0xbe595152	-0.21222427
224	0x3e79d9ce	0.24399492
225	0x3d2ce821	0.042213563
226	0x3c560b0f	0.01306416
227	0xbe6197f0	-0.22030616
228	0x3d1a6957	0.037698116
229	0xbdb4abfb	-0.08821865
230	0xbe12327e	-0.14277074
231	0x3de32739	0.110914655
232	0xbe3d1eb6	-0.18468747
233	0xbe61507b	-0.22003357
234	0xbc115c96	-0.008872172
235	0xbd12479b	-0.03571282
236	0x3d4bd747	0.04976585
237	0xbe2a6aff	-0.16642378
238	0xbda86b6e	-0.082236156
239	0xbe9a40a6	-0.30127448
240	0xbd79f76c	-0.061026976
241	0x3d28917f	0.04115438
242	0x3c827209	0.015923517
243	0x3c80c899	0.015720652
244	0x3db06b56	0.08614223
245	0xbe0e72c5	-0.13910969
246	0xbe4eb4e6	-0.20186195
247	0xbd1c92f3	-0.03822608
248	0xbdc4ae3e	-0.096035466
249	0xbe0ed441	-0.13948156
250	0xbd28ebd6	-0.041240536
251	0x3cef6bd4	0.029226221
252	0xbcbdb613	-0.023158109
253	0xbe08024c	-0.13282126
254	0x3e1ab46e	0.15107891
255	0xbbca6b66	-0.0061773537
