torch-rl/storage/LineCorridor25x25_lr04_d98/status.pt (torch, 649941 bytes, 51 tensors)

image_conv.0.weight f4 [16, 3, 2, 2]
0	0x3e686afd	0.22697063
1	0xbe32250a	-0.17396942
2	0xbd807884	-0.062729865
3	0x3d8c3184	0.06845382
4	0xbe11d127	-0.14239942
5	0x3db946cf	0.09046709
6	0xbd98b945	-0.07457212
7	0x3d640a72	0.055674024
8	0x3d246023	0.040130746
9	0xbd10c794	-0.035346583
10	0x3da3fa45	0.080067195
11	0x3c69527e	0.014240859
12	0x3df52633	0.119701765
13	0xbe3ba824	-0.1832586
14	0xbde991f8	-0.114047945
15	0xbd9538ab	-0.07286199
16	0xbc8af85e	-0.016964134
17	0xbbb15dc6	-0.00541279
18	0x3e075da7	0.1321932
19	0x3d0e160b	0.03468899
20	0xbddc2b47	-0.10750442
21	0xbe328872	-0.17434862
22	0xbd4630e4	-0.04838647
23	0xbdff02f1	-0.12451733
24	0xbe004e2e	-0.12529823
25	0x3c7992ac	0.015232723
26	0x3de55030	0.11196935
27	0x3dba261a	0.090892985
28	0xbec404f8	-0.3828504
29	0x3e0bb4f5	0.13643248
30	0xbd5e0a86	-0.054209255
31	0x3e47b493	0.19502477
32	0x3e431daa	0.19054285
33	0xbe86aaec	-0.26302278
34	0xbe8c87f4	-0.27447474
35	0xbe0e9438	-0.13923728
36	0x3e8c3865	0.27386776
37	0xbdd542a2	-0.104131
38	0x3e00ef74	0.12591344
39	0xbdf7b8c8	-0.12095791
40	0x3e6ec39e	0.2331681
41	0xbe10009f	-0.14062737
42	0x3e4052e1	0.18781616
43	0x3b318304	0.0027086148
44	0xbe1bba9f	-0.15207909
45	0x3e17f1cb	0.1483833
46	0xbe1ce986	-0.15323457
47	0x3dade06d	0.084900714
48	0xbde1608a	-0.110047415
49	0xbda430b4	-0.08017102
50	0xbea74fc1	-0.32678035
51	0xbe31fff7	-0.17382799
52	0x3df2ad48	0.11849457
53	0xbdd8211f	-0.10553192
54	0x3e5f6b95	0.21818383
55	0x3e3a6345	0.18201931
56	0xbc5d75a1	-0.013516814
57	0xbe454f6b	-0.19268577
58	0x3e3402e1	0.17579223
59	0x3db77c35	0.089592375
60	0xbe537932	-0.20651701
61	0x3e0e8d85	0.13921173
62	0x3e2281ee	0.15869877
63	0x3e836271	0.25661042
64	0xbdfbb3f7	-0.12290185
65	0xbd4a817b	-0.04943989
66	0xbc6c563b	-0.014424856
67	0xbd3dcfd7	-0.04634079
68	0xbe6056ba	-0.21908084
69	0xbe51c449	-0.20485033
70	0x3e20cf3f	0.15704058
71	0xbd8aa219	-0.06769199
72	0x3d516c7a	0.051128842
73	0xbd761ca4	-0.060085908
74	0x3e0ed2cb	0.13947599
75	0xbc212abd	-0.00983685
76	0x3d002cd3	0.031292748
77	0x3d626608	0.055273086
78	0xbe76c9b6	-0.24100384
79	0x3d9f7aa5	0.077870645
80	0xbe4fd877	-0.20297419
81	0xbe5f090e	-0.21780798
82	0x3c8fd0c3	0.0175556
83	0xbd497de1	-0.049192313
84	0x3e3b4d68	0.18291247
85	0xbe50b6be	-0.2038221
86	0xbe875c72	-0.26437718
87	0x3e76481e	0.24050948
88	0xbdd36ff6	-0.10324089
89	0x3e0ab73f	0.13546465
90	0x3dd8271f	0.10554337
91	0xbe14099c	-0.1445679
92	0x3d6d8b79	0.05799434
93	0x3d8e017e	0.06933878
94	0xbe45ec7c	-0.19328493
95	0xbe0c416e	-0.13696834
96	0x3d670521	0.056401376
97	0x3d04311e	0.032273404
98	0xbe3f1715	-0.18661149
99	0xbe18a59d	-0.14906926
100	0x3e55aadc	0.20865959
101	0xbe33ad7b	-0.17546646
102	0x3dbcbc63	0.092156194
103	0x3d77edd0	0.06052953
104	0xbe3f1482	-0.18660167
105	0xbe7b63ca	-0.24549785
106	0x3e8ddf87	0.277096
107	0x3c76f79b	0.015073682
108	0x3da207d6	0.07911651
109	0xbd921f74	-0.071349055
110	0xbcf783cd	-0.030214215
111	0x3e484f06	0.19561395
112	0x3e201831	0.15634228
113	0xbe4c5606	-0.1995469
114	0xbde129aa	-0.10994275
115	0x3e360e8b	0.17778985
116	0x3e56253b	0.2091264
117	0x3e37a3e2	0.1793361
118	0xbe55ef08	-0.20891964
119	0xbe54dd7e	-0.20787618
120	0xbe477ad3	-0.19480447
121	0x3c7a2e2b	0.015269796
122	0x3e8e9fbc	0.27856243
123	0xbe4e108c	-0.201235
124	0x3e050680	0.12990761
125	0xbe3c217d	-0.1837215
126	0xbea1eec5	-0.3162748
127	0xbd7b4f4b	-0.061354917
128	0x3e2a516b	0.16632621
129	0x3e893722	0.26799875
130	0xbe3794c5	-0.17927845
131	0x3d804c69	0.06264574
132	0x3e6fcedc	0.23418754
133	0x3e51fd00	0.20506668
134	0x3e46bebd	0.19408698
135	0x3e59bede	0.21264216
136	0x3e162891	0.14663912
137	0x3d82532a	0.063635185
138	0xbe3a0f5c	-0.18169922
139	0xbe8bdfde	-0.27319235
140	0xbe077398	-0.1322769
141	0xbd09afeb	-0.033615034
142	0xbe3530d3	-0.17694406
143	0x3dd84b8d	0.10561285
144	0x3cc3d896	0.023906987
145	0xbe10d9c8	-0.14145577
146	0x3e27a129	0.16370071
147	0x3d1aa3a2	0.03775371
148	0x3dffd7b4	0.12492314
149	0x3ddf4bbd	0.10903118
150	0xbd736238	-0.05941984
151	0x3e607d1d	0.21922727
152	0xbd08b236	-0.03337308
153	0xbc227df1	-0.009917722
154	0xbe8b81ce	-0.2724747
155	0xbe3e414e	-0.185796
156	0xbe9e2033	-0.3088394
157	0xbe2fb9b8	-0.1716069
158	0x3e198272	0.14991167
159	0xbe1bd200	-0.15216827
160	0xbe6029b7	-0.21890913
161	0x3ddee7c5	0.1088405
162	0xbcd2313d	-0.025658244
163	0x3de621ef	0.11236941
164	0xbe18f76c	-0.14938134
165	0x3d802eb6	0.062589094
166	0xbdd73aaa	-0.10509236
167	0xbd84d445	-0.064858
168	0xbe644f23	-0.22295813
169	0xbe409659	-0.18807353
170	0xbe0ce5d3	-0.13759546
171	0x3df0287f	0.11726474
172	0x3dc7fbec	0.09764847
173	0x3d226d6d	0.039655138
174	0x3e688bd7	0.22709595
175	0x3e301a0c	0.17197436
176	0x3e499d8b	0.19689004
177	0x3c169be2	0.009192439
178	0xbe4c7ef0	-0.19970298
179	0x3e670451	0.2256024
180	0xbd64d060	-0.055862784
181	0xbd033cef	-0.032040533
182	0xbe86c50d	-0.26322213
183	0xbdc462ea	-0.09589179
184	0xbe33dccd	-0.17564698
185	0x3e8017bb	0.25018105
186	0xbe7f8e28	-0.24956572
187	0xbe7f0e65	-0.24907835
188	0xbc2099fa	-0.009802336
189	0xbe1fd659	-0.15609111
190	0x3dd38a68	0.10329133
191	0xbde39212	-0.11111845

image_conv.0.bias f4 [16]
0	0xbe45fd6f	-0.19334958
1	0xbd149f6d	-0.036284853
2	0x3e3cab90	0.18424821
3	0xbe4c6118	-0.19958913
4	0x3df81052	0.12112488
5	0x3e2494e8	0.16072428
6	0x3e61db63	0.22056346
7	0xbe795e4b	-0.24352376
8	0x3d35e510	0.044407904
9	0xbe9c4f94	-0.30529463
10	0x3e36da65	0.17856748
11	0xbdd50bac	-0.10402617
12	0x3e0a33b6	0.13496289
13	0xbceb1bf4	-0.028699853
14	0xbdf763e7	-0.12079602
15	0xbcbdafd0	-0.023155123

image_conv.3.weight f4 [32, 16, 2, 2]
0	0x3afaa178	0.0019121608
1	0x3d2cb3aa	0.04216353
2	0xbb9e7acb	-0.0048364154
3	0xbc620937	-0.013796142
4	0xbe09179c	-0.13387913
5	0x3da89e3c	0.08233306
6	0x3dae0acf	0.08498155
7	0x3d69c44d	0.057071973
8	0x3d889633	0.06669273
9	0xbdf3d0b5	-0.11905042
10	0xbd91fe0a	-0.07128532
11	0x3d77bf68	0.060485274
12	0xbdbfcbf1	-0.093650706
13	0x3de76479	0.112984605
14	0xbdcd7ea6	-0.10033922
15	0xbdcb7248	-0.09933907
16	0x3d18750a	0.037220992
17	0xbddf95b4	-0.109172255
18	0xbd549214	-0.051897123
19	0x3d34148d	0.04396491
20	0x3d9dfa77	0.07713788
21	0x3dbcf210	0.09225857
22	0xbd527f66	-0.051391028
23	0xbe106d5d	-0.14104219
24	0x3ddd8969	0.108172245
25	0xbd6265a2	-0.055272706
26	0xbd9360b4	-0.07196179
27	0x3c81f121	0.01586205
28	0xbdc04549	-0.09388215
29	0x3d516e32	0.05113048
30	0x3db2bb5c	0.08727142
31	0xbdc7a3fe	-0.09748076
32	0xbdcd8097	-0.10034292
33	0xbc9054ee	-0.017618623
34	0x3d59615a	0.053071357
35	0xbc76e7c5	-0.015069907
36	0xbd87573c	-0.066084355
37	0xbc727d3e	-0.014800368
38	0xbe0e6493	-0.13905554
39	0xbe118ea1	-0.14214565
40	0xbda7a482	-0.08185674
41	0x3daa665e	0.08320306
42	0x3de7bbe1	0.11315132
43	0xbd920492	-0.07129778
44	0xbc4146a6	-0.011796629
45	0x3cace0a8	0.021103218
46	0x3cb13e33	0.021636104
47	0xbd9266eb	-0.07148536
48	0x3d535236	0.051592074
49	0x3d29feb0	0.041502655
50	0xbd1ba4aa	-0.037998833
51	0xbd2d956d	-0.04237883
52	0x3dc23556	0.09482829
53	0x3dc5af3c	0.09652564
54	0xbda17219	-0.078830905
55	0x3d94d6ff	0.0726757
56	0x3b782920	0.003786631
57	0xbdf2a83f	-0.11848497
58	0x3cc8b231	0.02449903
59	0xbe1d9812	-0.15390041
60	0x3dec8357	0.115484886
61	0xbdae7897	-0.085190944
62	0x3dc485e9	0.09595854
63	0x3d110bff	0.03541183
64	0x3cd1f3b9	0.025628911
65	0x3da8092f	0.08204877
66	0xbd66bd9b	-0.056333166
67	0xbd98029e	-0.07422374
68	0xbde78bb9	-0.11305947
69	0xbcd5bbc1	-0.026090505
70	0xbd797aa9	-0.060907993
71	0xbc8091e2	-0.015694562
72	0xbd1912eb	-0.037371557
73	0x3c9529e0	0.018208444
74	0x3dc5f9ea	0.09666808
75	0x3c623921	0.013807566
76	0xbd24ef90	-0.040267527
77	0xbda58f5b	-0.080839835
78	0xbde14e1c	-0.11001226
79	0x3da973ee	0.08274065
80	0xbd125edf	-0.035735007
81	0x3b9eddba	0.004848209
82	0xbbbb7d9e	-0.005721762
83	0xbdcbaaf7	-0.09944718
84	0x3d68592e	0.056725673
85	0x3d43c70c	0.047797248
86	0xbbe4378c	-0.0069646295
87	0xbdbc5c85	-0.09197334
88	0xbd8a28d0	-0.067460656
89	0xbca630ad	-0.020286882
90	0xbdaed376	-0.08536427
91	0xbdbbb72f	-0.09165799
92	0xbc98bf40	-0.018645883
93	0xbd958420	-0.073005915
94	0x3cf1f238	0.029534444
95	0xbd2b220b	-0.041780513
96	0xbccbb461	-0.024866285
97	0xbd858a38	-0.06520504
98	0xbdf6ad6d	-0.12044797
99	0x3db454b6	0.0880522
100	0x3cac58ee	0.021038499
101	0x3db72c02	0.08943941
102	0xbcb03377	-0.021508915
103	0xbd569f05	-0.052397747
104	0xbe09ce1c	-0.1345753
105	0xbd5dd956	-0.054162346
106	0x3d84d5ae	0.06486069
107	0xbe01e0a1	-0.12683345
108	0xbd37332e	-0.044726543
109	0x3d4fabde	0.050701015
110	0x3d915de4	0.07097986
111	0x3cb4e68f	0.022082595
112	0xbd1003d7	-0.035159912
113	0xbd03371e	-0.032034986
114	0xbd0b36a2	-0.03398765
115	0xbd8c5193	-0.068514965
116	0x3d440b3e	0.047862284
117	0xbd823be9	-0.06359083
118	0xbd98fe3f	-0.074703686
119	0x3bf91326	0.0076011596
120	0xbdc17b6d	-0.0944737
121	0xbd4f4b5a	-0.05060897
122	0x3d740e0e	0.059583716
123	0x3cc8a19f	0.02449113
124	0x3dd1c0c0	0.10241842
125	0xbdb67662	-0.089092985
126	0xbb03ba53	-0.0020100072
127	0xbd6cf89b	-0.057854276
128	0xbd69e0d5	-0.057099182
129	0xbdeae0e1	-0.114686735
130	0x3c507d6f	0.012725218
131	0xbd1f8e1e	-0.038953893
132	0xbd055a40	-0.032556772
133	0xbda359b0	-0.07976091
134	0xbe0ca744	-0.13735682
135	0x3da5f494	0.0810329
136	0xbbd9c50e	-0.006645805
137	0xbce9044a	-0.028444428
138	0xbd8d3193	-0.06894221
139	0xbdd0eff3	-0.10202017
140	0xbdaccda8	-0.08437663
141	0xbd96dc70	-0.07366264
142	0x3d38f716	0.045157515
143	0xbb9085bf	-0.004410475
144	0xbcac9ac0	-0.021069884
145	0xbcd5317c	-0.026024573
146	0x3d58b74b	0.052909177
147	0x3d778027	0.06042495
148	0x3df28e4b	0.118435465
149	0x3ca26943	0.019825583
150	0x3d22961e	0.039693944
151	0xbd24ceb4	-0.04023619
152	0xbd84d159	-0.064852424
153	0xbe0a6d50	-0.13518262
154	0x3d8f72e0	0.070043325
155	0xbcf78c0d	-0.030218149
156	0x3d47b0a6	0.04875245
157	0xbced7761	-0.028987588
158	0xbe041dd4	-0.12902004
159	0xbdba912f	-0.09109723
160	0x3d134bc0	0.035960913
161	0xbcfb3459	-0.03066461
162	0xbe17a079	-0.14807309
163	0x3c64c23d	0.013962326
164	0x3be04e9e	0.0068453094
165	0xbd63a0c8	-0.055573255
166	0x3cc6bf2e	0.024261083
167	0xbc62a7cd	-0.013833952
168	0xbcf63fc1	-0.030059697
169	0x3dce157b	0.10062691
170	0x3dfbf8df	0.12303328
171	0x3cfce95d	0.030872995
172	0xbd010aef	-0.031504568
173	0xbe097d3d	-0.13426681
174	0x3d8a1805	0.067428626
175	0xbd9303f1	-0.07178486
176	0xbda3f34d	-0.0800539
177	0x3d6618e6	0.05617609
178	0x3c8f038a	0.017457742
179	0xbbc451db	-0.0059912032
180	0xbc1006e8	-0.008790709
181	0xbd895e78	-0.067074716
182	0xbb92fb55	-0.0044855275
183	0x3d5c1ec6	0.053740285
184	0x3c2d8a4f	0.010592057
185	0xbd8b9e9a	-0.0681736
186	0x3daaa7a1	0.08332754
187	0xbd43004d	-0.04760771
188	0x3de66884	0.112504035
189	0x3ca6a08d	0.020340228
190	0x3d901a77	0.07036298
191	0x3d3ef17b	0.046617012
192	0xbcf9f29f	-0.030511199
193	0x3d37ae7b	0.044844132
194	0x3cd525e5	0.026019046
195	0xbe02a4a5	-0.1275812
196	0x3b36a160	0.0027867183
197	0xbe0a0f7e	-0.13482472
198	0xbd6d8373	-0.057986688
199	0xbde0be2e	-0.10973774
200	0x3dd04c47	0.10170799
201	0xbd2edd57	-0.042691555
202	0xbcc2fb69	-0.023801522
203	0x3c8d77e6	0.017269086
204	0x3d857b8c	0.06517705
205	0xbdd5ffc5	-0.10449175
206	0x3d26b343	0.0406983
207	0x3cf02252	0.02931324
208	0xbda6df5d	-0.08148072
209	0x3d8d0e55	0.06887499
210	0xbdad26a2	-0.08454634
211	0xbda9ac49	-0.08284814
212	0xbddb5a50	-0.10710585
213	0x3db7b583	0.089701675
214	0x3c564243	0.013077321
215	0x3d8fec0c	0.07027444
216	0x3be179af	0.006880961
217	0x3d39655b	0.045262676
218	0xbd1abf5c	-0.03778015
219	0xbdf0080a	-0.11720283
220	0x3bb3b932	0.0054847235
221	0xbd37410d	-0.04473977
222	0xbc724abb	-0.014788325
223	0xbdc48afa	-0.0959682
224	0x3c59598d	0.0132659795
225	0x3bbf2104	0.005832793
226	0x3d34f718	0.04418096
227	0xbe0c810d	-0.13721104
228	0x3d8464f6	0.06464569
229	0xbbe3a03e	-0.0069465926
230	0x3da05c5b	0.078301154
231	0x3d3d397e	0.046197407
232	0xbddb3fe8	-0.107055485
233	0x3dc37e3d	0.095455624
234	0xbe16ccb0	-0.1472652
235	0x3d9de93d	0.07710502
236	0xbbb44b59	-0.005502146
237	0x3ced9785	0.029002914
238	0xbda82355	-0.08209864
239	0x3d4554ea	0.048176683
240	0xbd7c000b	-0.06152348
241	0xbe0c362b	-0.13692538
242	0x3d1805bb	0.03711484
243	0x3cf5a118	0.029984042
244	0x3e2c2e9c	0.16814655
245	0xbd956f68	-0.0729664
246	0x3e10b54e	0.14131662
247	0x3d887ae5	0.06664065
248	0xbd7091cd	-0.058732796
249	0xbe270e6f	-0.163141
250	0x3d7d4e2c	0.06184213
251	0xbddc53a4	-0.10758141
252	0x3d9c2c01	0.076255806
253	0xbdce9fa6	-0.10089044
254	0x3d82e517	0.06391352
255	0x3c8c9922	0.017162863

image_conv.3.bias f4 [32]
0	0xbbfc0d83	-0.0076920404
1	0xbd7d1544	-0.06178786
2	0x3d426de9	0.0474681
3	0xbd9ced61	-0.07662464
4	0xbdd40980	-0.103533745
5	0xbcf9c05f	-0.030487237
6	0xbdeccb0b	-0.11562165
7	0xbc8d1b27	-0.017224861
8	0x3a051728	0.0005076998
9	0x3daf99fe	0.085742936
10	0x3cabb164	0.02095861
11	0xbca2297b	-0.01979517
12	0xbdcfe609	-0.101512976
13	0xbd74ba33	-0.059747886
14	0xbd22fa50	-0.039789498
15	0xbd4526bf	-0.048132654
16	0xbbd15496	-0.0063882573
17	0x3da4b78a	0.0804282
18	0x3da70789	0.08155734
19	0xbda350ad	-0.07974372
20	0xbd3572cc	-0.044298932
21	0x3d8e3519	0.06943721
22	0x3cc7af4f	0.024375586
23	0xbde5ead6	-0.11226432
24	0xbd617489	-0.055042777
25	0x3d309a12	0.043115683
26	0xbd878832	-0.06617774
27	0xbcf053f1	-0.029336901
28	0xbde18353	-0.11011376
29	0xb9286b7b	-0.00016061768
30	0xbdcddc84	-0.10051826
31	0x3c62f054	0.013851244

image_conv.5.weight f4 [64, 32, 2, 2]
0	0x3d2f369f	0.0427767
1	0xbd9663fc	-0.07343289
2	0xbd87726c	-0.06613621
3	0xbbb7641c	-0.0055966508
4	0xb99bc5b7	-0.00029711213
5	0x3d5444e1	0.0518235
6	0xbbe03f36	-0.006843473
7	0x3c72e8fa	0.014826054
8	0xbc951216	-0.0181971
9	0x3d190285	0.03735592
10	0x3c652561	0.013985963
11	0xbda78768	-0.081801236
12	0x3d4b08e5	0.04956903
13	0xbcb97b16	-0.0226417
14	0x3d8a0115	0.06738488
15	0xbdce92f3	-0.10086622
16	0xbc0fc263	-0.008774373
17	0x3d239669	0.039938364
18	0x3d79a6c6	0.060950063
19	0x3a969a4a	0.0011490074
20	0xbd4a3425	-0.049366135
21	0xbd8be759	-0.068312354
22	0xbd8c5ab7	-0.0685324
23	0x3d91c617	0.07117861
24	0xbdb413a1	-0.087928064
25	0xbc9f6dc8	-0.019461527
26	0x3cf4f102	0.029900078
27	0x3d652d37	0.055951323
28	0xbd9e584e	-0.077316865
29	0x3c8f8e81	0.017524006
30	0x3c2f1358	0.010685764
31	0x3da623dc	0.081123084
32	0xbc0fc8b8	-0.008775882
33	0x3cd3309c	0.025780015
34	0xbc87c724	-0.01657445
35	0x3d858447	0.065193705
36	0xbc6bdfbe	-0.014396606
37	0xbd6df7fc	-0.058097824
38	0x3cb8744a	0.022516388
39	0xbd3ecd6c	-0.046582624
40	0x3cb50f45	0.022102008
41	0x3d7ba888	0.06144002
42	0xbd8ccb9a	-0.068747714
43	0xbd83b2da	-0.064305976
44	0xbcf90610	-0.030398399
45	0xbc49f1e8	-0.012325741
46	0xbd2a9cb8	-0.041653365
47	0x3dabd2dc	0.083898276
48	0x3d0a9260	0.033831
49	0xbcf0122f	-0.029305546
50	0x3c2bbd7e	0.01048219
51	0xbc59e270	-0.013298616
52	0xbd70571e	-0.05867683
53	0x3d142067	0.036163714
54	0xbd5c683b	-0.05381034
55	0x3c2f403f	0.01069647
56	0x3d4b87a1	0.049689893
57	0xbda145b5	-0.07874624
58	0xbbe41bf6	-0.006961341
59	0x3da8d7de	0.082442984
60	0x3bfa2d68	0.0076348074
61	0xbd4d87b3	-0.05017824
62	0xbc01ddcb	-0.007926415
63	0xbdb84882	-0.08998205
64	0x3c737da7	0.014861501
65	0x3d87f24c	0.06638011
66	0x3d8362b0	0.064153075
67	0xbc82ebc1	-0.015981557
68	0x3cf1b637	0.029505832
69	0x3b8a3ea7	0.0042188945
70	0xbccc4e7e	-0.024939772
71	0x3ca312d9	0.019906448
72	0xbd97dfa6	-0.074157044
73	0x3caf20cf	0.021377949
74	0x3cf5110c	0.029915355
75	0xbc93f9c2	-0.01806343
76	0xbcb75508	-0.022379413
77	0xbd91894b	-0.07106265
78	0x3ca3a4fa	0.019976128
79	0x3cc46db6	0.023978096
80	0x3d76a7b3	0.060218524
81	0xbdb665f5	-0.089061655
82	0xbd901dd3	-0.070369385
83	0x3d1884dc	0.03723608
84	0x3d964270	0.07336891
85	0xbac4495b	-0.0014975475
86	0x3c6302cb	0.013855646
87	0x3b1721d3	0.0023060932
88	0xbd2710b0	-0.0407874
89	0x3d75653c	0.059910998
90	0x3d4d4f98	0.050124735
91	0xbd37fdf8	-0.044919938
92	0xbd58d0d2	-0.05293352
93	0xbd8cc1b8	-0.068728864
94	0xbcb017b1	-0.021495672
95	0xbb027e60	-0.001991175
96	0x3d81d4fb	0.06339451
97	0xbda6c86c	-0.08143696
98	0x3d67d831	0.05660266
99	0xbd074296	-0.033022486
100	0xbcd0799c	-0.025448613
101	0xbd16abb2	-0.036784835
102	0x3cbcc400	0.023042679
103	0xbdb33622	-0.087505594
104	0xbd3f9fe0	-0.046783328
105	0xba1eb54b	-0.00060542364
106	0x3d74d3c8	0.059772283
107	0xbd38f5f3	-0.04515643
108	0x3b210c58	0.0024574008
109	0xbd29ef2e	-0.041487865
110	0xbdc13a94	-0.09435001
111	0xbceaecdd	-0.028677398
112	0xbc5e934b	-0.013584922
113	0x3d3ed7ee	0.046592645
114	0x3d8ddc70	0.06926811
115	0x3d545396	0.051837526
116	0x3d6b0017	0.057373133
117	0xbd7d3941	-0.06182218
118	0xbdc223c2	-0.094794765
119	0x3bd65ad2	0.0065415883
120	0x3d02dec0	0.031950712
121	0xbd61c763	-0.05512179
122	0x3d6f2c67	0.058391955
123	0xbccbb38c	-0.024865888
124	0xbd10efc8	-0.035384923
125	0x3d7c6653	0.06162102
126	0x3d971167	0.07376366
127	0xbb481f1b	-0.0030536118
128	0xbd26db71	-0.04073662
129	0xbc434709	-0.011918792
130	0xbda2a4e0	-0.07941604
131	0x3d03cf9b	0.03218041
132	0x3d634741	0.055487875
133	0xbc9c3b6e	-0.019071307
134	0xbd8f82a3	-0.07007339
135	0x3d8135ab	0.063090645
136	0xbdaff978	-0.08592504
137	0xbd5e3cf0	-0.054257333
138	0x3d231c42	0.03982187
139	0xbd542b0b	-0.05179886
140	0x3c89e763	0.016833967
141	0x3d94cb49	0.07265336
142	0xbc3711ef	-0.011173709
143	0xbca3c988	-0.019993559
144	0x3da7cc3a	0.0819325
145	0x3c77611a	0.015098834
146	0x3cfc8f15	0.030829946
147	0xbcedeef9	-0.029044615
148	0xbdb225f3	-0.086986445
149	0x3c62b814	0.013837833
150	0xbd80fcf4	-0.06298247
151	0xbd3b3dad	-0.045713115
152	0xbda5f7f1	-0.08103932
153	0x3d75ca59	0.060007427
154	0xbd8afac3	-0.0678611
155	0x3c1fe0b7	0.009758166
156	0x3c7d6d50	0.015467957
157	0x3d7a0da0	0.06104815
158	0x3d3a94e7	0.04555216
159	0xbd7d7802	-0.061882026
160	0x3cdf32d1	0.02724591
161	0xbd6a7961	-0.057244662
162	0xbc00058c	-0.0078138225
163	0xbd32a895	-0.043617804
164	0xbda1bd24	-0.07897404
165	0x3cc83b1b	0.024442246
166	0xbd7f175f	-0.062278148
167	0x3dad0271	0.08447731
168	0x3d11e7f7	0.03562161
169	0xbcfa75b4	-0.030573703
170	0xbd540179	-0.051759217
171	0xbda6d859	-0.08146734
172	0xbd368828	-0.044563442
173	0xbd7acd76	-0.0612311
174	0x3c1bb8e9	0.009504535
175	0x3c9019c7	0.017590417
176	0x3d9cfb4f	0.07665121
177	0x3c1eb71b	0.00968721
178	0xbc9315b3	-0.017954683
179	0xbd2a65f4	-0.041601136
180	0xbc4bb5b3	-0.012433457
181	0x3d32033f	0.043460127
182	0xbdae8aac	-0.08522543
183	0xbdac6b18	-0.08418864
184	0x3d0b3369	0.033984575
185	0xbce1f2e6	-0.027581643
186	0xbcdd95cb	-0.027048966
187	0xbd6a76c1	-0.05724216
188	0xbd8d590b	-0.06901749
189	0xbdb70e97	-0.0893833
190	0xbd7a39a6	-0.061090134
191	0xbdd4b8d7	-0.10386818
192	0xbd333ade	-0.043757312
193	0x3d913ab1	0.070912726
194	0xbd516adc	-0.0511273
195	0x3d89976b	0.06718334
196	0xbd9faa22	-0.07796122
197	0xbb1b4085	-0.002368958
198	0xbc321f08	-0.010871656
199	0xbda2a6c4	-0.07941964
200	0xbca4e329	-0.02012785
201	0x3d537c8a	0.05163244
202	0xbd7d890a	-0.06189827
203	0x3d73c00a	0.059509315
204	0xbc185403	-0.009297374
205	0xbce4f420	-0.02794844
206	0x3d32b6a3	0.043631207
207	0x3d8d826f	0.06909644
208	0x3d820511	0.063486226
209	0x3d166f73	0.03672738
210	0xbdb88ee1	-0.09011627
211	0xbd0318be	-0.032006018
212	0xbb1cbac4	-0.0023915032
213	0xbd3313aa	-0.043719925
214	0x3cf459b0	0.029827923
215	0xbcb517aa	-0.02210601
216	0xbda78851	-0.08180297
217	0xbd6a9020	-0.057266355
218	0xbd803f6e	-0.06262098
219	0x3c7da34f	0.01548083
220	0xbd83b9c6	-0.06431918
221	0xbcb685a9	-0.022280531
222	0x3c14f48b	0.009091507
223	0x3d1c1c95	0.038113195
224	0xbd9d3775	-0.07676593
225	0x3d80dcd6	0.06292121
226	0xbd862957	-0.06550854
227	0xbd86c4e3	-0.06580522
228	0x3ca4d7e1	0.02012247
229	0xbd6b8113	-0.05749614
230	0x3d4382e2	0.04773224
231	0x3d028d43	0.031873
232	0xbd49a725	-0.049231667
233	0xbcc65bc9	-0.024213688
234	0xbd3f6e46	-0.046736024
235	0xbc554fa5	-0.013019477
236	0xb95f69a0	-0.00021306286
237	0xb7963549	-1.7906206e-05
238	0xbd6c95d1	-0.057760064
239	0xbd929969	-0.07158167
240	0xbd67872b	-0.05652539
241	0x3c747e65	0.014922713
242	0x3c147dd7	0.009063206
243	0xbd363ffd	-0.044494618
244	0xbc6ab62d	-0.014325661
245	0xbbb66d09	-0.005567197
246	0x3d818797	0.0632469
247	0xbda9847c	-0.082772225
248	0xbd2145ca	-0.039373197
249	0xbc65ab3d	-0.014017877
250	0xbc6dd8c9	-0.014517018
251	0xbd453180	-0.04814291
252	0x3d0062e3	0.031344306
253	0xbd0815ef	-0.033224043
254	0xbb8efff1	-0.0043640067
255	0xbd520cd3	-0.05128176

image_conv.5.bias f4 [64]
0	0x3ae1b9a0	0.0017221458
1	0xbd1b801a	-0.037963964
2	0xbd31bfe9	-0.04339591
3	0x3ca7a956	0.020466488
4	0xbd07978d	-0.033103514
5	0x3a1fc063	0.00060940365
6	0x3ca93199	0.020653533
7	0xbcb68b21	-0.022283139
8	0x3d97c9a4	0.07411507
9	0xbc18c32d	-0.009323877
10	0xbc836fcd	-0.016044522
11	0x3df971a7	0.121798806
12	0xbd4d8c37	-0.050182547
13	0xbd9086e6	-0.0705698
14	0xbc56af02	-0.013103249
15	0xbd9c3fd8	-0.07629365
16	0xbd8f4485	-0.06995491
17	0x3ca9137d	0.020639176
18	0x3d16b742	0.036795862
19	0x3dd1ce42	0.10244419
20	0xbbdaad31	-0.006673478
21	0xbc88c669	-0.016696172
22	0xbdd8e7a0	-0.10591054
23	0xbd4dacf0	-0.050213754
24	0xbb8c2ced	-0.0042778165
25	0x3d158938	0.036507815
26	0x3dc73751	0.09727348
27	0x3c1b0163	0.00946078
28	0x3cd61397	0.026132388
29	0xbe14db6f	-0.14536832
30	0x3d0a2228	0.03372398
31	0x3cfc45a0	0.030794919
32	0xbdaa05b6	-0.083018705
33	0xbde789b4	-0.11305562
34	0x3c5a16e7	0.013311124
35	0xbd2f839c	-0.04285012
36	0xbdcffdf4	-0.101558596
37	0xbda6a1ef	-0.08136355
38	0x3c07cb4d	0.008288217
39	0x3d2d2a62	0.042276748
40	0xbaed1a1f	-0.001808945
41	0xbc048647	-0.008088655
42	0xbd368b7a	-0.04456661
43	0xbc5a98dd	-0.0133421095
44	0xbc0f1de3	-0.008735153
45	0x3d30e2ae	0.04318493
46	0x3bb7c189	0.005607788
47	0xbda06ca8	-0.078332245
48	0x3d4c823c	0.04992889
49	0xbd2a9207	-0.04164317
50	0xbd26a4b5	-0.04068442
51	0xbd5001f1	-0.0507831
52	0x3d2d76cc	0.04234962
53	0xbb9a592a	-0.004710336
54	0xbdca2ec4	-0.09872201
55	0x3d1be432	0.03805942
56	0xbdcef833	-0.10105934
57	0x3cbcbf3f	0.023040412
58	0xbca45770	-0.020061225
59	0xbd954663	-0.07288816
60	0xbd1f8e15	-0.03895386
61	0xbd7ae180	-0.06125021
62	0x3d7dc043	0.061950933
63	0xbd26fbc2	-0.04076744

memory_rnn.weight_ih f4 [256, 64]
0	0xbd485c7f	-0.048916336
1	0xbdd40635	-0.103527464
2	0x3d9754d4	0.073892266
3	0x3de052f6	0.109533235
4	0x3ca5fed1	0.020263107
5	0xbcbd8e4d	-0.023139143
6	0x3d17a64e	0.037023835
7	0xbd775bdb	-0.060390335
8	0x3dfe08c7	0.12404018
9	0xbd309c12	-0.04311759
10	0x3d5e9dd9	0.054349754
11	0x3d673c39	0.056453917
12	0xbceff573	-0.029291844
13	0x3db84c41	0.08998919
14	0x3d90ba64	0.07066801
15	0x3ae3faba	0.0017393448
16	0xbd3061d8	-0.04306206
17	0x3dc600e0	0.09668136
18	0x3d28bdd1	0.041196648
19	0xbce90250	-0.028443485
20	0xbd992d39	-0.07479329
21	0xbdffb717	-0.124860935
22	0xbdebbc8c	-0.11510572
23	0x3ad608a1	0.0016329476
24	0xbe021a32	-0.12705305
25	0xbe07fe92	-0.13280705
26	0xbd5557fa	-0.052085854
27	0xbc0c967a	-0.008580798
28	0x3dc137a4	0.09434441
29	0xbda7edcf	-0.08199655
30	0xbe122afd	-0.14274211
31	0xbc45a383	-0.01206291
32	0xbdecf8f2	-0.1157092
33	0xbc7e1585	-0.01550806
34	0x3db0663b	0.08613249
35	0xbddc853e	-0.107676014
36	0x3cc85ae6	0.024457406
37	0xbd179129	-0.03700367
38	0x3df2dafa	0.11858173
39	0x3b47a5c6	0.00304638
40	0x3b8c218b	0.0042764596
41	0xbce4c66c	-0.027926646
42	0xbd786860	-0.060646415
43	0x3db9ac9f	0.09066128
44	0xbdb63be1	-0.0889814
45	0x3def6831	0.11689795
46	0x3da24837	0.0792393
47	0xbdded4db	-0.10880443
48	0x3dc69fee	0.09698473
49	0xbc9e56aa	-0.019328434
50	0x3d87b903	0.06627085
51	0xbd716213	-0.05893142
52	0x3cfcc331	0.030854793
53	0x3bde3acf	0.006781913
54	0x3bc07b35	0.0058740624
55	0xbcf32eaf	-0.029685346
56	0xbc939647	-0.018015994
57	0xbd92261d	-0.07136176
58	0x3dc1a089	0.09454448
59	0x3d7090d4	0.05873187
60	0xbd828f8b	-0.06375035
61	0xbc711c35	-0.014716198
62	0xbdd357cf	-0.103194825
63	0xbd5e2f10	-0.0542441
64	0xbc2ce285	-0.010552053
65	0x3deef6e2	0.11668183
66	0xbe197aa8	-0.14988196
67	0xbd2605b5	-0.040532786
68	0xbdb1db19	-0.08684368
69	0x3dae9c0c	0.08525857
70	0xbdfec946	-0.124407336
71	0x3ce81ca7	0.028333975
72	0x3c6bc2ab	0.014389674
73	0x3d86eb69	0.0658787
74	0x3cec7385	0.028863678
75	0xbd881eae	-0.06646477
76	0x3de4ea84	0.11177543
77	0xbd0ea20e	-0.034822516
78	0x3db7d647	0.08976417
79	0x3d6f13df	0.05836856
80	0xbd0856b7	-0.033285823
81	0xbd189dac	-0.037259743
82	0x3d6f0979	0.058358643
83	0xbe0c47ec	-0.13699311
84	0xbcb8d03a	-0.022560228
85	0xbdf39433	-0.11893501
86	0x3d723559	0.059132908
87	0xbdcf4246	-0.101200625
88	0x3c485425	0.012227093
89	0xbdf8a76a	-0.12141307
90	0xbd27a7cf	-0.04093152
91	0xbd09d718	-0.033652395
92	0xbd6833fa	-0.056690194
93	0xbcea288f	-0.028583793
94	0xbafe354c	-0.0019394546
95	0xbd2e313e	-0.04252743
96	0x3dbfd338	0.09366459
97	0xbdfabc9b	-0.12243005
98	0x3d88fa74	0.06688395
99	0xbdb61302	-0.08890344
100	0xbd8f68bf	-0.070024006
101	0xbc947e3f	-0.018126605
102	0xbd9f5431	-0.0777973
103	0x3d6d2c39	0.057903502
104	0x3e039831	0.12851025
105	0xbd262122	-0.04055894
106	0xbcb683f1	-0.022279711
107	0x3c9d167d	0.019175762
108	0x3d5c02df	0.053713676
109	0x3de91f2e	0.113829
110	0x3cbd18fe	0.023083206
111	0x3ca2af08	0.019858852
112	0x3dd5fc78	0.10448545
113	0xbdc81bec	-0.09770951
114	0x3d4ebfc4	0.05047585
115	0xbd92eeb9	-0.07174439
116	0x3d279395	0.04091223
117	0xbe020c6f	-0.12700056
118	0xbcdf610d	-0.027267957
119	0x3dd6d39a	0.104895785
120	0x3dc1cb8c	0.094626516
121	0xbd3ae640	-0.04562974
122	0xbd84dd72	-0.0648755
123	0xbc194a82	-0.009356143
124	0x3da231c1	0.07919646
125	0x3d00bc03	0.031429302
126	0xbd3a640c	-0.04550557
127	0xbd8b43ae	-0.06800018
128	0x3d9672f5	0.07346145
129	0xbda78dd8	-0.081813514
130	0xbd858f6a	-0.06521495
131	0xbc010277	-0.007874123
132	0x3def1060	0.11673045
133	0x3dc19349	0.094519205
134	0x3dac0f49	0.08401353
135	0xbdd2583f	-0.10270738
136	0xb972f6b0	-0.00023170817
137	0xbd1d13c6	-0.038348936
138	0x3d749581	0.05971289
139	0x3b30070d	0.0026859671
140	0xbdbec6d2	-0.09315266
141	0xbdfbcbd2	-0.12294735
142	0x3c4bd05d	0.012439814
143	0xbe053684	-0.13009077
144	0x3dbe3f9e	0.09289478
145	0xbdc0a5cd	-0.09406624
146	0xbd9eaefc	-0.07748219
147	0xbdcdc0ed	-0.10046563
148	0x3d42b22c	0.0475332
149	0x3dcef811	0.10105909
150	0x3c8a5f23	0.016891068
151	0x3dced0e7	0.10098439
152	0x3d51e8ee	0.05124753
153	0x3de7d5f2	0.11320104
154	0xbd6a9fbe	-0.05728125
155	0xbd0732c4	-0.0330074
156	0xbd23fc8c	-0.04003577
157	0xbced6e02	-0.02898312
158	0xbdec02ff	-0.11524009
159	0x3d0426c4	0.032263532
160	0x3db71942	0.089403644
161	0x3d777240	0.06041169
162	0xbdb2ee13	-0.08736815
163	0x3d985c36	0.07439463
164	0xbc060943	-0.008180919
165	0xbc16a783	-0.009195211
166	0xbddd7322	-0.108129755
167	0xbd5fb8d7	-0.054619636
168	0x3d1cd21e	0.03828632
169	0x3c7a0e2b	0.015262167
170	0xbdb5a74d	-0.08869801
171	0x3dee4f4b	0.11636218
172	0x3d6203f5	0.055179555
173	0x3d81509a	0.06314202
174	0xbd9207d5	-0.071304
175	0xbd834978	-0.064104974
176	0x3cf046ea	0.02933069
177	0xbe0c246f	-0.13685773
178	0x3d3c4034	0.045959666
179	0x3bd3e514	0.006466517
180	0x3da57d4c	0.08080539
181	0x3dc4bea0	0.09606671
182	0x3cf2745a	0.029596496
183	0x3d9c8603	0.07642748
184	0xba27fdfb	-0.00064083905
185	0x3deb8133	0.11499252
186	0xbcbd9331	-0.023141475
187	0xbda5df9a	-0.08099289
188	0xbc92b26e	-0.017907348
189	0xbdc7e1cc	-0.09759864
190	0xbd8f1391	-0.06986154
191	0x3c8d7c63	0.017271226
192	0x3dc9ca97	0.09853094
193	0x3dcb273b	0.09919592
194	0x3db74b60	0.089499235
195	0x3de312c1	0.110875614
196	0x3de5a172	0.11212434
197	0xbd94a855	-0.07258669
198	0xbd15bd12	-0.036557265
199	0x3d65741b	0.05601893
200	0xbd87f69b	-0.06638833
201	0xbd2bfe86	-0.04199078
202	0x3de5beb9	0.11218018
203	0xbd855392	-0.065100804
204	0xbcd735fe	-0.026270863
205	0x3d59972f	0.053122696
206	0x3df599a5	0.11992196
207	0xbd490777	-0.049079385
208	0xbc9f2fb6	-0.01943193
209	0xbdd590dd	-0.10428021
210	0x3c8e1cfb	0.017347803
211	0xbd5e2903	-0.05423833
212	0x3d8048a9	0.06263859
213	0xbdc748f1	-0.09730709
214	0xbdda3e81	-0.10656453
215	0x3dc72e37	0.09725612
216	0xbd76c55c	-0.06024681
217	0xba3f7cf2	-0.000730469
218	0x3d6f189a	0.05837307
219	0x3ddcb9d9	0.10777635
220	0x3a1bfa0e	0.0005950042
221	0xbde5fbf7	-0.11229699
222	0xbde0395a	-0.10948439
223	0xbdf92bad	-0.121665336
224	0xbbc38aec	-0.0059674885
225	0xbdcd1853	-0.10014405
226	0x3dd2cf1d	0.1029341
227	0xbe038078	-0.12841976
228	0xbd304bbb	-0.043040972
229	0x3d462e9c	0.048384294
230	0xbd6d9f86	-0.05801346
231	0x3dbfb2d4	0.09360281
232	0x3d07244f	0.03299361
233	0x3df64093	0.12024035
234	0x3cf23196	0.02956466
235	0x3da75d87	0.08172136
236	0xbdf3bdc1	-0.11901427
237	0xbd5f64b5	-0.0545394
238	0x3d3c6957	0.045998897
239	0xbd48eecc	-0.04905586
240	0x3d450657	0.04810175
241	0xbda9ff77	-0.08300679
242	0x3ce05885	0.02738596
243	0x3c7a5754	0.01527961
244	0xbda90ade	-0.08254026
245	0xbb806d5a	-0.0039192857
246	0x3dbe0c45	0.09279684
247	0xbdd0add6	-0.101894066
248	0x3c0cadcd	0.008586359
249	0x3d5763f7	0.05258557
250	0x3df03695	0.11729161
251	0xbe00a0db	-0.12561361
252	0x3d631fbe	0.055450194
253	0x3dfa01eb	0.12207397
254	0x3da8c310	0.0824033
255	0xbe011716	-0.12606463

memory_rnn.weight_hh f4 [256, 64]
0	0xbdcce06b	-0.10003742
1	0x3d1ba52d	0.03799932
2	0x3dfdbf1e	0.12389968
3	0x3d9c1f64	0.07623175
4	0x3c632b8f	0.013865366
5	0x3dfb52f4	0.122716814
6	0xbda676a3	-0.08128097
7	0x3cede820	0.02904135
8	0x3b5b3ff5	0.003345487
9	0xbde30fb2	-0.11086978
10	0x3dbef553	0.09324136
11	0x3dd371e8	0.1032446
12	0xbdd713ac	-0.10501799
13	0x3ddcd542	0.10782863
14	0xbdf64831	-0.12025488
15	0x3d215a4f	0.039392766
16	0xbbb458d6	-0.005503754
17	0x3d55e897	0.052223768
18	0x3dbbc9a4	0.09169319
19	0xbdebeb40	-0.1151948
20	0x3cb00da1	0.021490874
21	0xbdd5a67a	-0.104321435
22	0x3dfb3944	0.12266782
23	0x3dc067d9	0.09394807
24	0xbe08ee62	-0.13372186
25	0xbdf3025a	-0.11865683
26	0x3db3a26c	0.08771214
27	0xbce01f6c	-0.027358733
28	0x3db71b99	0.08940811
29	0x3ccfe0a0	0.025375664
30	0x3d33bad3	0.04387934
31	0x3cc3be3b	0.02389442
32	0x3d57603a	0.052582003
33	0x3dd04239	0.10168881
34	0x3db34649	0.0875364
35	0xbdcf4f08	-0.10122496
36	0x3c4ba449	0.012429305
37	0xbdf68821	-0.12037683
38	0x3bd758ba	0.0065718563
39	0xbd2fc8ea	-0.042916216
40	0xbdd116f3	-0.10209455
41	0xbcd3ca98	-0.02585344
42	0x3c7fcc92	0.015612738
43	0xbd1120d8	-0.035431713
44	0x3d109ddc	0.035306796
45	0x3d45d26b	0.048296373
46	0x3df08f51	0.117460854
47	0x3d59957c	0.053121075
48	0xbd293710	-0.041312277
49	0xbd89e774	-0.06733599
50	0x3d07dd9f	0.03317034
51	0xbdd2ddfa	-0.10296245
52	0xbdbdfbfa	-0.09276576
53	0x3d1566e0	0.036475062
54	0xbd608dac	-0.05482261
55	0x3db63f2f	0.0889877
56	0xbdde3c07	-0.10851293
57	0xbd17e2f8	-0.03708169
58	0x3dc7d38a	0.09757145
59	0xbd64f183	-0.055894386
60	0xbc3ee182	-0.011650445
61	0x3d0589e1	0.032602195
62	0xbc89c1b2	-0.016815994
63	0x3d874f45	0.06606916
64	0x3d5ddabd	0.054163683
65	0xbd927620	-0.07151437
66	0x3dcff371	0.10153855
67	0x3d9bbd2f	0.07604443
68	0x3d763047	0.060104635
69	0x3c4641ff	0.012100696
70	0x3dd65ff3	0.104675196
71	0x3cbf63e8	0.023363069
72	0x3dc58ec6	0.096463725
73	0xbc99098d	-0.018681312
74	0xbd786857	-0.06064638
75	0xbd8c69f2	-0.06856145
76	0xbb44d816	-0.0030036024
77	0xb9f16918	-0.00046045403
78	0xbd9facb4	-0.077966124
79	0xbd620f50	-0.055190384
80	0xbdd92e50	-0.106045365
81	0x3d74abc6	0.05973413
82	0x3e10189e	0.1407189
83	0xbdff1bcc	-0.12456474
84	0xbd237263	-0.03990401
85	0x3d97249c	0.073800296
86	0xbde757d8	-0.11296052
87	0x3dffbc16	0.124870464
88	0x3da443f9	0.08020777
89	0x3c848783	0.016177898
90	0xbcf208bf	-0.029545186
91	0xbde21203	-0.11038592
92	0x3d96d84a	0.073654726
93	0x3dcdcac9	0.10048444
94	0xbdbee78f	-0.0932151
95	0xbd349294	-0.0440851
96	0xbcf3d9d8	-0.029766962
97	0x3c113da8	0.008864798
98	0x3e0325ec	0.12807435
99	0xbdf98557	-0.12183636
100	0xbd9cc743	-0.07655194
101	0xbdc1586b	-0.094406925
102	0x3df92409	0.12165076
103	0xbd45c5ee	-0.048284464
104	0xbda75ac8	-0.08171612
105	0x3aadfb58	0.0013273759
106	0xbdf65d34	-0.12029496
107	0xbd9a096b	-0.075213276
108	0x3d5015d7	0.050802078
109	0x3de8e837	0.113724165
110	0xb9206dde	-0.00015299718
111	0x3cfef3c1	0.03112209
112	0xbd9476a8	-0.072491944
113	0xb9c243d2	-0.00037053094
114	0x3da23c43	0.0792165
115	0x3d8eba8a	0.06969173
116	0xbcea24fc	-0.028582089
117	0x3df702d5	0.12061087
118	0xbdf41aab	-0.11919149
119	0x3e0d1f72	0.13781527
120	0x3da9833c	0.08276984
121	0xbcbae900	-0.022816181
122	0xbdc9692e	-0.098345146
123	0x3d09e924	0.033669606
124	0x3d930347	0.071783595
125	0x3a2b9a61	0.00065461366
126	0x3dad6694	0.08466831
127	0x3d808082	0.06274511
128	0xbcc7bbe7	-0.024381591
129	0xbd2828ef	-0.041054662
130	0xbd3986a9	-0.045294438
131	0x3bf2d84f	0.00741104
132	0x3bc8d2ca	0.0061286436
133	0xbcdb9ae3	-0.026807254
134	0x3db52c8a	0.08846386
135	0xbd28ddfa	-0.04122732
136	0xbb1898aa	-0.0023284354
137	0xbcafcd2a	-0.021460135
138	0xbddc7134	-0.10763779
139	0x3db12180	0.08648968
140	0x3df37f0a	0.11889465
141	0xbc91c631	-0.0177947
142	0xbdad82f1	-0.08472241
143	0xbd564808	-0.052314788
144	0xbdee45ba	-0.11634393
145	0x3dd2c594	0.10291591
146	0xbd5903c6	-0.052982114
147	0xbe091b4a	-0.13389316
148	0xbc3fd28f	-0.011707916
149	0x3d8121cd	0.06305275
150	0xbd7058f6	-0.05867859
151	0x3d9997a8	0.07499629
152	0xbde7f328	-0.11325675
153	0xbdbda968	-0.09260827
154	0xbd47a67e	-0.048742764
155	0xbdcfee19	-0.101528354
156	0x3e01019a	0.12598267
157	0x3da3e662	0.080029264
158	0x3c562e70	0.013072595
159	0x3d7ab14d	0.061204243
160	0xbd3ad599	-0.04561386
161	0x3dbfbd7b	0.093623124
162	0x3d6dc034	0.058044627
163	0xbd8b7f4e	-0.06811391
164	0xbd97cd74	-0.07412234
165	0xbd9e2aeb	-0.0772303
166	0xbd2caf27	-0.042159226
167	0xbd33c5e6	-0.043889903
168	0xbdac1167	-0.08401757
169	0x3d2abd47	0.041684415
170	0x3d222b04	0.039591804
171	0xbda8a180	-0.08233929
172	0xbd97e4d4	-0.074166924
173	0x3d8e90a7	0.06961184
174	0x3d5bba25	0.053644318
175	0x3d38e037	0.045135703
176	0x3cedfaa0	0.029050171
177	0x3ca972b1	0.020684572
178	0x3ddc02ee	0.10742746
179	0x3da6c799	0.08143539
180	0x3d49ef08	0.049300224
181	0x3d302120	0.04300034
182	0xbd777438	-0.06041357
183	0x3d994c94	0.07485309
184	0xbdf1a4b4	-0.11798993
185	0x3ca98013	0.020690953
186	0xbd35cee9	-0.044386778
187	0xbdf7e658	-0.121044815
188	0xbddab878	-0.10679716
189	0x3e01f0c9	0.12689508
190	0xbdd85865	-0.10563735
191	0x3cea4891	0.028599055
192	0x3d8aa7ae	0.067702636
193	0xbde3542c	-0.11100039
194	0x3ce45157	0.027870817
195	0xbb25b3d7	-0.0025284195
196	0xbdc3e82d	-0.095657684
197	0x3df8897f	0.121356
198	0xbc8a64ea	-0.016893823
199	0x3dc4b8af	0.09605538
200	0xbde10878	-0.109879434
201	0xbd3cd596	-0.04610213
202	0xbbf8efda	-0.007596952
203	0xbce76c99	-0.028250026
204	0xbc3fffce	-0.011718703
205	0xbdade60f	-0.08491146
206	0xbad53ec9	-0.0016269322
207	0x3bc7b8da	0.006095034
208	0x3db5dd60	0.088801146
209	0x3cb7306c	0.022361957
210	0x3de6f11b	0.11276456
211	0xbcdf1911	-0.027233632
212	0x3ceabaa3	0.028653448
213	0xbd449e7b	-0.0480027
214	0xbd97d2e0	-0.07413268
215	0x3da68d19	0.08132381
216	0xbc95cb4e	-0.01828542
217	0xbbc5fc90	-0.0060420707
218	0xbd4956f1	-0.04915518
219	0xbcca8535	-0.024721721
220	0x3dcb7e51	0.09936202
221	0x3ccb7dbf	0.024840234
222	0xbddfa727	-0.10920554
223	0xbd9a0c22	-0.075218454
224	0x3c72b3b7	0.014813355
225	0xbd897dca	-0.067134455
226	0xbdd0a669	-0.1018799
227	0x3ddb186b	0.10698017
228	0xbdab9f74	-0.08380023
229	0xbde87758	-0.11350888
230	0x3df677b3	0.120345496
231	0x3daf90ec	0.085725635
232	0xbd9cd28b	-0.076573454
233	0x3d6b5a81	0.057459358
234	0xbd213590	-0.03935772
235	0x3dcca76b	0.0999287
236	0xbd1d6be2	-0.038432963
237	0xbde8a021	-0.11358667
238	0xbc9aba88	-0.018887773
239	0x3dc21978	0.09477514
240	0xbd86d196	-0.06582944
241	0xba62569b	-0.0008634121
242	0x3d030268	0.031984717
243	0xbd13240d	-0.035923053
244	0xbd4eff73	-0.050536584
245	0xbdf1483e	-0.11781357
246	0x3d36a420	0.044590116
247	0x3cc39344	0.023873933
248	0xbd3aa3dd	-0.04556643
249	0xbd6bf431	-0.057605926
250	0xbdd2690c	-0.10273942
251	0x3bfa3652	0.00763587
252	0xbd087732	-0.0333168
253	0xbd82f56b	-0.06394466
254	0xbc0a67df	-0.008447616
255	0xbd1485dd	-0.036260474

memory_rnn.bias_ih f4 [256]
0	0x3d34c9ef	0.04413789
1	0xbe24cb58	-0.16093194
2	0xbe0b3096	-0.13592753
3	0xbda477dd	-0.080306746
4	0xbdda8d0a	-0.10671432
5	0xbda54e8e	-0.08071624
6	0xbda49e2b	-0.08037981
7	0x3dfba7ee	0.122878894
8	0xbdb91abf	-0.090383045
9	0xbe2b8d2b	-0.1675307
10	0xbd9cd05f	-0.07656931
11	0xbe11300a	-0.14178482
12	0xbe1693b0	-0.14704776
13	0xbdd6634b	-0.104681574
14	0xbe07e16b	-0.13269584
15	0xbd8570d7	-0.06515663
16	0xbe2fb51f	-0.17158936
17	0xbdbf5fc8	-0.09344441
18	0xbe592b33	-0.21207885
19	0xbd0d59c3	-0.03450943
20	0xbda2dd86	-0.079524085
21	0xbdee2177	-0.11627477
22	0xbd888ae8	-0.06667119
23	0xbe2e8806	-0.17044076
24	0xbe33b0f9	-0.17547978
25	0xbdaf8a1c	-0.08571264
26	0xbd76647e	-0.06015443
27	0xbe1f6495	-0.15565713
28	0x3c2bb96e	0.010481222
29	0xbd1bfc46	-0.038082384
30	0xbe3fdfbb	-0.1873769
31	0xbe122f9c	-0.14275974
32	0x3d010694	0.031500414
33	0xbd152208	-0.036409408
34	0x3c2a341d	0.010388401
35	0xbda582fe	-0.080816254
36	0xbd9ce002	-0.076599136
37	0xbd5547f9	-0.05207059
38	0xbdab831c	-0.083746165
39	0xbe025026	-0.12725887
40	0xbd2024d5	-0.039097626
41	0x3d28180b	0.041038554
42	0x3ca7ee5b	0.020499399
43	0xbdc6c27e	-0.09705065
44	0xbda4043a	-0.08008619
45	0xbe2c4664	-0.16823727
46	0xbd519c8d	-0.05117469
47	0x3d8603d4	0.06543699
48	0xbdb99bbf	-0.09062909
49	0xbd698634	-0.05701275
50	0x3d8fc799	0.07020492
51	0x3cd6a72b	0.026202759
52	0xbca6bf39	-0.020354854
53	0xbe24d601	-0.16097261
54	0x3cce799c	0.025204472
55	0x3d20d6ca	0.03926734
56	0xbd8eb3ca	-0.06967886
57	0x3d47879c	0.04871331
58	0xbd671b37	-0.05642244
59	0xbd2992f6	-0.04139992
60	0x3d31a9e4	0.04337491
61	0xbcdf5395	-0.027261535
62	0xbac77067	-0.0015215994
63	0xbd29e5b6	-0.041478835
64	0x3b678475	0.0035326753
65	0xbe1d0fa6	-0.15338
66	0xbd38967d	-0.04506539
67	0xbe7ea04f	-0.2486584
68	0xbcea0d1f	-0.02857071
69	0xbd5b4907	-0.05353644
70	0x3ce35a3d	0.02775299
71	0xbe49ea50	-0.1971829
72	0xbda485be	-0.08033322
73	0xbd4a1ed4	-0.049345806
74	0xbd9dccf4	-0.07705107
75	0xbe01ebc9	-0.12687601
76	0xbbc681c2	-0.006057949
77	0xbdc3f198	-0.09567565
78	0xbe26d14a	-0.16290775
79	0xbdbfc050	-0.093628526
80	0xbc9d83fc	-0.019227974
81	0x3b9bc3c1	0.0047535603
82	0xbb50dcec	-0.003186996
83	0xbb88f4c2	-0.004179568
84	0xbdbb0ce5	-0.09133319
85	0xbe30a7c8	-0.17251503
86	0xbe04f69b	-0.12984698
87	0xbdaac52e	-0.0833839
88	0xbdf3389b	-0.11876031
89	0xbdc37f7e	-0.095458016
90	0xbddc2bfc	-0.10750577
91	0xbc97f18a	-0.018547792
92	0xbe3de3f0	-0.18543983
93	0xbe08d5fa	-0.13362876
94	0xbd695f33	-0.056975555
95	0x3d9ba250	0.07599318
96	0xbe2a6e39	-0.16643609
97	0x3d76d96a	0.060265936
98	0xbd3117ed	-0.043235708
99	0xbd7d7929	-0.061883125
100	0xbe36d80f	-0.17855857
101	0xbe0c9cb8	-0.13731658
102	0xbdb5c325	-0.088751115
103	0xbe417d7a	-0.18895522
104	0xbd1bb37f	-0.038012978
105	0xbe00ad50	-0.12566113
106	0x3d58fd86	0.052976154
107	0xbdfa6fb8	-0.1222834
108	0xbe564b40	-0.20927143
109	0x3d497347	0.049182203
110	0xbde6d158	-0.11270398
111	0xbdddcb1d	-0.108297564
112	0xbdf6bf44	-0.120482
113	0xbe0d3fd8	-0.13793886
114	0xbd03b7a3	-0.03215755
115	0xbe243fef	-0.16040014
116	0xbe318ace	-0.17338106
117	0xbd9645fd	-0.07337568
118	0xbe077c2f	-0.13230966
119	0x3cd232de	0.025659021
120	0xbe2aea43	-0.16690926
121	0xbdc380ff	-0.095460884
122	0xba3e3d3d	-0.000725705
123	0x3cf0da5e	0.029401
124	0xbe0aeefb	-0.13567726
125	0xbc71d160	-0.014759392
126	0xbd824fcb	-0.063628756
127	0xbde9f943	-0.11424496
128	0x3cd62db3	0.026144838
129	0xbca508b6	-0.020145755
130	0xbb6a7579	-0.0035775586
131	0x3bec17c1	0.00720498
132	0x3cdb279d	0.026752288
133	0xbd0e6310	-0.034762442
134	0x3da2e9be	0.07954739
135	0xbd9b79cf	-0.075915925
136	0xbcc38552	-0.023867283
137	0x3d263813	0.04058082
138	0xbce274bc	-0.027643554
139	0xbd246ab7	-0.040140834
140	0x3c371919	0.011175417
141	0xbbbe40ba	-0.005806056
142	0xbcf7c26e	-0.030244078
143	0xbd18060d	-0.037115145
144	0x3d1e2a01	0.038614277
145	0x3d99c720	0.07508683
146	0x3c30bc80	0.010787129
147	0x3d2fa90f	0.042885836
148	0xbc043c9e	-0.008071093
149	0x3d8740b8	0.06604141
150	0xbcb3d4c9	-0.02195205
151	0x3cf9c161	0.030487718
152	0x3d625b28	0.055262715
153	0xbd93a0e6	-0.07208423
154	0x3cd2956f	0.025706021
155	0x3c00e715	0.007867594
156	0xbda82071	-0.08209313
157	0xbbfaa79d	-0.0076493756
158	0x3d98a4f8	0.0745334
159	0x3d628cb8	0.05530998
160	0xbdc27beb	-0.09496292
161	0xbd4c4783	-0.049872886
162	0xbd117c7a	-0.0355191
163	0x3cdb8817	0.026798291
164	0x3c6b20ab	0.01435105
165	0x3d0a4751	0.03375942
166	0x3d2044db	0.039128166
167	0x3bf4dd32	0.0074726576
168	0x3de6b84f	0.11265623
169	0xbd3389e7	-0.043832686
170	0xbdd04b1a	-0.101705745
171	0xbd73cb13	-0.05951984
172	0xbd2253f0	-0.03963083
173	0xbded8e54	-0.115994126
174	0x3d11faa6	0.035639428
175	0xbbc3aae7	-0.005971301
176	0xbd34f6d2	-0.0441807
177	0xbd1979de	-0.037469737
178	0x3c51807b	0.01278698
179	0x3c1e4408	0.009659775
180	0xbd33aed0	-0.043867886
181	0x3c334ea0	0.010944039
182	0x3ceaa26d	0.028641904
183	0xbd250566	-0.04028835
184	0x3c70b6f5	0.014692058
185	0xbd6de3d8	-0.058078617
186	0x3d3333ea	0.04375068
187	0x3d48b3e5	0.048999686
188	0x3dcab09d	0.098969676
189	0xbc818b25	-0.01581342
190	0x3d3cb968	0.046075255
191	0x3d12bf73	0.03582711
192	0xbbf97f65	-0.0076140636
193	0xbe3a2a8d	-0.18180294
194	0xbd338a8b	-0.043833297
195	0xbe125e2a	-0.14293733
196	0x3d82da02	0.06389238
197	0x3d69c30d	0.05707078
198	0xbe0e59fe	-0.13901517
199	0x3dad4057	0.084595375
200	0x3b971414	0.004610548
201	0xbe07fe62	-0.13280633
202	0xbdcab804	-0.098983794
203	0xbdb4eb17	-0.08833902
204	0xbd2b5a92	-0.04183442
205	0xbdd7da5b	-0.10539695
206	0xbde694a0	-0.11258817
207	0x3d42d236	0.047563754
208	0x3c51b105	0.012798552
209	0xbde60073	-0.112305544
210	0xbd3aa699	-0.045569036
211	0xbd266b97	-0.04062995
212	0xbc527927	-0.012846268
213	0xbd742e7f	-0.059614655
214	0xbd49a652	-0.04923088
215	0xbd9c1007	-0.076202445
216	0x3cc9a709	0.024615781
217	0xbe0b4ce3	-0.13603549
218	0xbc2af7b8	-0.010435037
219	0xbe3cb05d	-0.18426652
220	0xbe04981b	-0.12948649
221	0xbe36b823	-0.1784368
222	0x3cc29572	0.023752902
223	0xbe147419	-0.14497413
224	0xbda1ddb8	-0.079036176
225	0xbda50c2c	-0.08058962
226	0xbbc5e969	-0.0060397875
227	0xbe512531	-0.20424344
228	0x39a39ba6	0.0003120575
229	0xbdffc52d	-0.1248878
230	0x3d3f00a0	0.046631455
231	0x3b9a11d9	0.0047018346
232	0xbe60855e	-0.21925876
233	0xbd471c16	-0.04861077
234	0xbdb58b48	-0.088644564
235	0x3cea5456	0.028604668
236	0xbd3a6b0c	-0.045512244
237	0xbd478cab	-0.048718136
238	0xbb912ecc	-0.0044306275
239	0xbd03dca8	-0.032192856
240	0xbe28ffdf	-0.16503857
241	0xbd736e14	-0.05943115
242	0xbd2fad4a	-0.04288987
243	0x3bc75ced	0.0060840757
244	0xbdc47e64	-0.095944196
245	0xbd45ffd0	-0.048339665
246	0xbe69c3fb	-0.22828667
247	0xbdb87ec4	-0.090085536
248	0xbd8566cc	-0.065137476
249	0xbe3a08a3	-0.18167357
250	0xbe2823c4	-0.16419894
251	0xbe1cf937	-0.15329443
252	0xbdbc0af8	-0.091817796
253	0x3d2d292c	0.042275593
254	0xbdbb1e64	-0.09136656
255	0xbd2e6bd8	-0.042583317

memory_rnn.bias_hh f4 [256]
0	0xbdef91af	-0.11697709
1	0x3ba321de	0.0049784025
2	0xbd61d687	-0.05513623
3	0xbb802dd9	-0.0039117155
4	0x3dbf0a4c	0.09328136
5	0x3c4c87f6	0.0124835875
6	0xbe030454	-0.1279462
7	0x3d2d783d	0.042350996
8	0xbd45b76c	-0.048270628
9	0xbde25bde	-0.110526785
10	0xbda6e6f7	-0.08149522
11	0x3c92c126	0.017914366
12	0x3cd9ad72	0.026571963
13	0xbd8917e5	-0.06694011
14	0xbda0fa0d	-0.078601934
15	0xbd5e478a	-0.054267444
16	0xbd767ef4	-0.060179666
17	0x3d49227a	0.049105145
18	0xbde473e7	-0.11154919
19	0xbe1d66ff	-0.15371321
20	0xbc09c081	-0.008407713
21	0x3d918f47	0.07107406
22	0xbdbcee54	-0.09225145
23	0xbe0719c0	-0.13193417
24	0x3d2bd0b6	0.04194709
25	0xbe52ffd6	-0.20605406
26	0xbcda496b	-0.026646337
27	0xbd17f3a8	-0.037097603
28	0xbe18706a	-0.14886633
29	0xbe29bcb8	-0.16575897
30	0x3a3c5c68	0.00071854005
31	0xbdf08810	-0.11744702
32	0x3dc27dab	0.094966255
33	0xbe3204a4	-0.17384583
34	0xbe006477	-0.12538324
35	0x3d255fea	0.040374674
36	0xbe0285cd	-0.12746353
37	0xbbf1eee9	-0.0073832166
38	0x3d4fd7b8	0.050742835
39	0xbe199196	-0.14996943
40	0xbd8f6dfb	-0.07003399
41	0xbe1d44d0	-0.15358281
42	0xbd3dea63	-0.046366107
43	0xbdb7a5c3	-0.089671634
44	0xbde74d64	-0.11294058
45	0xbdcf4679	-0.101208635
46	0xbc6698bd	-0.014074502
47	0xbd5474a9	-0.05186907
48	0xbc621ad8	-0.013800345
49	0xbcff3883	-0.031154877
50	0x3ca4099f	0.020024119
51	0xbdd1b7ae	-0.10240112
52	0xbd9739f5	-0.07384101
53	0x3da6a436	0.081367895
54	0xbd6677fb	-0.056266766
55	0xbd1c6a32	-0.038187213
56	0xbd78c9b2	-0.060739227
57	0x3d5bc8bc	0.053658232
58	0xbe119578	-0.14217174
59	0xbd928e12	-0.07156004
60	0x3c624974	0.013811458
61	0xbe3762a5	-0.17908724
62	0xbe2b5699	-0.16732253
63	0x3d45d064	0.04829444
64	0xbc500ee5	-0.012698864
65	0xbd9bdb9b	-0.07610246
66	0xbc625d53	-0.013816196
67	0xbc2c650f	-0.010522141
68	0xbca578ae	-0.020199146
69	0xbde3ee92	-0.11129488
70	0xbc9351f8	-0.017983422
71	0xbe22d8da	-0.15903035
72	0xbdce5e4b	-0.10076579
73	0xbe3a447d	-0.18190189
74	0x3c9c968d	0.019114757
75	0xbb9dbd8d	-0.004813856
76	0x3ca09798	0.019603536
77	0xbe654452	-0.22389343
78	0x3bbce409	0.0057644886
79	0xbd156b42	-0.036479242
80	0xbd827d82	-0.06371595
81	0xbd8b1b0a	-0.06792267
82	0xbd87d0d4	-0.06631628
83	0x3a2bce12	0.0006553839
84	0xbe2cb1e1	-0.1686473
85	0xbdeac1cb	-0.11462744
86	0xbe2adc3a	-0.16685572
87	0xbde9ff76	-0.114256784
88	0xbc946cc9	-0.018118279
89	0xbe0eaaa9	-0.13932289
90	0x3b64663d	0.0034850978
91	0xbe3e6d6b	-0.18596427
92	0xbcf88179	-0.030335175
93	0xbe42796b	-0.1899163
94	0xbde66f96	-0.11251752
95	0xbd628332	-0.0553009
96	0xbdeba33a	-0.11505742
97	0x3d39d3b4	0.04536791
98	0xbe2f4696	-0.1711677
99	0xbdbdfd0d	-0.09276781
100	0x3c83374d	0.01601758
101	0x3af2a683	0.0018512759
102	0xbdc13d49	-0.09435517
103	0xbde761cd	-0.11297951
104	0x3cac3628	0.021021917
105	0xbdcc828c	-0.09985837
106	0xbd9b2072	-0.07574548
107	0xbdc4b47c	-0.09604737
108	0xbd8f5d83	-0.07000258
109	0xbd12ce0e	-0.03584104
110	0xbdef65c8	-0.11689335
111	0xbd9bc6c1	-0.07606269
112	0xbdb04256	-0.086064026
113	0xbe32f486	-0.17476091
114	0xbde76e7d	-0.11300371
115	0xbe63d723	-0.22250037
116	0x3d2c5f04	0.0420828
117	0xbe0927d1	-0.13394095
118	0xbda815ea	-0.08207305
119	0xbd922a4f	-0.07136976
120	0xbde31e1c	-0.11089727
121	0xbe150001	-0.14550783
122	0xbe11b40d	-0.1422884
123	0xbc9b1e70	-0.018935412
124	0xbe284922	-0.16434148
125	0xbe07b264	-0.13251644
126	0xbe275c09	-0.16343702
127	0xbbdd009e	-0.0067444583
128	0xbd78896f	-0.060677942
129	0xbc1c5792	-0.009542363
130	0xbb14adc9	-0.0022686592
131	0x3cd6fafe	0.02624273
132	0x3d925ccb	0.07146605
133	0x3d82569f	0.06364178
134	0xbddff4d0	-0.10935366
135	0x3c633a9e	0.013868956
136	0x3dad9583	0.08475783
137	0xbb5c3acd	-0.0033604384
138	0xbc9853f2	-0.018594716
139	0x3d959177	0.07303136
140	0xbc612c55	-0.01374348
141	0xbd1d08c4	-0.038338438
142	0x3cbf2ff8	0.023338303
143	0x3c090604	0.008363251
144	0x3d29ac89	0.041424308
145	0x3d522c72	0.051311918
146	0xbd1c3640	-0.038137674
147	0xbcf6f67a	-0.030146826
148	0x3d033c5b	0.03203998
149	0xbdf46fd8	-0.11935395
150	0xbc3df153	-0.011593181
151	0x3d464843	0.048408758
152	0xbd3a730a	-0.045519866
153	0x3dcf514e	0.101229295
154	0x3d18d5a5	0.037313122
155	0x3c91b281	0.017785313
156	0xbd6b26b8	-0.057409972
157	0xbbb0a743	-0.005391033
158	0xbdb2d7b2	-0.08732547
159	0xbdbaaa63	-0.0911453
160	0xbd3716a5	-0.04469933
161	0x3d97a3f7	0.07404321
162	0x3cfdbdb7	0.030974252
163	0x3cb7894f	0.022404341
164	0xbcff18be	-0.031139728
165	0xbdc50ec2	-0.096219555
166	0xbd075c05	-0.03304674
167	0x3c055d48	0.008139916
168	0xbddd6105	-0.10809521
169	0x3d61e817	0.05515298
170	0x3d8be53c	0.06830832
171	0x3c798ef0	0.015231833
172	0x3b2ff83f	0.0026850847
173	0x3db149ea	0.08656676
174	0x3dc94de1	0.09829307
175	0xbb94ed61	-0.0045448993
176	0x3bdd7574	0.0067583863
177	0x3d03b53a	0.032155253
178	0xbce55424	-0.027994223
179	0xbccc56cd	-0.024943734
180	0xbca50f31	-0.020148845
181	0xbde398fc	-0.11113164
182	0x3ca8d837	0.020610912
183	0xbcd0e8ec	-0.02550169
184	0x3cf261dc	0.029587679
185	0xbc86b2d7	-0.0164427
186	0xbceb41d4	-0.028717913
187	0x3cf45bea	0.029828984
188	0xbd93c3df	-0.07215094
189	0xbce49fb3	-0.027908182
190	0xbd004ebc	-0.031325087
191	0xbd51789d	-0.051140416
192	0x3b802af1	0.003911369
193	0xbdb21fc8	-0.08697468
194	0xbde4975d	-0.11161683
195	0x3cc96b57	0.024587316
196	0xbdea4764	-0.11439398
197	0x3d903b5c	0.07042572
198	0xbb8f4015	-0.004371653
199	0xbbbde149	-0.0057946783
200	0x3d493fdf	0.049133178
201	0xbe3b4444	-0.1828776
202	0xbe364031	-0.17797925
203	0xbb12ba17	-0.002238875
204	0xbe2eb9e9	-0.17063107
205	0xbdb100d8	-0.08642739
206	0x3dae081b	0.0849764
207	0xbd5f03aa	-0.054446854
208	0xbe0fe76c	-0.14053124
209	0x3c1506e9	0.009095886
210	0xbe3bbfcc	-0.18334883
211	0xbe01efdd	-0.12689157
212	0xbca1ddc6	-0.01975907
213	0xbe2432d7	-0.16035019
214	0x3d4b8d02	0.049695022
215	0xbe472adc	-0.19449943
216	0xbe2714d7	-0.16316544
217	0xbdee271e	-0.11628555
218	0xbdc1d551	-0.09464515
219	0xbd9b1304	-0.07571986
220	0x3d1831cb	0.03715686
221	0xbdf23b98	-0.11827773
222	0x3cf6a724	0.030108996
223	0xbe07c4e5	-0.13258703
224	0x3c261e45	0.010139053
225	0x3cb51e73	0.022109246
226	0xbe529f58	-0.20568597
227	0xbe08917d	-0.1333675
228	0x3d076df6	0.03306385
229	0x3d1a78ed	0.03771298
230	0xbe1e7b74	-0.15476781
231	0x3d8be1fe	0.06830214
232	0xbe02e1f7	-0.12781511
233	0xbdcd22a4	-0.10016373
234	0x3da77780	0.0817709
235	0xbd63f39e	-0.055652253
236	0xbd4475b2	-0.047963805
237	0xbcd7086b	-0.026249131
238	0xbc2415d3	-0.010014969
239	0xbe38ac17	-0.18034397
240	0xbd9ef25e	-0.077610716
241	0x3d6123cf	0.05496579
242	0x3d2f28d4	0.042763546
243	0xbe03f56b	-0.12886588
244	0xbcaaded1	-0.0208582
245	0xbdcb212d	-0.09918437
246	0xbe68d3b5	-0.2273701
247	0xbc55f7ed	-0.013059598
248	0xbdc12411	-0.09430707
249	0x3d06a85e	0.03287541
250	0xbe6311d7	-0.22174774
251	0x3d05609c	0.032562837
252	0xbca7ee62	-0.020499412
253	0xbe13970f	-0.14413093
254	0x3c842852	0.016132507
255	0xbd84764d	-0.064678766
