torch-rl/storage/Lstm-Customs-FourRoomsLava-9x9/status.pt (torch, 649237 bytes, 51 tensors)

image_conv.0.weight f4 [16, 3, 2, 2]
000000 04 2c d8 3e 7b de 25 bf b6 7d db bd ed 68 6c be
       0.4222108 -0.64792603 -0.10717337 -0.23086901
000010 3c 3d 4c c0 fb aa 17 bf b1 15 0e c0 78 2b f7 3c
       -3.1912374 -0.5924527 -2.220074 0.030172095
000020 23 60 24 3d 94 c7 10 bd 45 fa a3 3d 7e 52 69 3c
       0.040130746 -0.035346583 0.080067195 0.014240859
000030 fc 39 5e 3c b0 77 84 be ba 72 51 be 95 3e 00 be
       0.013563629 -0.25872564 -0.20453921 -0.12523873
000040 1b 0a be b9 ca 0e 1a bd ee d4 52 3d fa 73 95 3d
       -0.00036247153 -0.03761176 0.051472597 0.072975114
000050 47 2b dc bd 72 88 32 be e4 30 46 bd f1 02 ff bd
       -0.10750442 -0.17434862 -0.04838647 -0.12451733
000060 4b 12 2f bd 00 81 52 3e 18 84 a6 bd e5 30 e3 bc
       -0.042742055 0.20557022 -0.08130664 -0.027733276
000070 8a b1 8a bf 4e 88 3a bd e0 00 d5 3d 64 c8 a8 3e
       -1.0835431 -0.045540147 0.104005575 0.32965386
000080 aa 1d 43 3e ec aa 86 be f4 87 8c be 38 94 0e be
       0.19054285 -0.26302278 -0.27447474 -0.13923728
000090 73 d4 be 3e f3 33 e1 be 3b e8 42 3d 2a b8 0c bf
       0.3727146 -0.43984947 0.047584753 -0.5496851
0000a0 df 63 7c 3e 85 43 1a bf 2e 88 35 bf e9 64 05 bf
       0.24647473 -0.60259277 -0.7091092 -0.521071
0000b0 9f ba 1b be cb f1 17 3e 86 e9 1c be 6d e0 ad 3d
       -0.15207909 0.1483833 -0.15323457 0.084900714
0000c0 7d 1d 26 be 9c e7 df bc 22 72 35 bf 90 91 05 bf
       -0.16222186 -0.02733212 -0.7087728 -0.52175236
0000d0 26 1d 2d 3e fc cb d2 be 0a f6 25 3e 28 80 a8 3e
       0.1690565 -0.41171253 0.16207138 0.32910275
0000e0 a1 75 5d bc 6b 4f 45 be e1 02 34 3e 35 7c b7 3d
       -0.013516814 -0.19268577 0.17579223 0.089592375
0000f0 0f 25 04 bf b3 4d 1e 3e f2 5e 65 bd 83 2b 9e 3e
       -0.51619047 0.15459327 -0.05599875 0.30892572
000100 6b 63 e4 3c a4 12 60 be 64 2d 4e be 9f c5 13 be
       0.027879437 -0.21882111 -0.20134503 -0.14430855
000110 ba 56 60 be 49 c4 51 be 3f cf 20 3e 19 a2 8a bd
       -0.21908084 -0.20485033 0.15704058 -0.06769199
000120 b4 34 a8 be f8 c3 d6 be 3e 07 3d 3e fe f9 37 bf
       -0.3285271 -0.41946387 0.18459794 -0.7186583
000130 ce d4 70 3e 63 94 1a be fb 36 0c c0 bc 06 a0 be
       0.23518679 -0.15095668 -2.1908557 -0.31255138
000140 77 d8 4f be 0e 09 5f be c3 d0 8f 3c e1 7d 49 bd
       -0.20297419 -0.21780798 0.0175556 -0.049192313
000150 d6 ea 0c 3e ad 25 2f bf b7 db 14 bf 8c 78 0b 3c
       0.13761458 -0.68416864 -0.5814776 0.008512627
000160 ce 91 8f 3d 95 10 85 be 50 17 50 bc d5 5f c5 bf
       0.07010232 -0.25989214 -0.012700871 -1.5419871
000170 79 8b 6d 3d 7e 01 8e 3d 7c ec 45 be 6e 41 0c be
       0.05799434 0.06933878 -0.19328493 -0.13696834
000180 10 81 0c be 38 f5 09 3e ca 22 1b bf a4 0c 3f bf
       -0.13721108 0.1347245 -0.6059996 -0.74628663
000190 75 a5 03 3f 7a 46 26 be 56 57 bb bd 79 96 d9 bd
       0.5142434 -0.16237822 -0.091475174 -0.106244035
0001a0 82 14 3f be ca 63 7b be 87 df 8d 3e 9b f7 76 3c
       -0.18660167 -0.24549785 0.277096 0.015073682
0001b0 e0 a4 2c be b1 d0 06 bf cd 8c 24 bf 06 96 00 3e
       -0.1685977 -0.5266219 -0.64277345 0.1255723
0001c0 6e 48 83 3e bf 6a 17 bf 29 8e ca bc a4 9a 38 bd
       0.25641197 -0.59147257 -0.02472599 -0.04506935
0001d0 3b 25 56 3e e2 a3 37 3e 08 ef 55 be 7e dd 54 be
       0.2091264 0.1793361 -0.20891964 -0.20787618
0001e0 6d 38 fe bd a3 a0 d8 bc 0a 79 8b 3e 7d 2c 86 bf
       -0.12413106 -0.026443785 0.27240783 -1.0482327
0001f0 26 57 2c bf 8c b2 76 bf 6c fe 05 3e 99 a7 28 bf
       -0.6732048 -0.9636619 0.13085335 -0.65880734
000200 6b 51 2a 3e 22 37 89 3e c5 94 37 be 69 4c 80 3d
       0.16632621 0.26799875 -0.17927845 0.06264574
000210 71 f1 71 3e 06 c3 41 bf 79 02 c4 bc cc cd 9f 3e
       0.23627259 -0.7568821 -0.02392696 0.31211698
000220 8b 0f 08 3e c0 e5 b2 3d e9 2c dc bf 97 bb 09 bf
       0.13287179 0.087352276 -1.7201205 -0.53801864
000230 98 73 07 be eb af 09 bd d3 30 35 be 8d 4b d8 3d
       -0.1322769 -0.033615034 -0.17694406 0.10561285
000240 86 15 88 be c9 53 1b bf 39 56 1a be bc b4 f5 3d
       -0.2657892 -0.6067472 -0.15071954 0.11997363
000250 f2 63 af 3e 53 d0 9c 3e 43 40 bf bb 24 6c aa be
       0.3425594 0.3062769 -0.005836518 -0.3328563
000260 36 b2 08 bd f1 7d 22 bc ce 81 8b be 4e 41 3e be
       -0.03337308 -0.009917722 -0.2724747 -0.185796
000270 db c0 4c 3c fc 81 b9 be ff 5d f8 3d 2b 5d cb be
       0.012497152 -0.36231983 0.12127303 -0.3971952
000280 ff ac 01 bf d0 a1 7e be 8b 00 c1 3e 22 b8 de be
       -0.50654596 -0.24866414 0.37695727 -0.43499857
000290 6c f7 18 be b6 2e 80 3d aa 3a d7 bd 45 d4 84 bd
       -0.14938134 0.062589094 -0.10509236 -0.064858
0002a0 2e d2 07 bf 65 57 cb be 4b fb 3a be 73 4c fd bd
       -0.53055084 -0.39715114 -0.18259923 -0.12368097
0002b0 a6 fa a3 be 70 c9 e7 be 81 8f a0 3e 8a 0a c5 3d
       -0.32027167 -0.45270872 0.31359485 0.09621151
0002c0 8b 9d 49 3e e2 9b 16 3c f0 7e 4c be 51 04 67 3e
       0.19689004 0.009192439 -0.19970298 0.2256024
0002d0 be 48 71 be 9d 39 1e bf 8e 8e a6 be 0d ca 9b 3e
       -0.23562905 -0.6180666 -0.32530636 0.3042759
0002e0 5b 9b 05 bf a6 99 34 3e a0 36 40 bf 91 d9 14 c0
       -0.5219018 0.17636737 -0.7508335 -2.3257792
0002f0 fa 99 20 bc 59 d6 1f be 68 8a d3 3d 12 92 e3 bd
       -0.009802336 -0.15609111 0.10329133 -0.11111845

image_conv.0.bias f4 [16]
000000 ff 22 57 bd 03 94 20 be bb 4f 21 bf 74 4e 14 bf
       -0.05252361 -0.15681462 -0.63012284 -0.5793221
000010 51 50 1c bf 3c 99 8a be 41 b4 48 be 28 77 41 bf
       -0.61060053 -0.27070034 -0.19600011 -0.75572443
000020 1f 5b b3 be 38 57 7d bf e3 0e 16 be f5 bb 76 bf
       -0.35030457 -0.9896121 -0.14654116 -0.9638055
000030 48 af 26 bf e8 5e 60 be ba 8c 3d be 2e 5e 68 3e
       -0.6511121 -0.21911204 -0.18510714 0.22692177

image_conv.3.weight f4 [32, 16, 2, 2]
000000 8d 1c 2b 3f a0 0a 76 3e 64 97 a2 3e 3f d4 37 3c
       0.6684044 0.2402749 0.31756127 0.011220037
000010 b4 41 b9 bd 2c 97 06 3e e9 cc 58 3d d8 fd 7f 3d
       -0.09045735 0.13143605 0.052929793 0.062497944
000020 63 9c 03 be a8 27 62 3e 95 00 7a bf 12 39 17 bf
       -0.12852626 0.2208544 -0.9765714 -0.5907146
000030 a7 66 ec be 1f f7 50 3d 6c 6b fb be 5b 92 0b bf
       -0.46172068 0.051016923 -0.49105394 -0.54520196
000040 b0 40 9a 3e d1 ae 13 3f 14 72 06 be 2e 27 9f be
       0.30127478 0.57688624 -0.13129455 -0.3108458
000050 2a a7 e2 be 61 e7 4f 3e 6f 00 f6 be bd 7a ac bf
       -0.4426816 0.20303108 -0.48047206 -1.3474957
000060 b4 19 1d 3d 61 eb 4d 3e 33 4d b1 be 35 2e df be
       0.03835459 0.20109321 -0.3462921 -0.4358994
000070 f1 d2 99 bd 2a c0 49 3e be a7 87 3d a4 db 78 3d
       -0.07510937 0.19702211 0.06623791 0.06075634
000080 1a 20 15 bf 6b f6 32 be e0 38 c8 be e7 f5 eb 3e
       -0.5825211 -0.17476813 -0.39105892 0.46086046
000090 24 a4 a6 be 6b 14 0a be e9 06 bd be 7f 53 cf be
       -0.32547104 -0.13484351 -0.36919335 -0.4049339
0000a0 12 0c 90 3e 53 b5 d0 3e a7 96 5c bf 64 bb 49 bf
       0.2813421 0.4076334 -0.8616738 -0.7880156
0000b0 cd 3c c0 be b0 ef ad bd 65 21 95 bf f6 86 e1 be
       -0.37546387 -0.084929824 -1.1650816 -0.4404828
0000c0 91 31 12 be 28 78 55 bd 91 d3 bf be 08 74 3b 3e
       -0.1427672 -0.052116543 -0.374661 0.18305981
0000d0 41 a3 3c 3f 92 e5 31 3f 68 b4 bd bf a4 17 8d bd
       0.73686606 0.6949092 -1.4820681 -0.06889275
0000e0 9a 44 05 3f a8 51 ed 3c d0 8f a9 bf 11 b7 34 bf
       0.520578 0.0289696 -1.3247013 -0.7059184
0000f0 d2 5b c8 be 2a 6e 40 3e 93 bb c8 3e c7 3d 1b 3f
       -0.39132553 0.18792024 0.39205608 0.6064114
000100 88 46 72 be 3c ea ea bc 04 76 d6 be d2 de 53 3d
       -0.23659718 -0.028676145 -0.41886914 0.05172617
000110 a8 e1 ee bd 1c 80 b1 bc 19 63 84 bd 57 f0 9b bc
       -0.11664134 -0.021667533 -0.06464214 -0.019035501
000120 a0 87 70 be 34 4b e1 bd d8 39 3f 3d 7a 17 66 be
       -0.23489237 -0.11000672 0.046686023 -0.22469893
000130 5e a4 5a be 94 c8 c6 be 70 be dc be 9d 53 2c 3e
       -0.21351764 -0.38824904 -0.43114042 0.16828771
000140 7e ca 84 be 21 38 08 bd 8c 85 cb bd e1 a5 83 bd
       -0.2593574 -0.033256654 -0.099375814 -0.06428123
000150 7b e2 11 3e d2 0e 8b bd 00 ba 05 bd 03 d1 cc be
       0.14246552 -0.06789936 -0.032648087 -0.40003213
000160 73 e8 6a be 73 23 33 be 35 73 b4 be 21 25 41 be
       -0.22940235 -0.17493992 -0.35244146 -0.1886182
000170 47 00 dc bd f9 3c 2d be bb 7c 2f be 69 05 82 3e
       -0.107422404 -0.1691779 -0.17137425 0.25394753
000180 19 3e 44 bd 15 63 d3 bc fb 0a ad be 89 90 4b bd
       -0.047910783 -0.025804082 -0.3379744 -0.049698386
000190 d1 70 ad 3d a5 c0 43 be 1d 0f 09 bf db c6 9d be
       0.08468784 -0.19116457 -0.53538686 -0.30815777
0001a0 8c a5 a7 be fe c0 bc bd 40 00 76 bd 2a 7c 88 be
       -0.3274349 -0.09216498 -0.060058832 -0.2665723
0001b0 1e 67 d9 bd af 13 fb 3c da 91 5f be d3 ee df 3d
       -0.10615371 0.030649034 -0.21832982 0.10934224
0001c0 8f 70 03 be ff e8 3f bd 67 fd 18 be d4 d5 4f be
       -0.12835906 -0.04685306 -0.14940415 -0.20296413
0001d0 0a 7b db bd 2e 3d 21 be 23 d0 3b be ff ef e0 bd
       -0.10716827 -0.15745994 -0.18341117 -0.109832756
0001e0 ff 9e 0f be e2 05 a9 bd d3 f7 9a 3d 95 99 83 bd
       -0.14025496 -0.08253075 0.075668 -0.06425778
0001f0 32 1e c5 bd a2 3d 34 be 84 93 ae be 15 ce ec ba
       -0.096249 -0.17601636 -0.3409692 -0.0018066788
000200 0f e8 0e 3f 1c 66 48 be 7c 2a 86 3e fd ff 14 3e
       0.55822843 -0.19570202 0.26204288 0.14550777
000210 51 07 92 bd 32 76 ba bd 5e 28 3b bd ba 33 47 3e
       -0.07130302 -0.09104575 -0.045692794 0.19453326
000220 69 ae b9 bc 4e 01 5b bd d0 d5 44 bd 19 d7 7e 3d
       -0.022666173 -0.05346804 -0.04805547 0.06221685
000230 3c bf 08 bf 62 b9 c9 be 61 57 e3 be fc 1a 26 3e
       -0.534168 -0.39399248 -0.44402602 0.16221231
000240 56 c6 29 be b4 f5 70 bd 64 ac 59 bc 89 0d 9b 3e
       -0.16579565 -0.05882807 -0.01328573 0.30283764
000250 09 97 82 3e 53 7d 7e be ba b5 5f be 4f 8b 8e bf
       0.25505856 -0.24852495 -0.21846667 -1.1136264
000260 12 37 d6 3e 4b d2 9d be 04 4e f4 3d bf bf 29 be
       0.4183889 -0.30824503 0.11928943 -0.16577052
000270 74 c0 e2 be f6 76 b6 bd 26 86 c1 3c 67 bf 0a bf
       -0.44287455 -0.08909409 0.023623537 -0.54198307
000280 12 a8 03 bf 82 b7 29 be cf e3 1a be f1 e2 ee 3e
       -0.5142833 -0.16573909 -0.15125965 0.46657518
000290 97 10 f8 3c 63 90 de 3d ce b8 02 3d 03 5b 0e be
       0.030281348 0.10867383 0.031914525 -0.13901906
0002a0 c8 e7 2a bc 3d b1 4f bd 93 5d 30 3e 35 a3 1f bf
       -0.0104312375 -0.050706137 0.17223196 -0.6235841
0002b0 f3 50 8d 3d e8 32 73 bf 17 d6 8b 3d 32 ba 85 bf
       0.069002055 -0.9499955 0.06827944 -1.0447447
0002c0 cb c8 17 bf e4 b7 4f bf 51 41 cd 3e b0 cd 60 3f
       -0.5929076 -0.8113997 0.40088895 0.87813854
0002d0 a3 24 3a bf ab 05 41 bf 0b 2c 08 3f 79 6a 9a bd
       -0.72712153 -0.75399274 0.53192204 -0.07539839
0002e0 9f 02 13 be ec 56 52 3c 4e 09 ad 3b b4 d1 2f 3e
       -0.14356469 0.012838107 0.00528065 0.17169839
0002f0 38 01 24 bf 24 ae 3b be 3d 33 b6 3c a4 e7 c8 be
       -0.6406436 -0.18328148 0.02224123 -0.39239228
000300 2a ae ac bd 83 7b 02 3f 36 f7 61 be d1 e2 b3 bf
       -0.08431657 0.50969714 -0.2206696 -1.4053594
000310 40 0f 41 bd 94 03 cf bd a7 c2 8c bd 62 b8 93 bd
       -0.047133684 -0.10108104 -0.068730645 -0.072129026
000320 f1 87 25 bd 92 c7 be 3d aa e1 67 3d 79 31 a0 3e
       -0.040412847 0.09315409 0.056611694 0.31287745
000330 df 42 99 3e cf 7a d9 bd 22 f1 e8 be 4f 77 17 3f
       0.2993383 -0.10619127 -0.4549647 0.59166425
000340 8b 1d c6 3e fb f2 01 bc ac 59 b5 3d ef a9 63 bf
       0.38694414 -0.007931466 0.08854994 -0.88931173
000350 4c 34 a4 3d 04 1b a7 bd fd a0 20 3f d2 a5 a9 3e
       0.08017787 -0.0815945 0.6274565 0.33134323
000360 e7 ef fe 3d 16 6c ba 3e 4c 79 9a 3e e6 2d fc bf
       0.124481015 0.36410588 0.30170667 -1.9701507
000370 32 e2 ef 3e 3a 72 6c bd 42 32 23 bf 01 3b 08 3f
       0.4685226 -0.057726122 -0.6374856 0.5321503
000380 1a 35 16 be 8b af 0f 3d ba b1 fb 3e 43 b1 69 bf
       -0.14668694 0.03507952 0.49159032 -0.91286105
000390 9e 4b 1e 3e 53 bb ff 3d 2e b2 7a 3c 5d d8 43 3e
       0.15458533 0.12486901 0.01530127 0.19125505
0003a0 23 1c c1 be be ae 55 be 54 67 48 be 32 b3 ad 3f
       -0.3771678 -0.2086744 -0.19570667 1.3570311
0003b0 17 32 32 be b6 80 6b bd 86 63 92 3b c3 4a 6e 3f
       -0.1740192 -0.057495795 0.0044674305 0.9308283
0003c0 1a db 89 3e 28 b0 93 be bd 21 62 bd 10 cd 7d be
       0.26924974 -0.28845334 -0.055207957 -0.24785256
0003d0 14 52 ad bb 93 1f 81 3e 55 5c ed bd 20 c3 54 3e
       -0.0052893255 0.25219402 -0.115898766 0.2077756
0003e0 2e 7e df 3c d4 1f 7e bc 21 bd f9 bd bb 50 8f bf
       0.027281847 -0.015510518 -0.121942766 -1.1196512
0003f0 e7 dc 9d be bd 63 3c be 34 ac 8a bf 1b dc 56 bf
       -0.30832598 -0.18397422 -1.0833802 -0.83929604

image_conv.3.bias f4 [32]
000000 7e 06 83 be cc 9b 6f be b5 b9 62 3e c1 c1 29 bf
       -0.2559089 -0.23399276 0.22141154 -0.6631127
000010 be 5f 02 bf aa 84 d9 be 02 c8 aa 3e 3a 91 8d be
       -0.5092734 -0.42484027 0.3335572 -0.27649862
000020 df d7 db be b4 fd e1 be 54 fd 3e bf f8 1c 22 bf
       -0.42938134 -0.44138873 -0.746053 -0.6332545
000030 ec 0d 41 be 52 db 6f be 93 e2 4b be cb d3 7f be
       -0.18852967 -0.23423508 -0.1991065 -0.24983136
000040 76 ea 04 be b5 19 c9 be 5a ea 07 3e 06 8a 59 bd
       -0.12980065 -0.39277425 0.13272992 -0.053110145
000050 6c b5 58 3d 5c 84 2b be ee 12 3c be 74 06 40 be
       0.052907392 -0.1674971 -0.18366596 -0.18752462
000060 6e 2d d8 be 0c 73 83 be ae 18 f7 be a2 11 87 be
       -0.4222216 -0.2567371 -0.48261017 -0.2638064
000070 1a 64 b9 3d ba 07 0a bf 71 64 2c 3e 67 5c 05 bf
       0.09052296 -0.5391804 0.1683519 -0.5209412

image_conv.5.weight f4 [64, 32, 2, 2]
000000 04 b0 6c bf 2b f0 ca 3e 89 a8 b0 3c 83 b5 8e 3e
       -0.9245608 0.3963636 0.021564739 0.27872857
000010 1e b0 db 3d 64 18 fe 3d c2 11 85 be 32 d5 14 3e
       0.10726951 0.12406996 -0.2599011 0.14534453
000020 0e 47 91 be ae 10 67 3e 98 5e 39 bf 1f 20 89 bf
       -0.28374523 0.22564957 -0.72409964 -1.0712928
000030 1c ae 4f bf 91 b8 8b bd e5 23 ad be 57 b5 5e be
       -0.81125045 -0.068223126 -0.33816448 -0.21748863
000040 dd ba 70 be d4 13 0d bf 31 9f 42 3e db 68 8f 3d
       -0.23508783 -0.5510838 0.19006039 0.070024215
000050 a1 5a 14 3e 18 d0 10 3d 20 7f 77 3e 34 35 03 be
       0.14487697 0.035354704 0.24169588 -0.12813264
000060 67 f8 8e bc 1f eb e8 be 78 d0 ed 3d b2 d7 62 bf
       -0.017452432 -0.45491883 0.11612028 -0.88610375
000070 ff 97 28 3e c5 cf bd bd 71 04 90 3d 00 00 85 3f
       0.16464232 -0.092681445 0.07032097 1.0390625
000080 cf 0a 82 3d 23 5d 98 be 01 18 ba 3d a9 08 89 be
       0.06349718 -0.29758558 0.0908661 -0.2676442
000090 0e 0d 8a bf ed 95 c9 be d2 d0 66 3e e1 b2 9c 3e
       -1.0785234 -0.39372197 0.22540596 0.30605224
0000a0 40 b2 7c 3f 06 24 12 be 0d c3 5b 3e 4b 57 66 3d
       0.9870949 -0.14271554 0.21461125 0.056235593
0000b0 4e 9a f7 3e 1e 34 c5 3e f5 f4 29 3e b9 c2 2e bd
       0.48359913 0.38516325 0.1659735 -0.04266617
0000c0 ba 9f 80 3d 02 4d a3 3c db bc a4 bb ba 8c be 3d
       0.062804654 0.019934181 -0.005027396 0.09304185
0000d0 c0 6b bb 3a 88 e5 ba be 00 13 5a be 25 79 f8 3d
       0.001429908 -0.36503243 -0.2129631 0.121324815
0000e0 d8 61 a1 3e e9 c1 ec bc b9 ae b2 3d 3b 05 87 3e
       0.3151996 -0.028901057 0.08724732 0.26371178
0000f0 cb da 1f 3e 98 c4 8d 3e 96 d6 12 bf d5 aa 07 3e
       0.15610807 0.27689052 -0.5735868 0.13248761
000100 40 9e ba 3e 24 04 6f 3e 22 f1 dc 3e 7d 77 8f bd
       0.3644886 0.23341423 0.4315272 -0.070052125
000110 49 45 39 3f 80 a3 27 3f 6c 74 59 3e 41 a6 83 bd
       0.72371346 0.65483856 0.21235818 -0.06428195
000120 70 11 84 be 94 7d cb 3e 1c 75 52 be b6 ce 0a 3f
       -0.25794554 0.39744246 -0.20552486 0.54221666
000130 6a c2 da be a8 93 8c 3e a0 66 49 3f 0c f3 9d be
       -0.4272645 0.27456403 0.7867222 -0.30849493
000140 da 39 fd 3c 42 26 7e bf 9e 57 cc be 10 90 70 bf
       0.030911375 -0.99277127 -0.39910597 -0.9396982
000150 a2 17 79 3c a5 7a 86 3e 3a 41 2d bf ae 28 1b bf
       0.015203388 0.26265445 -0.6767765 -0.6060895
000160 3b 81 1c bf 9d 75 11 bf 03 ee 7f bf 8a 89 bb be
       -0.6113469 -0.5682009 -0.9997255 -0.3662837
000170 a6 c1 8b bd c2 32 80 bd ff 3c 27 3b 2e 7f 5e 3b
       -0.06824045 -0.06259681 0.0025518534 0.0033950317
000180 8a d3 1c bf 57 02 46 bf b8 20 46 bf b4 af 0e be
       -0.61260283 -0.7734732 -0.77393675 -0.13934213
000190 58 16 18 bf 33 61 72 3f cc 23 9e be c8 ca 7b bf
       -0.59409094 0.94679564 -0.30886686 -0.98356295
0001a0 d2 f2 97 bf 58 b4 10 3f 54 31 7b 3e 0a 41 24 3f
       -1.1870978 0.5652518 0.24530536 0.6416174
0001b0 03 23 cb 3e 4a 9b 8f be 7c 0b 3e 3d c0 6f 38 bd
       0.3967515 -0.28048164 0.04639767 -0.045028448
0001c0 fc 33 f2 bd 06 a9 85 bd 73 9f 6b 3e 43 79 80 3e
       -0.118263215 -0.06526379 0.23010044 0.25092515
0001d0 e7 2d 46 3d 44 1e 82 bd be 40 52 bf 07 1b 0d bf
       0.04838362 -0.06353429 -0.8213004 -0.55119365
0001e0 a4 6e 8f 3e e2 e2 f7 be 9e 26 43 3e d6 70 10 bf
       0.280141 -0.48415285 0.190577 -0.56422174
0001f0 01 7a 63 3f c2 ba 6c be 13 dd d6 be ed 67 4c 3e
       0.8885804 -0.23118117 -0.4196554 0.1996152
000200 20 26 0c bf fa f7 e9 be 7f 4d c7 be aa 97 1e 3f
       -0.54745674 -0.45697004 -0.38926312 0.6195017
000210 1f 58 3c be 70 68 09 3e 89 56 b8 be 15 44 d7 3e
       -0.1839299 0.13418746 -0.3600352 0.4204413
000220 aa bb 7c 3e a6 00 c0 3e 3b fe 3a bf a9 d0 13 be
       0.24680963 0.37500495 -0.73044175 -0.14435066
000230 28 36 4a 3e 45 a3 75 bd 28 83 55 3e 46 16 a2 be
       0.19747221 -0.05997016 0.20850813 -0.31657618
000240 46 b0 ce 3d 1f 0e c7 be e8 09 5e be 78 07 90 be
       0.10092215 -0.3887796 -0.21683466 -0.28130698
000250 db ca 3d 3d c1 88 9c 3c c0 2a c6 3e d8 62 66 be
       0.046336036 0.019108178 0.3870449 -0.22498643
000260 89 5a aa 3e 57 95 be 3d e4 eb 4a 3e d4 0f fc bd
       0.33272198 0.09305828 0.19816548 -0.123077065
000270 fc 31 92 bd 3b 3c ba 3d 78 5c b9 be 56 7c f3 3d
       -0.0713844 0.09093519 -0.3620336 0.118889496
000280 cf 1b 04 3e 2b 22 2a bf b0 55 05 3f f2 e1 fb 3d
       0.12901233 -0.66458386 0.52083874 0.12298955
000290 c6 52 41 be aa 98 08 be b6 15 3c 3f 50 fa b6 3e
       -0.18879232 -0.13339487 0.7347063 0.35737848
0002a0 e1 ce fc 3e fd f0 2a bf 41 ac c9 3e aa de 16 3f
       0.49376586 -0.6677397 0.39389232 0.5893351
0002b0 93 73 5c 3f 99 45 02 bf 15 76 06 3e 12 99 c5 3e
       0.8611385 -0.5088745 0.13130982 0.38593346
0002c0 4f fb 9c 3d 2a c8 cc 3b b3 15 93 bc 7c 69 21 bd
       0.07665121 0.0062494474 -0.017954683 -0.03940724
0002d0 06 13 cb 3e a7 93 57 3d 75 2a b4 3e 1d 8b 0b be
       0.3966295 0.052631047 0.35188642 -0.13627286
0002e0 85 2d b6 bc c5 da 07 bd 3b 0c a0 bd ec 63 81 bd
       -0.022238502 -0.03316762 -0.07814833 -0.06317887
0002f0 55 18 b9 bd 90 0f 18 bf df 03 8f 3e a2 b3 f9 3e
       -0.09037844 -0.59398746 0.2793264 0.4876986
000300 94 a6 28 3f b9 3c 92 3f 02 59 3c be 9f 75 5b be
       0.6587918 1.1424781 -0.18393329 -0.21431588
000310 83 8c 8d bf ae c7 03 bf 25 88 96 be e8 a7 85 bc
       -1.1058506 -0.5147656 -0.29400745 -0.016315416
000320 36 0a 5d be d0 98 41 bc f8 cc 18 3e 3b 22 91 bf
       -0.21585926 -0.0118162185 0.1492194 -1.1338571
000330 b6 56 b5 be 0a d6 de be 59 dd 11 3e 12 68 c3 bd
       -0.35417718 -0.43522674 0.14244594 -0.09541334
000340 3b 17 2d bf b5 7e 77 3e 64 82 bc 3d 72 84 73 3d
       -0.6761357 0.24169429 0.092045575 0.05945248
000350 63 10 c5 be 46 f2 d2 bc 0f fe 7a 3e 39 3c 14 3e
       -0.38489065 -0.02575029 0.24510978 0.14476098
000360 03 06 d0 bd 58 66 03 bf 32 3e 80 bf be fd c1 3e
       -0.10157397 -0.5132804 -1.001898 0.37888902
000370 00 6f e6 bc 49 ab d3 bc 8b f4 14 3c 95 1c 1c 3d
       -0.0281291 -0.025838511 0.009091507 0.038113195
000380 21 c9 32 3f 97 c1 27 3f 7f 8a 99 be fe c4 91 be
       0.6983815 0.6552977 -0.29988477 -0.28470606
000390 16 df 44 bf 88 4c 0a be 8b 9d 01 3e 11 00 12 3f
       -0.769029 -0.13505757 0.12657754 0.5703135
0003a0 81 39 31 3f 8e c1 12 bf 59 b8 15 bf 34 58 7f 3e
       0.6922837 -0.5732659 -0.5848442 0.2493599
0003b0 9d d9 6b bb 89 5b fb 3d 9f cb d7 bc f9 b2 2b bc
       -0.0035987862 0.12273318 -0.026342211 -0.010479682
0003c0 36 66 e6 3d b1 b9 c5 bd ab 50 a8 be 46 2d 7a bd
       0.11249964 -0.096545584 -0.32874045 -0.061078332
0003d0 67 bd 99 be df f8 70 bf 0e 47 66 3f 63 2d 72 be
       -0.30027315 -0.9412975 0.8995217 -0.23650126
0003e0 a0 5b 1a bf 51 d9 0f 3f 26 39 e9 be 51 4f 0b 3f
       -0.6029606 0.56190974 -0.45551413 0.544179
0003f0 1f 13 cf bd e2 cf c7 3e 17 aa d7 3d 26 0d 68 3f
       -0.10111069 0.3902579 0.10530489 0.9064506

image_conv.5.bias f4 [64]
000000 bf 45 45 bf 18 89 52 bf 0b 83 04 bf b5 02 0e bf
       -0.7705955 -0.8224044 -0.51762456 -0.5547288
000010 ce 06 6b bf 58 68 ad be b9 c1 df 3d 58 48 1c bf
       -0.9180726 -0.3386867 0.109256215 -0.6104789
000020 6d f2 03 be cf 2c 29 bf 0d 89 26 bf a5 d0 0e be
       -0.12885447 -0.66084 -0.6505287 -0.13946779
000030 9a 5b 77 be d2 40 bd bd 5f b6 4a 3e 21 c8 0c bf
       -0.24156037 -0.09240879 0.19796132 -0.5499287
000040 6e 4c 14 bf 6d dd 80 bf 8d 69 a0 3d 49 e3 5e be
       -0.5792912 -1.0067574 0.07832632 -0.2176639
000050 0d 21 07 bf 73 a0 ab be 53 46 7a 3d 5f 43 e0 be
       -0.52784806 -0.3352085 0.061102223 -0.438014
000060 af 32 c1 be f0 17 e5 3e 7d 74 32 3e e1 b6 ec be
       -0.3773398 0.44744825 0.17427249 -0.46233276
000070 4a 25 8f 3e dd 6b 1f bf 17 c4 67 be cc 54 27 bf
       0.27958137 -0.6227396 -0.22633396 -0.65363765
000080 92 70 bf be 80 b8 72 3e 06 65 95 3d 78 53 23 bf
       -0.37390572 0.23703194 0.07294659 -0.6379924
000090 69 da 69 bf 3e 7a a9 be a1 f4 c6 bd a0 71 b3 3b
       -0.9134889 -0.33101076 -0.09714628 0.0054761916
0000a0 d9 fb 84 be f4 8d 04 be c6 99 8f be d7 9a 86 be
       -0.25973395 -0.12944776 -0.28047007 -0.26290008
0000b0 2e 6b 59 bf d6 3a 97 be 7a a9 80 be 05 49 24 be
       -0.8492917 -0.29537076 -0.251293 -0.1604348
0000c0 14 2c 95 3d a9 96 1f 3e 8d 38 c3 be df fe d7 bd
       0.07283798 0.15584816 -0.38129082 -0.1054666
0000d0 4e fe 25 3e a5 f8 e4 be e8 35 3f be a2 b1 8b be
       0.16210291 -0.4472095 -0.18672907 -0.2728396
0000e0 3d 9c e6 bc 48 f5 56 bc f6 ce 01 bf 0f 90 a6 be
       -0.028150672 -0.013120003 -0.5070642 -0.32531783
0000f0 88 c8 a2 bd af d7 93 be d0 24 a4 bd dd 41 05 3f
       -0.079484046 -0.2887549 -0.08014834 0.52053624

memory_rnn.weight_ih f4 [256, 64]
000000 3f 0b 87 bf 55 67 1c bf fd 0f be 3e e8 cb d0 bd
       -1.0550307 -0.6109517 0.37121573 -0.10195142
000010 4e 86 8b bf cc df 6b 3e d5 6f ba be ed 50 3d 3e
       -1.0900362 0.2303459 -0.36413446 0.18487902
000020 df 53 eb 3d 06 3d 04 3f a0 0f ef 3e a9 dc 5f 3e
       0.114906065 0.51655614 0.46691608 0.21861519
000030 15 4d 27 3f b4 7c 6b 3f 50 6f 79 3f 82 3b 9f be
       0.6535199 0.91987157 0.97435474 -0.31100088
000040 4f c5 56 bf 43 06 48 3e 14 08 4d bd 00 6f 0e bd
       -0.8389482 0.19533639 -0.050056532 -0.034773827
000050 40 46 0d 3f a8 f1 d5 bf 1c 66 34 3e bd e1 cb bd
       0.5518532 -1.6714373 0.17617077 -0.099551655
000060 5a 42 5b bf 45 86 35 bf 2d 95 9a be da 0d 08 3e
       -0.8564812 -0.70908004 -0.30191937 0.13286534
000070 13 d9 6b 3d ea f3 64 3f 11 5e 07 bf 4e be 93 be
       0.057580065 0.89434683 -0.5287791 -0.28856128
000080 6d dc 14 3f 37 c4 f1 be 39 d0 5e bf f7 88 12 bf
       0.58148843 -0.47220013 -0.8703647 -0.5724024
000090 a8 d2 73 bd 49 8e 71 bf e0 5a 37 bf e2 80 1f 3f
       -0.05952707 -0.94357735 -0.7162304 0.62306035
0000a0 2b 31 b2 3e 4e 71 5e bd 06 cf fb be 1a 4e 95 3f
       0.34803137 -0.054307275 -0.49181384 1.166446
0000b0 b2 1a d0 3c c4 47 03 3f 5b 24 ac 3e f8 42 38 3f
       0.025403354 0.5128138 0.33621487 0.71977186
0000c0 a3 a6 2f 3f 42 73 44 3d 12 68 c6 3e 3e f6 1a bf
       0.6861364 0.04796148 0.38751274 -0.60531986
0000d0 bd 4e aa bf f5 a3 a8 3e 75 70 b5 be 5a 3e f5 bd
       -1.3305279 0.3293759 -0.3543736 -0.11974783
0000e0 97 3b db be fa a5 df 3d f7 f6 87 be 6a ad a0 3e
       -0.428189 0.109203294 -0.26555607 0.31382304
0000f0 96 06 02 bf 4b 69 1c 3f 84 92 fe 3e db ad bf bd
       -0.507913 0.61098164 0.49721158 -0.09359332
000100 33 82 a4 be f1 c8 5f bf 42 8c bb bc fb 6f 02 bf
       -0.32130584 -0.8741599 -0.022894029 -0.5095212
000110 97 45 01 bf ac 83 f0 bd 42 dd d7 be 05 48 a4 bf
       -0.5049681 -0.117438644 -0.42160994 -1.2834479
000120 fe bf a3 3d f2 71 2c 3c be 9f b1 be 61 3d 5e bf
       0.07995604 0.010525214 -0.34692186 -0.86812407
000130 62 11 5a bf 9e e0 8c 3d 85 02 c5 3c 23 00 08 be
       -0.85182774 0.0687878 0.024049053 -0.13281302
000140 27 8d af be f6 80 36 bf 64 8b 42 3f 7e 84 34 3e
       -0.34287378 -0.7129053 0.75993943 0.17628667
000150 e1 c9 bf be 4a 4d 68 be 73 75 d5 bc 7b 7d 8e 3e
       -0.3745871 -0.22685733 -0.02605698 0.2783011
000160 c9 bf 4a be 89 88 17 bf 24 30 07 be 2a e2 a3 bf
       -0.19799723 -0.5919271 -0.13201958 -1.2803395
000170 0d 98 86 bf 3c 4f 0f 3f c1 ca 2b 3e 69 ee 1f be
       -1.0515152 0.5598028 0.16776563 -0.1561829
000180 3c 0e ed 3c 13 c4 b4 bd 39 2b 1f bd 58 17 08 bf
       0.028937452 -0.08826461 -0.03885958 -0.5316062
000190 cc bc a3 bf db a6 8b 3e d5 c0 ef 3d 29 c0 2d bf
       -1.2791991 0.27275738 0.11706702 -0.6787134
0001a0 6b bb e2 be 9f 2f 12 bd 46 5f 23 be bd 94 1f 3e
       -0.44283614 -0.035689946 -0.15954313 0.15584083
0001b0 04 db 2c 3e b6 7e 27 3f 4b f4 55 3f 09 3b cf 3e
       0.16880423 0.6542772 0.83575886 0.40474728
0001c0 3d ee 07 3f 5f 15 84 be 0c e9 b7 be 4a f7 4d 3d
       0.530979 -0.25797555 -0.35919988 0.05028466
0001d0 5c 35 38 bf d4 3f 01 bf c2 47 56 bf 4c 0d f6 3e
       -0.7195642 -0.5048802 -0.83703244 0.4805702
0001e0 20 1b 73 bf b6 3f b2 bf 2a 7a 95 bf 9b 95 09 3f
       -0.94963264 -1.3925693 -1.1677907 0.53743905
0001f0 6a f2 a6 bf a7 c7 54 bd ba bf a1 bd fd 6a fe be
       -1.3042729 -0.051948216 -0.07897897 -0.49691
000200 4e c3 75 bf 93 7e 24 be 00 a0 0a bf 10 a3 08 bf
       -0.96001136 -0.16063909 -0.5415039 -0.53373814
000210 81 82 12 bf 11 76 e6 bc 43 e0 7e bd 6a 40 81 3e
       -0.57230383 -0.02813247 -0.06222559 0.25244457
000220 81 90 23 bd a7 d4 89 be d5 91 54 be 18 fb 0c 3f
       -0.03993273 -0.26920053 -0.20758756 0.5507064
000230 9a f0 2b bf c3 37 87 be 6b 9c 73 be a6 00 12 3e
       -0.67164004 -0.2640973 -0.23790137 0.1425806
000240 f1 92 b8 be d4 b9 9f be 55 56 15 bf a4 d4 93 3e
       -0.36049607 -0.31196463 -0.5833486 0.2887317
000250 68 5a a8 3e ab ca b5 bd ad e2 18 be 6b e8 20 bf
       0.32881474 -0.088765465 -0.1493022 -0.6285464
000260 aa 08 cb bd 79 98 45 bf 51 ac df be ed d2 d2 3e
       -0.09913762 -0.7718578 -0.43686154 0.4117655
000270 0b 0c 2a be cb 6d 02 3e 95 e7 95 be 9d 9d d2 be
       -0.16606157 0.12737195 -0.29278246 -0.41135874
000280 38 6d 83 bd 65 e5 b9 be c1 4d c7 bd 00 14 0b bf
       -0.06417316 -0.36307827 -0.09731627 -0.5432739
000290 fb 73 ae be fe 74 7c 3f 03 55 34 bf 0e c5 3d be
       -0.3407286 0.98616016 -0.7044222 -0.18532202
0002a0 90 8f fa be b4 94 dd 3c c6 95 4e bf fa 75 3f 3f
       -0.48937654 0.027048446 -0.80697286 0.7478939
0002b0 b5 3a 15 bf c4 07 f6 3e 36 9b 32 bd a3 86 4d 3f
       -0.58292705 0.480528 -0.043605052 0.80283564
0002c0 96 8f 17 3f 3e 15 e1 be 1c 0b 99 3f 61 94 b9 3d
       0.5920347 -0.4396152 1.1956515 0.09061504
0002d0 42 ed 35 bf 89 d2 31 3f bc 42 24 bd f5 59 5f be
       -0.7106515 0.69461876 -0.040102705 -0.2181166
0002e0 d6 2b 9f 3d 97 c7 74 3c a6 d1 bf bd de 1a cc 3d
       0.07772033 0.014940164 -0.09366159 0.09966062
0002f0 f5 45 fc 3e f8 e3 fb 3d b7 ab 82 3e 56 ce 8b bd
       0.49272123 0.12299341 0.25521633 -0.06826465
000300 8e 58 97 3c d7 4e 47 3d 5e d9 41 be 87 25 6e 3e
       0.018474843 0.048659172 -0.18930575 0.23256503
000310 ef 86 00 3f a8 77 be be 2d 81 81 3f 68 28 ca bf
       0.5020589 -0.37200665 1.0117546 -1.5793581
000320 0c 14 f9 bc cc 2f 5b bf f6 35 8c bf 02 d5 29 bf
       -0.030405067 -0.8561981 -1.0953968 -0.6634065
000330 d6 3c dc be 43 fb da 3e ba 15 40 3e 48 8c 12 3f
       -0.43015164 0.42769822 0.18758288 0.572453
000340 67 6d 54 bf ed 02 c6 be 0c 87 8e bf a3 bc 05 bf
       -0.82979435 -0.38674107 -1.1134963 -0.5224096
000350 a9 ae 0d bf e5 52 a5 be 1e 6f bb be 17 2b a0 3e
       -0.55344635 -0.32289806 -0.36608213 0.31282875
000360 f2 42 73 3f 96 b9 78 3e f9 32 9e be 9e 5a 76 be
       0.95024025 0.24289545 -0.30898264 -0.24058005
000370 63 b6 b4 bf 15 9e 53 be ef 98 74 3e 09 3a 06 3e
       -1.411816 -0.20665772 0.23886465 0.13108076
000380 cf c1 13 bf de 7a 84 bf ac 69 f3 bd e5 af 4e bd
       -0.57717603 -1.0349996 -0.1188539 -0.050460715
000390 a9 c2 ee be 56 54 01 bf 38 9c fe be 42 a8 5b bf
       -0.4663289 -0.5051931 -0.4972856 -0.85803616
0003a0 aa 46 fa 3d a3 ad fb 3d b2 c6 28 be e3 8b 94 3d
       0.12220509 0.12288978 -0.16482046 0.07253244
0003b0 49 30 7d 3d fd ed af bb 83 1c 5e 3f f4 bb 2c bf
       0.061813626 -0.0053689466 0.86762255 -0.67474294
0003c0 46 b4 33 3d 07 90 89 3e 14 c2 ac 3d 09 29 d5 3e
       0.043873094 0.26867697 0.08435455 0.4163287
0003d0 b6 c8 96 bf 5e fc 34 be ea 7a d8 3e 4f 1b 72 3d
       -1.1780002 -0.17674395 0.42281276 0.059108075
0003e0 1d 21 70 be 1f 20 6b 3d f6 be 06 be ed b1 4d 3f
       -0.23450132 0.05740368 -0.13158783 0.8034962
0003f0 39 c4 21 be 44 a7 9a 3e d7 72 23 bd c7 3b 1a bf
       -0.15797509 0.3020574 -0.03990444 -0.60247463

memory_rnn.weight_hh f4 [256, 64]
000000 19 95 99 3f 58 d7 af bf cb 88 ed 3f 0c 4e 20 3f
       1.1998626 -1.3737593 1.8557371 0.6261909
000010 bd 3c a2 bf a6 ce 55 3f e6 54 2b bd be 60 2d be
       -1.2674786 0.83518445 -0.041829012 -0.16931435
000020 49 a3 aa be c3 d8 26 bf 36 e4 7c 3e 75 28 17 c0
       -0.33327702 -0.651745 0.2469643 -2.3618443
000030 1e 62 a1 bf 7f 40 cb bf 9b aa e8 3c 82 62 20 bf
       -1.2608068 -1.5879058 0.028401664 -0.6265031
000040 7e c5 33 be 3d c0 ce 3e ff 9f 46 bf b6 30 e9 be
       -0.17555806 0.4038104 -0.77587885 -0.45544976
000050 95 39 41 be 32 56 59 bc 71 01 8b 3f d5 6a 0b 40
       -0.18869622 -0.0132651795 1.0859815 2.1783955
000060 36 1d c5 be 6b 9c 85 bf e5 c6 af 3e e5 0d 82 bf
       -0.3849885 -1.043836 0.34331432 -1.016049
000070 b6 1e dd 3e 63 7a b1 3f 3c 88 1d bf 58 76 57 3e
       0.43187493 1.3865474 -0.61536 0.21041238
000080 5a 54 33 3d a0 e0 89 be 1f cf 0f be 20 47 5e 3f
       0.043781616 -0.26929188 -0.14043854 0.8682728
000090 ab ab 63 bf c2 bb 19 bf 37 81 bd be a9 89 ff 3e
       -0.8893382 -0.6005212 -0.37012646 0.49909714
0000a0 0d 91 4e bf d7 13 83 bf ca 91 ad be 2b 07 75 be
       -0.8069008 -1.024043 -0.3390029 -0.23928516
0000b0 c4 13 1d 3f 24 fc f1 3e 38 77 d0 bf cf 97 1c 3f
       0.61358285 0.4726268 -1.6286383 0.6116914
0000c0 c0 9f 61 be 76 7e cd bd 40 9b 71 3f 0e fe d7 be
       -0.22033596 -0.10033886 0.9437752 -0.42186016
0000d0 00 dd 72 3e f7 1e 49 bf 22 b2 34 be 52 be 41 3f
       0.23717117 -0.78562874 -0.17646077 0.7568103
0000e0 a5 e4 9a 3e 42 d7 7f 3d 6e b7 a3 be e0 06 95 be
       0.30252567 0.062461145 -0.31975883 -0.29106808
0000f0 5a ff b5 3e d6 0b 33 bf f4 bd 7a 3f ec 38 4e 3f
       0.3554638 -0.69939935 0.97946095 0.80555606
000100 42 a5 1a 40 8b eb f4 3e 7f e9 1f 40 de e2 74 bf
       2.4163365 0.47835955 2.4986265 -0.9565867
000110 bf 28 24 bf 6b a8 92 3f c7 c7 f5 3d 35 c0 be be
       -0.64124674 1.1457647 0.12000995 -0.37256017
000120 af 4a e2 3d 33 53 84 3f 1f eb 79 be 0c 4a ac bf
       0.11049401 1.033789 -0.24406098 -1.3460097
000130 48 6f 5a 3f 11 9a 31 bf c7 cd 0c bf 7d 23 9e 3f
       0.8532605 -0.6937571 -0.5500149 1.235458
000140 e8 ec ea bf 59 07 24 bf 45 0c 6c bf b5 ee 3f 3f
       -1.8353548 -0.6407371 -0.9220622 0.74973613
000150 47 e8 4f 3f 40 93 1a bf d9 72 89 be 58 28 e4 3f
       0.812138 -0.60380936 -0.26845434 1.7824812
000160 80 37 b6 3f f2 a9 a1 bf 29 04 7e 3f c2 3e 25 bf
       1.4235687 -1.2629988 0.992251 -0.64548886
000170 b8 16 7f be 91 57 51 bf 5e 8c 03 3f bc fa a7 3e
       -0.2491101 -0.8177424 0.5138606 0.32808483
000180 f1 39 37 3f 94 99 cd 3e 64 05 75 3e b2 c2 27 3f
       0.71572787 0.40156233 0.23927838 0.65531456
000190 06 91 38 bf 40 d4 04 bf 53 40 68 be 4a ab d6 be
       -0.7209629 -0.5188637 -0.22680788 -0.41927558
0001a0 ee 15 dd bf e7 e4 9a 3f 34 bc 5d 3f 15 dd d4 bf
       -1.7272317 1.2101105 0.866153 -1.6629969
0001b0 19 84 2d 3e 9e 93 67 3d 61 aa fa bf 77 49 27 bf
       0.16944923 0.056537263 -1.9583246 -0.65346473
0001c0 47 e8 d9 be e0 6a 4f bf 54 b0 6b 3f a7 c6 e1 3d
       -0.42560026 -0.81022453 0.9206593 0.11024218
0001d0 89 d7 29 3e e0 b4 25 3f 82 0e 37 be 0e 4f f5 3e
       0.16586126 0.6472912 -0.17876628 0.47911876
0001e0 40 34 b3 be 7b c5 de 3f d5 f4 27 be f2 01 a4 3d
       -0.350008 1.7404016 -0.1640199 0.080081835
0001f0 93 9e 59 3f f7 29 18 bf 8c 77 30 bf 27 c0 b4 3f
       0.8500759 -0.59439033 -0.68932414 1.412114
000200 e0 7f 52 3f c2 2c 09 3f 09 17 14 40 fd 17 23 bf
       0.8222637 0.5358392 2.313906 -0.6370848
000210 32 00 94 3e ac d3 f9 3f 83 75 55 3f cb 1b 71 3e
       0.289064 1.9517722 0.83382434 0.23545758
000220 df 36 38 3f a2 af 1a 3d f1 3d 5e 3e 24 00 8a 3f
       0.71958727 0.037765153 0.21703316 1.0781293
000230 6f 55 73 be 62 ed 4d 3f b4 5c 7c 3f 97 6b a2 3e
       -0.23763059 0.8044034 0.98578954 0.3172271
000240 01 d5 f9 bf 53 00 b4 be 07 5c 6d 3d fa 43 4e bd
       -1.9518129 -0.35156497 0.057949092 -0.050357796
000250 b8 98 ca 3d e2 2b b5 3e c1 da 0e 40 9c e2 0b 40
       0.0989241 0.35385042 2.2321017 2.1857061
000260 c1 1d 68 bf 73 d5 21 c0 b8 78 55 be 10 f9 13 3f
       -0.906704 -2.528653 -0.20846832 0.57801914
000270 2f be 91 bf 5f 1d b9 bf e5 0e 70 bd c2 10 0a 3f
       -1.1386164 -1.4462088 -0.058607955 0.5393182
000280 02 d8 c7 3f a4 d6 b3 3f 8d 86 2e 3f 5e c7 5f 3f
       1.5612795 1.4049878 0.6817406 0.87413585
000290 14 48 0f be b8 68 5c bf ae 65 8e bc a2 88 be be
       -0.1399234 -0.8609729 -0.017382469 -0.37213618
0002a0 02 32 7e bf b1 55 2f 3f eb 5d 68 bf e5 fd 25 bd
       -0.99295056 0.6849013 -0.9076831 -0.040525336
0002b0 64 98 c6 3e f4 5b 8d 3f fc 3f 9f bf bc f0 82 bd
       0.3878814 1.1043687 -1.2441401 -0.06393573
0002c0 8e e4 ba 3e 71 f8 09 3f ef 52 6a be 0f b5 86 3e
       0.36502498 0.53894717 -0.22883199 0.26310012
0002d0 4d 3d 13 bd 1c 99 15 bf b1 b3 58 3f 61 0f fa 3d
       -0.035947133 -0.5843675 0.8464919 0.122099645
0002e0 46 09 1d c0 52 8d 27 3f 6a 60 b6 bf fa a4 14 bf
       -2.453691 0.6545001 -1.4248173 -0.58064234
0002f0 d3 bf d7 3f e0 79 90 be d2 49 4c bd de 9a 8d 3f
       1.6855415 -0.28217983 -0.049875088 1.1062887
000300 0c af 4f bf 02 ca 98 bf 3a 53 e5 bf c0 db aa 3f
       -0.81126475 -1.1936648 -1.7916024 1.3348312
000310 2b 24 31 bf 82 b6 16 3f fb 36 dd 3e 1e 2c 37 3f
       -0.6919581 0.58872235 0.4320601 0.7155169
000320 ac 90 10 bf b0 ac 4a bf 17 d0 6e bf 80 f5 d1 be
       -0.5647075 -0.7916975 -0.9328627 -0.41007614
000330 36 51 76 bf bc 5f be 3f 03 76 a2 3e 39 dd 2e 3f
       -0.9621767 1.4872966 0.3173066 0.6830631
000340 53 64 48 bf 05 44 5f bf 90 44 c0 3e 3f 0f 1b 3f
       -0.7827808 -0.87213165 0.3755231 0.6057014
000350 3a 19 93 3f 26 bc e3 bd 6b 7e 5c 3f 46 ed 87 3f
       1.1492074 -0.11119871 0.861304 1.0619285
000360 9c d5 17 3f 7a 20 88 bf 23 0b 63 bf fd 12 e1 bd
       0.5931032 -1.0634911 -0.8868887 -0.1098995
000370 47 55 05 3f d3 7d 62 3f e4 fa 46 bf f6 e8 34 3e
       0.5208325 0.8847324 -0.7772658 0.17666993
000380 0d cc f8 3f 06 03 77 be 14 d0 16 3f cc 37 c2 3d
       1.9437271 -0.24122247 0.5891125 0.09483299
000390 3b 2d 27 bf aa f3 cf ba e8 a6 a7 be 96 3d 4c bf
       -0.6530339 -0.0015865464 -0.32744527 -0.7978147
0003a0 9e 37 58 bf 14 b5 5c 3f c7 6b d7 bf 9f 8f 97 3d
       -0.84459865 0.86213803 -1.6829766 0.074004404
0003b0 5d 35 b7 3e 62 c6 0c 3f b0 d3 3c be e7 26 02 3d
       0.357829 0.5499021 -0.18440127 0.03177538
0003c0 51 ff 9c 3f 16 6a ac 3e f0 a6 ca be 04 b6 5a bf
       1.2265416 0.33674687 -0.39580488 -0.85433984
0003d0 9a 37 4b 3f 2b f6 54 3f ea 22 52 3f ed 82 77 3f
       0.79381716 0.8318812 0.82084525 0.9668415
0003e0 d9 98 9b bf d7 d0 2d bd 54 9f 0d bd 77 f8 6f bf
       -1.215602 -0.042435493 -0.034575775 -0.937385
0003f0 85 1e 80 3f 80 48 ee 3e 12 16 11 bf ba 1e 32 3f
       1.0009314 0.46539688 -0.566743 0.69578135

memory_rnn.bias_ih f4 [256]
000000 91 33 8b be 74 4d c8 3c 9d b7 d9 3c 03 26 ed be
       -0.2718778 0.024450995 0.026576811 -0.46318063
000010 7c 2e 6e bf 71 36 46 bf 04 96 23 bf fb 5b 9a be
       -0.9303968 -0.7742682 -0.6390078 -0.301483
000020 52 75 a4 be 66 b1 85 3e a5 bb f9 3e 7c 56 c5 bf
       -0.32120758 0.26111907 0.48775974 -1.5417018
000030 fb 48 0f bf 22 6b 1a bf ca 89 08 bf 1d 0f ee be
       -0.55970734 -0.6031972 -0.5333525 -0.46495906
000040 7e bc ec be f8 df fc be a4 97 50 bf a6 0b 49 bf
       -0.46237558 -0.49389625 -0.81481385 -0.785334
000050 95 98 9f bc 5f 7c 37 bf 02 b2 73 bf 74 6b 62 bf
       -0.019481936 -0.7167415 -0.95193493 -0.8844521
000060 2d 55 89 be f6 2b 8c be 02 58 38 3e 1f ef 8e bf
       -0.26822796 -0.2737729 0.18002322 -1.1166724
000070 9c fc 83 bf ab 80 ca 3e 1f e6 1d bf 72 df 40 be
       -1.0311465 0.3955129 -0.6167926 -0.18835238
000080 19 89 11 bf 00 f6 12 3e c8 34 93 be a2 b2 0d bf
       -0.5684982 0.14351654 -0.28751206 -0.553507
000090 86 e8 8c be 7a 60 00 3d f2 a6 85 bd 1e 09 2d 3e
       -0.2752115 0.031342007 -0.06525983 0.16898009
0000a0 73 ed 4d 3f 3e d1 54 bf c4 42 41 be 85 a3 cc be
       0.80440444 -0.8313178 -0.18873125 -0.39968506
0000b0 41 e5 d5 3d 49 26 13 be 2f 71 7c bf a3 58 8a be
       0.10444117 -0.14370073 -0.98610204 -0.2702075
0000c0 78 7f dc be 7a ae fe 39 ef bc 36 bd 9a e9 fd 3e
       -0.43066 0.0004857665 -0.044613775 0.49592286
0000d0 07 1c 17 3f 93 b3 60 bf f3 f5 34 be 3c de 19 be
       0.5902714 -0.8777401 -0.17671947 -0.15026182
0000e0 9b 78 20 bf c6 34 74 3d 99 86 2f be 06 e7 4d bf
       -0.6268403 0.05962064 -0.17141189 -0.8043064
0000f0 ae 16 93 bf 03 92 93 be 36 e1 21 3f 5c 75 86 be
       -1.1491296 -0.28822336 0.6323427 -0.26261413
000100 0f bb 4b bf 11 17 77 be 5a f7 2f 3f 41 57 f4 bc
       -0.79582304 -0.24129893 0.68736804 -0.029826762
000110 9b 94 4d 3f 44 d6 0f bf 41 df 4f be 7e af 25 be
       0.8030488 -0.5618632 -0.20300008 -0.16180226
000120 11 12 85 bc 52 7f 26 bf 11 1b 13 3f 9b c0 35 3f
       -0.016243966 -0.65038025 0.57463175 0.7099702
000130 4c 5c f5 3e 63 f0 17 bd 29 dd b5 bd bb 21 45 be
       0.4792198 -0.037094485 -0.088800736 -0.19251148
000140 85 2b 30 be da 67 16 bf 06 88 bf bd 7b 48 f4 be
       -0.17204101 -0.58752215 -0.09352116 -0.47711548
000150 69 36 59 bf 8f 40 29 bf d8 e5 17 bf 6d 4a 11 3f
       -0.8484865 -0.66114134 -0.5933509 0.5675419
000160 f3 13 a1 bc bf d9 11 3f 35 83 ed 3d 15 98 44 bf
       -0.019662833 0.5697288 0.115972914 -0.7679456
000170 79 79 d5 be a0 56 c3 be 47 25 25 be 63 6e 8d 3e
       -0.4169424 -0.38152027 -0.16127501 0.2762328
000180 ba ea 49 bf a1 26 21 bf 32 e2 aa bf 80 9b eb be
       -0.7887379 -0.6294957 -1.3350279 -0.46017075
000190 b4 d9 1f bf 61 fa d4 3e 4b a9 c2 bd 89 6e 53 3e
       -0.62441564 0.41597274 -0.09504946 0.20647635
0001a0 14 8c a3 be b7 78 a1 3d 17 da af be 05 6c be be
       -0.3194281 0.07884353 -0.34346077 -0.37191787
0001b0 8a 9e 1c 3e 83 78 26 3e 9b 4a 0d 3f 4b 9c 91 be
       0.15294853 0.16256909 0.55191964 -0.28439555
0001c0 97 50 30 bf 60 58 4e bf 3a 42 90 be 2c 86 ae 3d
       -0.6887297 -0.806036 -0.28175527 0.08521685
0001d0 23 9d 07 bf fd 13 79 bf 14 37 03 bd 7b ee 1b be
       -0.52974147 -0.97296125 -0.03203495 -0.15227692
0001e0 4c 78 51 3f 85 03 11 bf 7f 57 56 3d e3 13 2f bf
       0.81824183 -0.56645995 0.052329537 -0.6838972
0001f0 f1 eb f6 be ad f9 a7 bd 8b 3f 62 3f f9 96 8d bf
       -0.48226884 -0.08201919 0.8837821 -1.1061698
000200 5f 0f 8d bd 9b e3 d5 be 13 5f 83 3e 86 3f be bd
       -0.068876974 -0.41775212 0.25658473 -0.0928946
000210 36 f5 60 bc 8a f7 5a be c2 c2 a1 3e 27 7c 5f bf
       -0.013730338 -0.21383491 0.315939 -0.87298816
000220 20 5e 8e 3e c1 88 a9 3e d7 c5 4a bf 10 47 1b bf
       0.27806187 0.33112147 -0.7920813 -0.6065531
000230 93 e9 01 3f fc 36 ac be 2f 13 2c bc 06 12 c8 3e
       0.5074703 -0.336357 -0.010502621 0.3907625
000240 4a 6c 48 3d c6 95 05 3f 74 63 ef be 58 f0 bd 3e
       0.048931397 0.5218166 -0.46755564 0.3709743
000250 5f bb ca 3e 36 d4 40 bf ce 0c 27 be 82 4b 2e 3d
       0.39596078 -0.7532381 -0.16313478 0.04255248
000260 e4 13 53 3f 81 5d 92 be 9f 0f fa 3e fb f3 df bc
       0.82452226 -0.28586963 0.48840043 -0.027338019
000270 b6 5f d9 bd b7 55 ce 3e e2 22 91 3d 67 31 a4 3e
       -0.106139585 0.4029977 0.070867315 0.3206894
000280 1a 4a 8e be 8e 68 40 3d 1e bc da 3e 78 3a 15 3f
       -0.2779091 0.04697471 0.42721647 0.5829234
000290 06 c0 99 3e 06 ff dd 3e 9b 79 3a bd cf 5e b3 3e
       0.30029315 0.4335863 -0.04552613 0.3503327
0002a0 6d 50 ef be da 70 7c be 2b ce 8b 3d 36 1d 68 3d
       -0.46741048 -0.24652424 0.06826433 0.056668483
0002b0 f1 89 bf 3e 8e 70 25 bf 4d ca 7d bc 66 d8 e6 3e
       0.37409928 -0.6462487 -0.015490127 0.45086974
0002c0 5f 4d ee 3c 9b 6d 48 be 82 bb cd bd 21 2d 82 3e
       0.029089628 -0.19573061 -0.1004553 0.25425056
0002d0 83 b8 e2 3c f8 63 16 3f e7 bd b7 3e 97 7d ee 3e
       0.027675873 0.5874629 0.35887071 0.46580192
0002e0 31 a1 58 3f 36 9c 41 3d 53 ca b6 bd ce 82 df be
       0.8462096 0.047268115 -0.08925309 -0.43654484
0002f0 89 00 1a be 02 32 9b bc 51 9d b3 3e 03 db c3 3e
       -0.15039267 -0.018944744 0.3508096 0.3825303
000300 dd 88 cd bd aa fb 24 3e 22 f3 a3 3e 7f 82 94 be
       -0.1003587 0.16111627 0.32021433 -0.2900581
000310 4f b5 4c 3f 14 80 52 bf 88 e4 41 bf 6d 56 ba be
       0.79964155 -0.8222668 -0.75739336 -0.36394063
000320 81 48 9d bd f3 14 dc be e0 06 15 bf d4 36 6b 3f
       -0.07679845 -0.42984733 -0.58213615 0.91880536
000330 6f af 2a 3f 09 3e 3a be ed 06 1b bf c7 47 b1 be
       0.6667394 -0.18187727 -0.6055744 -0.34625074
000340 18 e0 96 be 12 1b 71 bd 7d 58 2b bf d1 6e 8b be
       -0.29467845 -0.058863707 -0.669319 -0.27232984
000350 2e 0d 9e 3e 76 e2 27 bf f3 4f 28 3e bb 4e 22 3f
       0.3086943 -0.65579927 0.16436748 0.63401383
000360 dc 39 dc be d5 90 35 3f d5 17 bc bd 8a b7 48 bf
       -0.43012893 0.7092412 -0.09184233 -0.7840506
000370 e6 0f 12 be 93 4d 56 be f7 92 94 bd b4 22 d8 3d
       -0.14263877 -0.2092803 -0.07254594 0.10553494
000380 38 26 4d be 5a 3b 8b be 6f 1a 8c be 85 06 e6 be
       -0.2003411 -0.2719372 -0.27363917 -0.4492685
000390 a1 7d d7 be fa 89 3d 3d 77 b4 1f 3e b6 4f 59 bf
       -0.42088035 0.046274163 0.15596186 -0.84887254
0003a0 2e 62 47 3f 03 34 94 3e 6b d9 d5 3c 91 6b d0 be
       0.77884185 0.28945932 0.02610465 -0.40707067
0003b0 96 c5 c4 be 60 13 cb bb 3d 31 b4 3e 32 5c b7 3e
       -0.38431996 -0.006197378 0.35193816 0.35812527
0003c0 ee 66 b6 bd 09 6b e2 be 37 63 ab be 2c 57 c0 3e
       -0.08906351 -0.44222286 -0.33474132 0.37566507
0003d0 85 bb bf 3e dd b2 1a bf e3 ab 01 bf 5a 3f 36 be
       0.37447754 -0.60429174 -0.50652903 -0.17797604
0003e0 4e be 2d 3e 0f 34 48 3e 91 9e 09 bf 51 52 02 3b
       0.16967127 0.19551109 -0.5375758 0.001988549
0003f0 d3 9f 77 be 6b c6 f1 be 59 62 f8 be 83 c8 cf be
       -0.24182062 -0.47221693 -0.48512533 -0.40582666

memory_rnn.bias_hh f4 [256]
000000 5f b1 dd be c2 ee 42 3e 11 e3 db 3d e7 09 c6 be
       -0.43299386 0.19036391 0.10736669 -0.3867943
000010 66 fb 3a bf 27 5a 2e bf 46 c3 2f bf 9b 95 c3 be
       -0.73039854 -0.6810631 -0.6865734 -0.38200077
000020 d6 e5 8e be 56 e1 a2 3e 03 36 f7 3e 62 e5 b0 bf
       -0.27909726 0.31812543 0.48283395 -1.3820002
000030 59 ac c5 be 98 c1 10 bf ff 61 f5 be 8f 7b e8 be
       -0.38608053 -0.565454 -0.47926328 -0.45406768
000040 4b b0 b3 be 36 e3 b3 be dc da 36 bf aa 8f 67 bf
       -0.35095438 -0.35134286 -0.714277 -0.9045359
000050 5f 7e 53 3d a7 86 07 bf fc 3d 7a bf 5d 90 58 bf
       0.05163419 -0.5293984 -0.9775083 -0.8459528
000060 d6 19 50 bd 1d c9 c9 be 44 a7 5a 3e 7a 83 7f bf
       -0.05080589 -0.3941125 0.2135287 -0.9980999
000070 43 62 98 bf 4d 20 89 3e 61 7c db be 06 f4 26 be
       -1.1904987 0.26782456 -0.4286833 -0.16304025
000080 89 49 01 bf d0 f0 c6 3b 64 ba d8 be e6 58 dd be
       -0.5050283 0.0060711876 -0.42329705 -0.43231887
000090 99 f3 a6 be 50 b7 9b 3d a6 c5 8d 3d 4c c8 15 3e
       -0.32607725 0.076033235 0.06922464 0.14627188
0000a0 d7 01 46 3f 26 52 83 bf 5a dd 82 be 0d dc c8 be
       0.7734656 -1.0259445 -0.25559503 -0.39230385
0000b0 37 9c 92 3d 98 05 9d bd 43 f1 72 bf 93 69 c6 be
       0.07158702 -0.076670825 -0.94899386 -0.38752422
0000c0 88 29 b5 be 6c d0 d7 3c 38 1f c2 bd d0 10 bc 3e
       -0.35383248 0.0263445 -0.09478611 0.36731577
0000d0 95 6a 09 3f 01 a9 22 bf df 31 84 be 58 2e 69 be
       0.53678256 -0.6353913 -0.258193 -0.22771585
0000e0 cd 2e 1e bf e8 3a 84 3d de ab 83 be ac 9f 55 bf
       -0.6179016 0.06456548 -0.25717062 -0.83446765
0000f0 4c df 96 bf 4f 4e e1 be 94 dd ee 3e 0f fc 30 be
       -1.1786895 -0.44005057 0.46653426 -0.17283653
000100 d7 e2 4f bf 91 f5 27 be 08 f7 37 3f f4 50 55 3e
       -0.81205505 -0.1640227 0.71861315 0.20831662
000110 4b b9 4f 3f 0a 9f 1e bf 2b b5 7e be 5f 3b fd bd
       0.8114211 -0.61961424 -0.24873798 -0.1236484
000120 30 3c 16 bd e2 6d 48 bf c5 b9 2b 3f ed 00 55 3f
       -0.036678493 -0.7829267 0.67080337 0.8320454
000130 f4 3f 01 3f 22 4b 29 be af 95 a3 3d dd 9b 0a be
       0.5048821 -0.16532567 0.07987534 -0.1353602
000140 0b ba 5d be 3e 03 29 bf e5 69 20 be 54 ce f1 be
       -0.21653001 -0.6602057 -0.15665396 -0.47227728
000150 13 01 6d bf d7 6e 1a bf 72 5f 21 bf 51 63 09 3f
       -0.92579764 -0.6032538 -0.63036263 0.5366717
000160 ea d7 a5 3d d9 9e 06 3f dc 6a 68 3e 73 74 6f bf
       0.08097823 0.5258613 0.22697014 -0.9353706
000170 16 0e 86 be 9a 28 e0 be 56 05 5e be 40 6c 14 3e
       -0.26182622 -0.43780977 -0.21681723 0.14494419
000180 ac c3 3c bf f5 f6 24 bf 78 42 bb bf 2e 6b fb be
       -0.7373607 -0.64439327 -1.462966 -0.4910521
000190 ee 14 dc be fe 1d 0e 3f 6f 23 ce bd c2 9d 90 3e
       -0.42984718 0.55514514 -0.10065352 0.2824536
0001a0 22 52 85 be 29 52 d6 3d f1 c1 f1 be 17 fc b0 be
       -0.26039225 0.104648896 -0.47218278 -0.3456733
0001b0 5e 9e 95 3e d2 cb 9e 3d 05 38 0c 3f a5 1b 81 be
       0.29222387 0.077537194 0.5477298 -0.25216404
0001c0 a1 80 27 bf b6 c5 57 bf 18 a8 b9 be c8 5d bd 3c
       -0.6543065 -0.8428606 -0.36261058 0.023116007
0001d0 23 e9 a0 be 84 4a 84 bf b5 12 95 3c 78 4d 7f be
       -0.3142787 -1.033524 0.018197397 -0.24931896
0001e0 0c cf 5f 3f ad d3 1d bf 2e bf b6 bd d5 73 3b bf
       0.87425303 -0.61651117 -0.089231834 -0.7322362
0001f0 d9 cc 02 bf df 91 4c be 1b b1 48 3f 79 a8 7f bf
       -0.5109382 -0.1997752 0.7839524 -0.99866444
000200 a1 6f 1f be bb 75 d0 be ae 0a 84 3e d8 41 97 bd
       -0.15569927 -0.4071482 0.25789398 -0.073856056
000210 22 cc fd 3c d7 64 ec bd bb 17 02 3e fd 7f 48 bf
       0.030981127 -0.11542671 0.12704365 -0.78320295
000220 56 fb c5 3e 93 08 93 3e e3 74 48 bf 61 9b fc be
       0.38668317 0.2871748 -0.78303355 -0.49337295
000230 27 11 f7 3e 6e df bc be 0f 73 30 3d 17 5b df 3e
       0.48255274 -0.36889213 0.04307848 0.43624184
000240 4d ed 53 3d 4b ff fe 3e 04 38 04 bf 7a 8c 98 3e
       0.05173998 0.49804148 -0.51647973 0.29794675
000250 ab 44 df 3e 6f 4a 70 bf 76 71 1c be da b2 77 3d
       0.43607077 -0.93863577 -0.15277657 0.0604733
000260 0c 47 39 3f 28 82 e6 bd 78 00 00 3f 36 b2 8e bc
       0.72374034 -0.11255294 0.50000715 -0.017418962
000270 af d2 a6 bd b7 7d cf 3e fa 5a ba bd b8 6c 32 3e
       -0.081456535 0.405256 -0.09099384 0.17424285
000280 0f 1b 69 be 98 fd 2e 3e ba c7 fc 3e 9d 1a 14 3f
       -0.22764228 0.17088926 0.4937113 0.5785311
000290 83 75 82 3e da 70 9b 3e b1 0d f1 bd 35 b6 b3 3e
       0.2548028 0.30359536 -0.117701896 0.3509995
0002a0 4c 2b 30 bf 46 14 17 be 59 ff 73 3e a2 91 06 3e
       -0.68816066 -0.14753827 0.23827876 0.13141492
0002b0 9b 34 d5 3e 8d 2a e3 be 10 2c 41 3d 46 93 e7 3e
       0.41641697 -0.443684 0.047161162 0.45229548
0002c0 ac e6 a3 3d 79 21 01 be 81 a1 10 be 48 eb 60 3e
       0.080029815 -0.12610425 -0.14124109 0.21964753
0002d0 47 84 52 3d b3 46 ee 3e 3f a1 b3 3e a1 0f f6 3e
       0.05139568 0.46538314 0.35083959 0.480588
0002e0 5f 71 5c 3f d2 15 b6 3d 69 9a 25 be 76 53 e9 be
       0.8611049 0.08890881 -0.16172184 -0.45571488
0002f0 18 9d a4 be 50 44 fe bc bb fc 8b 3e 0f 54 97 3e
       -0.32151103 -0.031038433 0.27341256 0.2955632
000300 2f ee b5 bd 3a 0b 83 3e d4 3e 81 3e d6 f2 fa bd
       -0.088833205 0.25594503 0.25243247 -0.122533485
000310 4f 12 1f 3f ce 14 4f bf 52 6c 1f bf e7 9d e8 be
       0.6213731 -0.8089112 -0.6227466 -0.4543297
000320 59 32 04 bd 5e b8 f5 be a3 40 29 bf b7 a0 80 3f
       -0.032274578 -0.47992224 -0.6611425 1.0049046
000330 61 b6 09 3f 7f d1 26 be fb e6 d0 be b3 81 e5 be
       0.53793913 -0.16290854 -0.40801224 -0.44825515
000340 8e 61 e5 be 2d 14 80 3d 0d 9e 4e bf 3f 99 b7 be
       -0.4480099 0.06253848 -0.80709916 -0.35859105
000350 08 83 9a 3e 5c ac 41 bf 6c ce 86 3e ee 05 04 3f
       0.30178094 -0.75653625 0.26329362 0.5157155
000360 76 2f 1e bf 5d 9f 3a 3f 8a 46 34 be 3c ee 2c bf
       -0.6179117 0.7289942 -0.17605034 -0.67551017
000370 47 bc c4 3c 00 b1 18 be d1 8d 87 bd 5e 81 f1 3d
       0.024015559 -0.1491127 -0.06618846 0.11792253
000380 69 aa e3 bd 68 4c 2d be d7 53 f2 be 27 bc c1 be
       -0.111164875 -0.16923678 -0.4732959 -0.3783886
000390 05 b9 c6 be e1 e4 55 3e a5 16 3a bd 54 07 49 bf
       -0.38813034 0.20888092 -0.04543175 -0.78526807
0003a0 72 cb 5e 3f 4d 9e 73 3e 21 3b 49 3e bd 8e fb be
       0.8702918 0.23790856 0.19651462 -0.49132338
0003b0 d8 06 c6 be f2 4a 85 3c 75 55 b1 3e 04 06 57 3e
       -0.38677096 0.016271088 0.3463551 0.20998389
0003c0 ef 38 d5 ba 27 d8 a7 be 26 12 7f be 98 7d 76 3e
       -0.0016267578 -0.327821 -0.24909267 0.24071348
0003d0 af 2d e6 3e af b6 27 bf cf 6f 01 bf 0a be ce bd
       0.4495673 -0.6551313 -0.5056123 -0.10094841
0003e0 07 df 0f 3e 53 f3 d1 3e 9b 59 18 bf ad 57 40 3e
       0.14049922 0.41005954 -0.5951173 0.18783446
0003f0 45 98 2e be 81 9c 28 bf d5 58 c1 be c7 18 db be
       -0.17050274 -0.65863806 -0.37763086 -0.4279234
