torch-rl/storage/bak/Lstm-Customs-SimpleCorridor18x18-v0_5M/status.pt (torch, 649941 bytes, 51 tensors)

image_conv.0.weight f4 [16, 3, 2, 2]
0.519496 -0.28803048 -0.13962632 0.040281896 -0.07709779 0.0011090125 -0.21687488 0.13152383
0.040130746 -0.035346583 0.080067195 0.014240859 0.022260863 -0.26337022 -0.06623466 -0.13907082
0.12714261 -0.11965533 0.24381082 -0.13865839 -0.10750442 -0.17434862 -0.04838647 -0.12451733
-0.26907974 -0.13596958 -0.09246081 -0.032436386 -0.36189693 0.16041248 -0.0831611 0.12179343
0.19054285 -0.26302278 -0.27447474 -0.13923728 0.35712028 -0.21649559 0.20324524 -0.28196305
0.29798198 -0.31163478 0.25682932 -0.12577218 -0.15207909 0.1483833 -0.15323457 0.084900714
-0.1289085 -0.22990105 -0.33838558 -0.24343789 0.30797318 -0.24383824 0.23444875 0.103881896
-0.013516814 -0.19268577 0.17579223 0.089592375 -0.33594766 0.115771435 0.2505509 0.24858046
-0.09902926 0.043050792 -0.014693802 -0.17961705 -0.21908084 -0.20485033 0.15704058 -0.06769199
0.016676025 -0.14182733 0.008850186 0.119684555 0.010137165 -0.012546437 -0.262184 0.22994874
-0.20297419 -0.21780798 0.0175556 -0.049192313 0.26750597 -0.2281995 -0.2703059 0.40290508
-0.12457417 0.110074125 0.12719727 -0.22000569 0.05799434 0.06933878 -0.19328493 -0.13696834
0.09104691 0.09395682 -0.17154236 -0.24343427 0.2686696 -0.24388178 0.17728512 -0.10028215
-0.18660167 -0.24549785 0.277096 0.015073682 0.2327468 -0.05450526 -0.0694982 0.26187724
0.24560511 -0.282969 -0.2043131 0.14199726 0.2091264 0.1793361 -0.20891964 -0.20787618
-0.27440187 -0.108904235 0.49620336 -0.27991334 0.16074592 -0.15920444 -0.25271732 -0.061354917
0.16632621 0.26799875 -0.17927845 0.06264574 0.1285374 0.1581293 0.24701557 0.104041174
0.07912355 0.05420178 -0.25201234 -0.26435006 -0.1322769 -0.033615034 -0.17694406 0.10561285
-0.041179538 -0.2454296 -0.058782194 -0.021601107 0.1561705 0.0341364 -0.12802877 0.23889115
-0.03337308 -0.009917722 -0.2724747 -0.185796 -0.19858918 -0.26417407 0.28892994 -0.1582267
-0.16642746 -0.10072093 0.018989155 0.09092979 -0.14938134 0.062589094 -0.10509236 -0.064858
-0.3798392 -0.34118026 -0.21297905 -0.044706564 0.07259448 0.00440454 0.17933354 0.16680063
0.19689004 0.009192439 -0.19970298 0.2256024 -0.09542224 0.05386121 -0.028347893 -0.048456453
-0.36611468 0.304815 -0.2756603 -0.36268857 -0.009802336 -0.15609111 0.10329133 -0.11111845
00000000: b1fd 043f bb78 93be 34fa 0ebe a1fe 243d
00000010: 72e5 9dbd 495c 913a 7314 5ebe 2fae 063e
00000020: 2360 243d 94c7 10bd 45fa a33d 7e52 693c
00000030: 6a5c b63c 76d8 86be 0aa6 87bd 9568 0ebe
00000040: ac31 023e db0d f5bd 8ba9 793e 77fc 0dbe
00000050: 472b dcbd 7288 32be e430 46bd f102 ffbd
00000060: d2c4 89be 9c3b 0bbe 185c bdbd 04dc 04bd
00000070: 8e4a b9be 2b43 243e 5e50 aabd d56e f93d
00000080: aa1d 433e ecaa 86be f487 8cbe 3894 0ebe
00000090: 78d8 b63e 05b1 5dbe 851f 503e 765d 90be
000000a0: 1891 983e 988e 9fbe 227f 833e 6cca 00be
000000b0: 9fba 1bbe cbf1 173e 86e9 1cbe 6de0 ad3d
000000c0: 9700 04be 2e6b 6bbe e040 adbe c847 79be
000000d0: a9ae 9d3e bbb0 79be 5513 703e 08c0 d43d
000000e0: a175 5dbc 6b4f 45be e102 343e 357c b73d
000000f0: 5501 acbe 9319 ed3d 3548 803e e08b 7e3e
00000100: dacf cabd 0756 303d 46be 70bc 88ed 37be
00000110: ba56 60be 49c4 51be 3fcf 203e 19a2 8abd
00000120: 299c 883c 2f3b 11be 5f00 113c 2d1d f53d
00000130: 5a16 263c 928f 4dbc fb3c 86be af77 6b3e
00000140: 77d8 4fbe 0e09 5fbe c3d0 8f3c e17d 49bd
00000150: 8bf6 883e 21ad 69be 8965 8abe 9349 ce3e
00000160: be20 ffbd 8b6e e13d 0040 023e 2c49 61be
00000170: 798b 6d3d 7e01 8e3d 7cec 45be 6e41 0cbe
00000180: cd76 ba3d 6f6c c03d cda8 2fbe d546 79be
00000190: 108f 893e 25bc 79be 3b8a 353e ba60 cdbd
000001a0: 8214 3fbe ca63 7bbe 87df 8d3e 9bf7 763c
000001b0: 2d55 6e3e e840 5fbd 1355 8ebd c614 863e
000001c0: e87f 7b3e 50e1 90be 7437 51be bb67 113e
000001d0: 3b25 563e e2a3 373e 08ef 55be 7edd 54be
000001e0: 677e 8cbe 2f09 dfbd 5e0e fe3e cd50 8fbe
000001f0: 949a 243e 7d06 23be 2a64 81be 4b4f 7bbd
00000200: 6b51 2a3e 2237 893e c594 37be 694c 803d
00000210: 4f9f 033e a6ec 213e a6f1 7c3e 8a13 d53d
00000220: 870b a23d b002 5e3d c307 81be e458 87be
00000230: 9873 07be ebaf 09bd d330 35be 8d4b d83d
00000240: e0ab 28bd e651 7bbe 99c5 70bd cef4 b0bc
00000250: 29eb 1f3e 9cd2 0b3d f919 03be e29f 743e
00000260: 36b2 08bd f17d 22bc ce81 8bbe 4e41 3ebe
00000270: f65a 4bbe d341 87be a0ee 933e 2e06 22be
00000280: f66b 2abe c646 cebd 258f 9b3c 6639 ba3d
00000290: 6cf7 18be b62e 803d aa3a d7bd 45d4 84bd
000002a0: 497a c2be 2eaf aebe 2e17 5abe 3b1e 37bd
000002b0: 6aac 943d f653 903b 36a3 373e c9cd 2a3e
000002c0: 8b9d 493e e29b 163c f07e 4cbe 5104 673e
000002d0: bc6c c3bd 929d 5c3d d739 e8bc 467a 46bd
000002e0: 6273 bbbe b610 9c3e 5923 8dbe 51b2 b9be
000002f0: fa99 20bc 59d6 1fbe 688a d33d 1292 e3bd

image_conv.0.bias f4 [16]
-0.22414352 -0.07796541 -0.0045097545 -0.34663454 0.0980337 -0.119625986 0.13008994 -0.25104892
-0.09369627 -0.35624978 0.06821964 -0.19368972 -0.017633798 -0.032964367 -0.11818064 -0.034697816
00000000: e185 65be 54ac 9fbd 90c6 93bb 157a b1be
00000010: e4c5 c83d 78fe f4bd 4c36 053e 7c89 80be
00000020: d4e3 bfbd 5f66 b6be bdb6 8b3d 9956 46be
00000030: c174 90bc a505 07bd b108 f2bd 4c1f 0ebd

image_conv.3.weight f4 [32, 16, 2, 2]
0.1377967 0.33737424 0.17805748 -0.15501507 -0.15704545 0.18715174 -0.054916706 -0.05738647
0.06446915 0.048364144 -0.12679122 0.01990495 -0.13086867 0.32563353 -0.2033099 -0.19370347
0.035459924 0.0039733434 -0.2595716 -0.039730217 0.13516259 0.18723528 0.016848268 -0.22939202
0.0737493 -0.010222283 -0.0878025 -0.16309047 -0.041992977 0.2528314 0.08826598 -0.23249473
-0.11007598 0.2163809 -0.12659013 -0.0861184 0.040100303 0.23784745 -0.09253456 -0.0024082952
-0.12658748 0.38791853 0.10067207 -0.012567129 -0.06614094 0.08548775 0.0101193 0.059701703
0.019679882 0.12739392 -0.05713559 -0.11636103 0.12676555 -0.02225424 -0.2853624 0.11659295
0.051254258 -0.07550995 -0.09200892 -0.19208045 0.40016785 -0.22142382 0.29984835 0.00373336
0.1362963 0.16785078 -0.041282453 -0.12060802 -0.10255761 -0.056617096 0.1641248 0.046078287
-0.04078666 0.10714221 0.13103805 0.1377283 -0.13885625 -0.10326661 -0.13934875 0.0783612
-0.0030508165 0.00873926 0.06913327 0.0059106946 -0.027226554 0.12182767 0.04049492 -0.047408864
0.051531892 0.03007348 -0.059068806 -0.10842439 -0.14914654 0.27182803 0.20696393 -0.22677176
0.006970861 -0.18187861 -0.2308633 0.118617155 0.22615142 0.28239164 0.085551195 0.031137854
-0.16385627 -0.21801376 0.04782477 -0.16104758 -0.12255458 0.04437569 0.106553525 0.14217533
-0.039056066 -0.017398285 -0.05271112 -0.07737001 0.07363218 0.09704783 0.13172121 0.17816584
-0.09904937 0.043391794 0.18304703 0.1308065 0.27859718 0.030041937 0.09746433 -0.03824055
-0.41889837 -0.07366809 0.077609524 0.012388608 -0.05819953 -0.11648666 -0.17305583 0.27601677
-0.13314882 0.0055398247 -0.05685523 0.022847837 -0.19964837 -0.10771575 -0.014993793 0.16662121
-0.00035916714 -0.12996575 0.13693987 0.23030253 0.058612663 -0.01849574 0.0117736 0.094045
-0.23746823 -0.11065758 0.078653246 0.07232951 0.017320057 0.053239938 -0.18893233 -0.02149173
-0.06351996 -0.09408895 -0.22212249 0.13408494 -0.21865211 -0.111953646 0.073648036 0.13286895
0.048546717 0.080083475 0.04420072 0.0044330414 -0.1206422 -0.19900388 0.16276725 -0.081424855
-0.31090286 0.024118975 0.0703935 0.10454023 -0.053505823 -0.10166279 0.058074404 0.19428965
-0.04412486 -0.10520796 0.18982652 0.078273356 0.28899783 -0.18546557 0.23286425 0.101404436
-0.0789585 0.2540757 -0.015762288 0.015140671 0.074874036 -0.10483097 -0.08966623 -0.19658977
0.04255645 -0.011234679 -0.058296267 0.0338105 0.17400482 0.0071741496 0.04808875 0.0272518
-0.09916019 0.09247533 -0.024065001 -0.049087983 -0.10923881 0.15846649 0.030941514 0.066940844
0.07736112 0.1765685 -0.05707469 -0.20779604 -0.037169073 0.14134772 -0.07232363 0.035496026
0.11829429 0.10904564 0.10337895 -0.073086366 0.24868232 0.111555256 0.122141846 0.15515961
-0.11495488 0.26323825 -0.16051844 0.2200027 -0.03013393 0.087807395 0.013921432 0.15844426
-0.034760077 -0.049027465 0.03159211 0.040317506 -0.06211267 -0.08549866 -0.0054597673 0.114232525
-0.16520803 -0.15784532 -0.029069794 -0.103777744 0.28784546 -0.16218412 0.3103694 0.094477735
00000000: 941a 0d3e 51bc ac3e b354 363e 45bc 1ebe
00000010: 86d0 20be b5a4 3f3e 57f0 60bd 130e 6bbd
00000020: 6708 843d 7b19 463d 8fd5 01be b50f a33c
00000030: 7002 06be 70b9 a63e 7830 50be 345a 46be
00000040: 6d3e 113d d232 823b 92e6 84be 27bc 22bd
00000050: 1068 0a3e 9bba 3f3e 6105 8a3c bee5 6abe
00000060: df09 973d 5d7b 27bc ccd1 b3bd 3001 27be
00000070: d400 2cbd 1e73 813e cbc4 b43d 1913 6ebe
00000080: 846f e1bd f492 5d3e d8a0 01be d85e b0bd
00000090: 3740 243d 488e 733e c282 bdbd 7dd4 1dbb
000000a0: 26a0 01be 429d c63e 292d ce3d 5ce6 4dbc
000000b0: e774 87bd 3414 af3d 6ccb 253c c689 743d
000000c0: b437 a13c 8d73 023e 0207 6abd b14e eebd
000000d0: d4ce 013e 864e b6bc 051b 92be 49c8 ee3d
000000e0: fcef 513d f6a4 9abd 2c6f bcbd bdb0 44be
000000f0: cde2 cc3e edbc 62be b985 993e 63ab 743b
00000100: 4291 0b3e 13e1 2b3e ca17 29bd 5601 f7bd
00000110: b909 d2bd 54e7 67bd 5510 283e 96bc 3c3d
00000120: ea0f 27bd 606d db3d d72e 063e a608 0d3e
00000130: 5530 0ebe 727d d3bd 70b1 0ebe d67b a03d
00000140: 35f0 47bb 1d2f 0f3c be95 8d3d 80ae c13b
00000150: 390a dfbc c980 f93d 00de 253d cc2f 42bd
00000160: 1b13 533d a95c f63c 22f2 71bd 9b0d debd
00000170: dfb9 18be 0b2d 8b3e 5aee 533e db36 68be
00000180: d26b e43b 633e 3abe 6e67 6cbe 8ded f23d
00000190: 3d94 673e a395 903e 7735 af3d d014 ff3c
000001a0: f0c9 27be 003f 5fbe e8e3 433d a8e9 24be
000001b0: e5fd fabd 49c3 353d bc38 da3d 6996 113e
000001c0: 41f9 1fbd d986 8ebc 9ee7 57bd 2b74 9ebd
000001d0: 78cc 963d 03c1 c63d ede1 063e 1b71 363e
000001e0: 65da cabd 98bb 313d ae70 3b3e 24f2 053e
000001f0: 4aa4 8e3e 821a f63c 619b c73d 1fa2 1cbd
00000200: d979 d6be 4cdf 96bd bef1 9e3d 97f9 4a3c
00000210: a162 6ebd 8f90 eebd 8c35 31be 1252 8d3e
00000220: 2a58 08be 6b87 b53b 08e1 68bd 632b bb3c
00000230: 9f70 4cbe 139a dcbd 87a8 75bc c09e 2a3e
00000240: 994e bcb9 be15 05be f739 0c3e 6dd4 6b3e
00000250: d513 703d 6184 97bc 0fe6 403c aa9a c03d
00000260: df2a 73be 71a0 e2bd f414 a13d 7e21 943d
00000270: cbe2 8d3c 1f12 5a3d 7a77 41be 6d0f b0bc
00000280: c116 82bd b5b1 c0bd 1474 63be 904d 093e
00000290: 57e6 5fbe f447 e5bd c8d4 963d cc0e 083e
000002a0: ecd8 463d ce02 a43d d00b 353d 0c43 913b
000002b0: 4213 f7bd acc7 4bbe 75ac 263e 13c2 a6bd
000002c0: a92e 9fbe 2895 c53c 782a 903d 3019 d63d
000002d0: ec28 5bbd 9534 d0bd 6ddf 6d3d def3 463e
000002e0: 45bc 34bd 4577 d7bd e261 423e c84d a03d
000002f0: 86f7 933e b0ea 3dbe f773 6e3e 21ad cf3d
00000300: feb4 a1bd 3616 823e ea1f 81bc 9410 783c
00000310: 8f57 993d 9fb1 d6bd eea2 b7bd d44e 49be
00000320: ac4f 2e3d a911 38bc 11c8 6ebd e17c 0a3d
00000330: 522e 323e 2115 eb3b b6f8 443d 2b3f df3c
00000340: 7f14 cbbd b563 bd3d f723 c5bc 7b10 49bd
00000350: 99b8 dfbd 0a45 223e 0f79 fd3c 4818 893d
00000360: 826f 9e3d 5fce 343e 26c7 69bd 7cc8 54be
00000370: 993e 18bd 75bd 103e 691e 94bd 4864 113d
00000380: 4744 f23d 5253 df3d 58b8 d33d 4eae 95bd
00000390: 94a6 7e3e 1577 e43d 8125 fa3d 29e2 1e3e
000003a0: 776d ebbd 2ac7 863e f25e 24be 6348 613e
000003b0: 6edb f6bc 5dd4 b33d b816 643c 363f 223e
000003c0: 9560 0ebd 06d1 48bd ba66 013d f823 253d
000003d0: db69 7ebd ec19 afbd d9e7 b2bb bef2 e93d
000003e0: 4b2c 29be 34a2 21be c723 eebc 6d89 d4bd
000003f0: 7b60 933e 9813 26be bde8 9e3e 8b7d c13d

image_conv.3.bias f4 [32]
-0.0781946 -0.0717182 0.09035617 -0.11597366 -0.06436403 -0.10100802 -0.11539324 -0.012037927
0.025659218 0.17241494 -0.013923759 -0.11151354 -0.1293441 -0.056200013 -0.073909335 -0.10955186
0.021802526 0.0079631405 0.010941578 -0.054240726 -0.109705985 0.06798874 -0.100600466 -0.094146855
-0.11686816 -0.03850953 -0.11305783 -0.120186806 -0.08137373 -0.040589035 -0.14574747 0.11754682
00000000: 7e24 a0bd fee0 92bd a80c b93d 9983 edbd
00000010: 4ad1 83bd 4bdd cebd 4a53 ecbd ba3a 45bc
00000020: 4833 d23c 8b8d 303e 7a20 64bc 3661 e4bd
00000030: c872 04be fc31 66bd c75d 97bd ba5c e0bd
00000040: 369b b23c d577 023c 4e44 333c 862b 5ebd
00000050: 88ad e0bd ae3d 8b3d 9e07 cebd 11d0 c0bd
00000060: 9358 efbd 2bbc 1dbd dd8a e7bd 8024 f6bd
00000070: 45a7 a6bd b040 26bd d33e 15be 63bc f03d

image_conv.5.weight f4 [64, 32, 2, 2]
0.027266387 -0.049090948 -0.022422602 0.030059392 0.08650224 0.24595444 -0.2084072 0.12664026
-0.017232036 0.20813158 -0.09406578 -0.08710684 0.12549216 0.09428079 -0.0664068 -0.23927717
0.00023126394 -0.04833428 -0.14471059 0.07776932 -0.13351789 -0.004033968 -0.08050765 0.04051294
-0.22744322 -0.033205688 0.030371243 0.16591156 -0.20175612 0.12934434 -0.05264739 -0.23253265
-0.16004303 0.063291356 -0.17179948 0.15708448 -0.0054816836 0.025442485 0.09356134 -0.015018027
0.26440242 0.22156256 0.051324032 0.11193467 -0.18872835 -0.010895423 0.019775864 0.048028834
-0.008375963 -0.082957976 -0.13060726 0.049477555 -0.07132039 0.27968648 -0.05657216 0.29090506
-0.059838545 0.074572794 -0.16173121 0.1892716 0.05406029 -0.047796663 -0.121260226 -0.21747237
-0.040972535 0.16051999 -0.18883978 0.037417784 -0.026797295 -0.00809477 -0.024577172 0.18636
-0.11032966 0.058947477 -0.097410604 -0.031836823 -0.11722258 -0.20193484 0.030445617 -0.003095468
0.026115458 -0.07478344 -0.10765695 0.187829 -0.028196635 0.08642041 -0.07928277 0.08432404
-0.09388638 0.14542857 -0.0718641 0.016201094 -0.14792329 -0.06918257 -0.10845057 0.010860519
0.11092076 -0.080769904 -0.031151917 -0.032836728 -0.087889075 0.034973375 0.081868425 -0.016168848
-0.13644819 0.111555114 -0.0054887477 0.14028923 -0.06739772 0.27629673 -0.17526974 0.016800717
-0.02835882 0.064097464 -0.0035279028 0.07704857 -0.03692392 -0.02530113 -0.0494158 -0.055212982
-0.006900428 0.03383613 0.07481446 0.06607053 -0.08442735 -0.011267971 -0.054466814 0.03499775
-0.0426174 -0.008210446 -0.07577218 0.016386949 0.04711055 -0.03690201 -0.07540572 0.051900428
-0.10111374 -0.06257233 0.020595137 -0.066218495 0.0074071945 0.066808395 -0.012521641 -0.029696481
0.069104396 0.0063446495 0.017920211 -0.03769287 -0.07625456 0.013837063 -0.052250847 -0.045713115
-0.09718 0.039458204 -0.085182995 -0.0017382192 0.012450343 0.06104815 0.04274903 -0.061882026
0.019342331 -0.06346372 -0.018508757 -0.044869144 -0.08946362 0.019810917 -0.07341464 0.07942234
0.02027267 -0.060876746 -0.06697156 -0.10046267 -0.052968763 -0.05743242 0.0031027135 0.022584219
0.07514035 -0.012857121 -0.017954683 -0.064634256 -0.017877968 0.02071216 -0.089564964 -0.106574304
0.024573985 -0.03946862 -0.03190186 -0.06823682 -0.06873368 -0.07905129 -0.06445212 -0.10917708
-0.057302404 0.044388007 -0.06273271 0.034986876 -0.088202685 0.0045225606 -0.021300511 -0.07121969
-0.011437221 0.03714577 -0.05413796 0.044283554 -0.010835984 -0.03475744 0.038106397 0.06909644
0.062460985 0.040826056 -0.08479189 -0.022081947 -0.010677522 -0.05170464 0.023649001 -0.03909032
-0.0824854 -0.061867435 -0.05700969 0.015845735 -0.06431918 -0.022280531 0.009091507 0.038113195
-0.07484553 0.04700327 -0.064566076 -0.077036984 0.022817474 -0.061429743 0.05101279 0.02996044
-0.056012068 -0.042773113 -0.053419337 -0.027963294 -0.009357396 -0.024336554 -0.066904396 -0.09591193
-0.05652539 0.014922713 0.009063206 -0.044494618 -0.014325661 -0.010247945 0.055735026 -0.08764759
-0.048926268 -0.03191484 -0.022469442 -0.08034007 0.016733 -0.04883048 -0.024225395 -0.06742052
00000000: c25d df3c 9713 49bd 9baf b7bc 1d3f f63c
00000010: 1628 b13d 7bdb 7b3e b268 55be fcad 013e
00000020: 332a 8dbc 7220 553e 8fa5 c0bd 1265 b2bd
00000030: 0481 003e 4916 c13d 4a00 88bd 1305 75be
00000040: 717f 7239 2afa 45bd 032f 14be 8545 9f3d
00000050: eab8 08be 602f 84bb 32e1 a4bd e6f0 253d
00000060: e0e6 68be b002 08bd 1dcd f83c b8e4 293e
00000070: 2899 4ebe d872 043e caa4 57bd 0a1d 6ebe
00000080: 52e2 23be e69e 813d 34ec 2fbe c1da 203e
00000090: b29f b3bb c26c d03c 169d bf3d 2c0e 76bc
000000a0: c15f 873e 4ce1 623e 2639 523d 013e e53d
000000b0: 0142 41be b782 32bc fe00 a23c e2b9 443d
000000c0: 563b 09bc dfe5 a9bd e9bd 05be faa8 4a3d
000000d0: 6d10 92bd 1133 8f3e 36b8 67bd 82f1 943e
000000e0: 4319 75bd 9fb9 983d de9c 25be 6ad0 413e
000000f0: 536e 5d3d 6fc6 43bd 4857 f8bd 14b1 5ebe
00000100: d1d2 27bd 5a5f 243e 375f 41be 6443 193d
00000110: 0086 dbbc ed9f 04bc 1156 c9bc 28d5 3e3e
00000120: 84f4 e1bd e972 713d 367f c7bd 5467 02bd
00000130: 6412 f0bd 02c8 4ebe 1669 f93c 56dd 4abb
00000140: 16f0 d53c 0f28 99bd 3f7b dcbd 3f56 403e
00000150: a1fc e6bc 2ffd b03d 015f a2bd 15b2 ac3d
00000160: 8147 c0bd 3aeb 143e 7c2d 93bd 28b8 843c
00000170: 3479 17be 97af 8dbd 551b debd 51f0 313c
00000180: 6c2a e33d b16a a5bd 4e32 ffbc ce7f 06bd
00000190: 30ff b3bd 3e40 0f3d a2aa a73d 8874 84bc
000001a0: 13b9 0bbe 0277 e43d f4da b3bb fba7 0f3e
000001b0: d107 8abd c476 8d3e e979 33be a8a1 893c
000001c0: c250 e8bc 8845 833d 6334 67bb a4cb 9d3d
000001d0: 893d 17bd 5144 cfbc 3968 4abd 0227 62bd
000001e0: fc1c e2bb c197 0a3d 5338 993d fc4f 873d
000001f0: 3fe8 acbd 4c9d 38bc 9818 5fbd cd59 0f3d
00000200: 958f 2ebd 1b85 06bc 722e 9bbd ec3d 863c
00000210: fef6 403d 9026 17bd 506e 9abd 8b95 543d
00000220: b814 cfbd ec25 80bd 22b7 a83c 909d 87bd
00000230: 0db8 f23b d7d2 883d 9227 4dbc 0946 f3bc
00000240: 9b86 8d3d c7e6 cf3b 68cd 923c d763 1abd
00000250: 5a2b 9cbd d9b4 623c fc04 56bd ad3d 3bbd
00000260: 4f06 c7bd ed9e 213d 6c74 aebd f5d4 e3ba
00000270: 86fc 4b3c a00d 7a3d 9b19 2f3d 0278 7dbd
00000280: cf73 9e3c 44f9 81bd ad9f 97bc b5c8 37bd
00000290: b438 b7bd 814a a23c 6a5a 96bd 2ea8 a23d
000002a0: df12 a63c e559 79bd 6328 89bd 5fbf cdbd
000002b0: c6f5 58bd 423e 6bbd e556 4b3b 8a02 b93c
000002c0: 2fe3 993d ada6 52bc b315 93bc f75e 84bd
000002d0: d174 92bc 8cac a93c d66d b7bd a143 dabd
000002e0: 624f c93c d9a9 21bd 86ab 02bd bfbf 8bbd
000002f0: 3ec4 8cbd a5e5 a1bd 79ff 83bd 3c98 dfbd
00000300: edb5 6abd 33d0 353d 027a 80bd 664e 0f3d
00000310: 9ca3 b4bd fd31 943b 697e aebc a1db 91bd
00000320: 2f63 3bbc 2a26 183d c4bf 5dbd ac62 353d
00000330: 6989 31bc d15d 0ebd 7415 1c3d 6f82 8d3d
00000340: 17d7 7f3d 3939 273d 5fa7 adbd 33e5 b4bc
00000350: c6f0 2ebc 3fc8 53bd 8dbb c13c 2c1d 20bd
00000360: 1bee a8bd b568 7dbd fe82 69bd eace 813c
00000370: c6b9 83bd a985 b6bc 8bf4 143c 951c 1c3d
00000380: 9d48 99bd 8086 403d 383b 84bd 91c5 9dbd
00000390: b6eb ba3c c19d 7bbd caf2 503d 996f f53c
000003a0: e96c 65bd dc32 2fbd 3cce 5abd 4713 e5bc
000003b0: c34f 19bc 745d c7bc 2c05 89bd 796d c4bd
000003c0: 2b87 67bd 657e 743c d77d 143c fd3f 36bd
000003d0: 2db6 6abc ffe6 27bc 694a 643d 9480 b3bd
000003e0: e966 48bd 23b9 02bd d611 b8bc 5689 a4bd
000003f0: a513 893c 7802 48bd 5674 c6bc c513 8abd

image_conv.5.bias f4 [64]
0.011523882 -0.051338803 -0.03977927 0.11055141 0.013303771 -0.05221928 0.08178058 -0.009156483
0.042981174 -0.08226771 -0.03607245 0.16752441 -0.071846485 -0.11819227 0.011579595 -0.015326325
-0.030901294 0.13950074 0.08497503 0.03023605 -0.034180447 -0.04863556 -0.078557976 -0.0076052155
0.004350905 -0.015568625 -0.008527874 -0.027588218 0.08221239 -0.11202841 0.08875925 0.048733205
-0.0480811 -0.07304936 0.08497635 -0.06805798 -0.07661654 -0.19149593 -0.038514346 -0.006338538
0.042185105 0.0039004916 0.010724706 -0.055151593 -0.041948844 0.0222036 -0.039660323 -0.036695626
-0.011298619 -0.043526977 -0.12894636 0.001246368 0.04330301 -0.0104630925 -0.15288296 0.015925309
-0.071702406 -0.0014198491 0.02844441 -0.07820277 -0.040893503 -0.011858255 0.040356163 -0.10663493
00000000: aace 3c3c a348 52bd 96ef 22bd c768 e23d
00000010: 0ff8 593c e2e3 55bd 947c a73d 1305 16bc
00000020: 070d 303d f97b a8bd b5c0 13bd 858b 2b3e
00000030: 4024 93bd ca0e f2bd 57b8 3d3c 441b 7bbc
00000040: b624 fdbc 48d9 0e3e 6307 ae3d 98b1 f73c
00000050: cc00 0cbd 1536 47bd 01e3 a0bd 2c35 f9bb
00000060: 0992 8e3b 8c13 7fbc 7fb8 0bbc b000 e2bc
00000070: f85e a83d 276f e5bd 69c7 b53d 789c 473d
00000080: b0f0 44bd e79a 95bd 1508 ae3d fb61 8bbd
00000090: 22e9 9cbd 8217 44be 38c1 1dbd 83b3 cfbb
000000a0: 4aca 2c3d 649f 7f3b adb6 2f3c a3e6 61bd
000000b0: 8dd2 2bbd 53e4 b53c dd72 22bd 274e 16bd
000000c0: d81d 39bc 5849 32bd 840a 04be 2c5d a33a
000000d0: 7f5e 313d 646d 2bbc 5a8d 1cbe cb75 823c
000000e0: b6d8 92bd 3b1a baba 4004 e93c c628 a0bd
000000f0: f27f 27bd 2049 42bc 814c 253d 6a63 dabd

memory_rnn.weight_ih f4 [256, 64]
-0.21616432 -0.09932369 0.007138092 0.31118 -0.08234363 0.20093405 0.00827174 -0.1118846
0.01894817 -0.16463494 -0.0604335 0.051020365 -0.02277923 0.16652729 -0.116835274 0.2621401
-0.17951283 0.30912793 -0.027122593 0.0060852873 -0.23427144 0.035630543 -0.25847736 0.007916966
-0.41498038 -0.15285882 -0.30267826 0.06775551 0.20116931 0.2782133 -0.15682817 0.21787013
-0.0585648 -0.039921016 -0.048930433 -0.09682246 -0.11464774 -0.11239837 0.27082938 -0.008675144
-0.16345774 0.079801574 -0.20588945 -0.03738052 -0.041182414 0.110913016 0.13596824 -0.2240463
0.089297846 -0.21903223 -0.38515258 0.10231261 -0.15584593 0.15354018 0.0867303 -0.1350338
0.08885819 0.0567301 -0.008147486 -0.01576134 -0.062750876 -0.08374155 -0.09164856 -0.08653659
0.3527471 0.11358317 -0.097465836 0.07604296 -0.14685535 0.05242342 -0.012042888 0.03443167
0.22673477 0.06290578 0.11452767 -0.111315034 0.124178894 -0.032812737 -0.0028877975 0.06259823
0.113690116 -0.16084245 0.11706682 0.05783975 0.11035839 -0.015954511 0.11314453 -0.3901226
-0.12694365 -0.111972466 -0.04317778 -0.015915481 -0.16498479 -0.2154363 0.29085368 -0.03103925
-0.046830405 -0.08460776 0.13577075 -0.09322493 0.056786813 0.0020005575 0.035278246 0.082753785
0.047819868 -0.039171737 0.20435575 -0.19580783 0.08673461 0.10386645 -0.062033962 0.15960112
0.12436816 -0.020519111 0.06024543 -0.24702382 0.16117679 -0.15535973 0.02112958 0.07606691
0.09574135 0.115041904 -0.118790455 0.07646669 0.07118939 0.014474471 0.095944494 -0.01525302
0.040457662 -0.08688918 0.084937 0.20012705 0.116416514 0.07794412 0.09485806 -0.18892036
0.36816984 0.05836993 0.03291415 0.19866517 -0.09187507 -0.1463316 0.2660458 0.059545036
0.14991081 0.13712099 -0.039117984 -0.14744432 0.21440314 0.18116537 0.11392829 0.10098232
-0.04910667 0.042148173 0.21638638 0.09863817 0.008791777 0.17958583 -0.1611108 0.35541305
0.096495174 0.20332475 0.049683847 0.115418755 -0.026850315 -0.027094297 0.01889739 -0.06917057
0.17890385 0.19535479 -0.02526748 0.19594172 0.07836135 0.018225664 -0.28095537 0.09054334
0.045730323 0.042243022 0.16848382 0.16073227 -0.12962453 0.20043144 0.23495124 0.17126152
0.20338647 0.10229856 0.17219843 -0.100560464 -0.02981349 0.13376099 -0.032419052 0.007323054
0.20452742 0.08975751 0.15526512 0.08575404 0.12639701 0.015343459 -0.18879037 -0.17119837
0.023204053 0.21473056 0.015474337 -0.09922742 -0.013572007 -0.051820252 0.2654206 -0.29498416
0.08554242 -0.21778016 0.104935564 -0.028782403 0.11027444 -0.12091059 -0.05038729 0.11898761
-0.0566867 -0.19772287 0.10589907 0.15222533 -0.20415375 0.007980622 -0.11450615 -0.23455563
-0.02862527 0.0265053 0.20172179 -0.10199784 -0.21271715 0.13940352 0.07592618 0.0887791
-0.0031341605 0.32749942 -0.039067183 -0.012710315 -0.036699127 -0.06514573 0.046647016 0.011926309
0.01985596 -0.14899178 -0.023258088 0.0693692 -0.25568932 -0.1248408 0.12936606 -0.055800866
-0.19284491 0.11607936 0.059786927 -0.102809444 0.063790485 0.099406146 0.1740359 -0.10740894
00000000: 2e5a 5dbe 386a cbbd a8e6 e93b fc52 9f3e
00000010: c7a3 a8bd a8c1 4d3e 3186 073c c123 e5bd
00000020: 3139 9b3c 1096 28be 1e89 77bd bbfa 503d
00000030: 829b babc 2186 2a3e 5547 efbd 3a37 863e
00000040: 36d2 37be 0446 9e3e 3330 debc 1767 c73b
00000050: dae4 6fbe 55f1 113d 2557 84be 2ab6 013c
00000060: 4f78 d4be 0687 1cbe a5f8 9abe 67c3 8a3d
00000070: 54ff 4d3e f971 8e3e 9097 20be 5919 5f3e
00000080: a5e1 6fbd 3884 23bd 476b 48bd db4a c6bd
00000090: 6fcc eabd 1e31 e6bd 26aa 8a3e 3122 0ebc
000000a0: 7761 27be 026f a33d afd4 52be 511c 19bd
000000b0: e4ae 28bd 5d26 e33d 423b 0b3e 656c 65be
000000c0: cae1 b63d fc49 60be b832 c5be 4689 d13d
000000d0: 1396 1fbe a339 1d3e a89f b13d 4d46 0abe
000000e0: 48fb b53d d25d 683d 087d 05bc ed1d 81bc
000000f0: 8883 80bd b180 abbd 3db2 bbbd 183a b1bd
00000100: 459b b43e 4b9e e83d 2b9c c7bd 69bc 9b3d
00000110: 4061 16be f1b9 563d 894f 45bc 3908 0d3d
00000120: 292d 683e bfd4 803d 7c8d ea3d 23f9 e3bd
00000130: 8151 fe3d a666 06bd 3441 3dbb 8033 803d
00000140: 5dd6 e83d e2b3 24be bbc0 ef3d 60e9 6c3d
00000150: 9403 e23d 09b3 82bc 52b8 e73d 26be c7be
00000160: 84fd 01be d251 e5bd 2fdb 30bd 2f61 82bc
00000170: c6f1 28be 559b 5cbe c6ea 943e 0646 febc
00000180: 3dd1 3fbd d546 adbd 7d07 0b3e b6ec bebd
00000190: 4a99 683d c91b 033b ec7f 103d d17a a93d
000001a0: c4de 433d 8b72 20bd a242 513e d981 48be
000001b0: eaa1 b13d efb7 d43d 5317 7ebd 7a6e 233e
000001c0: bcb4 fe3d b217 a8bc e9c3 763d d0f3 7cbe
000001d0: 870b 253e 9f16 1fbe f117 ad3c f8c8 9b3d
000001e0: 0a14 c43d 179b eb3d 6948 f3bd 919a 9c3d
000001f0: becb 913d 5526 6d3c 8c7e c43d cee7 79bc
00000200: efb6 253d f4f2 b1bd 73f3 ad3d 1bee 4c3e
00000210: c86b ee3d 2ba1 9f3d f144 c23d 5774 41be
00000220: c280 bc3e 4f15 6f3d fdd0 063d e26e 4b3e
00000230: ff28 bcbd f3d7 15be 2837 883e 7fe5 733d
00000240: 3882 193e 7269 0c3e 2e3a 20bd a5fb 16be
00000250: 7f8c 5b3e 6a83 393e 3c53 e93d d2cf ce3d
00000260: 1324 49bd 90a3 2c3d 6494 5d3e cf02 ca3d
00000270: 630b 103c 59e5 373e 3bfa 24be b3f8 b53e
00000280: 439f c53d 5d34 503e 4a81 4b3d ab60 ec3d
00000290: 31f5 dbbc dcf4 ddbc b3ce 9a3c 4da9 8dbd
000002a0: 9232 373e 160b 483e bffd cebc f2a4 483e
000002b0: ea7b a03d fd4d 953c 62d9 8fbe c96e b93d
000002c0: b84f 3b3d 0507 2d3d 0687 2c3e 0097 243e
000002d0: 4bbc 04be e63d 4d3e 0f97 703e 2e5f 2f3e
000002e0: 8b44 503e e881 d13d c954 303e a5f2 cdbd
000002f0: 6c3b f4bc a4f8 083e d7c9 04bd 3bf6 ef3b
00000300: a36f 513e c9d2 b73d d2fd 1e3e d09f af3d
00000310: 386e 013e 2263 7b3c 4352 41be a04e 2fbe
00000320: 6d16 be3c 54e2 5b3e 1388 7d3c bf37 cbbd
00000330: 205d 5ebc 7941 54bd 35e5 873e 2a08 97be
00000340: dd30 af3d c301 5fbe 75e8 d63d 13c9 ebbc
00000350: 91d7 e13d f99f f7bd e762 4ebd c7af f33d
00000360: 5030 68bd dd77 4abe 9de1 d83d f5e0 1b3e
00000370: ae0d 51be 28c1 023c 3382 eabd 5a2f 70be
00000380: 8b7f eabc a521 d93c 2890 4e3e 3ee4 d0bd
00000390: 86d2 59be ccbf 0e3e 2f7f 9b3d d1d1 b53d
000003a0: 7d66 4dbb 01ae a73e e904 20bd ed3e 50bc
000003b0: d351 16bd 206b 85bd f110 3f3d 9166 433c
000003c0: f7a8 a23c 4d91 18be bf87 bebc 7011 8e3d
000003d0: b6e9 82be 89ac ffbd 8978 043e 738f 64bd
000003e0: 2379 45be 04bb ed3d 23e3 743d c28d d2bd
000003f0: 96a4 823d 7395 cb3d 7836 323e 38f9 dbbd

memory_rnn.weight_hh f4 [256, 64]
-0.1454812 0.13884138 0.3149376 0.056939505 -0.02911846 0.36368826 -0.0707305 0.15986615
0.2395685 -0.26126197 0.31647217 0.25941223 -0.10137893 -0.10950348 0.06852131 -0.06958092
0.2948851 0.30350354 0.17049749 -0.19470084 0.10736739 -0.0035112002 0.22618112 0.18999189
-0.51511705 -0.36516145 0.4943826 -0.12938315 0.10236454 0.10430513 0.09197334 -0.012651338
0.1721799 0.35673234 -0.30596924 0.048469216 -0.122420765 -0.0018384254 -0.067470215 -0.31008792
-0.011631102 0.11391287 0.29835492 0.123052895 0.12079056 0.085204065 0.06723817 -0.3196935
0.23296101 -0.03821531 -0.052719165 -0.24714096 -0.31216678 0.21268801 -0.1551065 0.14357908
0.30752948 -0.30391905 0.12980518 0.35534087 -0.42545444 -0.27675295 -0.37335268 0.09779333
0.025700536 -0.33901814 -0.19254075 0.32588145 -0.50577235 -0.020152427 -0.08867657 -0.12371575
0.014315728 -0.055089463 0.028110703 -0.06836113 -0.17727908 0.038202524 0.06653666 0.017362429
0.19590724 0.2903837 0.030673182 0.06558064 -0.09113514 0.15101461 -0.09825288 -0.0466274
0.5353496 0.08868094 0.301288 -0.020149734 -0.014294461 0.23535863 -0.14348087 -0.11207416
-0.427326 0.050433233 0.07712007 -0.48661962 0.16823664 0.14111206 0.27487543 -0.22719151
0.3501366 0.10907556 0.104239084 0.047953535 -0.2824305 0.13080938 0.086874485 0.039994072
0.27441436 0.23050532 0.42089555 0.33336917 -0.032004282 0.22620305 0.32726708 -0.3395124
0.18865253 -0.38051167 0.013375454 0.73017174 0.2906277 0.1185154 0.29267752 0.1295626
-0.00040816132 -0.10930137 -0.06426281 -0.032310408 -0.24926257 -0.19196694 -0.21183546 -0.20022605
-0.0015355026 0.04040897 0.18631603 0.1618479 0.19773112 -0.030180402 -0.07435642 -0.15320767
-0.05269395 0.19909659 -0.016642304 0.032114394 -0.04474549 0.19987962 0.010452388 0.32696274
-0.24214515 -0.06457006 -0.00453276 0.056941945 0.08032509 0.13502833 -0.17644985 0.17256412
-0.11540505 0.10403095 -0.14589894 0.018189361 -0.16323084 -0.05420653 -0.21503943 -0.40657344
0.00035333078 0.24436414 0.10329736 0.008621055 -0.35789174 -0.07282379 0.24926798 0.19151457
0.207217 0.25760916 0.21430762 0.12738325 0.053006537 -0.11979402 0.033562656 -0.09382319
0.050640352 -0.046422936 -0.011512457 0.12894356 0.026293125 0.04971736 -0.27041197 0.32786775
-0.11228687 -0.048848823 -0.04405662 -0.11004608 -0.49008858 0.064094745 0.038002722 0.14066693
-0.4443577 -0.21026915 0.030868199 -0.19386408 0.23141976 -0.17989628 0.25642988 -0.18220069
0.12160187 0.33864078 0.1860321 0.1583175 0.041659713 0.0013324585 0.2557938 0.009166903
0.22405939 -0.1324123 0.14640075 -0.037659343 0.118570626 0.04150259 -0.23511742 -0.077526845
0.013246241 0.281819 -0.29145354 -0.035659835 -0.008425493 0.05949152 0.14846638 0.11543703
-0.06611945 0.26467773 0.3605729 0.19542019 0.01642438 -0.10783773 0.2123748 0.12490472
0.19023813 0.045289297 0.058597725 -0.03619131 -0.34956133 -0.2419469 0.1947836 0.0035550015
0.10519529 -0.2277164 -0.27652967 0.34865475 -0.1854728 -0.19963567 0.04059726 -0.21541992
00000000: 06f9 14be 6f2c 0e3e 803f a13e 6639 693d
00000010: d689 eebc 5935 ba3e 27db 90bd f4b3 233e
00000020: 7251 753e 21c4 85be a408 a23e aed1 843e
00000030: c29f cfbd 5c43 e0bd e754 8c3d 7180 8ebd
00000040: 2efb 963e d164 9b3e e596 2e3e a85f 47be
00000050: 6fe3 db3d 2a1c 66bb 069c 673e 3c8d 423e
00000060: b6de 03bf 71f6 babe b71f fd3e 047d 04be
00000070: 80a4 d13d ee9d d53d 855c bc3d 8f47 4fbc
00000080: ed4f 303e 9fa5 b63e 00a8 9cbe a887 463d
00000090: bdb7 fabd 52f7 f0ba d32d 8abd d8c3 9ebe
000000a0: 6190 3ebc 274b e93d fac1 983e 2803 fc3d
000000b0: 0b61 f73d 787f ae3d 2ab4 893d deae a3be
000000c0: 558d 6e3e a887 1cbd 0df0 57bd 8512 7dbe
000000d0: 53d4 9fbe e3ca 593e 3dd4 1ebe 6506 133e
000000e0: 8174 9d3e 479b 9bbe a6eb 043e 3def b53e
000000f0: 2ad5 d9be 90b2 8dbe 1528 bfbe df47 c83d
00000100: ee89 d23c c993 adbe 6729 45be efd9 a63e
00000110: 4c7a 01bf b416 a5bc 109c b5bd af5e fdbd
00000120: 848c 6a3c 7da5 61bd 6b48 e63c ec00 8cbd
00000130: a688 35be 407a 1c3d 5f44 883d a73b 8e3c
00000140: e89b 483e 2cad 943e 5346 fb3c 254f 863d
00000150: 0fa5 babd 93a3 1a3e ce38 c9bd 5ffc 3ebd
00000160: ac0c 093f 5a9e b53d 6c42 9a3e 0e11 a5bc
00000170: 5133 6abc da01 713e a6ec 12be 2387 e5bd
00000180: 79ca dabe 1493 4e3d 21f1 9d3d 3526 f9be
00000190: 3a46 2c3e ae7f 103e 79bc 8c3e e4a4 68be
000001a0: 1b45 b33e 0263 df3d 4d7b d53d ed6a 443d
000001b0: bb9a 90be e5f2 053e 40eb b13d d3d0 233d
000001c0: 0a80 8c3e 9609 6c3e 9f7f d73e 5daf aa3e
000001d0: ec16 03bd c6a1 673e 8d8f a73e 92d4 adbe
000001e0: 212e 413e 6dd2 c2be b824 5b3c 89ec 3a3f
000001f0: 27cd 943e 34b8 f23d d4d9 953e 0fac 043e
00000200: 7cfe d5b9 66d9 dfbd 389c 83bd eb57 04bd
00000210: b03e 7fbe fb92 44be 65eb 58be 0f08 4dbe
00000220: eb42 c9ba e083 253d a1c9 3e3e 75bb 253e
00000230: 077a 4a3e e43c f7bc 2e48 98bd 79e2 1cbe
00000240: 9cd5 57bd fadf 4b3e 7155 88bc 628a 033d
00000250: 0c47 37bd 3ead 4c3e 7e40 2b3c a967 a73e
00000260: e6f4 77be 4f3d 84bd 8c87 94bb f53b 693d
00000270: 7b81 a43d de44 0a3e 45af 34be a6b4 303e
00000280: 7c59 ecbd 2e0e d53d 8866 15be db01 953c
00000290: fc25 27be ab07 5ebd 4c33 5cbe 652a d0be
000002a0: 413f b939 983a 7a3e 918d d33d 533f 0d3c
000002b0: 963d b7be a424 95bd 1b40 7f3e 651c 443e
000002c0: b130 543e 59e5 833e 7573 5b3e c170 023e
000002d0: 621d 593d 9156 f5bd ff78 093d 5f26 c0bd
000002e0: 426c 4f3d fa25 3ebd bf9e 3cbc c809 043e
000002f0: ae64 d73c 6ea4 4b3d 7073 8abe 48de a73e
00000300: a9f6 e5bd b415 48bd b774 34bd d75f e1bd
00000310: e4ec fabe 1b44 833d bea8 1b3d fe0a 103e
00000320: da82 e3be cc50 57be 4edf fc3c 4e84 46be
00000330: 4df9 6c3e bb36 38be c74a 833e d192 3abe
00000340: 670a f93d 5362 ad3e 337f 3e3e fc1d 223e
00000350: 60a3 2a3d e3a5 ae3a 68f7 823e c730 163c
00000360: d36f 653e 1797 07be 14ea 153e af40 1abd
00000370: 28d5 f23d 9ffe 293d 9fc2 70be 65c6 9ebd
00000380: c306 593c 944a 903e 6639 95be 0c10 12bd
00000390: 140b 0abc 61ad 733d 9207 183e 406a ec3d
000003a0: a269 87bd d783 873e 039d b83e 3b1c 483e
000003b0: 6c8c 863c 07da dcbd c878 593e 0cce ff3d
000003c0: c9cd 423e 4581 393d 2b04 703d 573d 14bd
000003d0: b4f9 b2be eec0 77be 5a75 473e 07fb 683b
000003e0: a170 d73d 7d2e 69be 4c95 8dbe e082 b23e
000003f0: 95ec 3dbe 4b6d 4cbe 5049 263d 0a97 5cbe

memory_rnn.bias_ih f4 [256]
0.13272852 0.15438184 0.16361605 -0.01107593 0.02666806 0.05513992 0.047070995 0.07488533
-0.0049945284 -0.06552324 0.15448746 0.027717566 0.03526773 -0.07055529 -0.018486608 0.0023387189
-0.14636658 -0.087561615 0.04915461 -0.036952518 -0.023951063 -0.113127075 -0.0027946883 -0.19344379
-0.10431645 0.03646944 0.029043227 -0.051768098 0.08843889 -0.027744213 -0.13270228 0.11450006
0.06798117 -0.119675115 -0.1318691 0.15721323 -0.044477943 -0.006682548 0.06968396 0.014984189
0.01364148 0.075993985 -0.015626447 0.08535777 0.05147991 -0.11081352 0.22974667 0.13902551
0.015065446 0.10418989 0.19859594 0.039087836 -0.019774947 -0.10411636 0.17537382 0.052019197
-0.13512816 0.07029979 0.21119983 0.009678917 0.09925675 0.13917866 -0.16541818 0.11870662
0.14653297 -0.086889565 0.19648735 -0.32100147 0.13282767 -0.22269061 0.03083766 -0.100748405
-0.20728406 0.1029218 -0.103128195 -0.17887424 -0.058860324 -0.0061162896 -0.07443664 -0.0034287267
-0.004674591 0.24290565 -0.0064096856 -0.012303952 -0.12536253 -0.12437364 0.12531164 0.18071331
-0.04061977 -0.14577165 0.07133795 0.07350206 -0.08745382 -0.096856825 -0.044707246 0.10000333
-0.13373396 0.16908485 0.14802723 -0.040289246 -0.08205887 -0.20072147 -0.2961061 -0.16478115
0.043015692 -0.10407607 0.002968945 -0.10938593 -0.2529427 0.05636994 -0.26975453 -0.1767637
0.06430379 -0.09857398 -0.049419314 -0.11487144 -0.1743113 0.017570311 -0.30404136 -0.07035079
-0.0096303355 -0.0369362 -0.057382036 0.21509871 -0.20609435 0.16970569 -0.06609705 -0.1803034
-0.013613813 -0.085330926 -0.014681989 0.06422812 -0.0070753177 -0.045734547 0.066671126 -0.1337252
0.023585182 0.18165775 -0.037587963 0.0869132 0.017633969 0.06533456 0.03500039 -0.027393641
0.08956439 0.12674081 -0.04454738 0.19827326 0.00085549656 0.1020958 0.041585464 0.025627807
0.09192683 0.13091272 0.07033286 0.06193637 0.012136203 0.047240566 0.03293015 0.1220781
-0.09581621 -0.054309715 -0.14630358 -0.036169 0.017810704 0.16399162 0.039972216 0.04942836
0.13103391 -0.119872704 -0.049027357 -0.17273882 -0.1262647 -0.08663151 -0.005740202 -0.017607285
-0.05171979 -0.039063957 0.042561978 0.06196906 -0.07266906 0.08239608 0.11749998 -0.026648106
0.13263634 -0.14127025 0.16591655 0.09519587 0.18072712 0.01033176 -0.025410553 0.058877114
0.049333904 0.08547436 0.112548254 -0.099755205 0.150031 0.16289641 -0.11430592 0.06147701
0.112164594 -0.09710827 0.10818666 -0.018576792 0.11401675 -0.040022805 0.10540638 0.13148178
0.06787717 -0.07357324 0.14720085 -0.0110365935 0.03757861 0.055592448 0.024975501 0.08360532
0.2412442 -0.08170532 0.08954707 -0.03281815 0.022888394 -0.16143309 0.033478763 -0.07071928
-0.03921731 0.03127475 0.26184946 -0.12169649 0.060033113 -0.11607814 0.09451978 0.09773954
-0.12221605 0.02666914 -0.17161584 0.19268124 -0.00096179 -0.0068371794 0.18249804 0.036044028
0.005178207 0.05266098 -0.038417168 0.11104803 -0.081567444 0.004035713 -0.14887725 -0.027175358
-0.041367885 -0.1382072 0.095925845 -0.038358536 -0.071455374 0.27535537 -0.0972379 0.1066292
00000000: fce9 073e 4616 1e3e f78a 273e d177 35bc
00000010: fa76 da3c 66da 613d 84cd 403d 7b5d 993d
00000020: 24a9 a3bb 0c31 86bd f631 1e3e f30f e33c
00000030: e574 103d 4b7f 90bd 3a71 97bc 3145 193b
00000040: 1fe1 15be 8153 b3bd 5856 493d 865b 17bd
00000050: 0535 c4bc 2baf e7bd 1727 37bb 2116 46be
00000060: dda3 d5bd fb60 153d 10ec ed3c c90a 54bd
00000070: 731f b53d d547 e3bc 1be3 07be 027f ea3d
00000080: b639 8b3d 3a18 f5bd b108 07be 81fc 203e
00000090: 812e 36bd 47f9 dabb 77b6 8e3d 3e80 753c
000000a0: 8480 5f3c bca2 9b3d 0903 80bc 0ed0 ae3d
000000b0: 99dc 523d 33f2 e2bd b642 6b3e b45c 0e3e
000000c0: 0fd5 763c 8261 d53d bc5c 4b3e 911a 203d
000000d0: 12ff a1bc f53a d5bd 3295 333e 1512 553d
000000e0: 095f 0abe 56f9 8f3d c544 583e 5294 1e3c
000000f0: 1f47 cb3d da84 0e3e 6263 29be 751c f33d
00000100: bd0c 163e 28f3 b1bd fb33 493e 4e5a a4be
00000110: fa03 083e 0209 64be 439f fc3c 2e55 cebd
00000120: 4642 54be aac8 d23d e034 d3bd cf2a 37be
00000130: 8617 71bd 286b c8bb 3d72 98bd 7db4 60bb
00000140: 502d 99bb 42bc 783e 5708 d2bb 8496 49bc
00000150: 095f 00be 9bb7 febd b251 003e e90c 393e
00000160: ea60 26bd 2a45 15be a219 923d 3f88 963d
00000170: fd1a b3bd df5c c6bd f21e 37bd 8cce cc3d
00000180: 8ef1 08be 9424 2d3e 7394 173e 5606 25bd
00000190: 7b0e a8bd ee89 4dbe 389b 97be 64bc 28be
000001a0: 3931 303d d625 d5bd a292 423b bb05 e0bd
000001b0: b581 81be 2be4 663d 441d 8abe 8b01 35be
000001c0: b5b1 833d 28e1 c9bd e86b 4abd b841 ebbd
000001d0: a97e 32be 9def 8f3c 4fab 9bbe 1314 90bd
000001e0: 8ec8 1dbc 6a4a 17bd 6d09 6bbd d642 5c3e
000001f0: 660a 53be 54c7 2d3e e45d 87bd 74a1 38be
00000200: 780c 5fbc fbc1 aebd ba8c 70bc 088a 833d
00000210: 11d8 e7bb 2654 3bbd df8a 883d 42ef 08be
00000220: b635 c13c 7d04 3a3e d6f5 19bd 8cff b13d
00000230: 1d75 903c 20ce 853d 925c 0f3d a168 e0bc
00000240: 896d b73d 58c8 013e 5077 36bd 2508 4b3e
00000250: 6743 603a 9a17 d13d 8555 2a3d 68f1 d13c
00000260: 2244 bc3d fc0d 063e ad0a 903d feb0 7d3d
00000270: edd6 463c 537f 413d c4e1 063d 1504 fa3d
00000280: 4a3b c4bd dd73 5ebd 9bd0 15be f225 14bd
00000290: c1e7 913c 6bed 273e e8b9 233d 6475 4a3d
000002a0: c12d 063e d27f f5bd e9d0 48bd 72e2 30be
000002b0: 894b 01be dc6b b1bd 4e18 bcbb 273d 90bc
000002c0: 21d8 53bd 8701 20bd 7855 2e3d 45d3 7d3d
000002d0: 84d3 94bd 47bf a83d d4a3 f03d 214d dabc
000002e0: d2d1 073e 26a9 10be 07e6 293e 0df6 c23d
000002f0: 8810 393e 8b46 293c cb29 d0bc 2129 713d
00000300: 5912 4a3d 2e0d af3d b37f e63d 754c ccbd
00000310: baa1 193e 51ce 263e 3919 eabd 51cf 7b3d
00000320: 8db6 e53d b3e0 c6bd f890 dd3d 5b2e 98bc
00000330: 9d81 e93d f4ee 23bd 4ddf d73d 29a3 063e
00000340: 3003 8b3d 91ad 96bd d2bb 163e d4d2 34bc
00000350: 07ec 193d e8b4 633d 6c99 cc3c 4439 ab3d
00000360: b808 773e 1e55 a7bd 7464 b73d 536c 06bd
00000370: 7180 bb3c b74e 25be 0721 093d 45d5 90bd
00000380: 54a2 20bd f419 003d 2211 863e 023c f9bd
00000390: 48e5 753d 60ba edbd 9693 c13d ab2b c83d
000003a0: 694c fabd 3e79 da3c 10bc 2fbe 3b4e 453e
000003b0: a220 7cba 6b0a e0bb c4e0 3a3e e7a2 133d
000003c0: f3ad a93b 0ab3 573d 525b 1dbd 266d e33d
000003d0: d50c a7bd 043e 843b 4773 18be db9e debc
000003e0: 5f71 29bd 3086 0dbe c574 c43d d71d 1dbd
000003f0: 3257 92bd 61fb 8c3e aa24 c7bd 6960 da3d

memory_rnn.bias_hh f4 [256]
-0.028388835 0.3202899 0.24440698 0.0653195 0.22666453 0.14834431 -0.0004949445 -0.0056387093
0.03711668 -0.008519891 0.1495615 0.18741837 0.20889328 -0.032814 0.035600502 0.013227997
-0.034952678 0.05498818 0.14968787 -0.15615396 0.047165558 0.07422245 -0.028374292 -0.15493871
0.11310954 -0.0838725 0.06255118 0.06678861 -0.07090887 -0.15542784 0.05539388 0.13981158
0.13144986 -0.25711346 -0.26764405 0.2784051 -0.09534131 0.03800573 0.20417346 -0.007724545
-0.017294468 -0.11862093 -0.08249199 0.092737034 0.018624682 -0.043779228 0.26684847 0.021719785
0.09189549 0.13004744 0.14842126 -0.08951743 -0.07326145 0.13822854 0.09390329 -0.025436334
-0.12618877 0.0752451 0.12544733 -0.02048219 0.06969502 -0.012645368 -0.33122283 0.20847367
0.13030191 -0.00961296 0.22773717 -0.08286122 0.14120063 -0.2804432 -0.014900397 -0.06259495
-0.2277169 -0.029628271 -0.006964507 -0.056809377 -0.033200372 -0.1343378 0.09424307 0.05372126
-0.049163878 0.17022932 -0.06953554 -0.007468599 -0.20267569 -0.06648019 0.088303834 0.14983945
0.060021117 -0.1896402 0.18233515 -0.09391142 0.067652486 -0.15314902 -0.100250706 -0.031282283
-0.082357936 0.15418682 0.020093223 -0.07117283 0.11251629 -0.061554655 -0.30170977 -0.08879962
0.10204873 -0.07827173 -0.12575561 -0.08314211 -0.1136731 -0.028658098 -0.27394342 -0.14453028
0.09872317 -0.13539663 -0.13027063 -0.17697497 0.04115461 -0.042994585 -0.2538072 -0.16737919
0.04637624 -0.08698474 -0.19894749 0.16676211 -0.23475966 0.05194912 -0.16590673 -0.07280217
-0.10043573 -0.07472669 -0.013373088 0.0832661 0.037636463 0.05266899 -0.12222985 -0.04393949
0.13220946 0.13771608 -0.028538814 0.20008741 -0.0072846594 0.032801595 0.08858234 0.0180856
0.09237445 0.102964975 -0.093472116 0.12523803 0.040967595 -0.083299056 0.051943902 0.043548062
-0.008856694 0.30422574 0.08194051 0.0718538 0.036818024 0.04949886 -0.12892988 -0.02437791
-0.04555357 0.06960524 -0.07981009 -0.04056305 -0.027679665 0.034012593 -0.032203887 0.050095692
-0.08971849 -0.020887116 0.12098679 -0.097987704 -0.083948955 0.11592982 0.05691174 -0.016181013
-0.0007795941 0.030560495 0.0017798366 0.027365005 -0.0489513 -0.039678317 0.109468535 -0.011860165
0.14753123 -0.09963489 0.093446866 0.076024555 0.009606396 -0.0017628903 -0.10281177 -0.028091036
0.06085692 0.18030569 0.04476671 0.06776706 -0.028255811 0.17625107 0.020337205 -0.028911699
0.156687 -0.14718169 0.02918212 0.06752415 -0.014789867 -0.021053948 0.3029708 0.029472966
-0.085452154 0.047828734 0.009418147 -0.09729746 0.030665282 -0.045145083 0.12390113 -0.0346938
0.05346624 -0.06195382 0.0053408016 0.075728044 0.18953167 -0.10126732 0.039834667 -0.05833215
0.049956232 0.13397382 0.062196366 -0.050823182 0.092784934 0.046525273 -0.10687634 0.16134207
-0.03076547 -0.024885843 -0.0012003214 0.10842807 -0.003413335 0.015631162 0.17691365 -0.112105705
0.09261097 0.1670587 0.04723443 -0.023901979 -0.0064801075 -0.046814002 -0.14796163 0.049849354
-0.07053801 0.07634083 0.038377307 0.14749861 -0.00013743 0.088944726 0.010259668 0.08453273
00000000: b48f e8bc 0afd a33e d345 7a3e 3bc6 853d
00000010: bf1a 683e 92e7 173e 2abf 01ba ecc4 b8bb
00000020: a907 183d 0397 0bbc a626 193e 9aea 3f3e
00000030: 1fe8 553e f967 06bd d5d1 113d 3eba 583c
00000040: 8a2a 0fbd 493b 613d c747 193e d3e6 1fbe
00000050: ac30 413d f101 983d 3471 e8bc 41a8 1ebe
00000060: f9a5 e73d 58c5 abbd d51a 803d 77c8 883d
00000070: ab38 91bd 7a28 1fbe b1e4 623d c42a 0f3e
00000080: cb9a 063e 60a4 83be a408 89be 1d8b 8e3e
00000090: 4e42 c3bd e5ab 1b3d d912 513e 2e1e fdbb
000000a0: 21ad 8dbc 88ef f2bd 8ff1 a8bd eaec bd3d
000000b0: ca92 983c d951 33bd 5da0 883e b1ed b13c
000000c0: b433 bc3d 282b 053e befb 173e ea54 b7bd
000000d0: 190a 96bd c88b 0d3e 5e50 c03d dc5f d0bc
000000e0: a137 01be 1a1a 9a3d 4475 003e 44ca a7bc
000000f0: 43bc 8e3d 852e 4fbc 0a96 a9be 1f7a 553e
00000100: dd6d 053e ad7f 1dbc ef33 693e 25b3 a9bd
00000110: e696 103e 4096 8fbe cb20 74bc c831 80bd
00000120: 9e2e 69be fdb6 f2bc 8536 e4bb f3b0 68bd
00000130: 1dfd 07bd d98f 09be 8302 c13d d30a 5c3d
00000140: 1060 49bd 9850 2e3e a668 8ebd 26bb f4bb
00000150: 378a 4fbe c426 88bd a4d8 b43d 836f 193e
00000160: b4d8 753d 0a31 42be 11b6 3a3e a154 c0bd
00000170: 638d 8a3d 19d3 1cbe 3e50 cdbd da21 00bd
00000180: 47ab a8bd 26e3 1d3e 8b9a a43c 10c3 91bd
00000190: f16e e63d bc20 7cbd b479 9abe 93dc b5bd
000001a0: edfe d03d ee4c a0bd 14c6 00be 6946 aabd
000001b0: 71cd e8bd 63c4 eabc 5042 8cbe bfff 13be
000001c0: 602f ca3d 6aa5 0abe aa65 05be ed38 35be
000001d0: bd91 283d 171b 30bd 04f3 81be 7365 2bbe
000001e0: 03f5 3d3d 0e25 b2bd e4b8 4bbe b0c3 2a3e
000001f0: d664 70be 9ac8 543d 74e3 29be 4e19 95bd
00000200: 3fb1 cdbd 4f0a 99bd cc1a 5bbc 6b87 aa3d
00000210: b128 1a3d 70bb 573d a553 fabd e5f9 33bd
00000220: eb61 073e 7205 0d3e 3bca e9bc b7e3 4c3e
00000230: 27b4 eebb f75a 063d a86a b53d 4128 943c
00000240: d12e bd3d 4ddf d23d 4f6e bfbd 663e 003e
00000250: a3cd 273d b298 aabd 21c3 543d 745f 323d
00000260: ab1b 11bc 7ac3 9b3e 6dd0 a73d 1628 933d
00000270: 7fce 163d 51bf 4a3d 3206 04be 2fb4 c7bc
00000280: 6196 3abd 318d 8e3d 7973 a3bd 7125 26bd
00000290: 77c0 e2bc ca50 0b3d 39e8 03bd 2431 4d3d
000002a0: 54be b7bd 751b abbc ecc7 f73d c7ad c8bd
000002b0: 6eed abbd 9d6c ed3d 491c 693d 0b8e 84bc
000002c0: ad5d 4cba 015a fa3c 6849 e93a 932c e03c
000002d0: 2981 48bd bb85 22bd 0a31 e03d 2351 42bc
000002e0: 6d12 173e 610d ccbd 1261 bf3d c3b2 9b3d
000002f0: 2564 1d3c c810 e7ba fa8e d2bd 2c1f e6bc
00000300: 1b45 793d 0ea2 383e 4c5d 373d 75c9 8a3d
00000310: bb78 e7bc 297b 343e 369a a63c 3ad8 ecbc
00000320: 8f72 203e ccb6 16be 570f ef3c 1a4a 8a3d
00000330: 3351 72bc 5479 acbc fd1e 9b3e 4a71 f13c
00000340: 8a01 afbd 10e8 433d 924e 1a3c e443 c7bd
00000350: c235 fb3c 0dea 38bd e0bf fd3d 161b 0ebd
00000360: 6bff 5a3d 4ac3 7dbd e401 af3b 4e17 9b3d
00000370: 9714 423e 3e65 cfbd ad29 233d b1ed 6ebd
00000380: e89e 4c3d 6f30 093e 9ec1 7e3d f82b 50bd
00000390: 0706 be3d 4991 3e3d fce1 dabd db36 253e
000003a0: de07 fcbc 65dd cbbc 1a54 9dba 890f de3d
000003b0: 42b2 5fbb ec0c 803c da28 353e ad97 e5bd
000003c0: d2aa bd3d 7011 2b3e e478 413d 15ce c3bc
000003d0: 1557 d4bb 0ac0 3fbd 4183 17be d62e 4c3d
000003e0: 3b76 90bd 9558 9c3d 8631 1d3d e009 173e
000003f0: 161b 10b9 a728 b63d 2b18 283c 7f1f ad3d
