torch-rl/storage/bak/Lstm-Customs-SimpleCorridor18x18-v0_10M/status.pt (torch, 649941 bytes, 51 tensors)

image_conv.0.weight f4 [16, 3, 2, 2]
0	0x3eb051cb	0.34437403
1	0xbf155cb0	-0.58344555
2	0xbc9abc56	-0.018888634
3	0xbec1b1b6	-0.37830895
4	0xbecc9814	-0.39959776
5	0xbd9192ed	-0.07108102
6	0xbe83e84e	-0.25763172
7	0xbe00d80e	-0.12582418
8	0x3d246023	0.040130746
9	0xbd10c794	-0.035346583
10	0x3da3fa45	0.080067195
11	0x3c69527e	0.014240859
12	0xbd27399c	-0.040826425
13	0xbe87fcd3	-0.26560077
14	0xbe2834f1	-0.16426446
15	0xbe90755d	-0.2821454
16	0x3da95400	0.08267975
17	0xbd0e1b66	-0.034694098
18	0x3e07be4f	0.1325619
19	0xbe08f643	-0.13375191
20	0xbddc2b47	-0.10750442
21	0xbe328872	-0.17434862
22	0xbd4630e4	-0.04838647
23	0xbdff02f1	-0.12451733
24	0xbf1adb2f	-0.604907
25	0xbd098bc7	-0.033580568
26	0x3e6b991d	0.23007627
27	0xbe461483	-0.19343762
28	0xbf09ae17	-0.53781265
29	0x3e762d4e	0.2404072
30	0xbd433f2d	-0.04766767
31	0xbbaa5e76	-0.005199249
32	0x3e431daa	0.19054285
33	0xbe86aaec	-0.26302278
34	0xbe8c87f4	-0.27447474
35	0xbe0e9438	-0.13923728
36	0x3dd936f9	0.10606188
37	0xbeb0b979	-0.34516504
38	0x3d37b649	0.044851575
39	0xbf0432f8	-0.5164027
40	0x3e8de351	0.2771249
41	0xbecc6ea1	-0.39928153
42	0x3db682e6	0.08911686
43	0xbeb8ec8e	-0.36117977
44	0xbe1bba9f	-0.15207909
45	0x3e17f1cb	0.1483833
46	0xbe1ce986	-0.15323457
47	0x3dade06d	0.084900714
48	0xbe6b5dc3	-0.22984986
49	0xbe9c8d04	-0.30576336
50	0xbedf2951	-0.4358621
51	0xbe9a8c0a	-0.30184966
52	0x3e138685	0.14406784
53	0xbca5bff7	-0.020233138
54	0x3e117ebe	0.14208505
55	0x3e15f9b7	0.1464604
56	0xbc5d75a1	-0.013516814
57	0xbe454f6b	-0.19268577
58	0x3e3402e1	0.17579223
59	0x3db77c35	0.089592375
60	0xbf084bfd	-0.5324095
61	0x3ea1ba16	0.31587285
62	0xbce8c6fe	-0.0284152
63	0xbd9fbbd9	-0.07799501
64	0xbd59c186	-0.053163074
65	0xbdd42c3b	-0.10359999
66	0x3d27d594	0.04097517
67	0xbc885cf9	-0.016645895
68	0xbe6056ba	-0.21908084
69	0xbe51c449	-0.20485033
70	0x3e20cf3f	0.15704058
71	0xbd8aa219	-0.06769199
72	0xbe9090a0	-0.2823534
73	0xbf160c76	-0.58612764
74	0xbd69798e	-0.05700069
75	0xbf006518	-0.50154257
76	0xbe93722c	-0.28798044
77	0xbdfee339	-0.12445683
78	0xbf353f8a	-0.7080008
79	0xbcb62aa7	-0.022237135
80	0xbe4fd877	-0.20297419
81	0xbe5f090e	-0.21780798
82	0x3c8fd0c3	0.0175556
83	0xbd497de1	-0.049192313
84	0xbc729d1f	-0.014807968
85	0xbf15008e	-0.5820397
86	0xbf241ca8	-0.64106226
87	0x3e8e7ac7	0.27828047
88	0xbeadbad9	-0.33931616
89	0xbddd22bd	-0.107976414
90	0xbe3e46d1	-0.18581702
91	0xbe58da3d	-0.21177001
92	0x3d6d8b79	0.05799434
93	0x3d8e017e	0.06933878
94	0xbe45ec7c	-0.19328493
95	0xbe0c416e	-0.13696834
96	0x3ce86e34	0.028372861
97	0x3bc1bedf	0.005912646
98	0xbe8a62c1	-0.27028468
99	0xbe60d3a3	-0.21955733
100	0x3dd7e681	0.10542012
101	0xbe960deb	-0.29307494
102	0x3d228d13	0.03968532
103	0x3d69df76	0.057097875
104	0xbe3f1482	-0.18660167
105	0xbe7b63ca	-0.24549785
106	0x3e8ddf87	0.277096
107	0x3c76f79b	0.015073682
108	0x3e1100d4	0.14160472
109	0xbe60364a	-0.2189571
110	0xbf165a36	-0.587314
111	0x3d95b787	0.07310396
112	0x3e590b1a	0.21195641
113	0xbe428b08	-0.18998349
114	0xbee4b67b	-0.44670472
115	0x3dfe930a	0.12430389
116	0x3e56253b	0.2091264
117	0x3e37a3e2	0.1793361
118	0xbe55ef08	-0.20891964
119	0xbe54dd7e	-0.20787618
120	0xbed3360c	-0.41252172
121	0xbe2ace99	-0.16680373
122	0x3edbad68	0.42905736
123	0xbed7d6ae	-0.42155975
124	0x3e04bef2	0.12963465
125	0xbe1c8c02	-0.15287784
126	0xbec3ff62	-0.3828078
127	0xbe13e761	-0.14443733
128	0x3e2a516b	0.16632621
129	0x3e893722	0.26799875
130	0xbe3794c5	-0.17927845
131	0x3d804c69	0.06264574
132	0xbd6c5ad1	-0.057703797
133	0xbc86124e	-0.01636615
134	0x3bf0903b	0.0073414124
135	0xbe2eaf7f	-0.17059134
136	0x3daf38c7	0.08555751
137	0x3ca921c2	0.02064598
138	0xbeacc283	-0.3374215
139	0xbf0f22e4	-0.55912614
140	0xbe077398	-0.1322769
141	0xbd09afeb	-0.033615034
142	0xbe3530d3	-0.17694406
143	0x3dd84b8d	0.10561285
144	0xbdd3c855	-0.10340945
145	0xbeb5ecb9	-0.35532168
146	0xbe04cabf	-0.12967966
147	0xbe2d1c52	-0.16905335
148	0x3bcd0a73	0.006257349
149	0xbda6d9d2	-0.08147015
150	0xbe45609a	-0.19275132
151	0x3dcecd7c	0.10097787
152	0xbd08b236	-0.03337308
153	0xbc227df1	-0.009917722
154	0xbe8b81ce	-0.2724747
155	0xbe3e414e	-0.185796
156	0xbee4f716	-0.44719762
157	0xbf0944fe	-0.536209
158	0x3e672403	0.22572331
159	0xbed2f8ad	-0.4120535
160	0xbe60dea9	-0.21959938
161	0xbe4a65d8	-0.19765413
162	0xbe4b5aa5	-0.19858797
163	0xbbfbe6c2	-0.0076874206
164	0xbe18f76c	-0.14938134
165	0x3d802eb6	0.062589094
166	0xbdd73aaa	-0.10509236
167	0xbd84d445	-0.064858
168	0xbf494c04	-0.78631616
169	0xbf275949	-0.65370613
170	0xbe787c2d	-0.2426612
171	0xbd828cb3	-0.063744925
172	0x3997b2de	0.0002893423
173	0xbe7c9f16	-0.24670061
174	0x3e2b09ff	0.16703032
175	0x3e286294	0.16443855
176	0x3e499d8b	0.19689004
177	0x3c169be2	0.009192439
178	0xbe4c7ef0	-0.19970298
179	0x3e670451	0.2256024
180	0xbe8a8d9e	-0.2706117
181	0xbdf46369	-0.119330235
182	0xbe51ea0d	-0.2049944
183	0xbdfbd6d2	-0.12296833
184	0xbef323b7	-0.47488186
185	0x3de542f9	0.11194415
186	0xbecc6ee3	-0.3992835
187	0xbeb6dd51	-0.35715726
188	0xbc2099fa	-0.009802336
189	0xbe1fd659	-0.15609111
190	0x3dd38a68	0.10329133
191	0xbde39212	-0.11111845

image_conv.0.bias f4 [16]
0	0xbe5d4944	-0.2160998
1	0xbe1a0103	-0.15039448
2	0xbe890293	-0.26759776
3	0xbebb8c8d	-0.3663067
4	0xbe090ac3	-0.13383012
5	0xbef1e40c	-0.47244298
6	0x3e9a7e5d	0.30174533
7	0xbf5419fc	-0.8285215
8	0xbe0fec5c	-0.14055008
9	0xbf48abfd	-0.78387433
10	0xbe2c75cc	-0.16841811
11	0xbed9ac5d	-0.42514315
12	0xbe3e5584	-0.18587309
13	0xbe8c3c32	-0.27389675
14	0xbe6b0a7f	-0.22953223
15	0xbeaf2064	-0.342044

image_conv.3.weight f4 [32, 16, 2, 2]
0	0xbe033cae	-0.12816116
1	0x3ea9509b	0.3306931
2	0x3db2a6d2	0.08723225
3	0xbf926571	-1.1437207
4	0xbe09c751	-0.1345494
5	0x3dd92c4c	0.10604152
6	0x3d8cc31b	0.06873151
7	0xbe550e91	-0.20806338
8	0x3e82e718	0.25566936
9	0xbe45ee9f	-0.19329308
10	0xbf42e5b6	-0.7613176
11	0x3ea61854	0.32440436
12	0x3e2c89db	0.16849463
13	0x3f04a311	0.5181132
14	0xbdc4f62b	-0.09617265
15	0xbef0d935	-0.47040716
16	0x3ca4f72f	0.020137398
17	0xbe2d2976	-0.16910347
18	0x3e59e864	0.21280056
19	0xbd08251b	-0.03323851
20	0x3d7fc611	0.06244475
21	0x3e3b84e1	0.18312408
22	0xbf802f59	-1.0014449
23	0xbeeb604d	-0.4597191
24	0xbea1044c	-0.3144859
25	0xbc8ff163	-0.017571157
26	0xbeba62c5	-0.3640348
27	0xbe91757c	-0.28409946
28	0x3e10174b	0.14071386
29	0xbc58ce31	-0.013232754
30	0xbe219366	-0.15778884
31	0xbf75182a	-0.95739996
32	0xbdf6bda0	-0.12047887
33	0x3e17f866	0.1484085
34	0x3ded309d	0.11581538
35	0xbe77c8e2	-0.24197724
36	0xbea59fd2	-0.32348496
37	0x3f21813a	0.6308781
38	0x3f078a70	0.52945614
39	0xbed9d93f	-0.42548558
40	0x3e80cca5	0.2515613
41	0x3ee5d2bc	0.4488734
42	0xbeb9fb65	-0.3632461
43	0xbe937de9	-0.28807
44	0x3e478cc2	0.19487289
45	0x3e7857ac	0.24252194
46	0x3da37007	0.07980352
47	0xbdef0a08	-0.11671835
48	0x3cff9b21	0.0312019
49	0x3d92409f	0.07141232
50	0x3c29ab74	0.010355819
51	0xbe855e3f	-0.26048467
52	0x3ddb351b	0.107034884
53	0xbdb2a020	-0.08721948
54	0xbe0530eb	-0.13006942
55	0x3ebbad88	0.3665583
56	0x3d93cffb	0.072174035
57	0xbe6061b9	-0.21912278
58	0x3e766486	0.24061784
59	0x3e41658d	0.18886395
60	0xbeb986da	-0.36235696
61	0x3ecbdbea	0.3981622
62	0xbf3ac11f	-0.7295093
63	0xbee62656	-0.44951123
64	0xbe07d911	-0.13266398
65	0x3edb02dd	0.42775622
66	0xbe008c0a	-0.1255342
67	0xbe90c710	-0.28276873
68	0xbe75337a	-0.23945418
69	0xbd585b7e	-0.05282163
70	0xbe492bdb	-0.19645636
71	0x3d2ddd28	0.04244724
72	0xbe9d436c	-0.307155
73	0xbdb328a6	-0.087479874
74	0xbee27b00	-0.44234467
75	0xbe85b303	-0.26113138
76	0x3dbb1d60	0.09136462
77	0xbf623d12	-0.88374436
78	0xbee4aaa5	-0.4466144
79	0x3d6d4dc1	0.05793548
80	0xbe11a967	-0.14224778
81	0xbd7a463e	-0.061102144
82	0x3dad548f	0.08463394
83	0x3d3ff6c7	0.046866205
84	0xbba76f10	-0.005109675
85	0x3d840f34	0.06448212
86	0xbeaff98d	-0.3437008
87	0xbe2debe0	-0.1698451
88	0x3df4fd58	0.11962384
89	0x3e843334	0.25820315
90	0xbf45e281	-0.7729874
91	0xbec7cc5a	-0.39023095
92	0xbedde698	-0.43339992
93	0x3c53191d	0.012884405
94	0x3e8806f2	0.265678
95	0xbe74d0c3	-0.23907761
96	0xbe0f2a3c	-0.13980955
97	0xbd992f51	-0.07479728
98	0xbe80e9cd	-0.25178376
99	0x3e1bc2c4	0.15211016
100	0xbd334678	-0.043768376
101	0xbed00bb7	-0.40633938
102	0x3dc846ba	0.09779115
103	0xbe777def	-0.24169134
104	0xbf0acb79	-0.54216725
105	0xbe8ba5cb	-0.27274927
106	0xbe0a096a	-0.13480154
107	0xbecb2026	-0.39672965
108	0xbd7e8411	-0.062137667
109	0x3e145d8b	0.14488809
110	0xbd89a191	-0.067202695
111	0xbde1cf4a	-0.110258654
112	0xbe187dde	-0.14891765
113	0x3e026013	0.12731962
114	0xbc743f34	-0.014907647
115	0x3cdb0c89	0.026739376
116	0xbe509451	-0.20369078
117	0xbe153367	-0.1457039
118	0x3de42007	0.11138921
119	0x3ec0f174	0.37684214
120	0xbf1b6710	-0.60704136
121	0xbf0f3417	-0.5593886
122	0x3f10a9c5	0.5650905
123	0x3ec6a745	0.38799492
124	0x3f1ac347	0.6045422
125	0x3d4b67c7	0.049659517
126	0xbf1b2614	-0.6060498
127	0xbea96f90	-0.33092928
128	0xbe716e8b	-0.23577325
129	0xbf02bffb	-0.5107419
130	0xbe537bb5	-0.20652659
131	0x3e7cccae	0.24687454
132	0xbe2da040	-0.16955662
133	0xbe40b750	-0.18819928
134	0xbdc8a19f	-0.09796452
135	0x3e2b4ea5	0.1672922
136	0x3e06eca3	0.13176207
137	0x3e8062de	0.2507543
138	0x3e931673	0.28728065
139	0xbdfaaeff	-0.12240409
140	0xbf59fe15	-0.85153323
141	0xbd897333	-0.06711426
142	0xbea78888	-0.32721353
143	0x3e2ab7af	0.16671632
144	0xbf065312	-0.52470505
145	0xbde4f33f	-0.11179208
146	0x3e189b46	0.14902982
147	0x3df90810	0.12159741
148	0xbf67a794	-0.9049008
149	0xbefefa59	-0.49800375
150	0xbed4fb28	-0.41597867
151	0x3f1b9727	0.60777515
152	0x3e8c17d0	0.27361917
153	0x3f03822a	0.5137049
154	0xbf1a1e8b	-0.60202855
155	0xbf5dc4b8	-0.86628294
156	0xbd3badf4	-0.04582019
157	0xbe11f00d	-0.14251728
158	0xbeb2202d	-0.34790173
159	0xbf0308c3	-0.51185244
160	0xbe4feef5	-0.20305999
161	0xbe2d18fb	-0.1690406
162	0xbe8a41a2	-0.270032
163	0x3dcffd2b	0.1015571
164	0x3ca32429	0.019914703
165	0xbf6e3a68	-0.9305787
166	0x3bb0b2b5	0.0053923973
167	0x3e037e85	0.12841232
168	0x3d894f2f	0.06704556
169	0x3e611dd5	0.21984036
170	0x3e76e6be	0.24111459
171	0x3ec660da	0.38745767
172	0x3d5ba9e8	0.053628832
173	0xbe1e1b5f	-0.15440129
174	0x3db2f157	0.08737438
175	0xbe490cbf	-0.19633768
176	0xbe2e9383	-0.17048459
177	0xbca5dc7d	-0.020246739
178	0xbd99f7f3	-0.07517996
179	0xbd67e4b2	-0.056614585
180	0xbdc6ba61	-0.09703518
181	0x3d819503	0.0632725
182	0x3c6fa978	0.014627807
183	0x3dd2acc5	0.102868594
184	0xbeb31c11	-0.3498235
185	0xbeddec58	-0.43344378
186	0x3f114b72	0.56755745
187	0x3e8b6167	0.2722275
188	0x3ea99207	0.33119223
189	0xbdbcec85	-0.092248
190	0x3e77d60e	0.24202749
191	0x3ebbb062	0.36658007
192	0x3edfaa0e	0.4368443
193	0x3e92dfeb	0.2868646
194	0xbe025ddf	-0.12731121
195	0xbd8028b2	-0.06257762
196	0xbe833ed1	-0.25633863
197	0xbe0df168	-0.1386162
198	0xbe4be12e	-0.19910118
199	0xbda36613	-0.079784535
200	0x3e3e44d9	0.18580951
201	0xbe240108	-0.16016018
202	0xbd234cbc	-0.0398681
203	0xbd6927b2	-0.056922622
204	0xbef6c53f	-0.48197362
205	0xbf03b0ff	-0.5144195
206	0x3ea74cde	0.32675833
207	0xbeab0558	-0.33402514
208	0xbe90c00b	-0.28271517
209	0xbcef2cf2	-0.029196236
210	0xbe03cc1f	-0.12870835
211	0xbdd98685	-0.10621361
212	0xbe05dd9a	-0.13072816
213	0xbe697726	-0.22799358
214	0xbdddc958	-0.10829419
215	0x3dc92fe6	0.09823589
216	0x3cb5b862	0.022182647
217	0x3e83d97d	0.25751868
218	0xbe569a5f	-0.20957325
219	0xbea5463b	-0.32280144
220	0x3eed3329	0.46328095
221	0xbf383bbb	-0.7196614
222	0x3e9896b7	0.29802486
223	0xbe3d1d55	-0.1846822
224	0xbdc5941f	-0.096473925
225	0x3db46b52	0.08809532
226	0xbd337189	-0.043809447
227	0xbdb32830	-0.087478995
228	0x3e803832	0.25042874
229	0xbe0bbf48	-0.13647187
230	0xbf303db4	-0.6884415
231	0xbe7e4249	-0.24829973
232	0xbcf2496e	-0.02957603
233	0x3e31b516	0.17354235
234	0x3cb0a9aa	0.021565277
235	0x3f250dec	0.6447437
236	0xbe281590	-0.16414475
237	0xbdcbbc9f	-0.09948086
238	0xbd83b0bf	-0.06430196
239	0xbd6dcc28	-0.058056027
240	0xbdc12cb4	-0.094323546
241	0xbdfb3c54	-0.12267366
242	0x3c3d3002	0.0115470905
243	0x3e0dd329	0.13850082
244	0x3df0a7a3	0.11750724
245	0xbd22ccea	-0.039746203
246	0x3e61bf77	0.22045694
247	0x3ef14ac5	0.47127357
248	0x3e88c1ca	0.2671035
249	0xbd8e3a44	-0.06944707
250	0x3f10f3f0	0.5662222
251	0x3e3614fb	0.17781441
252	0x3df36928	0.11885291
253	0xbee2a095	-0.4426314
254	0x3e57e201	0.21082307
255	0xbddc0177	-0.10742467

image_conv.3.bias f4 [32]
0	0x3d92303d	0.07138107
1	0x3e22c789	0.15896429
2	0xbe8aeee5	-0.27135387
3	0xbef7f764	-0.48430932
4	0xbe42a23a	-0.19007197
5	0x3d6a3302	0.05717755
6	0xbeb78ecc	-0.35851133
7	0xbe42331b	-0.18964808
8	0xbabdb9fc	-0.0014474983
9	0xbdb08f71	-0.08621109
10	0xbe1bf230	-0.15229106
11	0xbe8b2edc	-0.27184188
12	0xbe36cb21	-0.17850925
13	0x3d7d3a61	0.061823253
14	0xbe6f5fb7	-0.23376356
15	0xbe1c2026	-0.15246639
16	0x3caa664c	0.020800732
17	0xbe853adb	-0.26021466
18	0x3d7ee009	0.062225375
19	0x3e75f9a1	0.24021007
20	0xbe9c2efb	-0.30504593
21	0xbe245116	-0.16046557
22	0xbf04d8f7	-0.5189356
23	0xbe5399fd	-0.2066421
24	0xbdba402d	-0.09094272
25	0xbeab8fd2	-0.33508164
26	0xbecb7b7a	-0.39742643
27	0xbe8fd486	-0.2809183
28	0xbf63540f	-0.8880014
29	0xbdd14448	-0.10218102
30	0xbf0fc87f	-0.5616531
31	0xbea833c3	-0.3285199

image_conv.5.weight f4 [64, 32, 2, 2]
0	0xbf172cf4	-0.5905297
1	0xbd7e9e89	-0.06216291
2	0x3e46e49b	0.19423144
3	0xbe2872a6	-0.16449985
4	0xbd4ec78a	-0.050483264
5	0x3e7b0933	0.24515228
6	0x3cdfd75b	0.02732437
7	0x3ebc6006	0.3679201
8	0x3ea1cb3d	0.3160037
9	0xbf2cebd1	-0.6754733
10	0x3c2f98b2	0.010717558
11	0x3eafec2d	0.34359875
12	0x3e4ab2b5	0.19794734
13	0x3eb19d41	0.34690288
14	0xbdc3e570	-0.09565246
15	0xbd87f67f	-0.06638812
16	0xbc0d1f3d	-0.008613405
17	0x3cbd35de	0.023096975
18	0x3d5a11f0	0.053239763
19	0xbc08f57b	-0.008359308
20	0xbf04e999	-0.5191894
21	0xbedee5ac	-0.435346
22	0x3eb80995	0.3594481
23	0x3f27e37e	0.655815
24	0x3dc7f9b4	0.09764424
25	0x3dceadfa	0.10091777
26	0xbb71b73c	-0.0036882898
27	0x3e8cee69	0.27525643
28	0xbdd164bc	-0.10224292
29	0xbaaa4c3d	-0.0012992691
30	0x3cd2a32e	0.025712576
31	0x3cc23614	0.023707427
32	0xbe990834	-0.2988907
33	0x3e9448b4	0.28961718
34	0xbf2781ef	-0.6543264
35	0x3e737c7d	0.23777957
36	0xbeb52025	-0.35376087
37	0x3e683cea	0.22679487
38	0x3e669670	0.22518325
39	0x3f08fdb0	0.53512096
40	0x3cb50f45	0.022102008
41	0x3da80a16	0.08205049
42	0xbdbbda64	-0.09172514
43	0xbd6c4218	-0.05768022
44	0xbddec3d1	-0.10877193
45	0x3f37c2c8	0.7178159
46	0x3dd0c2cc	0.101934046
47	0x3ed31d47	0.41233274
48	0x3d8a5241	0.0675397
49	0xbd1169a1	-0.035501126
50	0x3ba1d304	0.004938485
51	0xbcd88121	-0.026428761
52	0xbee9b783	-0.4564782
53	0xbe72cef3	-0.23711757
54	0xb9814ddd	-0.0002466281
55	0xbef8c21c	-0.48585594
56	0xbf18b181	-0.5964585
57	0xbe0f83da	-0.14015141
58	0x3edf7ed5	0.43651453
59	0x3e87f8c4	0.2655698
60	0xbead112c	-0.33802164
61	0xbe873cc1	-0.2641354
62	0xbccb375d	-0.024806673
63	0xbea82403	-0.32839975
64	0xbd675442	-0.05647684
65	0xbeb20344	-0.34768116
66	0xbe613b96	-0.21995386
67	0xbecab36e	-0.3959002
68	0x3bfb82c0	0.0076754987
69	0xbe9c20a1	-0.30493644
70	0x3f500712	0.8126079
71	0xbd388372	-0.04504723
72	0xbc460d0d	-0.0120880725
73	0xbf4be3c3	-0.7964441
74	0xbea826e7	-0.3284218
75	0x3e1fd043	0.1560679
76	0xbe8c2f31	-0.27379754
77	0xbf691b57	-0.9105734
78	0xbe94ac33	-0.29037628
79	0x3caf7e68	0.02142258
80	0x3f14e066	0.58154905
81	0x3e59897c	0.21243852
82	0x3d3a046e	0.04541438
83	0x3ee18cb9	0.44052675
84	0x3eb28de0	0.34873867
85	0x3f439419	0.76397854
86	0x3eb4e144	0.35328114
87	0xbf1628f3	-0.58656234
88	0x3e432841	0.19058324
89	0x3f2bab43	0.670582
90	0x3f378571	0.7168799
91	0xbdf3cc43	-0.11904194
92	0xbd63489a	-0.05548916
93	0xbea499e9	-0.32148674
94	0xbd859e58	-0.06524342
95	0xbc9a9ed8	-0.01887457
96	0xbdd5ef84	-0.104460746
97	0xbf4a8773	-0.7911293
98	0x3e2f252a	0.1710402
99	0xbe1b7d51	-0.15184523
100	0xbe46f193	-0.19428091
101	0xbea1b512	-0.31583458
102	0xbdf6bbbf	-0.120475285
103	0x3cf52e74	0.029929377
104	0x3f0b5ea8	0.5444131
105	0x3eb3a032	0.35083157
106	0x3f307132	0.6892272
107	0xbec8bb33	-0.39205322
108	0x3c2793ee	0.01022814
109	0x3e0d7ea8	0.13817847
110	0x3e1f5e62	0.15563348
111	0x3e2a12e0	0.16608763
112	0xbf06f137	-0.52711815
113	0xbe70ccdf	-0.23515652
114	0x3dab4669	0.08363039
115	0x3f3a7700	0.7283783
116	0x3d2bb0e5	0.041916747
117	0xbd99d2f7	-0.075109415
118	0xbde65dd7	-0.11248367
119	0xbbd16d83	-0.0063912286
120	0xbbab6d1d	-0.005231513
121	0x3d0fd3d5	0.03511413
122	0x3e272155	0.16321309
123	0x3e250872	0.16116503
124	0xbe201b46	-0.15635404
125	0x3e5063a0	0.20350504
126	0xbd11cb6f	-0.0355944
127	0x3e8b665a	0.27226526
128	0xbf0a2892	-0.53968155
129	0xbf347e69	-0.70505387
130	0x3ec3ef9b	0.38268742
131	0x3eb3365e	0.35002416
132	0x3d13f59f	0.036122914
133	0xbeb02638	-0.3440416
134	0x3eeb1d9b	0.45921025
135	0x3f004f4f	0.50121015
136	0xbe7f086f	-0.24905561
137	0xbede75bc	-0.434492
138	0xbf29e1e1	-0.6636029
139	0x3d8a585f	0.06755137
140	0xbf2cae9e	-0.67453945
141	0xbe18c1b8	-0.14917648
142	0xbe558ed0	-0.2085526
143	0x3e7c3ec2	0.24633315
144	0x3e0bd3ab	0.13654964
145	0x3d1e0ff8	0.038589448
146	0x3c61a34a	0.013771841
147	0xbcf10151	-0.029419573
148	0xbea6af71	-0.32555726
149	0x3d7c40e5	0.061585326
150	0xbf0a9aa5	-0.5414222
151	0x3f4c5aa9	0.79825836
152	0x3ea9661e	0.33085722
153	0x3de59bfc	0.11211392
154	0xbf719178	-0.9436259
155	0xbf23670a	-0.638291
156	0x3b89a70f	0.004200823
157	0x3e5e1f93	0.21691732
158	0x3d487c0c	0.048946425
159	0xbe0b4d05	-0.136036
160	0xbf796061	-0.9741269
161	0xbf1490d9	-0.5803352
162	0xbf0fbc29	-0.56146485
163	0xbf0d4746	-0.5518688
164	0xbef70e35	-0.48253027
165	0xbf1ce426	-0.61285627
166	0x3e6bfd43	0.2304583
167	0xbe3fffa0	-0.18749857
168	0x3d288d1c	0.041150197
169	0xbba4c711	-0.0050286134
170	0x3d62b756	0.055350624
171	0xbd898286	-0.067143485
172	0xbf245194	-0.6418698
173	0xbf101c82	-0.562935
174	0xbee4284d	-0.44561997
175	0xbe42c7bb	-0.19021504
176	0x3d9cfb4f	0.07665121
177	0x3cfaf1b3	0.03063283
178	0xbc9315b3	-0.017954683
179	0xbd39e1ce	-0.04538136
180	0xbeb743e8	-0.35793996
181	0xbec3b83d	-0.382265
182	0x3dc80147	0.09765869
183	0xbef4dfb7	-0.4782693
184	0xbf1fdc2a	-0.6244532
185	0xbe4b0c7b	-0.1982898
186	0xbf6d9386	-0.9280323
187	0xbc72d1e3	-0.014820549
188	0xbf9fc704	-1.248261
189	0xbfab606a	-1.3388798
190	0xbf2b6d4f	-0.66963667
191	0xbf47b528	-0.780108
192	0xbf11d9b1	-0.56972796
193	0xbf332083	-0.69971484
194	0xbf2273f0	-0.63458157
195	0x3ed09740	0.40740395
196	0x3edf9f3a	0.43676168
197	0x3d36bd26	0.04461398
198	0xbe281f2b	-0.1641814
199	0xbea6ed68	-0.32603002
200	0xbcd1816f	-0.025574414
201	0xbecdc99e	-0.40192884
202	0xbf0e8dac	-0.55684924
203	0x3e30d0a0	0.17267084
204	0xbf27da21	-0.65567213
205	0x3ef26687	0.47343847
206	0x3f8a74b0	1.081686
207	0x3f09b8bf	0.53797525
208	0xbdbc5ff4	-0.09197989
209	0xbecdf5b2	-0.40226513
210	0xbee01ec7	-0.4377348
211	0x3e57c7ea	0.21072355
212	0x3d0e23b0	0.034702003
213	0xbd3173d4	-0.043323353
214	0xbe114508	-0.1418649
215	0xbf077f91	-0.52929026
216	0xbe8e13d7	-0.27749512
217	0x3e56d572	0.2097986
218	0xbecc221c	-0.39869773
219	0x3d872d5f	0.06600451
220	0xbed195f9	-0.40934733
221	0x3f261a0e	0.64883506
222	0xbf4703e3	-0.77740306
223	0xbe3334bc	-0.17500585
224	0xbf0396f1	-0.51402193
225	0xbea28361	-0.3174086
226	0xbf00fbe9	-0.50384384
227	0xbf39e201	-0.7261048
228	0xbe8d4df2	-0.2759853
229	0xbd8b629c	-0.068059176
230	0x3e1f6a87	0.1556798
231	0xbda617a7	-0.0810998
232	0xbf392b56	-0.7233175
233	0xbe793a25	-0.24338587
234	0xbeb4ca63	-0.3531066
235	0xbec11a7b	-0.37715515
236	0xbeccf2e3	-0.40029058
237	0xbedc85ac	-0.43070734
238	0xbec98ec8	-0.39366746
239	0xbe018dc6	-0.12651739
240	0xbe015099	-0.12628402
241	0x3ee53719	0.447686
242	0xbf33eb81	-0.70281225
243	0xbef8dba7	-0.4860508
244	0xbdf6aa0f	-0.12044155
245	0xbd8b8c5f	-0.06813883
246	0xbe153944	-0.14572626
247	0x3e3ac8fc	0.18240732
248	0x3ecd1fdd	0.40063372
249	0xbf5af029	-0.85522705
250	0x3e6d72ca	0.2318832
251	0xbf778f51	-0.9670306
252	0xbf126e36	-0.5719942
253	0xbedb16b7	-0.42790768
254	0x3f012ff3	0.5046379
255	0x3e582f48	0.21111786

image_conv.5.bias f4 [64]
0	0xbee8d36c	-0.45473802
1	0x3dd38df5	0.103298105
2	0xbe4a622c	-0.19764012
3	0xbee33d5e	-0.44382757
4	0xbe5c3184	-0.21503264
5	0xbe6a5567	-0.22884141
6	0xbc0912ff	-0.008366345
7	0x3f62ab33	0.8854248
8	0x3e82cc2e	0.25546402
9	0xbeb129ee	-0.34602302
10	0xbe3c899e	-0.18411872
11	0x3e724e8e	0.23662779
12	0xbe85f638	-0.26164412
13	0xbe19ef29	-0.15032639
14	0x3ea38f6e	0.31945366
15	0x3e75db9f	0.2400956
16	0x3e9c5729	0.30535248
17	0x3e8138b6	0.2523858
18	0xbe7edfe6	-0.24890098
19	0x3d707edc	0.058714733
20	0x3e1825f3	0.14858226
21	0x3e0ad9f3	0.13559704
22	0xbeb126f5	-0.34600034
23	0xbec67535	-0.38761297
24	0xbd05301c	-0.032516584
25	0xbca4f460	-0.020136058
26	0xbeb367a5	-0.35040012
27	0xbe887c5f	-0.26657388
28	0xbcf1a154	-0.029495873
29	0x3cf2df0a	0.029647369
30	0x3caed158	0.021340057
31	0xbd6455e0	-0.05574596
32	0xbcd9a931	-0.026569935
33	0xbf102ca8	-0.5631814
34	0x3e1d9f56	0.15392813
35	0xbd0e9772	-0.0348124
36	0xbe6add11	-0.22935893
37	0xbe407e8d	-0.18798275
38	0xbe96e205	-0.29469314
39	0x3edae847	0.4275534
40	0xbd7d3cb6	-0.061825477
41	0xbd05d3c7	-0.03267267
42	0x3d66f9e2	0.05639065
43	0x3e5e5682	0.21712688
44	0xbe841f3e	-0.25805086
45	0xbe2996c6	-0.16561422
46	0xbd0f9786	-0.035056613
47	0x3d389d06	0.045071624
48	0x3e1a75d3	0.15084009
49	0xbcbf11c2	-0.023323897
50	0xbef64c9c	-0.48105323
51	0xbe1216cf	-0.14266513
52	0xbe83ef30	-0.25768423
53	0xbe5abaf9	-0.21360387
54	0xbe272be5	-0.16325338
55	0xbdc45665	-0.09586791
56	0xbe5a820c	-0.21338671
57	0x3c84477f	0.016147373
58	0x3ebf8a89	0.3741038
59	0xbeeb51d5	-0.4596087
60	0xbddf79b1	-0.10911883
61	0xbe4f2baf	-0.20231508
62	0x3eb7fbc2	0.35934263
63	0x3e3595bf	0.17732905

memory_rnn.weight_ih f4 [256, 64]
0	0x3ea20a44	0.31648457
1	0xbee9f8fd	-0.45697775
2	0x3e349e98	0.17638624
3	0xbf5178d6	-0.81825006
4	0x3e6e7f93	0.23290853
5	0x3e3711e4	0.17877918
6	0x3dc6cacc	0.09706649
7	0xbecf9861	-0.40545943
8	0x3d7d9382	0.061908253
9	0xbd88055a	-0.06641646
10	0xbf34f152	-0.70680726
11	0x3ecf7490	0.40518618
12	0x3ebe22ac	0.37135828
13	0xbec649cc	-0.38728178
14	0xbe242687	-0.16030322
15	0x3d723c7e	0.05913972
16	0x3eba7936	0.36420602
17	0x3d5e77c0	0.05431342
18	0xbf04a6c2	-0.5181695
19	0xbee27499	-0.44229582
20	0x3e3a104f	0.18170284
21	0x3f0cf77e	0.55065143
22	0x3e855895	0.26044145
23	0x3cc10738	0.023563012
24	0x3d40dcec	0.047085688
25	0xbf60b443	-0.8777506
26	0xbeae67d4	-0.3406359
27	0x3ed83764	0.4222976
28	0x3f3b9696	0.7327665
29	0xbe5f2050	-0.2178967
30	0xbf5605bc	-0.836025
31	0x3f25b5b6	0.64730394
32	0xbef6a9ce	-0.48176426
33	0xbf29fc52	-0.66400635
34	0xbf2e214d	-0.6801956
35	0x3bfe5625	0.007761734
36	0xbc86318c	-0.016381048
37	0xbed47f60	-0.4150343
38	0x3e9904fa	0.2988661
39	0xbe0118a7	-0.1260706
40	0xbdb207bf	-0.08692884
41	0xbefed0d0	-0.49768686
42	0xbf1bc078	-0.6084056
43	0xbebbabdb	-0.36654553
44	0x3d1a4aa5	0.037668843
45	0x3ddc52e2	0.10757996
46	0x3f3075c3	0.6892969
47	0xbcc2f309	-0.023797529
48	0xbe56984b	-0.20956533
49	0xbf25663b	-0.64609116
50	0xbee126fe	-0.4397506
51	0xbd645805	-0.055748004
52	0xbdd12256	-0.10211627
53	0xbe15339e	-0.14570472
54	0xbe868e50	-0.2628045
55	0xbf04a6fe	-0.5181731
56	0xbf26800f	-0.6503915
57	0x3e1d163e	0.15340516
58	0xbf140c68	-0.5783143
59	0xbe408807	-0.1880189
60	0x3ee856f1	0.4537883
61	0xbf1c26ce	-0.6099671
62	0xbe1449b1	-0.14481236
63	0x3ed232da	0.41054422
64	0x3dda6b9d	0.10665057
65	0x3eec5e1d	0.46165553
66	0xbf831208	-1.0239878
67	0xbe1b5838	-0.15170372
68	0xbdbdb95b	-0.092638694
69	0x3e8c3a19	0.27388075
70	0x3ec195ae	0.3780951
71	0xbedf3293	-0.43593273
72	0x3ed87347	0.4227545
73	0xbf4138db	-0.7547738
74	0x3e421022	0.18951467
75	0xbf4d70a0	-0.8024998
76	0xbf916677	-1.1359395
77	0xbbd06b3e	-0.0063604405
78	0x3e97183b	0.29510674
79	0xbf24eec9	-0.6442686
80	0xbe8d2821	-0.27569678
81	0xbede4478	-0.43411613
82	0xbe5e957e	-0.21736714
83	0xbe987953	-0.29780063
84	0xbf68f5a7	-0.90999836
85	0x3ecfc1d2	0.4057756
86	0xbf5c7479	-0.86115223
87	0x3db919f7	0.090381555
88	0xbf64300e	-0.89135826
89	0x3e112da1	0.14177562
90	0x3e346af8	0.1761893
91	0x3d33982c	0.043846294
92	0x3e92552d	0.2858061
93	0xbe282131	-0.16418912
94	0x3daa4c81	0.08315373
95	0xbe856910	-0.2605672
96	0x3ed9f8cb	0.42572626
97	0xbfcbcc8e	-1.59218
98	0xbf1824f1	-0.5943137
99	0xbd9f15aa	-0.07767804
100	0xbf06a925	-0.52601844
101	0xbf300433	-0.6875641
102	0xbd1822c1	-0.03714252
103	0xbeb3f2c0	-0.3514614
104	0xbe2acbe5	-0.16679342
105	0xbf38059a	-0.7188355
106	0x3eda1468	0.42593694
107	0xbe667da1	-0.22508861
108	0xbf32e78b	-0.69884557
109	0x3ec4fb3d	0.3847293
110	0xbfab0e4f	-1.3363742
111	0xbe8fbda4	-0.28074372
112	0x3f2544b4	0.6455796
113	0xbe2b4539	-0.16725625
114	0xbd9a6277	-0.07538312
115	0xbd94a75a	-0.07258482
116	0xbe3edaf7	-0.18638216
117	0xbf1fd960	-0.6244106
118	0xbec2b8f0	-0.3803172
119	0xbf1879a4	-0.5956061
120	0x3e4efb35	0.20213015
121	0xbee828fa	-0.45343763
122	0xbf16ce98	-0.5890899
123	0xbdd0899e	-0.101824984
124	0xbdde4a40	-0.10854006
125	0x3ebf394b	0.373484
126	0xbf2cb0ef	-0.6745748
127	0xbce81afd	-0.028333182
128	0x3eb69608	0.3566134
129	0xbee54f0f	-0.4478688
130	0x3f6c492f	0.9229917
131	0x3ea59f01	0.32347873
132	0xbe5192d5	-0.20466168
133	0x3da8b76a	0.082381085
134	0x3f783f18	0.96971273
135	0xbe9795e2	-0.2960654
136	0x3f1c4443	0.6104166
137	0x3f53f114	0.8278973
138	0xbe9223e6	-0.28543013
139	0x3e0795e1	0.13240768
140	0x3f466412	0.77496445
141	0xbf10066c	-0.562598
142	0x3f2a49dd	0.66518956
143	0xbdacbce2	-0.08434464
144	0x3de5ab48	0.1121431
145	0x3eb4e9e9	0.3533471
146	0x3edb956e	0.42887443
147	0x3f38dffa	0.7221676
148	0x3e8d191d	0.27558222
149	0xbe2b8aae	-0.16752121
150	0xbeb260c6	-0.34839457
151	0x3dce41c0	0.100711346
152	0xbf3c665b	-0.7359368
153	0xbe914144	-0.28370106
154	0x3e9e605a	0.30932885
155	0x3f6485be	0.89266574
156	0x3f9213f3	1.1412338
157	0xbe91dfe9	-0.28491142
158	0xbd504983	-0.050851356
159	0x3e867ec4	0.2626859
160	0x3f4423c4	0.76617074
161	0x3d9e3e3a	0.077267125
162	0x3ebd099f	0.36921403
163	0x3f04e3a4	0.5190985
164	0x3e2dbe9c	0.16967243
165	0x3f54e427	0.8316063
166	0xbf14101b	-0.57837075
167	0xbd9e21bd	-0.07721279
168	0x3f1fcacc	0.6241882
169	0x3f2817e9	0.65661484
170	0x3db169e7	0.086627774
171	0xbf69df32	-0.91356194
172	0x3f3f00dd	0.7461069
173	0x3e706976	0.2347773
174	0x3ebd3f2f	0.36962268
175	0xbb8aea01	-0.004239321
176	0xbe9f7148	-0.31141114
177	0x3f1932ec	0.59843326
178	0x3f3cab7d	0.7369917
179	0x3b52ed15	0.003218477
180	0x3eaf30b1	0.34216836
181	0xbebf2b73	-0.37337837
182	0x3ee5c8df	0.44879815
183	0x3d002dee	0.031293802
184	0x3e25c147	0.1618701
185	0x3df0f634	0.117657095
186	0xbf6a445b	-0.9151055
187	0xbf007f63	-0.50194377
188	0x3ec9880c	0.39361608
189	0x3f116329	0.5679193
190	0x3eb5aa51	0.35481504
191	0x3ea6f1a1	0.32606223
192	0xbe944e3d	-0.2896594
193	0xbf131e21	-0.5746785
194	0xbecdb864	-0.4017974
195	0xbc646f34	-0.0139425285
196	0xbebee6cc	-0.3728546
197	0xbdb4a86e	-0.08821188
198	0xbec56e2f	-0.38560626
199	0xbe83f0ae	-0.25769562
200	0xbfdc1e2d	-1.7196709
201	0x3c8c75cb	0.017146012
202	0xbd77d237	-0.06050321
203	0xbf4be457	-0.79645294
204	0xbe8751cc	-0.26429594
205	0x3d9ee274	0.07758036
206	0xbe7edcd1	-0.24888922
207	0xbf1c3e7e	-0.61032856
208	0xbfb28171	-1.3945752
209	0xbebe2cea	-0.37143642
210	0xbe3c5d43	-0.18394952
211	0x3f0702c7	0.5273861
212	0x3eb8135f	0.3595228
213	0xbfafa691	-1.3722707
214	0xbdfee344	-0.12445691
215	0x3e346d96	0.17619929
216	0xbb4e3220	-0.0031462982
217	0xbf056001	-0.52099615
218	0x3dd73bdb	0.105094634
219	0x3d49e905	0.04929449
220	0xbdcb2a50	-0.0992018
221	0xbe5ff762	-0.21871713
222	0xbf095ff1	-0.5366202
223	0xbd858583	-0.06519606
224	0x3db18b24	0.08669117
225	0x3e17c395	0.14820702
226	0xbea222ff	-0.31667325
227	0xbf288651	-0.6582995
228	0xbd83ada4	-0.06429604
229	0xbf1521b2	-0.5825454
230	0xbe23d612	-0.1599963
231	0xbefa4cf8	-0.48886847
232	0xbd717f1d	-0.058959115
233	0xbdaf7a87	-0.08568292
234	0x3e250447	0.16114913
235	0xbe432c49	-0.19059862
236	0xbebac99e	-0.36481947
237	0x3de50d17	0.11184137
238	0xbed23906	-0.4105913
239	0xbe96632c	-0.29372537
240	0xbe8ff402	-0.2811585
241	0x3eb1c912	0.34723717
242	0x3e297be7	0.16551171
243	0x3c8120de	0.015762743
244	0x3e83398a	0.25629836
245	0xbf83e5e4	-1.0304532
246	0xbef50a0d	-0.4785923
247	0xbf820f09	-1.0160838
248	0x3e6001d7	0.21875702
249	0x3ee73f95	0.45165697
250	0xbd935108	-0.0719319
251	0x3e248c6c	0.16069192
252	0xbf0d6aa3	-0.5524084
253	0xbebfb5d8	-0.37443423
254	0xbebe75de	-0.371993
255	0xbf6c3774	-0.92272115

memory_rnn.weight_hh f4 [256, 64]
0	0x3e392e5f	0.18084095
1	0xbe6d462f	-0.23171304
2	0x3d6be9b6	0.05759593
3	0x3be9badf	0.0071328725
4	0x3eb0e064	0.34546196
5	0xbf3764de	-0.71638286
6	0x3ce8f954	0.028439201
7	0xbe630879	-0.22171201
8	0x3df92fd1	0.121673234
9	0xbf00e6c4	-0.5035212
10	0xbe3820ea	-0.17981306
11	0xbf203d2e	-0.6259335
12	0x3d3a1b5b	0.045436244
13	0xbd23c666	-0.03998413
14	0x3d80e992	0.0629455
15	0x3f544e24	0.82931733
16	0x3f4831da	0.7820107
17	0xbf9e174c	-1.235086
18	0xbfde9e3d	-1.739204
19	0xbf17375a	-0.59068835
20	0xbeb283db	-0.34866223
21	0xbe5e334d	-0.21699257
22	0x3eec979a	0.46209413
23	0x3f71603c	0.94287467
24	0x3f404986	0.7511219
25	0xbe97e467	-0.29666445
26	0x3ebb8e0f	0.3663182
27	0xbd4d9417	-0.050190058
28	0x3fff94f4	1.9967332
29	0x3e207d35	0.15672763
30	0x3ec78731	0.3897033
31	0x3d98f947	0.07469421
32	0x3e6e3f47	0.23266326
33	0x3f45b29b	0.77225655
34	0xbf0e1448	-0.55499697
35	0xbfb5c9ae	-1.4202173
36	0xbf79a486	-0.9751667
37	0x3f8cc331	1.0997068
38	0xbf64789d	-0.8924654
39	0xbf8ebcb4	-1.1151338
40	0x3e873219	0.2640541
41	0x3da165f6	0.07880776
42	0xbdd3357b	-0.10312935
43	0x3e80a74c	0.25127637
44	0xbe42f3c8	-0.19038308
45	0xbda00a37	-0.07814448
46	0x3f22c0ee	0.6357564
47	0x3f3ce01d	0.7377947
48	0xbece1896	-0.40253133
49	0x3ed56ed7	0.41686127
50	0x3fbb4671	1.4630872
51	0xbf9390f7	-1.1528615
52	0xbea3417f	-0.31885907
53	0xbec3205d	-0.3811063
54	0x3f0b963a	0.545261
55	0x3edff547	0.4374182
56	0x3f015cd0	0.50532246
57	0xbecb48f3	-0.39704093
58	0xbddf7098	-0.109101474
59	0x3f17c21e	0.59280574
60	0x3f2358a3	0.63807124
61	0x3f00333e	0.5007819
62	0xbf874188	-1.0566874
63	0x3f3ed6cc	0.74546504
64	0xbd8d0279	-0.06885237
65	0xbe67876f	-0.22610258
66	0x3eb5a99e	0.3548097
67	0x3ef143d8	0.47122073
68	0xbe44945b	-0.19197218
69	0xbee8bfc2	-0.454588
70	0xbe04058d	-0.12892742
71	0x3d4de869	0.05027047
72	0xbe3a206e	-0.18176433
73	0xbf4a1793	-0.7894222
74	0xbfa4d4b5	-1.2877413
75	0x3f3d8190	0.7402582
76	0xbeebbecb	-0.46044
77	0x3ef20039	0.47265795
78	0x3ed78d17	0.4209983
79	0x3f361a8f	0.71134275
80	0x3e0d3397	0.13789211
81	0xbe6690a2	-0.2251611
82	0x3f0dedba	0.55440867
83	0xbef95843	-0.4870015
84	0xbeb37c4e	-0.35055774
85	0x3d8d9b7b	0.06914421
86	0x3e76ab88	0.24088871
87	0xbd90c604	-0.070690185
88	0xbe284a21	-0.16434528
89	0xbf565c78	-0.83734846
90	0x3e3667c0	0.17813015
91	0x3e4bfd97	0.19920956
92	0x3fa9595f	1.3230399
93	0x3f72f14b	0.94899434
94	0x3ea569e6	0.32307357
95	0x3ea22314	0.31667387
96	0x3edad289	0.4273875
97	0x3e87396a	0.2641099
98	0xbf5ca355	-0.86186725
99	0xc01ede03	-2.4823005
100	0x3b8334c4	0.004004093
101	0x3e8bd12e	0.2730803
102	0x3ea5fd7a	0.3241995
103	0xbf4c1c97	-0.79731125
104	0x4018a123	2.384835
105	0xbef2b28c	-0.47401845
106	0xbeb257fc	-0.34832752
107	0xbedf30e8	-0.43592
108	0xbebc559a	-0.3678406
109	0x3f74eaee	0.95670974
110	0xbe8434bd	-0.25821486
111	0xbeb2c8a7	-0.3491871
112	0x3eb4a4d0	0.35281992
113	0x3d51f6d4	0.051260784
114	0x3f22af7f	0.63549036
115	0x3d14b0e4	0.03630151
116	0xbf90a2eb	-1.1299719
117	0x3df72652	0.12067856
118	0x3f29a844	0.6627238
119	0xbf72819d	-0.94729024
120	0xbd104d83	-0.03523017
121	0xbf062f10	-0.5241556
122	0xbf2c6c16	-0.67352426
123	0x3eababa6	0.33529395
124	0x3ef58feb	0.47961363
125	0x3f2d16a1	0.67612654
126	0x3e06abd9	0.13151492
127	0x3f233e9d	0.63767415
128	0xbca68fc0	-0.020332217
129	0x3e53565e	0.20638415
130	0xbf069fd8	-0.5258765
131	0xbec5ebb1	-0.3865638
132	0xbf09b234	-0.5378754
133	0x3e745051	0.23858763
134	0x3f5a9c1c	0.85394454
135	0x3ec8fb01	0.39254
136	0xbebdb170	-0.37049437
137	0x3e81194a	0.25214607
138	0xbf93769c	-1.1520572
139	0x3f9fee0d	1.2494522
140	0x3f398f28	0.72484064
141	0x3f98ff7c	1.1952968
142	0xbf9a72f7	-1.2066334
143	0x3f7d9b56	0.9906515
144	0x3f50cfcc	0.8156707
145	0xbf4136ee	-0.7547444
146	0xbe988ced	-0.29795018
147	0xbedbfe24	-0.4296733
148	0xbeff281d	-0.49835292
149	0xbf21b6a7	-0.6316933
150	0xbeee921b	-0.46595845
151	0x3e556c72	0.2084215
152	0xbf01e7b1	-0.5074416
153	0xbf0f6ba0	-0.560236
154	0x3efda856	0.49542493
155	0x3dfbc5bb	0.122935735
156	0xbf5cd857	-0.8626761
157	0x3e2e5990	0.17026353
158	0xbec6ccd2	-0.3882814
159	0xbea5056d	-0.32230702
160	0xbe9d109a	-0.30676728
161	0x3fdf5bd2	1.7449896
162	0x3f345548	0.7044263
163	0xbf5e0971	-0.86733156
164	0x3eddf403	0.4335023
165	0xbf0eeb89	-0.5582815
166	0x3ec7a9ad	0.3899664
167	0xbf3cc9d0	-0.7374544
168	0xbe083aac	-0.13303632
169	0xbf3f981f	-0.74841493
170	0x3df0f678	0.1176576
171	0xbfc4e77d	-1.5383145
172	0xbf009b76	-0.50237215
173	0xbe957145	-0.2918798
174	0x3e85e0e3	0.26148137
175	0x3e95637a	0.29177457
176	0xbef0ba7c	-0.47017276
177	0x3e64f2d3	0.22358255
178	0x3ef0832a	0.4697507
179	0xbe7ee036	-0.24890217
180	0x3e8f7a9a	0.28023225
181	0xbb9ee350	-0.004848875
182	0xbeea1f45	-0.45726982
183	0xbe98120f	-0.29701278
184	0x3e41c068	0.18921053
185	0x3dbbff09	0.091795035
186	0xbcdf161c	-0.027232222
187	0x3ef9691e	0.4871301
188	0x3e66a665	0.22524412
189	0x3f2cff41	0.67576987
190	0xbf70fd6d	-0.941367
191	0xbe904d28	-0.28183866
192	0x3a90518c	0.0011010631
193	0x3f82aeed	1.0209633
194	0xbed9c848	-0.42535615
195	0x3e6167f8	0.22012317
196	0xbf00907a	-0.50220454
197	0xbda187b2	-0.0788721
198	0x3e3f82d8	0.18702257
199	0x3fcb0dc5	1.5863577
200	0x3f18b379	0.59648854
201	0x3f5d727e	0.86502826
202	0xbffa7b3b	-1.9568857
203	0x3e08f8bc	0.13376135
204	0xbed7f768	-0.42180943
205	0x3f1fb4f3	0.6238548
206	0x3de24353	0.11047997
207	0x3f09b616	0.53793466
208	0xbe075081	-0.13214304
209	0xc0096786	-2.1469436
210	0xbc5636d8	-0.013074599
211	0x3fa399b5	1.2781283
212	0xbf2957f5	-0.66149837
213	0x3edc6fca	0.43054038
214	0x3ee87329	0.4540036
215	0x3f08e0f0	0.5346823
216	0x3df71f7b	0.12066551
217	0x3d2dbb80	0.042415142
218	0x3e214985	0.15750702
219	0x3eaf4912	0.34235436
220	0xbf338ecd	-0.7013977
221	0xbf8f732e	-1.1207025
222	0x3e1df1e0	0.15424299
223	0x3e487895	0.19577248
224	0x3f0a0f55	0.53929645
225	0x4001ae3d	2.0262597
226	0x3eb3ed79	0.35142115
227	0xbfa6ca6b	-1.3030523
228	0xbf3501ca	-0.70705855
229	0xbea4b7f3	-0.32171592
230	0xbf0d801a	-0.5527359
231	0x3f25b215	0.64724857
232	0x3f93d98c	1.1550765
233	0xbd5cace9	-0.053875837
234	0x3e98ecae	0.29868072
235	0x3f0c8223	0.5488607
236	0x3e33aa72	0.17545488
237	0x3f47db9b	0.78069466
238	0xbec65f0c	-0.3874439
239	0x3ef0be6d	0.47020283
240	0x3ec82088	0.3908732
241	0xbf0cb516	-0.54963815
242	0x40169f4a	2.3534722
243	0x3f4246bb	0.75889176
244	0xbdc34fdd	-0.09536717
245	0x3f2caa11	0.67447
246	0x3f1f38cf	0.6219606
247	0xbf66aa04	-0.90103173
248	0x3f0308a3	0.51185054
249	0xbf84a330	-1.0362301
250	0x3d38b761	0.04509676
251	0x3fd008d7	1.6252698
252	0x3fa3589a	1.2761414
253	0x3dd3b01d	0.10336325
254	0xbf0c0f90	-0.54711246
255	0xbe79e05f	-0.24401997

memory_rnn.bias_ih f4 [256]
0	0xbe2c6b96	-0.16837916
1	0xbf16f94b	-0.5897414
2	0xbee81719	-0.45330122
3	0xbed3c832	-0.41363674
4	0x3e25366d	0.16134043
5	0xbf24d609	-0.6438909
6	0xbed6b72b	-0.4193662
7	0xbe627d7c	-0.22118181
8	0xbf7b1a58	-0.9808707
9	0xbf5fe3a9	-0.87456757
10	0xbe35113c	-0.17682356
11	0x3e43a143	0.19104485
12	0xbdb31ada	-0.08745356
13	0xbf84f339	-1.0386726
14	0xbf2c98fb	-0.6742093
15	0xbe81f541	-0.25382426
16	0xbd99b2fd	-0.075048424
17	0xbf8588a6	-1.0432327
18	0xbfda2438	-1.7042303
19	0xbf18a3ae	-0.59624755
20	0xbc0ac839	-0.008470588
21	0xbf9aa5f5	-1.2081896
22	0xbf7b84a4	-0.9824927
23	0xbf918edc	-1.1371722
24	0xbeef9ecf	-0.4680085
25	0xbf7ce4a1	-0.9878636
26	0xbe17ce36	-0.14824757
27	0x3e3bd6e8	0.18343699
28	0xbfba64aa	-1.456197
29	0xbeae221b	-0.34010395
30	0xbf2b3021	-0.66870314
31	0x3e7f9ee6	0.24962959
32	0xbe886a00	-0.26643372
33	0xbeb80e45	-0.35948387
34	0xbda1e7ba	-0.079055265
35	0xbf89fd42	-1.0780413
36	0x3defe207	0.11713033
37	0xbe966e6d	-0.29381123
38	0xbf087189	-0.5329824
39	0xbf0f5448	-0.5598798
40	0xbfb16ab7	-1.3860692
41	0x3dd58112	0.10425009
42	0x3cf5b5f4	0.029993989
43	0xbe2c460b	-0.16823594
44	0x3dc54f76	0.096342966
45	0xbe4203b6	-0.18946728
46	0xbf1871cb	-0.59548634
47	0xbe3d98a8	-0.18515265
48	0xbdfbfb4a	-0.12303789
49	0x3ddc23db	0.107490264
50	0xbebb24f0	-0.3655162
51	0xbf5f9ee7	-0.8735184
52	0xbfc057e3	-1.5026821
53	0x3dc339fb	0.09532543
54	0xbf186617	-0.59530777
55	0xbf268a7b	-0.65055054
56	0xbe8cbd71	-0.27488282
57	0x3d8e0080	0.06933689
58	0xbee42cf7	-0.44565555
59	0xbe09a51c	-0.1344189
60	0xbf9ecf8e	-1.2407091
61	0xbb8bfc32	-0.0042720074
62	0xbe02d3bf	-0.12776087
63	0xbe418a11	-0.18900324
64	0xbc3fafb8	-0.011699609
65	0x3e92e7e2	0.28692538
66	0xbd1db63f	-0.03850388
67	0xbd4f5733	-0.05062027
68	0xbce8e99a	-0.028431702
69	0x3de92297	0.113835506
70	0xbe2a2743	-0.1661654
71	0xbeb5280a	-0.3538211
72	0x3d2a739e	0.041614167
73	0x3eaabba1	0.33346274
74	0x3ca130b4	0.019676544
75	0x3d7442f6	0.05963417
76	0xbe37c34e	-0.17945597
77	0x3ef55fc6	0.47924632
78	0xbede95dc	-0.4347371
79	0x3d9348cb	0.071916185
80	0xbe2ff812	-0.17184475
81	0x3ee7eb3a	0.4529665
82	0x3e8c9f8b	0.27465472
83	0xbee31a3c	-0.44355953
84	0xbf34643b	-0.7046544
85	0x3e19747c	0.14985842
86	0xbd6549dc	-0.05597864
87	0xbd86760c	-0.065654844
88	0xbe896b71	-0.26839784
89	0x3e9c8dcf	0.3057694
90	0xbecbc968	-0.39802098
91	0xbe86d589	-0.2633479
92	0xbcd127c3	-0.025531655
93	0x3d31fa9f	0.0434519
94	0xbcf637d1	-0.030055912
95	0xbd8e2906	-0.06941418
96	0xbe004946	-0.12527952
97	0x3e0376aa	0.12838235
98	0xbdecd71b	-0.115644656
99	0x3c9aa247	0.018876208
100	0x3f6d0734	0.92589116
101	0xbd8fff20	-0.07031083
102	0xbea32900	-0.31867218
103	0x3e4e591f	0.20151184
104	0xbe8d8c43	-0.27646074
105	0xbef7d840	-0.48407173
106	0xbcc7aee6	-0.02437539
107	0xbeb4f020	-0.3533945
108	0xbe8eac31	-0.27865747
109	0xbcba00c8	-0.02270545
110	0xbdd3dd01	-0.103448875
111	0xbe720dc5	-0.23638065
112	0xbeb35c99	-0.35031584
113	0x3ee16397	0.44021294
114	0xbf024fb7	-0.50902885
115	0x3e1cea62	0.15323785
116	0xbd61c21a	-0.05511675
117	0xbe5b34e3	-0.21406893
118	0xbf117a4c	-0.56827235
119	0x3ecf3f36	0.40477914
120	0xbdf7e4be	-0.12104176
121	0xbf23c3d3	-0.6397068
122	0x3f105926	0.5638603
123	0x3ecd6ee5	0.40123668
124	0x3e2d61c6	0.16931829
125	0xbd1f0304	-0.038821235
126	0xbe183548	-0.14864075
127	0xbee33cd9	-0.4438236
128	0x3eb13244	0.34608662
129	0x3ddff9df	0.10936331
130	0xbe6457c2	-0.22299102
131	0x3dc04691	0.093884595
132	0x3e530400	0.20606995
133	0xbe3cba89	-0.18430533
134	0xbbeea475	-0.0072827884
135	0x3a9f49e0	0.0012152754
136	0xbb07e91d	-0.0020738312
137	0x3e5dcca8	0.21660101
138	0xbe189b23	-0.1490293
139	0x3e144a1a	0.14481393
140	0x3d2c74ac	0.042103454
141	0xbe1d4584	-0.1535855
142	0xbdd1b244	-0.102390796
143	0xbb831a0f	-0.004000909
144	0x3e8b760c	0.272385
145	0x388f6db2	6.839204e-05
146	0xbdee418e	-0.11633597
147	0x3e76a570	0.24086547
148	0x3d9a708b	0.07540997
149	0xbe4bfd88	-0.19920933
150	0xbb8108cb	-0.003937816
151	0x3c842e56	0.016135376
152	0x3ea7a05f	0.3273954
153	0xbe08bc16	-0.13352999
154	0x3e4ebdb2	0.2018955
155	0xbe9e6713	-0.30938014
156	0x3e8fa7a9	0.28057602
157	0x3dffe234	0.12494317
158	0xbe2da934	-0.16959077
159	0x3d7af3d6	0.061267696
160	0x3d9cf96e	0.076647624
161	0x3d86baa9	0.06578571
162	0xbe48206f	-0.19543622
163	0xbdc0e8c8	-0.094193995
164	0x3e9520ae	0.29126495
165	0xbe4c839d	-0.19972081
166	0x3e9cf592	0.30656105
167	0xbd2b13a3	-0.041766774
168	0x3d4a3899	0.049370382
169	0xbeaab288	-0.33339334
170	0xbdb48d3e	-0.08816002
171	0xbd6f19f1	-0.05837435
172	0x3dd4a244	0.10382512
173	0xbf04cf0d	-0.51878434
174	0x3d01df27	0.031706955
175	0xbdbd8a2a	-0.09254868
176	0xbe8114d0	-0.2521119
177	0xbe5f320a	-0.21796432
178	0xbd5b6725	-0.053565163
179	0x3d4b474e	0.04962855
180	0x3dcf4d97	0.10122221
181	0x3e47b665	0.19503172
182	0xbeaf4854	-0.3423487
183	0x3dd84a10	0.10561001
184	0xbd94388a	-0.072373465
185	0xbdda23fe	-0.10651396
186	0x3ebdeee4	0.37096322
187	0x3ddddd70	0.108332515
188	0x3e546ad4	0.20743877
189	0x3dd6a8a2	0.10481383
190	0x3d83809d	0.064210154
191	0x3e6ab464	0.22920376
192	0xbe5dd26d	-0.21662302
193	0x3e11dfb9	0.142455
194	0xbf202fbf	-0.62572855
195	0xbeda93bf	-0.42690846
196	0x3de0d9e9	0.10979063
197	0xbe50a1fe	-0.20374295
198	0xbed2b607	-0.411545
199	0xbdaaee72	-0.08346261
200	0xbcab78bd	-0.020931596
201	0xbf159112	-0.58424485
202	0xbecf8ab5	-0.40535513
203	0x3d9853cf	0.0743786
204	0x3d590976	0.05298754
205	0x3dac6a99	0.084187694
206	0xbe96af51	-0.2943063
207	0xbea7f802	-0.32806402
208	0x3eba687f	0.3640785
209	0x3eea5b77	0.45772907
210	0x3e0d45e7	0.13796197
211	0xbf151364	-0.5823271
212	0xbe3fa393	-0.18714742
213	0x3df073be	0.11740826
214	0x3c6b0f28	0.014346875
215	0xba88e488	-0.0010444084
216	0xbe398729	-0.18117966
217	0x3da7f56a	0.08201106
218	0xbe930ef2	-0.2872234
219	0xbec4efab	-0.38464102
220	0xbdd3a00d	-0.10333262
221	0xbf1fb55f	-0.62386125
222	0xbf0ec4fa	-0.5576931
223	0xbedff95f	-0.43744943
224	0x3e0da903	0.13834004
225	0xbe07ff2a	-0.13280931
226	0xbf12ac71	-0.57294375
227	0x3dec7311	0.11545385
228	0xbefd94a4	-0.49527466
229	0xbe840f5c	-0.25792968
230	0xbed9e071	-0.42554048
231	0xbeb2eb89	-0.34945324
232	0xbef7b030	-0.48376608
233	0xbe8d9f90	-0.276608
234	0xbdfb8fee	-0.12283312
235	0xbefe1046	-0.4962179
236	0xbea2df2f	-0.318109
237	0xbf1c8bac	-0.6115062
238	0xbeb6f238	-0.35731673
239	0xbebbff8d	-0.36718407
240	0xbe79ad3e	-0.24382493
241	0xbecd4036	-0.40088052
242	0xbee75293	-0.45180187
243	0xbdc4f6f7	-0.09617417
244	0x3e84ecee	0.25962013
245	0x3e985d65	0.29758754
246	0xbf3d0b02	-0.7384492
247	0x3eb12c95	0.34604326
248	0xbb7a9392	-0.0038234931
249	0xbee58a63	-0.44832143
250	0xbeb874e4	-0.3602668
251	0x3d89137f	0.06693172
252	0x3e992c00	0.29916382
253	0xbddde5cb	-0.10834845
254	0x3d82d8c7	0.06389003
255	0xbed9a124	-0.42505753

memory_rnn.bias_hh f4 [256]
0	0xbea8b3d1	-0.3294969
1	0xbed9012d	-0.4238371
2	0xbebeb93d	-0.372507
3	0xbeacab16	-0.33724278
4	0x3eb9011a	0.36133653
5	0xbf0cf9c7	-0.5506863
6	0xbeef118b	-0.46693072
7	0xbe9a791f	-0.30170533
8	0xbf70529d	-0.9387606
9	0xbf514bab	-0.81756085
10	0xbe3a1c9e	-0.18174979
11	0x3eb394dc	0.35074508
12	0x3db07b0a	0.08617218
13	0xbf801e7b	-1.0009302
14	0xbf1ec03f	-0.62012094
15	0xbe78c3e2	-0.24293473
16	0x3d14f499	0.03636608
17	0xbf6692f7	-0.90068
18	0xbfcd45e6	-1.6036956
19	0xbf3727b2	-0.71544945
20	0x3d804e4a	0.062649325
21	0xbf82aad9	-1.0208389
22	0xbf810876	-1.0080707
23	0xbf8ca10e	-1.098665
24	0xbe804cbc	-0.25058544
25	0xbf8dda48	-1.1082239
26	0xbdeafce0	-0.11474013
27	0x3e9a9efe	0.30199426
28	0xbfceca6e	-1.6155527
29	0xbeef8199	-0.46778563
30	0xbef61202	-0.48060614
31	0x3e8cc542	0.27494246
32	0xbe4fd5d4	-0.20296413
33	0xbefe6dbf	-0.49693105
34	0xbe5bfa87	-0.21482287
35	0xbf74f3fe	-0.956848
36	0x3d87b775	0.066267885
37	0xbe7f1a29	-0.24912323
38	0xbecc0772	-0.3984943
39	0xbf152468	-0.58258677
40	0xbfb5605b	-1.417003
41	0xbdb91370	-0.090369105
42	0xbd1705a9	-0.036870632
43	0xbe24b7ad	-0.16085692
44	0x3d820650	0.0634886
45	0xbdfabf07	-0.12243467
46	0xbf0ef239	-0.5583835
47	0xbe9adc4b	-0.30246195
48	0xbd3d455d	-0.046208728
49	0x3e088c59	0.13334788
50	0xbed4d58a	-0.41569167
51	0xbf804599	-1.002124
52	0xbfc73067	-1.5561646
53	0x3eace30f	0.33766982
54	0xbf2d4171	-0.6767798
55	0xbf3a5edb	-0.7280099
56	0xbe8829ad	-0.26594296
57	0x3d982174	0.07428256
58	0xbf080a78	-0.53140974
59	0xbe288796	-0.16457972
60	0xbfa29816	-1.2702663
61	0xbe1fd7dc	-0.15609688
62	0xbe964e48	-0.293566
63	0xbdcb3cbc	-0.099236935
64	0xbce4d1ad	-0.027932012
65	0x3eba7852	0.36419922
66	0xbbedbc85	-0.0072551393
67	0x3e400558	0.18752038
68	0xbca4535d	-0.020059282
69	0x3d65b51b	0.05608092
70	0xbe58fc7f	-0.2119007
71	0xbea19fda	-0.3156727
72	0x3cad84ce	0.02118149
73	0x3e4dbb22	0.20090917
74	0x3ded3f66	0.11584358
75	0x3e3a0f49	0.18169893
76	0xbe1d7cbe	-0.15379617
77	0x3eb3b97d	0.35102454
78	0xbe8838ed	-0.2660593
79	0x3e042985	0.12906463
80	0xbe5d866e	-0.21633312
81	0x3ec2b524	0.38028824
82	0x3e589a1d	0.2115254
83	0xbee0a06d	-0.43872395
84	0xbf482ebb	-0.78196305
85	0x3e54bc62	0.20774987
86	0xbdbe6e6f	-0.09298407
87	0xbdc5af2b	-0.09652551
88	0xbe2bc83c	-0.16775602
89	0x3e86184b	0.2619041
90	0xbe92f65a	-0.28703576
91	0xbedc8c9b	-0.43076023
92	0x3e04af5d	0.12957521
93	0xbc526536	-0.012841513
94	0xbdaf4e07	-0.085598044
95	0xbe4d8489	-0.2007009
96	0xbd975915	-0.07390038
97	0x3de86afd	0.113485314
98	0xbe796e1b	-0.24358408
99	0xbc44b95e	-0.012007086
100	0x3f8f6b74	1.1204667
101	0x3d8d05fd	0.06885908
102	0xbea60786	-0.32427615
103	0x3e8e1365	0.27749172
104	0xbe5ea3f7	-0.21742235
105	0xbeeaa297	-0.4582717
106	0xbe1cc656	-0.15310034
107	0xbea78028	-0.32714963
108	0xbe0ebbd0	-0.13938832
109	0xbddca464	-0.107735425
110	0xbddc713f	-0.107637875
111	0xbe510c02	-0.20414737
112	0xbea1bd05	-0.31589523
113	0x3ece88d1	0.40338758
114	0xbf170242	-0.5898782
115	0x3dbaa410	0.09113324
116	0x3e243391	0.16035296
117	0xbe8c9d14	-0.2746359
118	0xbf049e68	-0.5180421
119	0x3e9d9143	0.30774888
120	0xbd8531e7	-0.06503659
121	0xbf3093b7	-0.68975395
122	0x3ed83717	0.4222953
123	0x3eb4af97	0.35290214
124	0x3e100700	0.1406517
125	0xbe205649	-0.15657915
126	0xbe7e6994	-0.24844962
127	0xbeac3214	-0.33631957
128	0x3e84be51	0.2592645
129	0x3df5b108	0.11996657
130	0xbe630096	-0.22168192
131	0x3de7436f	0.11292159
132	0x3e80669d	0.25078288
133	0xbdafeca0	-0.085900545
134	0xbe48e4b7	-0.19618498
135	0x3dba5de0	0.090999365
136	0x3dda363e	0.10654877
137	0x3e30cd58	0.17265832
138	0xbe0f56c0	-0.13997936
139	0x3e8416e7	0.25798723
140	0x3c8cc72a	0.017184813
141	0xbe3e9600	-0.18611908
142	0xbd47ea4a	-0.04880742
143	0x3d29e63a	0.041479327
144	0x3e8ce67e	0.27519602
145	0xbcc23597	-0.023707194
146	0xbe293a0f	-0.16526054
147	0x3e2bdc0a	0.16783157
148	0x3dec9632	0.11552085
149	0xbec4eacb	-0.38460383
150	0x3bd262c1	0.006420464
151	0x3d0b7c3f	0.034054037
152	0x3e680de7	0.22661553
153	0x3d22f1ff	0.039781567
154	0x3e5aa0ae	0.21350357
155	0xbe99532e	-0.29946274
156	0x3e9c4acd	0.30525818
157	0x3e024118	0.12720144
158	0xbea9b3f8	-0.33145118
159	0xbdae7739	-0.08518834
160	0x3e01f445	0.12690838
161	0x3e4240d8	0.18970048
162	0xbe0409c1	-0.12894346
163	0xbdc9e850	-0.09858763
164	0x3e7babec	0.24577302
165	0xbea8ce6d	-0.3296999
166	0x3e7002a6	0.2343851
167	0xbd2857d1	-0.041099373
168	0xbe2f7ea6	-0.17138156
169	0xbe7008be	-0.23440835
170	0x3da7a34a	0.08185442
171	0x3c862c65	0.01637859
172	0x3e15a5d7	0.14614044
173	0xbea1e8b1	-0.31622842
174	0x3dc13eb4	0.09435788
175	0xbdba9e40	-0.09112215
176	0xbe4dffcd	-0.20117112
177	0xbe17e723	-0.14834265
178	0xbdc139c1	-0.09434844
179	0x3c762ce9	0.015025356
180	0x3dffe07a	0.124939874
181	0x3d956aad	0.072957374
182	0xbeb364e2	-0.35037905
183	0x3df6935e	0.12039827
184	0xbd6b6e20	-0.05747807
185	0xbd84de92	-0.064877644
186	0x3e98d44c	0.2984947
187	0x3db69a66	0.08916168
188	0x3d14c200	0.036317825
189	0x3dbde38e	0.09271918
190	0xbc581e10	-0.013190761
191	0x3e11a6a8	0.1422373
192	0xbe5204d8	-0.2050966
193	0x3e72fa8d	0.2372839
194	0xbf3189b3	-0.6935074
195	0xbe84ce6d	-0.2593874
196	0xbd8c46fa	-0.06849475
197	0xbe42f4ee	-0.19038746
198	0xbe8dc5d9	-0.27690008
199	0xbe32063d	-0.17385192
200	0x3cc14201	0.023591043
201	0xbf2262b0	-0.63431835
202	0xbef7fddc	-0.48435867
203	0x3e24542d	0.16047736
204	0xbd9b45c7	-0.07581668
205	0x3dd343d4	0.103156716
206	0xbdc620ca	-0.09674223
207	0xbedc31c2	-0.43006712
208	0x3e57cead	0.21074934
209	0x3f1441c5	0.57912856
210	0x393e5211	0.00018150384
211	0xbf2b2810	-0.66858006
212	0xbe46b7e5	-0.19406088
213	0x3c88955f	0.016672788
214	0x3de7faa1	0.113271005
215	0xbdf46a5b	-0.11934348
216	0xbebce804	-0.36895764
217	0x3dd0697f	0.10176372
218	0xbebe2c30	-0.37143087
219	0xbe8d5b83	-0.2760888
220	0x3d81aabf	0.06331395
221	0xbf104dea	-0.5636889
222	0xbf0d2487	-0.5513386
223	0xbed9a18d	-0.42506066
224	0x3e68f8c6	0.2275115
225	0xbcf6abb4	-0.030111171
226	0xbf45c949	-0.7726026
227	0x3e3ecd24	0.18632942
228	0xbeeccfd7	-0.4625232
229	0xbdc33b00	-0.09532738
230	0xbf207f3a	-0.6269413
231	0xbe925b3a	-0.28585225
232	0xbec8dd8d	-0.3923153
233	0xbea8058a	-0.32816726
234	0x3d42e588	0.04758218
235	0xbf1499cd	-0.5804718
236	0xbea42080	-0.32056046
237	0xbf16cb20	-0.58903694
238	0xbeb9ce2c	-0.3629011
239	0xbf03ecc8	-0.51533175
240	0xbe20242d	-0.156388
241	0xbe92ad44	-0.28647816
242	0xbebb77e9	-0.36614922
243	0xbe6cab4a	-0.23112217
244	0x3eab5ebd	0.33470717
245	0x3e7ca8b9	0.24673738
246	0xbf3cceec	-0.7375324
247	0x3ed89c84	0.42306912
248	0xbd0723d4	-0.032993153
249	0xbe6f615a	-0.2337698
250	0xbed5ebfc	-0.41781604
251	0x3e816d0f	0.25278518
252	0x3ebdafea	0.37048274
253	0xbe96ea49	-0.2947562
254	0x3e2f8018	0.17138708
255	0xbee4f112	-0.44715172
